data/RNN_runs/sweep2_H2/rnn_sto3g_H2_0-7348_eq1_nU50_nL1_lr005_lrsO_ns1000.pt (torch_old, 92427 bytes, 9 tensors)

weight_ih f4 [150, 2]
00000000: e471 ebbd 943a 633e b4c4 94be 5295 a63e
00000010: c851 21be de5a c53e 66e6 3ebe 10a5 053d
00000020: 4eb5 9abd 99d6 c43e 8d16 783e ec5d d33e
00000030: 5b76 f4bc 9e15 5f3e 8150 98bd 160e 4d3e
00000040: 65b2 e9bd 12f9 963e 6cc2 1ebe ab8c b73e
00000050: 3a5a 8d3d e8fc 6f3e 95f1 383a 4205 cf3e
00000060: 252a bf3d 06be 033f 9c2b d1bd f6e5 a03d
00000070: 8261 423e d657 983d 748d 3b3e 55c6 cbbd
00000080: f2fe ea3c 4cd8 77bd b159 db3d dcaf 9a3e
00000090: a5e9 ccbd 7ba6 8b3e b31f b6bd e741 ce3e
000000a0: b697 b7bd 4961 b13d f50e 933c 70f9 d53e
000000b0: d804 be3d 9ea2 bd3e d16c b73b c132 963e
000000c0: c098 92bc b0f4 ac3e 6203 983e f167 523f
000000d0: 4fd9 953d c1a7 d83e 8b55 49bd ef59 18be
000000e0: 0818 063b 1e10 f63e 5e28 0bbe 3fd9 103e
000000f0: 67b2 023e e461 923f a520 f7bd db50 943d
00000100: 2ddc 4abd 44c1 703e b2f2 27be d0e6 0ebd
00000110: f141 87bc fab3 4d3f 8c66 ee3d eadd 2c3e
00000120: 167f 00be 6d1c 133e 633e 423e a0e2 6a3f
00000130: bd1f 143e 61b8 14be 0b49 893c a4eb 9f3d
00000140: 0d69 003f 4d8a ad3e 46b8 8a3d a5a6 063f
00000150: b6c3 f1bd feb7 c43e e07d 87bd b928 b83e
00000160: 7c69 7b3e 6322 e83e 5418 8f3a be8b a93e
00000170: b1e7 06bd af1d 423e d509 e23b a0fd b43e
00000180: a9e4 123d 10c7 f83e 3cd1 4c3e 182b 843e
00000190: 131d a63d 0661 f7be a568 b9bc 6260 ebbe
000001a0: 098f a9bd bc7e ebbe abaa 94bd ed53 64be
000001b0: 2866 563c c9bf 2cbf 9ddd 5cbe 748f cfbe
000001c0: e9bb 01be aea9 8ebe 8562 bf3c 4bd4 87be
000001d0: 0e56 f1bd 99df 42be 0448 a93d d982 e9bd
000001e0: 735c babd 8870 c7be 7539 0d3e 5786 c7be
000001f0: ea2a 56bd 63c3 35bf a1d3 cf3d 438a 9ebe
00000200: 1b77 f9bc 2703 56bf 95a7 acbd b610 a0bd
00000210: 25a6 5dbd 782f 7bbe ac34 9abd b430 55bf
00000220: 15d1 083e c610 a9be 4a6e 963c ac1a 17bf
00000230: c908 363c 2772 c1be 0770 d83c f6bb 2dbe
00000240: 3ccc ea3c 0e85 66bf f853 96bd e7fc afbe
00000250: 9b1d f7bd 6eed d0be fd6b 9bbe 99b5 72bf
00000260: e060 79bd 15a0 1fbe 138e 673a d97c 85be
00000270: c198 a6bd a21a 25bf 6c65 0abe e336 9ebe
00000280: 6a6d 83b9 d8bd a2bf 0135 0abe 1a81 40bf
00000290: e54a 133e 76a5 0ebe 07aa d83c 55bb 20be
000002a0: 603b d7bd edaa 54bf 42cc b7bb 2cf5 09bf
000002b0: db8b 69bc 1fdd 8ebe a2dc 67be 3120 77bf
000002c0: 9091 34be 8996 33bf 2b06 d63d 0770 e63d
000002d0: e126 753d 3837 b2be 4c6a 2b3e 3263 10bf
000002e0: 0950 51be 19a2 f4be 1360 95bd ee93 32be
000002f0: 5496 893b b311 33bf 0335 89bc d094 2dbf
00000300: 7621 303c 2af2 81be ba23 e3bd 399a 0dbf
00000310: 4752 f93c 4d9e e6be 416b 923d 6f72 a2be
00000320: aa99 debc 519a 8abe 80a7 24bc 0712 8b3e
00000330: 3a12 dcbd c44a 93be 19d9 27bd c88b 89be
00000340: 4605 22bc 5ab6 183f 7581 8cbc 79a7 aabe
00000350: 98dd 363e 6257 a3be 0c73 723d 6e5f 433e
00000360: 20cc 0a3e 9a51 413e 146b 65bd 5651 4e3e
00000370: d53c 0bbe 5b6b d1be 4f47 bb3d 2218 5d3e
00000380: 3fa5 283e 3c25 45bf 6d4e aebd 914a cdbe
00000390: 12f0 803d 07ff 933e 0417 84bd 25ee dfbe
000003a0: 8357 0dbe 7690 9cbe 8ef4 d4bb 7459 19bf
000003b0: 8d95 d73c 8178 8dbe d4d8 33be 198d 053f
000003c0: b244 633d e1df 6c3e 8981 26be 55f6 7bbe
000003d0: 435c 5f3e 6a33 8abe 0be3 34be 072b aebe
000003e0: ac7d 1f3e b15e a03e 46a3 6b3e cebf 28bf
000003f0: 9836 4a3e ff00 223e aa44 9c3c 4c68 943e
-0.11496332 0.22190315 -0.29056323 0.32535797 -0.15753853 0.3854589 -0.18642578 0.03262812
-0.075541124 0.38444975 0.24227352 0.41282594 -0.029841593 0.2178559 -0.0743723 0.20024905
-0.11410979 0.294869 -0.15503854 0.3584951 0.06901975 0.2343632 0.00070550415 0.404337
0.0933421 0.5146183 -0.10213396 0.078563616 0.18982509 0.074386284 0.18315679 -0.09949938
0.02868602 -0.06050901 0.10710467 0.30212295 -0.10005502 0.27275452 -0.08892765 0.40284654
-0.089644834 0.08661134 0.017951468 0.41791868 0.092782676 0.3703813 0.0055976887 0.29335597
-0.017895103 0.33780432 0.2969008 0.8218985 0.07316839 0.42315486 -0.049153846 -0.14878057
0.00204611 0.4805917 -0.13589618 0.14145373 0.12763368 1.1436124 -0.12066773 0.072419845
-0.049526382 0.23511225 -0.16401175 -0.03488809 -0.016510936 0.8035275 0.11640653 0.16881528
-0.1254848 0.14366312 0.18969111 0.9175205 0.14465232 -0.1452346 0.016758462 0.07808617
0.50160295 0.33894578 0.067734286 0.5259803 -0.11804907 0.38421625 -0.066158056 0.3596857
0.24551958 0.45338735 0.0010917285 0.33114427 -0.032935802 0.18956636 0.0068981447 0.3534975
0.0358626 0.48589373 0.20001692 0.25814128 0.08111014 -0.4831621 -0.022632906 -0.45971972
-0.08279235 -0.45995128 -0.07259115 -0.2229764 0.013085879 -0.6748014 -0.21568914 -0.40539134
-0.12669338 -0.2786383 0.023362407 -0.26529154 -0.11783992 -0.19030608 0.08265689 -0.1140191
-0.090996645 -0.38953042 0.1379145 -0.3896968 -0.05228702 -0.7100126 0.10147787 -0.3096486
-0.030452302 -0.8359856 -0.08430401 -0.07815687 -0.054113526 -0.24529827 -0.075295776 -0.8327744
0.13361008 -0.3302061 0.018363137 -0.59025073 0.011110493 -0.37782404 0.026420606 -0.16966233
0.02866184 -0.90046775 -0.073402345 -0.34372637 -0.12066194 -0.40806144 -0.30355826 -0.94808346
-0.060883403 -0.1558841 0.00088331214 -0.26071814 -0.08134604 -0.64493763 -0.13515252 -0.3090125
-0.00025067787 -1.2714186 -0.13496782 -0.75196993 0.14384039 -0.13930306 0.026448263 -0.15696461
-0.10509372 -0.8307331 -0.005609066 -0.5388973 -0.014254536 -0.27903077 -0.22642758 -0.96533495
-0.17633653 -0.70151573 0.10450395 0.11251836 0.05985153 -0.34807754 0.16739768 -0.5640136
-0.20440687 -0.4777992 -0.07293715 -0.17439243 0.0041988287 -0.6994888 -0.01674891 -0.67805195
0.010750165 -0.2538007 -0.11090799 -0.5531345 0.03043474 -0.4504265 0.07149363 -0.3172793
-0.027172882 -0.2707086 -0.010049701 0.2716219 -0.10745664 -0.2876798 -0.040978525 -0.26864457
-0.009888953 0.59653246 -0.017151574 -0.33330896 0.17857969 -0.31902605 0.05919175 0.19079372
0.1355443 0.18878785 -0.05601032 0.20148215 -0.13597424 -0.40902218 0.091444604 0.21591237
0.16469286 -0.7700994 -0.08511052 -0.40095952 0.0629579 0.28905508 -0.064497024 -0.43736377
-0.13802914 -0.30578965 -0.0064988798 -0.5990212 0.026316429 -0.27631 -0.17563182 0.5216842
0.055485435 0.23132278 -0.16260351 -0.24605687 0.21812539 -0.2699235 -0.17664735 -0.34017202
0.15575284 0.31322244 0.23011503 -0.6591767 0.19747388 0.15820692 0.01907571 0.28985822

weight_hh f4 [150, 50]
00000000: 77e3 b4bc 5f33 623d 0da5 d63d d7a2 c83c
00000010: 0065 17be 87f8 7e3e 9a85 5f3d 0b9a b1bd
00000020: fc15 c1bb ea5a 8b3d b38f 64bb 0107 963d
00000030: 3210 403e 451a f73d f02c 42bd 6555 0f3e
00000040: 8abd 94bc 3d24 6f3d 5079 5c3d b2b1 cebd
00000050: c000 8ebd 128e b0bd df61 313e e079 743d
00000060: c2e6 e43d 9d77 f93d b6bb b63d f0d9 433d
00000070: ee23 56bc f93e 32bc 8a00 e5bd e139 83be
00000080: c5c7 9fbd ce49 fe3d 9b4c 3f3e 6bf9 fdbc
00000090: a2a2 7bbd debd 33be 4757 4e3e 5019 9a3d
000000a0: e6e2 20bc 731d e33d 8b0d c6bd 106a bcbd
000000b0: 325c 9cbd 4b27 823d 75d9 4abd ea78 1d3e
000000c0: d2aa df3d 82a7 843d 3574 2a3e 76bb 98bd
000000d0: 5f13 273e a764 4cbc 2c31 27be 1153 9a3e
000000e0: b956 c73d e06f aa3d 1b06 2e3d e530 91bd
000000f0: 7a39 1d3e 33ef 8a3d 7d4a b43e 25a4 393d
00000100: 9d05 4bbc ab2d 633e 2e48 e83d 574b 8e3e
00000110: 9aed 003e 5e34 70be e35f 623d 0436 9dbc
00000120: 605e 643e 6266 fb3d c550 eebd 485d 893e
00000130: f3d8 b239 e049 f8bb 6078 92ba 8fb9 a5bd
00000140: 4aee c9bd 79d0 01be 1996 bf3d b198 97bc
00000150: c276 cc3d 0664 c8bb fbf3 04be 4f4f 2dbe
00000160: da0d 213e 0839 213e f1a6 233e 196c 843d
00000170: a0ef 3abe 2d3a cdbc e2d8 d93d b900 d4ba
00000180: ca15 1ebe b05d 3c3e 9303 1dbd 766b f9bd
00000190: dfb8 993d c719 7dbd 010f 23be 3e4b 8b3d
000001a0: c315 13be 1023 2c3e b3d3 2f3e 700f 8dba
000001b0: eb2e 5b3e d537 153e a541 953d fb32 b93d
000001c0: a8ba 253e 96b4 3d3d 9436 63bd 89b4 0ebd
000001d0: dc94 63bd 746f 203e 5569 aabc 1ac4 693d
000001e0: a08c 103e c868 46bd a7c8 fd3d 1900 1fbe
000001f0: 662d aabd e832 9d3d e065 073e ea6c 303e
00000200: e042 5d3c bf60 be3d 0eb8 4fbe 236e 13be
00000210: 957a 49bd daef b7ba 3b99 bf3d 1a2f 943d
00000220: 68f6 343d 0a1e acbd 4ac9 103e 6b21 adbe
00000230: ad40 8c3d 1caa f93d 0d1a b4bd 1c23 94bd
00000240: 8c20 593d ddb3 02be 6c9d bb3d 91fd 9cbd
00000250: 0569 17be 780c ad3d 48d6 16be 1093 513f
00000260: 3b7f 4d3d adc0 e9bd 3758 9abd 6f7f 4a3e
00000270: 523f 563e a0c4 943e 307c de3d ad89 503e
00000280: 96cc 5c3d 9901 9b3d 0ebc b23e 229d 7ebf
00000290: ba2e 1a3e 0b26 0cbd 76d9 5dbd 2116 443e
000002a0: 25a5 7ebe 77e3 acbc f593 243e 8587 3fbe
000002b0: 50cc 11bd cd08 86be 7d78 343d a421 343e
000002c0: 3464 173f 7dce 9f3d 0c45 423d 4a98 2e3e
000002d0: d57b 97bd b487 6fbe ae43 89be e05f 5d3e
000002e0: 4fe9 243b d475 f03e ac99 373d 0b78 843d
000002f0: 808d 753e 9c74 6c3e 9f60 4ebe 5f6e 0a3d
00000300: e4d0 353f b909 5a3e 7d8a 503b cd57 6dbb
00000310: 09a1 5f3e 930d ea3d b7a0 eebe bdbb 5f3e
00000320: 701e 4cbe ea29 393e b152 19be 3c8e aebd
00000330: 336a f93c a661 3bbe 1746 93bd 2890 603e
00000340: 3282 8d3e 4c53 8d3e d155 eebd b4b8 f03d
00000350: fbaf d63d aed5 9ebe 26a2 9f3d 6ba5 48be
00000360: c306 85be 851b 13bd ae48 66be 034a 153b
00000370: 6934 253e 8eae 41be ed6b 44be 718c 45be
00000380: 1f14 7f3d 7caa df3d 3a36 313e 2750 a13d
00000390: 26fb cabc 4bbf 363e 7fe0 563e a779 5b3e
000003a0: d2e3 ddbc b62f f13d 7809 edbd 88e4 053e
000003b0: bd41 903e e587 463e 2a9b 93bd 1020 243e
000003c0: 5848 61bc 56bb dcbc 5d14 4c3e b78e 923e
000003d0: 857e fdbd 25b1 53bd cd03 583e cf2c 37be
000003e0: cd11 bfbd d5b8 153e c671 59be 45e3 9a3e
000003f0: 626f cebd a7d8 12be 18fe 8ebd 9789 d53b
-0.02208112 0.055224773 0.104807 0.02449171 -0.14784622 0.24899493 0.05457077 -0.086719595
-0.0058925133 0.0680445 -0.003487569 0.07325555 0.18756178 0.120655574 -0.047406137 0.13997419
-0.018156786 0.05838417 0.05382663 -0.100924864 -0.06933737 -0.08620848 0.17322491 0.05968654
0.11176826 0.121810175 0.08922522 0.047815263 -0.01307009 -0.010879272 -0.111817434 -0.25630096
-0.07801775 0.12416421 0.18681566 -0.03100272 -0.061434396 -0.17552897 0.20150481 0.07524359
-0.009819722 0.11089601 -0.09670552 -0.09199917 -0.07634772 0.06355151 -0.04952379 0.15378156
0.10921253 0.06477262 0.16645892 -0.0745763 0.16315983 -0.012475169 -0.16327351 0.301415
0.09733338 0.0832212 0.04248629 -0.07089404 0.15353957 0.06783905 0.3521308 0.045322556
-0.012391475 0.2218539 0.11341892 0.27791855 0.12590638 -0.23457476 0.055267226 -0.019190796
0.22301626 0.12275387 -0.11636499 0.2682898 0.00034112445 -0.007577166 -0.001117479 -0.08092033
-0.09859903 -0.12677182 0.09354801 -0.018505426 0.09983589 -0.0061154393 -0.12983696 -0.16924785
0.1572794 0.15744412 0.15981652 0.064659305 -0.18255472 -0.025052154 0.1063707 -0.0016174532
-0.15438 0.18395114 -0.038333487 -0.121787 0.075059645 -0.06179216 -0.15923692 0.06801461
-0.1436377 0.1681025 0.171706 -0.0010762047 0.21404617 0.1457208 0.07287911 0.09042927
0.16184485 0.0463148 -0.05547197 -0.03484014 -0.055561885 0.15667516 -0.02080218 0.057071783
0.14116144 -0.04843977 0.12391787 -0.15527381 -0.0830944 0.07675725 0.13222456 0.17229047
0.013504714 0.092957966 -0.20285055 -0.14397483 -0.04918917 -0.0014033273 0.09355398 0.072355464
0.044180304 -0.08404167 0.14139286 -0.33814558 0.068482734 0.12190649 -0.08794031 -0.07233259
0.053009555 -0.12763925 0.09160885 -0.076655515 -0.14786156 0.08449644 -0.1473018 0.81865025
0.050170165 -0.11413703 -0.07536357 0.19775175 0.20922592 0.29056263 0.10863531 0.20365019
0.053906046 0.07568664 0.349091 -0.99458516 0.15056887 -0.034215968 -0.054162465 0.19149067
-0.24867685 -0.021104557 0.16072066 -0.1870404 -0.03559524 -0.2617859 0.04406022 0.17590958
0.5913727 0.078030564 0.04742913 0.17050281 -0.07396666 -0.2339161 -0.26809448 0.21618605
0.0025163477 0.46964896 0.044824287 0.06468209 0.23979759 0.23091358 -0.20154046 0.033796664
0.71021867 0.21292771 0.0031820827 -0.0036215663 0.21838774 0.1142837 -0.4660699 0.2184896
-0.19933486 0.18082395 -0.1497295 -0.08523223 0.030446148 -0.18298969 -0.07191103 0.21929991
0.27638394 0.27602613 -0.11637462 0.11753979 0.10482784 -0.310224 0.07794599 -0.19594352
-0.2598172 -0.035914917 -0.22488663 0.002277971 0.16133274 -0.18914244 -0.19181795 -0.19291855
0.06227505 0.10921189 0.17305842 0.07876616 -0.02477796 0.1784641 0.20984076 0.21433125
-0.027086172 0.11776678 -0.11574072 0.13075459 0.28175154 0.19387777 -0.072073296 0.16027856
-0.013750158 -0.026944797 0.19929643 0.28624508 -0.12377647 -0.05168261 0.210952 -0.17888187
-0.09329567 0.14621289 -0.21234807 0.30251518 -0.10079838 -0.14340459 -0.06982058 0.006516646

bias_ih f4 [150]
00000000: e9b9 323d b099 1a3d c7f9 aa3d 72fa ba3d
00000010: 82e7 253e d894 8e3e 559d 9f3d 91a0 123d
00000020: 13a2 283e 4330 a63c df17 87bd 9b3c 873e
00000030: c46c 173e e491 06be 4c25 7d3e d9e7 e43e
00000040: ac14 85be f7aa 493e 470a cf3d 0d9b e43d
00000050: 5e93 b2bb 8e68 f73d fb1f ca3e c887 1a3e
00000060: a414 b73d 8f0b f53e 2e70 993e c799 3d3e
00000070: 345b e03e 19da e93c 2a89 ff3e 35fb db3b
00000080: 1e3e 153e adc4 30be 2fcf 213f 8d4d 503f
00000090: f647 103e 3f85 003f 8520 c3bb 699f 523d
000000a0: 9d1b 153e c3b5 883e 7fe4 863e dbf5 c93d
000000b0: e6ad d43e 5737 3c3e 33f1 19be 4703 a73e
000000c0: 0dd9 d93e 6555 5c3e d82d 83be 218e 70be
000000d0: 9f38 78be b937 77be ca86 1cbf 6350 efbe
000000e0: 3fb6 b6be 55ad f1bd 7261 98bc bb6b 08be
000000f0: 8259 e8be 3a64 09be fb35 e5be 9ee2 08be
00000100: e0ad 9abe 7b76 06bf 3819 58be 437b 01bf
00000110: 1d40 0fbe a754 fdbe 9af0 85be 77a0 adbe
00000120: 2912 b8be c77c 0fbe 614d e2bd 6b31 3cbf
00000130: 7cda 5dbe 4a66 ccbe 9e65 febe bfd6 97be
00000140: 0bef cabe 24a2 00bf 6703 95bd 22e8 e2bd
00000150: df15 15bf 9286 a6be baa5 77be 1e2d 09bf
00000160: e34f 0bbf 8f54 c9bc 59c5 d5be 4c2b adbe
00000170: 0407 09bf 90b9 28be bd81 93be d324 a0be
00000180: 820c 7cbe 6312 d8be 0815 c9be 3d14 b5be
00000190: 988d a5be 7e44 463e de77 a3be 1f31 abbe
000001a0: 663a 9a3e d138 6dbe 543c 27be f863 283e
000001b0: fc73 433e 0406 7d3e 766d f7bd 0519 9f3e
000001c0: 0e10 5bbe 56ad 22be cae6 373e 7626 1dbf
000001d0: ec25 37be 489a 86be ecdc 3fbe 64eb af3e
000001e0: 6528 9c3e aee8 6bbe 38e3 abbe d1d1 84be
000001f0: 6f6c 923e 2b27 13bf 17ea 563e 3ddb 9a3e
00000200: 3c14 52be 154e fe3d 21c4 663e 95e4 453e
00000210: 146d 7fbe 56e9 833e f12b efbe 2dee 8d3e
00000220: c8f5 903e 7d29 e53e ccd4 d0be 726c d5bc
00000230: 8ded 8bbe a440 84be 1f73 803e 5d0d 723e
00000240: cb6c 76be 2399 b4be dd5c 623e d9ba 74be
00000250: d483 a5be 612f 5f3e
0.04363433 0.037744224 0.083484225 0.091298 0.16201594 0.27847934 0.077936806 0.03579766
0.16468076 0.020286685 -0.0659635 0.26413426 0.14787585 -0.1314159 0.24721259 0.44708136
-0.25992334 0.19694124 0.10109382 0.11162386 -0.0054496964 0.12080489 0.39477524 0.15090859
0.08939484 0.4786038 0.299684 0.18515693 0.43819582 0.02854638 0.49909335 0.006713296
0.14574477 -0.17262526 0.6320676 0.81368333 0.14089951 0.5020332 -0.0059548044 0.051421557
0.14561315 0.26701173 0.26346204 0.09861346 0.41538924 0.18380485 -0.15033416 0.32619688
0.4254841 0.2151695 -0.25620914 -0.23491718 -0.24240349 -0.2414235 -0.6114317 -0.46741018
-0.35685918 -0.118006386 -0.018601153 -0.13322346 -0.4538079 -0.1341714 -0.44767746 -0.13367698
-0.3021078 -0.52524537 -0.2110337 -0.5057871 -0.13989301 -0.49478647 -0.26160127 -0.33911487
-0.35951355 -0.14012443 -0.11049915 -0.73512906 -0.21665376 -0.3992179 -0.49686903 -0.29656026
-0.396355 -0.50247407 -0.072760396 -0.11079432 -0.582365 -0.32524544 -0.24184313 -0.5358447
-0.5441877 -0.024576453 -0.41752127 -0.33822095 -0.5352633 -0.16477036 -0.2880992 -0.31278095
-0.24614146 -0.42201528 -0.39273858 -0.35367003 -0.3233459 0.19362065 -0.3192739 -0.33435914
0.3012268 -0.23166205 -0.16331607 0.16444385 0.19087213 0.24709326 -0.12081425 0.31073776
-0.21392843 -0.15886435 0.17959133 -0.6138681 -0.1788556 -0.26289582 -0.18736619 0.34359276
0.3049957 -0.23037979 -0.33571792 -0.25941327 0.28598353 -0.5748164 0.20987736 0.3024539
-0.20515531 0.12417237 0.22535755 0.19325478 -0.24943954 0.2576396 -0.46713212 0.27720776
0.28312516 0.44758216 -0.4078735 -0.026052687 -0.27329674 -0.25830567 0.2508783 0.2363791
-0.24064939 -0.35273084 0.22105737 -0.23899402 -0.3232714 0.21795417

bias_hh f4 [150]
00000000: ecab 403e 4357 183e b8b6 653e ef93 c03d
00000010: c737 583e 5643 f73e fb6c a93e 8809 723e
00000020: 633b a33d 7458 9d3d 985d 5b3d 8185 d83d
00000030: 9ecd aa3e 876d f73c 7dc8 d23d 1ff8 663e
00000040: f13e 1dbd 0699 00bd e3a0 9d3e ece5 553e
00000050: 3a32 ddbd 12de 863e 9f37 473e 8476 703d
00000060: 2aec 5c3e 8784 d93e 59d9 9d3e 5913 083e
00000070: 8f1f cd3e 94cf 3abd 2ee9 ef3e cd48 8c3d
00000080: 4622 213e 8b53 e4bd 1190 f33e 4318 593f
00000090: dfc0 4b3d ebf8 e13e e7bf 3e3e 0bae 413d
000000a0: ac37 413e 583a 003e a604 a63e d63f 423e
000000b0: f576 083f 7ccf 353e ddb7 743d 5822 023e
000000c0: 2e60 a03e 3d8e e33d 8592 7ebe cdc7 9fbe
000000d0: 7e4d f1be 7b4d b2be 6b29 b6be 59d5 97be
000000e0: abcf 36be 530d 9dbd 1478 4cbd b2b0 f3bd
000000f0: 6259 e9be 1821 4abe c78c f5be b417 0dbe
00000100: 0f0f e1be e169 c3be 6d00 ecbd f994 b6be
00000110: 83cc 92be 4222 05bf f009 a9be 67fd 1abe
00000120: e17b cabe ae33 c4be 6de5 27be f3ba 1cbf
00000130: f23c 10be 5cfd 6abe c496 d4be f7ee acbe
00000140: 55fc ffbe 30f7 02bf 7af2 a9bd 8e5a f5bd
00000150: 6466 f6be 2eab e2be 43d9 2bbe 85ac c5be
00000160: 827e 17bf 84f0 5a3e 8b83 99be 2708 80be
00000170: d6c4 9fbe 7e43 a1be 49b7 00bf 910b e3be
00000180: 34d6 c8be 1655 c0be 4c4a abbe f271 aabe
00000190: a401 afbe b70c bf3e c00e 8cbe 3f43 19be
000001a0: 2ff5 883e 2073 debe 4880 68be 92ce 953e
000001b0: 4121 673e e61d 283e 3faf 39be cd69 9b3e
000001c0: 6f79 dabe cc86 c6bd c5b5 423e 5bed 2ebe
000001d0: 979b c5bd bc41 6bbe 0e7d 9abe 48da 5d3e
000001e0: ca03 593e 8e7c 93be 9e9a b6be e247 73be
000001f0: 8b02 7d3e 56e3 84bf 2a5e 8a3e 1a00 d63d
00000200: 50a0 a3be 87cc 4e3e f3a6 073f 962f 7d3e
00000210: 7117 6fbe 952f 6e3d 9d8d 14bf ab44 1d3e
00000220: 6f56 7f3e 47ad f23e 7b17 21be f4a1 73bb
00000230: d9d0 71be c7c3 80be 3803 893e 5436 5c3e
00000240: 14cd a9be e2ca 34be f406 2a3e 5f5c bbbe
00000250: a5d0 a8be 4dc2 933e
0.18815583 0.14877038 0.22432983 0.09403216 0.21115027 0.4829356 0.33090958 0.23636448
0.079703115 0.07682887 0.053556055 0.10572339 0.33359998 0.030203594 0.10292146 0.22555588
-0.038390104 -0.031395935 0.3078681 0.2088849 -0.108005956 0.263413 0.19454812 0.058706775
0.21574464 0.42483923 0.30829886 0.1328863 0.4006314 -0.04560812 0.4685759 0.06849823
0.1573573 -0.11148747 0.4757085 0.84802645 0.049744483 0.44135222 0.18627892 0.04728512
0.18868893 0.12522256 0.3242542 0.18969664 0.53306514 0.1775493 0.05974566 0.12708414
0.3132338 0.11111114 -0.2486058 -0.31207123 -0.47129434 -0.34824738 -0.35578474 -0.2965496
-0.17852657 -0.07668557 -0.049919203 -0.11898936 -0.45576006 -0.19739187 -0.47958967 -0.13778573
-0.439568 -0.38166717 -0.11523519 -0.35660532 -0.28671655 -0.520054 -0.33015394 -0.15135728
-0.39547637 -0.38320678 -0.16396113 -0.6122276 -0.14085749 -0.22948211 -0.41521275 -0.33776066
-0.49997202 -0.5115843 -0.08298202 -0.119801626 -0.48124993 -0.44271225 -0.16782098 -0.38608184
-0.5917741 0.21380812 -0.29983172 -0.2500622 -0.3120486 -0.31496805 -0.5027967 -0.44344762
-0.39225924 -0.37564915 -0.33455122 -0.33290058 -0.3418094 0.37314388 -0.27355003 -0.14967059
0.2674956 -0.43447208 -0.22705185 0.29259163 0.22571279 0.16417655 -0.18133257 0.30354157
-0.4267077 -0.09693679 0.19014652 -0.17082731 -0.09648817 -0.22974294 -0.30173534 0.21665299
0.21192852 -0.28805965 -0.3566484 -0.2375789 0.24708001 -1.0381877 0.27024966 0.10449238
-0.31958246 0.20195208 0.5298912 0.24725184 -0.23348786 0.058150847 -0.58028585 0.15358226
0.24935316 0.47397825 -0.15731613 -0.003717539 -0.23614825 -0.25149366 0.26760268 0.215051
-0.33164275 -0.17655519 0.16604215 -0.3659391 -0.32971683 0.28859177

weight f4 [2, 50]
00000000: 7cd1 25be fcf4 b63e b540 53be 7bf8 92be
00000010: f337 f63e b6a4 65be 030e 01bf 4cd9 783e
00000020: fa9d 563e ba6e 923e 7cd5 59be 66a9 3e3e
00000030: ea30 edbe 5111 75be e286 c23e c4a7 7fbe
00000040: 413f 2abe 87ae f7be 3ade a3be 0109 e23e
00000050: 9c47 443e fdaf 9fbe 5054 d1be 1d79 a0be
00000060: 8b0e 9a3e 4dde 1cbf f62c 903e 0550 b43e
00000070: 7992 8bbe f275 cb3e 8949 bf3e 171d d03e
00000080: 46a5 56be b561 1a3e 7fea 1bbf c372 9e3e
00000090: 5e15 8e3e c02d f03e b3ef 03bf 4179 77bd
000000a0: b0d3 aebe d1e7 78be b816 a23e 2a20 6e3e
000000b0: 2919 ddbe 16dd cdbe e57b 3f3e 7964 45be
000000c0: b6f4 46be 4fea b83e 48ad b73e 6d11 e3bd
000000d0: efd6 b63e 9e09 b83e f599 f4be 26b2 ce3e
000000e0: db0c f23e 8b8f e7bd 1361 1abe c20e 51be
000000f0: 2865 b13e f2c7 a8be fae6 dd3e 976c 9b3e
00000100: 8e7c 7ebe 08ab 983e 0090 123e 1a03 c73e
00000110: 4767 103e 8f50 adbe 3173 6abe 6f96 823e
00000120: 6c41 d13e 03f5 853e ef4d 95be f022 e93e
00000130: 88d7 a9be 5de3 7fbe 4c05 f13e 79f0 1ebe
00000140: 62b4 c9be af96 a9be 46e5 3f3e ae1e 87be
00000150: fd8b 013f 316d 9abe 6dfe 7abe 4a40 a5be
00000160: c4b2 e13e 2d52 143e eba8 b73e 67ff d63e
00000170: 2c49 ddbe 1d34 24be c798 9b3e 757a 563e
00000180: 19c7 77be 798f c23e 6898 a83e 276f 81be
-0.16193193 0.35733783 -0.20630153 -0.287052 0.4808956 -0.22426113 -0.50412005 0.24301642
0.20958701 0.28600103 -0.21272844 0.18619308 -0.4632638 -0.23932387 0.37993532 -0.24966341
-0.16625692 -0.4837534 -0.32005483 0.44147494 0.19167942 -0.31188956 -0.40884638 -0.31342402
0.3008922 -0.61276704 0.28159302 0.352173 -0.27260187 0.39738423 0.3736079 0.40647194
-0.20961484 0.15076335 -0.6090469 0.3094693 0.27750677 0.46909904 -0.51537627 -0.06041837
-0.3414588 -0.24307181 0.31657958 0.23254457 -0.43183258 -0.40207738 0.18699606 -0.19276609
-0.19429287 0.36116263 0.3587439 -0.11087308 0.35710856 0.35944837 -0.4777371 0.4037029
0.47275433 -0.113066755 -0.15076093 -0.20415786 0.3464749 -0.32965046 0.43340284 0.30356285
-0.24852201 0.29817986 0.14312744 0.38869554 0.14101897 -0.33850524 -0.22895505 0.25505397
0.40870225 0.26163492 -0.2916102 0.45534468 -0.3317225 -0.24989076 0.47074354 -0.1552142
-0.39395434 -0.33122775 0.18739805 -0.26390594 0.5060423 -0.3016143 -0.24511118 -0.3227561
0.440817 0.14484473 0.35871062 0.41991732 -0.43219888 -0.16035505 0.30389997 0.20945151
-0.24197043 0.38000086 0.32928777 -0.25280115

bias f4 [2]
00000000: c946 5d3e fd5c 97bd
0.21609034 -0.07390783

weight f4 [2, 50]
00000000: 40ed 1e3b 6b2e 0e3e 3c5a 293d d09a c23c
00000010: 5c00 8ebc bd17 033e da82 d03d c46d 403d
00000020: 622c eb3d 9369 0c3e 8085 073c 3025 873c
00000030: c822 4ebd facf d8bd e02a c83c 0b57 10be
00000040: d42d 503d c0d6 953c 3e82 e53d 0eeb f03d
00000050: 78d8 cb3d e410 c3bd bcff 523d 2e52 ef3d
00000060: 1068 43bc f496 633d 2880 eebc 5825 193d
00000070: 94cf 82bd 8892 873d ea62 fe3d 6c7c a4bc
00000080: 2261 933d a082 6c3d 0098 53bb a42c d2bd
00000090: ea85 86bd 7084 873c 1e2d 08be 8be6 08be
000000a0: 6414 aabc fe4e f0bd 1b09 acbd a20a dd3d
000000b0: f083 2fbd 12ef fd3d 12b4 07bd 51a1 0b3e
000000c0: 80d4 ad3b 5031 ce3d e623 a9bd d48f d3bd
000000d0: 68b0 d8bd 4b77 9bbd 14ea bcbd 04e1 5c3d
000000e0: f012 983c c86c bb3c 9473 b1bc aa4e 98bd
000000f0: a933 06be 0ced a8bd 701f 33bc 480b 8a3c
00000100: 95e7 d2bd 5282 a4bd 1a44 bd3d c0c0 94bd
00000110: dc06 a7bc 064f 9cbd 02e3 ea3d 606f 463c
00000120: 1f25 dbbd 8aeb 873d fe0c 6cbd 27ae 063e
00000130: 8739 043e ca02 f4bd a506 0c3e 2a67 bd3d
00000140: 2618 09bd 1720 05be 900a 8a3d 3a7e 15bd
00000150: 87d9 94bd 927b a0bd 86d0 f33d 3e08 993d
00000160: b013 9e3c f045 a5bd 573c 0b3e 00b4 0c39
00000170: 808d a6ba f6e3 933d 70d6 4e3c 64ab b53d
00000180: eede fdbd 401c dd3c efab 043e 70be 1abc
0.0024250299 0.13884895 0.04134582 0.023755461 -0.017334156 0.12802024 0.10181208 0.04697968
0.11483075 0.13712148 0.008271575 0.016497225 -0.05032614 -0.105865434 0.024434507 -0.14095704
0.050824955 0.018290877 0.11206482 0.11763583 0.099533975 -0.09524706 0.05151342 0.116855964
-0.011926666 0.055563882 -0.029113844 0.03738913 -0.06387249 0.066197455 0.1242121 -0.02007886
0.07196261 0.05774176 -0.0032286644 -0.10262421 -0.06568511 0.016542643 -0.13298461 -0.13369195
-0.020761676 -0.117338166 -0.08400174 0.10793044 -0.042850435 0.12399115 -0.033130713 0.13635756
0.005304873 0.10067999 -0.082588 -0.103301674 -0.10580522 -0.07591113 -0.09224334 0.05392553
0.018563718 0.02287902 -0.021661557 -0.07436879 -0.13105644 -0.08248338 -0.010932788 0.016851082
-0.10298077 -0.08032669 0.09241505 -0.07263327 -0.020389013 -0.0763226 0.114690796 0.012111515
-0.1070044 0.066367224 -0.057629578 0.13152371 0.1291257 -0.119145945 0.1367441 0.092481926
-0.033470295 -0.13000523 0.06740296 -0.036497332 -0.072680525 -0.07836069 0.11905007 0.07472275
0.019296497 -0.0806998 0.13597237 0.00013418496 -0.0012706965 0.072212145 0.012624368 0.08870581
-0.12396036 0.02699101 0.12956212 -0.009444818

bias f4 [2]
00000000: d20a 993d e010 a3bb
0.07472767 -0.004976377

amplitudes f4 [1000, 2]
00000000: 45fd 7f3f 0000 0000 45fd 7f3f 0000 0000
00000010: 45fd 7f3f 0000 0000 45fd 7f3f 0000 0000
00000020: 45fd 7f3f 0000 0000 45fd 7f3f 0000 0000
00000030: 45fd 7f3f 0000 0000 45fd 7f3f 0000 0000
00000040: 45fd 7f3f 0000 0000 45fd 7f3f 0000 0000
00000050: 45fd 7f3f 0000 0000 45fd 7f3f 0000 0000
00000060: 45fd 7f3f 0000 0000 45fd 7f3f 0000 0000
00000070: 45fd 7f3f 0000 0000 45fd 7f3f 0000 0000
00000080: 45fd 7f3f 0000 0000 45fd 7f3f 0000 0000
00000090: 45fd 7f3f 0000 0000 45fd 7f3f 0000 0000
000000a0: 45fd 7f3f 0000 0000 45fd 7f3f 0000 0000
000000b0: 45fd 7f3f 0000 0000 45fd 7f3f 0000 0000
000000c0: 45fd 7f3f 0000 0000 45fd 7f3f 0000 0000
000000d0: 45fd 7f3f 0000 0000 45fd 7f3f 0000 0000
000000e0: 45fd 7f3f 0000 0000 45fd 7f3f 0000 0000
000000f0: 45fd 7f3f 0000 0000 45fd 7f3f 0000 0000
00000100: 45fd 7f3f 0000 0000 45fd 7f3f 0000 0000
00000110: 45fd 7f3f 0000 0000 45fd 7f3f 0000 0000
00000120: 45fd 7f3f 0000 0000 45fd 7f3f 0000 0000
00000130: 45fd 7f3f 0000 0000 45fd 7f3f 0000 0000
00000140: 45fd 7f3f 0000 0000 45fd 7f3f 0000 0000
00000150: 45fd 7f3f 0000 0000 45fd 7f3f 0000 0000
00000160: 45fd 7f3f 0000 0000 45fd 7f3f 0000 0000
00000170: 45fd 7f3f 0000 0000 45fd 7f3f 0000 0000
00000180: 45fd 7f3f 0000 0000 45fd 7f3f 0000 0000
00000190: 45fd 7f3f 0000 0000 45fd 7f3f 0000 0000
000001a0: 45fd 7f3f 0000 0000 45fd 7f3f 0000 0000
000001b0: 45fd 7f3f 0000 0000 45fd 7f3f 0000 0000
000001c0: 45fd 7f3f 0000 0000 45fd 7f3f 0000 0000
000001d0: 45fd 7f3f 0000 0000 45fd 7f3f 0000 0000
000001e0: 45fd 7f3f 0000 0000 45fd 7f3f 0000 0000
000001f0: 45fd 7f3f 0000 0000 45fd 7f3f 0000 0000
00000200: 45fd 7f3f 0000 0000 45fd 7f3f 0000 0000
00000210: 45fd 7f3f 0000 0000 45fd 7f3f 0000 0000
00000220: 45fd 7f3f 0000 0000 45fd 7f3f 0000 0000
00000230: 45fd 7f3f 0000 0000 45fd 7f3f 0000 0000
00000240: 45fd 7f3f 0000 0000 45fd 7f3f 0000 0000
00000250: 45fd 7f3f 0000 0000 45fd 7f3f 0000 0000
00000260: 45fd 7f3f 0000 0000 45fd 7f3f 0000 0000
00000270: 45fd 7f3f 0000 0000 45fd 7f3f 0000 0000
00000280: 45fd 7f3f 0000 0000 45fd 7f3f 0000 0000
00000290: 45fd 7f3f 0000 0000 45fd 7f3f 0000 0000
000002a0: 45fd 7f3f 0000 0000 45fd 7f3f 0000 0000
000002b0: 45fd 7f3f 0000 0000 45fd 7f3f 0000 0000
000002c0: 45fd 7f3f 0000 0000 45fd 7f3f 0000 0000
000002d0: 45fd 7f3f 0000 0000 45fd 7f3f 0000 0000
000002e0: 45fd 7f3f 0000 0000 45fd 7f3f 0000 0000
000002f0: 45fd 7f3f 0000 0000 45fd 7f3f 0000 0000
00000300: 45fd 7f3f 0000 0000 45fd 7f3f 0000 0000
00000310: 45fd 7f3f 0000 0000 45fd 7f3f 0000 0000
00000320: 45fd 7f3f 0000 0000 45fd 7f3f 0000 0000
00000330: 45fd 7f3f 0000 0000 45fd 7f3f 0000 0000
00000340: 45fd 7f3f 0000 0000 45fd 7f3f 0000 0000
00000350: 45fd 7f3f 0000 0000 45fd 7f3f 0000 0000
00000360: 45fd 7f3f 0000 0000 45fd 7f3f 0000 0000
00000370: 45fd 7f3f 0000 0000 45fd 7f3f 0000 0000
00000380: 45fd 7f3f 0000 0000 45fd 7f3f 0000 0000
00000390: 45fd 7f3f 0000 0000 45fd 7f3f 0000 0000
000003a0: 45fd 7f3f 0000 0000 45fd 7f3f 0000 0000
000003b0: 45fd 7f3f 0000 0000 45fd 7f3f 0000 0000
000003c0: 45fd 7f3f 0000 0000 45fd 7f3f 0000 0000
000003d0: 45fd 7f3f 0000 0000 45fd 7f3f 0000 0000
000003e0: 45fd 7f3f 0000 0000 45fd 7f3f 0000 0000
000003f0: 45fd 7f3f 0000 0000 45fd 7f3f 0000 0000
0.99995834 0.0 0.99995834 0.0 0.99995834 0.0 0.99995834 0.0
0.99995834 0.0 0.99995834 0.0 0.99995834 0.0 0.99995834 0.0
0.99995834 0.0 0.99995834 0.0 0.99995834 0.0 0.99995834 0.0
0.99995834 0.0 0.99995834 0.0 0.99995834 0.0 0.99995834 0.0
0.99995834 0.0 0.99995834 0.0 0.99995834 0.0 0.99995834 0.0
0.99995834 0.0 0.99995834 0.0 0.99995834 0.0 0.99995834 0.0
0.99995834 0.0 0.99995834 0.0 0.99995834 0.0 0.99995834 0.0
0.99995834 0.0 0.99995834 0.0 0.99995834 0.0 0.99995834 0.0
0.99995834 0.0 0.99995834 0.0 0.99995834 0.0 0.99995834 0.0
0.99995834 0.0 0.99995834 0.0 0.99995834 0.0 0.99995834 0.0
0.99995834 0.0 0.99995834 0.0 0.99995834 0.0 0.99995834 0.0
0.99995834 0.0 0.99995834 0.0 0.99995834 0.0 0.99995834 0.0
0.99995834 0.0 0.99995834 0.0 0.99995834 0.0 0.99995834 0.0
0.99995834 0.0 0.99995834 0.0 0.99995834 0.0 0.99995834 0.0
0.99995834 0.0 0.99995834 0.0 0.99995834 0.0 0.99995834 0.0
0.99995834 0.0 0.99995834 0.0 0.99995834 0.0 0.99995834 0.0
0.99995834 0.0 0.99995834 0.0 0.99995834 0.0 0.99995834 0.0
0.99995834 0.0 0.99995834 0.0 0.99995834 0.0 0.99995834 0.0
0.99995834 0.0 0.99995834 0.0 0.99995834 0.0 0.99995834 0.0
0.99995834 0.0 0.99995834 0.0 0.99995834 0.0 0.99995834 0.0
0.99995834 0.0 0.99995834 0.0 0.99995834 0.0 0.99995834 0.0
0.99995834 0.0 0.99995834 0.0 0.99995834 0.0 0.99995834 0.0
0.99995834 0.0 0.99995834 0.0 0.99995834 0.0 0.99995834 0.0
0.99995834 0.0 0.99995834 0.0 0.99995834 0.0 0.99995834 0.0
0.99995834 0.0 0.99995834 0.0 0.99995834 0.0 0.99995834 0.0
0.99995834 0.0 0.99995834 0.0 0.99995834 0.0 0.99995834 0.0
0.99995834 0.0 0.99995834 0.0 0.99995834 0.0 0.99995834 0.0
0.99995834 0.0 0.99995834 0.0 0.99995834 0.0 0.99995834 0.0
0.99995834 0.0 0.99995834 0.0 0.99995834 0.0 0.99995834 0.0
0.99995834 0.0 0.99995834 0.0 0.99995834 0.0 0.99995834 0.0
0.99995834 0.0 0.99995834 0.0 0.99995834 0.0 0.99995834 0.0
0.99995834 0.0 0.99995834 0.0 0.99995834 0.0 0.99995834 0.0
