data/RNN_runs/sweep2_H2/rnn_sto3g_H2_0-7348_eq1_nU50_nL2_lr001_lrsO_ns1000.pt (torch_old, 154327 bytes, 13 tensors)

weight_ih f4 [150, 2]
0	0xbe01619e	-0.12634894
1	0x3e42e5f3	0.19033031
2	0xbe1a025e	-0.15039966
3	0x3e646a94	0.22306281
4	0xbe554ee9	-0.20830883
5	0x3e96985e	0.29413122
6	0x3d5a18c9	0.053246293
7	0xbe3cbfc5	-0.1843253
8	0xbe233dbd	-0.1594152
9	0x3e6549a2	0.2239137
10	0xbdb352ae	-0.08756004
11	0x3cee53ac	0.029092632
12	0xbe3e8127	-0.18603955
13	0x3ddd3bbb	0.10802408
14	0xbdff47d7	-0.12464874
15	0x3e16b2c0	0.14716625
16	0xbe21a3e1	-0.15785171
17	0x3e841131	0.25794366
18	0xbde5378d	-0.11192236
19	0x3e66534a	0.2249271
20	0x3d361f83	0.044463646
21	0x3e62132a	0.22077623
22	0xbd0723a7	-0.032992985
23	0x3e9e393f	0.3090305
24	0xbe0b0a3d	-0.13578124
25	0x3e8448ab	0.2583669
26	0xbe00e5cf	-0.12587665
27	0x3e09bdff	0.13451384
28	0x3daa2755	0.08308283
29	0x3daa19bc	0.0830569
30	0x3d63e86f	0.055641588
31	0x3e80c416	0.25149602
32	0x3a9725db	0.0011531668
33	0x3e87431c	0.26418388
34	0x3e5dcba2	0.21659711
35	0xbd927168	-0.07150537
36	0xbe42afa1	-0.1901231
37	0x3e235eb3	0.15954094
38	0xbcab8d8a	-0.020941515
39	0x3dde65c8	0.10859257
40	0xbdd0887b	-0.101822816
41	0x3def4800	0.11683655
42	0xbd9bfb77	-0.076163225
43	0x3ea4be75	0.32176557
44	0xbda05faa	-0.078307465
45	0x3e3df2dd	0.18549676
46	0xbdf3052d	-0.118662216
47	0x3e74fbf8	0.23924243
48	0x3cee5415	0.029092828
49	0x3e8a0d20	0.2696314
50	0x3e4f6b7f	0.2025585
51	0x3b8ada6a	0.0042374628
52	0x3e58aad0	0.2115891
53	0x3d282f66	0.041060828
54	0xbd9e632d	-0.0773376
55	0xbe5c6390	-0.21522355
56	0xbe06afb2	-0.1315296
57	0x3ebccba3	0.36874112
58	0xbb155b8e	-0.0022790167
59	0x3d8cb0bd	0.06869648
60	0xbd6430e2	-0.05571068
61	0x3d7b1c09	0.061306033
62	0xbde7192c	-0.11284098
63	0x3d07a2ea	0.03311435
64	0xbdfd9c79	-0.123833604
65	0x3e4a7d18	0.19774282
66	0xbd107a89	-0.03527311
67	0xbe011c75	-0.12608512
68	0xbe01384c	-0.12619132
69	0x3e0bb115	0.1364177
70	0x3d724628	0.059148937
71	0x3e504728	0.20339644
72	0xbe305342	-0.1721926
73	0x3dbe6960	0.092974424
74	0x3d92c50d	0.07166491
75	0x3e36ece9	0.17863812
76	0x3df9d266	0.121983334
77	0xbe8f00c5	-0.27930275
78	0xbd78d738	-0.060752124
79	0x3e9f8488	0.311558
80	0x3e47ab44	0.19498926
81	0xbd057ad3	-0.032587837
82	0xbc521f41	-0.012824834
83	0x3e6bcf4d	0.23028298
84	0xbe0a9217	-0.13532291
85	0x3e0d8ec8	0.13823998
86	0xbc9662c4	-0.018357642
87	0x3e76f31c	0.24116176
88	0x3e155496	0.14583048
89	0x3e2f8e60	0.17144156
90	0xbe310daa	-0.17290369
91	0x3eadfaa9	0.339803
92	0xbccac8c4	-0.024753936
93	0x3ea17311	0.315331
94	0x3cf6eb95	0.030141631
95	0xbc0af803	-0.008481982
96	0x3d8e7b80	0.069571495
97	0x3e91405e	0.2836942
98	0x3c3a4f00	0.011371374
99	0x3e2a1fb5	0.16613658
100	0x3e329e2b	0.17443149
101	0xbe93dccd	-0.28879395
102	0x3d9da490	0.076974034
103	0xbe61866e	-0.22023937
104	0x3d4f70dc	0.05064474
105	0xbe598f47	-0.21246062
106	0xbd43abf2	-0.0477714
107	0xbde8433b	-0.11340948
108	0x3e02fffc	0.12792963
109	0xbe1df9e9	-0.15427364
110	0x3ddec0e2	0.10876633
111	0xbe94c647	-0.29057524
112	0x3e1a8c22	0.15092519
113	0xbe47a23e	-0.19495484
114	0x3cfc9fd7	0.030837936
115	0xbe2072b0	-0.1566875
116	0xbd603e6a	-0.054747023
117	0xbdc0c741	-0.09413005
118	0x3de5a3b8	0.112128675
119	0xbd084458	-0.033268303
120	0xbd257e6d	-0.040403772
121	0xbe0ee988	-0.13956273
122	0x3e64f1cf	0.22357868
123	0xbe59a312	-0.21253613
124	0x3dd9f67a	0.10642715
125	0xbe8ae659	-0.27128866
126	0x3dff7aff	0.124746315
127	0xbe0d210d	-0.13782139
128	0x3d6a5ade	0.057215564
129	0xbdaf2f79	-0.085539766
130	0x3b3cc453	0.0028803542
131	0xbe0ea390	-0.13929582
132	0x3a2c4dbf	0.00065728644
133	0xbe9e5454	-0.30923712
134	0xbe1c965d	-0.15291734
135	0xbec9dd6c	-0.39426744
136	0x3ddfd708	0.10929686
137	0xbe4824fd	-0.1954536
138	0xbd81645d	-0.06317971
139	0xbd9913fb	-0.07474514
140	0x3d9d20d2	0.076722756
141	0xbe5ccfec	-0.21563691
142	0x3dd15116	0.10220544
143	0xbd5b5370	-0.05354637
144	0x3db584c0	0.08863211
145	0xbe773a3b	-0.24143307
146	0xbb9015b9	-0.004397121
147	0xbe2ad2f9	-0.16682042
148	0xbc72be05	-0.014815812
149	0xbe885f38	-0.26635146
150	0xbe8a1652	-0.26970154
151	0xbe9be620	-0.3044901
152	0xbe2e892d	-0.17044516
153	0xbdb45582	-0.08805372
154	0x3db18c94	0.08669391
155	0xbda4d291	-0.08047975
156	0xbe628227	-0.22119962
157	0xbe760830	-0.24026561
158	0xbe1d273f	-0.15347002
159	0xbe0ca7b7	-0.13735853
160	0x3dc2a1ee	0.09503542
161	0xbd24db3c	-0.04024814
162	0xbdf9049b	-0.121590815
163	0x3c990816	0.018680613
164	0x3e3dfd8a	0.18553749
165	0xbd4fa064	-0.05069007
166	0x3d31ef2c	0.043440983
167	0xbda0845e	-0.07837747
168	0x3d47fe44	0.04882647
169	0x3d9da153	0.07696786
170	0x3caf91d6	0.021431845
171	0xbe942139	-0.28931597
172	0x3d76c7e0	0.06024921
173	0xbe3822c2	-0.17982009
174	0xbe1cfe34	-0.15331346
175	0xbe9e84bc	-0.30960643
176	0xbe0aa2d8	-0.13538682
177	0xbe814038	-0.25244308
178	0x3e3c26e3	0.18374209
179	0xbe2ccbbe	-0.16874596
180	0xbe3c12b2	-0.18366507
181	0xbe3d6934	-0.18497163
182	0xbd37ca38	-0.044870585
183	0xbeaf1024	-0.34192002
184	0xbcd279b6	-0.025692802
185	0xbe5dcb17	-0.21659504
186	0xbe1eb18e	-0.15497419
187	0xbb8cf18c	-0.0043012556
188	0xbd9ce3f6	-0.076606676
189	0xbeb5d76a	-0.3551591
190	0xbe281ca9	-0.16417183
191	0xbeb687fa	-0.35650617
192	0x3d05b947	0.032647397
193	0xbdd7f3e9	-0.10544569
194	0xbe612a60	-0.21988821
195	0xbeba8bc6	-0.36434764
196	0x3dd8e789	0.10591037
197	0xbe8c6ce8	-0.2742684
198	0x3e3bf7ad	0.183562
199	0xbe29775a	-0.16549435
200	0x3d5d193f	0.053979155
201	0xbe1ed3cb	-0.1551048
202	0xbd1d56bc	-0.038412794
203	0x3dbcfc3a	0.09227796
204	0xbce47c79	-0.027891384
205	0xbe244e9c	-0.16045612
206	0x3e1948aa	0.14969125
207	0xbe7b6d21	-0.24553348
208	0x3d26f52f	0.04076117
209	0xbd41b6f8	-0.047293633
210	0xbe0d099d	-0.13773198
211	0x3e3b1c70	0.18272567
212	0x3e297031	0.16546704
213	0xbe869293	-0.26283702
214	0xbd42230d	-0.04739671
215	0x3e012119	0.12610282
216	0x3cbcd789	0.023051994
217	0x3cf2b993	0.029629504
218	0xbdd164fb	-0.102243386
219	0x3e24b88e	0.16086027
220	0xbc88a0a0	-0.016678154
221	0xbe8c8a04	-0.27449048
222	0xbcbe2bf0	-0.02321431
223	0x3dd19530	0.102335334
224	0x3e47db3c	0.19517225
225	0xbea8dae4	-0.329795
226	0x3cb6ae47	0.022299899
227	0xbe8cb6e3	-0.27483281
228	0x3e1b9472	0.15193346
229	0xbe334e59	-0.17510356
230	0xbdf8b06d	-0.121430255
231	0x3e139221	0.14411213
232	0xbe58aaf4	-0.21158963
233	0x3e6b31c8	0.22968209
234	0x3ddeb6ea	0.10874732
235	0xbed429e5	-0.41438213
236	0x3e1b6c54	0.15178043
237	0xbe3add77	-0.18248545
238	0xbe52831c	-0.20557827
239	0x3d4cf247	0.05003574
240	0xbc20b89c	-0.009809639
241	0x3e02af85	0.12762268
242	0xbcac1b30	-0.021009058
243	0xbe2343f2	-0.15943888
244	0xbb24ab5d	-0.0025126555
245	0x3e8f0a1e	0.27937406
246	0x3c667340	0.014065564
247	0xbe67e58d	-0.2264616
248	0x3ad3a291	0.0016146471
249	0x3e5f2f63	0.2179542
250	0x3e7dd43b	0.24787991
251	0xbef67e01	-0.48143008
252	0x3e93c34b	0.28859934
253	0xbeeecf7f	-0.46642682
254	0xbdc12356	-0.09430568
255	0x3e32bd7c	0.17455095

weight_hh f4 [150, 50]
0	0xbdbe52f8	-0.09293169
1	0x3e39bd65	0.18138655
2	0x3cf43724	0.02981145
3	0x3cf8f3b1	0.030389639
4	0xbe207468	-0.15669405
5	0x3e03b79b	0.12863009
6	0xbdc3ba31	-0.095569976
7	0xbbd03892	-0.0063544
8	0x3dcd0b92	0.100119725
9	0x3e1ae853	0.15127687
10	0xbdc2e8ff	-0.09517097
11	0x3e24d42f	0.16096567
12	0xbe28e265	-0.16492613
13	0x3c80ffd5	0.01574699
14	0xbe1c0049	-0.15234484
15	0x3dedf518	0.116190135
16	0x3bbd3e79	0.0057752696
17	0x3d8d3faf	0.06896912
18	0xbd152e85	-0.036421318
19	0xbe3840f1	-0.17993523
20	0x3c7fccd7	0.0156128025
21	0xbe240eb3	-0.16021232
22	0x3e663aaf	0.22483324
23	0x3c0b3b25	0.008497988
24	0x3e36f8ef	0.17868398
25	0x3d82c2d5	0.063848175
26	0x3e848ccd	0.25888672
27	0x3e0358d7	0.12826858
28	0xbdc0282c	-0.09382662
29	0x3da02bb6	0.07820837
30	0xbda27109	-0.07931716
31	0xbe459228	-0.19294035
32	0xbe36373b	-0.17794506
33	0x3e5b4293	0.21412115
34	0x3dfbe1ed	0.12298951
35	0x3db8945b	0.090126716
36	0x3c6b167d	0.014348623
37	0xbe09be3c	-0.13451475
38	0x3d6e5e86	0.058195613
39	0xbc9ade72	-0.018904898
40	0x3a91d53f	0.0011126174
41	0x3cdf6717	0.027270837
42	0x3c407b81	0.011748196
43	0x3d0f93c5	0.035053033
44	0xbe459fd6	-0.19299254
45	0xbc718688	-0.014741547
46	0xbe1268f9	-0.14297856
47	0xbd9a8fe5	-0.07546977
48	0x3d290b86	0.041270755
49	0x3de4582a	0.111496285
50	0x3c953cdd	0.018217498
51	0x3db9e2e0	0.09076476
52	0x3c84013d	0.016113872
53	0xbe0cc05a	-0.13745251
54	0xbe0ec39e	-0.1394181
55	0x3e482dcb	0.19548719
56	0xbe311b8b	-0.17295663
57	0x3e6287b2	0.22122076
58	0x3e3af013	0.18255644
59	0x3dcb1059	0.099152274
60	0x3c393681	0.011304499
61	0x3e63620b	0.22205369
62	0xbe2123a0	-0.15736246
63	0xbde0d11d	-0.10977385
64	0xbdbc8435	-0.09204904
65	0x3e5f53fa	0.21809378
66	0x3e32acd4	0.17448741
67	0x3e0c7b01	0.13718797
68	0xbcd6ea31	-0.026234718
69	0xbe8423c5	-0.2580854
70	0x3e562e4f	0.20916103
71	0xbe1b45fb	-0.15163414
72	0x3e74e3e3	0.23915057
73	0xbc14b437	-0.00907617
74	0x3cc1cc79	0.02365707
75	0x3dcec73a	0.10096593
76	0x3e1c985c	0.15292495
77	0x3e173402	0.14765933
78	0xbe410055	-0.18847783
79	0x3dd7ed67	0.10543328
80	0xbd323ee9	-0.043517027
81	0xbd2b3635	-0.041799743
82	0xbd529bf7	-0.05141827
83	0x3e09d2dd	0.13459344
84	0xbb9c7209	-0.0047743362
85	0x3e4b08f6	0.19827637
86	0x3b8c381f	0.004279151
87	0xbe2e05e4	-0.16994435
88	0xbdbe179b	-0.09281846
89	0xbd4cdabb	-0.050013285
90	0x3d1d48d6	0.03839954
91	0xbdda5a47	-0.1066175
92	0x3cc3f488	0.023920313
93	0x3e102210	0.14075494
94	0x3db9c427	0.09070616
95	0xbe30fa51	-0.17282988
96	0xbe691af6	-0.22764191
97	0xbbefa40f	-0.0073132585
98	0xbe446fc4	-0.1918326
99	0x3c3579f7	0.011076442
100	0x3d2daca4	0.04240097
101	0x3c7e133c	0.0155075155
102	0xbe47b74b	-0.19503514
103	0x3dbca1ac	0.09210524
104	0xbe2b1a9c	-0.1670937
105	0x3da254df	0.07926344
106	0x3d8e6179	0.06952185
107	0x3d06d1e9	0.03291503
108	0x3e8cf170	0.27527952
109	0x3e3f106a	0.18658605
110	0x3cbbddf4	0.022932984
111	0x3e0bc19a	0.13648072
112	0xbe09683d	-0.1341867
113	0xbc5b76b7	-0.013395003
114	0xbe34cad6	-0.17655501
115	0xbc0e8bef	-0.008700355
116	0xbb9418e7	-0.00451957
117	0x3e247978	0.16061962
118	0xbd873b66	-0.06603126
119	0xbd19ab12	-0.03751666
120	0x3e3cf81f	0.18454026
121	0xbda5225a	-0.08063193
122	0x3e4202f4	0.18946439
123	0xbe2bd9bb	-0.16782276
124	0xbd630e76	-0.055433713
125	0x3d84f635	0.06492273
126	0x3e6da024	0.2320562
127	0x3e563c41	0.20921423
128	0xbd3f89f2	-0.046762414
129	0x3e111de2	0.14171556
130	0xbe4782bb	-0.19483463
131	0xbdd536c2	-0.10410835
132	0xbdd6cda7	-0.10488444
133	0x3d32c38b	0.043643516
134	0x3d53722c	0.051622555
135	0x3e144b1e	0.1448178
136	0x3d9fe22f	0.07806813
137	0xbd9640aa	-0.073365524
138	0x3d176db4	0.036969855
139	0xbe2c5f88	-0.16833317
140	0x3dce6e39	0.10079617
141	0x3d98d150	0.07461798
142	0xbca09755	-0.01960341
143	0x3c2e46c3	0.010636988
144	0xbb67710e	-0.0035315189
145	0xbe2ce7fb	-0.16885369
146	0xbc860dc1	-0.01636398
147	0xbe8fa9dd	-0.28059283
148	0xbe365fa3	-0.1780992
149	0x3dbf0e03	0.093288444
150	0xbdf69270	-0.120396495
151	0xbe02b161	-0.12762977
152	0xbcd868bf	-0.026417134
153	0xbd99f341	-0.075171
154	0xbd0891a8	-0.033342034
155	0x3e361ad8	0.17783678
156	0xbe09a5d4	-0.13442165
157	0x3e45a00f	0.19299339
158	0xbe3fad47	-0.18718444
159	0x3e564032	0.20922926
160	0x3d9258f1	0.071458705
161	0xbd9592df	-0.07303404
162	0xbdaa4e81	-0.08315755
163	0xbdca70a4	-0.09884766
164	0x3d967a36	0.07347529
165	0x3da17379	0.07883353
166	0x3e2d86de	0.16945979
167	0x3c82874f	0.01593366
168	0xbe2865f4	-0.16445142
169	0x3e0b6f33	0.13616638
170	0xbd6ec64a	-0.058294572
171	0xbde02e1b	-0.10946294
172	0xbd1f6a8c	-0.03891997
173	0xbe6d58b8	-0.23178375
174	0xbd606f28	-0.054793507
175	0xbe80c38e	-0.25149196
176	0xbe7d2a36	-0.24723133
177	0xbbaa0b70	-0.0051893517
178	0xbe28cba6	-0.16483936
179	0x3e32b987	0.17453586
180	0xbdb0898e	-0.086199865
181	0xbe54f92f	-0.20798181
182	0xbddec5d1	-0.10877574
183	0x3e35fdb6	0.17772564
184	0xbded1c04	-0.11577609
185	0xbc1283f8	-0.008942597
186	0xbd74c25a	-0.05975566
187	0xbcdb8102	-0.026794914
188	0xba4d4721	-0.00078307284
189	0xbdad2bf0	-0.08455646
190	0xbe4053f2	-0.18782023
191	0xbdf335c6	-0.11875491
192	0x3dbf9cde	0.09356092
193	0x3ccd52c6	0.025063884
194	0x3e0948dd	0.13406701
195	0xbe1c6121	-0.15271427
196	0xbd739d94	-0.05947645
197	0x3de0d390	0.10977852
198	0xbdbcae57	-0.0921294
199	0x3e33c5a4	0.17555863
200	0xbe1b000b	-0.15136735
201	0x3e05cf37	0.13067327
202	0xbdcf4f55	-0.10122553
203	0xbad30715	-0.0016100133
204	0xbe50fb95	-0.20408471
205	0xbc5e9e18	-0.013587497
206	0xbe57798b	-0.21042459
207	0x3e2d2a62	0.16910699
208	0x3e824cfa	0.25449353
209	0x3e737dcf	0.23778461
210	0xbd5dae1f	-0.054121133
211	0x3daa22fd	0.08307455
212	0xbd8e734c	-0.06955585
213	0xbe85a534	-0.26102602
214	0xbdb50fe1	-0.08840919
215	0x3d4f2508	0.050572425
216	0x3da490d3	0.080354355
217	0x3def620f	0.11688625
218	0xbe218d0f	-0.15776466
219	0xbe73047b	-0.23732178
220	0x3df2ec49	0.11861474
221	0xbe179944	-0.1480456
222	0x3d6a820d	0.057252932
223	0xbe0adb4f	-0.13560222
224	0x3cac59c8	0.021038905
225	0x3e8dede6	0.27720565
226	0x3e1d3f3a	0.1535615
227	0x3ce76bb5	0.0282496
228	0x3d186a21	0.037210587
229	0x3decd5a2	0.11564185
230	0xbcfca5b1	-0.030840727
231	0xbc081f40	-0.008308232
232	0x3cabe682	0.020983938
233	0x3d916225	0.07098798
234	0x3e09e26f	0.13465284
235	0x3ca43bd7	0.020048065
236	0x3e75150f	0.23933814
237	0xbd123be5	-0.03570165
238	0xbde78b64	-0.113058835
239	0xbd58573c	-0.05281757
240	0x3dcf6a97	0.10127752
241	0xbcd4d053	-0.025978243
242	0x3e25093c	0.16116804
243	0x3e90e037	0.28296062
244	0x3d2377ed	0.039909292
245	0xbdb61f63	-0.08892705
246	0xbd86e089	-0.065857954
247	0xbe658ca1	-0.22416927
248	0xbd337548	-0.04381302
249	0x3dac6ec2	0.08419563
250	0xbdd65b7e	-0.104666695
251	0x3e0f8b9d	0.14018102
252	0x3cbcae2f	0.023032276
253	0x3cbf8c73	0.023382401
254	0xbe7e1c91	-0.24815585
255	0x3e6a3fd7	0.22875915

bias_ih f4 [150]
0	0x3c8be89a	0.017078687
1	0x3bd706e2	0.0065621
2	0x3c5d43c0	0.013504922
3	0x3ddedfc6	0.10882525
4	0x3e1294ca	0.14314571
5	0xbe0e9e80	-0.1392765
6	0xbd43e286	-0.04782345
7	0x3cad9fc4	0.021194346
8	0x3e0a1f9c	0.1348862
9	0x3cb67dbf	0.022276757
10	0xbd3af87a	-0.045647122
11	0x3e52c60c	0.20583361
12	0xbcd454de	-0.025919374
13	0xbd589d5a	-0.052884437
14	0x3deed94e	0.11662541
15	0x3e69a852	0.22818115
16	0xbd17200b	-0.036895793
17	0x3e32e527	0.17470227
18	0xbae8bb16	-0.0017755951
19	0x3da0f032	0.078583136
20	0x3d855a51	0.06511367
21	0x3d29c4dc	0.041447505
22	0x3e1a2268	0.15052187
23	0x3d6d1094	0.05787714
24	0x3c95ad5a	0.018271137
25	0x3e6adabd	0.22935005
26	0x3ea0788c	0.3134197
27	0x3bad9498	0.005297255
28	0x3e952cab	0.2913564
29	0x3e2777c1	0.16354276
30	0xbd533f1d	-0.05157386
31	0x3dad1e3f	0.084530346
32	0x3dbff881	0.0937357
33	0xbe36226b	-0.17786567
34	0x3e59f967	0.21286546
35	0x3c0a6643	0.008447233
36	0x3dbd8f22	0.09255816
37	0x3dd87e4d	0.10570965
38	0xbe35e6b9	-0.17763795
39	0x3d9c5140	0.07632685
40	0x3b731833	0.0037093281
41	0x3de88f2f	0.11355435
42	0x3b9c41ee	0.0047686016
43	0x3df2eb86	0.11861329
44	0x3db3647a	0.08759399
45	0x3dbb90d7	0.091584854
46	0xbbb425d6	-0.0054976745
47	0x3e385dfd	0.18004604
48	0x3e5740d4	0.21020824
49	0x3e425418	0.18977392
50	0xbd884669	-0.06654055
51	0xbd586265	-0.05282821
52	0xbc869686	-0.016429197
53	0xbe9b6604	-0.3035127
54	0xbe5b6764	-0.21426159
55	0xbe95b07f	-0.29236218
56	0xbe66fb43	-0.22556786
57	0xbdb79aa2	-0.08965041
58	0x3da94d7a	0.082667306
59	0xbd8fb06b	-0.07016071
60	0xbe7fb420	-0.24971056
61	0x3c7831cc	0.015148591
62	0xbe600bc5	-0.2187949
63	0xbd08f858	-0.033439964
64	0xbe2136a8	-0.15743506
65	0xbe2adedf	-0.16686581
66	0xbe2f42c1	-0.17115308
67	0xbf026882	-0.50940716
68	0xbdef452b	-0.116831146
69	0xbe10d23a	-0.14142695
70	0xbe06785e	-0.13131854
71	0xbe59b393	-0.21259908
72	0xbd2d69da	-0.042337276
73	0xbc8619ca	-0.016369719
74	0x3c924438	0.017854795
75	0xbf0595e0	-0.52181816
76	0xbece5a4b	-0.40303263
77	0xbe7a7204	-0.24457556
78	0xbebd9532	-0.3702789
79	0xbe3c90cd	-0.18414612
80	0xbd8a8547	-0.06763702
81	0xbe43ee10	-0.19133782
82	0xbcfcd558	-0.030863449
83	0xbd5b2541	-0.053502325
84	0xbdc5d2c5	-0.09659342
85	0xbdd24a0e	-0.10268031
86	0xbe13d574	-0.14436895
87	0xbeafbbc3	-0.34322938
88	0xbe606153	-0.21912126
89	0xbe966b39	-0.2937868
90	0xbec140ba	-0.37744695
91	0xbe84f2d3	-0.2596651
92	0xbe85cc28	-0.2613232
93	0xbe00a7ba	-0.12563983
94	0xbe88da87	-0.26729223
95	0xbe066058	-0.1312269
96	0xbe434877	-0.19070612
97	0xbec669ac	-0.38752496
98	0xbe6e32ef	-0.23261617
99	0xbe911106	-0.283333
100	0xbe5e42c6	-0.2170516
101	0x3d710c0b	0.058849376
102	0xbe5f882d	-0.2182929
103	0xbe75ef0a	-0.24016967
104	0xbe1b0f28	-0.151425
105	0x3e70f9fd	0.23532863
106	0xbe3462de	-0.1761584
107	0x3dd344fe	0.103158936
108	0x3d58f3cd	0.05296688
109	0x3e681834	0.22665483
110	0xbbb6238c	-0.0055584367
111	0x3e5829d9	0.21109714
112	0xbdcc6543	-0.09980252
113	0xbd284132	-0.0410778
114	0xbde5cac7	-0.11220317
115	0x3e70957b	0.23494522
116	0x3e24ced4	0.16094524
117	0xbdc3ffe1	-0.095702894
118	0xbd99ec14	-0.075157315
119	0xbb64ea88	-0.003492983
120	0x3e5d84b8	0.2163266
121	0xbe1193eb	-0.14216582
122	0x3c8989fc	0.016789429
123	0xbe0e4934	-0.13895112
124	0x3e422be2	0.18962052
125	0xbe1b3052	-0.15155151
126	0xbe314202	-0.17310336
127	0x3e448416	0.19191012
128	0xbd0f3fd2	-0.034972973
129	0x3d089ad7	0.03335079
130	0xbe813380	-0.25234604
131	0xbe752c37	-0.23942648
132	0xbe16c6f9	-0.1472434
133	0x3e521e53	0.2051938
134	0x3d580d45	0.05274703
135	0x3e125f1b	0.14294092
136	0x3e4c3867	0.19943391
137	0xbdc30145	-0.095217265
138	0xbe5c1648	-0.21492875
139	0xbe389a48	-0.18027604
140	0xbe0938d6	-0.13400587
141	0xbde4d8d0	-0.11174166
142	0x3e45d806	0.19320688
143	0x3d928c3b	0.07155653
144	0x3e68837e	0.2270641
145	0xbe78f09c	-0.24310535
146	0xbde0cfc8	-0.10977131
147	0x3e45ba37	0.19309317
148	0xbe6af24c	-0.22943991
149	0x3e09f179	0.13471021

bias_hh f4 [150]
0	0x3e257a95	0.16160043
1	0x3df0d239	0.11758847
2	0x3e1e0e12	0.15435055
3	0x3de47942	0.111559406
4	0x3e44e511	0.19228007
5	0x3d857d97	0.06518095
6	0x3e5212ef	0.20515035
7	0x3e631566	0.22176132
8	0x3d4c6c93	0.049908232
9	0x3da16be7	0.07881909
10	0x3d974a93	0.07387271
11	0x3d423e69	0.0474228
12	0x3e23a3e5	0.1598049
13	0x3ddeb075	0.108735
14	0xbce2a3f3	-0.027666068
15	0x3bda1a54	0.0066559706
16	0x3e3d1154	0.18463641
17	0xbd5bb0be	-0.05363535
18	0x3e51eb34	0.20499879
19	0x3e341083	0.17584424
20	0xbd195d53	-0.037442517
21	0x3e3c792c	0.18405598
22	0xbd4b9729	-0.049704704
23	0xbd0c984a	-0.03432492
24	0x3e141766	0.14462051
25	0x3e33ccbb	0.17558567
26	0x3ea4e1b4	0.32203448
27	0xbd406703	-0.04697324
28	0x3e81f105	0.25379196
29	0x3db71133	0.08938827
30	0xbda81f97	-0.0820915
31	0x3e15d3ad	0.14631529
32	0x3dd7c0ca	0.105348185
33	0xbdef0f40	-0.116728306
34	0x3d6771ae	0.056504898
35	0x3d2f44f6	0.042790376
36	0x3ab7d9c0	0.0014026687
37	0x3d386f80	0.04502821
38	0x3c6f2104	0.014595274
39	0x3d93d89a	0.07219048
40	0x3d3fa1b6	0.04678508
41	0xbce74ce1	-0.0282349
42	0x3d8644d3	0.06556096
43	0x3e56baaa	0.20969644
44	0x3e5232a8	0.20527136
45	0x3daec129	0.08532936
46	0x3e517e05	0.20458229
47	0xbc9c30b7	-0.019066198
48	0x3dc89e93	0.09795871
49	0x3daf8b98	0.08571547
50	0xbd716861	-0.058937434
51	0xbe051a3a	-0.12998286
52	0xbe7b3545	-0.2453204
53	0xbed21798	-0.41033626
54	0x3d2984d0	0.041386425
55	0xbdf8d601	-0.12150193
56	0xbd417a2e	-0.04723566
57	0xbd45f553	-0.048329663
58	0x3d525397	0.05134925
59	0xbd6512f0	-0.055926263
60	0xbe80d9ee	-0.25166267
61	0xbd44e706	-0.048071884
62	0xbe805caf	-0.25070712
63	0xbd19cc85	-0.03754856
64	0xbe96fc79	-0.29489496
65	0xbcbec664	-0.02328796
66	0xbd9a53b1	-0.07535494
67	0xbeb86f87	-0.3602259
68	0xbe86fdd5	-0.26365533
69	0xbe2ab1c9	-0.16669382
70	0xbe4cab28	-0.19987166
71	0xbccb7ee3	-0.024840778
72	0xbda05b88	-0.07829958
73	0xbe84d6e9	-0.25945213
74	0xbd11d841	-0.035606626
75	0xbecc3ebb	-0.3989161
76	0xbea78b95	-0.3272368
77	0xbd99450f	-0.07483875
78	0xbe93c64e	-0.28862232
79	0xbe66c146	-0.22534665
80	0xbe2f5d25	-0.17125376
81	0xbe4d423b	-0.20044796
82	0xbd2848de	-0.041085117
83	0xbd800507	-0.06250959
84	0x3b94354a	0.004522954
85	0xbe616e52	-0.2201474
86	0xbd9011bc	-0.070346326
87	0xbe461be4	-0.19346577
88	0xbe888dfc	-0.26670825
89	0xbd62ed49	-0.055402074
90	0xbe84fee6	-0.25975722
91	0xbe2f9f9e	-0.17150733
92	0xbd1c176e	-0.03810828
93	0xbe8d3aa8	-0.27583814
94	0xbef6c771	-0.48199037
95	0xbe861710	-0.2618947
96	0xbeac7448	-0.33682466
97	0xbeaeac53	-0.34115848
98	0xbe329d77	-0.1744288
99	0xbe866ebb	-0.26256356
100	0xbe605adb	-0.21909659
101	0x3e561336	0.20905766
102	0xbe228849	-0.15872301
103	0xbce0fc36	-0.027464014
104	0xbe4a093f	-0.1973009
105	0x3cbb9b02	0.022901062
106	0xbe65c1da	-0.2243723
107	0x3e6ea95d	0.23306794
108	0x3db4b521	0.0882361
109	0x3e0293f5	0.12751754
110	0xbd731c51	-0.059353177
111	0x3e480398	0.19532621
112	0xbe3c4d7e	-0.18388936
113	0x3cdb7dbc	0.026793353
114	0xbdaba5cb	-0.08381232
115	0x3e689588	0.22713292
116	0x3e72a36c	0.23695153
117	0xbd261391	-0.040546004
118	0xbe455725	-0.19271524
119	0xbe0cdc05	-0.13755806
120	0x3df0c293	0.11755862
121	0xbe487375	-0.19575293
122	0x3c7c5bb1	0.01540272
123	0xbdfd85d0	-0.12379038
124	0x3e11f136	0.14252171
125	0xbe2b88d1	-0.1675141
126	0xbdad606c	-0.08465657
127	0xbc3a1708	-0.01135803
128	0xbe187841	-0.14889623
129	0x3d811e0b	0.06304558
130	0x3cb2affa	0.021812428
131	0xbe615cd3	-0.22008066
132	0xbe06eda0	-0.13176584
133	0xbc894bd5	-0.016759792
134	0x3d1e9847	0.03871944
135	0x3c54cd3e	0.012988387
136	0x3e21f3eb	0.15815704
137	0xbd61a547	-0.05508926
138	0x3cc78831	0.024356933
139	0xbe272e5f	-0.16326283
140	0xbd94fc3a	-0.07274671
141	0xbdb953af	-0.090491645
142	0x3e23e49a	0.16005173
143	0x3d74311f	0.059617158
144	0x3de6132d	0.11234126
145	0xbd7c58c0	-0.061608076
146	0xbe3ff5aa	-0.18746057
147	0x3db08f4c	0.08621082
148	0xbe5f3a69	-0.21799625
149	0x3e56e313	0.2098506

weight_ih f4 [150, 50]
0	0x3c5cf294	0.0134855695
1	0x3e3b0cc7	0.18266593
2	0xbbbaa029	-0.005695362
3	0xbe13f5cf	-0.14449237
4	0x3d886fad	0.066619255
5	0x3e176feb	0.14788787
6	0xbd3f992f	-0.046776947
7	0x3dc6d787	0.09709077
8	0x3dcefbbe	0.1010661
9	0x3d9997e6	0.074996755
10	0xbdab6c76	-0.08370297
11	0x3c99775c	0.018733673
12	0xbdc893da	-0.097938254
13	0xbe21bca4	-0.15794617
14	0xbc2fca0b	-0.010729323
15	0xbc613dd8	-0.013747655
16	0x3c254a4e	0.010088516
17	0xbe84e496	-0.25955647
18	0xbe7152f8	-0.23566806
19	0x3e090407	0.13380443
20	0x3cc0a845	0.023517737
21	0xbe15fe58	-0.14647806
22	0x3c9a6dfb	0.01885127
23	0xbe12348e	-0.1427786
24	0x3e0e3b05	0.13889702
25	0xbe7a93b5	-0.24470408
26	0xbab87afc	-0.0014074738
27	0x3e25d8b7	0.16195951
28	0xbde712f6	-0.112829134
29	0x3e73f9b2	0.2382572
30	0x3d6ca7f4	0.05777736
31	0x3e2727f5	0.16323836
32	0xbde49daf	-0.11162888
33	0xbc56d2f2	-0.013111817
34	0xbde9def3	-0.11419477
35	0x3e0c52eb	0.13703506
36	0x3e03d82e	0.12875435
37	0xbdf740ea	-0.12072928
38	0xbddc2ced	-0.107507564
39	0x3d5d28f5	0.053994138
40	0xbe768e7f	-0.24077795
41	0xbe3e2fdf	-0.18572949
42	0x3bdbb471	0.00670486
43	0x3d2b96da	0.04189191
44	0x3d45ff51	0.04833919
45	0xbe71f2ce	-0.23627779
46	0xbe24be9a	-0.16088334
47	0x3e482b48	0.1954776
48	0xbc26048c	-0.01013292
49	0x3e02b051	0.12762572
50	0x3da449db	0.08021899
51	0x3e23fbdd	0.16014047
52	0x3dc8b34c	0.09799823
53	0xbd5de5ae	-0.054174118
54	0xbe0a03eb	-0.13478057
55	0x3e5adbf8	0.21372974
56	0xbe234d30	-0.15947413
57	0x3df31c9d	0.11870692
58	0x3bacef07	0.0052775177
59	0x3e0704c4	0.13185412
60	0x3d2537a4	0.040336266
61	0xbd98d79d	-0.07463
62	0xbe35df10	-0.17760873
63	0x3c33dde2	0.010978194
64	0xbddcc508	-0.10779768
65	0x3e311363	0.17292552
66	0x3e3b1232	0.1826866
67	0xbdd775f8	-0.10520548
68	0xbe2f63ec	-0.17127961
69	0x3d3dfc11	0.046382967
70	0x3c94a662	0.018145744
71	0x3c6c1d32	0.014411258
72	0x3e25d71d	0.1619534
73	0x3b6891d5	0.0035487313
74	0xbd0f6b05	-0.03501417
75	0xbe48a1b0	-0.19592929
76	0xbe816597	-0.2527282
77	0x3daf417c	0.08557412
78	0xbdee264c	-0.11628398
79	0x3e6cee5b	0.231378
80	0xbe16fd76	-0.14745125
81	0xbd2d36ba	-0.04228852
82	0xbd3e4355	-0.04645093
83	0x3caf63e5	0.021409938
84	0xbcdbc9e8	-0.026829675
85	0x3dde02eb	0.108404
86	0x3c02826e	0.007965667
87	0xbe3cd5f4	-0.18440992
88	0xbdfbebeb	-0.12300857
89	0xbdbc542b	-0.09195741
90	0xbe04d64d	-0.12972374
91	0xbd910944	-0.070818454
92	0x3d1f1c49	0.038845334
93	0x3c6623d1	0.014046625
94	0x3e30fc93	0.1728385
95	0xbe4489c1	-0.19193174
96	0xbe2775b6	-0.16353497
97	0x3e3bd903	0.18344502
98	0x3d404700	0.04694271
99	0x3d1540d3	0.036438774
100	0xbd0b372f	-0.033988174
101	0x3e3512d9	0.17682971
102	0xbc74e732	-0.014947699
103	0x3d247f8a	0.040160693
104	0x3c680144	0.014160458
105	0x3dc3d66c	0.09562382
106	0xbdb2db91	-0.08733285
107	0x3e234b82	0.15946773
108	0x3e0451cf	0.12921833
109	0x3dc42ac2	0.09578468
110	0x3d1ec244	0.038759485
111	0x3e2f99fb	0.17148583
112	0xbdc37c1b	-0.095451556
113	0xbd97f149	-0.07419068
114	0xbe20eb93	-0.15714864
115	0xbd84970e	-0.06474124
116	0x3de465b3	0.1115221
117	0xbe74025f	-0.2382903
118	0xbd319487	-0.043354537
119	0x3d42d0d2	0.047562428
120	0x3e11a977	0.14224802
121	0x3db7de86	0.0897799
122	0x3e34bd72	0.17650393
123	0xbdf5a80f	-0.11994945
124	0x3db29517	0.08719843
125	0x3a1434a5	0.00056535966
126	0xbdac693b	-0.084185086
127	0x3de13b65	0.10997657
128	0xbe2928d3	-0.1651948
129	0x3e0796bb	0.13241093
130	0xbdb87715	-0.09007088
131	0x3db41abc	0.08794162
132	0x3d901391	0.07034982
133	0x3ce8fd96	0.028441232
134	0x3d66c78f	0.056342658
135	0x3e228ff9	0.15875234
136	0x3d1a45d8	0.037664264
137	0xbe6e9725	-0.23299845
138	0xbdfdd0f6	-0.12393372
139	0xbcca01d4	-0.024659075
140	0xbe9f0c7a	-0.31064206
141	0xbed4eccb	-0.4158691
142	0x3d2f47db	0.042793136
143	0xbdffe2cc	-0.1249443
144	0x3d7ed76b	0.062217157
145	0x3c3c3bf6	0.011488905
146	0xbe219872	-0.1578081
147	0x3e409759	0.18807735
148	0xbd8807d9	-0.06642122
149	0x3e0f065d	0.13967271
150	0xbd535b40	-0.051600695
151	0x3e1a3a7c	0.15061373
152	0xbdf89dd0	-0.12139475
153	0xbe6da842	-0.23208717
154	0xbe16a912	-0.14712933
155	0x3c54a77d	0.012979385
156	0xbe353561	-0.17696144
157	0x3dd2f320	0.10300279
158	0x3d1fbb31	0.03899688
159	0x3db5f6c2	0.08884956
160	0xbdd35363	-0.10318639
161	0xbcd1d284	-0.025613077
162	0xbe7a1c1b	-0.24424784
163	0xbe399b63	-0.18125682
164	0xbe02fc1c	-0.12791485
165	0x3d9e0fa9	0.07717831
166	0xbac90190	-0.0015335549
167	0xbe5635b7	-0.20918928
168	0xbc7573ab	-0.014981191
169	0xbd0e5e5e	-0.034757964
170	0x3ccfbc38	0.025358304
171	0xbdf7eee0	-0.12106109
172	0x3e4e69b8	0.20157516
173	0xbd2762ee	-0.04086583
174	0xbd5b2048	-0.053497583
175	0xbda4f7c1	-0.08055068
176	0xbe326041	-0.1741953
177	0x3e520457	0.20509468
178	0xbd7ea20c	-0.06216626
179	0xbc16bd42	-0.009200396
180	0x3dc29a43	0.09502079
181	0x3dcd2575	0.1001691
182	0xbdcdf8f1	-0.100572474
183	0xbd881e07	-0.06646352
184	0x3d721c5d	0.05910908
185	0x3d973af0	0.07384288
186	0xbc87fba1	-0.016599478
187	0xbe9edf10	-0.31029558
188	0x3d2229a6	0.0395905
189	0x3c11ce68	0.008899309
190	0xbe236439	-0.159562
191	0xbe8defbd	-0.27721968
192	0x3e5ce2c2	0.21570876
193	0xbbae1f28	-0.0053137727
194	0x3e3086d2	0.1723893
195	0xbd18bf1c	-0.03729163
196	0xbde50deb	-0.11184295
197	0x3e295749	0.16537203
198	0xbe37d201	-0.17951204
199	0x3d8c8625	0.068615235
200	0x3d252aa9	0.040323887
201	0x3d7f12cf	0.062273797
202	0x3bc84be6	0.0061125634
203	0xbe84c61f	-0.25932404
204	0xbe4f3bd9	-0.20237674
205	0xbc0a4dd9	-0.008441412
206	0xbe4c2501	-0.19935991
207	0x3afb05f1	0.0019151551
208	0x3dd77b6d	0.105215885
209	0x3cad72fc	0.021172993
210	0xbe6f830e	-0.23389837
211	0x3c41801d	0.01181033
212	0xbd678a7a	-0.056528546
213	0xbe5e5730	-0.21712947
214	0xbe00c167	-0.12573777
215	0x3db11a0e	0.08647548
216	0x3e40aca0	0.18815851
217	0xbec9b868	-0.39398503
218	0xbe84e389	-0.25954846
219	0xbdd45e59	-0.10369558
220	0x3dcad5c0	0.09904051
221	0xbde48149	-0.11157472
222	0x3dd02e2c	0.101650566
223	0x3c290f03	0.0103185205
224	0x3dac0f9f	0.08401417
225	0xbe86ad0e	-0.26303905
226	0xbdaf77dc	-0.08567783
227	0x3e661ba5	0.22471483
228	0xbe90c13d	-0.2827243
229	0x3e14fdd4	0.14549953
230	0xbdcb1150	-0.099154115
231	0x3dff9457	0.124794655
232	0xbdccf6aa	-0.10007985
233	0x3e624746	0.22097501
234	0xbdeabcbf	-0.11461782
235	0x3e58ff11	0.2119105
236	0xbd04b19a	-0.032395937
237	0xbe0d7c99	-0.13817061
238	0xbdbe636d	-0.09296308
239	0xbe79182a	-0.24325624
240	0xbe908a3d	-0.28230467
241	0xbdf1167f	-0.11771869
242	0x3db606c8	0.08888012
243	0xbd20f060	-0.03929174
244	0x3ec5bc36	0.38620156
245	0xbe19bd96	-0.15013728
246	0xbe9757ec	-0.29559267
247	0x3e23dda9	0.16002525
248	0xbddee37a	-0.108832315
249	0x3e08a448	0.13343918
250	0xbd511a8e	-0.051050715
251	0x3e364b23	0.178021
252	0xbe21be4c	-0.15795249
253	0xbda45dce	-0.08025704
254	0x3c2bd741	0.010488332
255	0x3e97a7ba	0.29620153

weight_hh f4 [150, 50]
0	0xbcaee552	-0.021349583
1	0xbdf3149c	-0.11869165
2	0xbe3bafac	-0.18328732
3	0xbd98b7a9	-0.074569054
4	0x3dda0094	0.106446415
5	0x3e211f7a	0.15734664
6	0xbdb14dde	-0.0865743
7	0xbddd8ed4	-0.10818258
8	0x3cb1e6af	0.021716444
9	0xbe4d1e13	-0.20031004
10	0xbb814303	-0.003944756
11	0xbc81290e	-0.015766647
12	0xbce980e7	-0.028503848
13	0x3cff9e8f	0.031203536
14	0xbe0fbdd4	-0.14037257
15	0x3e2fd6bd	0.1717176
16	0x3d79f4a7	0.061024334
17	0xbd3e1666	-0.04640808
18	0xbd88443d	-0.066536404
19	0x3bd21671	0.0064113666
20	0x3e3c5a23	0.1839376
21	0x3e1a61a9	0.15076317
22	0x3d2e7027	0.042587426
23	0x3e03325e	0.12812182
24	0xbb3d4a2c	-0.0028883321
25	0xbcab1639	-0.02088462
26	0xbdb57e0a	-0.08861931
27	0x3debab40	0.11507273
28	0xbe1167ff	-0.14199828
29	0x3e212970	0.15738463
30	0x3e433951	0.19064833
31	0x3be6a940	0.007039219
32	0x3cb328f5	0.021870116
33	0x3d974206	0.0738564
34	0x3e24f8dc	0.16110557
35	0xbc3e167d	-0.011602041
36	0x3de5b9ce	0.1121708
37	0xbdddd3e6	-0.10831432
38	0x3c550596	0.01300182
39	0x3d3fe487	0.0468488
40	0xbda30d45	-0.07961515
41	0x3aa1fc2e	0.0012358481
42	0xbb474afd	-0.0030409687
43	0x3e494fdd	0.19659372
44	0x3c2a6a3a	0.010401303
45	0xbc2bf482	-0.010495307
46	0xbd49d894	-0.04927881
47	0x3d954fbe	0.072906
48	0xba56d696	-0.0008195428
49	0x3e348ebf	0.17632578
50	0xbd68e68d	-0.056860495
51	0xbda64185	-0.081179656
52	0xbe0159d7	-0.12631927
53	0xbd21053b	-0.03931163
54	0x3db6cb7a	0.08925529
55	0x3e4309c0	0.19046688
56	0xbdaec274	-0.08533183
57	0x3bb08b14	0.005387673
58	0x3d72f27b	0.05931328
59	0x3cac1e2d	0.021010483
60	0x3e0c59d1	0.13706137
61	0xbe32e4a4	-0.17470032
62	0xbd8d87a8	-0.0691064
63	0xbd659424	-0.05604948
64	0x3acdf4ef	0.0015713255
65	0xbd8cb049	-0.06869561
66	0xbd572863	-0.05252875
67	0xbda3d054	-0.0799872
68	0x3cfc7b9d	0.030820662
69	0x3dc0108c	0.09378156
70	0x3e1df168	0.1542412
71	0x3e1f9a1c	0.15586132
72	0xbd24326c	-0.04008715
73	0xbe00c799	-0.1257614
74	0x3caa69a1	0.02080232
75	0xbdcb378f	-0.09922706
76	0x3e263e9a	0.16234818
77	0xbdd84f24	-0.1056197
78	0xbc17388d	-0.009229791
79	0x3ce8f9a3	0.028439349
80	0xbc84c1fc	-0.01620578
81	0xbdac27fc	-0.08406064
82	0xbbacd747	-0.0052746865
83	0xbd99257a	-0.07477851
84	0x3dc80edf	0.097684614
85	0x3e1013ba	0.14070025
86	0x3e3630d7	0.17792068
87	0xbc0502db	-0.008118357
88	0x3b034c17	0.0020034367
89	0x3d6779e8	0.056512743
90	0x3cfdf8ac	0.031002365
91	0xbe250835	-0.16116412
92	0x3db84cd2	0.08999027
93	0x3defef10	0.117155194
94	0x3d887ec4	0.066648036
95	0xbe63cb28	-0.22245467
96	0x3dcc297c	0.0996885
97	0xbd0f442e	-0.03497713
98	0x3daf246f	0.08551871
99	0xbd822200	-0.06354141
100	0x3df2351b	0.11826535
101	0xbe3533de	-0.17695567
102	0xbd668db2	-0.056287475
103	0x3d686a57	0.05674204
104	0x3de46bb7	0.111533575
105	0x3e046491	0.12928988
106	0x3c8c76d1	0.0171465
107	0xbcc4e877	-0.02403663
108	0xbc3b6f0d	-0.011440051
109	0xbe05955a	-0.13045254
110	0x3c93576f	0.017986028
111	0xbdac88b6	-0.08424513
112	0xbe447212	-0.1918414
113	0x3e1ac01d	0.15112348
114	0xbe0b0ccf	-0.13579105
115	0x3d600596	0.054692827
116	0xbd6b0ec2	-0.05738712
117	0x3e08f6b9	0.13375367
118	0x3d103038	0.035202235
119	0x3d08b43d	0.033375014
120	0xbca15855	-0.01969544
121	0xbd9843b0	-0.07434785
122	0xbbbb5d47	-0.0057179066
123	0x3d833372	0.06406297
124	0x3d0d0d71	0.034436647
125	0xbd8b3fc4	-0.06799272
126	0x3dfbc80b	0.122940145
127	0x3dfde125	0.123964585
128	0xbe2c91ae	-0.16852447
129	0xbd673b13	-0.056452822
130	0xbc4a6815	-0.012353917
131	0xbdac615a	-0.08417006
132	0x3e209a25	0.15683801
133	0xbdaca603	-0.08430102
134	0xbde3e258	-0.11127156
135	0xbcfd32bd	-0.030907983
136	0x3dcd9187	0.10037523
137	0xbe1d2741	-0.15347005
138	0xbda4b200	-0.08041763
139	0xbd3e5a9b	-0.046473127
140	0x3cf0d723	0.02939946
141	0xbe6d7428	-0.23188841
142	0x3db46f47	0.08810287
143	0x3dd2ae4b	0.1028715
144	0xbda4c986	-0.0804625
145	0x3be3879f	0.0069436575
146	0x3d2aa246	0.041658662
147	0x3e21e007	0.15808116
148	0xbdccce3b	-0.10000273
149	0x3d8fd843	0.070236705
150	0xbd8de92a	-0.06929238
151	0x3d831303	0.064001106
152	0xbd06bcc9	-0.032894883
153	0xbd81c39e	-0.06336139
154	0xbda06385	-0.07831482
155	0x3e54653a	0.2074174
156	0x3d74907d	0.059708107
157	0x3ccf4e8c	0.025306009
158	0x3e367e28	0.17821562
159	0xbcdb5cd2	-0.026777659
160	0xbd501220	-0.050798535
161	0x3d8e2305	0.06940273
162	0xbd71564d	-0.058920193
163	0x3d5ae303	0.05343915
164	0x3da922b6	0.08258574
165	0xbd5e5bdb	-0.05428682
166	0x3d21fb6d	0.03954642
167	0x3da9697f	0.08272075
168	0x3dc03a44	0.09386113
169	0x3db7c6a6	0.08973436
170	0xbbdfdcbb	-0.006831733
171	0x3d85f52f	0.06540906
172	0xbcf426f4	-0.02980373
173	0xbd6065be	-0.05478453
174	0x3ddff132	0.10934676
175	0xbd9d032a	-0.07666619
176	0x3dc60e7b	0.09670731
177	0x3d7597f4	0.059959367
178	0xbde4546c	-0.11148915
179	0xbda4c3c5	-0.080451526
180	0xbd801f62	-0.06255986
181	0x3c8451a3	0.016152209
182	0xbbca70ea	-0.006178011
183	0x3d9c4d82	0.07631971
184	0xbde30ba5	-0.110862054
185	0xbdbe91fb	-0.09305187
186	0x3cff5ce8	0.03117223
187	0xbbb8b0e0	-0.0056363195
188	0x3cbe229c	0.023209862
189	0x3cf8b90e	0.030361678
190	0xbe1fae69	-0.15593876
191	0x3ba8ea4f	0.005154885
192	0x3de3ab5d	0.11116669
193	0xbc0cff41	-0.008605779
194	0x3dce141b	0.100624286
195	0xbe6ddbc3	-0.23228364
196	0xbcc6bdc5	-0.024260411
197	0xbd63d5bf	-0.055623766
198	0x3c6e47a5	0.014543449
199	0xbd3775ff	-0.044790264
200	0x3d30556a	0.043050207
201	0x3d576a6e	0.052591734
202	0xbceff43a	-0.029291261
203	0x3e2ecb30	0.17069697
204	0x3cb93f47	0.02261318
205	0x3e1a4233	0.15064315
206	0xbcee9b59	-0.02912681
207	0xbc1f38d3	-0.009718138
208	0x3d87a395	0.06622998
209	0xbde00d7b	-0.10940071
210	0x3b114aba	0.0022169785
211	0xbd91db08	-0.07121855
212	0x3d32f07b	0.04368637
213	0xbdb715d1	-0.08939708
214	0x3d665064	0.05622901
215	0x3e1c9034	0.15289384
216	0x3d2e427e	0.04254388
217	0xbda84dcd	-0.08217964
218	0xbddbcb24	-0.107321054
219	0x3dc42f6c	0.095793575
220	0x3deb767a	0.11497207
221	0xbde889fa	-0.11354442
222	0xbdde5480	-0.10855961
223	0xbd9a60bd	-0.075379826
224	0xbde0a058	-0.10968083
225	0xbb81a77f	-0.0039567347
226	0x3de4326e	0.11142431
227	0x3dc8364d	0.09775982
228	0x3de46a72	0.11153115
229	0x3d85d7be	0.0653529
230	0x3d2b5408	0.041828185
231	0xbda9f9c2	-0.08299591
232	0x3c2300e8	0.009948947
233	0xbbfbd6e5	-0.0076855295
234	0x3d038c57	0.03211626
235	0x3d0ec3eb	0.03485481
236	0x3d819a5b	0.06328269
237	0xbd1b3490	-0.037891924
238	0x3a1d1564	0.0005992262
239	0x3e07db65	0.13267286
240	0x3d4fb916	0.05071362
241	0xbd9106c3	-0.07081368
242	0x3ce9b408	0.028528228
243	0x3e3ab7c1	0.18234159
244	0x3b85d592	0.0040842975
245	0xbe40d773	-0.18832187
246	0xbd815001	-0.06314088
247	0x3d0783ba	0.03308461
248	0x3dc92f9a	0.098235324
249	0xbd3f2939	-0.046670172
250	0xbe08609a	-0.133181
251	0x3e3e7dc2	0.1860266
252	0xbe0cca6b	-0.13749091
253	0x3db8fbc0	0.090323925
254	0xbcf2791d	-0.029598767
255	0xbd4fa271	-0.050692026

bias_ih f4 [150]
0	0x3d1ec6bc	0.038763747
1	0x3e1fcaa7	0.1560465
2	0x3ce42ca9	0.027853327
3	0x3e0b6630	0.136132
4	0xbd43649c	-0.04770337
5	0x3e0984b3	0.13429527
6	0x3da32e5b	0.07967826
7	0xbdc19844	-0.094528705
8	0x3dc5cb91	0.09657968
9	0xbe61b2cb	-0.2204086
10	0xbd244688	-0.040106326
11	0xbd5656f3	-0.052329015
12	0xbc06c54b	-0.008225749
13	0x3db481f0	0.08813846
14	0x3d7a960c	0.061178252
15	0x3d0ce663	0.0343994
16	0xbca13541	-0.019678714
17	0xbdaf0818	-0.08546466
18	0x3cddbc68	0.027067378
19	0xbe02074e	-0.12698099
20	0x3e0f1b69	0.139753
21	0xbd8a634f	-0.06757223
22	0x3ca02936	0.0195509
23	0x3d7a0f3d	0.06104969
24	0xbe20f1af	-0.15717195
25	0x3de8f8e5	0.11375598
26	0xbe653ac2	-0.22385696
27	0x3dbb0fa7	0.09133845
28	0x3d34a159	0.044099186
29	0x3c26eeaf	0.010188743
30	0xbc2f0e68	-0.010684587
31	0x3d25842f	0.040409263
32	0xbcbf7dc3	-0.023375398
33	0xbe1c898e	-0.15286848
34	0xbc5b9c2d	-0.013403934
35	0xbe46300f	-0.1935427
36	0x3e32f332	0.17475584
37	0x3d2d46e3	0.04230393
38	0x3e54b8fc	0.20773691
39	0x3c049af2	0.0080935825
40	0x3dea9e45	0.11455969
41	0xbdc39f90	-0.095519185
42	0xbc7cb81d	-0.015424755
43	0x3d978610	0.07398617
44	0xbd22af16	-0.039717756
45	0xbde2e5bc	-0.110789746
46	0x3d334b6e	0.043773107
47	0xbe16e6ff	-0.14736556
48	0x3e539e12	0.20665768
49	0x3e35be0b	0.17748277
50	0xbdc9ed8c	-0.098597616
51	0xbe0f047e	-0.13966557
52	0xbe213958	-0.15744531
53	0xbd7d61ff	-0.061861034
54	0xbe817447	-0.25284025
55	0xbe6d59e5	-0.23178823
56	0xbd6e0bfe	-0.058116905
57	0xbe106322	-0.14100316
58	0xbcbb3a11	-0.022854837
59	0x3c145d8d	0.009055507
60	0xbe40eb56	-0.18839774
61	0xbde6d3e4	-0.11270884
62	0x3c6dd847	0.014516897
63	0xbd10ecc3	-0.035382044
64	0xbe21b8bb	-0.15793125
65	0xbd65d249	-0.056108747
66	0xbde71432	-0.11283149
67	0xbea096ff	-0.313652
68	0xbe69764a	-0.2279903
69	0x3d4a6677	0.049414124
70	0xbe0bc7fa	-0.13650504
71	0xbdf1ebdf	-0.11812567
72	0xbe041bd7	-0.12901245
73	0xbe28f2ae	-0.16498825
74	0xbd40e24d	-0.047090817
75	0xbe1139d4	-0.14182216
76	0xbe8352bc	-0.2564906
77	0xbda454c0	-0.08023977
78	0xbe8afc88	-0.2714579
79	0xbe9d7894	-0.30756056
80	0xbd695c05	-0.056972522
81	0xbe63cf9f	-0.2224717
82	0xbe4b88c5	-0.19876392
83	0xbdbec7e9	-0.093154736
84	0xbe422ba2	-0.18961957
85	0xbe8773d1	-0.26455548
86	0xbe99b43c	-0.3002032
87	0xbdd82fae	-0.10555969
88	0xbe247ac5	-0.16062458
89	0xbe9a293c	-0.30109584
90	0xbe936dfe	-0.28794855
91	0xbe3f23e7	-0.1866604
92	0xbe874f92	-0.26427895
93	0xbe2a824a	-0.16651264
94	0xbe61edaf	-0.22063325
95	0x3d910a52	0.070820466
96	0xbe2d2d4f	-0.16911815
97	0xbe684525	-0.22682627
98	0xbdde4d44	-0.10854581
99	0xbe8fbacb	-0.280722
100	0xbd566b8f	-0.05234867
101	0xbe3e2c8f	-0.18571685
102	0xbe0157c9	-0.12631144
103	0x3e0033f2	0.12519816
104	0xbe3fcfda	-0.18731633
105	0xbd9ddc9d	-0.07708094
106	0xbe7a83a6	-0.24464282
107	0xbe139aad	-0.14414473
108	0x3dea523f	0.114414684
109	0x3ca160a7	0.019699408
110	0x3d8b45be	0.06800412
111	0x3c9aeb9f	0.018911181
112	0x3d01da8c	0.031702563
113	0x3e366d11	0.17815043
114	0xbca2117d	-0.01978373
115	0x3df08313	0.117437504
116	0x3dc26d77	0.09493535
117	0x3dbedf99	0.093199916
118	0x3d876ce0	0.06612563
119	0x3c09dce4	0.008414481
120	0xbd3facec	-0.04679577
121	0x3e0b73e8	0.13618433
122	0xbe207c85	-0.156725
123	0xbe643878	-0.22287166
124	0x3e02faef	0.12791036
125	0x3c43adbd	0.011943278
126	0x3e57fc40	0.2109232
127	0xbe14fdef	-0.14549993
128	0x3c8427ca	0.016132254
129	0x3d9d0ef1	0.076688655
130	0x3d7c6379	0.061618302
131	0xbe073060	-0.13202047
132	0x3e6df4b6	0.23237881
133	0x3e395591	0.18099047
134	0xbc1c47f7	-0.009538642
135	0x3e3ca7d5	0.18423398
136	0x3d7798f1	0.06044859
137	0xbcd5472e	-0.026034918
138	0x3d9b8a3b	0.07594725
139	0x3e5ea866	0.21743926
140	0xbe5049c5	-0.20340641
141	0x3d9a5fe2	0.075378194
142	0x3db0dcdc	0.086358756
143	0x3ddba97b	0.10725685
144	0xbb9da771	-0.0048112203
145	0xbdc05509	-0.09391219
146	0x3e18ad3b	0.14909832
147	0x3e3f2f0e	0.18670294
148	0xbdd863b4	-0.10565892
149	0x3d33343c	0.043750986

bias_hh f4 [150]
0	0xbdf7e84e	-0.121048555
1	0x3d2a6583	0.041600715
2	0x3de53252	0.111912385
3	0x3db77663	0.08958127
4	0x3de33f51	0.11096061
5	0x3e2c0b0b	0.16801088
6	0xbe11ec42	-0.14250281
7	0xbe3c9897	-0.18417583
8	0x3d012aba	0.031534888
9	0xbdf05514	-0.11734977
10	0x3b7d175a	0.0038618655
11	0x3ab0e12a	0.0013494838
12	0x3c95be5f	0.018279253
13	0xbd9fac22	-0.077965036
14	0x3d4aaec1	0.049483065
15	0xbe27276e	-0.16323635
16	0xbd5cf1b9	-0.053941462
17	0xbad20b59	-0.001602511
18	0xbdb04764	-0.08607367
19	0x383d4d43	4.5133067e-05
20	0xbd7645cd	-0.06012516
21	0x3c848cc0	0.016180396
22	0xbdbded9f	-0.09273838
23	0x3e2ddff8	0.16979969
24	0xbdb2d754	-0.08732477
25	0x3e066945	0.13126095
26	0xbe4cf1bf	-0.20014094
27	0x3e212350	0.15736127
28	0x3e038c35	0.12846453
29	0xbd8e5b72	-0.069510356
30	0xbd8bfdf6	-0.068355486
31	0x3df5ada8	0.11996013
32	0x3dc0147d	0.09378908
33	0xbcff8661	-0.031192007
34	0x3e0e48a8	0.13894904
35	0x3ba7496e	0.005105189
36	0x3e1653e0	0.14680433
37	0xbde9b147	-0.11410766
38	0x3e71adf8	0.2360152
39	0x3de59849	0.11210687
40	0x3db4f921	0.0883658
41	0x3c188874	0.009309877
42	0xbd0e5ffe	-0.034759514
43	0xbb1118c8	-0.0022140015
44	0x3d944e62	0.07241513
45	0xbe6566bc	-0.22402471
46	0xbcc67117	-0.024223847
47	0xbbc36d43	-0.0059639527
48	0x3e1bfda3	0.15233473
49	0xbd70fa7c	-0.05883263
50	0xbd27b60f	-0.04094511
51	0xbd0daf47	-0.034590986
52	0xbe9f1550	-0.31070948
53	0xbe55b9a8	-0.20871603
54	0xbdf19a68	-0.11797029
55	0xbdb9e708	-0.09077269
56	0xbe2c4d7a	-0.1682643
57	0xbe4a0559	-0.19728602
58	0xbe38fcd6	-0.180652
59	0xbe1463e2	-0.14491227
60	0xbe2f860a	-0.17140976
61	0xbd4a285c	-0.049354896
62	0xbe5a9f56	-0.21349844
63	0xbdd2eaa2	-0.10298659
64	0xbe8cba06	-0.27485675
65	0xbe621a39	-0.22080316
66	0xbe72171d	-0.2364163
67	0xbe35483d	-0.17703338
68	0xbe6b5b54	-0.22984058
69	0x3d310311	0.043215815
70	0xbd208aec	-0.039194986
71	0xbe6e1e9b	-0.23253863
72	0xbc9cd718	-0.019145533
73	0xbe72b6dd	-0.2370257
74	0xbe28165d	-0.16414781
75	0xbe0232b2	-0.12714651
76	0xbe4688f8	-0.19388187
77	0xbd8a071a	-0.06739636
78	0xbe1a3464	-0.15059048
79	0xbde15fdc	-0.11004612
80	0xbe4cedee	-0.20012638
81	0xbddbe097	-0.107361965
82	0xbe2158d3	-0.1575654
83	0xbd70d74f	-0.058799084
84	0xbe8f08fc	-0.27936542
85	0xbe28a260	-0.16468191
86	0xbe005a5d	-0.12534471
87	0xbe0df590	-0.13863206
88	0xbeb50dd3	-0.3536211
89	0xbe4230fd	-0.18964
90	0xbea2233c	-0.31667507
91	0xbd8870e9	-0.06662161
92	0xbe913e71	-0.28367952
93	0xbe49b14f	-0.19696544
94	0xbdc43030	-0.095795035
95	0xbe43c446	-0.19117841
96	0xbe9cf453	-0.30655155
97	0xbdcb851e	-0.099374995
98	0xbdcf165f	-0.10111689
99	0xbdf4be60	-0.11950374
100	0x3e40b753	0.18819933
101	0xbe1c1f33	-0.15246277
102	0xbdf7d913	-0.121019505
103	0x3e4abf77	0.197996
104	0xbe5ec397	-0.21754299
105	0xbe78ee7c	-0.24309725
106	0xbd9735d6	-0.07383315
107	0x3d87895e	0.066179976
108	0x3dbf7b00	0.09349632
109	0x3d3aae79	0.045576546
110	0x3e36b483	0.17842297
111	0xbd6147b5	-0.055000026
112	0xbe47542d	-0.19465704
113	0x3e463a7a	0.19358245
114	0xbda8d33d	-0.082434155
115	0x3c947301	0.018121244
116	0x3b0bd7bc	0.0021338305
117	0x3de73d12	0.11290945
118	0xbd064b3e	-0.0327866
119	0x3da1480a	0.078750685
120	0x3dbc9250	0.092075944
121	0x3e070474	0.13185292
122	0xbe116418	-0.14198339
123	0xbe684796	-0.22683558
124	0xbd529ea4	-0.051420823
125	0x3e1e9a68	0.15488589
126	0x3cebbdf8	0.028777108
127	0xbdd933bc	-0.10605571
128	0xbe361b7a	-0.17783919
129	0xbc98ea27	-0.01866634
130	0x3d1ed45d	0.038776744
131	0xbe644c86	-0.22294816
132	0x3e797704	0.24361807
133	0x3cc6f887	0.024288429
134	0x3e76cb51	0.24100997
135	0xbcb14df3	-0.021643614
136	0x3e5603fb	0.20899956
137	0xbcc5ecb9	-0.02416073
138	0x3e55bf32	0.20873716
139	0x3e6f384c	0.2336132
140	0xbd6ca9d6	-0.057779156
141	0xbc8167a5	-0.015796492
142	0x3d9ac065	0.075562276
143	0x3e279dd4	0.163688
144	0xbd9b9185	-0.07596115
145	0x3d32aa1a	0.043619253
146	0x3d9f7451	0.077858575
147	0x3bd36786	0.00645155
148	0xbdfd8ca4	-0.12380341
149	0x3e1d9956	0.15390524

weight f4 [2, 50]
0	0x3e863b70	0.26217222
1	0xbe742778	-0.23843181
2	0xbe8f1fdc	-0.27953994
3	0x3e3f8423	0.1870275
4	0xbe69254e	-0.22768137
5	0xbd92ce9e	-0.07168315
6	0xbdc95f85	-0.09832672
7	0xbe251862	-0.16122583
8	0x3de0ab0c	0.109701246
9	0xbe1edd45	-0.15514095
10	0x3e1387c8	0.14407265
11	0xbdd2ab10	-0.10286534
12	0xbe0ba4de	-0.1363711
13	0x3e8b0c52	0.27157837
14	0xbe1bdc07	-0.15220653
15	0x3e793d4c	0.24339789
16	0x3da819a1	0.08208013
17	0x3e382263	0.17981867
18	0x3e879f5a	0.26488763
19	0x3e1d45c8	0.1535865
20	0x3d2a2617	0.04154023
21	0x3e66b903	0.22531514
22	0x3c9b4048	0.01895155
23	0xbe7b5fef	-0.24548315
24	0x3e833092	0.25622994
25	0x3e3940ba	0.18091097
26	0x3e0d5820	0.13803148
27	0xbe2fd25b	-0.17170088
28	0xbe369eaf	-0.1783397
29	0x3dec0155	0.115236916
30	0x3e64a34c	0.22327918
31	0xbe966399	-0.29372862
32	0x3e873649	0.26408604
33	0x3d7c9a32	0.06167049
34	0x3e5e0f82	0.21685603
35	0x3e4acec0	0.19805431
36	0x3e9028bf	0.28156087
37	0xbe2b3ba2	-0.16721967
38	0x3e28df20	0.16491365
39	0x3e6a3d77	0.2287501
40	0xbe8de5cd	-0.27714387
41	0x3cf2663d	0.029589767
42	0x3de08737	0.1096329
43	0x3d60a9eb	0.054849546
44	0xbdcca9f0	-0.099933505
45	0xbe442b70	-0.19157195
46	0x3e6676de	0.22506282
47	0x3e8e7399	0.2782257
48	0xbe34d9fe	-0.17661282
49	0x3e92e66a	0.28691417
50	0xbdae6996	-0.08516233
51	0x3d4b4cc3	0.049633753
52	0x3e8573ec	0.26065004
53	0xbe2a5fcb	-0.16638105
54	0x3e1dc8b2	0.1540859
55	0x3e5fee75	0.21868308
56	0x3e715f7a	0.23571578
57	0x3e0b79cb	0.13620679
58	0xbe893ef2	-0.26805836
59	0x3de7bc2f	0.1131519
60	0xbe7e3ed2	-0.24828652
61	0x3e0c1d53	0.13683061
62	0x3e7bdd2e	0.24596092
63	0xbd1c85c9	-0.038213525
64	0x3e84fc4b	0.25973734
65	0xbe821d1f	-0.25412843
66	0xbe7ed078	-0.24884212
67	0xbe898261	-0.26857284
68	0xbe3c10bc	-0.18365759
69	0xbe12bda6	-0.14330158
70	0xbe510276	-0.20411095
71	0xbe22d235	-0.159005
72	0x3e671bd6	0.22569212
73	0x3e74620d	0.23865528
74	0xbe74d0f4	-0.23907834
75	0xbe3f006c	-0.18652505
76	0xbe57aabe	-0.21061227
77	0x3e47614f	0.19470714
78	0x3e83c3ca	0.25735313
79	0xbe8b7103	-0.2723466
80	0xbe3a7b03	-0.18210988
81	0x3e2c4f7c	0.16827196
82	0xbe895ef4	-0.26830256
83	0xbe619531	-0.22029568
84	0xbe62b24a	-0.22138324
85	0xbe5f2e30	-0.21794963
86	0xbde0cb16	-0.109762356
87	0x3e002677	0.12514673
88	0xbe79a777	-0.24380289
89	0xbdf44322	-0.11926867
90	0x3de59cfc	0.11211583
91	0x3e382167	0.17981492
92	0xbe84fd56	-0.2597453
93	0xbe8faadc	-0.28060043
94	0x3e68fa72	0.22751787
95	0x3c3f6385	0.011681442
96	0xbe5a0066	-0.21289214
97	0xbe006db5	-0.1254185
98	0x3e69ec31	0.22844006
99	0xbe22dbe6	-0.15904197

bias f4 [2]
0	0x3e7dc713	0.24782972
1	0xbe86f660	-0.26359844

weight f4 [2, 50]
0	0xbde88178	-0.11352819
1	0xbd0d7766	-0.034537695
2	0x3d8f3d72	0.06994142
3	0xbde444ef	-0.111459605
4	0x3e09dd39	0.13463296
5	0x3d7c94ec	0.06166546
6	0xbd6c3098	-0.05766353
7	0xbdd85048	-0.105621874
8	0x3de5db46	0.11223464
9	0xbcc90c4c	-0.024541996
10	0xbd242e88	-0.04008344
11	0xbd02ea9a	-0.031962015
12	0xbe02abbb	-0.12760822
13	0xbdbc9acd	-0.092092134
14	0x3d891270	0.0669297
15	0xbdb60b5a	-0.08888884
16	0xbdc067c5	-0.093947925
17	0xbe05d6d3	-0.1307023
18	0x3d980712	0.074232236
19	0xbd293046	-0.041305803
20	0xbd9205e4	-0.0713003
21	0xbe0aab83	-0.13541989
22	0xbd995814	-0.07487503
23	0xbe01b662	-0.1266723
24	0x3d8c8326	0.06860952
25	0x3dc4bf48	0.096067965
26	0x3c64fd90	0.01397647
27	0x3c973708	0.018458858
28	0x3dcd7bf4	0.10033408
29	0x3da008e0	0.07814193
30	0x3d9b102e	0.075714454
31	0x3e0f991d	0.14023252
32	0xbdc45bee	-0.09587847
33	0xbd37d64e	-0.04488211
34	0x3d03e3c4	0.032199636
35	0x3dda3882	0.10655309
36	0xbcee6310	-0.029099971
37	0xbd9fbd79	-0.07799811
38	0xbd0af624	-0.033926144
39	0xbd32c54c	-0.04364519
40	0xbe078524	-0.13234383
41	0x3dc6daba	0.097096875
42	0xbe0917a9	-0.13387932
43	0x3ba314e0	0.0049768537
44	0x3e0b7bf3	0.13621502
45	0x3c4ea8a0	0.0126134455
46	0x3d0d1c08	0.03445056
47	0x3b8300a0	0.0039978772
48	0x3d47c000	0.04876709
49	0xbde106ad	-0.109876014
50	0x3db1c914	0.08680931
51	0xbd01494e	-0.03156405
52	0xbca5d0f8	-0.020241246
53	0x3c707340	0.014675915
54	0xbd2ce0b0	-0.042206466
55	0xbd7e5c76	-0.062099896
56	0xbddd5080	-0.1080637
57	0x3d5324ac	0.051548645
58	0x3da0ec00	0.078575134
59	0x3d04e654	0.03244622
60	0x3ca1bf00	0.019744396
61	0x3d8f3600	0.069927216
62	0x3e07e59f	0.13271187
63	0xbda0bf20	-0.07848954
64	0xbdd2ed05	-0.10299114
65	0x3ded2f7a	0.11581321
66	0x3e1024d9	0.14076556
67	0x3e09ab63	0.13444285
68	0xbd70e344	-0.058810487
69	0x3dd5c234	0.10437432
70	0xbd57b1a2	-0.05265964
71	0x3dbf706c	0.09347615
72	0xbd9d2aa9	-0.076741524
73	0x3cbd1c88	0.023084894
74	0xbdfc25d6	-0.12311904
75	0x3d71a9b0	0.058999717
76	0xbd81a822	-0.06330897
77	0xbdaae76e	-0.08344923
78	0x3c8d19f0	0.017224282
79	0xbd8f64dc	-0.07001659
80	0x3d35fcb8	0.044430465
81	0x3c851390	0.01624468
82	0xbddddc6e	-0.10833059
83	0x3df2d32a	0.118566826
84	0x3c09ece0	0.008418292
85	0xbdf3764c	-0.11887798
86	0x3c73be80	0.014876962
87	0xbdfc75a9	-0.123271294
88	0x3e0fde79	0.1404971
89	0x3de9306e	0.1138619
90	0x3dfe6d6a	0.12423213
91	0xbd1dae92	-0.03849656
92	0xbc2e6ba0	-0.010645777
93	0x3d9bfb5c	0.07616302
94	0xbd8e7dcd	-0.06957588
95	0xbcfe8780	-0.03107047
96	0xbb8be720	-0.0042694956
97	0x3d358228	0.04431358
98	0xbdd6ac82	-0.10482122
99	0x3d9810e6	0.07425098

bias f4 [2]
0	0xbb92d140	-0.004480511
1	0xbcb55908	-0.02213718
