data/RNN_runs/sweep2_H2/rnn_sto3g_H2_0-7348_eq1_nU100_nL1_lr005_lrsC_ns1000.pt (torch_old, 185633 bytes, 9 tensors)

weight_ih f4 [300, 2]
0	0xbe2f0fab	-0.1709582
1	0x3e82df0d	0.255608
2	0x3d8faf1f	0.070158236
3	0x3e1d1dbd	0.15343376
4	0xbd8e19af	-0.069384925
5	0x3eb46225	0.35231128
6	0xbe20f33e	-0.1571779
7	0xbd221962	-0.03957499
8	0xbe3fe4d2	-0.18739632
9	0x3e58b796	0.21163782
10	0xbe4c79be	-0.19968316
11	0x3e604867	0.2190262
12	0xbe572275	-0.21009238
13	0x3e2d6922	0.16934636
14	0xbcd63124	-0.026146479
15	0x3e9ec619	0.31010512
16	0xbdf72964	-0.120684415
17	0x3eb61b18	0.35567546
18	0xbe288022	-0.16455129
19	0x3e5f62e6	0.2181507
20	0x3d2e2bb9	0.042522166
21	0x3dd46235	0.10370294
22	0xbdcb1566	-0.09916191
23	0x3eb21d6f	0.3478808
24	0xbe60a4f4	-0.21937925
25	0x3e2fe353	0.17176561
26	0xbd4bd22f	-0.049760994
27	0x3e143b82	0.14475825
28	0xbdc72a57	-0.097248726
29	0xbd3ea8d1	-0.046547715
30	0x3cc71275	0.024300793
31	0x3eb0f4b7	0.34561703
32	0xbd85ee6c	-0.06539616
33	0x3dc341b8	0.09534019
34	0x3de8e0ff	0.113710396
35	0x3e7ff3fd	0.24995418
36	0xbe459ea0	-0.19298792
37	0x3e092138	0.13391578
38	0xbde7a511	-0.11310781
39	0x3d57e093	0.052704405
40	0xbd9eb0aa	-0.0774854
41	0x3e5e12b7	0.21686827
42	0xbd10cd29	-0.035351906
43	0x3e0cf14c	0.13763922
44	0xbd90da1c	-0.07072851
45	0x3d209f52	0.03921444
46	0xbd749a6a	-0.059717573
47	0x3de44948	0.1114679
48	0x3c214dbb	0.009845193
49	0x3eb642c5	0.35597816
50	0xbccf4e67	-0.02530594
51	0x3e924bd4	0.28573477
52	0xbe167440	-0.14692783
53	0x3e2062ad	0.15662642
54	0xbdd34760	-0.10316348
55	0x3e5c9de2	0.21544603
56	0xbe4e9956	-0.2017568
57	0x3ec67d2d	0.38767377
58	0xbc8f1424	-0.017465658
59	0x3df6a715	0.12043587
60	0x3e298d72	0.16557863
61	0x3e256f4f	0.16155742
62	0xbe19b274	-0.1500948
63	0x3e66ac34	0.22526628
64	0xbcb1a4df	-0.021685062
65	0x3ea6249a	0.324498
66	0xbe2d38f4	-0.16916257
67	0x3db40bb2	0.08791293
68	0xbe12a04e	-0.14318964
69	0x3eb421d2	0.35182053
70	0xbd500f3b	-0.050795775
71	0x3e9e1c73	0.3088108
72	0xbe0f7a39	-0.14011468
73	0x3e08c848	0.13357651
74	0x3d997dfe	0.07494734
75	0x3dce9c5a	0.100884154
76	0xbe336de8	-0.17522395
77	0x3cd55100	0.0260396
78	0xbd9a571e	-0.075361475
79	0x3eb441fc	0.35206592
80	0x3d46a06f	0.048492845
81	0x3ea1a9a2	0.31574732
82	0xbc5234b9	-0.012829953
83	0x3e8ad8bc	0.2711848
84	0xbe25a472	-0.16176012
85	0x3e1804c1	0.14845563
86	0xbe25ac8d	-0.16179104
87	0x3e3621ce	0.17786333
88	0x3d0792f5	0.033099134
89	0x3de97c53	0.11400666
90	0xbe44be0d	-0.19213124
91	0x3e5d9d02	0.21641925
92	0xbd4fe964	-0.050759688
93	0x3edc7e55	0.43065134
94	0xbdffbd0e	-0.12487231
95	0x3ea088e6	0.31354445
96	0x3c06c347	0.008225269
97	0x3d0d9677	0.034567323
98	0xbc2ba793	-0.0104769645
99	0x3e561f89	0.20910467
100	0xbd516aca	-0.051127233
101	0x3e0264f7	0.12733828
102	0xbdcca2f0	-0.09992015
103	0x3e24f4d7	0.16109024
104	0x3b780af4	0.0037848325
105	0xbe34b212	-0.17646053
106	0x3b9bcd22	0.0047546783
107	0x3e092d32	0.13396147
108	0xbcdb2932	-0.026753042
109	0x3e36dfe3	0.17858844
110	0xbcc18833	-0.023624515
111	0x3e3d44f5	0.18483336
112	0xbdae0232	-0.084965125
113	0x3de9f89c	0.114243716
114	0xbd7466b5	-0.05966826
115	0x3e8603ff	0.26174924
116	0x3d0b9aa4	0.034083024
117	0xbdc35436	-0.09537546
118	0xbce7143b	-0.028207889
119	0x3eaa5435	0.3326737
120	0xbe377a47	-0.17917739
121	0x3e1e8609	0.15480818
122	0x3c1ac536	0.009446433
123	0x3daf4b4a	0.08559282
124	0x3df30e15	0.1186792
125	0x3e38703c	0.18011564
126	0xbde81f58	-0.11334103
127	0x3e530bce	0.20609972
128	0xbdfa1808	-0.12211615
129	0x3e8ea487	0.278599
130	0xbd9be820	-0.07612634
131	0x3e946066	0.28979796
132	0x3bdf7785	0.0068196678
133	0xbe40f155	-0.18842061
134	0xbd72e44c	-0.059299752
135	0x3e770bd0	0.241256
136	0x3d3bd377	0.045855965
137	0x3dc56a4f	0.096394174
138	0xbbde2391	-0.006779142
139	0x3d78c731	0.06073684
140	0xbd0cbd44	-0.034360185
141	0x3ea2f463	0.31827077
142	0xbd8dd717	-0.06925791
143	0x3e8465d3	0.25858936
144	0xbda48372	-0.08032884
145	0x3e39396b	0.1808831
146	0xbda6d68e	-0.08146392
147	0x3ea2d8fd	0.31806174
148	0xbe2f11d4	-0.17096645
149	0x3e183183	0.14862637
150	0xbe2eaf14	-0.17058975
151	0x3e2fe32b	0.17176501
152	0xbc90c4b1	-0.017671915
153	0x3dd87885	0.10569862
154	0xbcd2bb2f	-0.025724022
155	0x3ea6bbaa	0.3256505
156	0xbd7b99a4	-0.06142582
157	0x3cc95236	0.024575334
158	0xbe537e9b	-0.20653765
159	0x3e92c5da	0.28666574
160	0xbd923028	-0.07138091
161	0x3ec0c446	0.37649745
162	0xbe598b79	-0.21244611
163	0x3e5105e5	0.20412405
164	0xbbbad193	-0.0057012527
165	0x3e750cdb	0.23930685
166	0xbdfb901d	-0.12283347
167	0x3e5a1ac3	0.21299271
168	0xbceadd9f	-0.02867013
169	0x3eab3360	0.33437634
170	0xbdadc086	-0.084839866
171	0x3d8d33da	0.068946555
172	0xbdd97ffc	-0.10620114
173	0x3e871ad8	0.26387668
174	0xbdb8bf1c	-0.09020826
175	0x3e1e25ea	0.1544415
176	0xbe32d9e8	-0.17465937
177	0xbd84b0fe	-0.06479071
178	0xbb0fd48d	-0.0021946758
179	0x3e7d666f	0.24746107
180	0xbe004240	-0.12525272
181	0x3e6d0cc9	0.23149408
182	0xbd2534a5	-0.04033341
183	0x3e2b6bba	0.16740313
184	0xbe17131f	-0.14753388
185	0xbc171fa0	-0.009223849
186	0xbe1b8f56	-0.15191397
187	0x3ead823a	0.33888417
188	0x3e042ca7	0.12907659
189	0xbd470d00	-0.048596382
190	0xbe0f55d8	-0.1399759
191	0x3e314222	0.17310384
192	0xbdd14b0e	-0.10219394
193	0x3e949d66	0.29026335
194	0xbe08948a	-0.13337913
195	0x3e73d8a7	0.23813115
196	0xbd5f4b9c	-0.054515466
197	0x3e2a3f35	0.16625674
198	0xbcedf6f1	-0.029048415
199	0x3e796668	0.24355471
200	0x3d964483	0.07337286
201	0xbe7a2788	-0.24429142
202	0xbe79a3be	-0.24378869
203	0xbe693d39	-0.22777261
204	0xbcce5056	-0.025184792
205	0xbec55b37	-0.38546154
206	0x3d0f85f7	0.03503987
207	0x3ba1cbd2	0.0049376274
208	0x3e34b283	0.17646222
209	0x3cad3c44	0.021146901
210	0x3dcaa685	0.09895042
211	0xbe379853	-0.17929201
212	0x3e70dda5	0.2352205
213	0xbeace7f4	-0.33770716
214	0x3d761ac8	0.060084134
215	0xbec9843e	-0.39358705
216	0x3e287b64	0.1645332
217	0xbeba9541	-0.36441997
218	0x3e43bad7	0.19114242
219	0xbe71cc42	-0.23613074
220	0xbd1c65de	-0.038183086
221	0xbe0d5b30	-0.13804317
222	0x3e12bea7	0.1433054
223	0xbe743677	-0.23848902
224	0x3e3bc6a5	0.18337496
225	0xbeaafe6b	-0.3339723
226	0x3d825393	0.06363597
227	0xbe0ebb6a	-0.1393868
228	0x3e6cb28d	0.23114987
229	0xbe9a2fe0	-0.3011465
230	0x3dd48647	0.10377174
231	0xbeb013e1	-0.34390166
232	0x3c8d0039	0.01721202
233	0xbe747b50	-0.23875165
234	0xbce54e86	-0.027991544
235	0xbe7687ab	-0.2407519
236	0x3dfa9efb	0.12237354
237	0xbe8951d6	-0.26820248
238	0xbe19c0d0	-0.15014958
239	0xbeab94ba	-0.33511907
240	0x3c80e4f6	0.015734177
241	0xbe4470c0	-0.19183636
242	0xbd260eea	-0.040541567
243	0xbecbf6d2	-0.39836746
244	0x3dc06110	0.09393513
245	0xbe2b47bb	-0.16726582
246	0xbda23171	-0.079195864
247	0xbeddde6a	-0.4333375
248	0x3e39d8e9	0.18149151
249	0xbe8aab88	-0.27083993
250	0x3e31e735	0.17373355
251	0xbeaa4aa2	-0.33260065
252	0x3e784d99	0.24248351
253	0xbeaac753	-0.33355197
254	0x3e012b70	0.12614226
255	0xbeac31ea	-0.3363183

weight_hh f4 [300, 100]
0	0x3d1fc9e8	0.039010912
1	0xbe3e3bfb	-0.18577568
2	0x3cd8d000	0.02646637
3	0x3e1c4ae4	0.15262944
4	0x3e50ccd0	0.2039063
5	0x3e2a08a2	0.16604856
6	0x3e073013	0.13201933
7	0x3d9268ed	0.07148919
8	0x3dcd8159	0.10034437
9	0x3d8a9aa5	0.06767777
10	0x3cb6bd29	0.022306995
11	0x3d9a721f	0.07541298
12	0xbe30cc76	-0.17265496
13	0xbd553651	-0.052053753
14	0x3c1f87fa	0.009737009
15	0xbc91eb5e	-0.017812427
16	0xbdaf8d5a	-0.085718825
17	0x3db76424	0.08954647
18	0x3e0c9d9b	0.13731997
19	0x3e057960	0.13034582
20	0x3dea8612	0.11451353
21	0xbd9dbd69	-0.07702143
22	0xbdd62282	-0.104558006
23	0xbdade8ce	-0.084916696
24	0x3d04f6c4	0.032461897
25	0xbc33be0b	-0.010970603
26	0x3cc681b3	0.024231767
27	0x3c949747	0.01813854
28	0x3e1e5d62	0.1546531
29	0x3d93749d	0.071999766
30	0x3e172482	0.1476002
31	0x39563218	0.00020427292
32	0x3bb6ffda	0.005584699
33	0x3d094f84	0.033523098
34	0x3ddcfd29	0.10790474
35	0xbd903ec9	-0.07043225
36	0x3d1396f7	0.036032643
37	0x3d24e3bc	0.040256247
38	0xbde83e3a	-0.11339994
39	0xbd5ea053	-0.054352116
40	0x3d787901	0.060662273
41	0x3da17da3	0.078852914
42	0xbe445c6a	-0.19175878
43	0x3d76ab88	0.06022218
44	0x3de52e40	0.11190462
45	0x3e1e8fc5	0.15484531
46	0xbdf3cdfb	-0.11904522
47	0xbde61da5	-0.11236123
48	0xbd390a3f	-0.045175787
49	0x3e0d5977	0.1380366
50	0xbe2dfb83	-0.16990475
51	0x3d913776	0.070906565
52	0xbdc2a3f5	-0.095039286
53	0xbdbda5b2	-0.092601195
54	0x3d3aa9a4	0.04557194
55	0x3e20d2eb	0.15705459
56	0x3e3d9eab	0.18517558
57	0xbd7f2bdb	-0.062297683
58	0xbd83cc8c	-0.064354986
59	0xbe0689ff	-0.13138579
60	0xbe0bf73b	-0.1366853
61	0xbdb48f34	-0.08816376
62	0xbe0d69ef	-0.13809942
63	0x3dcff98a	0.10155018
64	0x3dcfc606	0.10145192
65	0x3d3d9957	0.046288814
66	0x3d0d51d2	0.034501858
67	0xbc7cd138	-0.015430741
68	0x3e478a62	0.19486383
69	0x3dc956bc	0.098309964
70	0x3ce64e51	0.028113516
71	0xbe24b1c6	-0.1608344
72	0xbd03dcb3	-0.032192897
73	0xbd84c31b	-0.06482526
74	0x3bb0429a	0.0053790333
75	0x3c12dbfe	0.008963583
76	0x3e00e0cb	0.12585752
77	0x3e04ef01	0.12981798
78	0xbdc4308a	-0.095795706
79	0x3dcc8071	0.09985436
80	0xbe3f58eb	-0.18686263
81	0xbe133076	-0.14373955
82	0xbdcf397c	-0.10118386
83	0x3e345a96	0.17612681
84	0x3d55eace	0.05222588
85	0x3b3c139e	0.0028698216
86	0xbdcb6b60	-0.099325895
87	0xbe0d999e	-0.13828132
88	0xbd2e52d3	-0.042559456
89	0xbd747443	-0.05968119
90	0x3de48efc	0.111600846
91	0xbde401c9	-0.11133153
92	0xbe33d399	-0.17561187
93	0xbe2676ef	-0.16256307
94	0xbd742834	-0.059608653
95	0x3da2cc6f	0.07949149
96	0xbd040d6a	-0.032239355
97	0xbd985fdd	-0.074401595
98	0xbd908df1	-0.07058323
99	0x3e374e2c	0.17900914
100	0x3e88ca2e	0.2671675
101	0x3e3ffc68	0.18748629
102	0x3e987952	0.2978006
103	0x3e13eb91	0.1444533
104	0x3e23b2ed	0.15986224
105	0x3ea90ba0	0.33016682
106	0x3e99f454	0.3006922
107	0x3e6f30f3	0.23358516
108	0x3e407f5f	0.18798588
109	0x3e943ca4	0.28952515
110	0x3df8b3a5	0.121436395
111	0x3e7fef05	0.24993522
112	0xbe98e5fa	-0.29862958
113	0xbe38ba3b	-0.18039791
114	0x3e8222ba	0.2541712
115	0x3ea627d4	0.3245226
116	0xbe9c71ac	-0.30555475
117	0xbe86537c	-0.2623557
118	0x3e5634d9	0.20918597
119	0xbe8773c5	-0.26455513
120	0xbe4ab97a	-0.19797316
121	0xbe31a83d	-0.17349334
122	0xbe317930	-0.17331386
123	0xbe8f0012	-0.2792974
124	0x3e703282	0.23456767
125	0xbe932b47	-0.28743955
126	0x3e2e173c	0.1700105
127	0x3e69587c	0.2278766
128	0x3e51dca7	0.20494328
129	0x3e54f4a3	0.20796447
130	0xbe1e6a2f	-0.15470193
131	0xbe800f2e	-0.2501158
132	0xbe93b455	-0.2884852
133	0x3e11be3e	0.14232728
134	0x3ea35d94	0.31907332
135	0xbe94eb6e	-0.2908587
136	0x3e234cba	0.15947238
137	0x3e206acc	0.1566574
138	0xbe3f0711	-0.1865504
139	0xbe78bb63	-0.24290232
140	0xbe8c20cb	-0.2736877
141	0x3e39c133	0.18140106
142	0xbe3c0076	-0.18359551
143	0x3e4439d6	0.19162688
144	0x3e20e789	0.15713324
145	0x3e719726	0.23592815
146	0x3e238d9c	0.15971988
147	0xbe8dfae0	-0.27730465
148	0x3e0fb10d	0.14032383
149	0x3eb487ac	0.3525976
150	0xbe8ca392	-0.27468544
151	0x3e9b8479	0.30374506
152	0xbebb4d79	-0.36582544
153	0x3e8be0f7	0.27320072
154	0x3e38147b	0.17976563
155	0x3e7ab580	0.244833
156	0x3e791d01	0.2432747
157	0xbe91d94c	-0.28486097
158	0x3e9db72f	0.3080382
159	0xbe49a897	-0.19693218
160	0xbe9bbe32	-0.30418545
161	0xbe47dbf0	-0.19517493
162	0x3e488c50	0.19584775
163	0x3e29cd63	0.16582255
164	0x3e58e0dd	0.21179529
165	0x3ebdfa75	0.37105146
166	0xbd9a3818	-0.0753023
167	0x3e7def66	0.24798355
168	0x3e21da26	0.15805873
169	0x3e7159fe	0.23569486
170	0xbe8d760b	-0.27629122
171	0xbe21d994	-0.15805656
172	0xbe8bc752	-0.27300507
173	0xbe99edc3	-0.3006421
174	0x3e43b5f4	0.19112378
175	0xbe88ddf9	-0.26731852
176	0x3e895aad	0.26826993
177	0x3eada64c	0.33915937
178	0x3e81ae04	0.25328076
179	0x3eb4b721	0.35295966
180	0xbe91dbb3	-0.2848793
181	0xbe19f1dc	-0.15033668
182	0xbe5bdd2b	-0.21471088
183	0x3eafb6ec	0.34319246
184	0x3ea5a292	0.32350594
185	0x3e3e9c21	0.18614246
186	0xbe5e585b	-0.21713392
187	0x3e3e6cdf	0.18596219
188	0xbe8c41d2	-0.27393967
189	0xbeaf4080	-0.34228897
190	0x3e66a3b1	0.22523381
191	0xbeb92283	-0.36159143
192	0xbe02a779	-0.12759198
193	0xbe9bc649	-0.30424717
194	0x3ea0bb3a	0.31392843
195	0x3eb65dc1	0.35618404
196	0xbe290c88	-0.16508687
197	0xbe4c5440	-0.19954014
198	0xbe89f3e1	-0.26943877
199	0x3e15f7fc	0.1464538
200	0x3e0f5055	0.13995488
201	0xbe174ec3	-0.14776139
202	0x3e2c55bb	0.16829579
203	0x3d4659ea	0.048425592
204	0x3e0f0098	0.1396507
205	0x3e05e8fc	0.13077158
206	0x3d6f6e0b	0.058454555
207	0x3dfb91f6	0.12283699
208	0x3e7201cb	0.23633496
209	0x3cfd847c	0.030946963
210	0x3ae4ba94	0.0017450624
211	0x3c3ecb45	0.011645143
212	0xbe259a72	-0.16172197
213	0xbbeffdc1	-0.007323951
214	0x3dfe6c1f	0.12422966
215	0x3e155e3d	0.1458673
216	0xbdf2e970	-0.11860931
217	0xbe02c991	-0.12772204
218	0x3e072805	0.1319886
219	0xbe0367d8	-0.12832582
220	0x3c467029	0.012111702
221	0xbe35a881	-0.1774006
222	0xbe491156	-0.1963552
223	0xbe2394d9	-0.1597475
224	0x3e158d5f	0.1460471
225	0xbe3afc48	-0.182603
226	0xbbb45617	-0.005503427
227	0x3d87c23c	0.06628844
228	0x3e033776	0.12814125
229	0x3e296fbe	0.16546533
230	0x3df787da	0.120864585
231	0xbe73c105	-0.238041
232	0xbd800170	-0.06250274
233	0xba231e0d	-0.00062224345
234	0x3dd378a3	0.10325744
235	0x3baadaa5	0.0052140527
236	0x3e4349e8	0.19071162
237	0x3e6695cd	0.22518082
238	0xbe0c76b4	-0.13717157
239	0xbe7ecfd4	-0.24883968
240	0xbe30459e	-0.17214057
241	0x3e7b8f0d	0.24566288
242	0xbe364c93	-0.17802648
243	0x3e4d7830	0.20065379
244	0x3cfed082	0.031105284
245	0x3bb7d652	0.005610266
246	0x3dcec688	0.100964606
247	0xbe623406	-0.22090158
248	0x3cc0f7df	0.023555694
249	0x3e04df8f	0.12975906
250	0xbb0714ba	-0.002061172
251	0xbd0f181f	-0.034935113
252	0xbdd10898	-0.10206717
253	0x3e3c72b9	0.18403138
254	0x3e317569	0.17329945
255	0x3e72eb41	0.23722555

bias_ih f4 [300]
0	0x3e0bf9c0	0.13669491
1	0x3e74b473	0.23896961
2	0x3e754067	0.23950349
3	0xbd211490	-0.03932625
4	0x3d9c5a03	0.07634356
5	0x3e1aa55c	0.15102142
6	0x3e16ce07	0.1472703
7	0x3e9a5ec1	0.30150416
8	0x3e24c068	0.16089022
9	0x3e0ff645	0.14058788
10	0xbdfb19e7	-0.122608
11	0x3db100dd	0.08642743
12	0x3d001043	0.03126551
13	0x3c2a3fea	0.010391215
14	0xbcb50995	-0.022099296
15	0x3e7f8c9c	0.24955982
16	0xbd9543dd	-0.072883345
17	0x3e3b80ee	0.18310902
18	0x3de894b2	0.113564864
19	0x3dea0b7c	0.11427972
20	0x3e7c7029	0.2465216
21	0x3d83dc2e	0.0643848
22	0x3e142199	0.14465941
23	0x3e1ca36a	0.15296713
24	0x3e076620	0.13222551
25	0x3dff645c	0.12470314
26	0xbc8d5d9b	-0.017256549
27	0x3dd5232b	0.104070984
28	0x3e1651ff	0.14679717
29	0x3d830a5d	0.06398461
30	0x3e11ef98	0.14251554
31	0x3e7cc781	0.2468548
32	0x3de710b4	0.11282483
33	0x3cf430e0	0.029808462
34	0x3e3bbc3a	0.18333521
35	0x3e453ec3	0.19262223
36	0x3d26b882	0.040703304
37	0x3e43d915	0.19125779
38	0xbdb3b17c	-0.08774087
39	0x3d815bb9	0.06316323
40	0x3e3bbd4f	0.18333934
41	0x3e834d5c	0.25644958
42	0xbde9d378	-0.114172876
43	0xbd96b540	-0.073587894
44	0x3d3e49b8	0.046457022
45	0x3b9f980c	0.0048704203
46	0x3e8d0cb1	0.27548745
47	0x3e182347	0.14857207
48	0x3d5a710c	0.053330466
49	0x3d830f41	0.06399394
50	0x3de39c1c	0.1111376
51	0x3d64ee06	0.05589106
52	0x3c986d31	0.018606754
53	0x3dd7753a	0.10520406
54	0x3d619eb9	0.05508301
55	0x3e0de2f5	0.13856108
56	0xbdcfbe0a	-0.10143669
57	0x3e1adac1	0.1512251
58	0x3de38410	0.11109173
59	0x3d94a1bf	0.07257413
60	0xbd874ce0	-0.066064596
61	0xbd6dbcf2	-0.05804152
62	0x3db290a3	0.087189935
63	0xbd14e7c3	-0.036353838
64	0x3e125e48	0.14293778
65	0x3d19850b	0.037480395
66	0x3b816166	0.0039483784
67	0x3ddc17d0	0.107467294
68	0xbdaefefc	-0.08544728
69	0x3e0de88e	0.13858244
70	0x3dafd843	0.085861705
71	0xb9c87c34	-0.0003823951
72	0x3df52374	0.11969653
73	0x3e1655e1	0.14681198
74	0x3ce6fc32	0.028196428
75	0x3e315f06	0.17321405
76	0xbdc300d6	-0.09521644
77	0x3d02591b	0.03182326
78	0x3e1bfc72	0.15233019
79	0x3e44ba69	0.19211735
80	0x3e1df6ca	0.15426174
81	0xbdc68a55	-0.096943535
82	0x3e075b64	0.13218457
83	0x3d815666	0.06315307
84	0x3e235f33	0.15954284
85	0x3e0611df	0.13092755
86	0x3da4f7ad	0.08055053
87	0x3e478038	0.19482505
88	0xbdefe58f	-0.11713707
89	0x3dc15822	0.09440638
90	0x3d8a0c8c	0.067406744
91	0x3e3475ee	0.17623112
92	0x3cbc17e9	0.02296062
93	0x3d0c3821	0.034233216
94	0x3e856f0f	0.26061293
95	0x3df8c9bb	0.12147852
96	0x3e1bf154	0.15228778
97	0x3e81c9c3	0.25349244
98	0x3e2921c6	0.1651679
99	0x3d4d0f35	0.05006333
100	0xbe409138	-0.18805397
101	0xbe85250d	-0.2600483
102	0xbe9fc65d	-0.31206027
103	0x3c074e14	0.008258361
104	0x3d647334	0.05577393
105	0xbe13aae7	-0.14420663
106	0xbe46544e	-0.19368097
107	0xbeacdfab	-0.33764395
108	0xbea052a2	-0.31313044
109	0xbdcfe2b6	-0.101506636
110	0x3d345899	0.044029806
111	0xbdfa1f21	-0.122129686
112	0xbe0dda20	-0.1385274
113	0x3c20bbda	0.009810412
114	0xbe89d938	-0.26923537
115	0xbe3ccdd4	-0.18437892
116	0xbe84d292	-0.25941902
117	0xbd406478	-0.046970814
118	0xbdcdb5fb	-0.10044476
119	0xbe8d6186	-0.27613467
120	0xbe3568c4	-0.17715746
121	0xbed10fd4	-0.40832388
122	0xbe9773ed	-0.29580632
123	0xbeb2d615	-0.34928957
124	0xbeaf7f22	-0.34276682
125	0xbe8aa621	-0.2707987
126	0xbe6101c6	-0.21973333
127	0xbeb1a4a1	-0.34695914
128	0xbe942a7b	-0.2893866
129	0xbe9e99ad	-0.3097662
130	0xbe75b5f4	-0.23995191
131	0xbe734852	-0.23758057
132	0xbe8aef33	-0.2713562
133	0xbe9f856f	-0.3115649
134	0xbe93800d	-0.28808632
135	0xbddf18ec	-0.10893425
136	0xbdf900c2	-0.12158348
137	0xbcb7ab35	-0.022420505
138	0xbe537da9	-0.20653404
139	0xbea03387	-0.31289312
140	0xbe8af0fb	-0.27136979
141	0xbe47d691	-0.19515444
142	0x3dc54b41	0.09633494
143	0xbea7044f	-0.32620475
144	0xbd426dcd	-0.047467995
145	0xbce428f0	-0.027851552
146	0xbe545b92	-0.20738056
147	0xbde3e8e0	-0.11128402
148	0x394375e7	0.00018640571
149	0xbd58608c	-0.05282645
150	0xbcf44735	-0.02981911
151	0xbe5bfab1	-0.2148235
152	0xbe237511	-0.15962626
153	0xbe9bbdb8	-0.3041818
154	0xbea1e6a7	-0.31621286
155	0xbe186ebf	-0.14885996
156	0xbbc836a7	-0.0061100307
157	0xbeaedacf	-0.34151313
158	0xbdfd6a1a	-0.12373753
159	0xbea6a5eb	-0.3254846
160	0xbe406f9e	-0.18792579
161	0xbead1321	-0.33803657
162	0xbe7c3c9c	-0.24632496
163	0xbde99339	-0.114050336
164	0xbdfb4f72	-0.12271012
165	0xbe4d0ccf	-0.20024417
166	0x3c329dad	0.010901851
167	0xbe761740	-0.24032307
168	0xbcc51390	-0.02405718
169	0xbe6a0494	-0.22853309
170	0xbec078a3	-0.3759204
171	0xbc58ac85	-0.013224726
172	0xbdfb6806	-0.122757
173	0xbe858374	-0.26076853
174	0xbdf4812c	-0.119387
175	0xbe843add	-0.2582616
176	0x3e000143	0.12500481
177	0xbe847a6d	-0.25874653
178	0xbdddde05	-0.108333625
179	0xbe18e31b	-0.14930384
180	0xbe327b27	-0.17429791
181	0xbd8f49bc	-0.069964856
182	0xbe77ca5f	-0.24198292
183	0xbe113f2e	-0.14184257
184	0xbe5282d3	-0.20557718
185	0xbec64332	-0.3872314
186	0xbe98d0ee	-0.298469
187	0xbe2d5679	-0.16927518
188	0xbe042b07	-0.12907039
189	0xbe3774fc	-0.1791572
190	0xbe98c27f	-0.2983589
191	0xbe6c2081	-0.23059274
192	0x3da9b30d	0.08286104
193	0xbdfb6322	-0.122747675
194	0xbe999dd3	-0.30003223
195	0xbe806b65	-0.25081936
196	0xbe3ab6b3	-0.18233757
197	0xbe826ab5	-0.25472036
198	0xbe9378d6	-0.28803128
199	0xbd561614	-0.05226715
200	0x3e356437	0.1771401
201	0x3e866899	0.26251677
202	0x3e90ab52	0.28255707
203	0x3db8a70b	0.09016236
204	0x3dc72e7e	0.097256646
205	0x3e15b3bd	0.14619346
206	0x3df923ad	0.12165008
207	0x3e9ef461	0.3104582
208	0x3e33494e	0.17508432
209	0x3cbde69e	0.023181256
210	0x3d1d1bd3	0.038356613
211	0x3e3348f6	0.17508301
212	0xbe0d1c88	-0.13780415
213	0xbde8c921	-0.11366487
214	0x3e50a08f	0.20373748
215	0x3e61d561	0.22054054
216	0xbe52b3ec	-0.20576447
217	0xbe4d3317	-0.2003902
218	0x3e5dfb85	0.21677978
219	0xbeb18457	-0.3467128
220	0xbe77106d	-0.2412736
221	0xbe61c0df	-0.2204623
222	0xbe5d6f1a	-0.21624413
223	0xbe81134f	-0.25210044
224	0x3e93ccba	0.2886713
225	0xbe5fd5db	-0.21858923
226	0x3e5022d9	0.20325793
227	0x3e2fef77	0.17181192
228	0x3da46450	0.080269456
229	0x3e6efcf4	0.23338681
230	0xbe718dc3	-0.23589234
231	0xbe0dd9b0	-0.13852572
232	0xbe8ed47d	-0.2789649
233	0x3e8018a0	0.25018787
234	0x3e923397	0.28554985
235	0xbe72a6df	-0.23696469
236	0x3e8e5d2d	0.27805462
237	0x3e8d3b77	0.2758443
238	0xbe15459c	-0.14577335
239	0xbe973b16	-0.29537266
240	0xbe2497f5	-0.16073592
241	0x3e4b932d	0.19880362
242	0xbe56a4cb	-0.20961301
243	0x3e899427	0.26870844
244	0xbc37396a	-0.011183122
245	0x3e0beb9c	0.13664097
246	0x3e83f196	0.25770253
247	0xbe2e39c6	-0.17014226
248	0x3df4b184	0.11947921
249	0x3e0a6cd1	0.13518073
250	0xbdae71a7	-0.08517771
251	0x3e016a93	0.12638311
252	0xbd9cc8f7	-0.076555185
253	0x3e52a629	0.20571198
254	0x3e1092b5	0.14118464
255	0x3e424c13	0.18974333

bias_hh f4 [300]
0	0x3e112a79	0.14176358
1	0x3e97e5aa	0.29667407
2	0x3e8741ca	0.2641738
3	0xbe3e19a8	-0.18564475
4	0x3d8dac0a	0.069175795
5	0x3b126ae2	0.002234154
6	0x3d71ca9f	0.059031125
7	0x3e21f05b	0.15814345
8	0x3dea6949	0.11445863
9	0xbceed701	-0.029155256
10	0xbbc1b1a7	-0.0059110704
11	0x3e2d12b6	0.16901669
12	0x3d0f9b97	0.03506049
13	0xbc8b93af	-0.017038194
14	0xbdb49b36	-0.08818667
15	0x3e3e7266	0.18598327
16	0x3db51a4b	0.088429056
17	0x3e8618e5	0.26190868
18	0x3d778650	0.060430825
19	0x3bb6da69	0.0055802357
20	0x3e9ee196	0.31031483
21	0x3d17b7c6	0.037040494
22	0x3dae71f9	0.08517832
23	0x3d0fbde2	0.035093196
24	0x3e0b8686	0.13625535
25	0x3d82608c	0.06366071
26	0x3d869902	0.06572153
27	0x3d86daa6	0.06584673
28	0x3caa6e66	0.020804595
29	0x3dcf61d1	0.10126079
30	0x3e89838c	0.26858175
31	0x3e69be5b	0.22826521
32	0x3e302399	0.1720108
33	0x3bc2e71a	0.0059479596
34	0x3e864ca8	0.2623036
35	0x3e3cc83f	0.18435763
36	0x3dece58f	0.11567222
37	0x3dc3f6ee	0.095685825
38	0x3d5f86c8	0.054571897
39	0x3e259e8c	0.16173762
40	0x3e9f7edf	0.31151482
41	0x3de291b4	0.11062947
42	0xbd857643	-0.06516697
43	0x3d0c4642	0.03424669
44	0xbdf51c5e	-0.11968301
45	0xbe13ffef	-0.144531
46	0x3e8f7816	0.28021306
47	0x3d49a655	0.049230892
48	0x3cede3c1	0.029039266
49	0x3d8ae8a2	0.067826524
50	0x3de5fa64	0.11229399
51	0x3d6b0c9c	0.057385072
52	0xbc42760c	-0.011868965
53	0xbc11e136	-0.008903792
54	0x3daee463	0.08539655
55	0x3e03a227	0.12854825
56	0xbd0f838f	-0.035037573
57	0x3e36eb18	0.17863119
58	0x3d320051	0.043457333
59	0x3e325ae4	0.17417485
60	0xba446d99	-0.0007493138
61	0x3cd54c6e	0.026037421
62	0x3e7515e4	0.23934132
63	0x3d3c52b0	0.045977294
64	0x3dde4594	0.10853115
65	0x3d9c8d8c	0.076441854
66	0xbddc2b76	-0.10750477
67	0x3e256ec8	0.16155541
68	0x3c5e87c3	0.013582173
69	0x3ae03a9b	0.001710731
70	0x3e04c812	0.12966946
71	0x3d3f142b	0.046650093
72	0x3cd63f6b	0.026153287
73	0x3e8bbe95	0.2729384
74	0x3e5cfba5	0.2158037
75	0x3e07df35	0.1326874
76	0xbc07866d	-0.008271796
77	0x3d860f40	0.065458775
78	0xbc0a7f2f	-0.0084531745
79	0x3c918edd	0.017768318
80	0x3e030a2f	0.12796853
81	0xbdc3e777	-0.09565633
82	0xbcdd204b	-0.026992938
83	0xbd4d35ea	-0.050100245
84	0x3dd310d1	0.10305942
85	0xbd316fa1	-0.04331935
86	0x3d82152c	0.063516945
87	0x3e3dd111	0.18536784
88	0xbe1d4370	-0.15357757
89	0x3dec8bbe	0.11550091
90	0x3e0ed9b7	0.13950239
91	0x3e221925	0.15829904
92	0x3d313105	0.04325964
93	0x3de1f975	0.11033908
94	0x3e99d32f	0.30043933
95	0x3e3b7c98	0.18309247
96	0x3e04cc5d	0.12968583
97	0x3e888fac	0.26672113
98	0x3dbf1d69	0.093317814
99	0x3dba1572	0.090861216
100	0xbe077edf	-0.13231991
101	0xbe960f62	-0.2930861
102	0xbeb3a584	-0.35087216
103	0x3dd357b1	0.1031946
104	0x3dc50b77	0.09621327
105	0xbb1f3cbb	-0.0024297673
106	0xbe876d13	-0.26450405
107	0xbec01b34	-0.37520754
108	0xbe99573f	-0.29949376
109	0xbe031723	-0.12801795
110	0xbd842e98	-0.064541996
111	0xbde31d9d	-0.11089633
112	0xbe6edbda	-0.23326054
113	0x3d9830aa	0.07431157
114	0xbe8260c3	-0.25464448
115	0xbe88cc85	-0.26718536
116	0xbdd4406d	-0.10363851
117	0xbd2ebc70	-0.042660177
118	0xbde5ac3a	-0.1121449
119	0xbeb577d7	-0.35442993
120	0xbda2fc59	-0.07958288
121	0xbe8f00de	-0.2793035
122	0xbec862a0	-0.39137745
123	0xbe7ecaff	-0.24882124
124	0xbe51cc7b	-0.2048816
125	0xbe698076	-0.2280291
126	0xbe0328d1	-0.12808539
127	0xbe99372a	-0.299249
128	0xbeb27db1	-0.3486152
129	0xbe7d412e	-0.24731895
130	0xbe33a538	-0.17543495
131	0xbe63666e	-0.22207043
132	0xbe9228a2	-0.28546625
133	0xbe294f9c	-0.16534275
134	0xbe86eda1	-0.2635317
135	0xbe052ec4	-0.13006121
136	0xbe8525c0	-0.26005363
137	0xbe22f3e9	-0.15913357
138	0xbe5ac38b	-0.21363656
139	0xbe800034	-0.25000155
140	0xbe8ba580	-0.27274704
141	0xbea45744	-0.32097828
142	0x3d71f5f4	0.05907245
143	0xbe8342ad	-0.25636807
144	0xbc07913f	-0.008274375
145	0x3c01f122	0.007931026
146	0xbea3d7cf	-0.32000586
147	0xbe29267f	-0.16518591
148	0xbd0b11bf	-0.03395247
149	0xbd4a27ed	-0.049354482
150	0xbde1728a	-0.11008175
151	0xbe559471	-0.20857407
152	0xbd2bed13	-0.04197414
153	0xbe850426	-0.25979728
154	0xbe2f3e5e	-0.17113635
155	0xbdede423	-0.11615779
156	0xbe1b396b	-0.15158622
157	0xbe7cc4d3	-0.24684457
158	0xbd615d08	-0.055020362
159	0xbe87fd56	-0.26560467
160	0xbe0f0a7c	-0.13968843
161	0xbe8e883b	-0.2783831
162	0xbe99b211	-0.30018666
163	0xbd4d387f	-0.050102707
164	0xbe361a14	-0.17783386
165	0xbe8f0346	-0.27932185
166	0xbd5459bc	-0.05184339
167	0xbeb49fb5	-0.35278097
168	0x3cc887ae	0.02447876
169	0xbeab909b	-0.33508763
170	0xbe9ab24e	-0.3021416
171	0x3db9bf92	0.09069742
172	0xbd89338a	-0.066992834
173	0xbe7c5e74	-0.24645406
174	0xbe2afde4	-0.16698414
175	0xbe6f2dbe	-0.23357293
176	0x3de67e56	0.112545654
177	0xbed446fd	-0.4146041
178	0xbd2842d6	-0.041079365
179	0xbe4d5539	-0.20052041
180	0xbe0a2e42	-0.13494208
181	0xbe34808f	-0.17627166
182	0xbe8aafe3	-0.27087316
183	0xbe289ef5	-0.16466887
184	0xbe8d778a	-0.27630264
185	0xbed156d3	-0.40886554
186	0xbe1cd378	-0.15315044
187	0xbe6690eb	-0.2251622
188	0xbe196163	-0.14978556
189	0xbe398e74	-0.18120748
190	0xbea7de45	-0.32786766
191	0xbe35ea61	-0.1776519
192	0xbca1c9fe	-0.019749638
193	0xbe23fa39	-0.16013421
194	0xbe3bd040	-0.1834116
195	0xbe093ecf	-0.13402866
196	0xbe687ab5	-0.22703059
197	0xbe27849b	-0.16359179
198	0xbe5c82f9	-0.21534337
199	0xbe5906af	-0.21193956
200	0x3e2fc2fc	0.17164224
201	0x3e71eb4d	0.23624916
202	0x3e842b45	0.25814262
203	0xbdd77379	-0.105200715
204	0x3d3bab46	0.045817636
205	0x3e5e91ab	0.21735255
206	0x3d833937	0.06407397
207	0x3eaf84a0	0.34280872
208	0x3e731034	0.2373665
209	0x3d100f0c	0.0351706
210	0x3d7ba39d	0.06143533
211	0x3e5d78c7	0.21628104
212	0xbdd8b88b	-0.10582074
213	0xbd0a4b89	-0.033763442
214	0x3e0b45f6	0.13600907
215	0x3e7e1e24	0.24816185
216	0xbdca802b	-0.09887727
217	0xbe9ff8ec	-0.312446
218	0x3c7e99ea	0.015539626
219	0xbe69ef18	-0.22845113
220	0xbe7da901	-0.24771501
221	0xbe4f8cd9	-0.20268573
222	0xbe09f5f0	-0.13472724
223	0xbe4ecf25	-0.20196207
224	0x3e2764c8	0.16347039
225	0xbd7cccfc	-0.061718926
226	0x3de2fa8d	0.11082945
227	0x3e61384e	0.21994135
228	0x3dc7c62b	0.097545944
229	0x3e69f942	0.2284899
230	0xbd874b03	-0.06606104
231	0xbe693ef6	-0.22777924
232	0xbea00ba0	-0.3125887
233	0x3deec43e	0.11658524
234	0x3e83da03	0.25752267
235	0xbe53fa5b	-0.20700972
236	0x3e22b89a	0.15890732
237	0x3e105f42	0.14098838
238	0xbe3f4711	-0.18679453
239	0xbe5bb01b	-0.21453898
240	0xbea41340	-0.32045937
241	0x3e6bd76f	0.230314
242	0xbe083118	-0.13299978
243	0x3e14db9c	0.145369
244	0x3d11a8b6	0.035561286
245	0x3d8471ec	0.064670414
246	0x3eafae04	0.3431245
247	0xbe65e55e	-0.22450778
248	0x3e0059b5	0.1253422
249	0x3e47517d	0.19464679
250	0xbdd1725c	-0.102268904
251	0x3d2e1622	0.042501576
252	0xbdf76433	-0.12079658
253	0x3e1724e5	0.14760168
254	0x3e3ad8ec	0.18246812
255	0x3de0e709	0.109815665

weight f4 [2, 100]
0	0x3e5fe6d6	0.218654
1	0x3eb1ab76	0.34701127
2	0x3eb9074b	0.36138377
3	0xbd342ae6	-0.043986224
4	0xbc49e297	-0.01232209
5	0x3e8740b5	0.26416555
6	0x3e531765	0.20614393
7	0x3e7d72fb	0.24750893
8	0x3e91ccd8	0.28476596
9	0x3e702606	0.23452005
10	0xbd4e0bca	-0.05030421
11	0x3e42fc33	0.19041519
12	0xbd3cef70	-0.046126783
13	0xbc531639	-0.012883716
14	0x3e906dfc	0.2820891
15	0x3e7cb2ec	0.24677628
16	0xbe3680c4	-0.17822558
17	0xbe576046	-0.21032819
18	0x3e521212	0.20514706
19	0xbebf62c4	-0.3738004
20	0xbe238707	-0.15969478
21	0xbead265b	-0.33818325
22	0xbe9f136f	-0.31069514
23	0xbe9cabf8	-0.30599952
24	0x3ea3a011	0.31958058
25	0xbe5b985d	-0.2144484
26	0x3d72272a	0.05911938
27	0x3e976e88	0.29576516
28	0x3ea8d37a	0.32973844
29	0x3eb76e09	0.35826138
30	0xbe950ef7	-0.2911298
31	0xbe90931b	-0.28237233
32	0xbea52e06	-0.32261676
33	0x3e41a646	0.18911085
34	0x3e6d4d28	0.23173964
35	0xbe3589c5	-0.17728336
36	0x3e2ba1e7	0.1676098
37	0x3e6f2e72	0.23357561
38	0xbe05d84e	-0.13070795
39	0xbe86bc8a	-0.2631572
40	0xbea3d11d	-0.31995478
41	0x3eb0c2c4	0.34523594
42	0xbe1f18a5	-0.15536745
43	0x3eb64aa0	0.3560381
44	0xbd8d6028	-0.06903106
45	0x3e128a49	0.14310564
46	0x3e86b3a2	0.26308924
47	0xbe6f206b	-0.2335221
48	0x3e117970	0.14206481
49	0x3e694f01	0.22784044
50	0xbdda3082	-0.106537834
51	0x3e87430d	0.26418343
52	0xbe7f1d22	-0.24913457
53	0x3e9716ff	0.29509732
54	0x3e4fc8d8	0.2029146
55	0x3e71e750	0.23623395
56	0x3df37735	0.11887971
57	0xbed2d074	-0.41174662
58	0x3e88d71d	0.26726618
59	0xbe7f2000	-0.24914551
60	0xbdf1400c	-0.11779794
61	0xbe8b3b4b	-0.27193674
62	0x3e9d563f	0.30729863
63	0x3d342f63	0.043990504
64	0x3e0ecc98	0.13945234
65	0x3e73a6f7	0.23794161
66	0x3c8d625f	0.017258821
67	0x3e8ccfeb	0.2750238
68	0x3d098ae7	0.033579733
69	0x3ed22253	0.41041812
70	0xbe99c18d	-0.3003048
71	0xbdfd85e9	-0.12379057
72	0xbe27abd8	-0.16374147
73	0xbe9a7065	-0.30163875
74	0x3e83be99	0.25731352
75	0xbe6d7df2	-0.23192576
76	0xbd873c53	-0.06603303
77	0x3ea6dc85	0.32590118
78	0x3e7c163e	0.2461786
79	0x3e75b67a	0.2399539
80	0xbe849c98	-0.25900722
81	0xbe201967	-0.1563469
82	0xbe80100a	-0.25012237
83	0x3e87f99a	0.26557618
84	0x3e90ecf7	0.2830579
85	0x3eb97d0a	0.3622821
86	0xbe78b8f0	-0.24289298
87	0x3e8c2f39	0.27379778
88	0xbe1682f0	-0.14698386
89	0xbe4fab3e	-0.20280167
90	0x3ea1cf43	0.3160344
91	0xbe856a1a	-0.26057512
92	0xbc6849d6	-0.01417776
93	0xbe838eb3	-0.25694808
94	0x3eb53984	0.35395443
95	0x3e8cc3fd	0.27493277
96	0xbe03694f	-0.12833141
97	0xbea5d9a6	-0.32392615
98	0xbe846f02	-0.25865942
99	0x3e0a5964	0.13510662
100	0xbe4fbe18	-0.20287359
101	0xbe87d9f4	-0.26533473
102	0xbeb17928	-0.34662747
103	0xbbfdc174	-0.0077440087
104	0xbe0fded5	-0.14049847
105	0xbddcacbb	-0.10775133
106	0xbe9dba1a	-0.30806047
107	0xbeb6fcad	-0.3573965
108	0xbe936c60	-0.2879362
109	0xbe3ea42e	-0.18617317
110	0xbe013c32	-0.12620619
111	0xbe459865	-0.19296415
112	0x3e4a9404	0.19783026
113	0x3d9733ed	0.07382951
114	0xbe8bc572	-0.27299076
115	0xbe8eb310	-0.2787099
116	0x3e9c0f8c	0.3048061
117	0x3e62568a	0.22103325
118	0xbe869ace	-0.26289982
119	0x3eb9c9cd	0.36286774
120	0x3e960a51	0.29304746
121	0x3eb0d381	0.34536365
122	0x3ebb980f	0.3663945
123	0x3ea3386c	0.31878984
124	0xbebde476	-0.37088364
125	0x3ea8ec9d	0.32993022
126	0xbe3903cc	-0.18067855
127	0xbeac33d7	-0.336333
128	0xbeac9a40	-0.33711433
129	0xbe8185c5	-0.2529737
130	0x3e1c1ebd	0.152461
131	0x3e95daeb	0.29268584
132	0x3e8a9ce0	0.2707281
133	0xbe4e0622	-0.20119527
134	0xbec0c016	-0.3764655
135	0x3e03a33f	0.12855242
136	0xbe7ca4ba	-0.24672213
137	0xbe223dc6	-0.15843877
138	0x3dd69bcb	0.10478934
139	0x3e80330f	0.25038955
140	0x3e9b2a9f	0.30305955
141	0xbe9277d6	-0.28607053
142	0xbc1e4bf0	-0.00966166
143	0xbe9b9c36	-0.30392617
144	0xbd9c7ef5	-0.07641403
145	0xbda1c4be	-0.07898854
146	0xbeb55557	-0.35416672
147	0x3e8ae37c	0.27126682
148	0xbe01096d	-0.12601252
149	0xbe1d56d3	-0.15365152
150	0x3e8358d7	0.25653717
151	0xbe57fb54	-0.21091968
152	0x3e5efb66	0.21775588
153	0xbe74e8d2	-0.23916939
154	0xbeb08918	-0.34479594
155	0xbe61fcb2	-0.22069052
156	0xbd43e985	-0.047830123
157	0x3e7bbe98	0.24584424
158	0xbe47b1ab	-0.19501369
159	0x3ecac072	0.3959995
160	0x3dca85b3	0.09888782
161	0x3e849935	0.25898138
162	0xbeaf84db	-0.34281048
163	0xbdcd1adf	-0.10014891
164	0xbe122b7e	-0.14274403
165	0xbe8ff76b	-0.28118452
166	0x3e06a4f6	0.13148865
167	0xbea12316	-0.3147208
168	0xbe01a301	-0.12659837
169	0xbe7e9c4f	-0.24864314
170	0x3e996596	0.29960316
171	0x3d428ee7	0.047499564
172	0x3e79143a	0.24324122
173	0x3ea12245	0.31471458
174	0xbe6c6af5	-0.23087676
175	0x3e9c7fe4	0.30566323
176	0xbdecd668	-0.11564332
177	0xbebc351d	-0.36759272
178	0xbe15851e	-0.14601561
179	0xbe3b07ab	-0.18264644
180	0x3e8301f6	0.25587434
181	0x3e142756	0.1446813
182	0x3e909015	0.28234926
183	0xbde64cd3	-0.11245122
184	0xbe63e7b7	-0.22256361
185	0xbeb6d3b7	-0.357084
186	0x3e9378d1	0.28803113
187	0xbe911ad8	-0.28340793
188	0x3dbeeb23	0.093221925
189	0x3e84d41e	0.25943083
190	0xbe9945ec	-0.2993616
191	0x3e84e969	0.25959328
192	0xbda219d9	-0.07915086
193	0x3e78b13a	0.24286357
194	0xbe31274d	-0.17300148
195	0xbe28dfee	-0.16491672
196	0x3dcbac31	0.09944952
197	0x3e5830b6	0.21112332
198	0x3e971de9	0.29515007
199	0xbe86719d	-0.26258555

bias f4 [2]
0	0x3d550953	0.052010845
1	0xbdeb034e	-0.1147524

weight f4 [2, 100]
0	0x3dc753fb	0.09732815
1	0x3d1006e2	0.035162814
2	0xbace2580	-0.0015727729
3	0x3d486792	0.048926897
4	0xbdc07c1f	-0.09398674
5	0x3cf20254	0.029542126
6	0xbc83ea0c	-0.016102813
7	0x3d08a276	0.03335806
8	0x3dbb0481	0.091317184
9	0xbcc12f74	-0.023582198
10	0x3da337e9	0.079696484
11	0xbb627c00	-0.0034558773
12	0x3d95d207	0.0731545
13	0x3c815148	0.015785828
14	0x3d9a040f	0.07520305
15	0xbc4273d8	-0.01186844
16	0xbd566840	-0.052345514
17	0xbd318d7d	-0.043347824
18	0xbbe19850	-0.006884612
19	0xbd6db48a	-0.058033504
20	0xbaf5a580	-0.001874134
21	0x3cc730b4	0.024315216
22	0x3cf52254	0.029923595
23	0xbd57067d	-0.052496422
24	0x3c241a28	0.010016002
25	0x3dcbe4a9	0.09955723
26	0xbdc70ce5	-0.09719256
27	0x3d9ed0a5	0.077546395
28	0xbca0a540	-0.019610047
29	0x3ce4b24c	0.02791705
30	0xbdafcf37	-0.08584445
31	0x3d87e449	0.06635339
32	0xbcb1c634	-0.021700956
33	0x3da605a1	0.081065424
34	0xbcb401a0	-0.021973431
35	0xbd77054a	-0.06030778
36	0xbc9c2468	-0.019060329
37	0x3d54ca4e	0.051950745
38	0x3dc962cf	0.09833299
39	0xbdc23820	-0.09483361
40	0xbd135bc4	-0.035976186
41	0x3d38510e	0.044999175
42	0xbcb8e0a0	-0.022568047
43	0xbcc69af4	-0.02424381
44	0xbd0f7564	-0.03502406
45	0x3cddb864	0.027065463
46	0x3bc4c980	0.006005466
47	0xbd7a406d	-0.061096597
48	0xbc35bfb0	-0.011093065
49	0xbd7702e7	-0.060305502
50	0xbdbd6212	-0.09247221
51	0x3d333126	0.043748043
52	0x3daea835	0.08528177
53	0x3d880337	0.06641238
54	0xbdb29a05	-0.08720783
55	0xbd2aa667	-0.0416626
56	0xbd84273d	-0.064527966
57	0x3d9664d3	0.073434494
58	0xbdb6c0da	-0.08923502
59	0x3c862f4c	0.016379975
60	0xbdbb355b	-0.09141036
61	0xbccf6a00	-0.0253191
62	0xbdbd17d3	-0.0923306
63	0xbd89cb6a	-0.06728251
64	0x3d78243a	0.060581423
65	0xbca32b48	-0.019918099
66	0xbcdd7be0	-0.027036607
67	0xbcfb2ae0	-0.030660093
68	0x3db6343f	0.08896684
69	0x3daa2771	0.08308304
70	0xbdb75b5a	-0.08952971
71	0xbd8ada88	-0.06779963
72	0x3d8319fd	0.06401441
73	0x3d98540f	0.07437908
74	0x3c40c3b0	0.011765406
75	0x3dbf6c79	0.093468614
76	0x3d8d4b17	0.06899088
77	0x3da3a1e1	0.0798986
78	0xbd4727ca	-0.04862193
79	0x3d86fc45	0.06591085
80	0x3c8d5cc0	0.01725614
81	0xbdb3fe08	-0.08788687
82	0xbcd208e0	-0.025638998
83	0x3d8554d1	0.06510318
84	0xbdc495bb	-0.09598871
85	0x3dab8119	0.08374233
86	0x3daeff49	0.085447855
87	0xbdcb5e23	-0.099300645
88	0xbd839f70	-0.06426895
89	0x3cc18128	0.023621157
90	0xbdbf4a87	-0.09340387
91	0x3d9aab6f	0.075522296
92	0xbd54901d	-0.05189525
93	0xbd917096	-0.07101552
94	0x3cdf9684	0.027293451
95	0xbdc43ffd	-0.09582517
96	0x3da6c549	0.08143098
97	0x3daaa6e1	0.08332611
98	0x3dcc0b4b	0.099630915
99	0xbcadccd4	-0.021215834
100	0xbdc95e43	-0.09832432
101	0x3d020c8a	0.03175024
102	0xbda8e802	-0.08247377
103	0x3d90b5ed	0.070659496
104	0x3d7c9132	0.061661907
105	0x3d2a33e2	0.041553386
106	0xbcc91a68	-0.024548724
107	0x3d2721be	0.040803663
108	0xbd3a7803	-0.04552461
109	0x3d76c3c6	0.060245298
110	0xbdb10995	-0.08644406
111	0x3bef2600	0.007298231
112	0x3d964665	0.073376454
113	0x3dc67525	0.09690312
114	0xbd20d6c7	-0.039267328
115	0xbd71dec0	-0.05905032
116	0xbc90ff80	-0.017699957
117	0x3d3cc062	0.046081908
118	0xbd897a20	-0.067127466
119	0x3da334df	0.07969069
120	0xbcd2b718	-0.025722072
121	0xbc6dbff0	-0.0145110935
122	0x3ca991cc	0.020699404
123	0x3d7516aa	0.059836067
124	0x3d85db55	0.06535975
125	0xbd20173a	-0.03908465
126	0xbdae433a	-0.08508916
127	0x3c75f070	0.015010938
128	0x3da55159	0.080721565
129	0xbdb86945	-0.090044536
130	0xbdad9b28	-0.08476859
131	0xbd3feda0	-0.046857476
132	0xbd7b86e0	-0.061407924
133	0x3d022706	0.031775497
134	0xbd76237d	-0.060092438
135	0x3dab5829	0.083664246
136	0x3d92e2a1	0.07172132
137	0xbd3f84e0	-0.04675758
138	0xbc89e794	-0.016834058
139	0xbd062350	-0.03274852
140	0xbd863ed2	-0.06554951
141	0x3d16fc22	0.036861546
142	0xbd4c6dc0	-0.049909353
143	0x3dbb40b1	0.09143198
144	0x3dcad091	0.09903062
145	0x3ad3dac0	0.0016163215
146	0xbd8528d0	-0.06501925
147	0x3c875dec	0.016524278
148	0xbb8442b0	-0.00403627
149	0xbd096a34	-0.03354855
150	0x3cee7efc	0.029113285
151	0xbd645d83	-0.055753242
152	0xbd982d18	-0.07430476
153	0xbd9956bb	-0.07487246
154	0xbdbf85ea	-0.09351714
155	0x3d1777de	0.03697955
156	0x3d725366	0.059161566
157	0x3d20cd96	0.039258562
158	0x3d5a833e	0.05334782
159	0xbd0c270a	-0.034216918
160	0xbd117a70	-0.035517156
161	0x3d88249f	0.0664761
162	0xbd49815a	-0.049195625
163	0xbb43bbc0	-0.0029866546
164	0x3d3cd302	0.04609967
165	0x3d2ab07a	0.041672207
166	0xbcdb8b54	-0.026799835
167	0xbcf68900	-0.030094624
168	0x3db8db61	0.09026218
169	0x3d93da49	0.07219369
170	0xbd548c67	-0.05189171
171	0x3dae54a3	0.08512237
172	0xbcbc02a0	-0.02295047
173	0x3d32f562	0.043691047
174	0x3dad0a4b	0.08449229
175	0xbd08ce86	-0.03340008
176	0xbd7119c0	-0.058862448
177	0xbdca64bf	-0.09882497
178	0x3d9eb9e5	0.077503
179	0xbd8c18ca	-0.06840666
180	0xbc96762c	-0.018366896
181	0x3d977ea7	0.07397204
182	0xbd116d6a	-0.035504736
183	0xb97c5000	-0.00024062395
184	0xbd8aeb7d	-0.06783197
185	0xbc50dc50	-0.012747839
186	0x3d8a4143	0.06750729
187	0xbd18e2b4	-0.037325576
188	0xbd987516	-0.07444207
189	0x3d285d62	0.04110468
190	0xbdafde5d	-0.08587334
191	0xbcc60608	-0.024172798
192	0x3d6e01d2	0.058107205
193	0x3db3ee43	0.08785679
194	0xbcdc30c8	-0.02687873
195	0xbaa40580	-0.0012513846
196	0x3d6b5a06	0.0574589
197	0x3b6d12c0	0.0036174506
198	0xbd11a71c	-0.03555976
199	0xbd966680	-0.07343769

bias f4 [2]
0	0x3d095d6e	0.033536367
1	0x3d87c041	0.066284664

amplitudes f4 [1000, 2]
0	0x3f7fffff	0.99999994
1	0x00000000	0.0
2	0x3f7fffff	0.99999994
3	0x00000000	0.0
4	0x3f7fffff	0.99999994
5	0x00000000	0.0
6	0x3f7fffff	0.99999994
7	0x00000000	0.0
8	0x3f7fffff	0.99999994
9	0x00000000	0.0
10	0x3f7fffff	0.99999994
11	0x00000000	0.0
12	0x3f7fffff	0.99999994
13	0x00000000	0.0
14	0x3f7fffff	0.99999994
15	0x00000000	0.0
16	0x3f7fffff	0.99999994
17	0x00000000	0.0
18	0x3f7fffff	0.99999994
19	0x00000000	0.0
20	0x3f7fffff	0.99999994
21	0x00000000	0.0
22	0x3f7fffff	0.99999994
23	0x00000000	0.0
24	0x3f7fffff	0.99999994
25	0x00000000	0.0
26	0x3f7fffff	0.99999994
27	0x00000000	0.0
28	0x3f7fffff	0.99999994
29	0x00000000	0.0
30	0x3f7fffff	0.99999994
31	0x00000000	0.0
32	0x3f7fffff	0.99999994
33	0x00000000	0.0
34	0x3f7fffff	0.99999994
35	0x00000000	0.0
36	0x3f7fffff	0.99999994
37	0x00000000	0.0
38	0x3f7fffff	0.99999994
39	0x00000000	0.0
40	0x3f7fffff	0.99999994
41	0x00000000	0.0
42	0x3f7fffff	0.99999994
43	0x00000000	0.0
44	0x3f7fffff	0.99999994
45	0x00000000	0.0
46	0x3f7fffff	0.99999994
47	0x00000000	0.0
48	0x3f7fffff	0.99999994
49	0x00000000	0.0
50	0x3f7fffff	0.99999994
51	0x00000000	0.0
52	0x3f7fffff	0.99999994
53	0x00000000	0.0
54	0x3f7fffff	0.99999994
55	0x00000000	0.0
56	0x3f7fffff	0.99999994
57	0x00000000	0.0
58	0x3f7fffff	0.99999994
59	0x00000000	0.0
60	0x3f7fffff	0.99999994
61	0x00000000	0.0
62	0x3f7fffff	0.99999994
63	0x00000000	0.0
64	0x3f7fffff	0.99999994
65	0x00000000	0.0
66	0x3f7fffff	0.99999994
67	0x00000000	0.0
68	0x3f7fffff	0.99999994
69	0x00000000	0.0
70	0x3f7fffff	0.99999994
71	0x00000000	0.0
72	0x3f7fffff	0.99999994
73	0x00000000	0.0
74	0x3f7fffff	0.99999994
75	0x00000000	0.0
76	0x3f7fffff	0.99999994
77	0x00000000	0.0
78	0x3f7fffff	0.99999994
79	0x00000000	0.0
80	0x3f7fffff	0.99999994
81	0x00000000	0.0
82	0x3f7fffff	0.99999994
83	0x00000000	0.0
84	0x3f7fffff	0.99999994
85	0x00000000	0.0
86	0x3f7fffff	0.99999994
87	0x00000000	0.0
88	0x3f7fffff	0.99999994
89	0x00000000	0.0
90	0x3f7fffff	0.99999994
91	0x00000000	0.0
92	0x3f7fffff	0.99999994
93	0x00000000	0.0
94	0x3f7fffff	0.99999994
95	0x00000000	0.0
96	0x3f7fffff	0.99999994
97	0x00000000	0.0
98	0x3f7fffff	0.99999994
99	0x00000000	0.0
100	0x3f7fffff	0.99999994
101	0x00000000	0.0
102	0x3f7fffff	0.99999994
103	0x00000000	0.0
104	0x3f7fffff	0.99999994
105	0x00000000	0.0
106	0x3f7fffff	0.99999994
107	0x00000000	0.0
108	0x3f7fffff	0.99999994
109	0x00000000	0.0
110	0x3f7fffff	0.99999994
111	0x00000000	0.0
112	0x3f7fffff	0.99999994
113	0x00000000	0.0
114	0x3f7fffff	0.99999994
115	0x00000000	0.0
116	0x3f7fffff	0.99999994
117	0x00000000	0.0
118	0x3f7fffff	0.99999994
119	0x00000000	0.0
120	0x3f7fffff	0.99999994
121	0x00000000	0.0
122	0x3f7fffff	0.99999994
123	0x00000000	0.0
124	0x3f7fffff	0.99999994
125	0x00000000	0.0
126	0x3f7fffff	0.99999994
127	0x00000000	0.0
128	0x3f7fffff	0.99999994
129	0x00000000	0.0
130	0x3f7fffff	0.99999994
131	0x00000000	0.0
132	0x3f7fffff	0.99999994
133	0x00000000	0.0
134	0x3f7fffff	0.99999994
135	0x00000000	0.0
136	0x3f7fffff	0.99999994
137	0x00000000	0.0
138	0x3f7fffff	0.99999994
139	0x00000000	0.0
140	0x3f7fffff	0.99999994
141	0x00000000	0.0
142	0x3f7fffff	0.99999994
143	0x00000000	0.0
144	0x3f7fffff	0.99999994
145	0x00000000	0.0
146	0x3f7fffff	0.99999994
147	0x00000000	0.0
148	0x3f7fffff	0.99999994
149	0x00000000	0.0
150	0x3f7fffff	0.99999994
151	0x00000000	0.0
152	0x3f7fffff	0.99999994
153	0x00000000	0.0
154	0x3f7fffff	0.99999994
155	0x00000000	0.0
156	0x3f7fffff	0.99999994
157	0x00000000	0.0
158	0x3f7fffff	0.99999994
159	0x00000000	0.0
160	0x3f7fffff	0.99999994
161	0x00000000	0.0
162	0x3f7fffff	0.99999994
163	0x00000000	0.0
164	0x3f7fffff	0.99999994
165	0x00000000	0.0
166	0x3f7fffff	0.99999994
167	0x00000000	0.0
168	0x3f7fffff	0.99999994
169	0x00000000	0.0
170	0x3f7fffff	0.99999994
171	0x00000000	0.0
172	0x3f7fffff	0.99999994
173	0x00000000	0.0
174	0x3f7fffff	0.99999994
175	0x00000000	0.0
176	0x3f7fffff	0.99999994
177	0x00000000	0.0
178	0x3f7fffff	0.99999994
179	0x00000000	0.0
180	0x3f7fffff	0.99999994
181	0x00000000	0.0
182	0x3f7fffff	0.99999994
183	0x00000000	0.0
184	0x3f7fffff	0.99999994
185	0x00000000	0.0
186	0x3f7fffff	0.99999994
187	0x00000000	0.0
188	0x3f7fffff	0.99999994
189	0x00000000	0.0
190	0x3f7fffff	0.99999994
191	0x00000000	0.0
192	0x3f7fffff	0.99999994
193	0x00000000	0.0
194	0x3f7fffff	0.99999994
195	0x00000000	0.0
196	0x3f7fffff	0.99999994
197	0x00000000	0.0
198	0x3f7fffff	0.99999994
199	0x00000000	0.0
200	0x3f7fffff	0.99999994
201	0x00000000	0.0
202	0x3f7fffff	0.99999994
203	0x00000000	0.0
204	0x3f7fffff	0.99999994
205	0x00000000	0.0
206	0x3f7fffff	0.99999994
207	0x00000000	0.0
208	0x3f7fffff	0.99999994
209	0x00000000	0.0
210	0x3f7fffff	0.99999994
211	0x00000000	0.0
212	0x3f7fffff	0.99999994
213	0x00000000	0.0
214	0x3f7fffff	0.99999994
215	0x00000000	0.0
216	0x3f7fffff	0.99999994
217	0x00000000	0.0
218	0x3f7fffff	0.99999994
219	0x00000000	0.0
220	0x3f7fffff	0.99999994
221	0x00000000	0.0
222	0x3f7fffff	0.99999994
223	0x00000000	0.0
224	0x3f7fffff	0.99999994
225	0x00000000	0.0
226	0x3f7fffff	0.99999994
227	0x00000000	0.0
228	0x3f7fffff	0.99999994
229	0x00000000	0.0
230	0x3f7fffff	0.99999994
231	0x00000000	0.0
232	0x3f7fffff	0.99999994
233	0x00000000	0.0
234	0x3f7fffff	0.99999994
235	0x00000000	0.0
236	0x3f7fffff	0.99999994
237	0x00000000	0.0
238	0x3f7fffff	0.99999994
239	0x00000000	0.0
240	0x3f7fffff	0.99999994
241	0x00000000	0.0
242	0x3f7fffff	0.99999994
243	0x00000000	0.0
244	0x3f7fffff	0.99999994
245	0x00000000	0.0
246	0x3f7fffff	0.99999994
247	0x00000000	0.0
248	0x3f7fffff	0.99999994
249	0x00000000	0.0
250	0x3f7fffff	0.99999994
251	0x00000000	0.0
252	0x3f7fffff	0.99999994
253	0x00000000	0.0
254	0x3f7fffff	0.99999994
255	0x00000000	0.0
