data/RNN_runs/sweep2_H2/rnn_sto3g_H2_0-7348_eq1_nU50_nL1_lr005_lrsO_ns10000.pt (torch_old, 452427 bytes, 9 tensors)

weight_ih f4 [150, 2]
-0.11741809 0.36365876 -0.21507648 0.40664563 -0.10599548 0.49777827 -0.35137674 0.18444581
-0.1390302 0.27016404 0.07518711 0.50237143 -0.18762389 0.07244743 -0.11704965 0.14076184
-0.13160743 0.24506216 -0.47086415 0.3177941 0.10749242 0.42744246 -0.12781717 0.4662828
-0.15675057 0.2972334 -0.1855901 0.26906994 0.13172048 0.21248844 0.14144555 0.072222136
0.042531416 0.08502834 0.08182851 0.22576053 -0.30883265 0.14323898 -0.109635696 0.31780463
-0.21517229 0.2380851 -0.19992928 0.46286184 0.019354425 0.4644289 -0.21681778 0.32500318
0.023311151 0.41222373 0.16523136 0.5920351 -0.07990377 0.41889036 -0.14502361 0.0010832935
-0.108976275 0.5619248 -0.31508383 0.15905075 0.15594071 0.57884276 -0.16409816 0.018460747
-0.2244392 0.26717228 -0.27584228 0.06865787 -0.25718614 0.44993356 0.16024554 0.52187985
-0.3021571 0.19587861 0.15429267 0.51034945 0.10124712 -0.07143915 -0.17825556 0.19021338
-0.027258845 0.35998827 0.10487384 0.36209583 -0.22949523 0.3504873 -0.11751845 0.30030847
0.13004555 0.46684107 -0.11418482 0.44969437 -0.06147284 0.39007875 -0.13631122 0.40138793
0.097567596 0.4639393 -0.0820791 0.29995692 0.15040629 -0.51974064 0.104936115 -0.44359836
-0.049273208 -0.4705663 0.2077201 -0.2399491 0.04927676 -0.5398513 -0.13520475 -0.3189418
-0.15762177 -0.20292747 0.081382446 -0.20098008 -0.094959535 -0.097441286 0.3341912 -0.1434213
-0.06331204 -0.38485232 0.30915985 -0.4340608 -0.06405315 -0.25843135 0.1734674 -0.33184284
0.009313298 -0.2692347 -0.07078865 -0.1636554 -0.045707338 -0.30943787 -0.07280424 -0.61613315
0.31954622 -0.3977904 0.0069058468 -0.53292894 0.19100204 -0.41054675 0.18757161 -0.25807577
0.036015652 -0.58242923 0.09843545 -0.41270772 -0.022455193 -0.46606192 -0.29730767 -0.618419
0.1220791 -0.14402832 0.11714699 -0.2788773 -0.08203104 -0.47906098 0.065958045 -0.31679368
0.0055248877 -0.40478244 -0.1313717 -0.4161577 0.29693392 -0.3115743 0.15996024 -0.3363071
-0.05265817 -0.44414806 -0.03948922 -0.49201432 0.15649581 -0.32449663 -0.1980744 -0.47340366
-0.10809408 -0.52168465 0.2669259 -0.03226669 0.1215236 -0.37477264 0.15673819 -0.55813724
-0.056483082 -0.4269628 -0.031404972 -0.09308574 0.02419831 -0.5633157 -0.0045585576 -0.5794335
0.06123113 -0.23686635 -0.022098131 -0.4728094 0.07761777 -0.5028461 0.2812505 -0.35691506
0.007513046 -0.18773231 0.025073804 0.21843621 -0.061616905 -0.35924447 -0.04328524 -0.20311362
-0.0558222 0.58998245 0.08257703 -0.42621598 0.16574125 -0.30774164 -0.055649042 0.2588536
0.30193567 0.34228542 -0.06883216 0.11670522 -0.07476263 -0.4880633 0.0674018 0.14278793
0.17362563 -0.42574018 -0.0380581 -0.30954412 -0.045600098 0.3601056 -0.01524077 -0.43951648
-0.026169531 -0.3568771 0.025430707 -0.5792342 0.053808548 -0.21095026 -0.2370102 0.5431925
0.04527325 0.16013011 -0.14774436 -0.27695304 0.1485121 -0.33159637 -0.14432119 -0.34282285
0.11011421 0.22662511 0.20719066 -0.5859655 0.19085018 0.15118508 -0.013791118 0.19236687
00000000: e578 f0bd 7b31 ba3e 023d 5cbe db33 d03e
00000010: 2914 d9bd cbdc fe3e a7e7 b3be 5ddf 3c3e
00000020: ef5d 0ebe f152 8a3e b3fb 993d 6a9b 003f
00000030: 7a20 40be 515f 943d bab7 efbd df23 103e
00000040: 19c4 06be 93f1 7a3e 1b15 f1be e9b5 a23e
00000050: fc24 dc3d bdd9 da3e 81e2 02be 9fbc ee3e
00000060: 3983 20be fa2e 983e 550b 3ebe 89c3 893e
00000070: bce1 063e 9296 593e 1ad7 103e 33e9 933d
00000080: 6c35 2e3d 5723 ae3d b595 a73d c52d 673e
00000090: 501f 9ebe 3dad 123e ae88 e0bd 4ab7 a23e
000000a0: 2056 5cbe 95cc 733e 43ba 4cbe 3afc ec3e
000000b0: 2c8d 9e3c a0c9 ed3e 7b05 5ebe d166 a63e
000000c0: 07f7 be3c fd0e d33e 6932 293e 9d8f 173f
000000d0: 96a4 a3bd cc78 d63e 1281 14be 4cfd 8d3a
000000e0: f42e dfbd 4eda 0f3f ab52 a1be 33de 223e
000000f0: ecae 1f3e 0a2f 143f 5909 28be fe3a 973c
00000100: 64d3 65be ceca 883e 333b 8dbe 7f9c 8c3d
00000110: e7ad 83be b15d e63e 6817 243e eb99 053f
00000120: 56b4 9abe 6794 483e e6fe 1d3e 43a6 023f
00000130: a65a cf3d b04e 92bd a088 36be 4cc7 423e
00000140: f14d dfbc 6250 b83e 19c8 d63d a064 b93e
00000150: cc00 6bbe 1273 b33e 83ad f0bd 08c2 993e
00000160: a92a 053e cb05 ef3e bbd9 e9bd 573e e63e
00000170: f2ca 7bbd 67b8 c73e 2b95 0bbe b882 cd3e
00000180: 85d1 c73d 7489 ed3e 1619 a8bd f493 993e
00000190: 1b04 1a3e b90d 05bf bfe8 d63d 531f e3be
000001a0: b4d2 49bd 11ee f0be 94b4 543e 38b5 75be
000001b0: 6ed6 493d b233 0abf 1d73 0abe 574c a3be
000001c0: 9a67 21be 38cc 4fbe d7ab a63d b9cd 4dbe
000001d0: 257a c2bd 4c8f c7bd 1c1b ab3e 09dd 12be
000001e0: bea9 81bd 5d0b c5be 334a 9e3e 383d debe
000001f0: 4c2e 83bd 1d51 84be 70a1 313e 4ee7 a9be
00000200: ce96 183c 21d9 89be a4f9 90bd 4895 27be
00000210: 9e37 3bbd a46e 9ebe 641a 95bd e7ba 1dbf
00000220: 909b a33e 2fab cbbe 714a e23b 086e 08bf
00000230: 0a96 433e 2f33 d2be c612 403e 8222 84be
00000240: 2685 133d 151a 15bf 8698 c93d 6d4e d3be
00000250: f4f3 b7bc ab9f eebe b638 98be b550 1ebf
00000260: 9b04 fa3d 297c 13be c3ea ef3d 01c9 8ebe
00000270: e4ff a7bd 7b47 f5be 0315 873d c832 a2be
00000280: 1e0a b53b a53f cfbe 4e86 06be 9f12 d5be
00000290: b907 983e ab86 9fbe 9ecc 233e 7230 acbe
000002a0: 18b0 57bd 6067 e3be 73bf 21bd 4de9 fbbe
000002b0: 7040 203e 6c24 a6be 04d4 4abe f761 f2be
000002c0: 6e60 ddbd 208d 05bf 83aa 883e 142a 04bd
000002d0: 5de1 f83d 33e2 bfbe fa7f 203e 15e2 0ebf
000002e0: ce5a 67bd de9a dabe 80a2 00bd bda3 bebd
000002f0: 893b c63c 7535 10bf f45f 95bb c155 14bf
00000300: 7ecd 7a3d 188d 72be 2407 b5bc 1314 f2be
00000310: 11f6 9e3d 86ba 00bf 1100 903e 92bd b6be
00000320: ff2f f63b e63c 40be 9467 cd3c bead 5f3e
00000330: 0262 7cbd e4ee b7be dd4b 31bd 04fd 4fbe
00000340: d2a5 64bd 1709 173f 251e a93d fb38 dabe
00000350: 13b8 293e 5090 9dbe 40f0 63bd 7688 843e
00000360: 5097 9a3e 0940 af3e e0f7 8cbd 2503 ef3d
00000370: 261d 99bd 6fe3 f9be f409 8a3d 0037 123e
00000380: ebca 313e 9efa d9be cfe2 1bbd 917c 9ebe
00000390: 2bc7 3abd c35f b83e 6cb4 79bc 4e08 e1be
000003a0: 7c61 d6bc 98b8 b6be 0f54 d03c b148 14bf
000003b0: 5a66 5c3d 5803 58be cdb2 72be aa0e 0b3f
000003c0: 7270 393d 26f9 233e 4c4a 17be cacc 8dbe
000003d0: 8e13 183e 00c7 a9be efc8 13be 7a86 afbe
000003e0: 8f83 e13d 6a10 683e ca29 543e d601 16bf
000003f0: 3b6e 433e 43d0 1a3e 24f4 61bc d2fb 443e

weight_hh f4 [150, 50]
-0.19755265 0.24276818 -0.06540477 -0.15545437 -0.08751716 0.19837926 0.030774975 0.11539483
0.20767741 0.2461955 -0.17738713 0.254532 0.051074654 -0.074984 0.12090218 -0.027204193
-0.20316868 -0.07013914 -0.16146103 0.04345317 0.11010197 -0.27681914 0.03307552 -0.12905385
0.29329258 0.091655016 0.26659554 0.22803588 -0.15085024 0.15844564 0.033111855 -0.16881603
-0.27702773 0.3037697 0.19127963 -0.14831425 0.12758529 -0.19716477 0.021744737 0.17882541
-0.19864744 -0.06372069 0.078140944 0.106425144 -0.10750089 -0.110978566 0.123368494 -0.036875583
-0.062443554 0.25035536 0.012108462 0.0915249 0.018295249 -0.17235047 -0.15823852 0.2521753
0.0648039 0.2672051 0.23945825 0.088211454 0.0041333023 0.22943878 0.1786756 -0.13526908
0.12993369 0.09336082 -0.048001967 0.18653338 -0.06581554 -0.118688956 0.2148284 -0.18764965
0.11538905 -0.04379018 0.04644833 0.24459077 0.15682554 0.15548529 -0.10861405 0.06580051
0.0174714 -0.089121014 -0.09077076 0.13601597 0.10731131 -0.015010135 0.04134924 -0.19679713
0.0009813856 0.17495982 -0.00015146444 -0.08370712 -0.027332712 0.15721625 0.13338922 -0.1505976
0.004018582 0.015798727 -0.18578616 0.044319704 -0.11221857 0.14862327 -0.34242955 -0.14242549
-0.049756147 0.113586925 0.17419918 0.23443805 0.46175012 0.35766396 -0.11080045 0.29370525
0.044953763 -0.14642876 0.11907484 -0.19090101 -0.23821372 0.0031559723 -0.26668155 0.22419065
0.34441823 -0.27652934 -0.041850444 -0.38101918 0.108855404 0.050177503 0.33815187 0.35529038
-0.14864132 0.3026693 -0.039494704 -0.036977097 -0.27953964 0.22098854 0.08895236 -0.12135456
0.25694755 -0.08239249 -0.055401023 0.124514155 -0.11955958 -0.06526356 0.09386716 0.15869395
-0.012587415 -0.3135066 0.27050897 -0.28123865 -0.33213422 0.30385384 -0.09256028 0.021936184
0.0018667539 -0.00910646 -0.08046198 0.25906083 0.18922232 0.24929856 0.120551236 0.16887611
0.017987335 -0.052491605 0.29131258 -0.17057161 0.24829489 -0.15224883 -0.110203005 0.1221407
-0.22291198 0.068602815 -0.046430733 -0.13210699 -0.11621565 -0.21697472 -0.059160743 0.1463408
0.054010786 -0.01265344 -0.023291582 0.102577046 0.015642509 -0.2099495 -0.22949564 0.16207477
0.063967 -0.2071631 -0.032629363 -0.0151523035 0.11577612 0.2711633 -0.10696137 -0.05944137
0.0018237691 0.1773211 0.03786369 -0.09303199 0.15965208 -0.010876755 -0.044512402 0.1385288
-0.19202329 0.14041677 -0.15193938 -0.040859252 0.11807704 0.016254157 0.025720086 0.18357688
0.26117897 0.2019634 -0.12539597 0.07534863 0.2750945 -0.30688187 0.18932791 -0.35987616
-0.294263 -0.115480155 -0.18048829 0.09122403 0.11938705 -0.16855355 -0.2855395 -0.16743769
0.053336993 0.04265385 0.16371681 0.053137887 -0.11016728 0.10539437 0.29756185 0.2975195
0.007075707 0.07997574 -0.18923296 -0.2826867 0.24894644 0.3041082 -0.1442096 0.33762565
0.10820175 -0.117636725 0.16720492 0.25269952 -0.23570552 -0.13917275 0.22912008 -0.2609345
-0.09527084 0.1115315 -0.34575865 0.3192559 -0.2472773 -0.17214304 0.10806893 -0.19740823
00000000: 3e4b 4abe 3998 783e f0f2 85bd 6e2f 1fbe
00000010: 323c b3bd ef23 4b3e cd1b fc3c 2054 ec3d
00000020: 63a9 543e ac1a 7c3e f9a4 35be 0552 823e
00000030: a833 513d 3691 99bd 909b f73d 54db debc
00000040: 730b 50be 1ca5 8fbd 0a56 25be f4fb 313d
00000050: 247d e13d 3dbb 8dbe 327a 073d b126 04be
00000060: 722a 963e a0b5 bb3d 367f 883e 3d82 693e
00000070: 7c78 1abe 933f 223e 4ca0 073d 1cde 2cbe
00000080: 94d6 8dbe b487 9b3e cfde 433e b1df 17be
00000090: b8a5 023e 90e5 49be 0522 b23c 021e 373e
000000a0: 3c6a 4bbe fe7f 82bd 5c08 a03d 6df5 d93d
000000b0: 6d29 dcbd bb48 e3bd 9fa8 fc3d da0a 17bd
000000c0: d0c4 7fbd 942e 803e 9262 463c 6871 bb3d
000000d0: ebdf 953c a47c 30be 4709 22be 1f1d 813e
000000e0: e8b7 843d 1bcf 883e 8b34 753e 35a8 b43d
000000f0: a770 873b 00f2 6a3e bdf6 363e fa83 0abe
00000100: 560d 053e f533 bf3d b69d 44bd 9b02 3f3e
00000110: 4cca 86bd 3213 f3bd fafb 5b3e 3b27 40be
00000120: 1851 ec3d 555d 33bd 9b40 3e3d 0176 7a3e
00000130: e096 203e 8937 1f3e 0b71 debd 6bc2 863d
00000140: 2e20 8f3c 1485 b6bd 05e6 b9bd c547 0b3e
00000150: 08c6 db3d 12ed 75bc d25d 293d 3085 49be
00000160: d6a1 803a ab28 333e 6dd2 1eb9 a36e abbd
00000170: dae8 dfbc 4cfd 203e 2f97 083e 4236 1abe
00000180: 4fae 833b 556c 813c ba3e 3ebe 9488 353d
00000190: dad2 e5bd b330 183e ed52 afbe fdd7 11be
000001a0: 1acd 4bbd 43a0 e83d 4561 323e 8710 703e
000001b0: 836a ec3e bb1f b73e 59eb e2bd 8960 963e
000001c0: 7021 383d 6cf1 15be 82dd f33d 8e7b 43be
000001d0: 4cee 73be 6ed4 4e3b 7c8a 88be 3c92 653e
000001e0: 9657 b03e 4195 8dbe 5f6b 2bbd f214 c3be
000001f0: 95ef de3d ed86 4d3d 3e22 ad3e 9fe8 b53e
00000200: 6e35 18be 78f7 9a3e 33c5 21bd 4c75 17bd
00000210: d21f 8fbe d24a 623e a82c b63d bd88 f8bd
00000220: a18e 833e 65bd a8bd 2fec 62bd 4701 ff3d
00000230: a7db f4bd e7a8 85bd 6d3d c03d ab80 223e
00000240: 723b 4ebc f083 a0be 2780 8a3e 83fe 8fbe
00000250: 7f0d aabe bb92 9b3e 3e90 bdbd 83b3 b33c
00000260: dead f43a 4333 15bc 40c9 a4bd 9fa3 843e
00000270: 7fc3 413e 1f48 7f3e 91e3 f63d dced 2c3e
00000280: 2d5a 933c 7001 57bd ec26 953e 53aa 2ebe
00000290: 0441 7e3e 1ee7 1bbe 1db2 e1bd e724 fa3d
000002a0: 0a43 64be a27f 8c3d 272e 3ebd 0e47 07be
000002b0: 7902 eebd 9f2e 5ebe 8952 72bd 5dda 153e
000002c0: 6a3a 5d3d 6050 4fbc fdcd bebc ea13 d23d
000002d0: b824 803c 00fd 56be e800 6bbe eef6 253e
000002e0: 2101 833d 9022 54be 5ea6 05bd 5e41 78bc
000002f0: 081c ed3d ebd5 8a3e 900e dbbd cb78 73bd
00000300: 890b ef3a aa93 353e f516 1b3d 8e87 bebd
00000310: d67b 233e 6b34 32bc a352 36bd 7eda 0d3e
00000320: c1a1 44be 6ac9 0f3e ff95 1bbe 085c 27bd
00000330: 60d2 f13d 7027 853c eeb2 d23c 94fb 3b3e
00000340: 40b9 853e 7ecf 4e3e cd67 00be 6250 9a3d
00000350: 30d9 8c3e 9f1f 9dbe 2ddf 413e b041 b8be
00000360: a4a9 96be dc80 ecbd ecd1 38be aad3 ba3d
00000370: 3381 f43d 4d99 2cbe 3c32 92be c974 2bbe
00000380: e477 5a3d ceb5 2e3d 61a5 273e 1da7 593d
00000390: 629f e1bd 01d9 d73d 075a 983e 7a54 983e
000003a0: 55db e73b 52ca a33d 49c6 41be 50bc 90be
000003b0: d1eb 7e3e 12b4 9b3e aeab 13be 45dd ac3e
000003c0: e198 dd3d 86eb f0bd c437 2b3e d561 813e
000003d0: ca5c 71be 4d83 0ebe 749e 6a3e 3599 85be
000003e0: 5c1d c3bd a16a e43d 4707 b1be 8275 a33e
000003f0: 4336 7dbe 4446 30be 3e53 dd3d 6225 4abe

bias_ih f4 [150]
0.18011908 0.11238459 0.23951644 0.024866961 0.16013412 0.33398932 0.07461292 -0.039763384
0.12530869 -0.0847392 0.16908401 0.30338758 0.12146357 0.014288593 0.32826906 0.20969537
-0.06828983 0.21223085 -0.04278416 0.10109176 0.10232552 0.14474013 0.47497648 0.14035976
0.14542547 0.46116966 0.3116678 0.07917467 0.23164162 0.02739622 0.45534366 0.025173515
0.041759554 -0.20481038 0.46833444 0.33515066 0.15664795 0.40062854 0.05847335 0.06912662
0.07289314 0.32782078 0.103186354 0.010840275 0.25707898 0.3124136 0.034424845 0.38044882
0.40049714 0.21197028 -0.31784633 -0.21643846 -0.31559536 -0.22032793 -0.58272594 -0.38223246
-0.3048219 -0.015412441 0.08367445 -0.19368796 -0.52605367 -0.15211958 -0.2936857 -0.1970115
-0.3637604 -0.21458319 -0.112414554 -0.47322583 -0.0061495746 -0.5174111 -0.24801774 -0.426043
-0.38607237 -0.20805651 -0.1621912 -0.6592921 -0.18195222 -0.4312984 -0.5079385 -0.38590032
-0.35038334 -0.46089786 0.0030571688 -0.37971875 -0.4171645 -0.23734412 -0.24990551 -0.4560339
-0.48335105 -0.15088096 -0.4504514 -0.39631543 -0.53219074 -0.059633877 -0.2922603 -0.34533063
-0.27122518 -0.28668556 -0.4779732 -0.38541794 -0.2201309 0.36295715 -0.35677576 -0.31860378
0.35107958 -0.24109854 -0.23838057 0.25873697 0.40765956 0.17512503 -0.17045009 0.24060155
-0.21533008 -0.04991405 0.23736787 -0.18109067 -0.22871163 -0.32051075 -0.15674832 0.39476004
0.2543287 -0.5069576 -0.43966147 -0.54934806 0.17337385 -0.41951236 0.44420436 0.19017573
-0.29027647 0.45513266 0.21549849 0.24045496 -0.24481007 0.44549954 -0.39962262 -0.2605518
0.22374408 0.43113193 -0.39225113 0.21760158 -0.14928599 -0.3190622 0.24428163 0.35095546
-0.2948305 -0.40056467 0.26957533 -0.2940384 -0.34847668 0.16244532
00000000: 2371 383e e429 e63d cc43 753e ccb5 cb3c
00000010: 33fa 233e a600 ab3e a9ce 983d eede 22bd
00000020: ec50 003e bf8b adbd 5c24 2d3e 9e55 9b3e
00000030: e4c1 f83d b41a 6a3c e212 a83e 62ba 563e
00000040: 8adb 8bbd 0b53 593e 713e 2fbd 3209 cf3d
00000050: 0b90 d13d c236 143e 1e30 f33e 78ba 0f3e
00000060: 6aea 143e 6e1e ec3e ec92 9f3e 5426 a23d
00000070: 7633 6d3e 0a6e e03c ce22 e93e b038 ce3c
00000080: 110c 2b3d d0b9 51be 88c9 ef3e de98 ab3e
00000090: 5268 203e 2f1f cd3e c081 6f3d 4292 8d3d
000000a0: 0049 953d 20d8 a73e 5e53 d33d 699b 313c
000000b0: db9f 833e adf4 9f3e 1101 0d3d 30ca c23e
000000c0: f60d cd3e bd0e 593e c1bc a2be 0ba2 5dbe
000000d0: b795 a1be a59d 61be 872d 15bf f9b3 c3be
000000e0: 9e11 9cbe 7784 7cbc 835d ab3d 2356 46be
000000f0: 74ab 06bf 3cc5 1bbe f95d 96be 62bd 49be
00000100: ce3e babe b2bb 5bbe 9a39 e6bd a84a f2be
00000110: 5f82 c9bb 0e75 04bf 5df8 7dbe 4f22 dabe
00000120: 47ab c5be c40c 55be 7315 26be 5ec7 28bf
00000130: af51 3abe 25d3 dcbe 4208 02bf ba94 c5be
00000140: 7265 b3be cefa ebbe c85a 483b 7f6a c2be
00000150: 9696 d5be 560a 73be 3be7 7fbe 467d e9be
00000160: ca79 f7be 8a80 1abe 91a1 e6be dbe9 cabe
00000170: a73d 08bf a742 74bd 24a3 95be 2dcf b0be
00000180: 07de 8abe 73c8 92be e7b8 f4be 8055 c5be
00000190: ff69 61be 85d5 b93e 50ab b6be 0920 a3be
000001a0: b4c0 b33e 89e2 76be 091a 74be 2c79 843e
000001b0: c1b8 d03e fa53 333e 788a 2ebe 4160 763e
000001c0: 7d7f 5cbe ad72 4cbd 9010 733e d56f 39be
000001d0: 6233 6abe fc19 a4be a282 20be fd1d ca3e
000001e0: 5f37 823e f9c7 01bf 4f1b e1be 13a2 0cbf
000001f0: ea88 313e 53ca d6be c16e e33e 6dbd 423e
00000200: 1e9f 94be 2607 e93e a3ab 5c3e d339 763e
00000210: 7eaf 7abe 8418 e43e 569b ccbe 0c67 85be
00000220: 2b1d 653e 53bd dc3e 24d5 c8be f3d2 5e3e
00000230: 6dde 18be 1f5c a3be f724 7a3e 6fb0 b33e
00000240: 06f4 96be d016 cdbe c705 8a3e 338c 96be
00000250: 896b b2be 1158 263e

bias_hh f4 [150]
0.3246394 0.22341123 0.3803615 0.027601104 0.20926845 0.5384467 0.3275873 0.16080377
0.040330734 -0.028197218 0.28860414 0.14497584 0.3071878 0.1759083 0.18397889 -0.011829877
0.15324253 -0.016106583 0.16398992 0.19835278 -0.00023056314 0.28734845 0.27475026 0.048156977
0.2717746 0.40740508 0.32028267 0.026904054 0.19407707 -0.04675832 0.42482617 0.08695872
0.05337207 -0.1436728 0.31197307 0.3694937 0.0654928 0.33994725 0.25070724 0.06499021
0.115968965 0.1860326 0.1639791 0.10192346 0.3747557 0.3061581 0.24450494 0.18133537
0.28824738 0.107912585 -0.3102431 -0.29359305 -0.5444889 -0.32715172 -0.32707933 -0.2113715
-0.12648927 0.025908545 0.05235631 -0.17945355 -0.52800584 -0.21534002 -0.3255979 -0.20112011
-0.5012205 -0.071006 -0.016616024 -0.32404438 -0.152974 -0.54267806 -0.31656936 -0.23828575
-0.4220351 -0.4511384 -0.2156528 -0.5363906 -0.106156245 -0.2615619 -0.42628318 -0.4271008
-0.45400038 -0.470008 -0.007164439 -0.38872612 -0.31604835 -0.35480997 -0.17588353 -0.3062703
-0.5309366 0.087504864 -0.3327618 -0.30815762 -0.30897465 -0.20983157 -0.50695837 -0.4759972
-0.41734377 -0.24031958 -0.4197859 -0.36464846 -0.22439058 0.46973976 -0.29256848 -0.17402494
0.31107348 -0.45491633 -0.2674592 0.38722923 0.39421064 0.2272799 -0.21151975 0.2532065
-0.2793639 0.030264968 0.22998351 -0.1698315 -0.12021415 -0.28647566 -0.29312134 0.26532117
0.16537353 -0.4117468 -0.45687887 -0.4280252 0.13019432 -0.4609343 0.4272906 -0.016803779
-0.39147174 0.26653507 0.5134776 0.22190061 -0.28088048 0.16750479 -0.43263274 -0.37511918
0.2383555 0.46311486 -0.129249 0.23110624 -0.117318586 -0.29311574 0.15113786 0.24175832
-0.3999201 -0.205977 0.25688368 -0.3821655 -0.32878438 0.3078301
00000000: 2337 a63e eac5 643e bebe c23e b61b e23c
00000010: 784a 563e a5d7 093f 86b9 a73e bea9 243e
00000020: d731 253d dafd e6bc ecc3 933e 8c74 143e
00000030: b847 9d3e 4e21 343e f664 3c3e 1ad2 41bc
00000040: 9ceb 1c3e f4f1 83bc f9ec 273e fe1c 4b3e
00000050: 52c3 71b9 561f 933e 11ac 8c3e 4040 453d
00000060: 0a26 8b3e 6697 d03e 17fc a33e e465 dc3c
00000070: 24bc 463e a785 3fbd d182 d93e 6a17 b23d
00000080: ac9c 5a3d f61e 13be efba 9f3e 472e bd3e
00000090: 1721 863d 910d ae3e b35c 803e 9619 853d
000000a0: 2381 ed3d 547f 3e3e 23ea 273e 3fbd d03d
000000b0: fbdf bf3e c1c0 9c3e 815f 7a3e fbaf 393e
000000c0: 2995 933e 4601 dd3d 2fd8 9ebe d451 96be
000000d0: a063 0bbf 6e80 a7be f176 a7be c571 58be
000000e0: 6786 01be 283e d43c 9273 563d acc2 37be
000000f0: 642b 07bf 1882 5cbe c5b4 a6be 6ef2 4dbe
00000100: fd4f 00bf 986b 91bd 541e 88bc 25e9 a5be
00000110: 37a5 1cbe f3ec 0abf 6115 a2be 2e01 74be
00000120: fc14 d8be 9dfb e6be 16d4 5cbe e550 09bf
00000130: 7268 d9bd 71eb 85be ca41 dabe f5ac dabe
00000140: bd72 e8be e3a4 f0be acc3 eabb 1c07 c7be
00000150: 17d1 a1be a7a9 b5be d01a 34be 76cf 9cbe
00000160: 76eb 07bf c035 b33d c15f aabe d6c6 9dbe
00000170: ed31 9ebe 16de 56be 06c8 01bf e8b5 f3be
00000180: 15ae d5be 5616 76be 2dee d6be 34b3 babe
00000190: a5c6 65be bb81 f03e 89cb 95be 9833 32be
000001a0: 0645 9f3e cbea e8be 6af0 88be e942 c63e
000001b0: fad5 c93e 10bc 683e a298 58be 48a4 813e
000001c0: c908 8fbe 3dee f73c cc80 6b3e 4fe8 2dbe
000001d0: d632 f6bd f0ac 92be 0014 96be 2dd8 873e
000001e0: ae57 293e 7ad0 d2be 07ec e9be 1e26 dbbe
000001f0: a951 053e 95ff ebbe d5c5 da3e 14a8 89bc
00000200: fc6e c8be 4977 883e 4573 033f ea39 633e
00000210: 91cf 8fbe 6086 2b3e 0a82 ddbe 9f0f c0be
00000220: 7713 743e 641d ed3e da59 04be 1da7 6c3e
00000230: ba44 f0bd 4413 96be e2c3 1a3e 7e8f 773e
00000240: 54c2 ccbe a2eb 52be 4286 833e 32ab c3be
00000250: 6d56 a8be e89b 9d3e

weight f4 [2, 50]
-0.23813327 0.53035885 -0.29349247 -0.3239912 0.4873157 -0.19679072 -0.30252352 0.21055081
0.14170387 0.2096228 -0.327991 0.5186577 -0.26740485 -0.32340482 0.4360965 -0.2247249
-0.25288168 -0.49876916 -0.29263288 0.4870538 0.5860634 -0.32135627 -0.44527465 -0.34066945
0.40024227 -0.5527447 0.43705186 0.40840814 -0.31606352 0.43324828 0.39078382 0.43460953
-0.21642129 0.15863024 -0.49107668 -0.3081497 0.50891095 0.48133737 -0.46545303 0.14535366
-0.3974292 -0.31132442 0.30329287 0.19415808 -0.45196384 -0.47640273 0.2701577 -0.19299352
-0.28245768 0.37475607 0.43494546 -0.28389594 0.44429988 0.3963874 -0.48415723 0.376232
0.27115807 -0.080600835 -0.08287768 -0.1277797 0.4617375 -0.66211176 0.23754318 0.38764396
-0.3046823 0.2732403 0.22975314 0.40371123 0.113596424 -0.38408408 -0.62333906 0.26452053
0.44513053 0.28888026 -0.39096034 0.3953187 -0.48718116 -0.3061256 0.51420414 -0.19107848
-0.41113025 -0.3593653 0.19420452 -0.27177167 0.38807186 0.3160047 -0.4765151 -0.3349944
0.3908941 -0.06092728 0.41468102 0.4881709 -0.418912 -0.12196876 0.32403123 0.28377822
-0.3251322 0.3802289 0.41745245 -0.26639524
00000000: 35d9 73be 99c5 073f a544 96be 2de2 a5be
00000010: 7281 f93e 8283 49be 5de4 9abe a29a 573e
00000020: d21a 113e 5ca7 563e 70ee a7be c0c6 043f
00000030: 4ae9 88be 5195 a5be 0a48 df3e 491e 66be
00000040: b579 81be ac5e ffbe fad3 95be 1e5f f93e
00000050: 4008 163f cf88 a4be 0afb e3be 3a6c aebe
00000060: 8eec cc3e ad80 0dbf 43c5 df3e df1a d13e
00000070: 14d3 a1be b8d2 dd3e d114 c83e 2485 de3e
00000080: 8b9d 5dbe f76f 223e 676e fbbe ccc5 9dbe
00000090: fd47 023f da71 f63e dc4f eebe 97d7 143e
000000a0: d77b cbbe ea65 9fbe 3449 9b3e 60d1 463e
000000b0: ce67 e7be 0feb f3be 1c52 8a3e 18a0 45be
000000c0: 4b9e 90be 07e0 bf3e 2cb1 de3e cf5a 91be
000000d0: 467b e33e 4af3 ca3e 75e3 f7be 7ba1 c03e
000000e0: 3bd5 8a3e 0d12 a5bd c6bb a9bd afd8 02be
000000f0: dc68 ec3e 2880 29bf 853e 733e 4579 c63e
00000100: 52ff 9bbe 27e6 8b3e 6844 6b3e 3db3 ce3e
00000110: 3ea5 e83d aba6 c4be 2693 1fbf 3c6f 873e
00000120: 26e8 e33e 1de8 933e f42b c8be 3667 ca3e
00000130: cf6f f9be 7fbc 9cbe e2a2 033f 14aa 43be
00000140: aa7f d2be bbfe b7be 8ddd 463e a825 8bbe
00000150: 5bb1 c63e 5ecb a13e caf9 f3be 6384 abbe
00000160: 4523 c83e e28e 79bd 1251 d43e 89f1 f93e
00000170: a27b d6be c2ca f9bd 6ce7 a53e 614b 913e
00000180: ba77 a6be 5dad c23e 54bc d53e f564 88be

bias f4 [2]
0.26865497 -0.12647238
00000000: 258d 893e fa81 01be

weight f4 [2, 50]
0.0024250299 0.13884895 0.04134582 0.023755461 -0.017334156 0.12802024 0.10181208 0.04697968
0.11483075 0.13712148 0.008271575 0.016497225 -0.05032614 -0.105865434 0.024434507 -0.14095704
0.050824955 0.018290877 0.11206482 0.11763583 0.099533975 -0.09524706 0.05151342 0.116855964
-0.011926666 0.055563882 -0.029113844 0.03738913 -0.06387249 0.066197455 0.1242121 -0.02007886
0.07196261 0.05774176 -0.0032286644 -0.10262421 -0.06568511 0.016542643 -0.13298461 -0.13369195
-0.020761676 -0.117338166 -0.08400174 0.10793044 -0.042850435 0.12399115 -0.033130713 0.13635756
0.005304873 0.10067999 -0.082588 -0.103301674 -0.10580522 -0.07591113 -0.09224334 0.05392553
0.018563718 0.02287902 -0.021661557 -0.07436879 -0.13105644 -0.08248338 -0.010932788 0.016851082
-0.10298077 -0.08032669 0.09241505 -0.07263327 -0.020389013 -0.0763226 0.114690796 0.012111515
-0.1070044 0.066367224 -0.057629578 0.13152371 0.1291257 -0.119145945 0.1367441 0.092481926
-0.033470295 -0.13000523 0.06740296 -0.036497332 -0.072680525 -0.07836069 0.11905007 0.07472275
0.019296497 -0.0806998 0.13597237 0.00013418496 -0.0012706965 0.072212145 0.012624368 0.08870581
-0.12396036 0.02699101 0.12956212 -0.009444818
00000000: 40ed 1e3b 6b2e 0e3e 3c5a 293d d09a c23c
00000010: 5c00 8ebc bd17 033e da82 d03d c46d 403d
00000020: 622c eb3d 9369 0c3e 8085 073c 3025 873c
00000030: c822 4ebd facf d8bd e02a c83c 0b57 10be
00000040: d42d 503d c0d6 953c 3e82 e53d 0eeb f03d
00000050: 78d8 cb3d e410 c3bd bcff 523d 2e52 ef3d
00000060: 1068 43bc f496 633d 2880 eebc 5825 193d
00000070: 94cf 82bd 8892 873d ea62 fe3d 6c7c a4bc
00000080: 2261 933d a082 6c3d 0098 53bb a42c d2bd
00000090: ea85 86bd 7084 873c 1e2d 08be 8be6 08be
000000a0: 6414 aabc fe4e f0bd 1b09 acbd a20a dd3d
000000b0: f083 2fbd 12ef fd3d 12b4 07bd 51a1 0b3e
000000c0: 80d4 ad3b 5031 ce3d e623 a9bd d48f d3bd
000000d0: 68b0 d8bd 4b77 9bbd 14ea bcbd 04e1 5c3d
000000e0: f012 983c c86c bb3c 9473 b1bc aa4e 98bd
000000f0: a933 06be 0ced a8bd 701f 33bc 480b 8a3c
00000100: 95e7 d2bd 5282 a4bd 1a44 bd3d c0c0 94bd
00000110: dc06 a7bc 064f 9cbd 02e3 ea3d 606f 463c
00000120: 1f25 dbbd 8aeb 873d fe0c 6cbd 27ae 063e
00000130: 8739 043e ca02 f4bd a506 0c3e 2a67 bd3d
00000140: 2618 09bd 1720 05be 900a 8a3d 3a7e 15bd
00000150: 87d9 94bd 927b a0bd 86d0 f33d 3e08 993d
00000160: b013 9e3c f045 a5bd 573c 0b3e 00b4 0c39
00000170: 808d a6ba f6e3 933d 70d6 4e3c 64ab b53d
00000180: eede fdbd 401c dd3c efab 043e 70be 1abc

bias f4 [2]
0.07472767 -0.004976377
00000000: d20a 993d e010 a3bb

amplitudes f4 [10000, 2]
0.99999815 0.0 0.99999815 0.0 0.99999815 0.0 0.99999815 0.0
0.99999815 0.0 0.99999815 0.0 0.99999815 0.0 0.99999815 0.0
0.99999815 0.0 0.99999815 0.0 0.99999815 0.0 0.99999815 0.0
0.99999815 0.0 0.99999815 0.0 0.99999815 0.0 0.99999815 0.0
0.99999815 0.0 0.99999815 0.0 0.99999815 0.0 0.99999815 0.0
0.99999815 0.0 0.99999815 0.0 0.99999815 0.0 0.99999815 0.0
0.99999815 0.0 0.99999815 0.0 0.99999815 0.0 0.99999815 0.0
0.99999815 0.0 0.99999815 0.0 0.99999815 0.0 0.99999815 0.0
0.99999815 0.0 0.99999815 0.0 0.99999815 0.0 0.99999815 0.0
0.99999815 0.0 0.99999815 0.0 0.99999815 0.0 0.99999815 0.0
0.99999815 0.0 0.99999815 0.0 0.99999815 0.0 0.99999815 0.0
0.99999815 0.0 0.99999815 0.0 0.99999815 0.0 0.99999815 0.0
0.99999815 0.0 0.99999815 0.0 0.99999815 0.0 0.99999815 0.0
0.99999815 0.0 0.99999815 0.0 0.99999815 0.0 0.99999815 0.0
0.99999815 0.0 0.99999815 0.0 0.99999815 0.0 0.99999815 0.0
0.99999815 0.0 0.99999815 0.0 0.99999815 0.0 0.99999815 0.0
0.99999815 0.0 0.99999815 0.0 0.99999815 0.0 0.99999815 0.0
0.99999815 0.0 0.99999815 0.0 0.99999815 0.0 0.99999815 0.0
0.99999815 0.0 0.99999815 0.0 0.99999815 0.0 0.99999815 0.0
0.99999815 0.0 0.99999815 0.0 0.99999815 0.0 0.99999815 0.0
0.99999815 0.0 0.99999815 0.0 0.99999815 0.0 0.99999815 0.0
0.99999815 0.0 0.99999815 0.0 0.99999815 0.0 0.99999815 0.0
0.99999815 0.0 0.99999815 0.0 0.99999815 0.0 0.99999815 0.0
0.99999815 0.0 0.99999815 0.0 0.99999815 0.0 0.99999815 0.0
0.99999815 0.0 0.99999815 0.0 0.99999815 0.0 0.99999815 0.0
0.99999815 0.0 0.99999815 0.0 0.99999815 0.0 0.99999815 0.0
0.99999815 0.0 0.99999815 0.0 0.99999815 0.0 0.99999815 0.0
0.99999815 0.0 0.99999815 0.0 0.99999815 0.0 0.99999815 0.0
0.99999815 0.0 0.99999815 0.0 0.99999815 0.0 0.99999815 0.0
0.99999815 0.0 0.99999815 0.0 0.99999815 0.0 0.99999815 0.0
0.99999815 0.0 0.99999815 0.0 0.99999815 0.0 0.99999815 0.0
0.99999815 0.0 0.99999815 0.0 0.99999815 0.0 0.99999815 0.0
00000000: e1ff 7f3f 0000 0000 e1ff 7f3f 0000 0000
00000010: e1ff 7f3f 0000 0000 e1ff 7f3f 0000 0000
00000020: e1ff 7f3f 0000 0000 e1ff 7f3f 0000 0000
00000030: e1ff 7f3f 0000 0000 e1ff 7f3f 0000 0000
00000040: e1ff 7f3f 0000 0000 e1ff 7f3f 0000 0000
00000050: e1ff 7f3f 0000 0000 e1ff 7f3f 0000 0000
00000060: e1ff 7f3f 0000 0000 e1ff 7f3f 0000 0000
00000070: e1ff 7f3f 0000 0000 e1ff 7f3f 0000 0000
00000080: e1ff 7f3f 0000 0000 e1ff 7f3f 0000 0000
00000090: e1ff 7f3f 0000 0000 e1ff 7f3f 0000 0000
000000a0: e1ff 7f3f 0000 0000 e1ff 7f3f 0000 0000
000000b0: e1ff 7f3f 0000 0000 e1ff 7f3f 0000 0000
000000c0: e1ff 7f3f 0000 0000 e1ff 7f3f 0000 0000
000000d0: e1ff 7f3f 0000 0000 e1ff 7f3f 0000 0000
000000e0: e1ff 7f3f 0000 0000 e1ff 7f3f 0000 0000
000000f0: e1ff 7f3f 0000 0000 e1ff 7f3f 0000 0000
00000100: e1ff 7f3f 0000 0000 e1ff 7f3f 0000 0000
00000110: e1ff 7f3f 0000 0000 e1ff 7f3f 0000 0000
00000120: e1ff 7f3f 0000 0000 e1ff 7f3f 0000 0000
00000130: e1ff 7f3f 0000 0000 e1ff 7f3f 0000 0000
00000140: e1ff 7f3f 0000 0000 e1ff 7f3f 0000 0000
00000150: e1ff 7f3f 0000 0000 e1ff 7f3f 0000 0000
00000160: e1ff 7f3f 0000 0000 e1ff 7f3f 0000 0000
00000170: e1ff 7f3f 0000 0000 e1ff 7f3f 0000 0000
00000180: e1ff 7f3f 0000 0000 e1ff 7f3f 0000 0000
00000190: e1ff 7f3f 0000 0000 e1ff 7f3f 0000 0000
000001a0: e1ff 7f3f 0000 0000 e1ff 7f3f 0000 0000
000001b0: e1ff 7f3f 0000 0000 e1ff 7f3f 0000 0000
000001c0: e1ff 7f3f 0000 0000 e1ff 7f3f 0000 0000
000001d0: e1ff 7f3f 0000 0000 e1ff 7f3f 0000 0000
000001e0: e1ff 7f3f 0000 0000 e1ff 7f3f 0000 0000
000001f0: e1ff 7f3f 0000 0000 e1ff 7f3f 0000 0000
00000200: e1ff 7f3f 0000 0000 e1ff 7f3f 0000 0000
00000210: e1ff 7f3f 0000 0000 e1ff 7f3f 0000 0000
00000220: e1ff 7f3f 0000 0000 e1ff 7f3f 0000 0000
00000230: e1ff 7f3f 0000 0000 e1ff 7f3f 0000 0000
00000240: e1ff 7f3f 0000 0000 e1ff 7f3f 0000 0000
00000250: e1ff 7f3f 0000 0000 e1ff 7f3f 0000 0000
00000260: e1ff 7f3f 0000 0000 e1ff 7f3f 0000 0000
00000270: e1ff 7f3f 0000 0000 e1ff 7f3f 0000 0000
00000280: e1ff 7f3f 0000 0000 e1ff 7f3f 0000 0000
00000290: e1ff 7f3f 0000 0000 e1ff 7f3f 0000 0000
000002a0: e1ff 7f3f 0000 0000 e1ff 7f3f 0000 0000
000002b0: e1ff 7f3f 0000 0000 e1ff 7f3f 0000 0000
000002c0: e1ff 7f3f 0000 0000 e1ff 7f3f 0000 0000
000002d0: e1ff 7f3f 0000 0000 e1ff 7f3f 0000 0000
000002e0: e1ff 7f3f 0000 0000 e1ff 7f3f 0000 0000
000002f0: e1ff 7f3f 0000 0000 e1ff 7f3f 0000 0000
00000300: e1ff 7f3f 0000 0000 e1ff 7f3f 0000 0000
00000310: e1ff 7f3f 0000 0000 e1ff 7f3f 0000 0000
00000320: e1ff 7f3f 0000 0000 e1ff 7f3f 0000 0000
00000330: e1ff 7f3f 0000 0000 e1ff 7f3f 0000 0000
00000340: e1ff 7f3f 0000 0000 e1ff 7f3f 0000 0000
00000350: e1ff 7f3f 0000 0000 e1ff 7f3f 0000 0000
00000360: e1ff 7f3f 0000 0000 e1ff 7f3f 0000 0000
00000370: e1ff 7f3f 0000 0000 e1ff 7f3f 0000 0000
00000380: e1ff 7f3f 0000 0000 e1ff 7f3f 0000 0000
00000390: e1ff 7f3f 0000 0000 e1ff 7f3f 0000 0000
000003a0: e1ff 7f3f 0000 0000 e1ff 7f3f 0000 0000
000003b0: e1ff 7f3f 0000 0000 e1ff 7f3f 0000 0000
000003c0: e1ff 7f3f 0000 0000 e1ff 7f3f 0000 0000
000003d0: e1ff 7f3f 0000 0000 e1ff 7f3f 0000 0000
000003e0: e1ff 7f3f 0000 0000 e1ff 7f3f 0000 0000
000003f0: e1ff 7f3f 0000 0000 e1ff 7f3f 0000 0000
