data/RNN_runs/sweep2_H2/rnn_sto3g_H2_0-7348_eq1_nU50_nL2_lr001_lrsO_ns10000.pt (torch_old, 514327 bytes, 13 tensors)

weight_ih f4 [150, 2]
-0.16638392 0.22541346 -0.16442785 0.27594608 -0.23192748 0.34377348 0.05953668 -0.059972364
-0.18442059 0.2713444 -0.081333764 0.1335365 -0.23563501 0.14301758 -0.15949045 0.19279589
-0.15044425 0.29473555 -0.1639817 0.27663413 -0.02177799 0.2719951 -0.06474456 0.3583235
-0.18368419 0.2849849 -0.1928736 0.14479217 0.023334661 0.12392196 0.008976095 0.2890865
-0.04346629 0.28436056 0.21649806 -0.03379985 -0.23393801 0.18725394 9.481794e-05 0.029826166
-0.13161108 0.16620441 -0.113750525 0.3605274 -0.13089494 0.20801091 -0.13613167 0.2837753
-0.0059206327 0.317797 0.21448536 0.0112887435 0.11410318 0.21297756 -0.13949077 -0.16056249
-0.11904182 0.38792142 0.015213475 0.10567621 -0.10332646 0.11241547 -0.080209 0.09964163
-0.17569092 0.24759743 -0.063969575 -0.094487324 -0.08526524 0.20704049 -0.0041162292 0.26244092
-0.20887996 0.13635169 0.09204332 0.21034962 0.12118949 -0.26252958 -0.09234278 0.33868968
0.20295225 -0.027271448 -0.008700119 0.2517969 -0.18957113 0.1749774 0.011805092 0.27129894
0.15482254 0.13007645 -0.20824462 0.34589693 -0.07108218 0.3308443 0.039764114 -0.020869067
0.027674582 0.31396762 0.0473428 0.18711631 0.18831697 -0.32220572 0.09819169 -0.2908889
0.06452073 -0.25661185 -0.04487269 -0.0862362 0.15626222 -0.21247546 0.09363682 -0.31036282
0.1275995 -0.22785556 0.07248936 -0.2082628 -0.059938695 -0.13404632 0.12992252 -0.07852819
-0.033819117 -0.18060637 0.24905705 -0.26329747 0.09305875 -0.29534507 0.18205228 -0.18110226
0.03968545 -0.11741012 0.035001528 -0.17569225 -0.010335093 -0.32805046 -0.15082814 -0.36774132
0.08619531 -0.22432904 -0.08058563 -0.18754348 0.10078639 -0.26149583 0.1258784 -0.0950997
0.14303917 -0.29526088 -0.023636239 -0.19297567 0.012269666 -0.30956292 -0.26948696 -0.24602178
-0.16960622 -0.15747087 0.122640535 -0.11695988 -0.22973308 -0.24122238 -0.16278124 -0.1544501
0.11470341 -0.090611465 -0.1519869 -0.05507855 0.23856956 -0.10841079 0.04572652 -0.11810434
0.02735226 -0.11591593 -0.0018318895 -0.3213057 0.08885539 -0.2231312 -0.16827275 -0.31805563
-0.14197557 -0.2709677 0.16505398 -0.19009402 -0.19082464 -0.17494039 -0.053737268 -0.35678607
-0.016207889 -0.24738352 -0.17976348 -0.10318753 -0.08180539 -0.34004763 -0.16813155 -0.36612678
0.021298548 -0.11982151 -0.21738268 -0.27012298 0.12927747 -0.30278894 0.17188494 -0.17280568
0.06964493 -0.18132238 -0.04526735 0.116429575 -0.01681683 -0.19267616 0.16177656 -0.19684085
0.057904057 -0.08334635 -0.1563771 0.19747922 0.18346955 -0.2907265 -0.0663047 0.1598081
0.030050253 0.03625827 -0.123087704 0.19694266 0.0021081944 -0.30152953 -0.04044922 0.13965735
0.21164627 -0.34934235 0.041660476 -0.30524284 0.16954787 -0.19842212 -0.1397853 0.17311661
-0.22965948 0.24441485 0.11721747 -0.3223294 0.16874462 -0.2037221 -0.23220298 0.18050672
-0.025535129 0.16196176 -0.0035984607 -0.18900429 -0.02181307 0.31471172 0.02552201 -0.24442844
-0.016828043 0.25115198 0.25532252 -0.2866532 0.2860994 -0.35506368 -0.117243096 0.20175932
00000000: 8c60 2abe c9d2 663e c65f 28be ce48 8d3e
00000010: 667e 6dbe 1403 b03e bcdc 733d 95a5 75bd
00000020: c0d8 3cbe a7ed 8a3e 5192 a6bd cbbd 083e
00000030: 4e4a 71be 3373 123e 7751 23be 496c 453e
00000040: 0f0e 1abe 94e7 963e d2ea 27be fda2 8d3e
00000050: c167 b2bc f142 8b3e cc98 84bd 2e76 b73e
00000060: b517 3cbe 8ae9 913e a880 45be 6644 143e
00000070: 5528 bf3c ccca fd3d 7910 133c 2503 943e
00000080: b509 32bd b597 913e abb1 5d3e b671 0abd
00000090: 728d 6fbe 7fbf 3f3e fed8 c638 0156 f43c
000000a0: 0ec5 06be 7d31 2a3e 09f6 e8bd 0c97 b83e
000000b0: 5309 06be d000 553e 1a66 0bbe ff4a 913e
000000c0: de01 c2bb 4ab6 a23e 0da2 5b3e 6cf4 383c
000000d0: eeae e93d ca16 5a3e abd6 0ebe 7e6a 24be
000000e0: 33cc f3bd a39d c63e f041 793c c56c d83d
000000f0: d39c d3bd 153a e63d 9e44 a4bd e910 cc3d
00000100: 52e8 33be 2e8a 7d3e 7b02 83bd 9282 c1bd
00000110: 8b9f aebd 6c02 543e 6fe1 86bb a85e 863e
00000120: a1e4 55be c79f 0b3e 3581 bc3d e465 573e
00000130: 3232 f83d 476a 86be 361e bdbd bc68 ad3e
00000140: b7d2 4f3e 5f68 dfbc f28a 0ebc 86eb 803e
00000150: ef1e 42be 472d 333e 256a 413c b2e7 8a3e
00000160: cd89 1e3e c332 053e 143e 55be 6719 b13e
00000170: 8993 91bd 6d64 a93e b2df 223d 9bf5 aabc
00000180: ceb5 e23c 5dc0 a03e 86ea 413d 6b9b 3f3e
00000190: 2ad6 403e 26f8 a4be ba18 c93d 64ef 94be
000001a0: 7223 843d a162 83be 6dcc 37bd 9b9c b0bd
000001b0: 3403 203e 2b93 59be a9c4 bf3d e0e7 9ebe
000001c0: 71a9 023e f852 69be 4d75 943d d842 55be
000001d0: 4782 75bd 7043 09be 690a 053e 63d3 a0bd
000001e0: ea85 0abd e0f0 38be d008 7f3e edce 86be
000001f0: 9695 be3d 7837 97be ea6b 3a3e df72 39be
00000200: 368d 223d b874 f0bd c35d 0f3d abe8 33be
00000210: 8654 29bc 3bf6 a7be b172 1abe 9748 bcbe
00000220: 2b87 b03d 83b6 65be 140a a5bd 660b 40be
00000230: 1869 ce3d c8e2 85be 44e6 003e a2c3 c2bd
00000240: dc78 123e 6f2c 97be c9a0 c1bc 6a9b 45be
00000250: b606 493c 087f 9ebe 32fa 89be 22ed 7bbe
00000260: 41ad 2dbe 0b40 21be f62a fb3d a988 efbd
00000270: 263f 6bbe 0003 77be 20b0 26be 2b28 1ebe
00000280: 9fe9 ea3d 8192 b9bd 74a2 1bbe 0c9a 61bd
00000290: 944b 743e 7a06 debd bb4b 3b3d b0e0 f1bd
000002a0: d911 e03c 5565 edbd 031c f0ba 2e82 a4be
000002b0: d1f9 b53d 817c 64be b14f 2cbe 30d8 a2be
000002c0: 0b62 11be 47bc 8abe e903 293e 02a8 42be
000002d0: 8967 43be 9323 33be 9c1b 5cbd aaac b6be
000002e0: 68c6 84bc 1b52 7dbe eb13 38be fc53 d3bd
000002f0: 9689 a7bd b91a aebe ad2a 2cbe f874 bbbe
00000300: 4b7a ae3c fb64 f5bd 9199 5ebe 8f4d 8abe
00000310: 5061 043e 2707 9bbe 9b02 303e f9f3 30be
00000320: 00a2 8e3d 93ac 39be 426a 39bd a172 ee3d
00000330: 73c3 89bc e64c 45be c1a8 253e a690 49be
00000340: ce2c 6d3d 7eb1 aabd 5221 20be fe37 4a3e
00000350: 71df 3b3e 1bda 94be c2ca 87bd bca4 233e
00000360: f32b f63c 8d83 143d 6815 fcbd 56ab 493e
00000370: a229 0a3b 1462 9abe 15ae 25bd 5602 0f3e
00000380: cdb9 583e 00dd b2be 2da4 2a3d ca48 9cbe
00000390: f59d 2d3e 2b2f 4bbe e123 0fbe 7b45 313e
000003a0: db2b 6bbe e347 7a3e b70f f03d 5c08 a5be
000003b0: 64cb 2c3e 879c 50be 9ec6 6dbe c1d6 383e
000003c0: 0c2f d1bc 4ed9 253e 27d4 6bbb 578a 41be
000003d0: 53b1 b2bc e521 a13e 8913 d13c 734b 7abe
000003e0: f7da 89bc fe96 803e a2b9 823e 35c4 92be
000003f0: 9f7b 923e e8ca b5be 261d f0bd ff99 4e3e

weight_hh f4 [150, 50]
-0.10761427 0.2186405 0.0066882353 0.066381596 -0.18927726 0.14400874 -0.109949924 0.028375773
0.12250021 0.17062177 -0.12865898 0.1907265 -0.18033643 -0.017102554 -0.17695798 0.13565269
0.01944503 0.09734513 -0.06116872 -0.20954688 0.03792739 -0.18326634 0.25928912 0.0019357943
0.19833677 0.07930264 0.13839316 0.15549763 -0.033510376 0.08128527 -0.10326542 -0.22306994
-0.21517095 0.24062932 0.1565517 0.11404731 0.03862885 -0.092692524 0.047882296 -0.02398784
0.052345783 0.019773211 0.025017796 0.067567386 -0.23648237 -0.02769434 -0.16279812 -0.07695849
0.026302615 0.1355764 -0.028534839 0.13601577 -0.030979041 -0.19810073 -0.18584675 0.24639888
-0.22016735 0.269541 0.20191897 0.14650762 -0.039366405 0.26674864 -0.20553021 -0.15541613
-0.14242803 0.2661813 0.22396798 0.07183485 -0.07512667 -0.27336767 0.25370362 -0.19751294
0.28415835 -0.058652375 0.070409164 0.05121537 -0.09191074 0.19739814 -0.2454733 0.15880068
-0.08842525 -0.08483467 -0.09771188 0.1837454 0.017847717 0.24614005 0.051129162 -0.2226877
-0.14339404 -0.099037394 -0.01735055 -0.16040248 0.07148543 0.16323318 0.14931722 -0.22326136
-0.27786338 0.06610919 -0.24120893 0.06573372 0.009887627 0.058045924 -0.230525 0.058100656
-0.20586658 0.11603687 0.037219133 0.07403492 0.2973527 0.22047856 -0.019817533 0.1730385
-0.16748704 -0.05203802 -0.21461728 0.026367038 0.029501518 0.15676332 -0.1032078 -0.067230664
0.2177546 -0.11552619 0.22915463 -0.20179245 -0.021408848 0.07031187 0.05990127 0.24812843
-0.06733712 0.178494 -0.2292742 -0.14002381 -0.14703518 0.082430676 0.08750602 0.18019517
0.11459138 -0.09918376 0.0018444686 -0.20073855 0.08368421 0.0400395 0.012620574 0.045523677
9.108769e-05 -0.20345312 -0.052902773 -0.26761562 -0.21345797 0.1379905 -0.14296076 -0.11203758
-0.050232347 -0.080476336 -0.070698574 0.19859044 -0.1609323 0.22320664 -0.22657597 0.2345735
0.04034627 -0.035676815 -0.11365604 -0.13570248 0.04359968 0.10062455 0.1920105 0.01019561
-0.20032816 0.16416016 -0.024859859 -0.13819727 -0.013218373 -0.24557665 -0.02889146 -0.25425324
-0.23016329 0.022210699 -0.17427814 0.18930069 -0.11847296 -0.24817814 -0.13239244 0.20231959
-0.15528429 0.026384281 -0.031223653 -0.03839819 -0.015364501 -0.0997829 -0.19441031 -0.14068295
0.11683778 -0.016397094 0.13997719 -0.17458284 -0.08993695 0.10930685 -0.108461715 0.18214215
-0.18209116 0.16734207 -0.1332667 -0.04336037 -0.23824304 0.021861231 -0.24134801 0.20503268
0.27207416 0.26965728 -0.09307888 0.11493419 -0.101762176 -0.2953016 -0.12440417 0.083098955
0.11350331 0.08755114 -0.19290164 -0.2560412 0.1488305 -0.17970046 0.091505475 -0.16884016
0.0525093 0.26113302 -0.069044255 0.0640413 0.0036182494 0.15327048 -0.0619744 -0.03959826
-0.015704148 0.10658462 0.15847373 0.05310443 0.27248758 -0.06893068 -0.14733897 -0.08483914
0.07097887 -0.062263355 0.19224171 0.30751225 0.06849399 -0.122813456 -0.100743786 -0.19165243
-0.07716137 0.12473733 -0.13860169 0.17342053 -0.012472407 0.027032394 -0.2830145 0.26652542
00000000: df64 dcbd 4ce3 5f3e fc28 db3b 13f3 873d
00000010: e6d1 41be 0777 133e 6d2d e1bd 4f74 e83c
00000020: 64e1 fa3d 79b7 2e3e 2ebf 03be cf4d 433e
00000030: 1daa 38be a81a 8cbc 7934 35be 8ae8 0a3e
00000040: 2f4b 9f3c e25c c73d 0d8c 7abd 7593 56be
00000050: c059 1b3d 2caa 3bbe 8bc1 843e 7aba fd3a
00000060: cb18 4b3e 6c69 a23d f0b6 0d3e c53a 1f3e
00000070: 2d42 09bd e478 a63d d27c d3bd 726c 64be
00000080: c655 5cbe 8867 763e 174f 203e a391 e93d
00000090: 4939 1e3d 94d5 bdbd 3a20 443d 2682 c4bc
000000a0: 8868 563d 6efb a13c 1ff2 cc3c c560 8a3d
000000b0: 6f28 72be 3edf e2bc 8db4 26be 6a9c 9dbd
000000c0: 9578 d73c 8ad4 0a3e e5c1 e9bc b847 0b3e
000000d0: c2c7 fdbc ebda 4abe 9c4e 3ebe fd4f 7c3e
000000e0: 8d73 61be 4701 8a3e d9c3 4e3e 1806 163e
000000f0: ab3e 21bd 4793 883e 8376 52be 6825 1fbe
00000100: a7d8 11be ea48 883e dd57 653e 261e 933d
00000110: 03dc 99bd d9f6 8bbe 71e5 813e d540 4abe
00000120: 347d 913e 793d 70bd ae32 903d 35c7 513d
00000130: b33b bcbd bd22 4a3e 5a5d 7bbe a59c 223e
00000140: 4c18 b5bd cdbd adbd 2b1d c8bd c127 3c3e
00000150: 6035 923c 230c 7c3e d06c 513d 3f08 64be
00000160: e3d5 12be 1ed4 cabd be22 8ebc 8c40 24be
00000170: f466 923d 9926 273e 9de6 183e a09e 64be
00000180: 1c44 8ebe 4164 873d 79ff 76be 679f 863d
00000190: b7ff 213c 90c1 6d3d bf0e 6cbe f4fa 6d3d
000001a0: b0ce 52be bda4 ed3d 1773 183d 9f9f 973d
000001b0: 9d3e 983e 22c5 613e 6158 a2bc 0131 313e
000001c0: b981 2bbe d225 55bd a2c4 5bbe b0ff d73c
000001d0: 2bad f13c 9086 203e 9c5e d3bd 3bb0 89bd
000001e0: 10fb 5e3e ff98 ecbd 83a7 6a3e aea2 4ebe
000001f0: 9c61 afbc abff 8f3d 095b 753d 6115 7e3e
00000200: 0be8 89bd 22c7 363e dbc6 6abe 6762 0fbe
00000210: 6490 16be 6ad1 a83d 5b36 b33d 1585 383e
00000220: e3ae ea3d db20 cbbd 19c2 f13a 688e 4dbe
00000230: a162 ab3d 7500 243d 86c6 4e3c 0977 3a3d
00000240: 5506 bf38 0456 50be 94b0 58bd ea04 89be
00000250: ba94 5abe 624d 0d3e 4e64 12be f573 e5bd
00000260: 6fc0 4dbd c7d0 a4bd 6aca 90bd 4b5b 4b3e
00000270: 70cb 24be 4890 643e 8803 68be 0934 703e
00000280: 2142 253d da21 12bd 7fc4 e8bd 97f5 0abe
00000290: 9495 323d 3e14 ce3d 679e 443e 7d0b 273c
000002a0: d322 4dbe 9a19 283e e7a6 cbbc 9683 0dbe
000002b0: e091 58bc 7278 7bbe c8ad ecbc 7b2d 82be
000002c0: edaf 6bbe 36f3 b53c f875 32be 0ad8 413e
000002d0: f4a1 f2bd 6922 7ebe e291 07be de2c 4f3e
000002e0: d802 1fbe d923 d83c bfc8 ffbc 6c47 1dbd
000002f0: 63bb 7bbc fa5a ccbd 7f13 47be 310f 10be
00000300: a548 ef3d 3353 86bc 2e56 0f3e d8c5 32be
00000310: dd30 b8bd 45dc df3d 2d21 debd 7983 3a3e
00000320: 1b76 3abe b85b 2b3e 1177 08be a59a 31bd
00000330: fcf5 73be 5316 b33c ef23 77be 16f4 513e
00000340: 4e4d 8b3e 8510 8a3e 24a0 bebd 9e62 eb3d
00000350: b068 d0bd c531 97be 9dc7 febd c92f aa3d
00000360: 6c74 e83d 034e b33d 0288 45be d517 83be
00000370: 0667 183e 6603 38be 3967 bb3d 6fe4 2cbe
00000380: fe13 573d 3ab3 853e 1367 8dbd 1628 833d
00000390: 2720 6d3b f0f2 1c3e ded8 7dbd c931 22bd
000003a0: fca5 80bc 0a49 da3d f046 223e 0884 593d
000003b0: 7e83 8b3e 872b 8dbd 07e0 16be 25c0 adbd
000003c0: 5f5d 913d dc07 7fbd 03db 443e 3f72 9d3e
000003d0: 9446 8c3d 9f85 fbbd c252 cebd 8940 44be
000003e0: c806 9ebd 4976 ff3d 9aed 0dbe 2795 313e
000003f0: 1159 4cbc 0a73 dd3c 47e7 90be 0576 883e

bias_ih f4 [150]
0.05621226 0.07196224 0.073187485 0.14312808 0.19433285 -0.014371653 -0.015192438 0.0731876
0.18264055 0.07153753 -0.006174302 0.26722807 0.0025066484 -0.09380548 0.16516457 0.27158847
0.00086301524 0.19030325 0.030012328 0.058839396 0.12253217 0.08864356 0.1760187 0.09225504
0.06923443 0.089620076 0.1750038 -0.012311226 0.1161905 0.15718816 -0.03508028 0.09790199
0.1438404 -0.12850145 0.24527273 -0.0018313563 0.14738913 0.14322819 -0.15935153 0.115206294
0.03617645 0.16744465 0.039922386 0.118947156 0.12200817 0.13233839 0.021788469 0.16794676
0.2499621 0.1916908 -0.098288536 -0.11564122 -0.058863927 -0.1483563 -0.26475844 -0.30743727
-0.25869125 -0.13268548 0.034376938 -0.114849366 -0.28834733 -0.033984788 -0.2387363 -0.08222549
-0.18620843 -0.20239608 -0.18422487 -0.2484337 -0.14652337 -0.22581576 -0.17481369 -0.25334686
-0.092480995 -0.03178722 -0.023844002 -0.35838115 -0.2747501 -0.27808174 -0.332998 -0.18382484
-0.11653042 -0.19490042 -0.08326501 -0.08985929 -0.21352573 -0.1344431 -0.18592785 -0.33072582
-0.23065114 -0.31067592 -0.31168765 -0.25107798 -0.29246727 -0.14875317 -0.14720663 -0.13272665
-0.19936056 -0.24341998 -0.26088792 -0.26135716 -0.2456114 0.08280012 -0.25598258 -0.25594953
-0.18810025 0.2660714 -0.202585 0.14047307 0.06267251 0.26439625 -0.035708565 0.25122726
-0.1291596 -0.067258835 -0.1383175 0.26861793 0.19020101 -0.08575701 -0.10389027 0.11620838
0.2530603 -0.17698728 0.03961281 -0.16927513 0.22475441 -0.06047872 -0.11183087 0.22707543
-0.052295875 0.06740513 -0.2927109 -0.23682894 -0.18139122 0.24085544 -0.13858898 0.16844848
0.23981468 -0.11995357 -0.24842784 -0.21122281 -0.14680435 -0.13195318 0.2215447 -0.047723886
0.2389069 -0.2670225 -0.13462146 0.10855911 -0.25933653 0.15601997
00000000: d43e 663d f060 933d 52e3 953d 2b90 123e
00000010: 31ff 463e 1577 6bbc b4e9 78bc 61e3 953d
00000020: 2006 3b3e 4582 923d cd51 cabb 1ed2 883e
00000030: 9546 243b 161d c0bd e720 293e a50d 8b3e
00000040: f93b 623a dbde 423e 6adc f53c 9401 713d
00000050: 25f2 fa3d c18a b53d 3f3e 343e 36f0 bc3d
00000060: c8ca 8d3d bb8a b73d 3234 333e 06b5 49bc
00000070: 49f5 ed3d eff5 203e 57b0 0fbd d780 c83d
00000080: e64a 133e e295 03be c628 7b3e 1f0a f0ba
00000090: 2ded 163e 69aa 123e 0c2d 23be 47f1 eb3d
000000a0: c22d 143d 9c76 2b3e a885 233d 919a f33d
000000b0: 6bdf f93d b783 073e bb7d b23c 3cfa 2b3e
000000c0: 11f6 7f3e 984a 443e 804b c9bd 4ed5 ecbd
000000d0: 4d1b 71bd b7ea 17be 6b8e 87be 6b68 9dbe
000000e0: 2e73 84be b4de 07be d5ce 0c3d 2536 ebbd
000000f0: 43a2 93be a233 0bbd 4a77 74be d665 a8bd
00000100: 6cad 3ebe eb40 4fbe 72a5 3cbe 6765 7ebe
00000110: 390a 16be 3f3c 67be 5c02 33be aeb6 81be
00000120: ad66 bdbd 5133 02bd 7f54 c3bc bc7d b7be
00000130: 0cac 8cbe bb60 8ebe b77e aabe 943c 3cbe
00000140: 80a7 eebd fa93 47be d886 aabd 2608 b8bd
00000150: 7da6 5abe 74ab 09be df63 3ebe e554 a9be
00000160: d02f 6cbe ea10 9fbe 8695 9fbe 4b8d 80be
00000170: 45be 95be c052 18be 56bd 16be 7fe9 07be
00000180: 2d25 4cbe 1643 79be 1a93 85be 9bd0 85be
00000190: 8e81 7bbe 1c93 a93d 2610 83be d10b 83be
000001a0: 5a9d 40be 833a 883e 7172 4fbe 2cd8 0f3e
000001b0: 725a 803d f25e 873e 2543 12bd dca0 803e
000001c0: 6a42 04be 00bf 89bd 1aa3 0dbe 4a88 893e
000001d0: 0ec4 423e 5fa1 afbd 6cc4 d4bd a9fe ed3d
000001e0: 1f91 813e 273c 35be 0b41 223d 7656 2dbe
000001f0: 0526 663e 89b8 77bd 9507 e5bd 7686 683e
00000200: 3334 56bd b30b 8a3d 34de 95be 4983 72be
00000210: 9fbe 39be cfa2 763e 45ea 0dbe c27d 2c3e
00000220: fb91 753e 38aa f5bd de63 7ebe cb4a 58be
00000230: e153 16be bc1e 07be 9ddc 623e 1f7a 43bd
00000240: 03a4 743e 2cb7 88be 35da 09be 3d54 de3d
00000250: c2c7 84be b3c3 1f3e

bias_hh f4 [150]
0.20073393 0.18298809 0.2140324 0.14586224 0.2434672 0.19008526 0.23778148 0.27375546
0.09766301 0.12807937 0.113345176 0.10881809 0.18823095 0.06781419 0.020873116 0.05006236
0.22239527 -0.038034096 0.2367864 0.15610048 0.019975977 0.23125187 -0.024207896 5.3229956e-05
0.19558416 0.035855416 0.1836187 -0.06458174 0.078626044 0.0830335 -0.06559757 0.1596868
0.15545289 -0.06736388 0.08891081 0.032511577 0.05623329 0.08254681 0.032882985 0.11106988
0.079252355 0.025655426 0.10071456 0.21003026 0.23968545 0.12608308 0.23186816 -0.031165738
0.13771228 0.08763198 -0.090685286 -0.19279574 -0.28775495 -0.25518006 -0.009110223 -0.13657638
-0.08035865 -0.09136464 0.003058983 -0.10061505 -0.29029962 -0.09720531 -0.27064854 -0.08633406
-0.32366884 -0.058818486 -0.08842623 -0.09925236 -0.29334736 -0.25108257 -0.24336621 -0.0655895
-0.12844357 -0.27487057 -0.07730532 -0.23547915 -0.19895314 -0.108345255 -0.25134352 -0.22502528
-0.22014727 -0.2040106 -0.093486644 -0.09886666 -0.112409666 -0.25190976 -0.11190596 -0.18096223
-0.2782383 -0.07229069 -0.19399834 -0.16292018 -0.069251664 -0.29894972 -0.36190623 -0.26339242
-0.34547967 -0.19705382 -0.20270069 -0.2405875 -0.25054023 0.2430563 -0.1987473 -0.05378111
-0.23674121 0.057814866 -0.25455555 0.27407846 0.10771674 0.16859709 -0.092177734 0.2390086
-0.21613269 -0.0014123578 -0.11154639 0.26305065 0.2682852 -0.04376206 -0.22443898 -0.015932553
0.15773483 -0.23237485 0.04220365 -0.15610453 0.18048228 -0.06339841 -0.052715033 0.024188083
-0.17383905 0.10040054 -0.01745469 -0.23533788 -0.17094572 0.020911125 -0.16648264 0.039960295
0.20189983 -0.08457479 -0.011940797 -0.1968434 -0.0881179 -0.114560425 0.19196668 -0.060359806
0.12674299 -0.088182844 -0.21533073 0.021687826 -0.25013965 0.23003452
00000000: 328d 4d3e 3b61 3b3e 4f2b 5b3e e95c 153e
00000010: 774f 793e b6a5 423e fd7c 733e ad29 8c3e
00000020: 8b03 c83d 3d27 033e 8421 e83d 05dc de3d
00000030: 9dbf 403e 2be2 8a3d 19fe aa3c 300e 4d3d
00000040: 96bb 633e a4c9 1bbd 2278 723e ced8 1f3e
00000050: a9a4 a33c 4acd 6c3e a34f c6bc 3b43 5f38
00000060: 3747 483e 21dd 123d 8a06 3c3e 6e43 84bd
00000070: b106 a13d 780d aa3d 0558 86bd f084 233e
00000080: 0b2f 1f3e 13f6 89bd df16 b63d dc2a 053d
00000090: e154 663d 4d0e a93d 4fb0 063d 9b78 e33d
000000a0: 0f4f a23d 542b d23c 6f43 ce3d 2c12 573e
000000b0: 1a70 753e ec1b 013e d96e 6d3e 4a4f ffbc
000000c0: 7304 0d3e 6578 b33d 35b9 b9bd 3f6c 45be
000000d0: 9e54 93be f6a6 82be 0b43 15bc aeda 0bbe
000000e0: 1393 a4bd 621d bbbd 3879 483b 430f cebd
000000f0: 27a2 94be 9413 c7bd 7292 8abe e9cf b0bd
00000100: ecb7 a5be a7eb 70bd d018 b5bd d244 cbbd
00000110: a031 96be e58d 80be fe34 79be ca53 86bd
00000120: b686 03be d6bb 8cbe 4052 9ebd 7221 71be
00000130: 5fba 4bbe 1ee4 ddbd 19b0 80be 076d 66be
00000140: 496e 61be 28e8 50be ed75 bfbd 9a7a cabd
00000150: 0a37 e6bd 51fa 80be f42e e5bd 2a4e 39be
00000160: 4075 8ebe 240d 94bd 80a7 46be 8cd4 26be
00000170: d1d3 8dbd f00f 99be c64b b9be 5fdb 86be
00000180: b6e2 b0be 7ac8 49be c590 4fbe 925c 76be
00000190: cf46 80be c0e3 783e 6a84 4bbe 9549 5cbd
000001a0: 4a6c 72be 48cf 6c3d 1b55 82be 0354 8c3e
000001b0: 989a dc3d b7a4 2c3e aec7 bcbd acbe 743e
000001c0: e351 5dbe dd1e b9ba 6f72 e4bd 93ae 863e
000001d0: ae5c 893e d93f 33bd 55d3 65be fc84 82bc
000001e0: 3d85 213e acf3 6dbe bcdd 2c3d ded9 1fbe
000001f0: 59d0 383e 07d7 81bd b8eb 57bd 1626 c63c
00000200: dd02 32be cc9e cd3d 23fd 8ebc 6afc 70be
00000210: 650c 2fbe cf4d ab3c 6d7a 2abe 68ad 233d
00000220: d4be 4e3e 8c35 adbd 55a3 43bc 5191 49be
00000230: 2877 b4bd a89e eabd ea92 443e d83b 77bd
00000240: eac8 013e 3599 b4bd a97f 5cbe abaa b13c
00000250: 4e12 80be 2b8e 6b3e

weight_ih f4 [150, 50]
0.018984597 0.1745708 0.016030375 -0.17789362 0.07884434 0.18931034 -0.083981216 0.08912181
0.078239724 0.08973523 -0.12735748 0.003115604 -0.14249037 -0.20039633 -0.05580236 -0.0095145125
0.04903745 -0.28412053 -0.28410766 0.18781282 0.008080982 -0.13006595 0.049099598 -0.1361975
0.13530403 -0.28157353 -0.12362822 0.18988869 -0.14258245 0.27395916 0.074168965 0.20513976
-0.1315522 0.0042241313 -0.16179188 0.18189885 0.13091625 -0.05959708 -0.13047293 0.04645521
-0.2621242 -0.16752492 0.03348104 -0.017806847 0.078315414 -0.27984047 -0.20603654 0.23125792
-0.0068004876 0.11270734 0.07499927 0.15089464 0.10436043 -0.08713507 -0.12914369 0.24759091
-0.18986362 0.11412741 -0.014884321 0.14818427 0.0011399856 -0.0842775 -0.21569031 -0.026465513
-0.14856337 0.18234515 0.21353799 -0.122632466 -0.21299544 0.08848779 0.014679414 0.017732235
0.18793806 -0.0029161293 -0.03014796 -0.22117746 -0.3648803 0.10904199 -0.07944085 0.26414147
-0.14347927 -0.01871999 -0.062304437 0.037868906 -0.07268301 0.14726791 0.014342466 -0.17317165
-0.1436513 -0.1062962 -0.15391393 -0.08366706 0.06182797 -0.040993825 0.20280448 -0.22758304
-0.2036351 0.19941436 0.041077793 0.026792204 -0.028400324 0.15759164 0.006293393 0.012125703
0.028347503 0.12863588 -0.11321842 0.1457446 0.10365449 0.10535544 0.006789229 0.14760575
-0.13057466 -0.09922203 -0.19203703 -0.06264739 0.13846864 -0.26370925 -0.07884746 0.09421448
0.12649475 0.10385811 0.18752594 -0.11642108 0.08186956 -0.036862224 -0.19228314 0.12860599
-0.19886583 0.16078722 -0.074801624 0.12611212 0.07044183 0.04363739 0.0135896355 0.1916234
0.0373683 -0.2553056 -0.14313826 -0.030253656 -0.3356712 -0.32499373 0.060262762 -0.1812946
0.09414889 -0.023172926 -0.19434583 0.2241647 -0.063499704 0.1290526 -0.07330994 0.16407174
-0.1337043 -0.26452646 -0.1653322 0.047950834 -0.20986171 0.12211594 0.036815688 0.11870064
-0.1436415 -0.014677489 -0.27756327 -0.22047791 -0.16328624 0.103154615 0.028199373 -0.24128947
-0.053977955 0.012828489 0.04238937 -0.13838637 0.23564926 -0.06278803 -0.030094225 -0.11935253
-0.29103196 0.23782875 -0.07760034 0.017845538 0.07813184 0.116146006 -0.13034098 -0.035298232
0.020926692 0.109990366 0.009568594 -0.24702229 0.012606892 -0.016206898 -0.1927197 -0.27424094
0.24543792 -0.06458408 0.21275061 -0.06917539 -0.14581849 0.20591676 -0.20314334 0.08440712
0.016460465 0.08995028 -0.012731999 -0.184589 -0.23040602 0.020572238 -0.22844832 0.030258147
0.10731647 0.051837113 -0.27350646 0.036839887 -0.08267508 -0.25941598 -0.15748036 0.113523774
0.21225102 -0.3024815 -0.29526064 -0.0149344895 0.12338278 -0.13398024 0.14296961 -0.0077342726
0.11113586 -0.28978202 -0.1895219 0.25644335 -0.24852316 0.16548578 -0.12295281 0.13448253
-0.14045358 0.25219584 -0.2087107 0.2445745 -0.0028998049 -0.14081499 -0.11438146 -0.26540402
-0.15554844 -0.12135292 0.11641489 -0.13233659 0.20484802 -0.17348571 -0.32245836 0.17839542
-0.1330477 0.1434865 0.00414292 0.102507256 -0.11800145 -0.05603561 0.07587097 0.20692635
00000000: 9685 9b3c b0c2 323e 2252 833c bf29 36be
00000010: 2479 a13d 92da 413e 58fe abbd 7f85 b63d
00000020: 263c a03d 1bc7 b73d 006a 02be 292f 4c3b
00000030: ffe8 11be b234 4dbe 0491 64bd c2e2 1bbc
00000040: 7edb 483d 3f78 91be 8f76 91be 0152 403e
00000050: 1866 043c 0230 05be a91c 493d 5c77 0bbe
00000060: 248d 0a3e 682a 90be cb30 fdbd 2e72 423e
00000070: 2201 12be 6044 8c3e e6e5 973d 2810 523e
00000080: 9fb5 06be 956a 8a3b c5ac 25be b143 3a3e
00000090: e90e 063e 111c 74bd b29a 05be d147 3e3d
000000a0: 2535 86be a78b 2bbe 6a23 093d aadf 91bc
000000b0: d563 a03d 4047 8fbe 3efb 52be e0ce 6c3e
000000c0: a0d6 debb 1bd3 e63d 3899 993d 2084 1a3e
000000d0: ecba d53d df73 b2bd 3e3e 04be 7988 7d3e
000000e0: 9c6b 42be a2bb e93d 5edd 73bc 9ebd 173e
000000f0: 926b 953a af99 acbd ecdd 5cbe 34ce d8bc
00000100: ff20 18be b0b8 3a3e b4a9 5a3e bb26 fbbd
00000110: 7a1b 5abe 1639 b53d ed81 703c 3143 913c
00000120: d672 403e 881c 3fbb dbf8 f6bc 587c 62be
00000130: 97d1 babe 6851 df3d e2b1 a2bd 8d3d 873e
00000140: 3bec 12be aa5a 99bc f032 7fbd 6d1c 1b3d
00000150: d4da 94bd 66cd 163e aafc 6a3c e953 31be
00000160: 5419 13be d2b1 d9bd 9d9b 1dbe a359 abbd
00000170: 533f 7d3d 24e9 27bd faab 4f3e 870b 69be
00000180: b885 50be 4733 4c3e 3041 283d 537b db3c
00000190: cca7 e8bc b45f 213e cf38 ce3b e2aa 463c
000001a0: 0639 e83c 20b9 033e 0fdf e7bd 133e 153e
000001b0: ce48 d43d 98c4 d73d 2e78 de3b f625 173e
000001c0: 5db5 05be eb34 cbbd 5ba5 44be 464d 80bd
000001d0: b9ca 0d3e e604 87be c77a a1bd 85f3 c03d
000001e0: d787 013e 90b3 d43d cd06 403e 2d6e eebd
000001f0: 3aab a73d d8fc 16bd dfe5 44be 4ab1 033e
00000200: 7ca3 4bbe 68a5 243e 9831 99bd 8923 013e
00000210: ce43 903d 1fbd 323d 10a7 5e3c ed38 443e
00000220: 810f 193d 6ab7 82be d692 12be 84d6 f7bc
00000230: 18dd abbe 9465 a6be 16d6 763d 4ba5 39be
00000240: 22d1 c03d 26d5 bdbc 9802 47be 6e8b 653e
00000250: 220c 82bd 5d26 043e 8623 96bd 6c02 283e
00000260: c8e9 08be 0370 87be d84c 29be 1868 443d
00000270: fde5 56be ec17 fa3d 0ccc 163d 5219 f33d
00000280: c216 13be da79 70bc c61c 8ebe f6c4 61be
00000290: 8234 27be ba42 d33d 5f02 e73c 9614 77be
000002a0: fd17 5dbd 952e 523c 7aa0 2d3d 28b5 0dbe
000002b0: 0a4e 713e 0397 80bd 2a88 f6bc 196f f4bd
000002c0: 2402 95be 6189 733e edec 9ebd ce30 923c
000002d0: 9603 a03d f5dd ed3d 1b78 05be e194 10bd
000002e0: 746e ab3c a142 e13d 98c5 1c3c 69f3 7cbe
000002f0: 238d 4e3c 54c4 84bc 5058 45be 4f69 8cbe
00000300: 1454 7b3e a844 84bd 4cdb 593e d4ab 8dbd
00000310: 7151 15be d8db 523e cf04 50be a4dd ac3d
00000320: 19d8 863c da37 b83d e099 50bc e604 3dbe
00000330: 8eef 6bbe 1c87 a83c 5bee 69be efdf f73c
00000340: bdc8 db3d 2753 543d 0a09 8cbe 6ce5 163d
00000350: 8d51 a9bd 2cd2 84be 8842 21be 277f e83d
00000360: 5558 593e dbde 9abe 672c 97be caaf 74bc
00000370: 1cb0 fc3d 1e32 09be a066 123e c86f fdbb
00000380: 339b e33d 4f5e 94be 0712 42be 8b4c 833e
00000390: db7c 7ebe 1b75 293e afce fbbd cab5 093e
000003a0: 10d3 0fbe d01f 813e 42b8 55be bd71 7a3e
000003b0: a70a 3ebb ce31 10be d440 eabd 09e3 87be
000003c0: 1748 1fbe e187 f8bd ee6a ee3d 3e83 07be
000003d0: aec3 513e 3da6 31be 4319 a5be 4aad 363e
000003e0: a83d 08be 20ee 123e 55c1 873b 53ef d13d
000003f0: bfaa f1bd 9985 65bd 3d62 9b3d 80e4 533e

weight_hh f4 [150, 50]
-0.011331166 -0.11151571 -0.17085662 -0.09325777 0.12955374 0.14828405 -0.067822546 -0.11482929
0.028824238 -0.22475567 -0.018465174 -0.05723913 -0.04968895 0.01866882 -0.14320311 0.1563581
0.0637026 -0.06364685 -0.0680308 0.042892244 0.23536026 0.12836453 -0.0008568655 0.16552855
-0.005270673 -0.020455072 -0.104007855 0.097759604 -0.14541788 0.14685111 0.19554429 0.027101729
-0.0010449813 0.07451813 0.16054681 -0.01908548 0.10209933 -0.12986347 -0.003359075 0.017469551
-0.05405216 -0.03901359 -0.018432772 0.18800667 0.002220363 -0.05066879 -0.074455984 0.05665183
0.0059717046 0.16574003 -0.052214593 -0.070787236 -0.11017085 -0.056699917 0.110866554 0.18669696
-0.06496774 0.009837456 0.05832475 -0.01143806 0.120831326 -0.22477308 -0.085720815 -0.06918986
0.005443706 -0.08508233 -0.05578046 -0.09895476 0.019357143 0.14002588 0.2056673 0.1356659
-0.08096408 -0.09822844 0.009122278 -0.10784828 0.14408457 -0.10949818 -0.0024563435 0.011863407
-0.017998341 -0.063574836 -0.025605056 -0.079520114 0.087787546 0.12181623 0.1621493 -0.024038909
-0.019944878 0.03420642 0.05528791 -0.2053443 0.070781715 0.101784796 0.06518294 -0.2706211
0.07751151 -0.054003857 0.10477508 -0.07921927 0.11612034 -0.15617359 -0.028924169 0.026888149
0.14552645 0.13196567 0.049200486 -0.013934274 -0.020659218 -0.14694138 -0.009913403 -0.11839594
-0.1989597 0.12692446 -0.124571994 0.026289789 -0.06949497 0.10369411 0.02001202 0.061988223
0.019655956 -0.106384836 -0.037950173 0.10360004 0.014949652 -0.08410573 0.094484195 0.12417267
-0.15537569 -0.08194708 -0.021291386 -0.051194206 0.12339348 -0.09643657 -0.12849867 -0.056608576
0.074580744 -0.1608025 -0.11525663 -0.08267378 0.06580844 -0.26562205 0.06033907 0.07771874
-0.07979187 -0.027933285 0.007098193 0.12759495 -0.07276786 0.044285994 -0.047316626 0.06406074
-0.019335613 -0.076795064 -0.054388992 0.20614506 0.08049498 0.01803106 0.19202411 -0.060184997
-0.06269762 0.02143992 -0.092099115 0.050054457 0.0734486 -0.0685777 0.050245695 0.06475407
0.08490399 0.1345425 0.038805455 0.045100875 -0.07222251 -0.020823043 0.105545826 -0.07622041
0.081356354 0.042075217 -0.1116889 -0.09691253 -0.051154327 0.039640844 -0.028616386 0.08678917
-0.11329043 -0.11469757 0.016963724 -0.03568099 -0.009278429 0.0053617363 -0.12520379 -0.032928046
0.09340033 -0.021230394 0.07917836 -0.26949987 -0.050103616 -0.074951425 0.03736568 -0.057264984
0.07325538 0.050321374 -0.014230454 0.15422091 0.051625926 0.13841423 -0.004457485 -0.024069326
0.08794806 -0.14944425 -0.010473598 -0.12358145 0.00104017 -0.09237434 0.04074292 0.13676026
0.05942547 -0.10311531 -0.113267116 0.14709695 0.16580789 -0.13787544 -0.15828831 -0.036678724
-0.11085793 0.0013986871 0.093246505 0.07203935 0.106239334 0.050033756 0.0604378 -0.056001153
-0.016546885 0.0063845925 0.032959655 0.013877736 0.049465936 -0.07644889 -0.027437532 0.1016175
0.08465354 -0.11355131 0.006639493 0.17019458 -0.024482107 -0.22698392 -0.09289284 0.012489001
0.11987855 -0.058035444 -0.16867906 0.2449376 -0.04940564 0.009511839 0.06213217 -0.033362914
00000000: 5ba6 39bc 5962 e4bd 0af5 2ebe eefd bebd
00000010: bca9 043e c6d7 173e 8ce6 8abd 9e2b ebbd
00000020: cf20 ec3c 5a26 66be 4744 97bc 9473 6abd
00000030: a486 4bbd 5aef 983c d6a3 12be 561c 203e
00000040: 8276 823d 4859 82bd bb53 8bbd c7af 2f3d
00000050: 4802 713e fe71 033e 459f 60ba 5180 293e
00000060: 9cb5 acbb 6591 a7bc 1202 d5bd 3036 c83d
00000070: 6de8 14be 2360 163e c33c 483e 7204 de3c
00000080: c1f7 88ba f69c 983d 6266 243e 2759 9cbc
00000090: 7419 d13d eefa 04be ed23 5cbb 4e1c 8f3c
000000a0: cc65 5dbd b7cc 1fbd 5300 97bc d284 403e
000000b0: 8283 113b 148a 4fbd 617c 98bd c00b 683d
000000c0: 4aae c33b c1b7 293e f8de 55bd e6f8 90bd
000000d0: 41a1 e1bd 2c3e 68bd 010e e33d 7d2d 3f3e
000000e0: ce0d 85bd 482d 213c efe5 6e3d b366 3bbc
000000f0: 6a76 f73d ea2a 66be 658e afbd 6ab3 8dbd
00000100: 1e61 b23b a53f aebd 0d7a 64bd cba8 cabd
00000110: df92 9e3c f262 0f3e 739a 523e 00ec 0a3e
00000120: 7fd0 a5bd fe2b c9bd 9b75 153c 8fdf dcbd
00000130: e88a 133e 9540 e0bd 9bfa 20bb bc5e 423c
00000140: 4271 93bc 8633 82bd b2c1 d1bc 71db a2bd
00000150: f5c9 b33d ca7a f93d 770a 263e 3fed c4bc
00000160: 7163 a3bc 081c 0c3d 9375 623d c745 52be
00000170: 01f6 903d 8c74 d03d a27e 853d d98e 8abe
00000180: 5bbe 9e3d 2633 5dbd 5194 d63d b63d a2bd
00000190: 80d0 ed3d f8eb 1fbe 61f2 ecbc 8944 dc3c
000001a0: e304 153e 0222 073e 7386 493d 954c 64bc
000001b0: 853d a9bc cd77 16be d36b 22bc 9279 f2bd
000001c0: 17bc 4bbe 7cf8 013e 9a1f ffbd af5d d73c
000001d0: 6153 8ebd 945d d43d 3ff0 a33c 5de7 7d3d
000001e0: 8705 a13c 4be0 d9bd a471 1bbd 422c d43d
000001f0: 63ef 743c a03f acbd ee80 c13d 3e4e fe3d
00000200: ce1a 1fbe dfd3 a7bd 466b aebc 04b1 51bd
00000210: b9b5 fc3d 8980 c5bd 2895 03be 65de 67bd
00000220: cabd 983d 69a9 24be ab0b ecbd df50 a9bd
00000230: 93c6 863d 9dff 87be 1a26 773d 012b 9f3d
00000240: ec69 a3bd 58d4 e4bc f597 e83b 40a8 023e
00000250: 5107 95bd 3b65 353d 14cf 41bd 4732 833d
00000260: b865 9ebc bb46 9dbd fec6 5ebd b117 533e
00000270: 8dda a43d e0b5 933c f8a1 443e 8b84 76bd
00000280: 9c67 80bd c5a2 af3c 769e bcbd e705 4d3d
00000290: 386c 963d 7772 8cbd 6ece 4d3d c89d 843d
000002a0: 25e2 ad3d 82c5 093e 78f2 1e3d b2bb 383d
000002b0: 65e9 93bd 1695 aabc 6928 d83d 7219 9cbd
000002c0: 299e a63d 1057 2c3d 26bd e4bd 147a c6bd
000002d0: 3387 51bd 705e 223d e96c eabc 85be b13d
000002e0: d004 e8bd 8fe6 eabd 82f7 8a3c 3b26 12bd
000002f0: 8d04 18bc 81b1 af3b 6c35 00be 8fdf 06bd
00000300: ac48 bf3d 5deb adbc 4428 a23d e3fb 89be
00000310: 7339 4dbd 2280 99bd c10c 193d b08e 6abd
00000320: eb06 963d c91d 4e3d da26 69bc 16ec 1d3e
00000330: b575 533d 76bc 0d3e 1810 92bb 092d c5bc
00000340: 1d1e b43d ea07 19be 7499 2bbc 4518 fdbd
00000350: 5056 883a c22e bdbd 0ce2 263d e20a 0c3e
00000360: 1f68 733d 1f2e d3bd 97f8 e7bd 95a0 163e
00000370: 8bc9 293e 382f 0dbe 5516 22be 6e3c 16bd
00000380: 7b09 e3bd 2754 b73a 06f8 be3d 5e89 933d
00000390: 0294 d93d 32f0 4c3d a08d 773d 7761 65bd
000003a0: 558d 87bc d835 d13b b400 073d 725f 633c
000003b0: cb9c 4a3d 3c91 9cbd adc4 e0bc d61c d03d
000003c0: d65e ad3d 978d e8bd 1b90 d93b 7d47 2e3e
000003d0: b38e c8bc 796e 68be 9a3e bebd ab9e 4c3c
000003e0: e382 f53d 93b6 6dbd 34ba 2cbe ecd0 7a3e
000003f0: 925d 4abd 8bd7 1b3c 4d7e 7e3d 8da7 08bd

bias_ih f4 [150]
0.016751764 0.15121314 0.012947865 0.14905179 -0.034621254 0.1356603 0.061161067 -0.0625083
0.080611415 -0.17610854 -0.04566024 -0.07906243 -0.019295065 0.08220041 0.054792862 0.0072557223
-0.062067326 -0.09597147 0.029088946 -0.15455195 0.1303282 -0.061006773 -0.014217427 0.07695961
-0.16707799 0.09119268 -0.25580978 -0.055711735 0.020578817 0.0073616332 -0.043406498 0.054890342
-0.027280238 -0.1955142 -0.021200005 -0.21202223 0.17147635 0.005184536 0.18465568 0.03474244
0.08742746 -0.066874646 -0.06498474 0.064223915 -0.0057607167 -0.13149527 0.06813103 -0.18309897
0.20965788 0.1930343 -0.11057802 -0.15961084 -0.16258459 -0.078646906 -0.2540372 -0.22255361
-0.0680541 -0.14998356 -0.038554214 -0.01299256 -0.20173185 -0.115922615 -0.0021150454 -0.05868567
-0.16817021 -0.062256817 -0.13072425 -0.32201797 -0.21845797 0.038797837 -0.15542811 -0.12694775
-0.12628658 -0.15219413 -0.050367516 -0.15492877 -0.26757312 -0.0855364 -0.27178532 -0.309339
-0.07162821 -0.22715889 -0.19972879 -0.10726703 -0.19258285 -0.25363278 -0.30600086 -0.113422565
-0.13249582 -0.30776525 -0.27967578 -0.17794082 -0.27082336 -0.18056771 -0.20062988 0.024962284
-0.16972303 -0.2372796 -0.112647675 -0.29124436 -0.058619652 -0.19769953 -0.14011246 0.1408218
-0.20361322 -0.015124435 -0.25750324 -0.14741288 0.12396267 0.008643673 0.07688253 0.024614038
0.027332967 0.18695986 -0.02756156 0.1293218 0.101999864 0.10795768 0.07597444 0.011930973
-0.05164002 0.14846939 -0.1367986 -0.23599136 0.13979569 0.019716958 0.22434576 -0.15399504
0.006807845 0.0878912 0.0690175 -0.14565752 0.2454523 0.18489374 0.0014470223 0.19587007
0.0744485 -0.021321744 0.08636222 0.23099864 -0.2190633 0.078271165 0.09716194 0.11927584
-0.013996867 -0.08955429 0.16388284 0.19993772 -0.11994343 0.056442395
00000000: ff3a 893c 9ed7 1a3e 4823 543c 08a1 183e
00000010: 04cf 0dbd 89ea 0a3e 0784 7a3d 5a04 80bd
00000020: 9917 a53d cc55 34be 3b06 3bbd 7ceb a1bd
00000030: af10 9ebc b058 a83d 7b6e 603d 69c1 ed3b
00000040: 4f3a 7ebd b18c c4bd f14b ee3c de42 1ebe
00000050: c174 053e 3de2 79bd 36f0 68bc 009d 9d3d
00000060: 7e16 2bbe 3ac3 ba3d 80f9 82be fd31 64bd
00000070: e894 a83c db39 f13b 03cb 31bd b2d4 603d
00000080: ce7a dfbc e034 48be a2ab adbc 5b1c 59be
00000090: 7f97 2f3e 0ae3 a93b 6116 3d3e 174e 0e3d
000000a0: 2b0d b33d 93f5 88bd b816 85bd d487 833d
000000b0: 65c4 bcbb b2a6 06be 4888 8b3d 4c7e 3bbe
000000c0: 8eb0 563e c9aa 453e bb76 e2bd 0671 23be
000000d0: 937c 26be a111 a1bd 2a11 82be 18e5 63be
000000e0: f35f 8bbd 4a95 19be 06eb 1dbd bfde 54bc
000000f0: cb92 4ebe d668 edbd 939c 0abb 6360 70bd
00000100: d034 2cbe 0101 7fbd 94dc 05be 8adf a4be
00000110: 72b3 5fbe 7bea 1e3d 8c28 1fbe 97fe 01be
00000120: 4551 01be c7d8 1bbe 2b4e 4ebd a6a5 1ebe
00000130: 58ff 88be b52d afbd 7227 8bbe ae61 9ebe
00000140: d0b1 92bd 579c 68be b485 4cbe d1ae dbbd
00000150: 7034 45be 28dc 81be 25ac 9cbe 174a e8bd
00000160: fcac 07be 6893 9dbe aa31 8fbe 1e36 36be
00000170: 5ca9 8abe bee6 38be eb71 4dbe b47d cc3c
00000180: e0cb 2dbe 6cf9 72be d3b3 e6bd fb1d 95be
00000190: 291b 70bd bf71 4abe a479 0fbe 9733 103e
000001a0: fc7f 50be 7acc 77bc 77d7 83be 67f3 16be
000001b0: 24e0 fd3d 319e 0d3c 9674 9d3d 61a3 c93c
000001c0: 63e9 df3c 6872 3f3e c8c8 e1bc ef6c 043e
000001d0: 4ee5 d03d eb18 dd3d 7d98 9b3d 217a 433c
000001e0: 7c84 53bd 5c08 183e ef14 0cbe b8a7 71be
000001f0: 9a26 0f3e 7585 a13c e5ba 653e e0b0 1dbe
00000200: 5814 df3b 4d00 b43d 0c59 8d3d 3f27 15be
00000210: d957 7b3e c954 3d3e 03aa bd3a 2a92 483e
00000220: 7578 983d f0aa aebc adde b03d e88a 6c3e
00000230: 2152 60be a24c a03d d7fc c63d e446 f43d
00000240: 1e53 65bc 3d68 b7bd e7d0 273e 79bc 4c3e
00000250: e7a4 f5bd 2430 673d

bias_hh f4 [150]
-0.14306049 0.03676673 0.09700706 0.10250052 0.12404254 0.16937603 -0.16102012 -0.15215501
0.015566375 -0.07304869 -0.0016920534 -0.025384046 0.007209939 -0.08390309 0.043097652 -0.19038011
-0.09632982 -0.012109237 -0.08405226 -0.02752624 -0.06954973 0.02274534 -0.12650679 0.18570927
-0.09723165 0.10869737 -0.23209406 0.010311145 0.104944594 -0.0723373 -0.10107727 0.13444096
0.08988422 -0.073837854 0.13115242 -0.0133741805 0.14352484 -0.15122698 0.212934 0.13875629
0.061232973 0.037954453 -0.084319726 -0.0119763315 0.1063723 -0.24473058 0.00013405549 -0.041697532
0.1553349 -0.043281615 -0.05292521 -0.05453697 -0.31584778 -0.22550184 -0.11916619 -0.08153826
-0.1782016 -0.2062661 -0.19635138 -0.1669605 -0.18474382 -0.052568793 -0.23013079 -0.12629025
-0.28509423 -0.22695172 -0.25430858 -0.18539949 -0.22030824 0.03259952 -0.05811865 -0.24135987
-0.016419578 -0.22423157 -0.16742468 -0.1402533 -0.20496579 -0.07269295 -0.15091684 -0.11182532
-0.21478225 -0.11204926 -0.15853012 -0.072911575 -0.28233 -0.15375921 -0.13114165 -0.1464947
-0.32549202 -0.19630854 -0.30840227 -0.057902772 -0.2902237 -0.21102059 -0.07579194 -0.23703657
-0.30715826 -0.10982883 -0.105218835 -0.13002609 0.19018827 -0.16895403 -0.13839947 0.21550535
-0.23461491 -0.20037603 -0.092341684 0.06384085 0.10743634 0.03485827 0.19079319 -0.05325176
-0.20448843 0.20777082 -0.09408062 0.033215426 0.012939369 0.13287523 -0.021081697 0.087695114
0.08960599 0.14823377 -0.1289447 -0.24174133 -0.042096406 0.16773961 0.048170105 -0.11881043
-0.18902288 -0.0067271083 0.050832767 -0.23969467 0.2578187 0.03426535 0.2549258 -0.010873812
0.22709766 -0.02371749 0.22071908 0.24863966 -0.07756331 -0.0063098175 0.09112785 0.18052335
-0.07962815 0.054162484 0.0959888 0.01981383 -0.14022073 0.16943006
00000000: 737e 12be b698 163d a3ab c63d cbeb d13d
00000010: 040a fe3d e970 2d3e 75e2 24be 86ce 1bbe
00000020: 1c0a 7f3c 8d9a 95bd e4c7 ddba 34f2 cfbc
00000030: 5a41 ec3b 62d5 abbd 2a87 303d 01f3 42be
00000040: 9248 c5bd d265 46bc 9723 acbd b67e e1bc
00000050: 1770 8ebd 6f54 ba3c ff8a 01be 922a 3e3e
00000060: 6321 c7bd ba9c de3d 11aa 6dbe 14f0 283c
00000070: 31ed d63d 9425 94bd 9a01 cfbd e4aa 093e
00000080: 3815 b83d 4d38 97bd d24c 063e 611f 5bbc
00000090: 2df8 123e 3fdb 1abe 5f0b 5a3e 2116 0e3e
000000a0: 6dcf 7a3d 2176 1b3d d2af acbd 6038 44bc
000000b0: b8d9 d93d a79a 7abe 3f91 0c39 08cb 2abd
000000c0: 1d10 1f3e 1048 31bd 1bc8 58bd 2862 5fbd
000000d0: cdb6 a1be f4e9 66be 670d f4bd 88fd a6bd
000000e0: 7b7a 36be 6c37 53be 5610 49be b1f7 2abe
000000f0: 7c2d 3dbe 6052 57bd 68a7 6bbe 3b52 01be
00000100: dff7 91be 0866 68be bc34 82be 5dd9 3dbe
00000110: 7c98 61be 1387 053d d20d 6ebd 0b27 77be
00000120: 5a82 86bc f69c 65be 6071 2bbe 909e 0fbe
00000130: 8de2 51be 0be0 94bd f289 1abe ac04 e5bd
00000140: e1ef 5bbe 157a e5bd b855 22be aa52 95bd
00000150: 8f8d 90be 0e73 1dbe ff49 06be b502 16be
00000160: e4a6 a6be 1b05 49be e7e6 9dbe 752b 6dbd
00000170: 3398 94be c815 58be ce38 9bbd b7b9 72be
00000180: d943 9dbe f0ed e0bd f97c d7bd 8f25 05be
00000190: b7c0 423e 4902 2dbe 97b8 0dbe 6fad 5c3e
000001a0: e43e 70be 602f 4dbe a31d bdbd febe 823d
000001b0: 9507 dc3d 8cc7 0e3d 4a5f 433e 841e 5abd
000001c0: 6a65 51be e0c1 543e 57ad c0bd e60c 083d
000001d0: a6ff 533c 7210 083e 86b3 acbc 7f99 b33d
000001e0: 5883 b73d 98ca 173e 140a 04be 0a8b 77be
000001f0: 486d 2cbd efc3 2b3e 044e 453d e252 f3bd
00000200: 378f 41be 136f dcbb 0536 503d 8572 75be
00000210: d000 843e d359 0c3d a285 823e 1328 32bc
00000220: 4a8c 683e 2e4b c2bc 2f04 623e 659b 7e3e
00000230: 83d9 9ebd 96c2 cebb 3da1 ba3d 1ddb 383e
00000240: 1514 a3bd 7bd9 5d3d c795 c43d 9d50 a23c
00000250: 0696 0fbe 137f 2d3e

weight f4 [2, 50]
0.29156372 -0.26319492 -0.29981616 0.20813961 -0.24893633 -0.097662225 -0.122323625 -0.19014238
0.14013518 -0.18656975 0.16657735 -0.13664384 -0.17335148 0.29600674 -0.18185306 0.2636816
0.10904982 0.20032406 0.28458595 0.19607423 0.07199515 0.24435945 -0.011601595 -0.26241726
0.28200084 0.20762092 0.1598463 -0.20587969 -0.20538466 0.13705279 0.25350192 -0.31542423
0.285222 0.085570425 0.24308498 0.22035478 0.3036017 -0.19642511 0.1812992 0.24922414
-0.29653373 0.02401807 0.13166629 0.07867073 -0.11351918 -0.23473474 0.24257952 0.30207077
-0.20499988 0.31064576 -0.1145536 0.0743975 0.2809268 -0.18749318 0.17534085 0.24466133
0.2597122 0.16512346 -0.29849106 0.14458089 -0.27079037 0.17060846 0.28294107 -0.062641054
0.28938344 -0.27441218 -0.27581295 -0.28907976 -0.20335625 -0.18578944 -0.23456581 -0.17804934
0.25624517 0.25558966 -0.2648495 -0.21323499 -0.23242679 0.22888598 0.2843978 -0.29416266
-0.21233265 0.18996866 -0.28943843 -0.24419557 -0.2476122 -0.24025005 -0.13180278 0.15435149
-0.26018867 -0.13974272 0.13150598 0.18538685 -0.28177935 -0.3044212 0.24110278 0.05484455
-0.23040885 -0.14926381 0.25682682 -0.1827742
00000000: d747 953e 7cc1 86be 8181 99be 8d22 553e
00000010: 2ae9 7ebe 2203 c8bd cf84 fabd afb4 42be
00000020: 997f 0f3e 240c 3fbe 4193 2a3e 5dec 0bbe
00000030: 0d83 31be 328e 973e b037 3abe 4601 873e
00000040: 8355 df3d c021 4d3e 40b5 913e afc7 483e
00000050: 3172 933d 5d39 7a3e 9e14 3ebc 8e5b 86be
00000060: 6a62 903e 949a 543e c0ae 233e 20d2 52be
00000070: 5b50 52be 9157 0c3e 01cb 813e 497f a1be
00000080: 9e08 923e 8c3f af3d 45eb 783e afa4 613e
00000090: af71 9b3e aa23 49be 7fa6 393e 9d34 7f3e
000000a0: 45d3 97be 8bc1 c43c 87d3 063e 1f1e a13d
000000b0: be7c e8bd 4e5e 70be c466 783e 05a9 9a3e
000000c0: 7deb 51be f60c 9f3e 149b eabd b75d 983d
000000d0: a3d5 8f3e 36fe 3fbe 8d8c 333e 8088 7a3e
000000e0: fff8 843e 2016 293e d2d3 98be 030d 143e
000000f0: 09a5 8abe fcb3 2e3e a7dd 903e f449 80bd
00000100: 112a 943e c17f 8cbe 5b37 8dbe 4302 94be
00000110: 9f3c 50be 963f 3ebe 0532 70be 9152 36be
00000120: 9132 833e a6dc 823e 5b9a 87be 465a 5abe
00000130: 4a01 6ebe 1661 6a3e 979c 913e 7d9c 96be
00000140: bb6d 59be 2587 423e 4631 94be 670e 7abe
00000150: 0d8e 7dbe 1c04 76be 4ff7 06be 510e 1e3e
00000160: 7337 85be b718 0fbe 81a9 063e 0dd6 3d3e
00000170: 6245 90be 18dd 9bbe a6e3 763e aea4 603d
00000180: 4cf0 6bbe 9dd8 18be ce7e 833e 2929 3bbe

bias f4 [2]
0.26599732 -0.28176665
00000000: cd30 883e b843 90be

weight f4 [2, 50]
-0.11352819 -0.034537695 0.06994142 -0.111459605 0.13463296 0.06166546 -0.05766353 -0.105621874
0.11223464 -0.024541996 -0.04008344 -0.031962015 -0.12760822 -0.092092134 0.0669297 -0.08888884
-0.093947925 -0.1307023 0.074232236 -0.041305803 -0.0713003 -0.13541989 -0.07487503 -0.1266723
0.06860952 0.096067965 0.01397647 0.018458858 0.10033408 0.07814193 0.075714454 0.14023252
-0.09587847 -0.04488211 0.032199636 0.10655309 -0.029099971 -0.07799811 -0.033926144 -0.04364519
-0.13234383 0.097096875 -0.13387932 0.0049768537 0.13621502 0.0126134455 0.03445056 0.0039978772
0.04876709 -0.109876014 0.08680931 -0.03156405 -0.020241246 0.014675915 -0.042206466 -0.062099896
-0.1080637 0.051548645 0.078575134 0.03244622 0.019744396 0.069927216 0.13271187 -0.07848954
-0.10299114 0.11581321 0.14076556 0.13444285 -0.058810487 0.10437432 -0.05265964 0.09347615
-0.076741524 0.023084894 -0.12311904 0.058999717 -0.06330897 -0.08344923 0.017224282 -0.07001659
0.044430465 0.01624468 -0.10833059 0.118566826 0.008418292 -0.11887798 0.014876962 -0.123271294
0.1404971 0.1138619 0.12423213 -0.03849656 -0.010645777 0.07616302 -0.06957588 -0.03107047
-0.0042694956 0.04431358 -0.10482122 0.07425098
00000000: 7881 e8bd 6677 0dbd 723d 8f3d ef44 e4bd
00000010: 39dd 093e ec94 7c3d 9830 6cbd 4850 d8bd
00000020: 46db e53d 4c0c c9bc 882e 24bd 9aea 02bd
00000030: bbab 02be cd9a bcbd 7012 893d 5a0b b6bd
00000040: c567 c0bd d3d6 05be 1207 983d 4630 29bd
00000050: e405 92bd 83ab 0abe 1458 99bd 62b6 01be
00000060: 2683 8c3d 48bf c43d 90fd 643c 0837 973c
00000070: f47b cd3d e008 a03d 2e10 9b3d 1d99 0f3e
00000080: ee5b c4bd 4ed6 37bd c4e3 033d 8238 da3d
00000090: 1063 eebc 79bd 9fbd 24f6 0abd 4cc5 32bd
000000a0: 2485 07be bada c63d a917 09be e014 a33b
000000b0: f37b 0b3e a0a8 4e3c 081c 0d3d a000 833b
000000c0: 00c0 473d ad06 e1bd 14c9 b13d 4e49 01bd
000000d0: f8d0 a5bc 4073 703c b0e0 2cbd 765c 7ebd
000000e0: 8050 ddbd ac24 533d 00ec a03d 54e6 043d
000000f0: 00bf a13c 0036 8f3d 9fe5 073e 20bf a0bd
00000100: 05ed d2bd 7a2f ed3d d924 103e 63ab 093e
00000110: 44e3 70bd 34c2 d53d a2b1 57bd 6c70 bf3d
00000120: a92a 9dbd 881c bd3c d625 fcbd b0a9 713d
00000130: 22a8 81bd 6ee7 aabd f019 8d3c dc64 8fbd
00000140: b8fc 353d 9013 853c 6edc ddbd 2ad3 f23d
00000150: e0ec 093c 4c76 f3bd 80be 733c a975 fcbd
00000160: 79de 0f3e 6e30 e93d 6a6d fe3d 92ae 1dbd
00000170: a06b 2ebc 5cfb 9b3d cd7d 8ebd 8087 febc
00000180: 20e7 8bbb 2882 353d 82ac d6bd e610 983d

bias f4 [2]
-0.004480511 -0.02213718
00000000: 40d1 92bb 0859 b5bc

amplitudes f4 [10000, 2]
1.0 0.0 1.0 0.0 1.0 0.0 1.0 0.0
1.0 0.0 1.0 0.0 1.0 0.0 1.0 0.0
1.0 0.0 1.0 0.0 1.0 0.0 1.0 0.0
1.0 0.0 1.0 0.0 1.0 0.0 1.0 0.0
1.0 0.0 1.0 0.0 1.0 0.0 1.0 0.0
1.0 0.0 1.0 0.0 1.0 0.0 1.0 0.0
1.0 0.0 1.0 0.0 1.0 0.0 1.0 0.0
1.0 0.0 1.0 0.0 1.0 0.0 1.0 0.0
1.0 0.0 1.0 0.0 1.0 0.0 4.1575586e-05 0.0
1.0 0.0 1.0 0.0 1.0 0.0 1.0 0.0
1.0 0.0 1.0 0.0 1.0 0.0 1.0 0.0
1.0 0.0 1.0 0.0 1.0 0.0 1.0 0.0
1.0 0.0 1.0 0.0 1.0 0.0 1.0 0.0
1.0 0.0 1.0 0.0 1.0 0.0 1.0 0.0
1.0 0.0 1.0 0.0 1.0 0.0 1.0 0.0
1.0 0.0 1.0 0.0 1.0 0.0 1.0 0.0
1.0 0.0 1.0 0.0 1.0 0.0 1.0 0.0
1.0 0.0 1.0 0.0 1.0 0.0 1.0 0.0
1.0 0.0 1.0 0.0 1.0 0.0 1.0 0.0
1.0 0.0 1.0 0.0 1.0 0.0 1.0 0.0
1.0 0.0 1.0 0.0 1.0 0.0 1.0 0.0
1.0 0.0 1.0 0.0 1.0 0.0 1.0 0.0
1.0 0.0 1.0 0.0 1.0 0.0 1.0 0.0
1.0 0.0 1.0 0.0 1.0 0.0 1.0 0.0
1.0 0.0 1.0 0.0 1.0 0.0 1.0 0.0
1.0 0.0 1.0 0.0 1.0 0.0 1.0 0.0
1.0 0.0 1.0 0.0 1.0 0.0 1.0 0.0
1.0 0.0 1.0 0.0 1.0 0.0 1.0 0.0
1.0 0.0 1.0 0.0 1.0 0.0 1.0 0.0
1.0 0.0 1.0 0.0 1.0 0.0 1.0 0.0
1.0 0.0 1.0 0.0 1.0 0.0 1.0 0.0
1.0 0.0 1.0 0.0 1.0 0.0 1.0 0.0
00000000: 0000 803f 0000 0000 0000 803f 0000 0000
00000010: 0000 803f 0000 0000 0000 803f 0000 0000
00000020: 0000 803f 0000 0000 0000 803f 0000 0000
00000030: 0000 803f 0000 0000 0000 803f 0000 0000
00000040: 0000 803f 0000 0000 0000 803f 0000 0000
00000050: 0000 803f 0000 0000 0000 803f 0000 0000
00000060: 0000 803f 0000 0000 0000 803f 0000 0000
00000070: 0000 803f 0000 0000 0000 803f 0000 0000
00000080: 0000 803f 0000 0000 0000 803f 0000 0000
00000090: 0000 803f 0000 0000 0000 803f 0000 0000
000000a0: 0000 803f 0000 0000 0000 803f 0000 0000
000000b0: 0000 803f 0000 0000 0000 803f 0000 0000
000000c0: 0000 803f 0000 0000 0000 803f 0000 0000
000000d0: 0000 803f 0000 0000 0000 803f 0000 0000
000000e0: 0000 803f 0000 0000 0000 803f 0000 0000
000000f0: 0000 803f 0000 0000 0000 803f 0000 0000
00000100: 0000 803f 0000 0000 0000 803f 0000 0000
00000110: 0000 803f 0000 0000 7261 2e38 0000 0000
00000120: 0000 803f 0000 0000 0000 803f 0000 0000
00000130: 0000 803f 0000 0000 0000 803f 0000 0000
00000140: 0000 803f 0000 0000 0000 803f 0000 0000
00000150: 0000 803f 0000 0000 0000 803f 0000 0000
00000160: 0000 803f 0000 0000 0000 803f 0000 0000
00000170: 0000 803f 0000 0000 0000 803f 0000 0000
00000180: 0000 803f 0000 0000 0000 803f 0000 0000
00000190: 0000 803f 0000 0000 0000 803f 0000 0000
000001a0: 0000 803f 0000 0000 0000 803f 0000 0000
000001b0: 0000 803f 0000 0000 0000 803f 0000 0000
000001c0: 0000 803f 0000 0000 0000 803f 0000 0000
000001d0: 0000 803f 0000 0000 0000 803f 0000 0000
000001e0: 0000 803f 0000 0000 0000 803f 0000 0000
000001f0: 0000 803f 0000 0000 0000 803f 0000 0000
00000200: 0000 803f 0000 0000 0000 803f 0000 0000
00000210: 0000 803f 0000 0000 0000 803f 0000 0000
00000220: 0000 803f 0000 0000 0000 803f 0000 0000
00000230: 0000 803f 0000 0000 0000 803f 0000 0000
00000240: 0000 803f 0000 0000 0000 803f 0000 0000
00000250: 0000 803f 0000 0000 0000 803f 0000 0000
00000260: 0000 803f 0000 0000 0000 803f 0000 0000
00000270: 0000 803f 0000 0000 0000 803f 0000 0000
00000280: 0000 803f 0000 0000 0000 803f 0000 0000
00000290: 0000 803f 0000 0000 0000 803f 0000 0000
000002a0: 0000 803f 0000 0000 0000 803f 0000 0000
000002b0: 0000 803f 0000 0000 0000 803f 0000 0000
000002c0: 0000 803f 0000 0000 0000 803f 0000 0000
000002d0: 0000 803f 0000 0000 0000 803f 0000 0000
000002e0: 0000 803f 0000 0000 0000 803f 0000 0000
000002f0: 0000 803f 0000 0000 0000 803f 0000 0000
00000300: 0000 803f 0000 0000 0000 803f 0000 0000
00000310: 0000 803f 0000 0000 0000 803f 0000 0000
00000320: 0000 803f 0000 0000 0000 803f 0000 0000
00000330: 0000 803f 0000 0000 0000 803f 0000 0000
00000340: 0000 803f 0000 0000 0000 803f 0000 0000
00000350: 0000 803f 0000 0000 0000 803f 0000 0000
00000360: 0000 803f 0000 0000 0000 803f 0000 0000
00000370: 0000 803f 0000 0000 0000 803f 0000 0000
00000380: 0000 803f 0000 0000 0000 803f 0000 0000
00000390: 0000 803f 0000 0000 0000 803f 0000 0000
000003a0: 0000 803f 0000 0000 0000 803f 0000 0000
000003b0: 0000 803f 0000 0000 0000 803f 0000 0000
000003c0: 0000 803f 0000 0000 0000 803f 0000 0000
000003d0: 0000 803f 0000 0000 0000 803f 0000 0000
000003e0: 0000 803f 0000 0000 0000 803f 0000 0000
000003f0: 0000 803f 0000 0000 0000 803f 0000 0000
