data/RNN_runs/sweep2_H2/rnn_sto3g_H2_0-7348_eq1_nU25_nL1_lr00025_lrsO_ns10000.pt (torch_old, 428326 bytes, 9 tensors)

weight_ih f4 [75, 2]
-0.39805043 0.45864108 -0.44584236 0.5406544 -0.27444276 0.32589453 -0.5187034 0.256707
-0.5223863 0.5196416 -0.15332557 0.4843723 -0.30117828 0.12643957 -0.1466178 0.3522532
-0.33845502 0.45431864 -0.26532695 0.43198827 0.16130932 0.34487724 -0.07136655 0.69338804
-0.52096534 0.5393007 -0.18123941 0.5680602 0.14326376 0.1672769 -0.005179116 0.5144659
-0.08496151 0.57300717 -0.038427517 0.042449202 0.038356166 0.3141942 -0.476768 0.5051295
-0.20109937 0.31475714 -0.19913614 0.674336 -0.36194468 0.51573074 -0.3734473 0.3650614
-0.11273637 0.5664298 -0.013034707 -0.41229942 0.19826756 -0.36986566 -0.06293893 -0.6481993
-0.17979921 -0.29827088 0.14272077 -0.6080657 -0.12275135 -0.2720346 -0.2538522 -0.58985543
-0.15537865 -0.47987983 0.16808195 -0.2790692 0.036775306 -0.21002375 0.015848568 -0.34161723
-0.50891286 -0.7420282 -0.08231494 -0.2778088 0.0028263044 -0.64545816 0.0060850163 -0.038359642
0.0864638 -0.44216308 -0.15926085 -0.53517604 -0.10991808 -0.5456729 -0.2718457 -0.14540096
0.19183353 -0.39207098 -0.17550875 -0.27961242 0.011487349 -0.34644312 0.10412306 -0.20545608
0.45432475 -0.24837564 0.32616192 -0.47404933 0.4559049 -0.5790465 0.29432032 -0.5112659
0.23994155 -0.46109647 -0.2904154 0.6165303 -0.29246888 0.37593713 0.41014788 -0.5120824
0.3835421 -0.44181618 -0.30794895 0.47015437 -0.033389002 -0.09360175 0.2630244 0.05009271
-0.26697862 0.49837992 0.52576387 -0.61104023 0.55141646 -0.3958103 -0.17514679 0.46983305
-0.002118805 0.020321775 0.16942999 -0.32411024 0.3155026 -0.61338764 -0.32451928 0.30079123
0.21687716 -0.22253595 0.32037568 -0.47023383 0.24979551 -0.45949692 -0.22941686 0.63259196
-0.22066991 0.2895668 0.089291826 -0.24548434 -0.42004356 0.23119843
00000000: 44cd cbbe 01d3 ea3e 7345 e4be 5468 0a3f
00000010: c383 8cbe a6db a63e bfc9 04bf 1a6f 833e
00000020: 1cbb 05bf 3b07 053f 6101 1dbe a5ff f73e
00000030: 0a34 9abe 6079 013e fa22 16be 885a b43e
00000040: fa49 adbe 749c e83e efd8 87be 912d dd3e
00000050: 452e 253e c093 b03e a028 92bd e181 313f
00000060: fc5d 05bf 9c0f 0a3f d396 39be 656c 113f
00000070: bcb3 123e a34a 2b3e 93b5 a9bb 0ab4 033f
00000080: 4d00 aebd 99b0 123f 2c66 1dbd 37df 2d3d
00000090: 5b1b 1d3d 10de a03e ef1a f4be 2b50 013f
000000a0: feec 4dbe d927 a13e 58ea 4bbe 49a1 2c3f
000000b0: d050 b9be ee06 043f 7c34 bfbe 54e9 ba3e
000000c0: 53e2 e6bd 8b01 113f 868f 55bc e918 d3be
000000d0: a706 4b3e 085f bdbe 20e6 80bd 64f0 25bf
000000e0: 491d 38be f6b6 98be 6525 123e 32aa 1bbf
000000f0: 0f65 fbbd 1e48 8bbe eaf8 81be c400 17bf
00000100: 951b 1fbe cfb2 f5be ad1d 2c3e 28e2 8ebe
00000110: b4a1 163d 7710 57be dbd4 813c 74e8 aebe
00000120: 1d48 02bf 8ff5 3dbf bc94 a8bd f43c 8ebe
00000130: 8539 393b bf3c 25bf d164 c73b 001f 1dbd
00000140: ef13 b13d 3363 e2be 4715 23be 4c01 09bf
00000150: bb1c e1bd 38b1 0bbf 5c2f 8bbe fde3 14be
00000160: 0270 443e 87bd c8be 91b8 33be 5c29 8fbe
00000170: 6f35 3c3c fe60 b1be 793e d53d 1463 52be
00000180: 419d e83e 2f56 7ebe b2fe a63e 98b6 f2be
00000190: 5e6c e93e 643c 14bf 27b1 963e 52e2 02bf
000001a0: 3db3 753e d614 ecbe 54b1 94be eed4 1d3f
000001b0: 7bbe 95be d57a c03e e7fe d13e d517 03bf
000001c0: a15f c43e bb35 e2be 7cab 9dbe 13b8 f03e
000001d0: e8c2 08bd 46b2 bfbd 22ab 863e 032e 4d3d
000001e0: 6cb1 88be a72b ff3e 7698 063f 226d 1cbf
000001f0: a129 0d3f a6a7 cabe ae59 33be f58d f03e
00000200: a6db 0abb da79 a63c 0e7f 2d3e c7f1 a5be
00000210: 8f89 a13e f906 1dbf 6427 a6be 4f01 9a3e
00000220: 0c15 5e3e 77e0 63be 4808 a43e 7dc2 f0be
00000230: 65ca 7f3e 2e43 ebbe 41ec 6abe 8cf1 213f
00000240: 4bf7 61be 1a42 943e a2de b63d 3f60 7bbe
00000250: f30f d7be 48bf 6c3e

weight_hh f4 [75, 25]
-0.0456229 -0.11319679 0.11770823 0.05150214 0.1860363 0.30002284 0.018604813 -0.12826246
-0.53187513 -0.31419268 -0.14924134 0.47808334 -0.43868294 0.059199493 0.63231486 0.20126493
0.21878065 0.0730408 0.65209615 0.13830674 0.123090275 -0.28238863 0.34066838 -0.3841877
-0.019304512 -0.033089638 -0.19696105 0.059279997 0.081692465 0.093530595 0.15573746 0.17325784
-0.042458177 -0.48638806 -0.56651646 -0.2699888 0.19803075 -0.038341578 0.014860752 0.25504535
-0.11734996 0.014331703 -0.050707966 0.6671179 -0.13441765 0.041680157 -0.088625245 0.20535398
-0.20318174 0.11607925 -0.33256465 -0.33452952 -0.16809432 0.2246217 0.1929137 -0.19296455
-0.20020644 0.17607935 -0.4017675 -0.3104561 0.0205251 -0.0583515 -0.37471396 0.07832244
0.43063807 -0.31796056 -0.087686196 0.1814671 0.36471808 -0.2778555 -0.35128844 0.12049909
0.4836217 -0.46292737 0.4534249 -0.23296303 -0.2482696 -0.13057736 0.137813 0.19758539
0.056788474 0.04646415 -0.23730257 -0.31348354 -0.47492144 -0.2691523 0.24363889 -0.35634702
-0.24053024 0.5596217 0.05596024 0.07930825 -0.0520695 0.5018303 0.03223211 0.22372879
-0.20184757 0.35523817 -0.30051512 0.29302 0.062255584 -0.22765626 0.13627404 -0.07785296
0.1493363 0.026308475 0.042901527 -0.21292551 -0.13316455 -0.17201455 -0.2155308 0.1299656
-0.3466864 0.14563522 0.5654902 0.039639577 0.081146516 0.02007453 0.6094714 -0.10680639
-0.10302065 0.13471217 0.45266262 -0.36635 0.10103291 -0.39164793 -0.35243353 -0.29496348
0.15117143 0.17573933 -0.004335251 -0.34971997 0.3445712 -0.4809174 -0.4722206 0.20713
0.056130856 -0.45275974 0.030971104 0.36265755 -0.11099924 -0.19762383 0.4499796 0.3687874
-0.30514237 -0.08603991 0.18242563 0.3806238 -0.3131077 0.3972752 -0.24751641 -0.23584682
-0.071565 0.33798775 0.30347744 -0.12958086 -0.22857428 0.036637586 -0.45865226 -0.38743454
0.10709437 -0.026659204 -0.51827973 0.41181678 0.32069704 -0.24629578 -0.27474886 0.24520917
0.4439757 -0.3553998 -0.33170757 0.16175824 0.60271245 -0.346541 0.4531982 -0.45674074
-0.2733923 -0.21076068 0.18020847 0.382826 -0.19840437 -0.3612652 0.11906405 -0.22809887
-0.4475033 0.14110549 -0.19557796 -0.5813009 0.43043727 0.48560417 -0.33924857 -0.07762223
0.20317915 0.18852969 -0.51964456 -0.13353819 0.21297765 0.5406366 -0.2560903 0.42874885
-0.067989424 -0.3136786 -0.05968757 0.16670878 0.25677374 -0.09359164 -0.34046638 0.38094586
-0.24430561 -0.3069372 0.38043132 -0.101299405 -0.38077033 0.24804226 0.37981766 -0.07613197
-0.13962352 0.40536135 0.50415576 -0.42940572 -0.09177746 0.2024453 0.3334331 -0.1471276
0.14575206 -0.2134982 -0.18953836 -0.13801841 0.0125078615 0.25104374 -0.07547198 -0.07635756
0.28194925 -0.23035906 -0.49339223 0.2859366 -0.27432474 -0.35905004 0.19371875 0.3990047
-0.09509314 -0.22047403 0.09470027 0.35125932 -0.14778072 -0.29734877 0.033508733 0.25609007
-0.3841674 0.1178924 -0.19050454 -0.5168789 -0.52113473 0.56675655 0.32116517 -0.32771558
00000000: 14df 3abd b8d3 e7bd 0311 f13d e8f3 523d
00000010: 4d80 3e3e 989c 993e 1f69 983c 3c57 03be
00000020: f828 08bf dddd a0be b9d2 18be 57c7 f43e
00000030: 0d9b e0be 2b7b 723d 63df 213f 6518 4e3e
00000040: 0908 603e 6a96 953d c6ef 263f 48a0 0d3e
00000050: c116 fc3d 3e95 90be 166c ae3e 40b4 c4be
00000060: 7f24 9ebc 0089 07bd 28b0 49be 95cf 723d
00000070: 614e a73d f88c bf3d a479 1f3e 816a 313e
00000080: a0e8 2dbd db07 f9be 3907 11bf f93b 8abe
00000090: 93c8 4a3e 0f0c 1dbd 837a 733c 4e95 823e
000000a0: 2d55 f0bd 85cf 6a3c 28b3 4fbd 3dc8 2a3f
000000b0: c8a4 09be d0b8 2a3d 2781 b5bd 5048 523e
000000c0: e00e 50be f5ba ed3d ea45 aabe 7447 abbe
000000d0: eb20 2cbe 3b03 663e 2b8b 453e 8098 45be
000000e0: eb02 4dbe 254e 343e 78b4 cdbe 1af4 9ebe
000000f0: 4124 a83c fc01 6fbd 82da bfbe 8467 a03d
00000100: 987c dc3e bacb a2be d294 b3bd 83d2 393e
00000110: 54bc ba3e 1343 8ebe 14dc b3be 3ac8 f63d
00000120: 439d f73e d104 edbe 4f27 e83e dc8d 6ebe
00000130: 633a 7ebe 12b6 05be da1e 0d3e d353 4a3e
00000140: 089b 683d 3151 3e3d 72ff 72be ea80 a0be
00000150: e728 f3be 55ce 89be 797c 793e 1e73 b6be
00000160: 8f4d 76be 5e43 0f3f 9136 653d 5d6c a23d
00000170: d446 55bd f377 003f d105 043d 2919 653e
00000180: 21b1 4ebe c7e1 b53e 1edd 99be b806 963e
00000190: b6ff 7e3d b91e 69be 6c8b 0b3e 5f71 9fbd
000001a0: 9deb 183e df84 d73c 83b9 2f3d 2509 5abe
000001b0: 4a5c 08be 9524 30be 1bb4 5cbe b415 053e
000001c0: e180 b1be 6621 153e f7c3 103f 1c5d 223d
000001d0: 2530 a63d 5773 a43c 5106 1c3f 4fbd dabd
000001e0: 7efc d2bd fdf1 093e 65c3 e73e 3a92 bbbe
000001f0: 58ea ce3d 1486 c8be 2b72 b4be 7405 97be
00000200: afcc 1a3e 03f5 333e b90e 8ebb 7f0e b3be
00000210: a36b b03e ce3a f6be e6c6 f1be e319 543e
00000220: 78e9 653d 20d0 e7be 1db7 fd3c 40ae b93e
00000230: 9253 e3bd e75d 4abe ba63 e63e b4d1 bc3e
00000240: 9f3b 9cbe b135 b0bd c9cd 3a3e 1fe1 c23e
00000250: a74f a0be a867 cb3e f174 7dbe d481 71be
00000260: ac90 92bd bb0c ad3e 6561 9b3e d8b0 04be
00000270: 600f 6abe 4b11 163d 78d4 eabe d25d c6be
00000280: 4b54 db3d 6764 dabc fbad 04bf a6d9 d23e
00000290: 6732 a43e f634 7cbe e2ab 8cbe 1d18 7b3e
000002a0: c850 e33e f6f6 b5be 93d5 a9be f4a3 253e
000002b0: 5d4b 1a3f d26d b1be 9809 e83e ecd9 e9be
000002c0: 13fa 8bbe a6d1 57be 9288 383e c501 c43e
000002d0: 842a 4bbe c1f7 b8be dad7 f33d c092 69be
000002e0: 271f e5be f57d 103e 9745 48be 23d0 14bf
000002f0: 4662 dc3e 1ca1 f83e fdb1 adbe 67f8 9ebd
00000300: 320e 503e ed0d 413e 6d07 05bf 3cbe 08be
00000310: d016 5a3e 2967 0a3f 451e 83be f884 db3e
00000320: 0a3e 8bbd 7b9a a0be f47a 74bd b5b5 2a3e
00000330: d977 833e f9ac bfbd 9c51 aebe 560b c33e
00000340: 402b 7abe df26 9dbe e5c7 c23e 1076 cfbd
00000350: 54f4 c2be cafe 7d3e 7677 c23e 14eb 9bbd
00000360: 78f9 0ebe 868b cf3e 5a10 013f 11db dbbe
00000370: d2f5 bbbd d24d 4f3e beb7 aa3e 9ea8 16be
00000380: 0740 153e 469f 5abe 5816 42be b354 0dbe
00000390: c6ed 4c3c ce88 803e 0e91 9abd 5a61 9cbd
000003a0: a75b 903e 3fe3 6bbe e89d fcbe 4866 923e
000003b0: 4b74 8cbe 68d5 b7be 355e 463e 584a cc3e
000003c0: 31c0 c2bd f2c3 61be 37f2 c13d 43d8 b33e
000003d0: d453 17be 193e 98be 7440 093d 3d1e 833e
000003e0: 97b1 c4be 9271 f13d 9f13 43be 2d52 04bf
000003f0: 1669 05bf f516 113f c36f a43e 56ca a7be

bias_ih f4 [75]
-0.05899682 -0.14456463 -0.28631896 -0.058401108 0.053576984 -0.090727605 -0.20558338 0.21538481
0.05263183 0.21891642 0.14250101 0.3389952 -0.11473073 0.35297582 0.25645024 0.13936222
0.19618917 0.024286762 0.37820458 -0.12899165 0.3060704 0.2523577 -0.12461224 -0.09371313
-0.07754576 -0.41212383 -0.3475346 -0.24370866 -0.5100672 -0.2550039 -0.52600706 -0.53441966
-0.65427417 -0.089609854 -0.090806045 -0.5937738 -0.45485845 -0.38620296 -0.54406154 -0.15000768
-0.52458507 -0.40633234 -0.5310322 -0.1562474 -0.42742792 -0.6067577 -0.32385302 -0.20249481
-0.3301565 -0.14703566 -0.21713999 -0.1877154 -0.45469564 0.19089548 0.37128502 -0.39148456
-0.4380494 0.46525684 -0.10265726 -0.050300833 0.44309586 -0.36885476 -0.08750712 0.22667547
0.0008104814 -0.3254843 -0.16833827 0.49398142 -0.08205519 -0.276455 -0.3491647 0.18900949
-0.042535778 -0.12162196 0.3756739
00000000: a6a6 71bd c008 14be 6698 92be 0036 6fbd
00000010: 8a73 5b3d 65cf b9bd 7384 52be d68d 5c3e
00000020: 7994 573d a02b 603e c9eb 113e c790 ad3e
00000030: f2f7 eabd 3fb9 b43e 724d 833e f8b4 0e3e
00000040: d0e5 483e 08f5 c63c 08a4 c13e 6316 04be
00000050: 42b5 9c3e 0735 813e b434 ffbd abec bfbd
00000060: 50d0 9ebd e501 d3be 0ef0 b1be c38e 79be
00000070: c493 02bf df8f 82be 66a8 06bf bacf 08bf
00000080: 837e 27bf 5f85 b7bd 85f8 b9bd 8f01 18bf
00000090: 35e3 e8be 65bc c5be 9e47 0bbf 9d9b 19be
000000a0: 354b 06bf cb0a d0be baf1 07bf 52ff 1fbe
000000b0: d5d7 dabe 7954 1bbf 10d0 a5be cd5a 4fbe
000000c0: 460a a9be 8490 16be f259 5ebe 7738 40be
000000d0: decd e8be 1b7a 433e 1219 be3e aa70 c8be
000000e0: 0348 e0be 2536 ee3e f83d d2bd 3f08 4ebd
000000f0: 76dd e23e 88da bcbe ef36 b3bd 9d1d 683e
00000100: 7c76 543a e1a5 a6be de60 2cbe 22eb fc3e
00000110: 8d0c a8bd 828b 8dbe b7c5 b2be b48b 413e
00000120: ff39 2ebd ef14 f9bd 5458 c03e

bias_hh f4 [75]
0.1484302 0.0013073208 -0.28820997 0.0100780865 -0.14751618 0.1320469 -0.17592919 0.122782566
0.2007551 0.067331426 0.10627905 0.2567368 -0.11553572 0.34277558 0.19135861 0.4057184
0.09014834 -0.27556783 0.3241322 -0.16173749 0.33275336 0.09208961 0.0075637386 -0.03858317
0.13692208 -0.26686954 -0.2743636 -0.35464165 -0.6371082 -0.25192648 -0.49200818 -0.43011144
-0.3237001 -0.22613135 -0.2377621 -0.6477975 -0.464121 -0.39878777 -0.4758748 -0.16029938
-0.32028073 -0.47711572 -0.3013635 -0.19104737 -0.26954043 -0.52714133 -0.6683923 -0.012963419
-0.020905891 -0.21123287 -0.4239712 -0.35490593 -0.110512346 0.17967199 0.1025076 -0.23311077
-0.113640375 0.23070511 -0.15073499 -0.12486275 0.1705578 -0.44829476 -0.07864143 0.37323135
-0.24831152 -0.32542276 -0.5455075 0.085721165 -0.11159278 -0.3200597 -0.45499524 0.32306677
0.23689027 0.0020612248 0.3773582
00000000: 16fe 173e 685a ab3a 4290 93be 8f1e 253c
00000010: 7b0e 17be 4d37 073e c826 34be 6d75 fb3d
00000020: bf92 4d3e 0fe5 893d d5a8 d93d 0173 833e
00000030: fe9d ecbd 4880 af3e 83f3 433e 52ba cf3e
00000040: b19f b83d 3a17 8dbe a8f4 a53e 839e 25be
00000050: a65e aa3e 7a99 bc3d 3dd9 f73b 6309 1ebd
00000060: 4d35 0c3e 20a3 88be 6379 8cbe 9793 b5be
00000070: 8619 23bf 82fc 80be 7fe8 fbbe 9137 dcbe
00000080: 05bc a5be fa8e 67be e877 73be 0fd6 25bf
00000090: 45a1 edbe e92d ccbe dda5 f3be 8525 24be
000000a0: d6fb a3be 8348 f4be 514c 9abe eca1 43be
000000b0: 3401 8abe bcf2 06bf c21b 2bbf 8564 54bc
000000c0: d542 abbc 6e4d 58be c112 d9be 3bb6 b5be
000000d0: 4c54 e2bd effb 373e 81ef d13d 97b4 6ebe
000000e0: 49bc e8bd f63d 6c3e 465a 1abe 0bb8 ffbd
000000f0: b4a6 2e3e e486 e5be c20e a1bd 2e18 bf3e
00000100: 6045 7ebe d09d a6be 61a6 0bbf 948e af3d
00000110: c18a e4bd ddde a3be 23f5 e8be 0269 a53e
00000120: 5d93 723e 9d15 073b 1835 c13e

weight f4 [2, 25]
-0.6658972 -0.41729304 -0.6136314 0.6173948 0.585979 -0.64162403 -0.46824962 0.506586
-0.35231337 -0.5320696 0.65298337 -0.56829315 -0.47280216 0.5547397 0.1618727 -0.45813715
-0.58255786 0.68022907 0.14989348 -0.6355981 -0.58377916 0.45672676 0.47610283 -0.6033594
0.32688525 0.29540783 0.6634629 0.53330296 -0.38525638 -0.2977704 0.5176456 0.6031911
-0.48969832 0.39144504 0.2421695 -0.5135824 0.48944375 0.44354862 -0.5340472 -0.41701767
0.5233306 0.5904026 -0.552043 -0.2160077 0.3794977 0.54117274 -0.58798265 -0.41777992
0.5712418 -0.6043773
00000000: 3d78 2abf 6fa7 d5be f316 1dbf 960d 1e3f
00000010: b802 163f 7941 24bf 6abe efbe 9faf 013f
00000020: 6b62 b4be b735 08bf eb29 273f a97b 11bf
00000030: 2013 f2be 6c03 0e3f f5c1 253e f490 eabe
00000040: 8322 15bf 7e23 2e3f ad7d 193e 8fb6 22bf
00000050: 8d72 15bf 17d8 e93e c0c3 f33e c375 1abf
00000060: 815d a73e b23f 973e b4d8 293f 8b86 083f
00000070: 5340 c5be 5d75 98be 6c84 043f bb6a 1a3f
00000080: bdb9 fabe 7c6b c83e 48fb 773e 237a 03bf
00000090: 5f98 fa3e ce18 e33e 51b7 08bf 5783 d5be
000000a0: fff8 053f a024 173f b152 0dbf 1f31 5dbe
000000b0: 864d c23e 4c8a 0a3f 0886 16bf 40e7 d5be
000000c0: e73c 123f 79b8 1abf

bias f4 [2]
0.26800513 -0.2492228
00000000: f837 893e 4334 7fbe

weight f4 [2, 25]
-0.05502522 -0.076630786 0.15570833 -0.032829314 0.18964852 -0.05210586 -0.10410168 0.157438
-0.14229056 -0.14539382 0.10499643 -0.1347124 0.06565313 -0.13899276 0.19318743 0.037458852
0.16478999 -0.19417821 0.052902266 -0.0102826655 0.09867798 -0.058218837 0.19975545 0.19260035
0.0959654 -0.11773787 0.14967908 -0.19446146 0.1070575 0.09924315 0.10279478 0.0572962
0.16442789 -0.11017058 0.14671998 0.07842903 0.005245 0.07913594 -0.01850143 0.16141333
0.0035038441 0.111443356 0.17821966 0.0648893 0.0055179894 -0.014029741 -0.16296963 -0.1562428
0.066727296 0.018586159
00000000: 2062 61bd 9af0 9cbd 0172 1f3e 0878 06bd
00000010: 3933 423e f46c 55bd 4333 d5bd 6d37 213e
00000020: 9eb4 11be 1ee2 14be 5e08 d73d 0cf2 09be
00000030: 2675 863d 1e54 0ebe edd2 453e 746e 193d
00000040: b5be 283e a7d6 46be 0cb0 583d a078 28bc
00000050: ae17 ca3d e076 6ebd b18c 4c3e 0739 453e
00000060: 8289 c43d 8d20 f1bd 7945 193e e820 47be
00000070: f640 db3d fe3f cb3d 1286 d23d 6caf 6a3d
00000080: c95f 283e 1da1 e1bd c33d 163e 669f a03d
00000090: 40de ab3b 0612 a23d 5090 97bc 8949 253e
000000a0: c0a0 653b 6a3c e43d 377f 363e aee4 843d
000000b0: 40d0 b43b 00dd 65bc 83e1 26be 1dfe 1fbe
000000c0: 52a8 883d 0042 983c

bias f4 [2]
0.051803127 -0.18066119
00000000: 842f 543d 3fff 38be

amplitudes f4 [10000, 2]
0.89043987 0.0 0.0016633214 0.0 0.455098 0.0 0.89043987 0.0
0.89043987 0.0 0.89043987 0.0 0.89043987 0.0 0.89043987 0.0
0.89043987 0.0 0.89043987 0.0 0.89043987 0.0 0.89043987 0.0
0.455098 0.0 0.89043987 0.0 0.0016633214 0.0 0.89043987 0.0
0.455098 0.0 0.89043987 0.0 0.455098 0.0 0.89043987 0.0
0.89043987 0.0 0.89043987 0.0 0.89043987 0.0 0.89043987 0.0
0.0016633214 0.0 0.89043987 0.0 0.455098 0.0 0.89043987 0.0
0.89043987 0.0 0.89043987 0.0 0.455098 0.0 0.455098 0.0
0.89043987 0.0 0.89043987 0.0 0.89043987 0.0 0.89043987 0.0
0.89043987 0.0 0.89043987 0.0 0.89043987 0.0 0.0016633214 0.0
0.89043987 0.0 0.89043987 0.0 0.89043987 0.0 0.89043987 0.0
0.455098 0.0 0.89043987 0.0 0.89043987 0.0 0.89043987 0.0
0.89043987 0.0 0.89043987 0.0 0.89043987 0.0 0.0016633214 0.0
0.89043987 0.0 0.89043987 0.0 0.0016633214 0.0 0.455098 0.0
0.89043987 0.0 0.455098 0.0 0.89043987 0.0 0.89043987 0.0
0.89043987 0.0 0.89043987 0.0 0.89043987 0.0 0.455098 0.0
0.89043987 0.0 0.455098 0.0 0.455098 0.0 0.89043987 0.0
0.89043987 0.0 0.89043987 0.0 0.89043987 0.0 0.89043987 0.0
0.89043987 0.0 0.455098 0.0 0.0016633214 0.0 0.0016633214 0.0
0.0016633214 0.0 0.89043987 0.0 0.89043987 0.0 0.89043987 0.0
0.89043987 0.0 0.89043987 0.0 0.89043987 0.0 0.455098 0.0
0.0016633214 0.0 0.89043987 0.0 0.89043987 0.0 0.89043987 0.0
0.89043987 0.0 0.89043987 0.0 0.0016633214 0.0 0.89043987 0.0
0.0016633214 0.0 0.89043987 0.0 0.89043987 0.0 0.89043987 0.0
0.455098 0.0 0.455098 0.0 0.455098 0.0 0.89043987 0.0
0.89043987 0.0 0.89043987 0.0 0.89043987 0.0 0.89043987 0.0
0.455098 0.0 0.455098 0.0 0.455098 0.0 0.455098 0.0
0.455098 0.0 0.89043987 0.0 0.89043987 0.0 0.89043987 0.0
0.89043987 0.0 0.455098 0.0 0.89043987 0.0 0.0016633214 0.0
0.89043987 0.0 0.0016633214 0.0 0.0016633214 0.0 0.89043987 0.0
0.0016633214 0.0 0.89043987 0.0 0.0016633214 0.0 0.89043987 0.0
0.89043987 0.0 0.455098 0.0 0.89043987 0.0 0.89043987 0.0
00000000: def3 633f 0000 0000 ce03 da3a 0000 0000
00000010: 9b02 e93e 0000 0000 def3 633f 0000 0000
00000020: def3 633f 0000 0000 def3 633f 0000 0000
00000030: def3 633f 0000 0000 def3 633f 0000 0000
00000040: def3 633f 0000 0000 def3 633f 0000 0000
00000050: def3 633f 0000 0000 def3 633f 0000 0000
00000060: 9b02 e93e 0000 0000 def3 633f 0000 0000
00000070: ce03 da3a 0000 0000 def3 633f 0000 0000
00000080: 9b02 e93e 0000 0000 def3 633f 0000 0000
00000090: 9b02 e93e 0000 0000 def3 633f 0000 0000
000000a0: def3 633f 0000 0000 def3 633f 0000 0000
000000b0: def3 633f 0000 0000 def3 633f 0000 0000
000000c0: ce03 da3a 0000 0000 def3 633f 0000 0000
000000d0: 9b02 e93e 0000 0000 def3 633f 0000 0000
000000e0: def3 633f 0000 0000 def3 633f 0000 0000
000000f0: 9b02 e93e 0000 0000 9b02 e93e 0000 0000
00000100: def3 633f 0000 0000 def3 633f 0000 0000
00000110: def3 633f 0000 0000 def3 633f 0000 0000
00000120: def3 633f 0000 0000 def3 633f 0000 0000
00000130: def3 633f 0000 0000 ce03 da3a 0000 0000
00000140: def3 633f 0000 0000 def3 633f 0000 0000
00000150: def3 633f 0000 0000 def3 633f 0000 0000
00000160: 9b02 e93e 0000 0000 def3 633f 0000 0000
00000170: def3 633f 0000 0000 def3 633f 0000 0000
00000180: def3 633f 0000 0000 def3 633f 0000 0000
00000190: def3 633f 0000 0000 ce03 da3a 0000 0000
000001a0: def3 633f 0000 0000 def3 633f 0000 0000
000001b0: ce03 da3a 0000 0000 9b02 e93e 0000 0000
000001c0: def3 633f 0000 0000 9b02 e93e 0000 0000
000001d0: def3 633f 0000 0000 def3 633f 0000 0000
000001e0: def3 633f 0000 0000 def3 633f 0000 0000
000001f0: def3 633f 0000 0000 9b02 e93e 0000 0000
00000200: def3 633f 0000 0000 9b02 e93e 0000 0000
00000210: 9b02 e93e 0000 0000 def3 633f 0000 0000
00000220: def3 633f 0000 0000 def3 633f 0000 0000
00000230: def3 633f 0000 0000 def3 633f 0000 0000
00000240: def3 633f 0000 0000 9b02 e93e 0000 0000
00000250: ce03 da3a 0000 0000 ce03 da3a 0000 0000
00000260: ce03 da3a 0000 0000 def3 633f 0000 0000
00000270: def3 633f 0000 0000 def3 633f 0000 0000
00000280: def3 633f 0000 0000 def3 633f 0000 0000
00000290: def3 633f 0000 0000 9b02 e93e 0000 0000
000002a0: ce03 da3a 0000 0000 def3 633f 0000 0000
000002b0: def3 633f 0000 0000 def3 633f 0000 0000
000002c0: def3 633f 0000 0000 def3 633f 0000 0000
000002d0: ce03 da3a 0000 0000 def3 633f 0000 0000
000002e0: ce03 da3a 0000 0000 def3 633f 0000 0000
000002f0: def3 633f 0000 0000 def3 633f 0000 0000
00000300: 9b02 e93e 0000 0000 9b02 e93e 0000 0000
00000310: 9b02 e93e 0000 0000 def3 633f 0000 0000
00000320: def3 633f 0000 0000 def3 633f 0000 0000
00000330: def3 633f 0000 0000 def3 633f 0000 0000
00000340: 9b02 e93e 0000 0000 9b02 e93e 0000 0000
00000350: 9b02 e93e 0000 0000 9b02 e93e 0000 0000
00000360: 9b02 e93e 0000 0000 def3 633f 0000 0000
00000370: def3 633f 0000 0000 def3 633f 0000 0000
00000380: def3 633f 0000 0000 9b02 e93e 0000 0000
00000390: def3 633f 0000 0000 ce03 da3a 0000 0000
000003a0: def3 633f 0000 0000 ce03 da3a 0000 0000
000003b0: ce03 da3a 0000 0000 def3 633f 0000 0000
000003c0: ce03 da3a 0000 0000 def3 633f 0000 0000
000003d0: ce03 da3a 0000 0000 def3 633f 0000 0000
000003e0: def3 633f 0000 0000 9b02 e93e 0000 0000
000003f0: def3 633f 0000 0000 def3 633f 0000 0000
