data/RNN_runs/sweep2_H2/rnn_sto3g_H2_0-7348_eq1_nU25_nL1_lr00025_lrsO_ns1000.pt (torch_old, 68326 bytes, 9 tensors)

weight_ih f4 [75, 2]
00000000: 0d44 edbe f58d 0d3f 7c71 00bf a221 203f
00000010: 469b 9dbe 84d3 f23e 1885 0ebf 7caf c33e
00000020: fd55 04bf 5446 273f c795 41be 5c87 1e3f
00000030: 72d4 aebe 4ec0 9f3e 23ca 6dbe 77b8 f23e
00000040: 8b8a adbe b7a5 ec3e 45bc 5ebe 4abd c43e
00000050: b3e2 143e c53b e53e 5d7d 56be aa0b 5e3f
00000060: b4db 0cbf e39c 243f ef70 5abe 98cf 2d3f
00000070: 68ac 093e 4ece 453e 74cc c13c 3d69 1c3f
00000080: 0309 fabd 3f6f 3b3f 5cef 2bbd 5ee6 583e
00000090: c430 49bd c673 263e e249 09bf 80e6 1a3f
000000a0: 60c5 4dbe fa2c e13e effc 4dbe aca1 4a3f
000000b0: dcad c8be 4798 193f 3f9e d2be 33af ca3e
000000c0: 2be3 25be 0514 233f aaed ccbd 71e2 f6be
000000d0: 380d 3c3e 08df e0be fe41 29be af76 46bf
000000e0: a582 75be 3860 b7be 94bb dc3d 695d 20bf
000000f0: 1918 7abe c4ce d2be 52b8 b5be 4e08 31bf
00000100: a285 81be e6fe 19bf afa6 463e b75f 8cbe
00000110: 9518 333d 2cfd 53be 3246 d2bd e641 fbbe
00000120: 2d22 26bf ed1a 6abf b583 55be 462b 7dbe
00000130: 7ee0 c5bd 96bf 3ebf 4546 7f3d f9af 783d
00000140: 9b81 303d d219 02bf b9f2 94be 7773 31bf
00000150: b01c 22be e8e5 26bf e440 29be da67 12bd
00000160: b1ae 173e 7288 f2be e1ce 8dbe 57c7 ccbe
00000170: 6b7f bcbd 9aa3 e9be 622c 443e 8063 8dbe
00000180: e758 fe3e 3fa3 91be 53d8 903e 07dd 00bf
00000190: 858c 093f 2f0d 29bf 5ff7 ba3e fa2a 17bf
000001a0: 1927 a73e 7946 17bf 1812 bbbe 48ac 303f
000001b0: d2ae abbe c5e2 d03e 25df f03e e567 27bf
000001c0: 35cd eb3e ca65 0dbf 51a1 b4be 21b7 183f
000001d0: cc7a c5bc 24ea fbbd 938d 493e 79ad 263d
000001e0: 32db 97be 407a 263f 61ba 1d3f af43 49bf
000001f0: b895 1f3f 262d e6be b74e 6fbe 5614 143f
00000200: b691 f33a 4aa7 b53d 7850 7b3e ed3b d0be
00000210: 35f0 c63e ff37 46bf 0a62 ccbe 6762 d43e
00000220: 4a22 3c3e 1eac 09be 7143 cf3e 017f 0fbf
00000230: b06e ab3e 287b 15bf b8ad 93be 6d12 403f
00000240: acc3 8ebe c294 603e 88c8 1d3e 8e16 63be
00000250: 4faf f7be 8430 8f3e
-0.4634098 0.55294734 -0.50173163 0.6255132 -0.30782527 0.47427 -0.55671835 0.3821982
-0.5169371 0.6534169 -0.18904792 0.6192529 -0.34146458 0.31201404 -0.2322164 0.4740636
-0.33894762 0.4622018 -0.21751507 0.38425666 0.14539604 0.44772163 -0.2094626 0.8673655
-0.5502274 0.6430189 -0.21332143 0.6789489 0.13444674 0.1931698 0.023657061 0.6109808
-0.1220875 0.73216623 -0.041976318 0.21181628 -0.049118772 0.16255102 -0.5362836 0.60507965
-0.20094824 0.43979627 -0.20116018 0.7915294 -0.39195144 0.5999798 -0.41136357 0.3958679
-0.16199939 0.6370242 -0.10006268 -0.48219636 0.18364418 -0.4392016 -0.1652908 -0.77524847
-0.23975618 -0.35815597 0.10777965 -0.6264253 -0.24423255 -0.41173375 -0.35492188 -0.69153297
-0.25297266 -0.6015457 0.19399522 -0.27416775 0.043724615 -0.20702046 -0.10267295 -0.49073714
-0.648959 -0.91447335 -0.20851023 -0.24723539 -0.09661959 -0.74511087 0.062322874 0.060714696
0.04309235 -0.5082065 -0.29091433 -0.6931681 -0.15831256 -0.6519456 -0.1652866 -0.03574357
0.14812733 -0.47369725 -0.276969 -0.39995834 -0.092039905 -0.4563263 0.19157556 -0.27614975
0.49677202 -0.2844486 0.28290042 -0.5033726 0.5373004 -0.6603574 0.36516854 -0.5904995
0.32647017 -0.5909191 -0.36537242 0.6901288 -0.33531815 0.4079801 0.47045246 -0.65392905
0.46054998 -0.5523344 -0.35279325 0.5965443 -0.024106406 -0.12300518 0.19682913 0.04069278
-0.2965942 0.6503029 0.61612517 -0.786189 0.6233783 -0.4495632 -0.23369871 0.5784353
0.0018582854 0.088697985 0.24542415 -0.4067072 0.38855138 -0.77429193 -0.39918548 0.41481325
0.18372455 -0.13444564 0.4048114 -0.5605317 0.33482885 -0.58391047 -0.28843474 0.75028116
-0.2788366 0.21931747 0.15408528 -0.22176573 -0.48375937 0.27966702

weight_hh f4 [75, 25]
00000000: 4849 abbd 64f7 22be 72af 043e 14bd cb3d
00000010: 4a6a 843e 8a28 a23e ecf6 aa3c 0c7f 0abe
00000020: 065b 07bf ec0c b7be 6c3a 28be 6d50 ef3e
00000030: 5e30 c6be 0ac5 1f3d e156 293f a80d 653e
00000040: 1e3c 5f3e 6316 b33d 4b1d 333f c27b e93d
00000050: 6836 033e 9782 93be ba1b cd3e b124 c6be
00000060: a4e3 813d fb3a 96bd 3b6a 71be 9bd2 473d
00000070: 1263 073e ec4e 043e 8d68 1f3e 8af4 1c3e
00000080: e6b6 12bd a431 f7be a1f9 17bf f464 8dbe
00000090: d885 333e 93bc 3ebd ccf1 dc3b 1442 873e
000000a0: 62b0 ccbd 5324 78bb dbe7 9ebc cfa7 323f
000000b0: c5d0 2cbe 0c08 223d ef40 98bd 1a9b 813e
000000c0: c943 47be e1a1 263e 85ec b3be 5505 b1be
000000d0: cb1b 2bbe c2d4 7b3e ff26 5e3e a98e 47be
000000e0: 108a 5bbe 60dc 493e a3e5 e6be 4c66 ccbe
000000f0: f3ac 5e3d 31f3 febd 941f b7be 71b6 a73d
00000100: 7141 0f3f 34ae aabe 2aba ccbd d699 383e
00000110: e043 ec3e f51c 94be c18e b4be cd44 fe3d
00000120: 3424 153f b0a0 07bf cce4 f63e 3792 7abe
00000130: 9a16 85be 006c 07be c3a2 183e 0b70 6c3e
00000140: 943f 843d e51d eb3c d7df 7cbe f483 a0be
00000150: f573 09bf 15fb 8fbe cbf7 5c3e 1bec 96be
00000160: 6700 89be 56d6 1a3f 164b cc3d a17b 873d
00000170: e9bd 87bd 41ed 103f c678 1c3d fae4 733e
00000180: eb65 4dbe cafd d73e a6bc a3be 5b45 a93e
00000190: 8e17 6a3d a879 74be cd5c 113e 859e 95bd
000001a0: afd6 2a3e 7edd 853c b848 703c 2666 20be
000001b0: ca13 07be f994 5ebe c37f 58be 8446 293d
000001c0: 0e6e a9be 1a96 243e d68e 153f a8fe 873d
000001d0: cf5d 8d3d 773f eb3b 997e 263f 1aaf debd
000001e0: 5da3 b7bd 1bee 073e 5cc6 f83e 81a2 bfbe
000001f0: 300c 033e 1d68 d5be 0f6c babe 6f4b 97be
00000200: cc5b 323e 8b9d 443e b6be 07bc 3d3c bcbe
00000210: 8b43 bc3e 07c4 06bf c7a0 0ebf 3983 7c3e
00000220: d664 f6bb 5f80 e0be 112a 0f3d 615b d93e
00000230: 93f2 febd 8e60 5bbe 5d61 e63e 930c fe3e
00000240: 44cf a1be c075 b9bd b73a 413e 868a f63e
00000250: 2397 bfbe 22a8 d83e a37e 7dbe 3a58 6bbe
00000260: 2df7 3bbd dcfa ab3e 6225 a03e 7684 dcbd
00000270: 3820 5cbe b9f4 ed3c d3da fdbe 8c62 f0be
00000280: 6d4b e13d 0ca1 75bd 6ba8 ffbe d475 c63e
00000290: cfdc d53e feea 73be 6fe3 84be 7b8d 603e
000002a0: 26a6 173f 6065 b1be f585 9fbe 4606 0e3e
000002b0: da33 323f ef1f cebe 43a2 ee3e 7360 e0be
000002c0: ec50 7fbe ee94 23be d662 223e 1e3f bd3e
000002d0: 00be 1dbe 07ad a6be a6ae ae3d 9dff 83be
000002e0: 6abb 07bf 4f6e e93d 0be9 4bbe d924 09bf
000002f0: 4a97 c13e f5b1 1a3f eda2 9dbe a611 2fbd
00000300: 4e84 1c3e 4824 bb3e fbfe fabe 4cf9 b6bd
00000310: 7d66 293e 6288 233f 6f73 9dbe f4d2 d83e
00000320: 2c93 4ebd 7567 98be e111 81bc b488 143e
00000330: 67a6 733e dc12 eebc d75d 96be 618a a43e
00000340: dd7d 5dbe 3fe7 afbe 7a58 8d3e febd febc
00000350: 4f11 b2be daff 353e 6781 d83e 04fc 49bd
00000360: 7184 a3bd 55f5 bb3e 584c 103f 50e9 d2be
00000370: ecb7 8cbd 4888 163e fbf0 b73e 9f02 08be
00000380: 3bd6 0d3e 37cd afbe 03e1 a8be c31e 64be
00000390: 2a2b 213e 8828 c23e 8bf1 12be 300f 22be
000003a0: 4611 b63e 3ecd 90be 6ac2 f7be a463 b53e
000003b0: 84fd b5be c55f f6be a7e5 863e acf5 ad3e
000003c0: 6c3b 60be 497a 98be 4666 5b3e 5462 883e
000003d0: 57a4 95be 8785 dfbe 03f8 d93d 150c ab3e
000003e0: 17ff e4be 042e 7e3e 32a5 57be 0259 0cbf
000003f0: 14bd 09bf b6db 153f e268 bb3e 0312 a9be
-0.08363587 -0.15914685 0.12957552 0.09948173 0.25862342 0.31671554 0.020869695 -0.13525027
-0.52873266 -0.35752046 -0.16428536 0.46741048 -0.38708776 0.03900627 0.6614819 0.2236849
0.21800277 0.08744504 0.6996657 0.11400558 0.12813723 -0.2881057 0.40060216 -0.38699868
0.06342247 -0.073354684 -0.2357568 0.048784833 0.13221386 0.12920731 0.15567227 0.15327659
-0.035818957 -0.4828006 -0.5936528 -0.27616084 0.17531526 -0.046566557 0.0067426916 0.264176
-0.0999458 -0.0037863448 -0.019397667 0.69787306 -0.16876514 0.039558455 -0.0743426 0.25313646
-0.19459452 0.1627269 -0.35141388 -0.3457438 -0.16709821 0.2459288 0.21694563 -0.19488014
-0.21439385 0.19712973 -0.45097074 -0.39921796 0.054364156 -0.12448729 -0.3576628 0.08189095
0.5595923 -0.3333603 -0.099964455 0.18027434 0.46145535 -0.28928342 -0.35265163 0.124154665
0.58258367 -0.52979565 0.48221433 -0.24469839 -0.25993806 -0.13224792 0.14905839 0.23089616
0.06457439 0.028700778 -0.24694763 -0.31350672 -0.5369256 -0.28121248 0.215789 -0.2947701
-0.2675812 0.604833 0.09975259 0.06615377 -0.06628019 0.5661202 0.038201116 0.23817816
-0.2005841 0.42185813 -0.31979865 0.33060727 0.05715137 -0.23874533 0.14195557 -0.07305626
0.16683458 0.016340967 0.014665775 -0.15663967 -0.13191143 -0.21736516 -0.21142487 0.041327015
-0.33091778 0.16072884 0.58421075 0.06640369 0.06902658 0.0071791965 0.6503692 -0.10873242
-0.08966706 0.13274424 0.48588836 -0.37428668 0.12797618 -0.41680995 -0.36410567 -0.2954974
0.1741783 0.19200723 -0.008285215 -0.36764708 0.3677028 -0.52642864 -0.55714077 0.24659432
-0.007519345 -0.4384794 0.034952227 0.4245253 -0.12448611 -0.21423551 0.44996157 0.49618968
-0.31603444 -0.09055662 0.18870054 0.4815256 -0.37419996 0.42315775 -0.2475534 -0.22982875
-0.045890022 0.33589828 0.3127852 -0.107674524 -0.21496665 0.029047357 -0.49581012 -0.46950185
0.110007145 -0.05996804 -0.4993318 0.3876177 0.41770026 -0.23820111 -0.25954768 0.2192897
0.592379 -0.34647655 -0.3115689 0.1386958 0.6961037 -0.40258738 0.4660817 -0.43823585
-0.24933213 -0.15974781 0.15858015 0.36962217 -0.1540451 -0.32553884 0.08529405 -0.25780955
-0.53020346 0.11397993 -0.19913118 -0.5357185 0.37810737 0.6042779 -0.30788365 -0.04274144
0.15284845 0.36551118 -0.4902266 -0.08934268 0.16543002 0.6387998 -0.3075213 0.42348444
-0.050433323 -0.2976643 -0.015755596 0.14505273 0.23793946 -0.029061727 -0.2936847 0.32136825
-0.21630044 -0.34356114 0.27606565 -0.031096455 -0.3477883 0.17773381 0.42286226 -0.049312606
-0.079842456 0.3671061 0.5636649 -0.41193628 -0.06871018 0.14700425 0.3592604 -0.1328225
0.13851254 -0.34336254 -0.3298417 -0.2227736 0.15739122 0.37921548 -0.14349954 -0.15826106
0.35560054 -0.28281587 -0.48390514 0.35427582 -0.3554498 -0.4811994 0.26347086 0.33976495
-0.21897668 -0.29780796 0.21425733 0.26637518 -0.29226944 -0.4365656 0.106430076 0.33407655
-0.44725868 0.24822241 -0.21059111 -0.54823315 -0.53804135 0.5853838 0.36603457 -0.33021554

bias_ih f4 [75]
00000000: dcbc 57bd 3336 a0bd cb4e 82be 1059 4c3c
00000010: 8580 ed3d 62a7 a6bd 8ee1 34be 0c3e 493e
00000020: c5c5 793d 02fa 703e 945b 1f3e 4951 8b3e
00000030: d781 f6bd 193e c03e be07 953e 31c0 ef3d
00000040: 9f05 4d3e 15a2 863d 9ed5 7d3e b2d0 94bd
00000050: ea79 923e f24b 863e 5c88 68bd 08b7 1abe
00000060: 0aea 10bd 8ba6 f4be 0b71 c9be 2bfb b4be
00000070: 5b5f 0fbf 63eb 85be bf92 2abf 75d4 21bf
00000080: c620 44bf bec3 e8bd d04e c2bd 175e 3ebf
00000090: b01f 20bf a1a4 a4be edcd 20bf 8ae9 5ebd
000000a0: 1432 12bf 8151 10bf eb45 17bf e268 4fbd
000000b0: b755 f8be 389d 37bf eee3 dabe 5491 60be
000000c0: 74f6 a7be 49e7 2cbe 01db 26be 0e11 0abe
000000d0: 0713 e8be 0665 0e3e ba8f a63e a88d c9be
000000e0: 6ffc e8be c910 ee3e 9618 09be 7062 9dbd
000000f0: 8afd 003f 6f65 c3be a0a2 0abe 10b9 7e3e
00000100: cb0b 6e3d 9fa7 a3be fc46 31be 593b 0a3f
00000110: e770 acbb 0032 6cbe 27b6 aebe eba4 463e
00000120: 9034 4fbd f15b febd 641f a43e
-0.052670345 -0.07822838 -0.2545074 0.012472406 0.11596779 -0.081373945 -0.17664167 0.19652575
0.060979623 0.2353287 0.15562278 0.27210453 -0.12036484 0.37547377 0.2910747 0.117065795
0.20021676 0.065738834 0.2478852 -0.07266368 0.28608638 0.26229817 -0.056770667 -0.15108883
-0.035379447 -0.47783312 -0.39344057 -0.35347876 -0.56004876 -0.26156148 -0.66630167 -0.6321481
-0.7661251 -0.1136546 -0.094876885 -0.7436232 -0.6254835 -0.32156852 -0.6281422 -0.05442194
-0.57107663 -0.56374365 -0.5909106 -0.050637133 -0.48502895 -0.7172427 -0.42752022 -0.21930438
-0.32805216 -0.16885103 -0.16294481 -0.13483068 -0.45327017 0.13905725 0.3253153 -0.39365888
-0.45505092 0.4649718 -0.13388285 -0.07684791 0.5038687 -0.38163325 -0.13538599 0.24875283
0.058116715 -0.31963822 -0.17312235 0.5399681 -0.0052624824 -0.23065948 -0.34123346 0.19398849
-0.050587237 -0.1241988 0.320552

bias_hh f4 [75]
00000000: 4578 1e3e f088 8a3d a546 83be c3c9 a53d
00000010: 5156 aebd 5acb 103e e683 16be 36d6 d43d
00000020: fa1e 563e b681 ab3d 5288 f43d 8e67 423e
00000030: f527 f8bd 2005 bb3e c067 673e 9e4f c43e
00000040: 42df c03d 56bb 6fbe cf76 463e 04e1 d7bd
00000050: 4e23 a03e 60f6 d03d 456e 9a3d f185 c4bd
00000060: f562 373e c047 aabe 5efa a3be a2c6 edbe
00000070: 10e5 2fbf 4858 84be 73dd 21bf 591f 07bf
00000080: bd01 dfbe f216 80be 08a3 77be 9232 4cbf
00000090: b67e 22bf 2416 abbe 4558 0fbf 7688 84bd
000000a0: adc9 bbbe 5a70 22bf 8cf4 b8be cef9 aebd
000000b0: 1b7f a7be 7c3b 23bf c1a6 45bf d8e6 f3bc
000000c0: e90b 9abc 38a4 6ebe e8aa e8be e710 c6be
000000d0: 015f 27be 4457 563e 790f ed3d ef55 85be
000000e0: 8c9c 1ebe 2171 7c3e 123e 37be 1252 17be
000000f0: f277 273e c2cc 01bf 946e c7bd db8a da3e
00000100: 7b1d 48be ad79 bdbe b18c 1abf a72d 053e
00000110: 710c 12bd abd7 b8be 06f7 03bf b049 bb3e
00000120: 4f5a 513e 79f5 463b d9b5 aa3e
0.15475567 0.067644 -0.25639835 0.080951236 -0.08512557 0.14140072 -0.14698753 0.1039242
0.20910254 0.0837435 0.119400635 0.18984815 -0.12116996 0.36527348 0.22598171 0.38341993
0.09417583 -0.23411307 0.1938126 -0.10540965 0.31276935 0.10203242 0.075405635 -0.0959586
0.17908843 -0.33257866 -0.32026953 -0.46440607 -0.68708897 -0.25848603 -0.6322853 -0.5278221
-0.43556014 -0.25017506 -0.24183285 -0.79764664 -0.63474596 -0.3341533 -0.55994064 -0.0647134
-0.36677304 -0.63452685 -0.36124074 -0.0854374 -0.3271416 -0.6376264 -0.7720757 -0.02977316
-0.018804507 -0.23304832 -0.4544289 -0.3868477 -0.16344835 0.20931727 0.11575217 -0.26042125
-0.15489405 0.2465253 -0.17894772 -0.14777401 0.1635435 -0.5070306 -0.09737888 0.42684063
-0.19542496 -0.37006894 -0.6037093 0.13005696 -0.035656396 -0.36102042 -0.515488 0.36579657
0.20444606 0.0030358715 0.33341864

weight f4 [2, 25]
00000000: dea3 4abf 3c8a 06bf 902b 3bbf b92a 3c3f
00000010: f64a 2b3f 4579 46bf 5303 18bf 81bb 203f
00000020: 094f dabe 954c 15bf 3acc 493f 2a0f 39bf
00000030: f00a 18bf cdf6 2b3f f66f 733e 1e33 0fbf
00000040: 78f4 37bf 6a25 463f b0ad 7e3e 0201 3fbf
00000050: 234a 34bf 7769 143f d8f7 0d3f 09c3 29bf
00000060: d2f0 d73e c596 d73e 288f 453f 379b 263f
00000070: 25bd 00bf 3206 c3be 2ebc 263f fb8e 3a3f
00000080: a668 1cbf 2458 ee3e 292c 963e 681c 26bf
00000090: 80df 243f c68d 103f aeaa 26bf a25a fcbe
000000a0: a5e3 1f3f 93f6 393f a654 25bf 8d30 a1be
000000b0: 9fe2 fa3e eb61 293f 7c03 36bf 1f13 febe
000000c0: 258a 213f 2402 33bf
-0.7915629 -0.5255468 -0.73113346 0.7350269 0.66911256 -0.7752879 -0.5938007 0.6278611
-0.42638424 -0.5831998 0.7882725 -0.72288764 -0.5939169 0.67173463 0.23773178 -0.55937374
-0.71857405 0.7740084 0.24870944 -0.7461091 -0.70425624 0.57973427 0.55456305 -0.66313225
0.4217592 0.42107216 0.77171564 0.6508059 -0.5028861 -0.38090664 0.6513089 0.7287442
-0.6109718 0.4655162 0.29330567 -0.64887094 0.64403534 0.5646633 -0.65104187 -0.49287897
0.62456733 0.7264187 -0.6458229 -0.31482354 0.49001023 0.66165036 -0.71099067 -0.49623963
0.63101417 -0.6992514

bias f4 [2]
00000000: 9849 cc3e d0ab c2be
0.39899898 -0.38021708

weight f4 [2, 25]
00000000: 2062 61bd 9af0 9cbd 0172 1f3e 0878 06bd
00000010: 3933 423e f46c 55bd 4333 d5bd 6d37 213e
00000020: 9eb4 11be 1ee2 14be 5e08 d73d 0cf2 09be
00000030: 2675 863d 1e54 0ebe edd2 453e 746e 193d
00000040: b5be 283e a7d6 46be 0cb0 583d a078 28bc
00000050: ae17 ca3d e076 6ebd b18c 4c3e 0739 453e
00000060: 8289 c43d 8d20 f1bd 7945 193e e820 47be
00000070: f640 db3d fe3f cb3d 1286 d23d 6caf 6a3d
00000080: c95f 283e 1da1 e1bd c33d 163e 669f a03d
00000090: 40de ab3b 0612 a23d 5090 97bc 8949 253e
000000a0: c0a0 653b 6a3c e43d 377f 363e aee4 843d
000000b0: 40d0 b43b 00dd 65bc 83e1 26be 1dfe 1fbe
000000c0: 52a8 883d 0042 983c
-0.05502522 -0.076630786 0.15570833 -0.032829314 0.18964852 -0.05210586 -0.10410168 0.157438
-0.14229056 -0.14539382 0.10499643 -0.1347124 0.06565313 -0.13899276 0.19318743 0.037458852
0.16478999 -0.19417821 0.052902266 -0.0102826655 0.09867798 -0.058218837 0.19975545 0.19260035
0.0959654 -0.11773787 0.14967908 -0.19446146 0.1070575 0.09924315 0.10279478 0.0572962
0.16442789 -0.11017058 0.14671998 0.07842903 0.005245 0.07913594 -0.01850143 0.16141333
0.0035038441 0.111443356 0.17821966 0.0648893 0.0055179894 -0.014029741 -0.16296963 -0.1562428
0.066727296 0.018586159

bias f4 [2]
00000000: 842f 543d 3fff 38be
0.051803127 -0.18066119

amplitudes f4 [1000, 2]
00000000: 0e1f 463f 0000 0000 ae70 1b39 0000 0000
00000010: 8e1f 223f 0000 0000 ae70 1b39 0000 0000
00000020: 8e1f 223f 0000 0000 0e1f 463f 0000 0000
00000030: 0e1f 463f 0000 0000 8e1f 223f 0000 0000
00000040: ae70 1b39 0000 0000 8e1f 223f 0000 0000
00000050: ae70 1b39 0000 0000 8e1f 223f 0000 0000
00000060: 0e1f 463f 0000 0000 8e1f 223f 0000 0000
00000070: 8e1f 223f 0000 0000 8e1f 223f 0000 0000
00000080: 0e1f 463f 0000 0000 0e1f 463f 0000 0000
00000090: 8e1f 223f 0000 0000 8e1f 223f 0000 0000
000000a0: 8e1f 223f 0000 0000 0e1f 463f 0000 0000
000000b0: 8e1f 223f 0000 0000 8e1f 223f 0000 0000
000000c0: 0e1f 463f 0000 0000 8e1f 223f 0000 0000
000000d0: 8e1f 223f 0000 0000 0e1f 463f 0000 0000
000000e0: 0e1f 463f 0000 0000 0e1f 463f 0000 0000
000000f0: 8e1f 223f 0000 0000 0e1f 463f 0000 0000
00000100: ae70 1b39 0000 0000 8e1f 223f 0000 0000
00000110: 0e1f 463f 0000 0000 0e1f 463f 0000 0000
00000120: 0e1f 463f 0000 0000 0e1f 463f 0000 0000
00000130: ae70 1b39 0000 0000 0e1f 463f 0000 0000
00000140: 8e1f 223f 0000 0000 0e1f 463f 0000 0000
00000150: 0e1f 463f 0000 0000 8e1f 223f 0000 0000
00000160: 8e1f 223f 0000 0000 8e1f 223f 0000 0000
00000170: 0e1f 463f 0000 0000 0e1f 463f 0000 0000
00000180: 0e1f 463f 0000 0000 8e1f 223f 0000 0000
00000190: 8e1f 223f 0000 0000 8e1f 223f 0000 0000
000001a0: ae70 1b39 0000 0000 0e1f 463f 0000 0000
000001b0: 0e1f 463f 0000 0000 ae70 1b39 0000 0000
000001c0: 8e1f 223f 0000 0000 0e1f 463f 0000 0000
000001d0: 0e1f 463f 0000 0000 0e1f 463f 0000 0000
000001e0: 8e1f 223f 0000 0000 0e1f 463f 0000 0000
000001f0: ae70 1b39 0000 0000 0e1f 463f 0000 0000
00000200: 0e1f 463f 0000 0000 8e1f 223f 0000 0000
00000210: 8e1f 223f 0000 0000 0e1f 463f 0000 0000
00000220: 0e1f 463f 0000 0000 0e1f 463f 0000 0000
00000230: 0e1f 463f 0000 0000 ae70 1b39 0000 0000
00000240: 8e1f 223f 0000 0000 ae70 1b39 0000 0000
00000250: 0e1f 463f 0000 0000 ae70 1b39 0000 0000
00000260: 0e1f 463f 0000 0000 0e1f 463f 0000 0000
00000270: 0e1f 463f 0000 0000 0e1f 463f 0000 0000
00000280: 0e1f 463f 0000 0000 0e1f 463f 0000 0000
00000290: 0e1f 463f 0000 0000 ae70 1b39 0000 0000
000002a0: 8e1f 223f 0000 0000 0e1f 463f 0000 0000
000002b0: 0e1f 463f 0000 0000 0e1f 463f 0000 0000
000002c0: 8e1f 223f 0000 0000 ae70 1b39 0000 0000
000002d0: 0e1f 463f 0000 0000 0e1f 463f 0000 0000
000002e0: 0e1f 463f 0000 0000 8e1f 223f 0000 0000
000002f0: 0e1f 463f 0000 0000 0e1f 463f 0000 0000
00000300: 8e1f 223f 0000 0000 0e1f 463f 0000 0000
00000310: 8e1f 223f 0000 0000 0e1f 463f 0000 0000
00000320: 0e1f 463f 0000 0000 8e1f 223f 0000 0000
00000330: 8e1f 223f 0000 0000 0e1f 463f 0000 0000
00000340: 0e1f 463f 0000 0000 0e1f 463f 0000 0000
00000350: 8e1f 223f 0000 0000 8e1f 223f 0000 0000
00000360: 0e1f 463f 0000 0000 0e1f 463f 0000 0000
00000370: 8e1f 223f 0000 0000 0e1f 463f 0000 0000
00000380: 8e1f 223f 0000 0000 0e1f 463f 0000 0000
00000390: 0e1f 463f 0000 0000 0e1f 463f 0000 0000
000003a0: 0e1f 463f 0000 0000 8e1f 223f 0000 0000
000003b0: 8e1f 223f 0000 0000 0e1f 463f 0000 0000
000003c0: 8e1f 223f 0000 0000 0e1f 463f 0000 0000
000003d0: 0e1f 463f 0000 0000 0e1f 463f 0000 0000
000003e0: 0e1f 463f 0000 0000 8e1f 223f 0000 0000
000003f0: 8e1f 223f 0000 0000 0e1f 463f 0000 0000
0.77391136 0.0 0.00014823928 0.0 0.633294 0.0 0.00014823928 0.0
0.633294 0.0 0.77391136 0.0 0.77391136 0.0 0.633294 0.0
0.00014823928 0.0 0.633294 0.0 0.00014823928 0.0 0.633294 0.0
0.77391136 0.0 0.633294 0.0 0.633294 0.0 0.633294 0.0
0.77391136 0.0 0.77391136 0.0 0.633294 0.0 0.633294 0.0
0.633294 0.0 0.77391136 0.0 0.633294 0.0 0.633294 0.0
0.77391136 0.0 0.633294 0.0 0.633294 0.0 0.77391136 0.0
0.77391136 0.0 0.77391136 0.0 0.633294 0.0 0.77391136 0.0
0.00014823928 0.0 0.633294 0.0 0.77391136 0.0 0.77391136 0.0
0.77391136 0.0 0.77391136 0.0 0.00014823928 0.0 0.77391136 0.0
0.633294 0.0 0.77391136 0.0 0.77391136 0.0 0.633294 0.0
0.633294 0.0 0.633294 0.0 0.77391136 0.0 0.77391136 0.0
0.77391136 0.0 0.633294 0.0 0.633294 0.0 0.633294 0.0
0.00014823928 0.0 0.77391136 0.0 0.77391136 0.0 0.00014823928 0.0
0.633294 0.0 0.77391136 0.0 0.77391136 0.0 0.77391136 0.0
0.633294 0.0 0.77391136 0.0 0.00014823928 0.0 0.77391136 0.0
0.77391136 0.0 0.633294 0.0 0.633294 0.0 0.77391136 0.0
0.77391136 0.0 0.77391136 0.0 0.77391136 0.0 0.00014823928 0.0
0.633294 0.0 0.00014823928 0.0 0.77391136 0.0 0.00014823928 0.0
0.77391136 0.0 0.77391136 0.0 0.77391136 0.0 0.77391136 0.0
0.77391136 0.0 0.77391136 0.0 0.77391136 0.0 0.00014823928 0.0
0.633294 0.0 0.77391136 0.0 0.77391136 0.0 0.77391136 0.0
0.633294 0.0 0.00014823928 0.0 0.77391136 0.0 0.77391136 0.0
0.77391136 0.0 0.633294 0.0 0.77391136 0.0 0.77391136 0.0
0.633294 0.0 0.77391136 0.0 0.633294 0.0 0.77391136 0.0
0.77391136 0.0 0.633294 0.0 0.633294 0.0 0.77391136 0.0
0.77391136 0.0 0.77391136 0.0 0.633294 0.0 0.633294 0.0
0.77391136 0.0 0.77391136 0.0 0.633294 0.0 0.77391136 0.0
0.633294 0.0 0.77391136 0.0 0.77391136 0.0 0.77391136 0.0
0.77391136 0.0 0.633294 0.0 0.633294 0.0 0.77391136 0.0
0.633294 0.0 0.77391136 0.0 0.77391136 0.0 0.77391136 0.0
0.77391136 0.0 0.633294 0.0 0.633294 0.0 0.77391136 0.0
