data/RNN_runs/sweep2_H2/rnn_sto3g_H2_0-7348_eq1_nU50_nL2_lr00025_lrsC_ns1000.pt (torch_old, 154327 bytes, 13 tensors)

weight_ih f4 [150, 2]
0	0xbe2779f6	-0.16355118
1	0x3e5adc49	0.21373095
2	0xbd8def43	-0.06930401
3	0x3e659849	0.22421373
4	0xbdc29072	-0.09500207
5	0x3eb0c5e4	0.3452598
6	0xbe064f99	-0.13116302
7	0x3e3ebd97	0.1862701
8	0xbe1bf80a	-0.15231338
9	0x3e800bbe	0.2500896
10	0xbe297d65	-0.1655174
11	0x3dc005a6	0.09376077
12	0xbe701dc0	-0.23448849
13	0x3e0f2e43	0.13982491
14	0x3b1949c3	0.0023389913
15	0x3e04ad3a	0.12956706
16	0xbe30b66b	-0.17257087
17	0x3e85927d	0.26088324
18	0xbe0bebc8	-0.13664162
19	0x3e8fd0b9	0.2808893
20	0xbc646cc8	-0.013941951
21	0x3e973b41	0.29537395
22	0x3d9551d8	0.07291001
23	0x3eae04b3	0.3398796
24	0xbe3bab45	-0.18327053
25	0x3e9210d1	0.28528455
26	0xbe3818ab	-0.1797816
27	0x3e23e5fd	0.16005702
28	0x3bcc0dc5	0.0062272274
29	0x3e03efcb	0.12884443
30	0x3cf38bad	0.029729689
31	0x3e916f21	0.28405097
32	0xbd709147	-0.058732297
33	0x3e90a6d9	0.28252295
34	0x3e8d60d3	0.27612934
35	0xbe5190f0	-0.20465446
36	0xbe78079e	-0.24221656
37	0x3e3bbd2b	0.1833388
38	0x3d28fd7c	0.041257367
39	0x3c6311ee	0.013859255
40	0xbddea17d	-0.10870645
41	0x3e2afbef	0.16697668
42	0xbdd8bf0c	-0.10583314
43	0x3eb17296	0.34657735
44	0xbdcca66d	-0.09992681
45	0x3e3eec8b	0.18644921
46	0xbbc29c63	-0.005939053
47	0x3e95ae6d	0.2923464
48	0x3d3afd5b	0.045651775
49	0x3ea4eab5	0.32210317
50	0x3e8b52a1	0.27211478
51	0xbd922cc3	-0.07137444
52	0x3d0eafd2	0.034835644
53	0x3df8bc10	0.12145245
54	0xbe0ee008	-0.13952649
55	0xbda0a2a8	-0.07843524
56	0xbe35a122	-0.17737249
57	0x3ecee431	0.4040847
58	0xbddb3251	-0.107029565
59	0x3e1ef24d	0.15522118
60	0xbd822fe5	-0.063567914
61	0x3e155455	0.14582951
62	0xbaf5b959	-0.0018747255
63	0xbdbb3386	-0.09140687
64	0xbe13ccb1	-0.14433552
65	0x3e66b375	0.22529395
66	0xbde26759	-0.11054868
67	0x3d635b76	0.055507146
68	0x3cad7d61	0.02117795
69	0x3ea36222	0.31910807
70	0x3b765c61	0.0037591683
71	0x3e4299b5	0.19003947
72	0xbe3c9bd2	-0.18418816
73	0x3e0bb5b4	0.13643533
74	0x3cf43394	0.02980975
75	0x3e880304	0.265648
76	0xbcad51fb	-0.021157255
77	0xbe309128	-0.17242873
78	0xbdff65ea	-0.124706104
79	0x3eb31307	0.34975454
80	0x3cae463b	0.021273723
81	0x3e808e30	0.2510848
82	0xbdc6fe2b	-0.097164474
83	0x3e8893e8	0.26675344
84	0xbe3aac0c	-0.18229693
85	0x3e2e238f	0.17005752
86	0x3d48ff4e	0.049071603
87	0x3e7f00ec	0.24902695
88	0xbd7f938a	-0.062396564
89	0x3e9f29de	0.3108663
90	0xbe721cc0	-0.2364378
91	0x3ed2cf4e	0.41173786
92	0xbdacd25a	-0.08438559
93	0x3eab449d	0.33450785
94	0x3de4ccbf	0.11171865
95	0xbe49e70e	-0.19717047
96	0x3d1d751b	0.03844176
97	0x3e9f0f8b	0.31066546
98	0x3e866005	0.26245132
99	0x3c496a7b	0.012293453
100	0x3e5ee368	0.21766436
101	0xbe97278c	-0.2952236
102	0x3c3e391e	0.0116102975
103	0xbe762456	-0.24037299
104	0xbd46b186	-0.048509143
105	0xbe761408	-0.24031079
106	0x3dcf2476	0.10114376
107	0xbdac814a	-0.084230974
108	0x3e0a87c7	0.13528357
109	0xbe3b33de	-0.18281505
110	0x3df109d8	0.11769456
111	0xbe991dd7	-0.29905578
112	0x3e09771a	0.1342434
113	0xbe5e3d5e	-0.21703097
114	0xbd97944f	-0.074013345
115	0xbe0469e6	-0.12931022
116	0xbd2a909a	-0.04164181
117	0xbde2e4e2	-0.11078812
118	0x3e1b58cb	0.1517059
119	0xbd9c4718	-0.076307476
120	0x3ca34fa8	0.019935444
121	0xbe2a4600	-0.16628265
122	0x3dfa5e39	0.12225003
123	0xbe704575	-0.23463996
124	0x3d927fff	0.071533196
125	0xbe91dd74	-0.28489268
126	0x3e201ddb	0.15636389
127	0xbe2164cb	-0.15761106
128	0x3c984a08	0.018589988
129	0xbdc3d786	-0.09562592
130	0x3d2cb6e3	0.042166602
131	0xbe23a131	-0.15979458
132	0xbd25ebcf	-0.040508088
133	0xbea2c8e8	-0.31793904
134	0xbe4dece4	-0.20109898
135	0xbecaea4c	-0.3963188
136	0x3da7d42b	0.08194765
137	0xbe573027	-0.21014462
138	0xbdf6bae0	-0.12047362
139	0xbe7f9abc	-0.2496137
140	0x3db5c488	0.08875376
141	0xbe7be367	-0.24598466
142	0x3e0bb3fb	0.13642876
143	0xbd81c265	-0.06335906
144	0x3df33fef	0.11877429
145	0xbe857f0b	-0.2607349
146	0xbdc62603	-0.09675219
147	0xbe3c547a	-0.183916
148	0xbc8f9b01	-0.017529966
149	0xbe9adb1c	-0.30245292
150	0xbe9f6e71	-0.31138948
151	0xbea0e7eb	-0.3142694
152	0xbe3da8d9	-0.18521442
153	0xbe214c91	-0.15751864
154	0x3e246c30	0.16056895
155	0xbdc7d8a1	-0.097581156
156	0xbe7a36b7	-0.24434935
157	0xbe717661	-0.23580314
158	0xbd635f00	-0.05551052
159	0xbe1d8615	-0.1538318
160	0x3dd826a1	0.10554243
161	0xbdc1b376	-0.094580576
162	0xbe680aba	-0.22660342
163	0x3dff7a87	0.12474542
164	0x3e5c11f6	0.21491227
165	0xbd918628	-0.071056664
166	0x3dc2fb69	0.09520609
167	0xbda17311	-0.07883275
168	0xbd6b1978	-0.057397336
169	0xbea1eeee	-0.316276
170	0xbc944ebf	-0.018103955
171	0xbe9adae3	-0.30245122
172	0x3db2e569	0.08735163
173	0xbe4fbc39	-0.20286645
174	0xbe33aae0	-0.17545652
175	0xbea048db	-0.31305584
176	0xbd1cf5b1	-0.038320247
177	0xbe80f6d3	-0.25188312
178	0x3e5bda36	0.2146996
179	0xbe465619	-0.19368781
180	0xbe33682e	-0.1752021
181	0xbe4106c0	-0.18850231
182	0xbd85371d	-0.06504653
183	0xbeaeb149	-0.34119633
184	0xbc468912	-0.012117641
185	0xbe6d8b45	-0.23197658
186	0xbe5521e1	-0.20813705
187	0xbe476144	-0.19470698
188	0xbd80b403	-0.062843345
189	0xbeb3dced	-0.3512949
190	0xbe4fa577	-0.20277964
191	0xbeb7b44d	-0.35879746
192	0xbd1860ce	-0.037201695
193	0xbdee0c77	-0.11623471
194	0xbe9194d7	-0.28433868
195	0xbea4b0ea	-0.32166225
196	0x3e173edf	0.14770077
197	0xbe944c02	-0.2896424
198	0xbce3a08e	-0.02778652
199	0x3c85d564	0.016337104
200	0x3d88b426	0.066749856
201	0xbe23cd75	-0.15996344
202	0x3d1483b8	0.03625843
203	0x3ce0b880	0.027431726
204	0xbe0427b6	-0.12905774
205	0xbe3326cd	-0.1749527
206	0x3e13b02a	0.1442267
207	0xbe45a0a0	-0.19299555
208	0x3d192d10	0.03739649
209	0xbd5c0a26	-0.053720616
210	0xbe2ce831	-0.16885449
211	0x3e43f7c1	0.1913748
212	0x3e3bbad3	0.18332987
213	0xbe8fbbc6	-0.28072947
214	0x3da69a54	0.081349045
215	0x3d2e60e2	0.042572863
216	0xb9b032be	-0.00033607142
217	0xbd2eed86	-0.04270699
218	0xbdcaf842	-0.09910633
219	0x3e46a330	0.19398189
220	0x3b91d25b	0.004450125
221	0xbe8fb972	-0.2807117
222	0x3d9a8935	0.075457014
223	0x3de5189d	0.11186335
224	0x3e5b73e5	0.21430929
225	0xbeacf3ba	-0.337797
226	0x3d5ba4dd	0.053624023
227	0xbe8d8943	-0.27643785
228	0x3e3a10b8	0.1817044
229	0xbe375d72	-0.1790674
230	0xbdf43d7e	-0.11925791
231	0x3e237e2b	0.15966098
232	0xbe732c77	-0.2374743
233	0x3e72a07d	0.23694034
234	0x3e26e20f	0.16297172
235	0xbeb107fe	-0.3457641
236	0x3e38db03	0.18052296
237	0xbe41b1f1	-0.18915536
238	0xbe84858f	-0.25883147
239	0x3e32e161	0.17468788
240	0xbc039a0b	-0.008032332
241	0x3e1a9c62	0.15098718
242	0xbbfea240	-0.0077708066
243	0xbe26ab7c	-0.16276354
244	0x3b1e2292	0.0024129492
245	0x3e8b39e7	0.27192613
246	0xbdfa0818	-0.12208575
247	0xbe6b2695	-0.22963937
248	0x3cfd6c52	0.03093544
249	0x3e782c27	0.24235593
250	0x3e9302fe	0.2871322
251	0xbea5ac2e	-0.32357925
252	0x3e9fe6f8	0.31230903
253	0xbeb49bdf	-0.3527517
254	0xbde026b1	-0.1094488
255	0x3e3d0c2a	0.18461671

weight_hh f4 [150, 50]
0	0xbd906e0c	-0.0705224
1	0x3e4f91a0	0.20270395
2	0x3d2be4f2	0.041966386
3	0xbce0f96c	-0.027462684
4	0xbe1a5ebd	-0.15075202
5	0x3de4ecd3	0.11177983
6	0xbd8e3c1f	-0.06945061
7	0x3c4dcebf	0.012561499
8	0x3deec738	0.11659092
9	0x3e092352	0.1339238
10	0xbdbaa956	-0.091143295
11	0x3e1852a4	0.14875275
12	0xbe10a04a	-0.14123645
13	0x3cb171e9	0.021660762
14	0xbe0be297	-0.13660656
15	0x3dcb3349	0.09921891
16	0xbc84a14a	-0.01619019
17	0x3dd54d2a	0.104151085
18	0xbca9d290	-0.020730287
19	0xbe572aac	-0.21012372
20	0xbbf52eea	-0.007482399
21	0xbe119af4	-0.14219266
22	0x3e65abca	0.22428814
23	0xba5ba401	-0.00083786255
24	0x3e2762cb	0.1634628
25	0x3db1b3aa	0.08676846
26	0x3d6f0193	0.05835111
27	0x3df7576b	0.120772205
28	0xbdd39f30	-0.10333097
29	0x3da265e7	0.079295926
30	0xbd714115	-0.058899958
31	0xbe56953b	-0.20955364
32	0xbe44374e	-0.19161722
33	0x3e623a2e	0.22092506
34	0x3e2f6577	0.1712855
35	0x3d8d31e6	0.06894283
36	0x3b276d14	0.0025547193
37	0xbe02ad84	-0.12761503
38	0x3d8c0955	0.068377174
39	0x3ae2075f	0.0017244628
40	0xbcd78285	-0.026307354
41	0x3d0aea76	0.033915006
42	0xbc5a7b08	-0.013334997
43	0x3d69404f	0.056946095
44	0xbdc91f75	-0.09820453
45	0x3bb04e9d	0.005380465
46	0xbdf25ba7	-0.118338875
47	0xbdb26219	-0.08710117
48	0x3d795d94	0.06088026
49	0x3e24afd7	0.16082703
50	0xbd085228	-0.033281475
51	0x3e0a5851	0.13510253
52	0xbd117195	-0.03550871
53	0xbe68a6d0	-0.22719884
54	0xbe4026dd	-0.18764825
55	0x3e81bcd1	0.25339368
56	0xbe678d32	-0.22612455
57	0x3e8cd984	0.275097
58	0x3e0746a2	0.13210538
59	0x3e1e6d96	0.15471491
60	0xbd357bdc	-0.044307575
61	0x3e8a443b	0.2700518
62	0xbe59238c	-0.21204966
63	0xbe1faa2d	-0.1559226
64	0xbe15992d	-0.14609213
65	0x3e8b9319	0.27260664
66	0x3e6d234b	0.23157994
67	0x3dbe7f8f	0.093016736
68	0xbda1df76	-0.0790395
69	0xbe69305c	-0.22772354
70	0x3e82ec32	0.25570828
71	0xbe4c713c	-0.1996507
72	0x3e90ef16	0.28307408
73	0xbd91f4eb	-0.071267925
74	0x3d9bfaa2	0.07616164
75	0x3da178f2	0.078843966
76	0xbdfa28a3	-0.12214782
77	0x3e51a974	0.20474797
78	0xbe8bd57a	-0.27311307
79	0x3e2f8c19	0.17143287
80	0xbdba5aea	-0.09099372
81	0xbdb39881	-0.08769322
82	0xbdd115e4	-0.102092534
83	0x3e427e67	0.18993531
84	0x3d1d947c	0.038471684
85	0x3e804546	0.2505285
86	0x3d5f7190	0.05455166
87	0xbe722845	-0.23648174
88	0xbe1d6695	-0.15371163
89	0xbddda699	-0.108227916
90	0xbd528510	-0.05139643
91	0xbe30f796	-0.17281947
92	0x3da0808f	0.078370206
93	0x3e2c101e	0.16803023
94	0x3e4e390b	0.20138948
95	0xbe6d3656	-0.23165259
96	0xbe901603	-0.28141794
97	0xbd12aff4	-0.035812333
98	0xbe7e1b06	-0.24814996
99	0x3dbb76ed	0.09153543
100	0xbcc20969	-0.023686128
101	0x3d816cae	0.06319557
102	0xbe8506b0	-0.25981665
103	0xbd1d8526	-0.03845706
104	0xbe647ddf	-0.22313641
105	0x3e1ec91b	0.15506403
106	0x3adbba82	0.0016763958
107	0x3dc71038	0.0971989
108	0x3e4c38cb	0.1994354
109	0x3e83402c	0.25634897
110	0xbd359534	-0.044331744
111	0x3e4519c0	0.19248104
112	0xbe50f56a	-0.20406118
113	0xbd88fb72	-0.066885844
114	0xbe7b9d66	-0.24571761
115	0x3d78c1ba	0.060731627
116	0x3d8fcc0e	0.07021342
117	0x3d4b1e8b	0.049589675
118	0xbe07874d	-0.13235207
119	0x3c46ce09	0.012134084
120	0x3e770bfa	0.24125662
121	0xbe0fac59	-0.14030589
122	0x3e745e93	0.23864202
123	0xbe7ee6ab	-0.2489268
124	0x3c268de7	0.010165668
125	0xbd07e9e3	-0.033182036
126	0xbd4fe46c	-0.05075495
127	0x3e8fd80b	0.28094515
128	0xbe29b122	-0.16571477
129	0x3e6bdd71	0.23033692
130	0xbe814972	-0.25251347
131	0xbe20ac28	-0.15690672
132	0xbe244e42	-0.16045478
133	0x3de7aedc	0.11312649
134	0x3dba0cde	0.090844855
135	0x3e573a40	0.21018314
136	0x3e0fcb05	0.1404229
137	0xbe2bdb70	-0.16782928
138	0xbd31bf38	-0.04339525
139	0xbe7ada68	-0.24497378
140	0xbce137b9	-0.027492391
141	0xbc604f10	-0.013690725
142	0x3d4ef43d	0.050525893
143	0x3d08882e	0.033332996
144	0x3e243f37	0.1603974
145	0xbe7bd3d9	-0.24592532
146	0xbdb02fbb	-0.08602854
147	0xbe42faba	-0.19040957
148	0xbe80a2c4	-0.2512418
149	0x3e494ab9	0.1965741
150	0xbe162873	-0.14663868
151	0x3c32f912	0.010923641
152	0xbd9278d5	-0.07151953
153	0xbd884a09	-0.06654746
154	0xbdf94a9c	-0.12172434
155	0x3e4b29eb	0.19840209
156	0xbe1e7ef6	-0.15478119
157	0x3e8b7046	0.27234095
158	0x3d216661	0.039404277
159	0x3e78b0af	0.2428615
160	0xbc6e0e10	-0.01452972
161	0x3c03d9e8	0.008047558
162	0xbde7e0ee	-0.11322199
163	0xbe5887a3	-0.21145491
164	0x3cbcafbd	0.023033017
165	0x3de04275	0.10950176
166	0x3e39ee07	0.18157206
167	0x3e916558	0.28397632
168	0xbe6c7028	-0.23089659
169	0xbd8eda44	-0.069752246
170	0x3ae92ed4	0.0017790445
171	0xbe29bf99	-0.16576995
172	0x3da87fe1	0.08227516
173	0xbe87ac36	-0.26498574
174	0xbc27a596	-0.01023235
175	0x3d893e55	0.06701342
176	0xbe0ccfd3	-0.13751154
177	0x3d40db1e	0.047083966
178	0xbdc7d5ec	-0.09757599
179	0x3e4794c4	0.19490343
180	0xbe1a993e	-0.1509752
181	0xbe92a62c	-0.28642404
182	0xbe79cd67	-0.24394761
183	0x3e75f4e2	0.24019197
184	0x3d0a45d2	0.033757992
185	0x3d3467b2	0.044044204
186	0x3b6293b4	0.0034572901
187	0x3afa045f	0.0019074789
188	0xbc1e4f50	-0.009662464
189	0xbda230e0	-0.079194784
190	0xbdeab1ab	-0.11459669
191	0xbe030fba	-0.12798968
192	0x3dd5e56b	0.10444149
193	0x3e60761f	0.2192006
194	0x3dc5ef4b	0.09664782
195	0xbe246657	-0.16054665
196	0xbdc0a538	-0.09406513
197	0xbe236ba9	-0.15959038
198	0xbdceba12	-0.10094084
199	0x3e582bcb	0.21110456
200	0xbe359698	-0.17733228
201	0x3e1edd76	0.15514168
202	0xbe035deb	-0.12828796
203	0xbd8f5446	-0.06998496
204	0xbe6a2968	-0.22867358
205	0x3c9d932f	0.019235222
206	0xbe72f857	-0.23727547
207	0x3e4d9ce0	0.20079374
208	0x3e64f4dd	0.22359033
209	0x3e891801	0.26776126
210	0xbdb57424	-0.08860043
211	0x3dda9372	0.10672654
212	0xbdc84313	-0.097784184
213	0xbe91725b	-0.2840756
214	0xbdf1a9a5	-0.11799935
215	0x3da3a293	0.07989993
216	0x3de33857	0.1109473
217	0x3dc82aa0	0.09773755
218	0xbe3eeb69	-0.1864449
219	0xbe659356	-0.22419485
220	0x3e102747	0.14077483
221	0xbe300d05	-0.17192467
222	0x3d9fb692	0.077984944
223	0xbe3232f0	-0.17402244
224	0x3d475fcd	0.048675347
225	0x3e756ff7	0.23968492
226	0xbdd376e6	-0.103254125
227	0x3d7b2572	0.061315008
228	0xbcba56d1	-0.022746475
229	0x3e225342	0.15852073
230	0xbd5fc5c2	-0.054631956
231	0xbd10953f	-0.035298582
232	0xbc06de77	-0.008231751
233	0x3dd52514	0.10407463
234	0x3e2ea0dd	0.17053552
235	0x3d3d9516	0.046284758
236	0x3e88759e	0.26652235
237	0xbd9f030a	-0.077642515
238	0xbe186bfc	-0.14884943
239	0xbdaddb47	-0.084890895
240	0x3d1cf2ee	0.038317613
241	0xbd86c9fb	-0.065814935
242	0x3e41913e	0.18903062
243	0x3e99d635	0.3004624
244	0x3e054272	0.13013628
245	0xbdf7e528	-0.12104255
246	0xbdc048a8	-0.09388858
247	0xbe76920f	-0.24079154
248	0xbd987796	-0.07444684
249	0x3e142a27	0.14469205
250	0xbdeb7b61	-0.11498142
251	0x3e313b27	0.17307721
252	0xbb15a2fc	-0.0022832742
253	0xbd84e05e	-0.06488107
254	0xbe8cb0ed	-0.27478734
255	0x3e71f127	0.23627149

bias_ih f4 [150]
0	0x3d1dac67	0.038494494
1	0x3d499650	0.049215615
2	0x3e0c0474	0.13673574
3	0x3e5639e1	0.20920517
4	0x3e3af288	0.18256581
5	0xbe25632a	-0.1615111
6	0xbd0bedaf	-0.03416222
7	0x3d915dbc	0.070979565
8	0x3e14acc6	0.14519033
9	0x3d989b38	0.074514806
10	0xbd601e03	-0.05471612
11	0x3e8d7c6a	0.27633983
12	0xbcda5383	-0.02665115
13	0xbdf30f4c	-0.11868152
14	0x3df6253a	0.12018819
15	0x3e896149	0.26832035
16	0xbcc8cd58	-0.024511978
17	0x3e3e71a8	0.18598044
18	0xbc34f50a	-0.01104475
19	0x3cffdbfe	0.03123283
20	0x3e01f207	0.12689982
21	0x3d993e6f	0.074826114
22	0x3e1607d3	0.14651422
23	0x3e4d2370	0.2003305
24	0x3dcc9617	0.09989565
25	0x3dfacd3e	0.12246178
26	0x3e00440c	0.12525958
27	0x3c5b7427	0.013394392
28	0x3e165582	0.14681056
29	0x3dcc8fdc	0.099883765
30	0x3d02956e	0.03188079
31	0x3ce02382	0.027360681
32	0x3dd4f8a3	0.10398986
33	0xbceab55f	-0.028650938
34	0x3ea8f9b7	0.33003017
35	0xbd139a74	-0.03603597
36	0x3e1e6c4b	0.15470998
37	0x3e19037e	0.14942738
38	0xbe2807e0	-0.16409254
39	0x3df4cd8d	0.11953268
40	0x3db06a12	0.08613981
41	0x3dff4977	0.12465184
42	0x3c86b453	0.016443407
43	0x3e0d3f2f	0.13793634
44	0x3df83416	0.121193096
45	0x3dfb4b6c	0.12270245
46	0xb92cc8c9	-0.00016477997
47	0x3e30708c	0.17230433
48	0x3e7a17c9	0.24423136
49	0x3e019ffe	0.12658688
50	0xbdaf2a9b	-0.08553048
51	0xbdedc8df	-0.11610579
52	0xbdb6ca36	-0.089252874
53	0xbe09fa6e	-0.13474438
54	0xbe831a77	-0.2560613
55	0xbe99f828	-0.3007214
56	0xbe80d362	-0.25161272
57	0xbe011f4d	-0.12609597
58	0x3d8d2bd9	0.06893129
59	0xbdf5952a	-0.119913414
60	0xbe8f1eba	-0.2795313
61	0xbd2a3297	-0.041552152
62	0xbe6ed800	-0.23324585
63	0xbd8abd89	-0.06774432
64	0xbe386b4e	-0.18009683
65	0xbe485de2	-0.19567063
66	0xbe37bc05	-0.17942818
67	0xbea66329	-0.32497528
68	0xbe1487e2	-0.1450496
69	0xbe7db8bf	-0.24777506
70	0xbe3b230e	-0.18275091
71	0xbe747d23	-0.23875861
72	0xbd770194	-0.06030424
73	0xbd602344	-0.054721132
74	0xbd0f7348	-0.03502205
75	0xbedb4136	-0.4282319
76	0xbe9de227	-0.30836603
77	0xbe865095	-0.26233354
78	0xbebc739b	-0.3680695
79	0xbe393e5f	-0.18090199
80	0xbe0e2191	-0.13879992
81	0xbe3d2acc	-0.18473357
82	0xbd50f6f1	-0.05101675
83	0xbd8b6646	-0.068066165
84	0xbe42d4fe	-0.19026563
85	0xbdfa22e4	-0.12213686
86	0xbe3d9e10	-0.18517327
87	0xbeab3383	-0.33437738
88	0xbe5b61c9	-0.21424021
89	0xbea2d343	-0.31801805
90	0xbeaacf6e	-0.3336138
91	0xbe83db61	-0.2575331
92	0xbe8f6cb5	-0.28012624
93	0xbe12c271	-0.14331986
94	0xbe1eab95	-0.15495141
95	0xbe0745a2	-0.13210157
96	0xbe59ff8d	-0.21288891
97	0xbe9a789d	-0.30170146
98	0xbe83ccf9	-0.2574232
99	0xbe398e00	-0.18120575
100	0xbe6dde5f	-0.23229359
101	0x3cc42c7b	0.023946991
102	0xbe88cc9f	-0.26718614
103	0xbe8614e5	-0.26187816
104	0xbe2e880d	-0.17044087
105	0x3e7853c0	0.24250698
106	0xbe47e886	-0.19522294
107	0x3d929756	0.07157771
108	0xbc66348b	-0.014050613
109	0x3e8c5704	0.27410138
110	0xbbf94ad4	-0.007607797
111	0x3e7bcdad	0.24590178
112	0xbdde2932	-0.10847701
113	0xbce56f3b	-0.02800714
114	0xbdda1cdb	-0.10650035
115	0x3e89a9bd	0.26887313
116	0x3e30fbc0	0.17283535
117	0xbd5bcf02	-0.053664215
118	0xbd94e09b	-0.072694026
119	0x3de6b017	0.11264055
120	0x3e824950	0.25446558
121	0xbe22d581	-0.15901758
122	0x3c933cd3	0.01797334
123	0xbe48303b	-0.19549648
124	0x3e74c0b3	0.23901634
125	0xbd4552c1	-0.048174623
126	0xbdb8a649	-0.090160914
127	0x3e58e651	0.21181609
128	0xbd04f6ba	-0.03246186
129	0x3d8ff4fc	0.07029149
130	0xbe9bd6c8	-0.30437303
131	0xbddf15ee	-0.10892855
132	0xbe129994	-0.14316398
133	0x3e629573	0.22127323
134	0xbd9604fe	-0.07325171
135	0x3e154bfa	0.14579764
136	0x3e716436	0.23573384
137	0xbddd5989	-0.10808093
138	0xbe734bd1	-0.2375939
139	0xbe5fdbc0	-0.21861172
140	0xbe138315	-0.14405473
141	0xbdd94f0e	-0.106107816
142	0x3e577171	0.21039368
143	0xbbeaf6e1	-0.0071705435
144	0x3e6bab42	0.23014548
145	0xbe7d5cf3	-0.24742489
146	0xbdd5d082	-0.1044016
147	0x3d27c8ca	0.04096297
148	0xbe81d841	-0.253603
149	0x3d2119e9	0.03933135

bias_hh f4 [150]
0	0x3e3b687d	0.18301578
1	0x3e241670	0.16024184
2	0x3e8e1f2d	0.2775816
3	0x3e5906a3	0.21193938
4	0x3e6d42c8	0.23170006
5	0x3d2fe756	0.04294523
6	0x3e601014	0.21881133
7	0x3e8b0821	0.2715464
8	0x3d76a159	0.060212467
9	0x3e0633c7	0.13105689
10	0x3d84b7cc	0.06480369
11	0x3df184de	0.117929205
12	0x3e22e427	0.15907346
13	0x3d2fdfd2	0.04293806
14	0xbcc57462	-0.024103347
15	0x3d3fac84	0.046795383
16	0x3e49bfb7	0.1970204
17	0xbd2d7e94	-0.042357042
18	0x3e486d37	0.19572912
19	0x3e0393e1	0.1284938
20	0x3cc76c88	0.024343744
21	0x3e5ea714	0.21743423
22	0xbd5c01ca	-0.053712644
23	0x3ddd7252	0.108128205
24	0x3e67acea	0.22624555
25	0x3d8cb121	0.06869722
26	0x3e091653	0.13387422
27	0xbd1f3c68	-0.038875967
28	0x3ddfbc50	0.1092459
29	0x3cd2c5eb	0.02572914
30	0x3ab2b026	0.0013632819
31	0x3db6921b	0.08914586
32	0x3decc0ef	0.11560237
33	0x3d0510d4	0.03248675
34	0x3e31d657	0.1736692
35	0xbadde4ff	-0.0016929208
36	0x3d8228d8	0.063554466
37	0x3db5c089	0.08874614
38	0x3ce6882e	0.028141107
39	0x3dec54e6	0.115396306
40	0x3e045127	0.12921582
41	0xbc8c63fe	-0.017137524
42	0x3d9e2d93	0.07723536
43	0x3e6a841d	0.2290196
44	0x3e749a40	0.23886967
45	0x3dee7bba	0.11644693
46	0x3e56f40b	0.20991533
47	0xbcdb9c73	-0.026808
48	0x3e072653	0.13198213
49	0x3cb88e93	0.022528922
50	0xbd9f9857	-0.077927284
51	0xbe45e5eb	-0.19325988
52	0xbea2e3cd	-0.31814423
53	0xbe775dc0	-0.24156857
54	0xb9d88bd8	-0.00041302922
55	0xbe04fa13	-0.1298602
56	0xbd96141e	-0.07328056
57	0xbdad9e77	-0.084774904
58	0x3d1a10a4	0.037613526
59	0xbdd86e3e	-0.10567902
60	0xbe901e98	-0.2814834
61	0xbdd6931e	-0.10477279
62	0xbe87c2bc	-0.26515758
63	0xbd9327a5	-0.07185296
64	0xbea296e1	-0.31755736
65	0xbd555fcd	-0.052093316
66	0xbdab460c	-0.0836297
67	0xbe340344	-0.1757937
68	0xbe95709e	-0.29187483
69	0xbe8bcc1a	-0.27304155
70	0xbe80aadf	-0.25130364
71	0xbd50e57c	-0.051000103
72	0xbdc527b7	-0.09626716
73	0xbe9879bf	-0.29780385
74	0xbdb536de	-0.08848356
75	0xbe9c543b	-0.30533013
76	0xbe6e26a6	-0.2325693
77	0xbdbda401	-0.09259797
78	0xbe92a4de	-0.2864141
79	0xbe636ed2	-0.22210243
80	0xbe783c54	-0.24241763
81	0xbe467ef7	-0.1938437
82	0xbd7ad52b	-0.06123845
83	0xbd9dd8ba	-0.07707353
84	0xbdb693ba	-0.08914895
85	0xbe755a9c	-0.23960346
86	0xbde3a322	-0.111150995
87	0xbe3d0b51	-0.18461348
88	0xbe860e18	-0.26182628
89	0xbda3167d	-0.07963274
90	0xbe5d1afc	-0.21592325
91	0xbe2d70c5	-0.1693755
92	0xbd691b16	-0.056910597
93	0xbe964830	-0.2935195
94	0xbebd42aa	-0.36964923
95	0xbe868992	-0.26276833
96	0xbeb7cfaf	-0.35900638
97	0xbe82bb49	-0.25533512
98	0xbe4c0464	-0.1992355
99	0xbe24496a	-0.1604363
100	0xbe71566b	-0.23568122
101	0x3e3d695b	0.18497221
102	0xbe570b00	-0.2100029
103	0xbd8ab2ef	-0.0677241
104	0xbe5f08cc	-0.217807
105	0x3ce3e6fc	0.027820103
106	0xbe7b3696	-0.24532542
107	0x3e5ec445	0.21754558
108	0x3cc92d30	0.02455768
109	0x3e34dc27	0.17662106
110	0xbd808b1c	-0.06276533
111	0x3e6f2d0e	0.23357031
112	0xbe46d80e	-0.19418356
113	0x3d25b586	0.040456317
114	0xbd9fce43	-0.07803013
115	0x3e866746	0.26250666
116	0x3e800346	0.25002497
117	0x3bcf90c4	0.006334396
118	0xbe45f9d1	-0.19333579
119	0xbcc1e516	-0.023668807
120	0x3e22b6e1	0.15890075
121	0xbe59a53b	-0.21254437
122	0x3c938d3e	0.018011685
123	0xbe3c82b7	-0.18409239
124	0x3e47d102	0.19513324
125	0xbd21a5ce	-0.039464764
126	0xbceda53d	-0.029009456
127	0x3c159d05	0.009131675
128	0xbe0a7058	-0.13519418
129	0x3dd4e650	0.10395491
130	0xbceb33ce	-0.028711226
131	0xbdd42762	-0.10359074
132	0xbe064180	-0.13110924
133	0x3ba4c959	0.0050288853
134	0xbda8a64a	-0.08234842
135	0x3c744d31	0.014910982
136	0x3e4b06d9	0.19826831
137	0xbd8eedf6	-0.06978981
138	0xbad6e01d	-0.0016393695
139	0xbe4f3615	-0.20235474
140	0xbdc5b1ed	-0.09653077
141	0xbdaf1125	-0.08548192
142	0x3e3770ed	0.17914172
143	0xbc982ee9	-0.018577056
144	0x3df771cd	0.12082253
145	0xbd85ba1c	-0.06529638
146	0xbe3d6395	-0.18495019
147	0xbd8d7545	-0.06907133
148	0xbe7a16e7	-0.24422799
149	0x3dfa6dd6	0.12227981

weight_ih f4 [150, 50]
0	0x3d2dc941	0.04242826
1	0x3e0de13c	0.13855451
2	0x3d3957f5	0.045249898
3	0xbdea4a68	-0.11439973
4	0x3ddcff6d	0.10790906
5	0x3e373bbf	0.17893885
6	0xbd67721a	-0.0565053
7	0x3d2843a8	0.041080147
8	0x3d9bf790	0.07615578
9	0x3d330321	0.043704156
10	0xbdf60c92	-0.12014116
11	0xbd1d071d	-0.038336862
12	0xbdfef06c	-0.124482006
13	0xbe4ce669	-0.2000977
14	0xbd9d01b4	-0.076663405
15	0xbd5b171f	-0.053488847
16	0x3cd5958e	0.02607229
17	0xbea796a3	-0.32732114
18	0xbe9094e8	-0.28238606
19	0x3e2eb476	0.17061028
20	0xbcc4d394	-0.02402667
21	0xbdd61a83	-0.104542755
22	0x3a46553d	0.0007565802
23	0xbda0e348	-0.078558505
24	0x3db26eda	0.087125495
25	0xbe849ca5	-0.2590076
26	0xbe0721f6	-0.13196549
27	0x3e2a5760	0.16634893
28	0xbe194cb1	-0.14970662
29	0x3e5c33d6	0.21504149
30	0x3dcd4592	0.10023035
31	0x3e5719dc	0.21005958
32	0xbdbd9381	-0.0925665
33	0xbd63d5a3	-0.05562366
34	0xbe16aa79	-0.14713468
35	0x3e2b6f75	0.16741736
36	0x3daf14df	0.08548903
37	0xbd4859b4	-0.048913673
38	0xbdc5aae1	-0.09651733
39	0x3d837e83	0.064206146
40	0xbe8b4ce5	-0.27207103
41	0xbe1ef8e7	-0.15524636
42	0x3bee86e8	0.0072792657
43	0x3c52f923	0.012876782
44	0x3dc3529e	0.09537242
45	0xbe8a7dca	-0.27049094
46	0xbe6540a8	-0.22387946
47	0x3e813a1e	0.25239652
48	0x3c829d65	0.015944192
49	0x3d57a779	0.05264995
50	0x3dca9f31	0.098936446
51	0x3de90ad7	0.11379021
52	0x3e158c69	0.14604343
53	0xbc18d73d	-0.009328661
54	0xbdc67145	-0.09689573
55	0x3e797383	0.2436047
56	0xbe30e456	-0.17274603
57	0x3d7778f0	0.06041807
58	0xbc8d53fc	-0.017251961
59	0x3dde1af4	0.10844985
60	0x3b9f6dce	0.0048653847
61	0xbe01e2cc	-0.12684172
62	0xbe52d03a	-0.20587245
63	0xbce64085	-0.028106937
64	0xbe324406	-0.17408761
65	0x3e0f14c6	0.13972768
66	0x3e4dfaf7	0.20115267
67	0xbe05828b	-0.1303808
68	0xbe5ce4cd	-0.21571656
69	0x3d8b2554	0.06794229
70	0xbcaf5067	-0.021400644
71	0x3d4782b7	0.048708644
72	0x3e134b03	0.14384083
73	0x3d90694a	0.07051332
74	0xbda919ba	-0.0825686
75	0xbe208e9b	-0.156794
76	0xbeb381d5	-0.3505999
77	0x3db67495	0.08908955
78	0xbd8a3058	-0.06747502
79	0x3e59e325	0.21278055
80	0xbde1f600	-0.11033249
81	0xbb8d4261	-0.0043108915
82	0xbcaba0cb	-0.020950695
83	0xbcb9489d	-0.022617633
84	0xbd4da394	-0.05020483
85	0x3e0f2e6f	0.13982557
86	0xbd0bed2d	-0.034161735
87	0xbe2be30c	-0.1678583
88	0xbded45b0	-0.115855575
89	0xbdb42647	-0.08796363
90	0xbe13b573	-0.14424686
91	0xbd942ea1	-0.07235456
92	0x3d378862	0.0448078
93	0xbbfb6be3	-0.007672773
94	0x3e48db7f	0.19614981
95	0xbe67f3ab	-0.22651546
96	0xbe6d8478	-0.23195064
97	0x3e42b68a	0.19014946
98	0x3d837bf4	0.064201266
99	0xbd457919	-0.04821119
100	0x3ca82561	0.020525636
101	0x3ded57ca	0.1158901
102	0x3d548dad	0.051892925
103	0x3d7f77f2	0.06237025
104	0x3d940657	0.07227772
105	0x3e022604	0.12709814
106	0xbdaf5e38	-0.08562893
107	0x3db47865	0.08812026
108	0x3db685ab	0.08912214
109	0x3d1bb3d9	0.038013313
110	0x3b732e24	0.003710636
111	0x3dc6dd0f	0.09710132
112	0xbe04556f	-0.12923215
113	0xbdee880b	-0.11647042
114	0xbe61cc35	-0.22050555
115	0xbe023866	-0.12716827
116	0x3e037e85	0.12841232
117	0xbe9f5c65	-0.3112518
118	0xbdc27e8b	-0.094967924
119	0x3dd7751b	0.10520383
120	0x3d9d74ec	0.07688317
121	0x3e19f97e	0.1503658
122	0x3e08b2d9	0.13349475
123	0xbd2fb6d5	-0.04289897
124	0x3c9289af	0.017887918
125	0xbd09046e	-0.03345149
126	0xbe54c083	-0.20776562
127	0x3dc44ea7	0.09585314
128	0xbe644648	-0.22292435
129	0x3dc8847e	0.09790896
130	0xbcf0bd55	-0.029387156
131	0x3e1de3a6	0.15418872
132	0x3de7c3bd	0.11316631
133	0xbce38e4c	-0.027777813
134	0x39e539fe	0.0004372149
135	0x3e46fee2	0.19433168
136	0xbcbfc6c0	-0.023410201
137	0xbe847bd6	-0.2587573
138	0xbdc6de15	-0.097103275
139	0x3c81c6cf	0.01584187
140	0xbeb071a0	-0.3446169
141	0xbea553ba	-0.3229044
142	0x3cda3a4c	0.026639126
143	0xbe369f55	-0.17834218
144	0x3ddb1840	0.10697985
145	0xbd09ba3a	-0.033624865
146	0xbe62fa5a	-0.22165814
147	0x3e864984	0.26227963
148	0xbc6ce423	-0.014458689
149	0x3d51d6f4	0.051230386
150	0xbd0afbf2	-0.03393168
151	0x3dc83735	0.09776155
152	0xbd7e776c	-0.06212561
153	0xbe4d6260	-0.20057058
154	0xbdd9ca60	-0.10634303
155	0x3d1f6074	0.038910344
156	0xbe3ed1a1	-0.18634655
157	0x3d0d68b5	0.034523685
158	0x3c91660f	0.01774886
159	0x3d89c1ec	0.06726441
160	0xbe0d0241	-0.13770391
161	0xbdb99481	-0.09061528
162	0xbe898514	-0.26859343
163	0xbe6012dc	-0.21882194
164	0xbe370fac	-0.17877072
165	0x3d374648	0.04474476
166	0x3c54d802	0.012990953
167	0xbe7d551f	-0.24739502
168	0xbd5fefb1	-0.054671947
169	0x3c02cbfd	0.007983205
170	0xbc9d6e70	-0.0192177
171	0xbdb4e534	-0.088327795
172	0x3e4193b5	0.18904002
173	0x3d035cf3	0.032071065
174	0xbddd4e0c	-0.10805902
175	0xbd9d5b2f	-0.076834075
176	0xbe8f2680	-0.2795906
177	0x3e57828d	0.21045895
178	0xbd93e3d3	-0.072211884
179	0xbceae0e6	-0.028671693
180	0x3e0b77e1	0.13619949
181	0x3e247bda	0.1606287
182	0xbdab806e	-0.083741054
183	0xbdd0c824	-0.10194424
184	0x3c0c9286	0.008579856
185	0x3dced3b3	0.10098972
186	0xbd75e15f	-0.060029384
187	0xbe76c990	-0.24100327
188	0x3d397d8d	0.04528575
189	0x3c815c19	0.015790986
190	0xbe31e271	-0.17371537
191	0xbe877d27	-0.2646267
192	0x3e60021a	0.21875802
193	0xbd417bb6	-0.04723712
194	0x3e402c1d	0.18766828
195	0xbd8a997f	-0.06767558
196	0xbe2945f3	-0.1653059
197	0x3e5515fb	0.20809166
198	0xbe259a5f	-0.16172169
199	0xbcfdb73f	-0.030971168
200	0x3da3c49d	0.079964854
201	0xbc687931	-0.0141890505
202	0x3dc1a6d0	0.09455645
203	0xbe043b06	-0.1291314
204	0xbe0b9837	-0.13632284
205	0x3bf8b647	0.0075900885
206	0xbe49c198	-0.19702756
207	0xbdbfacf1	-0.09359158
208	0x3d84bc3c	0.06481215
209	0xbca8cf03	-0.020606523
210	0xbe867fe4	-0.26269448
211	0xbd9d003a	-0.07666059
212	0xbd963736	-0.073347494
213	0xbe808895	-0.25104204
214	0xbe321a5e	-0.17392871
215	0x3d01d9a4	0.0317017
216	0x3e45afc9	0.19305338
217	0xbe9ed223	-0.31019697
218	0xbe969e0c	-0.29417455
219	0xbd30a69b	-0.043127637
220	0x3d025919	0.03182325
221	0xbd5a56bb	-0.05330537
222	0x3d91447b	0.0709314
223	0x3df60b35	0.12013856
224	0x3ba0c713	0.004906544
225	0xbe68efa6	-0.22747669
226	0xbe41274e	-0.1886265
227	0x3e5ba575	0.21449836
228	0xbe89d071	-0.2691684
229	0x3dec04fb	0.115243874
230	0xbd108e39	-0.035291884
231	0x3e590cd2	0.21196297
232	0xbd6b86ac	-0.05750148
233	0x3e2333f2	0.15937784
234	0xbe33ac51	-0.17546202
235	0x3e6fd1b5	0.2341984
236	0xbdca4465	-0.098763265
237	0xbe19a14f	-0.1500294
238	0xbd8f2217	-0.06988924
239	0xbe5c4998	-0.21512449
240	0xbe226b75	-0.15861304
241	0xbe01c1fa	-0.12671652
242	0x3da06696	0.07832067
243	0xbdb8bfe8	-0.09020978
244	0x3e492bbc	0.1964559
245	0xbe2eccef	-0.17070363
246	0xbeb0f3da	-0.34561044
247	0x3e1ea644	0.15493113
248	0xbd8c9945	-0.06865171
249	0xbc232794	-0.009958167
250	0x3ce31fb8	0.027725086
251	0x3ded48ae	0.11586128
252	0xbbaecd65	-0.0053345435
253	0xbd9663a9	-0.073432274
254	0x3db2dfb7	0.087340765
255	0x3e9febed	0.31234685

weight_hh f4 [150, 50]
0	0xbd29c34f	-0.041446026
1	0xbda7fa74	-0.08202067
2	0xbe0f5e84	-0.14000899
3	0xbde811a7	-0.11331492
4	0x3e09f615	0.13472779
5	0x3da7ed22	0.08199526
6	0xbd52bde7	-0.051450636
7	0xbde4620b	-0.11151513
8	0x39a283b0	0.00030997163
9	0xbe667130	-0.22504115
10	0xbd46bc33	-0.048519325
11	0xbd74373e	-0.059622996
12	0xbcd8574e	-0.026408818
13	0xbc71d65c	-0.01476058
14	0xbdfab454	-0.12241426
15	0x3e0d2185	0.13782318
16	0x3d28ca21	0.04120839
17	0xbda44774	-0.08021441
18	0xbdada284	-0.08478263
19	0x3ce4ec70	0.027944773
20	0x3e55d54a	0.20882145
21	0x3de590cd	0.11209259
22	0x3d4a93f4	0.049457505
23	0x3e2503e5	0.16114767
24	0xbc89050a	-0.016726036
25	0xbd2ad0eb	-0.041703146
26	0xbdf7809e	-0.12085079
27	0x3db9a475	0.09064571
28	0xbe0bb7f1	-0.13644387
29	0x3e0c3d40	0.1369524
30	0x3e34eb6c	0.17667931
31	0x3d323701	0.043509487
32	0xbcae1186	-0.02124859
33	0x3d51ade4	0.051191226
34	0x3e1044ca	0.14088741
35	0xbc8d04ff	-0.017214296
36	0x3da1c4f9	0.07898898
37	0xbdb0b489	-0.08628184
38	0x3c230ceb	0.00995181
39	0x3c53c55f	0.012925475
40	0xbd41e10f	-0.047333773
41	0xbca6165f	-0.02027434
42	0xbca9a6c6	-0.020709407
43	0x3e2ea7ab	0.17056148
44	0x3b1b60d1	0.002370883
45	0x3d7d37f4	0.06182094
46	0xbdad8631	-0.084728606
47	0x3d0944c4	0.033512846
48	0x3c38cd19	0.011279368
49	0x3e156fd2	0.14593437
50	0xbd9d5994	-0.07683101
51	0xbd436002	-0.047698982
52	0xbdb5a05b	-0.08868476
53	0xbd97835f	-0.07398104
54	0x3deeea79	0.11665816
55	0x3e157219	0.14594306
56	0xbd578900	-0.052620888
57	0x39e7290b	0.00044090333
58	0x3d253616	0.040334783
59	0xbc245f83	-0.010032537
60	0x3dc9fe40	0.098629475
61	0xbe68e125	-0.22742136
62	0xbd97ca0e	-0.07411586
63	0xbdc5f73e	-0.09666298
64	0x3c9fa336	0.019487005
65	0xbdcbb868	-0.09947282
66	0xbd8b55e6	-0.06803493
67	0xbde30f78	-0.11086935
68	0x3c28a073	0.01029216
69	0x3dfd5485	0.123696364
70	0x3e3df893	0.18551855
71	0x3df8509b	0.12124749
72	0xbd22a226	-0.039705418
73	0xbdc23ee8	-0.09484655
74	0x3ba2e1d3	0.004970768
75	0xbdf3d18c	-0.11905202
76	0x3e068d95	0.13139947
77	0xbdfd6649	-0.12373025
78	0xbafd587c	-0.0019328739
79	0x3c155a4f	0.0091157695
80	0xbccc7ad7	-0.024960918
81	0xbd51ead8	-0.051249355
82	0xbd2f3986	-0.042779468
83	0xbdc5845b	-0.096443854
84	0x3d9e28cb	0.077226244
85	0x3e06d12f	0.13165735
86	0x3e17e972	0.14835146
87	0x3beff87c	0.007323323
88	0xbbcfc570	-0.006340675
89	0x3ccd3b5e	0.025052723
90	0x3d766b52	0.060160942
91	0xbe3edca4	-0.18638855
92	0x3d8f7ca7	0.070061974
93	0x3dbd5e00	0.09246445
94	0x3d95e31f	0.073187105
95	0xbe0d96c4	-0.13827044
96	0x3d8b6f39	0.068083234
97	0xbd90456d	-0.07044492
98	0x3dcd527f	0.100255005
99	0xbdba0001	-0.09082032
100	0x3dca36a1	0.09873701
101	0xbe01a6b5	-0.1266125
102	0x3a16e068	0.0005755485
103	0x3aa1b505	0.0012337273
104	0x3e22750b	0.15864961
105	0x3d664a21	0.05622304
106	0x3d8fa1ec	0.07013306
107	0xbcc90c3b	-0.024541965
108	0xbd138aee	-0.036021166
109	0xbe26667b	-0.1625003
110	0xbd2187c7	-0.039436128
111	0xbe0c016f	-0.13672422
112	0xbe47d67c	-0.19515413
113	0x3db8041b	0.08985158
114	0xbdf05555	-0.11735026
115	0x3be868b7	0.007092561
116	0xbda4035f	-0.080084555
117	0x3dada1a0	0.08478093
118	0x3c5735d8	0.013135396
119	0x3d8cdffd	0.0687866
120	0x3c476695	0.012170454
121	0xbe06311a	-0.13104668
122	0x3a0030c8	0.00048900815
123	0x3df7f2d5	0.121068634
124	0x3c434fe1	0.0119209
125	0xbdc13b7b	-0.09435173
126	0x3d9652d5	0.07340018
127	0x3dd22280	0.102604866
128	0xbe23f787	-0.16012393
129	0xbdaec22d	-0.0853313
130	0xbccf0d24	-0.02527482
131	0xbcfd5cc7	-0.030928029
132	0x3dc4aa09	0.09602744
133	0xbdf3fd3a	-0.119135335
134	0xbe0cbfc3	-0.13745026
135	0xbd315fd2	-0.043304272
136	0x3d72a4f3	0.05923934
137	0xbe06e8cd	-0.13174744
138	0xbdbc5879	-0.09196562
139	0xbdcf0133	-0.101076506
140	0x3da054f1	0.07828701
141	0xbe889646	-0.2667715
142	0x3d5a0578	0.05322787
143	0x3d87d4e7	0.06632405
144	0xbdb23b73	-0.08702745
145	0x3db43f89	0.08801181
146	0xbc2c2f6b	-0.010509352
147	0x3dd6ae8d	0.10482512
148	0xbda499e4	-0.08037165
149	0x3cfcf0e9	0.030876594
150	0xbd9a9526	-0.07547979
151	0x3dca6f41	0.09884501
152	0x3c4d86fc	0.01254439
153	0xbdd90f8b	-0.10598668
154	0xbd2bdab0	-0.041956604
155	0x3e0de479	0.13856687
156	0x3dd0d021	0.101959474
157	0xbaf490c6	-0.0018658869
158	0x3e32e6c1	0.17470838
159	0xbd889aa4	-0.0667012
160	0xbdc6f25e	-0.097141966
161	0x3c6eb41b	0.014569308
162	0xbdb492a0	-0.08817029
163	0x3babf120	0.00524725
164	0x3db29298	0.08719367
165	0xbdb986d9	-0.09058923
166	0x3d2ca2b8	0.04214737
167	0x3d380d01	0.044934276
168	0x3da2be4b	0.07946452
169	0x3e049701	0.12948228
170	0x3cdeed8d	0.027212882
171	0x3ca15818	0.019695327
172	0xbd1f087d	-0.038826454
173	0xbc06c662	-0.008226009
174	0x3dcb0ed3	0.09914937
175	0xbdb782df	-0.089605086
176	0x3d6ffbcd	0.058589745
177	0x3c59877a	0.013276929
178	0xbdee6cf5	-0.11641876
179	0xbdc96d86	-0.09835343
180	0xbd635166	-0.05549755
181	0x3d7337ed	0.059379507
182	0xbd65f82f	-0.05614489
183	0x3d8723b9	0.065986104
184	0xbe0073b7	-0.12544142
185	0xbdc29aef	-0.095022075
186	0x3a580f5b	0.0008242034
187	0xbc420c35	-0.011843731
188	0x3c9a1637	0.018809421
189	0xbc5aa1c9	-0.013344237
190	0xbdee4775	-0.11634723
191	0xbce7fdb2	-0.028319214
192	0x3db3c15f	0.08777117
193	0xbd07f4fd	-0.033192623
194	0x3db059ad	0.08610854
195	0xbe33874e	-0.17532083
196	0xbd86e70f	-0.0658704
197	0xbdcaf4d1	-0.09909976
198	0x3cbdb300	0.023156643
199	0xbd93b13a	-0.07211538
200	0x3ce6a41c	0.028154425
201	0x3dc19ffc	0.09454343
202	0x3cb0d002	0.02158356
203	0x3dfaca96	0.122456715
204	0x3d7ab034	0.061203197
205	0x3d8c3e57	0.06847828
206	0x3c82ec36	0.015981775
207	0xbd0b820e	-0.034059577
208	0x3d55cec2	0.052199133
209	0xbe1a434a	-0.15064731
210	0xbd4b2f92	-0.049605913
211	0xbe02e27a	-0.12781706
212	0x3c9b55cf	0.018961815
213	0xbe137bee	-0.14402744
214	0x3d8f1751	0.06986869
215	0x3de53566	0.111918256
216	0x3d0bd40e	0.034137778
217	0xbdfe4644	-0.12415746
218	0xbe027798	-0.12740934
219	0x3e0c3dbd	0.13695426
220	0x3e1ef16b	0.15521781
221	0xbe26b404	-0.16279608
222	0xbdfbc4d9	-0.12293405
223	0xbcfc9fd8	-0.030837938
224	0xbe00b30d	-0.12568302
225	0xbcc4cda2	-0.024023835
226	0x3d8f27ac	0.06989989
227	0x3d69ce94	0.057081774
228	0x3de8b570	0.113627315
229	0x3d309ad4	0.043116406
230	0x3d14829e	0.03625738
231	0xbd18d139	-0.037308905
232	0xbd314007	-0.04327395
233	0xbce657e3	-0.02811808
234	0x3c286665	0.010278319
235	0x3cea36ef	0.028590648
236	0x3cdc226f	0.026871888
237	0xbd17ac12	-0.037029333
238	0xbb8713d5	-0.004122237
239	0x3db0c0f5	0.08630554
240	0x3dba8f38	0.09109348
241	0xbde0d1fb	-0.109775506
242	0x3b391924	0.0028243745
243	0x3e1cc71c	0.15310329
244	0xbc22bea2	-0.009933146
245	0xbdf4a266	-0.119450375
246	0xbddb9beb	-0.10723098
247	0xbc683730	-0.014173314
248	0x3de477ab	0.11155637
249	0xbda3bb9c	-0.07994768
250	0xbd2b95cc	-0.041890904
251	0x3e06ec70	0.13176131
252	0xbdd62f17	-0.104582004
253	0x3d9a15ba	0.07523675
254	0x3c8d6510	0.017260104
255	0x3cf0fe79	0.029418217

bias_ih f4 [150]
0	0xbc5e8c71	-0.0135832885
1	0x3df77170	0.12082183
2	0xbd0ef585	-0.034902114
3	0x3db7c055	0.08972231
4	0xbdf39f0f	-0.118955724
5	0x3b15edf9	0.0022877438
6	0x3d37a6d2	0.044836827
7	0xbd1c9599	-0.038228605
8	0x3d488030	0.048950374
9	0xbe3a40a7	-0.18188725
10	0xbdb0aa8f	-0.086262815
11	0xbd87cab6	-0.06630461
12	0xbd9258cf	-0.07145845
13	0x3d4a90d9	0.049454544
14	0xbc50c294	-0.012741704
15	0xbca2c19c	-0.01986771
16	0xbd2cda5f	-0.042200442
17	0xbe12507c	-0.14288515
18	0xbccbcc21	-0.02487761
19	0xbe306000	-0.17224121
20	0x3e08bf0c	0.13354129
21	0xbe1158f2	-0.14194086
22	0x3d564bb1	0.05231828
23	0x3cc8114d	0.024422312
24	0xbe5f848c	-0.21827906
25	0x3d1a081c	0.03760539
26	0xbe6fed80	-0.23430443
27	0xbe06df98	-0.13171232
28	0xbdd5a7bb	-0.10432383
29	0xbd3e439f	-0.046451207
30	0xbd1dfc13	-0.038570475
31	0xbc65999f	-0.014013677
32	0xbdc49152	-0.0959803
33	0xbe0eac77	-0.13932978
34	0xbd9b98b0	-0.07597482
35	0xbe74012b	-0.2382857
36	0x3dd31558	0.10306805
37	0x3cd43f3f	0.025909064
38	0x3d032e06	0.032026313
39	0xbc8ee0f5	-0.017441252
40	0x3c344134	0.011001874
41	0xbd99581b	-0.07487508
42	0xbd5f3040	-0.054489374
43	0x3c89405b	0.01675432
44	0xbdff5b5c	-0.12468597
45	0xbdadb283	-0.08481314
46	0xbce41849	-0.027843611
47	0xbe3bc432	-0.18336561
48	0x3dabaa46	0.083820865
49	0x3e00d2e0	0.12580442
50	0xbdc11234	-0.094273
51	0xbe0c2152	-0.13684586
52	0xbe2e2630	-0.17006755
53	0xbd8288aa	-0.06373723
54	0xbe771aff	-0.24131392
55	0xbe6ce1ed	-0.23133059
56	0xbd4d6c0a	-0.050151862
57	0xbdbb09f6	-0.09132759
58	0xba900bdc	-0.0010989862
59	0x3bacbbaf	0.005271397
60	0xbe4a719d	-0.19769903
61	0xbe0002fb	-0.12501137
62	0x3d13fbf0	0.03612894
63	0xbd49feca	-0.04931525
64	0xbe1f02f7	-0.15528475
65	0xbd5da52b	-0.054112595
66	0xbdca9e60	-0.09893489
67	0xbe9f7e30	-0.3115096
68	0xbe72b00e	-0.23699972
69	0x3d58abc5	0.052898187
70	0xbe2052c5	-0.15656574
71	0xbdf56e5c	-0.1198394
72	0xbdf8b224	-0.12143353
73	0xbe267934	-0.16257173
74	0xbcf26091	-0.029587062
75	0xbe056bcf	-0.13029407
76	0xbe776a8a	-0.24161735
77	0xbcc6b8ed	-0.024258101
78	0xbe70fdfe	-0.2353439
79	0xbe8b967f	-0.27263257
80	0xbcd0b02d	-0.025474632
81	0xbe683f50	-0.22680402
82	0xbe52af34	-0.20574647
83	0xbd8d951c	-0.06913206
84	0xbe3c0b91	-0.18363787
85	0xbe71372a	-0.235562
86	0xbe970718	-0.294976
87	0xbdc20abe	-0.09474705
88	0xbe1d3056	-0.1535047
89	0xbe972a84	-0.29524624
90	0xbe90819b	-0.2822388
91	0xbea98528	-0.33109403
92	0xbe767816	-0.24069247
93	0xbe137976	-0.14401802
94	0xbe53f41b	-0.20698588
95	0x3ce2ecb3	0.027700758
96	0xbe2c1bd4	-0.1680749
97	0xbe680be2	-0.22660783
98	0xbdb16539	-0.08661885
99	0xbe8c20da	-0.27368814
100	0xbda77545	-0.08176664
101	0xbe38386c	-0.17990273
102	0xbe021885	-0.12704666
103	0x3df50495	0.119637646
104	0xbe3c88be	-0.18411538
105	0x3cd73c88	0.02627398
106	0xbe6e034a	-0.23243442
107	0xbde53f85	-0.11193756
108	0x3dc2ff88	0.09521395
109	0x3d4e4d25	0.05036654
110	0x3d7ba08f	0.061432417
111	0x3d84a8fd	0.064775445
112	0x3d73ab6a	0.059489645
113	0x3e311105	0.17291649
114	0x3bb940ac	0.0056534614
115	0x3de09526	0.10965948
116	0x3d90459d	0.07044528
117	0x3db5ae7a	0.088711694
118	0x3d6b9457	0.057514515
119	0xbcc60596	-0.024172585
120	0xbd8e6063	-0.06951978
121	0x3e07a367	0.13245927
122	0xbe0e1b31	-0.1387756
123	0xbe6e9c4b	-0.23301809
124	0x3de44470	0.11145866
125	0xbc97b4eb	-0.018518886
126	0x3e4fb164	0.20282513
127	0xbddd95c7	-0.108195834
128	0x3d236759	0.039893482
129	0x3d670c77	0.05640837
130	0x3d195983	0.03743888
131	0xbe05117a	-0.12994948
132	0x3e719dbd	0.23595329
133	0x3e255811	0.16146876
134	0xbcdc6825	-0.026905129
135	0x3e1af77d	0.15133472
136	0x3d3330ab	0.043747585
137	0xbb032058	-0.0020008292
138	0x3d74a7f9	0.059730504
139	0x3e5dbf3c	0.21654981
140	0xbe508d1e	-0.20366332
141	0x3dbb0edc	0.091336936
142	0x3d788cf2	0.06068129
143	0x3db7e174	0.08978549
144	0x3c8e0c2e	0.017339792
145	0xbdf2a0a8	-0.11847049
146	0x3e18e1de	0.14929911
147	0x3e3a8f74	0.18218786
148	0xbd969d07	-0.07354169
149	0x3d102bd9	0.035198066

bias_hh f4 [150]
0	0xbe318e78	-0.17339504
1	0x3bd0edcc	0.006376004
2	0x3d4958d1	0.049156968
3	0x3d30d3f7	0.043170895
4	0x3d22a522	0.039708264
5	0x3d137863	0.03600348
6	0xbe359991	-0.17734362
7	0xbe02f1c6	-0.12787542
8	0xbc83d85b	-0.016094377
9	0xbda170a2	-0.07882811
10	0xbd2d3d38	-0.04229471
11	0xbc4eddad	-0.012626094
12	0xbd382142	-0.044953592
13	0xbdeee5b5	-0.11664907
14	0xbcc82ff3	-0.024436926
15	0xbe5eb94c	-0.21750373
16	0xbd9c988a	-0.07646282
17	0xbd71c20b	-0.059022944
18	0xbe0d54d8	-0.13801897
19	0xbd3933ef	-0.045215543
20	0xbd87db9f	-0.06633686
21	0xbd6e571b	-0.05818854
22	0xbd75a440	-0.059971094
23	0x3e085e30	0.1331718
24	0xbe17fea0	-0.14843225
25	0x3d61bb1c	0.055110082
26	0xbe57a47e	-0.21058843
27	0xbd86883c	-0.065689534
28	0xbca37efd	-0.019958014
29	0xbe012d95	-0.12615044
30	0xbdc51a31	-0.09624136
31	0x3d863840	0.065536976
32	0x3cad8986	0.02118374
33	0xbc909e2a	-0.017653544
34	0x3d9c6bfb	0.07637783
35	0xbd225b07	-0.03963759
36	0x3d99d6b5	0.07511655
37	0xbe05a282	-0.13050273
38	0x3d77021d	0.06030475
39	0x3db14c8c	0.08657178
40	0xbc78e870	-0.015192136
41	0x3cf56294	0.029954232
42	0xbd9730fb	-0.07382389
43	0xbd737dd9	-0.05944619
44	0xbc4dab80	-0.012553096
45	0xbe4acd3e	-0.19804856
46	0xbdc44826	-0.09584074
47	0xbd2be178	-0.04196307
48	0x3cf1a5e7	0.029498054
49	0xbde253a8	-0.110511124
50	0xbd15ff21	-0.036620263
51	0xbd022245	-0.031770963
52	0xbea58ba3	-0.32333097
53	0xbe57a567	-0.2105919
54	0xbdd9ff4c	-0.10644397
55	0xbdb8f6ff	-0.09031486
56	0xbe242577	-0.16029917
57	0xbe172721	-0.1476102
58	0xbe22b5af	-0.1588962
59	0xbe1843e4	-0.14869648
60	0xbe390c4d	-0.18071099
61	0xbd7c8ca4	-0.061657563
62	0xbe447df3	-0.19188671
63	0xbdef7378	-0.11691946
64	0xbe8b5eef	-0.27220866
65	0xbe600eea	-0.2188069
66	0xbe63dbdc	-0.22251838
67	0xbe3316c6	-0.17489156
68	0xbe749517	-0.23884998
69	0x3d3f485d	0.04669987
70	0xbd72b60e	-0.059255652
71	0xbe6fdfa8	-0.23425162
72	0xbc3d8275	-0.011566748
73	0xbe703d5e	-0.2346091
74	0xbe1629ea	-0.14664426
75	0xbdecc95d	-0.115618445
76	0xbe374e2d	-0.17900915
77	0xbc3b04ed	-0.011414749
78	0xbdea7279	-0.11447615
79	0xbd99d800	-0.07511902
80	0xbe2cad15	-0.168629
81	0xbde4c068	-0.11169511
82	0xbe287f33	-0.16454773
83	0xbd0e71ce	-0.0347765
84	0xbe8bf8fd	-0.273384
85	0xbe0af1c2	-0.13568786
86	0xbdf6004a	-0.12011774
87	0xbe02e31f	-0.12781952
88	0xbeb16886	-0.34650058
89	0xbe3c3384	-0.18379027
90	0xbe9f36c2	-0.31096464
91	0xbe581f18	-0.21105611
92	0xbe852add	-0.26009265
93	0xbe32a872	-0.1744707
94	0xbda83d14	-0.08214775
95	0xbe6febe5	-0.2342983
96	0xbe9c6bb6	-0.30550927
97	0xbdcb12bd	-0.099156834
98	0xbda22e6b	-0.0791901
99	0xbde65694	-0.11246982
100	0x3e2f43a6	0.1711565
101	0xbe1d23c0	-0.15345669
102	0xbe037418	-0.12837255
103	0x3e4aa28b	0.19788568
104	0xbe62df18	-0.22155416
105	0xbe1f02df	-0.15528439
106	0xbd8bf810	-0.068344235
107	0x3dabeb2d	0.083944656
108	0x3da3d9e1	0.080005415
109	0x3d7f6255	0.062349636
110	0x3e33a0b7	0.17541777
111	0xbc8124cd	-0.015764618
112	0xbe35fc3b	-0.17772
113	0x3e4b7a56	0.19870886
114	0xbd8b3eb2	-0.067990676
115	0x3c707714	0.014676828
116	0xbc44c02f	-0.012008711
117	0x3df5138d	0.1196662
118	0xbd106ec9	-0.035261903
119	0x3d6886ef	0.056769308
120	0x3d95ae2b	0.073086105
121	0x3e0d5596	0.1380218
122	0xbe0949cc	-0.13407058
123	0xbe76b8f6	-0.24093994
124	0xbd93f1a9	-0.072238274
125	0x3e09dd75	0.13463385
126	0x3d008933	0.031380843
127	0xbda6bb20	-0.0814116
128	0xbe269afe	-0.16270062
129	0xbd01b19f	-0.031663533
130	0x3cca5c7b	0.024702301
131	0xbe693566	-0.22774276
132	0x3e828c94	0.25497878
133	0x3c3cf1a6	0.011532223
134	0x3e6afcdb	0.22948019
135	0xbcc19a6a	-0.0236332
136	0x3e50b99b	0.20383303
137	0xbc11b058	-0.008892141
138	0x3e4b83e9	0.19874538
139	0x3e742ee6	0.23846015
140	0xbd70a4f9	-0.05875108
141	0x3b17ba8c	0.0023151962
142	0x3d6e680c	0.058204696
143	0x3e1fd669	0.15609135
144	0xbd65cfcb	-0.05610637
145	0x3c20f4b2	0.009823965
146	0x3dab95ee	0.08378206
147	0x3c3bd772	0.01146494
148	0xbdd0aeec	-0.10189614
149	0x3e1bcfae	0.15215942

weight f4 [2, 50]
0	0x3e941986	0.28925723
1	0xbe77c56d	-0.24196406
2	0xbe9697f9	-0.2941282
3	0x3e447bee	0.191879
4	0xbe6d9ed7	-0.23205124
5	0xbde07d07	-0.10961347
6	0xbdd91263	-0.1059921
7	0xbe163741	-0.14669515
8	0x3dfd1808	0.12358099
9	0xbe4ede7c	-0.20202059
10	0x3e218a54	0.15775424
11	0xbe018c91	-0.12651278
12	0xbe2383c2	-0.1596823
13	0x3e8ee109	0.27906063
14	0xbe3802fc	-0.17969888
15	0x3e7f886e	0.24954388
16	0x3db33733	0.08750763
17	0x3e3fe740	0.18740559
18	0x3e97a9cc	0.29621732
19	0x3e475e89	0.19469656
20	0x3d4f80e5	0.050660033
21	0x3e6a60d1	0.22888495
22	0x3c87fff2	0.016601536
23	0xbe805cdf	-0.25070855
24	0x3e8d0a87	0.27547094
25	0x3e487ea9	0.19579567
26	0x3e0e7a4e	0.13913843
27	0xbe3f57fb	-0.18685906
28	0xbe499e28	-0.19689238
29	0x3df15d23	0.117853425
30	0x3e6c32fc	0.23066324
31	0xbe9bf362	-0.30459124
32	0x3e8c8e36	0.27452248
33	0x3d724443	0.05914713
34	0x3e77f1fe	0.24213406
35	0x3e5c9313	0.2154048
36	0x3e9627c3	0.2932721
37	0xbe30bf40	-0.17260456
38	0x3e3bc7ce	0.18337938
39	0x3e6bec40	0.23039341
40	0xbe90de26	-0.28294486
41	0xbc40b1a5	-0.011761104
42	0x3de380ce	0.11108552
43	0x3d6f39b4	0.05840464
44	0xbe030c01	-0.12797548
45	0xbe699d6b	-0.22813956
46	0x3e6b47a7	0.22976552
47	0x3e93c667	0.28862306
48	0xbe467e0a	-0.19384018
49	0x3e983332	0.2972656
50	0xbde5e1d8	-0.11224717
51	0x3d59c549	0.05316666
52	0x3e8cec17	0.27523872
53	0xbe2f5798	-0.17123258
54	0x3e22423a	0.15845576
55	0x3e8362c5	0.25661293
56	0x3e7938de	0.243381
57	0x3df93157	0.12167614
58	0xbe905a24	-0.28193772
59	0x3e23df5f	0.16003178
60	0xbe8620af	-0.2619681
61	0x3e245421	0.16047718
62	0x3e89de15	0.26927248
63	0xbd3b2a90	-0.045694888
64	0x3e930fb3	0.28722915
65	0xbe8542b0	-0.2602744
66	0xbe822fa3	-0.2542697
67	0xbe8d64e1	-0.27616027
68	0xbe5c2573	-0.2149866
69	0xbe3cd672	-0.1844118
70	0xbe5a593e	-0.21323106
71	0xbe2679fa	-0.16257468
72	0x3e6983e2	0.22804216
73	0x3e79bbd6	0.2438806
74	0xbe84425a	-0.25831872
75	0xbe4e3e5d	-0.20140977
76	0xbe58ccf0	-0.21171927
77	0x3e56e6f2	0.20986536
78	0x3e8d43ba	0.27590734
79	0xbe8cc7f5	-0.27496305
80	0xbe420ab5	-0.18949397
81	0x3e376f0f	0.17913459
82	0xbe8eb6e0	-0.27873898
83	0xbe5effaa	-0.21777216
84	0xbe7c94c8	-0.2466613
85	0xbe70f281	-0.23530008
86	0xbdf8c697	-0.12147253
87	0x3e05a9e3	0.13053088
88	0xbe86483b	-0.26226982
89	0xbdf7a0ea	-0.12091239
90	0x3df17e29	0.11791641
91	0x3e62793c	0.2211656
92	0xbe85bbad	-0.26119748
93	0xbe917ce8	-0.28415608
94	0x3e82d8ae	0.25555938
95	0x3d45a0f9	0.04824922
96	0xbe5ed12e	-0.21759483
97	0xbe0b1341	-0.13581564
98	0x3e7b9034	0.24566728
99	0xbe2d75bf	-0.16939448

bias f4 [2]
0	0x3e7f3001	0.24920656
1	0xbe87aab2	-0.26497418

weight f4 [2, 50]
0	0xbde88178	-0.11352819
1	0xbd0d7766	-0.034537695
2	0x3d8f3d72	0.06994142
3	0xbde444ef	-0.111459605
4	0x3e09dd39	0.13463296
5	0x3d7c94ec	0.06166546
6	0xbd6c3098	-0.05766353
7	0xbdd85048	-0.105621874
8	0x3de5db46	0.11223464
9	0xbcc90c4c	-0.024541996
10	0xbd242e88	-0.04008344
11	0xbd02ea9a	-0.031962015
12	0xbe02abbb	-0.12760822
13	0xbdbc9acd	-0.092092134
14	0x3d891270	0.0669297
15	0xbdb60b5a	-0.08888884
16	0xbdc067c5	-0.093947925
17	0xbe05d6d3	-0.1307023
18	0x3d980712	0.074232236
19	0xbd293046	-0.041305803
20	0xbd9205e4	-0.0713003
21	0xbe0aab83	-0.13541989
22	0xbd995814	-0.07487503
23	0xbe01b662	-0.1266723
24	0x3d8c8326	0.06860952
25	0x3dc4bf48	0.096067965
26	0x3c64fd90	0.01397647
27	0x3c973708	0.018458858
28	0x3dcd7bf4	0.10033408
29	0x3da008e0	0.07814193
30	0x3d9b102e	0.075714454
31	0x3e0f991d	0.14023252
32	0xbdc45bee	-0.09587847
33	0xbd37d64e	-0.04488211
34	0x3d03e3c4	0.032199636
35	0x3dda3882	0.10655309
36	0xbcee6310	-0.029099971
37	0xbd9fbd79	-0.07799811
38	0xbd0af624	-0.033926144
39	0xbd32c54c	-0.04364519
40	0xbe078524	-0.13234383
41	0x3dc6daba	0.097096875
42	0xbe0917a9	-0.13387932
43	0x3ba314e0	0.0049768537
44	0x3e0b7bf3	0.13621502
45	0x3c4ea8a0	0.0126134455
46	0x3d0d1c08	0.03445056
47	0x3b8300a0	0.0039978772
48	0x3d47c000	0.04876709
49	0xbde106ad	-0.109876014
50	0x3db1c914	0.08680931
51	0xbd01494e	-0.03156405
52	0xbca5d0f8	-0.020241246
53	0x3c707340	0.014675915
54	0xbd2ce0b0	-0.042206466
55	0xbd7e5c76	-0.062099896
56	0xbddd5080	-0.1080637
57	0x3d5324ac	0.051548645
58	0x3da0ec00	0.078575134
59	0x3d04e654	0.03244622
60	0x3ca1bf00	0.019744396
61	0x3d8f3600	0.069927216
62	0x3e07e59f	0.13271187
63	0xbda0bf20	-0.07848954
64	0xbdd2ed05	-0.10299114
65	0x3ded2f7a	0.11581321
66	0x3e1024d9	0.14076556
67	0x3e09ab63	0.13444285
68	0xbd70e344	-0.058810487
69	0x3dd5c234	0.10437432
70	0xbd57b1a2	-0.05265964
71	0x3dbf706c	0.09347615
72	0xbd9d2aa9	-0.076741524
73	0x3cbd1c88	0.023084894
74	0xbdfc25d6	-0.12311904
75	0x3d71a9b0	0.058999717
76	0xbd81a822	-0.06330897
77	0xbdaae76e	-0.08344923
78	0x3c8d19f0	0.017224282
79	0xbd8f64dc	-0.07001659
80	0x3d35fcb8	0.044430465
81	0x3c851390	0.01624468
82	0xbddddc6e	-0.10833059
83	0x3df2d32a	0.118566826
84	0x3c09ece0	0.008418292
85	0xbdf3764c	-0.11887798
86	0x3c73be80	0.014876962
87	0xbdfc75a9	-0.123271294
88	0x3e0fde79	0.1404971
89	0x3de9306e	0.1138619
90	0x3dfe6d6a	0.12423213
91	0xbd1dae92	-0.03849656
92	0xbc2e6ba0	-0.010645777
93	0x3d9bfb5c	0.07616302
94	0xbd8e7dcd	-0.06957588
95	0xbcfe8780	-0.03107047
96	0xbb8be720	-0.0042694956
97	0x3d358228	0.04431358
98	0xbdd6ac82	-0.10482122
99	0x3d9810e6	0.07425098

bias f4 [2]
0	0xbb92d140	-0.004480511
1	0xbcb55908	-0.02213718
