data/RNN_runs/sweep2_H2/rnn_sto3g_H2_0-7348_eq1_nU25_nL2_lr00025_lrsC_ns10000.pt (torch_old, 444626 bytes, 13 tensors)

weight_ih f4 [75, 2]
-0.22041078 0.27178118 -0.2737925 0.38997045 -0.06520178 0.27554837 -0.025102317 -0.11530477
-0.28572848 0.20471197 -0.13182145 0.351584 -0.03212538 -0.2271611 -0.19421685 0.16606553
-0.16399781 0.42170042 0.09618415 0.1423593 -0.034579378 0.252559 0.30557585 0.40851793
-0.19688433 0.34814635 -0.21739799 0.42688188 0.0537369 -0.23272987 0.06386174 0.34403458
0.05178041 0.113290764 0.032011293 0.2583834 -0.27532652 0.20214209 -0.28381887 0.30429313
0.0022577625 0.03150021 -0.099459924 0.47752526 -0.16308571 0.25804844 -0.17516598 0.31734407
0.01745693 0.39228332 -0.010102697 -0.2221792 0.010571371 -0.23616573 -0.12643239 -0.31965575
-0.30140907 -0.15655677 0.107108064 -0.44012952 -0.10825546 -0.12900783 -0.31554717 -0.43168595
-0.0859671 -0.25151685 -0.26036343 -0.39975095 -0.37668422 -0.21745092 0.207285 -0.1559099
-0.35143495 -0.40229964 -0.017978866 -0.2636049 0.10348952 -0.49733132 0.046066537 -0.132939
0.19871502 -0.26857522 0.11504597 -0.22337635 -0.09392452 -0.3808805 -0.023069885 -0.09505355
0.28621727 -0.21081957 -0.22822094 0.009421107 0.16186756 -0.107111365 0.055870894 -0.21635939
0.18694374 -0.16566435 0.33039686 -0.32989344 0.29377502 -0.3978255 0.17816477 -0.38955194
-0.10897398 -0.13434051 -0.15521435 0.48224598 -0.006487976 0.2310628 0.3096091 -0.3718432
0.25214738 -0.291465 -0.16065623 0.25319368 -0.3613989 0.33105502 -0.14332809 0.4475805
-0.20099217 0.32908976 0.3781231 -0.2863792 0.33755866 -0.34620422 -0.063380904 0.33776587
-0.06993603 0.40884393 0.0032010442 -0.16587354 -0.05653317 0.05127195 0.10083156 -0.3976632
0.0032459632 0.24248435 0.15738626 -0.30463108 -0.02499597 -0.18682455 0.1359565 -0.021746673
0.17593089 -0.33487839 -0.275623 0.27732667 -0.28852153 0.09113822
00000000: 5db3 61be e726 8b3e 882e 8cbe 35aa c73e
00000010: 8388 85bd ad14 8d3e 60a3 cdbc e824 ecbd
00000020: 014b 92be 04a0 513e 34fc 06be d102 b43e
00000030: e795 03bd eb9c 68be c8e0 46be 150d 2a3e
00000040: 0bef 27be 1ee9 d73e 32fc c43d a3c6 113e
00000050: 1ba3 0dbd 6a4f 813e 7074 9c3e 4329 d13e
00000060: 0c9c 49be 3d40 b23e 949d 5ebe 4390 da3e
00000070: 391b 5c3d bd50 6ebe f2c9 823d 4d25 b03e
00000080: b217 543d fd04 e83d 461e 033d d44a 843e
00000090: 99f7 8cbe 56fe 4e3e b550 91be 4fcc 9b3e
000000a0: f8f6 133b 5d06 013d a5b1 cbbd 317e f43e
000000b0: f1ff 26be ed1e 843e b65e 33be ec7a a23e
000000c0: d601 8f3c 5cd9 c83e c885 25bc f282 63be
000000d0: 8b33 2d3c 6ed5 71be 7e77 01be eba9 a3be
000000e0: 4a52 9abe 6b50 20be 795b db3d a858 e1be
000000f0: 0ab5 ddbd a11a 04be 668f a1be f105 ddbe
00000100: 850f b0bd d1c6 80be 5b4e 85be 28ac ccbe
00000110: c1dc c0be 74ab 5ebe 8542 543e d8a6 1fbe
00000120: 48ef b3be 38fa cdbe 6a48 93bc 39f7 86be
00000130: 50f2 d33d 36a2 febe 44b0 3c3d 2921 08be
00000140: f37b 4b3e b182 89be 399d eb3d c5bc 64be
00000150: 805b c0bd c502 c3be 0efd bcbc 70ab c2bd
00000160: 128b 923e 16e1 57be c0b2 69be fd5a 1a3c
00000170: 9cc0 253e 345d dbbd e1d8 643d 518d 5dbe
00000180: 2e6e 3f3e eaa3 29be c729 a93e cbe7 a8be
00000190: ae69 963e c9af cbbe d370 363e 5a73 c7be
000001a0: c02d dfbd 8f90 09be 83f0 1ebe f2e8 f63e
000001b0: 1699 d4bb ba9b 6c3e 1585 9e3e 3b62 bebe
000001c0: 7619 813e e73a 95be 1183 24be 9aa2 813e
000001d0: 4709 b9be 0b80 a93e 99c4 12be 4529 e53e
000001e0: e4d0 4dbe 747e a83e 5a99 c13e 4ba0 92be
000001f0: 7dd4 ac3e ae41 b1be d9cd 81bd a6ef ac3e
00000200: 9f3a 8fbd fe53 d13e 9cc8 513b c1da 29be
00000210: 538f 67bd 8902 523d c780 ce3d 839a cbbe
00000220: 3aba 543b d14d 783e dd29 213e 9bf8 9bbe
00000230: 59c4 ccbc ef4e 3fbe 2e38 0b3e 1426 b2bc
00000240: 3a27 343e 2e75 abbe 751e 8dbe c3fd 8d3e
00000250: 18b9 93be ada6 ba3d

weight_hh f4 [75, 25]
-0.21475409 -0.1398204 -0.15819189 0.04067955 0.1696553 0.19702509 -0.05242882 0.05770919
-0.31512377 0.02159025 0.07754267 0.4681267 -0.16636772 0.21022066 0.22004461 0.02047053
0.21155119 0.08421213 0.26459157 0.003118576 -0.061373055 -0.36076504 -0.11203795 0.10790843
0.0076884637 -0.21531743 -0.27515203 -0.29732087 0.07411482 0.15771315 0.03966823 0.08212713
0.18646766 -0.29917747 -0.24004719 -0.01956403 0.1636581 0.07244401 0.2273403 -0.11820742
-0.35041264 0.02513717 -0.05042937 0.33309656 -0.33833578 -0.13949612 -0.17568414 -0.27109903
0.26184505 0.21866769 -0.17056054 -0.09781179 -0.054468255 -0.010970154 -0.031663783 -0.10729757
-0.11065589 0.12183576 0.071984924 0.23506983 0.058473613 -0.11768761 -0.03156521 -0.003912649
0.17208537 -0.16928223 0.23799753 -0.22530814 0.1294749 -0.0992952 -0.278488 -0.2873329
-0.040079 0.058569733 0.231026 -0.40918794 -0.32084408 -0.39049572 0.3000453 0.2132727
-0.25027752 -0.24529016 0.059043884 0.29249117 0.23261283 0.07595768 0.14618991 -0.21487902
0.024915924 0.32096735 -0.1151028 0.2072669 -0.36029577 0.22641948 -0.06748913 -0.02544956
-0.39331895 -0.30408868 0.37464738 0.33013 0.004802354 -0.22825801 0.0070619914 -0.19877568
0.11820316 -0.08010047 -0.007261742 -0.041448463 0.16204336 0.20256592 -0.028147005 0.27846926
-0.20792362 0.30504313 0.22405383 -0.026891073 0.27467024 -0.15100203 0.25253657 -0.14191446
-0.1765742 -0.12253637 -0.06461715 0.07121256 0.10137508 -0.36382526 -0.24778268 -0.29818463
-0.045512524 0.018759256 0.020610312 -0.30193818 0.38304088 0.03659336 0.09376729 0.33963344
0.3377309 -0.22864863 0.036848087 0.10525442 -0.04753606 0.14815466 -0.039652884 0.17147328
-0.23108318 -0.08016234 -0.26070923 -0.19578321 0.3355069 0.28172907 -0.20684858 -0.13965999
-0.02270373 0.26897854 0.14829625 -0.13473691 -0.21778989 0.04568371 0.15079871 0.31050146
0.2083103 0.12450989 -0.31411937 0.39804938 0.11396254 -0.17130958 0.1359222 -0.31378925
0.29383954 -0.26649764 -0.30336732 -0.33087406 -0.05415766 0.33130795 0.3463338 -0.32439405
-0.06560679 -0.13815303 -0.16930853 0.1653048 -0.06466379 -0.13303503 0.05581321 0.19165803
-0.040793292 0.1360741 0.10132271 -0.25304428 0.3301891 0.21806677 -0.20600931 0.32952893
-0.26362714 -0.0043915403 -0.37459785 -0.049506582 -0.3056933 -0.03623193 0.32871106 0.2502049
-0.12767315 -0.35052696 -0.1397139 0.066235885 0.28989103 -0.13589814 -0.3751307 0.46327472
0.19534 0.25383466 0.47021326 0.39510313 -0.37586725 0.33867705 0.33390817 -0.15489924
0.41442776 -0.15355799 0.43799806 -0.48953506 -0.15040377 -0.3502274 -0.15165898 0.43501928
0.20434372 -0.2634441 -0.22452502 -0.19293684 0.06594335 0.24796972 -0.14136566 -0.13000213
0.3401035 0.2504731 0.06421218 0.3758923 -0.1349013 -0.35986483 0.24257533 0.29991964
-0.12287269 0.19646397 -0.3479222 0.22127631 -0.17835031 -0.3491376 -0.39403358 -0.14386144
0.115112804 0.14072879 0.00537675 -0.29787692 -0.36479676 0.09710695 0.07123374 -0.09964641
00000000: 7fe8 5bbe 142d 0fbe 0efd 21be 9a9f 263d
00000010: 1eba 2d3e f2c0 493e 9abf 56bd 7960 6c3d
00000020: e757 a1be 09de b03c b1ce 9e3d 4eae ef3e
00000030: 4d5c 2abe 1644 573e 6053 613e d0b1 a73c
00000040: e0a0 583e 6977 ac3d 8c78 873e 0661 4c3b
00000050: 5062 7bbd 32b6 b8be 2774 e5bd 18ff dc3d
00000060: 82ef fb3b 2c7c 5cbe bae0 8cbe 713a 98be
00000070: 83c9 973d 8e7f 213e 277b 223d 4532 a83d
00000080: 61f1 3e3e ca2d 99be eece 75be bf44 a0bc
00000090: fd95 273e 865d 943d e5cb 683e bb16 f2bd
000000a0: 4969 b3be 77ec cd3c 078f 4ebd a28b aa3e
000000b0: 593a adbe 12d8 0ebe 8be6 33be 7ecd 8abe
000000c0: 8e10 863e 6cea 5f3e 6ca7 2ebe 8c51 c8bd
000000d0: 1b1a 5fbd 29bc 33bc e2b1 01bd d4be dbbd
000000e0: 8e9f e2bd 0785 f93d d56c 933d 25b6 703e
000000f0: 0782 6f3d 3406 f1bd 864a 01bd ae35 80bb
00000100: 2637 303e 5258 2dbe a0b5 733e 2db7 66be
00000110: 1195 043e 485b cbbd fb95 8ebe 4c1d 93be
00000120: e129 24bd d1e6 6f3d 1492 6c3e 1581 d1be
00000130: ad45 a4be 0eef c7be 8a9f 993e 2964 5a3e
00000140: 6024 80be 582d 7bbe 00d8 713d 67c1 953e
00000150: 0f32 6e3e b38f 9b3d cfb2 153e 3f09 5cbe
00000160: 7b1c cc3c d555 a43e 04bb ebbd c63d 543e
00000170: b078 b8be 82da 673e be37 8abd 987b d0bc
00000180: 1a61 c9be 83b1 9bbe c8d1 bf3e cd06 a93e
00000190: 115d 9d3b 78bc 69be 4768 e73b da8b 4bbe
000001a0: 8014 f23d b70b a4bd e8f3 edbb ddc5 29bd
000001b0: b2ee 253e 716d 4f3e 8c94 e6bc 8693 8e3e
000001c0: eee9 54be 9d2e 9c3e 5e6e 653e ab4a dcbc
000001d0: 94a1 8c3e 47a0 1abe 794c 813e 0652 11be
000001e0: decf 34be 59f4 fabd ff55 84bd e4d7 913d
000001f0: bd9d cf3d 4e47 babe beba 7dbe a8ab 98be
00000200: 576b 3abd 03ad 993c f5d6 a83c a497 9abe
00000210: ef1d c43e ebe2 153d 1109 c03d 6fe4 ad3e
00000220: 11eb ac3e de22 6abe 05ee 163d a18f d73d
00000230: 2cb5 42bd dbb5 173e 106b 22bd b196 2f3e
00000240: 12a1 6cbe 272c a4bd ae7b 85be 657b 48be
00000250: 8fc7 ab3e cb3e 903e 1dd0 53be 0703 0fbe
00000260: 2cfd b9bc 8eb7 893e f9da 173e 79f8 09be
00000270: 5004 5fbe d81e 3b3d fa6a 1a3e 0cfa 9e3e
00000280: 4c4f 553e 0bff fe3d 41d4 a0be 21cd cb3e
00000290: 3165 e93d c76b 2fbe 302f 0b3e fca8 a0be
000002a0: 2372 963e 6172 88be f652 9bbe 5368 a9be
000002b0: 6cd4 5dbd 32a1 a93e aa52 b13e fa16 a6be
000002c0: da5c 86bd fd77 0dbe 375f 2dbe a945 293e
000002d0: 736e 84bd 563a 08be 649c 643d 0142 443e
000002e0: de16 27bd 0257 0b3e 4882 cf3d 058f 81be
000002f0: 8c0e a93e e54c 5f3e 1bf4 52be 04b8 a83e
00000300: 23fa 86be e9e6 8fbb 4acb bfbe 6ac7 4abd
00000310: d583 9cbe ef67 14bd d14c a83e db1a 803e
00000320: c0bc 02be 4578 b3be 2911 0fbe aea6 873d
00000330: 996c 943e e228 0bbe 2211 c0be 5832 ed3e
00000340: 3507 483e 9ef6 813e cbbf f03e f54a ca3e
00000350: ac71 c0be 1467 ad3e 03f6 aa3e e89d 1ebe
00000360: e02f d43e 4e3e 1dbe 4841 e03e 57a4 fabe
00000370: 7203 1abe 0151 b3be 7e4c 1bbe d9ba de3e
00000380: 7b3f 513e 25e2 86be e3e9 65be 3c91 45be
00000390: 4f0d 873d c6eb 7d3e 29c2 10be 471f 05be
000003a0: 0c22 ae3e 033e 803e ad81 833d f574 c03e
000003b0: 9123 0abe 3440 b8be ab65 783e 118f 993e
000003c0: ada4 fbbd da2d 493e dc22 b2be 4296 623e
000003d0: 77a1 36be 2ac2 b2be c5be c9be 6a50 13be
000003e0: 43c0 eb3d 351b 103e 732f b03b 5383 98be
000003f0: a4c6 babe 02e0 c63d ffe2 913d 6b13 ccbd

bias_ih f4 [75]
-0.025681285 0.012664564 -0.062569216 0.18529257 0.086917296 -0.029040523 -0.079417124 0.15418957
0.06403783 0.29600114 0.0022125163 0.40437242 0.1771947 0.32586414 -0.2226178 0.122028254
-0.04781082 0.35200554 0.20375746 -0.02723234 0.23340699 0.33584768 -0.05971005 0.18803264
0.012760144 -0.25691503 -0.24965219 0.03930994 -0.39556602 -0.14416267 -0.37840772 -0.37873453
-0.4192748 -0.27709112 -0.18397209 -0.3875111 -0.19796634 -0.31803823 -0.40478644 -0.23484844
-0.39281186 -0.04065212 -0.33175653 -0.037030406 -0.24702169 -0.3396903 -0.044691708 -0.28156286
-0.4389422 -0.075981475 -0.124548115 -0.121714376 -0.27244562 0.13236254 0.34904572 -0.32738644
-0.36589473 0.31590843 0.13246465 0.15708391 0.32699093 -0.094260976 -0.25959522 0.15027878
0.31599143 -0.24352302 0.3153925 -0.0043955254 0.30211568 -0.16856252 -0.20705782 -0.2630841
-0.31034997 0.19194987 0.32190725
00000000: 8f61 d2bc 087f 4f3c 4a24 80bd 56bd 3d3e
00000010: b201 b23d 64e6 edbc 72a5 a2bd dfe3 1d3e
00000020: 4426 833d 768d 973e ddff 103b e709 cf3e
00000030: 8772 353e aad7 a63e ecf5 63be f3e9 f93d
00000040: 47d5 43bd 123a b43e cca5 503e 5b16 dfbc
00000050: 3e02 6f3e 3af4 ab3e 8692 74bd a18b 403e
00000060: ec0f 513c 5e8a 83be d3a4 7fbe 7603 213d
00000070: a187 cabe 619f 13be a8be c1be 7ee9 c1be
00000080: 30ab d6be e3de 8dbe 2e63 3cbe db67 c6be
00000090: b0b7 4abe e8d5 a2be 2b40 cfbe 1c7c 70be
000000a0: a31e c9be d682 26bd fedb a9be 32ad 17bd
000000b0: 41f3 7cbe e3eb adbe a70e 37bd 0229 90be
000000c0: 08bd e0be 2d9c 9bbd 1513 ffbd 6345 f9bd
000000d0: fe7d 8bbe 0c8a 073e 1fb6 b23e 329f a7be
000000e0: 8e56 bbbe c0be a13e d0a4 073e 9bda 203e
000000f0: 5b6b a73e e60b c1bd aae9 84be aee2 193e
00000100: a1c9 a13e 195e 79be 207b a13e 5708 90bb
00000110: e8ae 9a3e a79b 2cbe f706 54be f6b2 86be
00000120: 31e6 9ebe 828e 443e 07d1 a43e

bias_hh f4 [75]
0.1817446 0.15853691 -0.06446017 0.25377193 -0.11417596 0.19373539 -0.04976277 0.061588384
0.2121603 0.14441757 -0.034009527 0.32211474 0.17638963 0.3156638 -0.28771052 0.38838288
-0.15385179 0.05215329 0.14968498 -0.059978638 0.2600901 0.1755831 0.07246645 0.24316286
0.22722866 -0.111660875 -0.17648107 -0.07161715 -0.5226038 -0.14108726 -0.34439147 -0.27440813
-0.08870906 -0.41361225 -0.33092734 -0.4415347 -0.20722888 -0.3306231 -0.33658504 -0.2451401
-0.18850714 -0.11143565 -0.10208621 -0.07183063 -0.089134485 -0.26007465 -0.3892474 -0.09203115
-0.1296928 -0.14017855 -0.3057401 -0.28296155 0.07923847 0.083675064 0.054423887 -0.17372568
-0.027014852 0.08303691 0.1420783 0.101502046 0.08103641 -0.1419802 -0.18977737 0.29229495
0.009800391 -0.2413928 -0.025251795 -0.3855464 0.24514017 -0.19644831 -0.30140108 -0.18132094
-0.09502504 0.3465304 0.3190202
00000000: 421b 3a3e 8057 223e b203 84bd 65ee 813e
00000010: 16d5 e9bd 9262 463e 0cd4 4bbd 1a44 7c3d
00000020: 8d40 593e 33e2 133e 934d 0bbd 39ec a43e
00000030: 7c9f 343e b09e a13e cb4e 93be 1fda c63e
00000040: 538b 1dbe b09e 553d 0547 193e 29ac 75bd
00000050: 882a 853e 0ecc 333e 4a69 943d afff 783e
00000060: a1ae 683e 75ae e4bd 74b7 34be 03ac 92bd
00000070: 5dc9 05bf 2e79 10be 1454 b0be 397f 8cbe
00000080: 18ad b5bd fcc4 d3be 4f6f a9be d610 e2be
00000090: cf33 54be 6e47 a9be e054 acbe 0206 7bbe
000000a0: 0408 41be 6038 e4bd 9312 d1bd f01b 93bd
000000b0: 248c b6bd 8128 85be 6f4b c7be d47a bcbd
000000c0: 30ce 04be f78a 0fbe f789 9cbe 56e0 90be
000000d0: c747 a23d d55d ab3d 95eb 5e3d 25e5 31be
000000e0: 404e ddbc 410f aa3d f97c 113e 4ee0 cf3d
000000f0: 6bf6 a53d 4263 11be 0055 42be afa7 953e
00000100: d291 203c ad2f 77be dadc cebc 5666 c5be
00000110: 0606 7b3e bf29 49be 3e51 9abe 32ac 39be
00000120: 7d9c c2bd 6f6c b13e 9e56 a33e

weight_ih f4 [75, 25]
-0.40580806 -0.17680447 -0.34646314 0.3800742 0.30196798 -0.41072083 -0.21976724 0.24968815
0.17170502 0.049113274 0.3881537 -0.06125303 -0.15173478 0.31776264 -0.0024826268 -0.22963561
0.049549993 -0.019253328 0.08319314 -0.37541908 -0.34123886 -0.17953585 -0.012206851 0.059934366
0.09337437 -0.007015113 0.372524 0.045092322 -0.15009567 0.1667053 0.24630308 0.33542067
-0.14475116 -0.18051335 -0.35226426 -0.15860121 0.17266305 0.083361425 -0.19506674 -0.111879446
0.09534652 0.10992547 0.10512263 0.044653736 0.023226762 0.08956006 -0.134899 -0.05176268
-0.03628612 -0.2395306 -0.18931264 -0.036629822 -0.12738964 0.07001987 0.22785841 -0.16091558
0.06788359 0.039708693 0.068982445 0.30101427 -0.035444032 -0.1316028 -0.015110807 -0.04261692
0.15472347 -0.20213294 0.2313594 -0.06913634 0.23184936 -0.29850528 -0.012572461 -0.08171664
0.0028385266 0.055965222 0.31045866 0.01706574 -0.08056543 -0.068228245 0.36772585 -0.17089798
-0.07549307 -0.1128793 0.20597903 0.31598493 0.39055213 0.006152648 0.08670678 -0.099928744
0.11909928 0.12931092 -0.04765414 0.24872562 -0.1847786 0.121395506 0.03700848 0.17668237
-0.100402 -0.112100005 0.009331159 -0.030716708 -0.14949748 -0.2085757 0.04900957 0.08748496
0.20657252 -0.2503845 -0.1496775 0.05635894 0.28802064 0.3698123 0.037858237 -0.1459446
-0.2864741 0.33364618 0.103327155 -0.18152814 -0.12229174 -0.23031741 0.1527987 -0.111205846
0.1334963 0.1364592 -0.12606038 0.27115044 0.08370321 -0.11683745 -0.055152394 -0.13077189
0.24942358 -0.021297412 -0.08726984 -0.023052877 0.34306216 0.2512474 0.14140876 0.1822084
-0.11250427 -0.27944404 0.348513 0.15952569 -0.2810632 0.10173684 -0.097227015 0.101722024
-0.043730233 -0.033467766 -0.33199492 -0.22116143 0.23272125 0.14235495 -0.020141197 -0.07349501
-0.28136572 0.20511347 0.014909693 -0.32611686 -0.33385968 0.13955855 0.25173154 0.11837753
0.10487861 0.21312727 0.04269442 0.116105296 0.076519534 0.055670336 0.103272855 0.039716285
0.2567746 -0.06552995 -0.11887516 -0.074744515 -0.15355524 0.31498796 0.20067593 0.0406754
-0.23197798 0.22999883 0.2696832 -0.20140184 -0.022980295 -0.08748326 -0.07994682 0.06521596
0.20350614 0.057583235 -0.2066362 -0.2619481 -0.052162815 0.032533113 0.22296493 0.09157801
-0.16310886 0.12066413 -0.13332736 -0.05613709 -0.17049956 0.06792309 -0.028353583 0.119915016
-0.32426587 -0.21368602 -0.10691809 0.33198527 -0.008291251 -0.095828034 -0.36932424 0.13148363
0.41025963 0.27950153 0.016288126 -0.2933304 -0.37400344 0.14715844 0.20445058 0.08558992
0.020836769 -0.31505415 -0.017812245 -0.20743483 -0.14753827 0.13079932 0.11206077 0.17444518
0.2578355 -0.113637455 -0.31173936 -0.11157726 0.08958437 -0.00080899865 -0.39522612 -0.24623138
0.24416842 0.3882214 0.2930792 0.30167866 0.0028398284 -0.029568812 0.30137295 0.27505735
-0.028011074 0.12029593 -0.32177165 -0.0077978866 -0.33141044 0.10286638 -0.047792826 -0.22233665
0.14595404 0.31560922 -0.2566866 -0.43839654 0.22808126 0.32654673 -0.015575774 -0.1864395
00000000: 13c6 cfbe 3b0c 35be 9e63 b1be 1699 c23e
00000010: 8c9b 9a3e 004a d2be aa0a 61be 40ae 7f3e
00000020: 71d3 2f3e 002b 493d 15bc c63e 75e4 7abd
00000030: 5d60 1bbe c9b1 a23e 91b3 22bb 9925 6bbe
00000040: eff4 4a3d 28b9 9dbc 2a61 aa3d ee36 c0be
00000050: dcb6 aebe 3fd8 37be 3eff 47bc bd7d 753d
00000060: 103b bf3d 08df e5bb 77bb be3e bab2 383d
00000070: aeb2 19be cbb4 2a3e e036 7c3e 42bc ab3e
00000080: a639 14be 7ed8 38be fb5b b4be 5b68 22be
00000090: 95ce 303e 65b9 aa3d 93bf 47be 0d21 e5bd
000000a0: 0945 c33d 9b20 e13d 894a d73d d6e6 363d
000000b0: 0d46 be3c 446b b73d f722 0abe 1b05 54bd
000000c0: c1a0 14bd 8247 75be 2cdb 41be 2709 16bd
000000d0: 6e72 02be 9466 8f3d b753 693e 0ec7 24be
000000e0: 8d06 8b3d 95a5 223d ab46 8d3d 8b1e 9a3e
000000f0: c32d 11bd e2c2 06be 5193 77bc 148f 2ebd
00000100: d46f 1e3e f0fb 4ebe 7be9 6c3e 5a97 8dbd
00000110: eb69 6d3e afd5 98be b9fc 4dbc 0e5b a7bd
00000120: 9306 3a3b ca3b 653d 70f4 9e3e 73cd 8b3c
00000130: 7dff a4bd 40bb 8bbd 9046 bc3e e1ff 2ebe
00000140: 1c9c 9abd 432d e7bd 2bec 523e c7c8 a13e
00000150: 73f6 c73e 279c c93b 5393 b13d 71a7 ccbd
00000160: 53ea f33d 156a 043e fd30 43bd eeb1 7e3e
00000170: 9a36 3dbe 359e f83d 3496 173d 39ec 343e
00000180: 909f cdbd b094 e5bd b8e1 183c 9ba1 fbbc
00000190: de15 19be de94 55be 42be 483d 512b b33d
000001a0: bf87 533e 6632 80be 0f45 19be a2d8 663d
000001b0: 7177 933e 0a58 bd3e 3d11 1b3d 8072 15be
000001c0: bcac 92be acd3 aa3e 309d d33d 83e2 39be
000001d0: 1774 fabd 54d8 6bbe 4377 1c3e e4bf e3bd
000001e0: 41b3 083e f6bb 0b3e f915 01be 3bd4 8a3e
000001f0: 976c ab3d 7948 efbd 7ae7 61bd 11e9 05be
00000200: e568 7f3e e977 aebc 88ba b2bd 63d9 bcbc
00000210: d8a5 af3e 80a3 803e 75cd 103e d794 3a3e
00000220: a468 e6bd 4a13 8fbe 4c70 b23e b45a 233e
00000230: 84e7 8fbe 685b d03d f51e c7bd a353 d03d
00000240: 791e 33bd 7f15 09bd 3dfb a9be 2478 62be
00000250: 7b4e 6e3e 7fc5 113e 27ff a4bc 8d84 96bd
00000260: 2b0f 90be 4409 523e c947 743c caf8 a6be
00000270: a8ef aabe 70e8 0e3e f5e2 803e eb6f f23d
00000280: 99ca d63d 093e 5a3e 58e0 2e3d 9dc8 ed3d
00000290: 46b6 9c3d 9406 643d b880 d33d 8bad 223d
000002a0: f677 833e 9134 86bd d274 f3bd a713 99bd
000002b0: 963d 1dbe 1a46 a13e fe7d 4d3e 409b 263d
000002c0: a38b 6dbe d084 6b3e eb13 8a3e 493c 4ebe
000002d0: 2c41 bcbc 6c2a b3bd 29bb a3bd f28f 853d
000002e0: ea63 503e 66dc 6b3d 7198 53be 101e 86be
000002f0: ada8 55bd 7141 053d eb50 643e 408d bb3d
00000300: 0206 27be c11e f73d f886 08be 01f0 65bd
00000310: 7097 2ebe 431b 8b3d c645 e8bc 0196 f53d
00000320: 2d06 a6be 82d0 5abe dff7 dabd f9f9 a93e
00000330: 07d8 07bc 7d41 c4bd 1118 bdbe a5a3 063e
00000340: 8d0d d23e d31a 8f3e ad6e 853c 672f 96be
00000350: 617d bfbe b4b0 163e 7e5b 513e c549 af3d
00000360: dfb1 aa3c c74e a1be fcea 91bc cc69 54be
00000370: 4614 17be 42f0 053e 1e80 e53d c2a1 323e
00000380: 0403 843e c1ba e8bd 4d9c 9fbe 9e82 e4bd
00000390: 0378 b73d fb12 54ba 145b cabe 1424 7cbe
000003a0: 4907 7a3e f5c4 c63e 7a0e 963e a075 9a3e
000003b0: 6a1c 3a3b 4b3a f2bc 8e4d 9a3e 51d4 8c3e
000003c0: 7b77 e5bc b65d f63d 41bf a4be 6a85 ffbb
000003d0: a1ae a9be 9cab d23d 69c2 43bd 38ac 63be
000003e0: fa74 153e 8897 a13e 6d6c 83be 8375 e0be
000003f0: 228e 693e 2231 a73e 8831 7fbc ffe9 3ebe

weight_hh f4 [75, 25]
-0.32145947 -0.115477 -0.28043246 -0.09243575 -0.14171818 -0.2052314 -0.24339753 -0.03123032
0.15533915 0.3553579 0.08595634 -0.0044589657 0.048206724 -0.21163163 -0.023272024 0.33724895
0.2777261 0.043173645 0.029418107 -0.19865084 0.028808437 -0.08831389 -0.114485905 -0.14897229
0.016179271 -0.18675603 -0.21599476 0.14895648 -0.09406605 0.022043107 -0.1088618 0.0836477
8.051651e-05 0.048290245 0.18720318 -0.27194354 0.108965695 -0.010420389 0.13319033 0.07353792
0.2875256 -0.06584009 -0.06736275 -0.099384926 -0.113814406 0.0139280865 0.060876805 -0.16995741
-0.10397255 -0.01697928 -0.12007609 -0.13556004 -0.2854762 0.037665185 -0.08446337 -0.104345486
-0.18700868 -0.09315627 0.30362973 0.28236753 -0.0067352657 -0.19596343 -0.09874379 -0.22553498
0.14876875 0.024157746 -0.056595348 0.24671392 0.34647354 -0.16993646 0.039699636 -0.14405914
-0.12550348 -0.14201517 0.10319342 -0.2032928 0.007816365 -0.050954897 -0.23396437 -0.17452185
-0.046481866 -0.07882268 -0.040755857 -0.07105225 0.046075083 0.118115455 0.057065934 0.0074052867
-0.26336417 0.26143172 0.06467024 -0.07345676 -0.011394166 -0.052191664 -0.22816223 -0.13507883
-0.14753158 -0.13426787 0.057230953 0.14354846 0.187644 -0.08885884 -0.14645645 0.029752297
-0.17105041 0.08757568 -0.31022298 -0.31308675 0.0377857 -0.14261793 0.13931246 0.035277825
0.17147854 -0.100994885 -0.085123815 0.042467583 0.019160837 0.082092375 0.047492515 -0.0049379743
0.13796106 0.14028785 -0.070723735 0.100817844 0.055385463 -0.21617398 -0.14449878 -0.3202375
-0.1853866 -0.19168688 -0.18795903 -0.04937015 0.0061006118 0.11544016 -0.058128 0.25411555
-0.111240335 0.24769728 -0.19314837 -0.024380667 0.0395961 0.14000168 0.21694139 0.29296967
0.049085777 -0.028667929 -0.17669691 -0.122386806 0.06439555 0.1361866 -0.0005118831 -0.04710089
-0.10798823 0.09900572 -0.3171747 -0.009637739 -0.025309308 -0.24925911 0.28820297 0.16290408
0.16135083 -0.2309763 0.12540418 -0.33676183 0.24297164 -0.034931235 0.25629067 0.33423087
0.33398026 -0.012206438 -0.20011306 -0.32532796 -0.10940696 0.14800987 0.22346006 -0.10951958
0.1728299 -0.033541415 -0.06909177 -0.13165233 -0.004560049 -0.093159035 -0.22581933 -0.1376148
-0.010841512 -0.050732613 -0.109099716 -0.13005358 -0.038973805 0.023723304 -0.07796958 -0.06959965
0.08164476 0.19676888 -0.10900653 0.1367139 -0.12147851 -0.048589498 0.27858546 -0.04843631
-0.07431082 -0.02349496 0.0059084315 -0.21020752 -0.08862415 -0.057198524 -0.13886075 -0.03277709
0.18078084 0.08428053 -0.052807257 0.06090988 0.090881154 -0.16875654 0.10173141 -0.3020597
-0.12972446 0.040219404 -0.062757626 0.20996335 0.12036673 -0.026533678 0.09524322 0.16920042
-0.19740948 0.11040422 -0.1265676 -0.20778257 0.06424412 0.010643524 0.06952817 -0.19211607
-0.33476964 0.2627733 -0.050433923 0.23484729 0.20315272 0.11721163 -0.15190306 0.03581935
0.010388777 -0.12453778 0.04167733 -0.01896994 0.20412157 -0.14983411 0.051277805 0.14066356
0.114744745 0.0064029754 0.072159745 0.007301897 -0.32841066 0.031687226 -0.22438802 -0.043243144
00000000: 5696 a4be 357f ecbd d894 8fbe f44e bdbd
00000010: 921e 11be 2e28 52be 343d 79be bad6 ffbc
00000020: 3a11 1f3e 78f1 b53e e109 b03d 841c 92bb
00000030: 6a74 453d f6b5 58be f9a4 bebc e5ab ac3e
00000040: 1e32 8e3e d9d6 303d 3efe f03c 206b 4bbe
00000050: acff eb3c eadd b4bd 9677 eabd 318c 18be
00000060: 648a 843c f93c 3fbe bb2d 5dbe 0c88 183e
00000070: b4a5 c0bd bf93 b43c eff2 debd 7c4f ab3d
00000080: f9da a838 fecb 453d 31b2 3f3e 2f3c 8bbe
00000090: 6829 df3d 47ba 2abc 0c63 083e 0d9b 963d
000000a0: 8e36 933e 2bd7 86bd 7bf5 89bd 538a cbbd
000000b0: 8717 e9bd a132 643c f559 793d 5109 2ebe
000000c0: 8fef d4bd 2218 8bbc 74ea f5bd 40d0 0abe
000000d0: f029 92be cf46 1a3d 22fb acbd 16b3 d5bd
000000e0: 347f 3fbe b7c8 bebd 5b75 9b3e 7a92 903e
000000f0: 81b3 dcbb a3aa 48be 2f3a cabd a4f2 66be
00000100: d656 183e 77e6 c53c 86d0 67bd 93a2 7c3e
00000110: fb64 b13e d303 2ebe 169c 223d 3d84 13be
00000120: fc83 00be 6d6c 11be 1257 d33d fd2b 50be
00000130: 3610 003c 15b6 50bd 5b94 6fbe dbb5 32be
00000140: c563 3ebd c96d a1bd 9def 26bd d883 91bd
00000150: 3ab9 3c3d 84e6 f13d f8bd 693d 0ca8 f23b
00000160: abd7 86be 61da 853e d571 843d 7f70 96bd
00000170: 99ae 3abc edc6 55bd 5ca3 69be 1b52 0abe
00000180: 8512 17be 847d 09be 016b 6a3d 5efe 123e
00000190: c025 403e a0fb b5bd aef8 15be 17bb f33c
000001a0: d727 2fbe e15a b33d 8cd5 9ebe e84c a0be
000001b0: 2ec5 1a3d 6f0a 12be eda7 0e3e 7b7f 103d
000001c0: 1298 2f3e 68d6 cebd 6555 aebd 7df2 2d3d
000001d0: 30f7 9c3c 0c20 a83d 8387 423d bbce a1bb
000001e0: aa45 0d3e 9ea7 0f3e 9bd7 90bd 9679 ce3d
000001f0: dedb 623d b65c 5dbe 7df7 13be 2bf6 a3be
00000200: fcd5 3dbe 9149 44be 5578 40be 5b38 4abd
00000210: a4e7 c73b e46b ec3d a017 6ebd 6f1b 823e
00000220: f9d1 e3bd 5ba4 7d3e b0c8 45be f7b9 c7bc
00000230: 852f 223d 9a5c 0f3e e225 5e3e 1f00 963e
00000240: 2b0e 493d 01d9 eabc 09f0 34be efa5 fabd
00000250: d0e1 833d 8074 0b3e e52f 06ba ddec 40bd
00000260: ef28 ddbd 83c3 ca3d b964 a2be 9be7 1dbc
00000270: 7755 cfbc c83d 7fbe 578f 933e 54d0 263e
00000280: 2739 253e 0d85 6cbe f469 003e 0c6c acbe
00000290: 8fcd 783e 0e14 0fbd 8838 833e 4f20 ab3e
000002a0: 76ff aa3e 83fd 47bc 70ea 4cbe 6391 a6be
000002b0: c210 e0bd e68f 173e b7d2 643e cd4b e0bd
000002c0: 52fa 303e b962 09bd fc7f 8dbd decf 06be
000002d0: 776c 95bb 2aca bebd 2f3d 67be e5ea 0cbe
000002e0: 99a0 31bc 00cd 4fbd ac6f dfbd c42c 05be
000002f0: ffa2 1fbd 6057 c23c 84ae 9fbd 438a 8ebd
00000300: 5e35 a73d c87d 493e d13e dfbd bbfe 0b3e
00000310: bac9 f8bd c805 47bd c1a2 8e3e 2765 46bd
00000320: 4530 98bd 8178 c0bc 849b c13b a440 57be
00000330: 9480 b5bd 0049 6abd 8331 0ebe 4541 06bd
00000340: 9d1e 393e 459b ac3d 6c4c 58bd a37c 793d
00000350: e61f ba3d 84ce 2cbe 8f58 d03d 92a7 9abe
00000360: 7dd6 04be 1abd 243d 1287 80bd a200 573e
00000370: d582 f63d 285d d9bc e10e c33d e042 2d3e
00000380: b625 4abe 9c1b e23d f09a 01be f4c4 54be
00000390: 6c92 833d 2d62 2e3c c964 8e3d 13ba 44be
000003a0: ed66 abbe 398a 863e cd93 4ebd cf7b 703e
000003b0: 4407 503e a70c f03d 7a8c 1bbe 50b7 123d
000003c0: b035 2a3c aa0d ffbd d9b5 2a3d d966 9bbc
000003d0: 3f05 513e 1d6e 19be ad08 523d 1c0a 103e
000003e0: 4bff ea3d 0dd0 d13b 7dc8 933d c044 ef3b
000003f0: 7125 a8be 77ca 013d f9c5 65be b91f 31bd

bias_ih f4 [75]
-0.04563606 0.09642011 0.23337299 -0.14249313 0.1584729 -0.027438352 0.09814348 -0.17446981
0.13043062 -0.07235198 -0.13249889 0.13043065 0.07594661 0.14565682 0.019431574 -0.024865214
0.12491866 -0.28446707 0.19854325 0.19831853 0.3161987 0.15798996 0.17427428 0.035249278
-0.10987942 -0.27134916 -0.2528367 -0.19896968 -0.021399321 -0.14329018 -0.37368876 -0.071630195
-0.30140093 -0.13127753 -0.2050474 -0.14759636 -0.2586675 -0.24760604 -0.41662073 -0.1310843
-0.16814232 -0.3028232 -0.10992274 -0.18900186 -0.27651778 -0.33628047 -0.363804 -0.24965368
-0.06575363 -0.45781675 -0.28168795 -0.30290696 -0.17314747 -0.060424615 -0.13759768 -0.25522536
-0.1980847 0.022986002 0.121960945 -0.033805214 -0.00032577297 -0.29409188 0.30917737 0.053897064
0.05981067 0.026061794 0.26302138 -0.03897629 -0.011784905 -0.22778709 -0.20577644 -0.21153122
-0.3311374 0.057758074 0.104104206
00000000: e1ec 3abd e877 c53d 54f9 6e3e b8e9 11be
00000010: b846 223e 65c6 e0bc 73ff c83d 37a8 32be
00000020: 9b8f 053e 462d 94bd caad 07be 9d8f 053e
00000030: e589 9b3d 1027 153e f72e 9f3c 22b2 cbbc
00000040: 5bd5 ff3d aba5 91be ec4e 4b3e 0314 4b3e
00000050: cce4 a13e 1fc8 213e f574 323e 8c61 103d
00000060: 7608 e1bd 47ee 8abe d073 81be b5be 4bbe
00000070: a14d afbc a9ba 12be 2254 bfbe dab2 92bd
00000080: 3951 9abe 9e6d 06be f2f7 51be 8023 17be
00000090: 1170 84be 708c 7dbe 504f d5be f63a 06be
000000a0: 802d 2cbe a40b 9bbe 2c1f e1bd b489 41be
000000b0: bd93 8dbe f42c acbe 8544 babe 37a5 7fbe
000000c0: d7a9 86bd f566 eabe 6739 90be 9f16 9bbe
000000d0: 924d 31be cd7f 77bd 68e6 0cbe e6ac 82be
000000e0: b7d6 4abe 244d bc3c a9c6 f93d 5677 0abd
000000f0: 82cc aab9 3693 96be 7f4c 9e3e 2bc3 5c3d
00000100: 08fc 743d 8b7f d53c bdaa 863e 9aa5 1fbd
00000110: 7915 41bc 0541 69be 0fb7 52be a49b 58be
00000120: d78a a9be bb93 6c3d 9634 d53d

bias_hh f4 [75]
0.021076636 -0.10788728 0.1830596 -0.30224562 0.09544595 0.14126104 0.21415184 -0.07069579
-0.15558687 -0.016214343 0.15983544 0.0052626343 -0.0121445265 0.25998008 -0.14754012 -0.037632905
0.20494214 0.034710586 -0.036372777 0.04552454 -0.034762252 -0.008929583 0.17075957 0.004423963
0.0018058557 -0.2801545 -0.2990906 -0.078930244 -0.1906573 -0.29047304 -0.29635736 0.04190203
-0.061068602 -0.12984717 -0.24861228 -0.07057495 0.0042092395 -0.4399873 -0.030955516 -0.1313676
-0.28396577 -0.384791 -0.22236459 -0.06392296 -0.19835497 -0.103987 -0.26291677 -0.026887713
0.018437756 -0.19055983 -0.18532798 0.044793878 0.0756646 -0.049245432 -0.21123001 -0.23926774
-0.022118399 0.057106882 0.15669361 0.19985275 0.23773158 -0.11237441 -0.030282874 -0.2543823
0.06539881 0.06709137 0.16462779 0.079749085 0.1786567 -0.14051431 -0.22044267 0.08797625
-0.24790959 0.025946235 0.020932522
00000000: e9a8 ac3c 02f4 dcbd fa73 3b3e f0bf 9abe
00000010: 2b79 c33d bca6 103e 9f4a 5b3e f4c8 90bd
00000020: 2a52 1fbe f1d3 84bc e7ab 233e 2d72 ac3b
00000030: d6f9 46bc 1c1c 853e c214 17be f624 1abd
00000040: 5adc 513e b02c 0e3d 9ffb 14bd f177 3a3d
00000050: dd62 0ebd 634d 12bc 99db 2e3e e4f6 903b
00000060: 76b2 ec3a 6970 8fbe 6722 99be 2ea6 a1bd
00000070: ab3b 43be e2b8 94be 27bc 97be 77a1 2b3d
00000080: 1223 7abd a8f6 04be 3894 7ebe 9989 90bd
00000090: a9ed 893b 0446 e1be 6c96 fdbc 3a85 06be
000000a0: f663 91be 5303 c5be 8bb3 63be 0aea 82bd
000000b0: 911d 4bbe 23f7 d4bd 079d 86be 9f43 dcbc
000000c0: c70a 973c 1e22 43be 9ec6 3dbe c979 373d
000000d0: 0bf6 9a3d 94b5 49bd ae4c 58be 9a02 75be
000000e0: a531 b5bc e8e8 693d 4a74 203e 33a6 4c3e
000000f0: e86f 733e 8e24 e6bd ca13 f8bc 663e 82be
00000100: d0ef 853d 3367 893d 3094 283e 7d53 a33d
00000110: c8f1 363e fce2 0fbe b9bb 61be e42c b43d
00000120: 03dc 7dbe 338d d43c ae7a ab3c

weight f4 [2, 25]
-0.38589752 -0.39180353 -0.33985075 -0.23121907 -0.34684363 -0.3275795 -0.2675981 -0.29618752
0.35461378 0.37431362 0.34474665 -0.3257302 0.3894742 -0.30234426 0.24917683 0.3701747
0.40039665 0.1518937 0.38342813 -0.23283455 -0.37473685 -0.20443234 -0.39343652 -0.1736831
0.23097251 0.39665818 0.18511863 0.02883231 0.30649027 0.26981574 0.36602995 0.053534497
0.21014905 -0.4083426 -0.232882 -0.19707587 0.03645511 -0.29028118 0.34955016 -0.30308375
-0.42897972 -0.36341867 -0.3523824 -0.392847 0.40288186 0.39072686 0.42836934 0.411436
0.09225729 -0.36100087
00000000: 5c94 c5be 799a c8be eb00 aebe b1c4 6cbe
00000010: 7d95 b1be 80b8 a7be 9e02 89be e4a5 97be
00000020: f08f b53e 09a6 bf3e a282 b03e 1cc6 a6be
00000030: 2a69 c73e decc 9abe 3628 7f3e 8a87 bd3e
00000040: ca00 cd3e 068a 1b3e b150 c43e 2e6c 6ebe
00000050: 82dd bfbe b656 51be 8370 c9be fcd9 31be
00000060: 0f84 6c3e c816 cb3e bd8f 3d3e bd31 ec3c
00000070: 4bec 9c3e 4a25 8a3e 4768 bb3e fd46 5b3d
00000080: 5031 573e 4812 d1be 9e78 6ebe 42ce 49be
00000090: f451 153d bc9f 94be 3df8 b23e cb2d 9bbe
000000a0: 3ba3 dbbe 0312 babe 776b b4be 3e23 c9be
000000b0: 8846 ce3e 5a0d c83e 3a53 db3e bda7 d23e
000000c0: 64f1 bc3d 1bd5 b8be

bias f4 [2]
0.34110898 -0.1789899
00000000: d6a5 ae3e 2149 37be

weight f4 [2, 25]
0.08347665 -0.16193216 0.11263482 -0.098753214 0.07199751 0.07748674 -0.14790866 0.060747758
-0.093278505 0.15814565 0.10023995 -0.17625342 0.00944452 0.02358821 0.19443484 0.17364778
-0.14722688 -0.11577501 0.06653221 -0.090531014 0.14569281 -0.069006175 -0.08237634 -0.00858435
-0.17688368 0.1765386 0.16767718 -0.046874598 0.040271327 -0.19028585 -0.10215943 -0.045676082
0.1419182 -0.016804457 0.12224002 0.012343213 0.013400152 0.030468076 -0.16595426 -0.07246287
-0.17969683 -0.107894495 0.17018713 0.060394928 -0.09190395 0.19719322 -0.024458438 0.06895186
-0.16961877 -0.04023394
00000000: cef5 aa3d 8bd1 25be 16ad e63d 203f cabd
00000010: 6e73 933d 5eb1 9e3d 5e75 17be a4d2 783d
00000020: cd08 bfbd eff0 213e 9a4a cd3d c77b 34be
00000030: 30bd 1a3c 103c c13c ed19 473e b9d0 313e
00000040: a5c2 16be 731b edbd 0a42 883d 5368 b9bd
00000050: 7f30 153e 1c53 8dbd edb4 a8bd 60a5 0cbc
00000060: ff20 35be 89c6 343e 91b3 2b3e 94ff 3fbd
00000070: 8cf3 243d 4bda 42be f738 d1bd d816 3bbd
00000080: 0153 113e 80a9 89bc fa58 fa3d 303b 4a3c
00000090: 508c 5b3c 3098 f93c eaef 29be 6a67 94bd
000000a0: 7202 38be caf7 dcbd 8945 2e3e ac60 773d
000000b0: 2338 bcbd 05ed 493e 105d c8bc a236 8d3d
000000c0: 8bb0 2dbe 58cc 24bd

bias f4 [2]
0.16722973 0.08236714
00000000: 453e 2b3e 1ab0 a83d

amplitudes f4 [10000, 2]
0.9937295 0.0 0.9937295 0.0 0.9937295 0.0 0.9937295 0.0
0.9937295 0.0 0.9937295 0.0 0.9937295 0.0 0.9937295 0.0
0.9937295 0.0 0.9937295 0.0 0.9937295 0.0 0.9937295 0.0
0.9937295 0.0 0.9937295 0.0 0.9937295 0.0 0.9937295 0.0
0.9937295 0.0 0.9937295 0.0 0.9937295 0.0 0.9937295 0.0
0.9937295 0.0 0.9937295 0.0 0.9937295 0.0 0.9937295 0.0
0.9937295 0.0 0.9937295 0.0 0.9937295 0.0 0.9937295 0.0
0.9937295 0.0 0.9937295 0.0 0.9937295 0.0 0.9937295 0.0
0.9937295 0.0 0.9937295 0.0 0.9937295 0.0 0.9937295 0.0
0.9937295 0.0 0.9937295 0.0 0.9937295 0.0 0.9937295 0.0
0.9937295 0.0 0.9937295 0.0 0.9937295 0.0 0.9937295 0.0
0.9937295 0.0 0.9937295 0.0 0.9937295 0.0 0.9937295 0.0
0.9937295 0.0 0.9937295 0.0 0.9937295 0.0 0.9937295 0.0
0.9937295 0.0 0.9937295 0.0 0.9937295 0.0 0.9937295 0.0
0.9937295 0.0 0.9937295 0.0 0.9937295 0.0 0.9937295 0.0
0.9937295 0.0 0.9937295 0.0 0.9937295 0.0 0.9937295 0.0
0.9937295 0.0 0.9937295 0.0 0.9937295 0.0 0.9937295 0.0
0.9937295 0.0 0.9937295 0.0 0.9937295 0.0 0.9937295 0.0
0.9937295 0.0 0.9937295 0.0 0.9937295 0.0 0.9937295 0.0
0.9937295 0.0 0.9937295 0.0 0.9937295 0.0 0.9937295 0.0
0.9937295 0.0 0.9937295 0.0 0.9937295 0.0 0.9937295 0.0
0.9937295 0.0 0.9937295 0.0 0.9937295 0.0 0.9937295 0.0
0.9937295 0.0 0.9937295 0.0 0.9937295 0.0 0.9937295 0.0
0.9937295 0.0 0.9937295 0.0 0.9937295 0.0 0.9937295 0.0
0.9937295 0.0 0.9937295 0.0 0.9937295 0.0 0.9937295 0.0
0.9937295 0.0 0.9937295 0.0 0.9937295 0.0 0.9937295 0.0
0.9937295 0.0 0.9937295 0.0 0.9937295 0.0 0.9937295 0.0
0.9937295 0.0 0.9937295 0.0 0.9937295 0.0 0.9937295 0.0
0.9937295 0.0 0.9937295 0.0 0.9937295 0.0 0.9937295 0.0
0.9937295 0.0 0.9937295 0.0 0.9937295 0.0 0.9937295 0.0
0.9937295 0.0 0.9937295 0.0 0.9937295 0.0 0.9937295 0.0
0.9937295 0.0 0.9937295 0.0 0.9937295 0.0 0.9937295 0.0
00000000: 0e65 7e3f 0000 0000 0e65 7e3f 0000 0000
00000010: 0e65 7e3f 0000 0000 0e65 7e3f 0000 0000
00000020: 0e65 7e3f 0000 0000 0e65 7e3f 0000 0000
00000030: 0e65 7e3f 0000 0000 0e65 7e3f 0000 0000
00000040: 0e65 7e3f 0000 0000 0e65 7e3f 0000 0000
00000050: 0e65 7e3f 0000 0000 0e65 7e3f 0000 0000
00000060: 0e65 7e3f 0000 0000 0e65 7e3f 0000 0000
00000070: 0e65 7e3f 0000 0000 0e65 7e3f 0000 0000
00000080: 0e65 7e3f 0000 0000 0e65 7e3f 0000 0000
00000090: 0e65 7e3f 0000 0000 0e65 7e3f 0000 0000
000000a0: 0e65 7e3f 0000 0000 0e65 7e3f 0000 0000
000000b0: 0e65 7e3f 0000 0000 0e65 7e3f 0000 0000
000000c0: 0e65 7e3f 0000 0000 0e65 7e3f 0000 0000
000000d0: 0e65 7e3f 0000 0000 0e65 7e3f 0000 0000
000000e0: 0e65 7e3f 0000 0000 0e65 7e3f 0000 0000
000000f0: 0e65 7e3f 0000 0000 0e65 7e3f 0000 0000
00000100: 0e65 7e3f 0000 0000 0e65 7e3f 0000 0000
00000110: 0e65 7e3f 0000 0000 0e65 7e3f 0000 0000
00000120: 0e65 7e3f 0000 0000 0e65 7e3f 0000 0000
00000130: 0e65 7e3f 0000 0000 0e65 7e3f 0000 0000
00000140: 0e65 7e3f 0000 0000 0e65 7e3f 0000 0000
00000150: 0e65 7e3f 0000 0000 0e65 7e3f 0000 0000
00000160: 0e65 7e3f 0000 0000 0e65 7e3f 0000 0000
00000170: 0e65 7e3f 0000 0000 0e65 7e3f 0000 0000
00000180: 0e65 7e3f 0000 0000 0e65 7e3f 0000 0000
00000190: 0e65 7e3f 0000 0000 0e65 7e3f 0000 0000
000001a0: 0e65 7e3f 0000 0000 0e65 7e3f 0000 0000
000001b0: 0e65 7e3f 0000 0000 0e65 7e3f 0000 0000
000001c0: 0e65 7e3f 0000 0000 0e65 7e3f 0000 0000
000001d0: 0e65 7e3f 0000 0000 0e65 7e3f 0000 0000
000001e0: 0e65 7e3f 0000 0000 0e65 7e3f 0000 0000
000001f0: 0e65 7e3f 0000 0000 0e65 7e3f 0000 0000
00000200: 0e65 7e3f 0000 0000 0e65 7e3f 0000 0000
00000210: 0e65 7e3f 0000 0000 0e65 7e3f 0000 0000
00000220: 0e65 7e3f 0000 0000 0e65 7e3f 0000 0000
00000230: 0e65 7e3f 0000 0000 0e65 7e3f 0000 0000
00000240: 0e65 7e3f 0000 0000 0e65 7e3f 0000 0000
00000250: 0e65 7e3f 0000 0000 0e65 7e3f 0000 0000
00000260: 0e65 7e3f 0000 0000 0e65 7e3f 0000 0000
00000270: 0e65 7e3f 0000 0000 0e65 7e3f 0000 0000
00000280: 0e65 7e3f 0000 0000 0e65 7e3f 0000 0000
00000290: 0e65 7e3f 0000 0000 0e65 7e3f 0000 0000
000002a0: 0e65 7e3f 0000 0000 0e65 7e3f 0000 0000
000002b0: 0e65 7e3f 0000 0000 0e65 7e3f 0000 0000
000002c0: 0e65 7e3f 0000 0000 0e65 7e3f 0000 0000
000002d0: 0e65 7e3f 0000 0000 0e65 7e3f 0000 0000
000002e0: 0e65 7e3f 0000 0000 0e65 7e3f 0000 0000
000002f0: 0e65 7e3f 0000 0000 0e65 7e3f 0000 0000
00000300: 0e65 7e3f 0000 0000 0e65 7e3f 0000 0000
00000310: 0e65 7e3f 0000 0000 0e65 7e3f 0000 0000
00000320: 0e65 7e3f 0000 0000 0e65 7e3f 0000 0000
00000330: 0e65 7e3f 0000 0000 0e65 7e3f 0000 0000
00000340: 0e65 7e3f 0000 0000 0e65 7e3f 0000 0000
00000350: 0e65 7e3f 0000 0000 0e65 7e3f 0000 0000
00000360: 0e65 7e3f 0000 0000 0e65 7e3f 0000 0000
00000370: 0e65 7e3f 0000 0000 0e65 7e3f 0000 0000
00000380: 0e65 7e3f 0000 0000 0e65 7e3f 0000 0000
00000390: 0e65 7e3f 0000 0000 0e65 7e3f 0000 0000
000003a0: 0e65 7e3f 0000 0000 0e65 7e3f 0000 0000
000003b0: 0e65 7e3f 0000 0000 0e65 7e3f 0000 0000
000003c0: 0e65 7e3f 0000 0000 0e65 7e3f 0000 0000
000003d0: 0e65 7e3f 0000 0000 0e65 7e3f 0000 0000
000003e0: 0e65 7e3f 0000 0000 0e65 7e3f 0000 0000
000003f0: 0e65 7e3f 0000 0000 0e65 7e3f 0000 0000
