data/RNN_runs/sweep2_H2/rnn_sto3g_H2_0-7348_eq1_nU50_nL1_lr00025_lrsO_ns1000.pt (torch_old, 92427 bytes, 9 tensors)

weight_ih f4 [150, 2]
-0.26811624 0.26261565 -0.19493692 0.27708405 -0.3116117 0.38119262 -0.36068988 0.13785355
-0.05470198 0.21071725 -0.04176856 0.25607136 -0.1969854 0.07419418 -0.043698955 0.1402022
-0.18267767 0.32004732 -0.03090036 0.2535256 -0.1189223 0.2947241 -0.1474832 0.3839146
-0.14140476 0.3867214 -0.28885254 0.29811788 -0.054651864 0.11528022 0.29317033 -0.13373886
-0.13098776 0.22472115 0.19745386 0.13957249 -0.30526114 0.20289929 -0.12043859 0.18858214
-0.14729874 0.17110977 -0.18059078 0.37901208 -0.20429935 0.30466777 -0.23458894 0.265536
-0.04872216 0.33575726 0.15821968 0.4116522 -0.09364404 0.29678485 -0.24588713 0.059927054
-0.17131862 0.4352058 -0.15420535 0.12249672 -0.09967703 0.44970083 -0.07407366 -0.04041125
-0.15831645 0.23698841 -0.0346413 0.16477934 -0.20194036 0.4157064 -0.11496496 0.32137272
-0.29365343 0.1419047 -0.14998768 0.32043406 0.053865116 -0.19027169 0.2529346 0.24295756
0.04496537 0.29024008 -0.07749945 0.26585552 -0.2646754 0.22760244 -0.11942872 0.3573272
-0.15165354 0.309897 -0.19123 0.3508298 -0.08373742 0.34193277 -0.039388023 0.16243525
0.13730507 0.3734037 -0.06700999 0.22338921 0.18412721 -0.36261535 0.096958555 -0.2662689
-0.021229386 -0.32126394 0.06759185 -0.10276828 -0.15412386 -0.3808331 0.10351157 -0.2073621
0.16178046 -0.07925285 0.0058215107 -0.15919861 -0.016712409 -0.16505927 0.07911914 -0.008118966
-0.030152518 -0.20640847 0.18918145 -0.31117445 -0.12900269 -0.37070698 0.15335056 -0.20583096
0.12860297 -0.09857223 -0.3275252 -0.1584695 0.10125345 -0.26582766 -0.2826615 -0.4713382
0.17535824 -0.2227985 -0.19211529 -0.3731542 0.12481464 -0.24987674 0.13297589 -0.09101107
0.013509192 -0.39983696 -0.024477474 -0.25858456 -0.08700317 -0.35377488 -0.38722968 -0.46086103
0.05212707 -0.05355466 0.10441394 -0.15343982 -0.2401623 -0.30600837 -0.02359017 -0.13767906
-0.18013161 -0.24053435 -0.31160718 -0.27224797 0.23778293 -0.07922596 0.029994851 -0.04705826
-0.17320757 -0.33140805 0.03972078 -0.37339562 0.039083045 -0.2210069 -0.1310684 -0.33077234
-0.17845306 -0.34785432 -0.22469746 -0.048956234 -0.15565594 -0.28148282 -0.033991236 -0.40877178
-0.1004852 -0.30379945 -0.013673023 -0.10447491 0.17855178 -0.34828177 -0.16997102 -0.43822798
0.15463637 -0.05812491 -0.09605707 -0.22485255 -0.0053033545 -0.38248384 0.15702198 -0.21936265
0.1338058 -0.22311324 -0.052586988 0.120688714 0.07928085 -0.25334427 0.16123652 -0.21135454
-0.1624822 0.4334338 -0.04526403 0.040875804 0.1004944 -0.15987787 0.04991776 0.013350418
0.013457044 0.073615156 0.009047571 0.13012122 0.07054623 -0.33968005 -0.115278624 0.18406372
0.25348863 -0.4373607 0.10907017 -0.34422258 -0.04855693 0.20401296 0.08977503 -0.39715463
0.028035512 -0.13398127 0.122991 -0.44579136 0.2039912 -0.20242889 -0.3087706 0.3927362
-0.018674133 0.15432627 0.005519818 -0.19728479 0.31555814 -0.15757553 0.03159627 -0.30305588
-0.06151789 0.29521564 0.23151752 -0.47446424 0.059859417 0.06300589 -0.17207627 0.23784925
00000000: 8846 89be 8f75 863e 8b9d 47be f6dd 8d3e
00000010: 928b 9fbe ae2b c33e 58ac b8be 7b29 0d3e
00000020: 2f0f 60bd 43c6 573e 8215 2bbd c91b 833e
00000030: 8ab6 49be 1ef3 973d adfd 32bd 2a91 0f3e
00000040: db0f 3bbe 3edd a33e c022 fdbc 1cce 813e
00000050: 898d f3bd 14e6 963e d605 17be 7490 c43e
00000060: 69cc 10be 5900 c63e 7be4 93be e8a2 983e
00000070: a2da 5fbd 0918 ec3d 6c1a 963e d7f2 08be
00000080: a821 06be 4d1d 663e 5831 4a3e 17ec 0e3e
00000090: 304b 9cbe d5c4 4f3e 82a8 f6bd ad1b 413e
000000a0: 7bd5 16be 6637 2f3e caec 38be df0d c23e
000000b0: d933 51be 6afd 9b3e 1538 70be 56f4 873e
000000c0: e390 47bd 60e8 ab3e 5704 223e 14c4 d23e
000000d0: 72c8 bfbd 2ff4 973e d6c9 7bbe 1276 753d
000000e0: 266e 2fbe 4bd3 de3e 02e8 1dbe 8fdf fa3d
000000f0: 7923 ccbd 303f e63e eeb3 97bd 4486 25bd
00000100: b51d 22be 17ad 723e 09e4 0dbd eabb 283e
00000110: 74c9 4ebe 78d7 d43e c072 ebbd f78a a43e
00000120: be59 96be 774f 113e 5f96 19be ef0f a43e
00000130: aba1 5c3d 95d6 42be a580 813e dec9 783e
00000140: 9c2d 383d 599a 943e 08b8 9ebd 371e 883e
00000150: 8983 87be 9d10 693e 0b97 f4bd 97f3 b63e
00000160: 114b 1bbe d2aa 9e3e ccd1 43be f79f b33e
00000170: 867e abbd d011 af3e 5655 21bd 6d55 263e
00000180: b399 0c3e c52e bf3e 893c 89bd 24c0 643e
00000190: d88b 3c3e b8a8 b9be 3592 c63d 6654 88be
000001a0: 40e9 adbc b57c a4be 996d 8a3d 2d78 d2bd
000001b0: a5d2 1dbe 8efc c2be e0fd d33d bb56 54be
000001c0: c7a9 253e 514f a2bd 5fc2 be3b f604 23be
000001d0: 76e8 88bc 4c05 29be 3709 a23d 6905 05bc
000001e0: 6a02 f7bc be5c 53be c8b8 413e 4252 9fbe
000001f0: 4819 04be 4ecd bdbe ee07 1d3e 5ac5 52be
00000200: 7fb0 033e 3de0 c9bd 62b1 a7be d445 22be
00000210: f85d cf3d 901a 88be 02b9 90be 3e53 f1be
00000220: 1c91 333e 4a25 64be dfb9 44be 110e bfbe
00000230: d19e ff3d b0df 7fbe d52a 083e 0364 babd
00000240: a855 5d3c 6eb7 ccbe fc84 c8bc 3265 84be
00000250: b82e b2bd fb21 b5be f842 c6be faf5 ebbe
00000260: 3283 553d 225c 5bbd fad6 d53d 541f 1dbe
00000270: 1bed 75be 21ad 9cbe 2c40 c1bc bdfb 0cbe
00000280: 6c74 38be a34e 76be fa8a 9fbe 1664 8bbe
00000290: 5e7d 733e 3841 a2bd c3b7 f53c 29c0 40bd
000002a0: 535d 31be 51ae a9be 42b2 223d b62d bfbe
000002b0: 8b15 203d a24f 62be cb36 06be fe5a a9be
000002c0: 66bc 36be f619 b2be 1717 66be 5586 48bd
000002d0: 4564 1fbe 841e 90be 653a 0bbd 894a d1be
000002e0: 2fcb cdbd 9a8b 9bbe d104 60bc f1f6 d5bd
000002f0: 47d6 363e fd51 b2be e20c 2ebe 6b5f e0be
00000300: ff58 1e3e 6314 6ebd 92b9 c4bd bf3f 66be
00000310: c3c7 adbb ecd4 c3be 5fca 203e 9aa0 60be
00000320: 6304 093e cc77 64be 7465 57bd a52b f73d
00000330: 005e a23d 57b6 81be 301b 253e 536d 58be
00000340: bc61 26be 09eb dd3e c766 39bd 636d 273d
00000350: 02d0 cd3d 06b7 23be 9176 4c3d b6bb 5a3c
00000360: ef7a 5c3c 8bc3 963d 433c 143c 7f3e 053e
00000370: 8b7a 903d 8bea adbe 3317 ecbd 337b 3c3e
00000380: 43c9 813e beed dfbe 2e60 df3d f13d b0be
00000390: a2e3 46bd c6e8 503e f9db b73d da57 cbbe
000003a0: bbaa e53c 6332 09be b5e2 fb3d c43e e4be
000003b0: 12e3 503e 8549 4fbe 2e17 9ebe b814 c93e
000003c0: 7ffa 98bc b507 1e3e 97df b43b 0605 4abe
000003d0: d690 a13e 7b5b 21be 176b 013d 242a 9bbe
000003e0: 2ffa 7bbd 8126 973e ee12 6d3e faec f2be
000003f0: 262f 753d 3b09 813d c334 30be c18e 733e

weight_hh f4 [150, 50]
-0.09622926 0.20827015 0.040288832 -0.06650006 -0.03291722 0.2576719 -0.14268927 0.07742263
0.1389654 0.20658316 -0.11551577 0.1491081 -0.099049516 -0.00086167495 0.08374797 0.13600633
-0.25543782 -0.039223436 -0.07161995 0.00066860166 0.032042917 -0.17341779 0.03593826 -0.013650277
0.17033297 -0.08664521 0.23745228 0.1469827 -0.14103623 0.13757734 0.029309412 -0.1490005
-0.23281395 0.30279186 0.0051284414 0.0996463 0.019932117 -0.014145969 0.052617975 -0.1989279
-0.086018674 0.009138531 0.0105971685 0.040698532 -0.25643843 -0.016947815 0.13110285 -0.13388804
0.055698134 0.1449127 -0.020125953 0.14158075 -0.021426354 -0.21151163 0.091299355 0.28197274
-0.21656354 0.2859959 0.22296503 0.15377247 -0.046196897 0.25556397 -0.15979122 -0.15541379
0.1895146 0.10374476 -0.09216106 0.026580153 -0.07183435 -0.0061306437 0.25303715 -0.19722064
-0.015936995 -0.059235238 0.058820963 -0.10747158 0.20497563 0.19481434 -0.24685808 0.16438955
0.152734 0.12854952 -0.11064589 0.19959117 -0.22060615 0.2264376 0.04811063 0.06018865
-0.13651596 -0.007157455 -0.040118936 -0.14915192 0.058960993 0.16255876 -0.12620163 -0.20855287
0.06445831 -0.1353849 -0.22728811 0.069200985 0.05466608 0.059369266 -0.16029805 0.028002832
-0.1667028 0.22545506 0.017710848 0.13681415 0.33275947 0.24993359 0.009831879 0.11083155
-0.0060056928 -0.03606816 0.03846724 0.14353073 -0.2649292 0.22261035 -0.107706256 0.0636133
0.2025724 -0.0938139 0.05812885 -0.177073 -0.08392635 0.058975097 0.25154617 0.22026157
-0.03025455 0.20112485 -0.15966079 -0.20229988 -0.17637266 0.15109505 0.05797061 0.141312
0.07811428 0.013139908 0.080164194 -0.33310845 0.08277685 0.08861248 -0.051504325 0.032642644
-0.08944402 -0.13501431 0.24648762 -0.3394282 -0.11246811 0.109649576 -0.11551927 0.044688374
-0.019695578 -0.038729575 0.0647732 0.2763632 -0.17276742 0.29869786 0.10554178 0.25403768
-0.0019579772 -0.039195515 -0.023452677 -0.18480358 0.2902968 0.02663645 -0.16502005 0.07968026
-0.21913421 0.12704983 -0.011915062 -0.14232063 -0.17659125 -0.21894726 -0.059631217 -0.13793077
0.080397666 0.015639717 -0.10364486 0.1956488 0.05904451 -0.12818687 -0.25074238 0.26753616
-0.20217276 0.01388004 -0.030073749 0.21583343 0.026744893 -0.17427132 -0.11899443 -0.096580796
0.07449738 0.20580569 -0.16301574 -0.12454386 0.2114269 -0.2028644 -0.05493443 0.148259
-0.25905523 0.24122924 -0.20439602 -0.15604082 0.15385306 0.14101917 -0.33894005 0.2833885
0.3469224 0.368948 -0.17662539 0.18543507 -0.1328814 -0.36927152 0.24962708 -0.26196316
-0.2879294 -0.14156945 -0.27640355 0.12620555 0.22981372 -0.25750014 -0.32705078 -0.2548837
0.12189462 -0.074380465 0.24982712 0.14843255 -0.15403163 0.25369462 0.32094404 0.30320477
-0.093444504 0.18834487 -0.2300172 0.16515595 0.3478235 0.31314412 -0.24834695 0.015757369
-0.057560444 -0.16420761 0.27756196 0.35888106 -0.25618088 -0.20260367 0.27557006 -0.367516
-0.14950545 0.21347761 -0.21885432 0.24439095 -0.09059371 -0.17125556 0.037684537 0.31476742
00000000: d913 c5bd c544 553e e705 253d 2f31 88bd
00000010: 35d4 06bd 92ed 833e 231d 12be c18f 9e3d
00000020: f24c 0e3e 898a 533e 8893 ecbd cbaf 183e
00000030: 79da cabd 07e2 61ba 0e84 ab3d 3e45 0b3e
00000040: bfc8 82be c1a8 20bd 7bad 92bd 1945 2f3a
00000050: 6f3f 033d 6f94 31be ff33 133d 69a5 5fbc
00000060: c46b 2e3e 0b73 b1bd b126 733e a282 163e
00000070: cd6b 10be 13e1 0c3e 4b1a f03c 9693 18be
00000080: c866 6ebe 8907 9b3e 7c0c a83b 5c13 cc3d
00000090: ae48 a33c 7fc4 67bc f285 573d c1b3 4bbe
000000a0: 8f2a b0bd c7b9 153c bf9f 2d3c 81b3 263d
000000b0: e64b 83be 25d6 8abc d33f 063e f219 09be
000000c0: ba23 643d ff63 143e 2fdf a4bc 8bfa 103e
000000d0: 5286 afbc 8196 58be 28fb ba3d bb5e 903e
000000e0: d5c2 5dbe 0e6e 923e f250 643e 8876 1d3e
000000f0: f538 3dbd 48d9 823e 4fa0 23be cb24 1fbe
00000100: 1e10 423e 2278 d43d f0be bcbd 9fbe d93c
00000110: e31d 93bd 91e3 c8bb 168e 813e 35f4 49be
00000120: 4d8e 82bc a6a0 72bd 40ee 703d 0f1a dcbd
00000130: 22e5 513e 697d 473e 5dc8 7cbe bc55 283e
00000140: 4d66 1c3e 7ca2 033e 509a e2bd a161 4c3e
00000150: 94e6 61be 42df 673e a70f 453d 6088 763d
00000160: d7ca 0bbe 1689 eabb c153 24bd 48bb 18be
00000170: 1581 713d ce75 263e 003b 01be e28e 55be
00000180: b802 843d 57a2 0abe 37be 68be 3fb9 8d3d
00000190: 8ae9 5f3d 302d 733d 2c25 24be 3266 e53c
000001a0: 24b4 2abe b1dd 663e 5716 913c 0219 0c3e
000001b0: 735f aa3e 97ee 7f3e e415 213c a7fb e23d
000001c0: 67cb c4bb 35bc 13bd d38f 1d3d b8f9 123e
000001d0: cda4 87be f8f3 633e 1995 dcbd b147 823d
000001e0: 246f 4f3e 8121 c0bd 8418 6e3d a052 35be
000001f0: 94e1 abbd df8f 713d a9ca 803e 408c 613e
00000200: 64d8 f7bc acf3 4d3e 1e7e 23be b327 4fbe
00000210: 099b 34be a9b8 1a3e 9772 6d3d 18b4 103e
00000220: 61fa 9f3d c548 573c 202d a43d 318d aabe
00000230: e986 a93d 767a b53d 33f6 52bd 4bb4 053d
00000240: 6d2e b7bd 3141 0abe 4067 7c3e 88c9 adbe
00000250: ae55 e6bd f58f e03d 5e95 ecbd 280b 373d
00000260: 9f58 a1bc e7a2 1ebd d0a7 843d 7a7f 8d3e
00000270: f1e9 30be edee 983e 4a26 d83d 3a11 823e
00000280: 6851 00bb 7a8b 20bd d41f c0bc 263d 3dbe
00000290: c8a1 943e af34 da3c 04fb 28be 672f a33d
000002a0: b864 60be 5a19 023e 6437 43bc 80bc 11be
000002b0: 56d4 34be b633 60be dd3f 74bd b93d 0dbe
000002c0: 88a7 a43d dd1e 803c c243 d4bd 2958 483e
000002d0: a8d8 713d 6b43 03be 4e61 80be 80fa 883e
000002e0: 6006 4fbe 1b69 633c 395d f6bc 7003 5d3e
000002f0: 1b18 db3c 2e74 32be 5ab3 f3bd 27cc c5bd
00000300: 1592 983d babe 523e 99ed 26be da10 ffbd
00000310: 4b80 583e afbb 4fbe ed02 61bd 35d1 173e
00000320: e3a2 84be cc04 773e 314d 51be 2ac9 1fbe
00000330: a88b 1d3e 5467 103e 8d89 adbe 4c18 913e
00000340: d09f b13e c1e6 bc3e 49dd 34be b1e2 3d3e
00000350: 1012 08be 2811 bdbe 3e9e 7f3e 0920 86be
00000360: 7b6b 93be 95f7 10be c484 8dbe 073c 013e
00000370: 4a54 6b3e 0fd7 83be 3373 a7be 1e80 82be
00000380: e3a3 f93d c954 98bd aed2 7f3e b4fe 173e
00000390: 78ba 1dbe 43e4 813e c752 a43e a83d 9b3e
000003a0: d55f bfbd 7add 403e a189 6bbe a41e 293e
000003b0: ec15 b23e 6d54 a03e aa4e 7ebe 9915 813c
000003c0: 80c4 6bbd 0a26 28be 9a1c 8e3e 42bf b73e
000003d0: 242a 83be 5677 4fbe 8517 8d3e 0f2b bcbe
000003e0: f517 19be e099 5a3e 591b 60be 9f41 7a3e
000003f0: 3289 b9bd 9e5d 2fbe 1a5b 1a3d 3229 a13e

bias_ih f4 [150]
0.062023617 0.052535977 0.06131814 0.06456112 0.11891413 0.037987508 -0.012509157 0.05283115
0.19391955 0.11012778 -0.01662588 0.24691632 0.0584646 -0.111216575 0.14959905 0.09336081
-0.095081724 0.22886896 0.02926429 -0.006193122 0.12827043 0.07218688 0.2664287 0.07898444
0.06294685 0.18715219 0.22253186 0.02624737 0.10002626 0.14431179 0.23406479 0.008116084
0.15178996 0.0835373 0.30125877 0.008603259 0.12188354 0.1401121 -0.1862922 0.24335876
0.0089873765 0.1452108 0.023858786 0.13066617 0.055098005 0.15887664 0.05394753 0.2335231
0.2855113 0.15666284 -0.1366412 -0.119235076 -0.122520685 -0.12500885 -0.47274554 -0.22251229
-0.12221828 -0.120339975 -0.013738914 -0.07045072 -0.31152996 -0.07213039 -0.36828178 -0.07469631
-0.1348707 -0.2707611 -0.031835694 -0.38387403 -0.1016951 -0.39552298 -0.18503346 -0.2567563
-0.19636503 -0.07245272 -0.062592946 -0.5336252 -0.08734779 -0.3016271 -0.37460673 -0.14298752
-0.27609527 -0.41537184 -0.0639745 -0.07114127 -0.3696402 -0.16308488 -0.19270569 -0.29231712
-0.30184025 -0.29878488 -0.36689734 -0.2539685 -0.35612777 -0.14040631 -0.05096846 -0.18460836
-0.11611892 -0.16086034 -0.34520495 -0.270913 -0.27927876 0.0974389 -0.2831186 -0.27680817
0.16601862 0.16540033 -0.15094095 0.038250048 0.08935992 0.23804364 -0.05196089 0.27256495
-0.19798121 -0.089496374 0.11848225 -0.08004727 -0.03476383 -0.17155434 -0.110131346 0.23754348
0.25667107 -0.17426962 -0.25473252 -0.20011364 0.24710935 -0.25063023 0.124011904 0.24748957
-0.12093165 0.07617754 0.05277494 0.12532282 -0.161033 0.15206409 -0.23945156 0.2088254
0.2336962 0.17582138 -0.26972538 0.15500818 -0.23383246 -0.19251849 0.25521418 0.13701922
-0.013862682 -0.32526857 0.09838257 -0.058951568 -0.3135029 0.16010216
00000000: 7a0c 7e3d f72f 573d bb28 7b3d 9f38 843d
00000010: 4089 f33d ca98 1b3d 35f3 4cbc 7a65 583d
00000020: d992 463e ac8a e13d ff32 88bc a2d7 7c3e
00000030: 9478 6f3d 84c5 e3bd 7e30 193e f433 bf3d
00000040: 35ba c2bd a05c 6a3e aabb ef3c acef cabb
00000050: 5359 033e b7d6 933d 5869 883e 98c2 a13d
00000060: 47ea 803d d3a4 3f3e 64df 633e b904 d73c
00000070: 91da cc3d 78c6 133e aeae 6f3e 53f9 043c
00000080: d46e 1b3e 9b15 ab3d 973e 9a3e aff4 0c3c
00000090: 149e f93d 8c79 0f3e 62c3 3ebe 0a33 793e
000000a0: ca3f 133c 24b2 143e 8073 c33c 5acd 053e
000000b0: 72ae 613d 8fb0 223e 16f8 5c3d ae20 6f3e
000000c0: 8a2e 923e 396c 203e aceb 0bbe 8531 f4bd
000000d0: 20ec fabd 5202 00be b40b f2be 43da 63be
000000e0: 944d fabd ce74 f6bd 2f19 61bc 7848 90bd
000000f0: db80 9fbe 19b9 93bd 6e8f bcbe 61fa 98bd
00000100: 8b1b 0abe 33a1 8abe 2566 02bd 238b c4be
00000110: 8545 d0bd fd81 cabe 6979 3dbe 9075 83be
00000120: ea13 49be 1762 94bd bb30 80bd a99b 08bf
00000130: 66e3 b2bd de6e 9abe 74cc bfbe 526b 12be
00000140: 5c5c 8dbe 9eab d4be 1005 83bd 84b2 91bd
00000150: 7b41 bdbe b9ff 26be a454 45be 97aa 95be
00000160: ce8a 9abe 55fa 98be f8d9 bbbe 2908 82be
00000170: 6156 b6be acc6 0fbe 4ec4 50bd f909 3dbe
00000180: c2cf edbd 93b8 24be b4be b0be 1cb5 8abe
00000190: a0fd 8ebe 0c8e c73d ecf4 90be cdb9 8dbe
000001a0: c900 2a3e b45e 293e 4490 1abe 15ac 1c3d
000001b0: 5502 b73d b6c1 733e f1d4 54bd a28d 8b3e
000001c0: 96bb 4abe e049 b7bd d2a6 f23d d3ef a3bd
000001d0: 8564 0ebd f1ab 2fbe 8b8c e1bd 993e 733e
000001e0: 646a 833e bc73 32be 4d6c 82be 97ea 4cbe
000001f0: 3c0a 7d3e 9b52 80be f4f9 fd3d e86d 7d3e
00000200: 03ab f7bd f802 9c3d 892a 583d a054 003e
00000210: d6e5 24be b0b6 1b3e ca32 75be 53d6 553e
00000220: 0f4e 6f3e 850a 343e 7219 8abe 77ba 1e3e
00000230: c771 6fbe 9123 45be 6fab 823e c44e 0c3e
00000240: 4d20 63bc 9a89 a6be cd7c c93d 3377 71bd
00000250: 7483 a0be d2f1 233e

bias_hh f4 [150]
0.20654495 0.16356221 0.20216417 0.06729528 0.16804859 0.2424442 0.2404648 0.25339893
0.108942404 0.16666974 0.102893814 0.088505656 0.24418859 0.05040281 0.005307295 -0.12816419
0.12645127 0.00053143 0.23603837 0.09106811 0.025714511 0.21479477 0.06620286 -0.013217607
0.18929657 0.13338727 0.23114675 -0.026023159 0.06246144 0.07015656 0.20354722 0.069901004
0.16340242 0.14467557 0.1448979 0.042946417 0.030728025 0.07943064 0.00594168 0.2392223
0.0520631 0.0034218347 0.084650606 0.2217502 0.17277452 0.15262115 0.26402634 0.034410745
0.17326032 0.05260468 -0.12903802 -0.1963895 -0.3514119 -0.23183282 -0.21709879 -0.05165154
0.056113996 -0.07901913 -0.045056947 -0.056216512 -0.31348214 -0.13535112 -0.4001941 -0.0788049
-0.27233145 -0.12718207 0.06396296 -0.23469196 -0.24852017 -0.42078993 -0.25358582 -0.06899839
-0.23232768 -0.31553575 -0.116054274 -0.41072512 -0.011551428 -0.13189124 -0.29295042 -0.18418777
-0.37971267 -0.42448193 -0.074196085 -0.08014852 -0.2685241 -0.28055155 -0.11868326 -0.14255401
-0.3494264 -0.06039909 -0.24920657 -0.16581073 -0.1329118 -0.29060423 -0.26566628 -0.31527472
-0.26223692 -0.11449438 -0.28701723 -0.25014415 -0.2811151 0.24929355 -0.22361684 -0.084291294
0.11141399 -0.037352428 -0.20199706 0.18512821 0.12850638 0.14703058 -0.104189016 0.2571351
-0.28246748 -0.018692616 0.13818711 -0.016993197 0.029851822 -0.10932203 -0.22556175 0.10712658
0.16117862 -0.22788331 -0.262049 -0.1787989 0.1988041 -0.27690724 0.18591955 0.043458704
-0.20990346 0.11316026 0.3374106 0.102087766 -0.15104552 -0.049123712 -0.26055214 0.07521048
0.1931322 0.20230868 -0.017929833 0.16821928 -0.1821445 -0.1669384 0.2212494 0.122880235
-0.124989994 -0.1367986 0.034858774 -0.15673026 -0.29984507 0.22662324
00000000: 8580 533e da7c 273e 2004 4f3e 1cd2 893d
00000010: ee14 2c3e 4b43 783e 683c 763e 81bd 813e
00000020: 321d df3d 79ab 2a3e feb9 d23d 7442 b53d
00000030: 930c 7a3e 2d73 4e3d d1e8 ad3b 793d 03be
00000040: 717c 013e aa4f 0b3a 0bb4 713e eb81 ba3d
00000050: 3da7 d23c 29f3 5b3e 5d95 873d a98e 58bc
00000060: f6d6 413e ac96 083e bcb1 6c3e 852e d5bc
00000070: 91d7 7f3d 3eae 8f3d af6e 503e 4228 8f3d
00000080: f752 273e d525 143e 1d60 143e 95e8 2f3d
00000090: 57b9 fb3c 88ac a23d 6db2 c23b b1f6 743e
000000a0: 1e40 553d dc40 603b 4c5d ad3d 7c12 633e
000000b0: ceeb 303e b848 1c3e 762e 873e 48f2 0c3d
000000c0: 276b 313e 0178 573d 8b22 04be 541a 49be
000000d0: 43ec b3be 9565 6dbe 254f 5ebe 9190 53bd
000000e0: cad7 653d c8d4 a1bd a28d 38bd 4943 66bd
000000f0: bb80 a0be 7c99 0abe 3ee6 ccbe 7764 a1bd
00000100: 076f 8bbe 043c 02be 03ff 823d 1753 70be
00000110: 127c 7ebe c771 d7be 00d6 81be 074f 8dbd
00000120: 4fe7 6dbe e78d a1be ddad edbd 904a d2be
00000130: 3342 3dbc 7f0e 07be 99fd 95be b89b 3cbe
00000140: b369 c2be b255 d9be 1ef4 97bd e824 a4bd
00000150: fe7b 89be 74a4 8fbe 3610 f3bd aef9 11be
00000160: 04e8 b2be 0965 77bd 0230 7fbe 4aca 29be
00000170: 081a 08be 14ca 94be 6905 88be b06b a1be
00000180: eb43 86be 087c eabd ecf3 92be e512 80be
00000190: 52ee 8fbe cf46 7f3e d0fb 64be eaa0 acbd
000001a0: 052d e43d dcfe 18bd 51d8 4ebe 4092 3d3e
000001b0: 2d97 033e 2f8f 163e 0d61 d5bd 36a7 833e
000001c0: 949f 90be 4221 99bc ec80 0d3e 5135 8bbc
000001d0: cf8b f43c 3ae4 dfbd a9f9 66be 2e65 db3d
000001e0: 020c 253e 3e5a 69be 492b 86be 0f17 37be
000001f0: 4d93 4b3e c9c6 8dbe b261 3e3e c101 323d
00000200: eff0 56be 91c0 e73d 15c1 ac3e 6413 d13d
00000210: adab 1abe f235 49bd 1767 85be f407 9a3d
00000220: 73c4 453e 022a 4f3e 96e1 92bc ad41 2c3e
00000230: 1684 3abe e6f1 2abe 348f 623e a2a8 fb3d
00000240: c1fa ffbd ef14 0cbe 13c8 0e3d e67d 20be
00000250: 4b85 99be ec0f 683e

weight f4 [2, 50]
-0.14293028 0.31619996 -0.18537576 -0.23710862 0.39432973 0.22226332 -0.15679702 0.19284138
0.21504022 0.17572021 -0.2279424 0.17631139 -0.31688872 -0.27972385 0.33346972 -0.2854596
-0.23838647 -0.42615822 -0.32663846 0.39031163 0.16006835 -0.29543766 -0.33809265 -0.30958828
0.29500595 -0.4310096 0.217955 0.31871542 -0.21353471 0.3222623 0.34445265 0.40072542
-0.22313374 0.071571365 -0.3782088 0.26548794 0.27329335 0.3687654 -0.30460492 0.32574195
-0.32032424 -0.21322516 0.17748724 0.19552349 -0.33038053 -0.3727864 0.14591153 0.0015763162
-0.18794088 0.3199388 0.3397448 -0.069738515 0.33618182 0.3095032 -0.39117125 -0.042822126
0.1254316 -0.062890336 -0.15621409 -0.093877144 0.36168867 -0.31976938 0.28702763 0.34396365
-0.20205781 0.33397564 0.21525708 0.3311004 0.14760007 -0.28734246 -0.19734417 0.238601
0.3379486 0.25779977 -0.285724 0.27358568 -0.26808724 -0.21643302 0.41167894 -0.080090605
-0.364799 -0.32548144 0.20091683 -0.18471412 0.2752041 -0.2576332 -0.24089937 -0.22241896
0.23004694 -0.24131848 0.33757588 0.39007422 -0.2931056 -0.12333376 0.20244598 0.18016262
-0.20088609 0.18565929 0.32293555 -0.21157709
00000000: 515c 12be f6e4 a13e 25d3 3dbe 9acc 72be
00000010: 96e5 c93e ff98 633e 668f 20be 3678 453e
00000020: 8133 5c3e 00f0 333e bc69 69be f98a 343e
00000030: 3d3f a2be f737 8fbe 8bbc aa3e c327 92be
00000040: 951b 74be 6931 dabe 283d a7be edd6 c73e
00000050: f5e8 233e 9b43 97be 7b1a adbe 5b82 9ebe
00000060: 050b 973e 4aad dcbe 982f 5f3e ab2e a33e
00000070: d8a8 5abe 90ff a43e 195c b03e e22b cd3e
00000080: 2c7d 64be 0294 923d 95a4 c1be 09ee 873e
00000090: 1bed 8b3e d2ce bc3e 2df5 9bbe a6c7 a63e
000000a0: 8a01 a4be b257 5abe 37bf 353e 4f37 483e
000000b0: a327 a9be dcdd bebe d569 153e 659c ce3a
000000c0: 9373 40be 05cf a33e 08f3 ad3e 11d3 8ebd
000000d0: 0620 ac3e 3477 9e3e 9947 c8be 4166 2fbd
000000e0: 2471 003e a6cc 80bd 96f6 1fbe a942 c0bd
000000f0: 422f b93e d0b8 a3be 49f5 923e 011c b03e
00000100: 3ee8 4ebe dbfe aa3e 5a6c 5c3e fe85 a93e
00000110: 7924 173e 8d1e 93be 9714 4abe d253 743e
00000120: 9907 ad3e 55fe 833e 6b4a 92be 6c13 8c3e
00000130: bb42 89be 9ea0 5dbe 95c7 d23e 8b06 a4bd
00000140: efc6 babe 81a5 a6be 24bd 4d3e b325 3dbe
00000150: 8de7 8c3e 80e8 83be 53ae 76be ccc1 63be
00000160: 6d91 6b3e 311c 77be bfd6 ac3e cfb7 c73e
00000170: f011 96be 6996 fcbd 004e 4f3e 8d7c 383e
00000180: 15b5 4dbe 781d 3e3e cf57 a53e aaa7 58be

bias f4 [2]
0.2109929 -0.06880916
00000000: 860e 583e d1eb 8cbd

weight f4 [2, 50]
0.0024250299 0.13884895 0.04134582 0.023755461 -0.017334156 0.12802024 0.10181208 0.04697968
0.11483075 0.13712148 0.008271575 0.016497225 -0.05032614 -0.105865434 0.024434507 -0.14095704
0.050824955 0.018290877 0.11206482 0.11763583 0.099533975 -0.09524706 0.05151342 0.116855964
-0.011926666 0.055563882 -0.029113844 0.03738913 -0.06387249 0.066197455 0.1242121 -0.02007886
0.07196261 0.05774176 -0.0032286644 -0.10262421 -0.06568511 0.016542643 -0.13298461 -0.13369195
-0.020761676 -0.117338166 -0.08400174 0.10793044 -0.042850435 0.12399115 -0.033130713 0.13635756
0.005304873 0.10067999 -0.082588 -0.103301674 -0.10580522 -0.07591113 -0.09224334 0.05392553
0.018563718 0.02287902 -0.021661557 -0.07436879 -0.13105644 -0.08248338 -0.010932788 0.016851082
-0.10298077 -0.08032669 0.09241505 -0.07263327 -0.020389013 -0.0763226 0.114690796 0.012111515
-0.1070044 0.066367224 -0.057629578 0.13152371 0.1291257 -0.119145945 0.1367441 0.092481926
-0.033470295 -0.13000523 0.06740296 -0.036497332 -0.072680525 -0.07836069 0.11905007 0.07472275
0.019296497 -0.0806998 0.13597237 0.00013418496 -0.0012706965 0.072212145 0.012624368 0.08870581
-0.12396036 0.02699101 0.12956212 -0.009444818
00000000: 40ed 1e3b 6b2e 0e3e 3c5a 293d d09a c23c
00000010: 5c00 8ebc bd17 033e da82 d03d c46d 403d
00000020: 622c eb3d 9369 0c3e 8085 073c 3025 873c
00000030: c822 4ebd facf d8bd e02a c83c 0b57 10be
00000040: d42d 503d c0d6 953c 3e82 e53d 0eeb f03d
00000050: 78d8 cb3d e410 c3bd bcff 523d 2e52 ef3d
00000060: 1068 43bc f496 633d 2880 eebc 5825 193d
00000070: 94cf 82bd 8892 873d ea62 fe3d 6c7c a4bc
00000080: 2261 933d a082 6c3d 0098 53bb a42c d2bd
00000090: ea85 86bd 7084 873c 1e2d 08be 8be6 08be
000000a0: 6414 aabc fe4e f0bd 1b09 acbd a20a dd3d
000000b0: f083 2fbd 12ef fd3d 12b4 07bd 51a1 0b3e
000000c0: 80d4 ad3b 5031 ce3d e623 a9bd d48f d3bd
000000d0: 68b0 d8bd 4b77 9bbd 14ea bcbd 04e1 5c3d
000000e0: f012 983c c86c bb3c 9473 b1bc aa4e 98bd
000000f0: a933 06be 0ced a8bd 701f 33bc 480b 8a3c
00000100: 95e7 d2bd 5282 a4bd 1a44 bd3d c0c0 94bd
00000110: dc06 a7bc 064f 9cbd 02e3 ea3d 606f 463c
00000120: 1f25 dbbd 8aeb 873d fe0c 6cbd 27ae 063e
00000130: 8739 043e ca02 f4bd a506 0c3e 2a67 bd3d
00000140: 2618 09bd 1720 05be 900a 8a3d 3a7e 15bd
00000150: 87d9 94bd 927b a0bd 86d0 f33d 3e08 993d
00000160: b013 9e3c f045 a5bd 573c 0b3e 00b4 0c39
00000170: 808d a6ba f6e3 933d 70d6 4e3c 64ab b53d
00000180: eede fdbd 401c dd3c efab 043e 70be 1abc

bias f4 [2]
0.07472767 -0.004976377
00000000: d20a 993d e010 a3bb

amplitudes f4 [1000, 2]
0.011430852 0.0 0.9980624 0.0 0.011430852 0.0 0.9980624 0.0
0.011430852 0.0 0.9980624 0.0 0.9980624 0.0 0.9980624 0.0
0.9980624 0.0 0.9980624 0.0 0.9980624 0.0 0.9980624 0.0
0.9980624 0.0 0.9980624 0.0 0.9980624 0.0 0.9980624 0.0
0.9980624 0.0 0.011430852 0.0 0.9980624 0.0 0.9980624 0.0
0.9980624 0.0 0.9980624 0.0 0.9980624 0.0 0.9980624 0.0
0.9980624 0.0 0.9980624 0.0 0.9980624 0.0 0.9980624 0.0
0.9980624 0.0 0.9980624 0.0 0.9980624 0.0 0.9980624 0.0
0.9980624 0.0 0.9980624 0.0 0.9980624 0.0 0.9980624 0.0
0.9980624 0.0 0.9980624 0.0 0.011430852 0.0 0.9980624 0.0
0.9980624 0.0 0.9980624 0.0 0.011430852 0.0 0.9980624 0.0
0.9980624 0.0 0.9980624 0.0 0.9980624 0.0 0.9980624 0.0
0.9980624 0.0 0.9980624 0.0 0.9980624 0.0 0.011430852 0.0
0.9980624 0.0 0.9980624 0.0 0.9980624 0.0 0.9980624 0.0
0.9980624 0.0 0.9980624 0.0 0.011430852 0.0 0.9980624 0.0
0.9980624 0.0 0.9980624 0.0 0.9980624 0.0 0.9980624 0.0
0.011430852 0.0 0.9980624 0.0 0.9980624 0.0 0.9980624 0.0
0.011430852 0.0 0.9980624 0.0 0.011430852 0.0 0.9980624 0.0
0.9980624 0.0 0.9980624 0.0 0.9980624 0.0 0.9980624 0.0
0.011430852 0.0 0.9980624 0.0 0.9980624 0.0 0.9980624 0.0
0.011430852 0.0 0.9980624 0.0 0.9980624 0.0 0.9980624 0.0
0.9980624 0.0 0.011430852 0.0 0.9980624 0.0 0.9980624 0.0
0.9980624 0.0 0.9980624 0.0 0.9980624 0.0 0.9980624 0.0
0.9980624 0.0 0.9980624 0.0 0.9980624 0.0 0.011430852 0.0
0.9980624 0.0 0.9980624 0.0 0.9980624 0.0 0.9980624 0.0
0.9980624 0.0 0.9980624 0.0 0.9980624 0.0 0.9980624 0.0
0.9980624 0.0 0.011430852 0.0 0.9980624 0.0 0.9980624 0.0
0.9980624 0.0 0.9980624 0.0 0.9980624 0.0 0.011430852 0.0
0.9980624 0.0 0.9980624 0.0 0.9980624 0.0 0.9980624 0.0
0.9980624 0.0 0.9980624 0.0 0.9980624 0.0 0.9980624 0.0
0.9980624 0.0 0.9980624 0.0 0.9980624 0.0 0.9980624 0.0
0.9980624 0.0 0.9980624 0.0 0.9980624 0.0 0.9980624 0.0
00000000: 7848 3b3c 0000 0000 0481 7f3f 0000 0000
00000010: 7848 3b3c 0000 0000 0481 7f3f 0000 0000
00000020: 7848 3b3c 0000 0000 0481 7f3f 0000 0000
00000030: 0481 7f3f 0000 0000 0481 7f3f 0000 0000
00000040: 0481 7f3f 0000 0000 0481 7f3f 0000 0000
00000050: 0481 7f3f 0000 0000 0481 7f3f 0000 0000
00000060: 0481 7f3f 0000 0000 0481 7f3f 0000 0000
00000070: 0481 7f3f 0000 0000 0481 7f3f 0000 0000
00000080: 0481 7f3f 0000 0000 7848 3b3c 0000 0000
00000090: 0481 7f3f 0000 0000 0481 7f3f 0000 0000
000000a0: 0481 7f3f 0000 0000 0481 7f3f 0000 0000
000000b0: 0481 7f3f 0000 0000 0481 7f3f 0000 0000
000000c0: 0481 7f3f 0000 0000 0481 7f3f 0000 0000
000000d0: 0481 7f3f 0000 0000 0481 7f3f 0000 0000
000000e0: 0481 7f3f 0000 0000 0481 7f3f 0000 0000
000000f0: 0481 7f3f 0000 0000 0481 7f3f 0000 0000
00000100: 0481 7f3f 0000 0000 0481 7f3f 0000 0000
00000110: 0481 7f3f 0000 0000 0481 7f3f 0000 0000
00000120: 0481 7f3f 0000 0000 0481 7f3f 0000 0000
00000130: 7848 3b3c 0000 0000 0481 7f3f 0000 0000
00000140: 0481 7f3f 0000 0000 0481 7f3f 0000 0000
00000150: 7848 3b3c 0000 0000 0481 7f3f 0000 0000
00000160: 0481 7f3f 0000 0000 0481 7f3f 0000 0000
00000170: 0481 7f3f 0000 0000 0481 7f3f 0000 0000
00000180: 0481 7f3f 0000 0000 0481 7f3f 0000 0000
00000190: 0481 7f3f 0000 0000 7848 3b3c 0000 0000
000001a0: 0481 7f3f 0000 0000 0481 7f3f 0000 0000
000001b0: 0481 7f3f 0000 0000 0481 7f3f 0000 0000
000001c0: 0481 7f3f 0000 0000 0481 7f3f 0000 0000
000001d0: 7848 3b3c 0000 0000 0481 7f3f 0000 0000
000001e0: 0481 7f3f 0000 0000 0481 7f3f 0000 0000
000001f0: 0481 7f3f 0000 0000 0481 7f3f 0000 0000
00000200: 7848 3b3c 0000 0000 0481 7f3f 0000 0000
00000210: 0481 7f3f 0000 0000 0481 7f3f 0000 0000
00000220: 7848 3b3c 0000 0000 0481 7f3f 0000 0000
00000230: 7848 3b3c 0000 0000 0481 7f3f 0000 0000
00000240: 0481 7f3f 0000 0000 0481 7f3f 0000 0000
00000250: 0481 7f3f 0000 0000 0481 7f3f 0000 0000
00000260: 7848 3b3c 0000 0000 0481 7f3f 0000 0000
00000270: 0481 7f3f 0000 0000 0481 7f3f 0000 0000
00000280: 7848 3b3c 0000 0000 0481 7f3f 0000 0000
00000290: 0481 7f3f 0000 0000 0481 7f3f 0000 0000
000002a0: 0481 7f3f 0000 0000 7848 3b3c 0000 0000
000002b0: 0481 7f3f 0000 0000 0481 7f3f 0000 0000
000002c0: 0481 7f3f 0000 0000 0481 7f3f 0000 0000
000002d0: 0481 7f3f 0000 0000 0481 7f3f 0000 0000
000002e0: 0481 7f3f 0000 0000 0481 7f3f 0000 0000
000002f0: 0481 7f3f 0000 0000 7848 3b3c 0000 0000
00000300: 0481 7f3f 0000 0000 0481 7f3f 0000 0000
00000310: 0481 7f3f 0000 0000 0481 7f3f 0000 0000
00000320: 0481 7f3f 0000 0000 0481 7f3f 0000 0000
00000330: 0481 7f3f 0000 0000 0481 7f3f 0000 0000
00000340: 0481 7f3f 0000 0000 7848 3b3c 0000 0000
00000350: 0481 7f3f 0000 0000 0481 7f3f 0000 0000
00000360: 0481 7f3f 0000 0000 0481 7f3f 0000 0000
00000370: 0481 7f3f 0000 0000 7848 3b3c 0000 0000
00000380: 0481 7f3f 0000 0000 0481 7f3f 0000 0000
00000390: 0481 7f3f 0000 0000 0481 7f3f 0000 0000
000003a0: 0481 7f3f 0000 0000 0481 7f3f 0000 0000
000003b0: 0481 7f3f 0000 0000 0481 7f3f 0000 0000
000003c0: 0481 7f3f 0000 0000 0481 7f3f 0000 0000
000003d0: 0481 7f3f 0000 0000 0481 7f3f 0000 0000
000003e0: 0481 7f3f 0000 0000 0481 7f3f 0000 0000
000003f0: 0481 7f3f 0000 0000 0481 7f3f 0000 0000
