data/RNN_runs/sweep2_H2/rnn_sto3g_H2_0-7348_eq1_nU100_nL1_lr00025_lrsC_ns10000.pt (torch_old, 545633 bytes, 9 tensors)

weight_ih f4 [300, 2]
00000000: 84e2 16be ba7a 1b3e a5e3 64bd 6b31 5a3e
00000010: 24f2 90bd f605 803e 2b46 ddbc 2b69 693d
00000020: 5418 b8bd b5a4 473e c4c5 ce3b 5ab4 283e
00000030: 192d 35be 0c3d dc3d 52e0 29be 0458 273e
00000040: 9058 51be b63d 7a3e dbe6 2dbe 917f 463e
00000050: 957e 803d 3943 2e3e 55cc 98bd 1c7e 833e
00000060: 4268 38be c684 413e 6d0a edbd 98ab 733e
00000070: 7c47 5e3d a23b b1bd 399a fa3a 589e 673e
00000080: 3b9b f9bd bec6 4a3e f60f 203d 6ac9 2e3e
00000090: 89e1 61be 3ef1 ff3d 7f72 f9bb 8e8e 7eba
000000a0: c87a f03d 4863 363e 7262 89bc 7025 883d
000000b0: 5ed6 24be a1a6 133e 0757 1fbd 9718 483d
000000c0: c14b ed3d 870d 7e3e 9940 67bd c11a 523e
000000d0: aa9b d4bd 962b 463e 5dcd adbd 8983 c43d
000000e0: c76c f8bd eca7 933e fff2 37bd 7616 9b3d
000000f0: 3a2e c53c 3773 653e 7cc1 52be 3010 e23d
00000100: d86e 28bd 2f15 633e ad86 d1bd f220 b43c
00000110: 69af e2bd e3f4 823e b35b 20bd 24d0 683e
00000120: 7837 3cbe fde3 c13d 4aac 7abc 6774 1f3e
00000130: bcb4 1d3e 9ea7 2c3d 07bd d2bd 4551 893e
00000140: 2a1b 3ebd 60ae 473e b0f2 54bd f11a 353e
00000150: 8aad 09be 1227 0a3e 6f8b cdbd 4a2b 003e
00000160: de0e f63d 8dac 2f3e d210 49be c7a4 753e
00000170: 0f4e d13d 82be ad3e 4ba7 49be 2dca 563e
00000180: c2e9 6e3e 248b 5bbd 39a2 39bc ce05 2a3e
00000190: 1789 dfbb 095f 993d 0504 d6bd 865c d63d
000001a0: 8d47 4f3d 4152 f83d 8f16 37be e4cc f63d
000001b0: c917 6dbd ade3 2e3e 7155 36bd 8685 e43d
000001c0: 68bf 5dbd b7a8 163e 355e 59be e203 413e
000001d0: d9fd 3ebc c4c0 153e 9236 86bd b797 913e
000001e0: f4bd 2cbe 2b2a 3c3e e0bc e1bb 8e01 da3c
000001f0: 2e1b 963d 4985 113e fbf7 a73d d7d1 4a3e
00000200: 90c9 dfbd d6df 713e 7198 32be aa78 5f3e
00000210: 1ff8 083e 094a b1bd 0fc0 3cbe 11a5 043e
00000220: 3511 38bd e464 343e bed6 bbbd bd49 0d3e
00000230: 5a6e a03c d8c5 453e 1e93 92bd 6dd9 853e
00000240: 74d4 acbc cdaf fc3d 3723 82bd 0563 553e
00000250: c763 2abe 664d ae3d 6cf5 ddbd d9eb e93d
00000260: 508d 87bc 3a83 6d3e 8634 f63c a453 753e
00000270: a8ed 4ebe b62a 293e ec88 2dbe 5ae2 573e
00000280: c928 d2bd d099 873e 6b55 58be 2655 663e
00000290: 9a6d 533d c1a3 343e 77be 8abd 2a6d 603e
000002a0: 768b 4e3c 4bbc 763e 7336 073c 69be a13a
000002b0: 1198 f8bd 0ab3 493e b9d7 63be 5abb 013e
000002c0: 60cc d1bc 8b29 61bd aa76 183e 6074 1e3e
000002d0: 5922 adbd a25d 223e 6bd0 88bd a53e b73d
000002e0: 2d25 1b3d 21b2 803d 3193 42be 6aa8 6b3e
000002f0: b1ce a9bd e242 6b3d 7185 44be 86b6 bb3d
00000300: 62fe a5bd 4244 783e db7d eebd 7222 153e
00000310: 2249 f5bd ca6a c03d 949b c6bc 718f 3c3e
00000320: 95cd bf3b 2e13 09be 995c fbbd 522d 65be
00000330: 92e7 14be 0578 6bbe 1087 4fbd aca4 e4bd
00000340: e209 1b3c 08ab 4abd 59d6 6cbd da38 f1bd
00000350: 6eca 8b3d b961 74be 7377 383d b5f8 58be
00000360: ef03 7f3d 5d17 70be ac08 b13d f8f0 1abe
00000370: b74f 6ebd 4374 42be 2e27 ce3d 9204 1ebe
00000380: aa54 0b3e c09e 6dbe b608 8c3c b60d 58be
00000390: 825c c53c 2394 44be 4270 cabc a305 4ebe
000003a0: 442d 253c e94b 05be 2aed 683d 1948 49be
000003b0: 74ad a43d 96eb 1cbe 40f1 7cbe a125 45be
000003c0: 430a dfbd cfed 39be 03b3 03be 45c0 6fbe
000003d0: 3f77 0a3e c19f 72bd c3b5 4ebe 7b45 90be
000003e0: 751d d9ba e0c1 1fbe c021 bf3d 370d 6dbe
000003f0: e138 333e 15d5 66be f7bd 94bc 1d8e 44be
-0.14734846 0.15183535 -0.05588116 0.21307914 -0.07077435 0.25004548 -0.027010998 0.05698506
-0.08989015 0.19496424 0.0063101966 0.16475049 -0.17692985 0.10753831 -0.16589478 0.16342169
-0.2044394 0.24437603 -0.16982596 0.193846 0.062741436 0.17017831 -0.07460848 0.2568215
-0.18008521 0.18898305 -0.11574254 0.23795927 0.05426739 -0.08653952 0.0019119448 0.22618997
-0.12187811 0.19802377 0.03907772 0.17069021 -0.22058691 0.12497185 -0.007612526 -0.00097105734
0.11742169 0.1781131 -0.016770575 0.06647766 -0.160974 0.14419033 -0.038901355 0.048851576
0.115867145 0.24809848 -0.05645809 0.20518018 -0.10381253 0.19352564 -0.084864356 0.09595401
-0.12130123 0.28839052 -0.044909474 0.075726435 0.024069894 0.22407232 -0.20581621 0.11038244
-0.041121334 0.2217605 -0.102307655 0.021988366 -0.11068613 0.2557746 -0.03914995 0.2273565
-0.18380535 0.094673134 -0.015299866 0.15571748 0.15400976 0.04215204 -0.1028996 0.26819816
-0.046412624 0.19500113 -0.051989257 0.17686059 -0.13445106 0.13491467 -0.100363605 0.12516513
0.120145544 0.17155667 -0.19635323 0.23988639 0.102199666 0.33934408 -0.19692723 0.20975561
0.23331359 -0.05359949 -0.011330181 0.16603777 -0.0068217623 0.0748883 -0.104499854 0.10466866
0.050605346 0.12125064 -0.17879699 0.120507985 -0.05788401 0.17079039 -0.044515077 0.1115828
-0.054137617 0.14712797 -0.21227343 0.18849137 -0.011657202 0.14624316 -0.06553377 0.28436062
-0.16869336 0.18375461 -0.0068889707 0.02661207 0.07329403 0.14211 0.082015954 0.1980661
-0.10927117 0.23620543 -0.17440964 0.21823373 0.133759 -0.08656699 -0.1843264 0.12953593
-0.044938285 0.17616612 -0.09171818 0.1379766 0.01958387 0.19313753 -0.071569666 0.26142445
-0.0210974 0.12338219 -0.06354373 0.20838554 -0.16639625 0.08510856 -0.10837826 0.114219375
-0.016546875 0.2319459 0.030054342 0.23957688 -0.20207846 0.16520199 -0.16946763 0.2108244
-0.102616854 0.26484537 -0.21126334 0.22493419 0.051618196 0.17640592 -0.067746095 0.21916643
0.012606492 0.24095266 0.008252728 0.0012340072 -0.12138379 0.19697204 -0.2225026 0.12669125
-0.025610149 -0.05497126 0.14889017 0.15474081 -0.08453817 0.1585603 -0.066803776 0.08947495
0.03787725 0.062839754 -0.19001462 0.23013464 -0.082913764 0.05743683 -0.19191529 0.09165673
-0.0810516 0.24244788 -0.11645099 0.14563921 -0.119768396 0.093953684 -0.024244107 0.18414094
0.0058533647 -0.13386223 -0.12273521 -0.2238057 -0.14541462 -0.22995003 -0.050665915 -0.11164221
0.009462805 -0.049479514 -0.057821605 -0.11778422 0.0682572 -0.23865403 0.04503579 -0.21188624
0.06225961 -0.23446412 0.08644232 -0.15130985 -0.05818149 -0.18989663 0.10066067 -0.15431431
0.13606516 -0.2320509 0.017093997 -0.2109898 0.024091963 -0.19197135 -0.024711732 -0.20119338
0.010081593 -0.13017239 0.056866802 -0.1965641 0.08040896 -0.15324244 -0.24701405 -0.19252636
-0.10890629 -0.18157123 -0.12861256 -0.23413189 0.13522051 -0.059234384 -0.20186524 -0.2817801
-0.0016564565 -0.15601301 0.09332609 -0.23149572 0.17502166 -0.22542222 -0.018156989 -0.19194837

weight_hh f4 [300, 100]
00000000: 1cff 053d 1834 35bd cc4d af3d e287 0d3e
00000010: 4b79 393e a75e 523e 5426 ef3d 77ae 0b3e
00000020: 5d00 f33d ffa8 a73d 2f0b 273c 74cf 953d
00000030: 24d6 32be 270d 29bd a406 323c e58c 4fbb
00000040: b8ca dabd 8a25 44bd b2ce 153e cbe9 a73b
00000050: b44e 0f3e 78a6 15be 7b5b 15be 4375 fbbd
00000060: 51dc 0a3d 28ed 2abb f370 fb3c 29cc 363d
00000070: 2fb8 1f3e 6dd5 f43d 0fc8 f4bb 05e5 61bc
00000080: 8e32 6dbd 8d98 b33c 82ce e83d 48ed 5abd
00000090: 079d 9f3d 549b 433e 6557 4ebe 62d3 f4bd
000000a0: c617 4b3c fa7b c53d b574 29be ea7f 9b3d
000000b0: c513 d53d aedb 003e 650d c63c 663d 19be
000000c0: 4468 99bd a1ab 3b3e 3dd0 24be 47af 613d
000000d0: 75dd 04be 9d6b ed3c 0f36 9e3d ae48 233e
000000e0: 078b 313e ae57 eabd dfe1 153e 67cc 30be
000000f0: 3c91 01be 7d5d c8bd 097f 243d 6bd3 043e
00000100: 7c72 be3d 8c0d 843d 51e1 3f3e de2f 5a3d
00000110: 9bb0 2e3e 51b3 2a3e 9567 c1bc ac06 17be
00000120: 9fa6 2dbd ad73 8abd c310 393d 1c15 46bd
00000130: 6664 f53d b64a 123e e4c7 fc3b 0ee8 f23d
00000140: 6d57 3cbe 2607 06be bb55 afbd 55b1 463e
00000150: d745 0b3d 7984 04b9 af0c a0bd b7c1 563d
00000160: aa83 f03c da21 efbd 956e ed3d 6058 fabd
00000170: 1b45 49be 8287 28be d7c7 093e de49 ce3d
00000180: 2615 6dbc 6867 a6bd 7768 b6bd 1b82 2f3e
00000190: f6cc 2e3e 6964 8abd 3927 013e eb2e 193e
000001a0: 5a92 823d e373 763e 41f0 183e 038c c83d
000001b0: 3bb7 193d 39de 433e e142 863d ae53 333e
000001c0: ed6a 4ebe 593d 13be 86b0 bf3d e998 3b3e
000001d0: ddce 35be 6e5c 05be 4748 d23d f5af b03b
000001e0: 88ea 103e fb6e cabc dc43 ecbc ccb4 9abd
000001f0: eb9e 4c3c cd0b debd e852 ae3d 5039 863d
00000200: f28f 2fbc 1b3e 193d 7fa8 723d ab96 dbbd
00000210: f904 f6bd 7b10 1f3c 4468 d03d 4451 37be
00000220: 4571 6b3d 083a 403d ae47 02be aedc 0bbe
00000230: 9c70 e0bd 4763 ff3a b635 ccbd ba6f e9bb
00000240: 603e 2c3e ce49 143e a857 34be fb3e 20be
00000250: b7ab e2bd 2204 813e 360f 31be 6d56 223e
00000260: f7b8 67be 0451 283e a622 293d b65e 0f3e
00000270: 7aba 373e e563 fcbd b2ad 483e 00ab 17bd
00000280: 3263 59be 1fd1 85bd a234 5c3c 216e bc3d
00000290: deeb e73d b2a6 783e d624 4b3e d967 0b3e
000002a0: 633a ab3d 0a51 f93d 72ec 5ebd fcbc d4bd
000002b0: c0ab 20be aa7c d3bd 80e3 853d 23bb 09be
000002c0: 8f8c 623e 451e cf3d 97d0 143e e57c 723e
000002d0: cc06 27be 2a36 67bd 1bad 59bd 2ba5 813e
000002e0: c0fa 223e a2c8 59bd c64e 3cbd 43bb 893d
000002f0: 92f2 423d 560b 6fbe 72bf 1f3d 30ca 54be
00000300: 3858 95bd 3a3d 38be eb01 583e 3a5b 7a3e
00000310: 3f20 8ebd 47f9 abbc a7e2 0ebe 7bb6 263d
00000320: 166f 583e 3cb0 19bd e607 1a3e 05f5 ee3d
00000330: 6e0c 4f3e fc49 6a3e 38dc f93d e16c dd3d
00000340: 4b4d 613e cf4b fb3d 79cc a03d e2b6 c23d
00000350: 8ce9 77be c0e6 b5bd 18d3 3e3e b97c f83d
00000360: 6f93 e0bd 5718 94bd b48a ed3d fe60 5dbd
00000370: ad2b 143e f046 30be ba4e 58be 14dd 12be
00000380: 12e0 d83d 03bd 09be bc72 a13d 9fc1 3b3d
00000390: b4b9 b93d 1cc5 1a3e 2f42 10bd 0531 5dbe
000003a0: a108 54bd 637b 783d a3cd 6f3d da10 5abd
000003b0: 70ba 343e 23b6 333e 4316 88be 0cec 80be
000003c0: 6179 20be b708 623e 141e 75be d8ac 313e
000003d0: f24a e13d 5961 8f3d 9b60 573d f8d0 61be
000003e0: dc72 1e3d 0e48 093e d293 93bd 5539 1b3d
000003f0: f710 d2bd 268c 443e 012c 323e e5ca 7c3e
0.032713994 -0.044239134 0.085597605 0.13821366 0.18112676 0.2054392 0.116772324 0.13640772
0.11865304 0.0818653 0.0101955375 0.07314959 -0.174645 -0.04127231 0.010865841 -0.0031669673
-0.10683197 -0.047887363 0.14629629 0.005124306 0.13994867 -0.14614284 -0.14585678 -0.12278225
0.033901516 -0.0026081298 0.030693507 0.044628296 0.15597604 0.1195477 -0.007470138 -0.013787513
-0.05790954 0.021923328 0.11367513 -0.053448945 0.077936225 0.19102222 -0.20150526 -0.119543806
0.012395805 0.09642787 -0.16548426 0.07592757 0.10404161 0.12583801 0.024176309 -0.14964828
-0.0749059 0.1832719 -0.16095062 0.055098798 -0.12975104 0.028981978 0.077251546 0.15945694
0.17338191 -0.11442505 0.14636944 -0.17265473 -0.12653059 -0.097834565 0.040160213 0.12971275
0.0929918 0.06447896 0.18738295 0.053268306 0.17059557 0.16669966 -0.023608962 -0.14748639
-0.04239523 -0.06760345 0.045182 -0.048359975 0.1198204 0.14286312 0.0077142585 0.11860667
-0.18392725 -0.13088664 -0.08561274 0.19403584 0.03400215 -0.00012637851 -0.07814919 0.052430835
0.029359657 -0.116763785 0.115933575 -0.122238874 -0.19655268 -0.16457942 0.13455139 0.10072683
-0.014470374 -0.08125192 -0.08906644 0.17139475 0.17070374 -0.06757433 0.12612619 0.14959304
0.063755706 0.24067645 0.149354 0.0979233 0.037528258 0.1912774 0.06555725 0.1751239
-0.20157976 -0.14378871 0.09359841 0.1832005 -0.17754693 -0.1302354 0.10267692 0.0053920695
0.14151967 -0.024711123 -0.028840952 -0.075540155 0.012489061 -0.108420946 0.08511907 0.065539
-0.010715472 0.037412744 0.05924272 -0.10722097 -0.12012667 0.009708519 0.10176137 -0.17902094
0.05748107 0.046930343 -0.12722656 -0.13658401 -0.109589785 0.0019484543 -0.09971182 -0.0071239145
0.16820669 0.14481279 -0.17611563 -0.15649025 -0.11067908 0.25198466 -0.17290959 0.15853281
-0.22629152 0.16437155 0.04129281 0.14000973 0.17942229 -0.12323741 0.1959751 -0.037028313
-0.21229246 -0.06534027 0.013440283 0.09200693 0.11324285 0.24282339 0.1983827 0.13613833
0.08360746 0.1217366 -0.05442471 -0.103876084 -0.15690517 -0.10326512 0.06537533 -0.13450293
0.22123931 0.10113195 0.14532696 0.23680456 -0.16311187 -0.05644814 -0.053143602 0.25321326
0.15915966 -0.053169854 -0.04597356 0.067251705 0.047594614 -0.23344168 0.039000936 -0.20780253
-0.07292217 -0.17992106 0.21094482 0.24448863 -0.06939744 -0.020992888 -0.13953649 0.04070137
0.21136126 -0.037521586 0.15042076 0.116678275 0.20219585 0.22879785 0.122002065 0.10811783
0.22002141 0.12270319 0.078515 0.095075384 -0.24210185 -0.08881903 0.18635213 0.12133164
-0.10965621 -0.07231205 0.11598721 -0.054047577 0.14469786 -0.1721456 -0.21123782 -0.14342147
0.10589613 -0.13451008 0.07883212 0.04583895 0.09068623 0.15114254 -0.035219368 -0.2160073
-0.05176604 0.060664546 0.05854572 -0.053238727 0.17649245 0.17549948 -0.26579484 -0.2518009
-0.15671302 0.22073637 -0.23937255 0.17351091 0.11000623 0.070009895 0.052582365 -0.22052372
0.038683757 0.13406393 -0.07205929 0.037896473 -0.10257142 0.19194087 0.17399599 0.24686773

bias_ih f4 [300]
00000000: 939b 9c3d 9466 2e3e 5bd5 1f3e 0f4b 583e
00000010: 98d3 193e 761c 463e 81e5 d33d 3718 223e
00000020: 7ac2 453d 2864 f63d c5bd ac3c 220c 273d
00000030: f66b af3d 59e4 0a3e 0ccd 473d eee7 193e
00000040: fdd2 cdbd 782f be3d 8fe2 8e3d 7cb8 b83d
00000050: cd14 743e b407 b3bd f463 953c 729b b73d
00000060: 7566 023e d90f 5a3d bc69 313d 8dec fa3c
00000070: 7ed5 f33d 4feb f6bb 6085 683c 023a 163e
00000080: 9878 423c 547f 98bc c650 d53d de74 1f3e
00000090: 5cf8 643c 0217 2b3e 45db 873d b2d2 853d
000000a0: 115d 593d 8ba5 203e 1807 223d 21bb bebd
000000b0: 2605 463e 0280 ed3d 2b73 6b3e 1a4c 5b3d
000000c0: 24e7 723d 05bc 263d c1a0 d23d 8800 a53c
000000d0: 9abe f43d fd7a fdbd 80b4 803d 8655 b33d
000000e0: 5b45 74bd 7ec4 da3c ee02 543e 2634 b83c
000000f0: a33b 6bbd 1d02 19be 3cf2 58bc 7311 863d
00000100: 6940 173e 9df4 fc3b b226 fc3d 1e92 323c
00000110: 9f9f 033d 07c5 fb3d 15fd 273d 0cf2 483c
00000120: 0f0d fa3d a064 213d 5648 603c eb30 263e
00000130: d438 fc3d 2d2a 4fb8 7fb1 b33d 1405 353e
00000140: c67a a23d 8d4c d9bd c280 c83d 3090 d43d
00000150: 7f80 cc3d c42b 063e 235b 993c 64aa 3b3d
00000160: 5a89 4aba cf27 d83d 02dc a23c ffb9 063e
00000170: 939e cf3d 8efc e0bc 5bac d53c f42c 8c3d
00000180: 3343 133e 0e34 333e 987e c53d 587d a23c
00000190: 7e4a 02be 5fde 60be ec06 5ebe aa87 31be
000001a0: ed2f 78bd 7eaf 17be 9b96 0cbe 2e20 5cbe
000001b0: 9ef1 7abe e3cc a5bd b61a abbd e4d2 93bd
000001c0: 8e44 aabd 9a93 dbbd 6a93 35be cd4e f2bd
000001d0: 655f 3abe 43cb 2e38 5638 2fbd 73ee 39be
000001e0: b655 6dbe d363 98be f55a 12be 55a9 8abe
000001f0: 0c13 87be 143f 44be 021a 27be b170 87be
00000200: 6f7e 62be 2c6e 7ebe 5b2f 92be fb36 30be
00000210: 882d 5fbe 99e9 70be 1a56 44be 2eb8 3cbd
00000220: 971d 10bd d241 f9bc 987b 3dbe 84d0 30be
00000230: c492 37be dfad f9bd dea6 a73b 80a1 62be
00000240: 8164 58be f02e 03be 973a 36be 72d2 2ebd
00000250: 99f2 94bd 1585 f4bc e8fb fcbb 8cd5 30be
00000260: 38e4 f4bd 2706 7cbe 104a 3ebe fb9b a7bd
00000270: 0b92 143c f21b 44be c584 63bd 1a34 48be
00000280: 1f4c 23be 943c 6dbe 6ab6 48be e2f4 03be
00000290: 97ad a5bd 7f0f d8bd 674b 17be da45 9abd
000002a0: d1e7 f2bd 8515 2bbd 647d 9ebe f0e2 f4bd
000002b0: 66aa 8cbd dc48 38be 0e3d 00bd 4ef5 04be
000002c0: aa44 eebc cda1 1ebe 7f16 cebd f5d6 c5bd
000002d0: 96e3 9dbd e738 9dbc c9f6 40be 8911 d2bd
000002e0: 2605 0bbe 841d 96be d124 7bbe 7f2d e4bd
000002f0: 9933 5abe 38c4 febd 20ea 80be 8146 13be
00000300: c071 30bd dfff b1bc 86fa 3bbe 0115 26be
00000310: 565d 06be cb76 2cbe 695a 3bbe 9c17 e1bc
00000320: 9b19 093e 4fa2 753e 203a 013e 60b8 073e
00000330: bda9 3c3e 0212 963d 81c6 2f3e 2b24 0f3e
00000340: 2d30 a33d a721 913d b8a3 aa3d f11f a43d
00000350: 0bd9 c7bd 6e37 17be 93f8 553e 444a db3d
00000360: b01b 04be 23c7 8b3d aa76 ef3d c522 3ebe
00000370: 918c e8bd 840a 08bd 82cd 1fbe c0fc ddbd
00000380: 9e77 5a3e 7618 2abe 9a01 ea3d 6e05 803d
00000390: a7e3 0c3e 07a7 b03d 3e89 5fbe 67b9 2cbd
000003a0: b56a e5bd bae8 2b3e eed4 6b3e 5770 25be
000003b0: c5e7 f83d 0dd0 9e3d 3b2b 3c3b 5d54 03be
000003c0: 9ecf e4bc 7888 cd3d e112 32be f395 313e
000003d0: 8c6e 8d3c 1d5f 413e 7172 ff3d d31f 48bd
000003e0: d74f 1b3d 85b8 f43c e209 2bbe a62e 3b3e
000003f0: 2c65 0cbe 525c 1e3d dd3b d63d 3051 b13d
0.07646861 0.17031318 0.15608732 0.21122383 0.15022123 0.19346794 0.10346509 0.1582955
0.04828117 0.12030822 0.021086583 0.040783055 0.08565514 0.1356367 0.048779532 0.1502988
-0.100500084 0.09286398 0.06976806 0.090195626 0.2383606 -0.08741704 0.018236138 0.08965196
0.12734397 0.05323777 0.043313727 0.030630374 0.11905955 -0.007535375 0.014191955 0.14670566
0.011869572 -0.018615402 0.10415797 0.15571925 0.013975229 0.16707996 0.06633619 0.065343276
0.05306727 0.1568815 0.039557546 -0.09313036 0.19337901 0.11596681 0.22993152 0.053539373
0.059302464 0.040706653 0.102845676 0.020141855 0.11950417 -0.12376974 0.06284428 0.08756547
-0.059636455 0.026705023 0.20704243 0.022485804 -0.05742992 -0.14942212 -0.013241347 0.06546297
0.14770664 0.00771959 0.12312068 0.010899095 0.03213465 0.12293439 0.041012842 0.01226474
0.12209522 0.039402604 0.013689121 0.16229598 0.123155266 -4.9391925e-05 0.08774089 0.17677718
0.079335734 -0.10610304 0.097901836 0.10379064 0.09985446 0.13102633 0.018720215 0.045816794
-0.00077261555 0.10554468 0.019880299 0.1315689 0.101376675 -0.027464177 0.026083162 0.06844512
0.14381103 0.17500326 0.096432865 0.01983516 -0.12723729 -0.21959828 -0.21682328 -0.17336908
-0.06059258 -0.14813039 -0.13729326 -0.2149665 -0.24506232 -0.0809572 -0.08354704 -0.072179586
-0.08313857 -0.10721512 -0.17732015 -0.11831436 -0.18200453 4.1674135e-05 -0.042778336 -0.18157367
-0.23177227 -0.2976366 -0.1429251 -0.27082315 -0.2638172 -0.19164687 -0.16318515 -0.26453164
-0.22118543 -0.24846715 -0.28551754 -0.17208473 -0.21794713 -0.2352661 -0.1917347 -0.046074085
-0.03518447 -0.030426893 -0.18504179 -0.17267042 -0.1792708 -0.121913664 0.0051163277 -0.2213192
-0.21132089 -0.12810874 -0.17795788 -0.042681165 -0.07272834 -0.029848615 -0.0077204593 -0.17268962
-0.11957592 -0.24611722 -0.1858294 -0.08184048 0.0090680225 -0.19151285 -0.05554654 -0.19551125
-0.15947007 -0.2316764 -0.19600835 -0.12886384 -0.0808975 -0.10549831 -0.14774857 -0.075328544
-0.11860622 -0.04176857 -0.3095504 -0.119573474 -0.068684384 -0.17996544 -0.031308226 -0.12984201
-0.029085476 -0.1549141 -0.100628845 -0.096601404 -0.07709424 -0.019192172 -0.18844141 -0.10257251
-0.13576183 -0.29319394 -0.24525763 -0.1114149 -0.21308745 -0.124397695 -0.25178623 -0.14382364
-0.04307723 -0.021728454 -0.18357286 -0.1621895 -0.13121542 -0.16842191 -0.18296207 -0.027477078
0.13388674 0.23987697 0.12619829 0.13253927 0.18424125 0.073276535 0.17165567 0.1397864
0.07968173 0.07086497 0.08332008 0.08013905 -0.097581945 -0.14767238 0.20895605 0.107075244
-0.12901187 0.06825092 0.11692555 -0.18567951 -0.11354936 -0.033213153 -0.15605739 -0.10839224
0.21334693 -0.16610894 0.11426087 0.06251036 0.13758717 0.08625608 -0.21829697 -0.042169
-0.112019934 0.16787997 0.23030445 -0.16156135 0.121535815 0.07754526 0.002871229 -0.12825151
-0.02793103 0.10035795 -0.17390014 0.17342357 0.017264627 0.18883939 0.12473 -0.048858475
0.037917938 0.029873142 -0.16702989 0.18279514 -0.13710469 0.038662262 0.10460637 0.086580634

bias_hh f4 [300]
00000000: 02fd a63d 767d 693e 8018 393e 19ed 843d
00000010: 9f7c 123e bd0a 373d 1675 793c edb0 743c
00000020: 19af f23a 4085 4abd 8118 0d3e a8a7 fc3d
00000030: a431 b73d 999b dd3d 58cd 8dbc b29b b13d
00000040: 8716 793d 7bc8 2f3e c143 883c f090 97bc
00000050: f3b3 9a3e 3806 ebbd 52f0 28bd b124 e7bc
00000060: 0587 063e f2bd ffbb 6e51 013e 77d6 f8bb
00000070: d043 e3bb 03a3 f33c 66a0 0f3e e830 033e
00000080: 9485 913d d8fb 2dbd 4d85 3b3e 56fe 163e
00000090: 8d26 b63d 1c75 923d 03a9 553e 13d8 273e
000000a0: de97 393e 3739 353c cc60 b53d 07ea 703c
000000b0: 471f df3c 7df3 08bd f649 703e 6294 3bbd
000000c0: f967 0f3d c76e 363d 08ff d43d b63d b13c
000000d0: 8d54 b63d 7295 73be 80c9 be3d eed3 9e3d
000000e0: 22a6 dd3b b4a3 5d3d 98c0 0e3e fc1f fe3d
000000f0: 423c 013c 6ad2 85bd 5c3e 0e3e 6357 173e
00000100: 2807 e83d 8c34 3f3d e419 3f3c d214 853d
00000110: 6150 063e 0f37 64bc 40b6 ad3d a2e1 723d
00000120: 92e5 e93c de7d 293e 1720 4e3e 6062 f93d
00000130: 7825 573e 888d 093d 6292 95bd 2a94 1f3b
00000140: 5d43 593d b0a9 d6bd 4cfe 7abd 3a0d 1bbc
00000150: eda5 313d 2908 31bd 7312 dd3a b1ed 143d
00000160: 0f68 18bd bdad 013e cc5d bc3d a0ba e83d
00000170: cf30 f93d b03c 473d a1fb 863d 5f2c 053e
00000180: 7d3c f83d dcbf 403e 6062 c93c e65a 783d
00000190: 4e70 92bd 8159 81be 8ee2 82be 37a3 a0bd
000001a0: 8e12 a5bc 6b63 d0bb 741c 55be 964b 81be
000001b0: d8fa 6cbe 1316 dcbd b7ba 44be 85a2 79bd
000001c0: 0b24 36be a5ef 2ebd 77a2 26be 4bf2 4dbe
000001d0: 8fea d6bc 8c9d 8e3b da24 5fbd ab0d 85be
000001e0: 146b 09be d5a9 2cbe 5238 74be d171 2ebe
000001f0: 72f4 00be 6b74 18be fb81 92bd a806 5ebe
00000200: a692 8fbe 047c 3ebe 864d 62be 1355 20be
00000210: 6aa0 6dbe 5361 b6bd 3e31 2bbe 6c9f 89bd
00000220: cece 31be c724 2bbe 7cc1 44be b5d3 e0bd
00000230: cafb 38be f0ae 7dbe c8ac 03bd 461e 1bbe
00000240: 8442 30be 6a15 bdbd 55c7 94be dac9 c5bd
00000250: d7dc dabd d513 d8bc 7230 b4bd 4e6f 2abe
00000260: 1721 fdba ff92 4ebe 11ef 26bd e84a 49bd
00000270: 55ae 0bbe 1256 c6bd c8cf 573c 14e3 0abe
00000280: 1ece e3bd c226 30be fedd 7fbe 8cf3 84bd
00000290: a948 0bbe 9201 3dbe 458b 57be 3d4b 40be
000002a0: 0e81 8fbd e7e1 17be da6d 71be 2336 80bc
000002b0: d9ae 53bc 66a0 29be a995 a1bd 8e5a d7bd
000002c0: 6a28 2abd 6a1d 9fbe bab6 08bd a35d 17be
000002d0: 7393 1abd f481 00be 308c 5ebe 9268 00be
000002e0: 056e 53be 2331 a1be 47b0 ccbd 4851 2bbe
000002f0: f269 6fbe 937b 01be cb05 90be 9620 babd
00000300: 8c2e 15be 971e 72bd b71d 89bd 1200 3abd
00000310: 6021 34be 1c4d 9ebd 51d9 e1bd b0a3 3fbe
00000320: 33a8 3e3e 5efa 623e 55bb c73d 772a 54bd
00000330: 32fb 173e 9ff3 153e 15d5 da3d 99b3 313e
00000340: e84a 173e d210 7f3d 3a27 ed3d db0b 043e
00000350: 282f f5bc 8ef1 96bd 11e1 ca3c 8045 0c3e
00000360: 0f0e a4bc 9195 75bd 3281 0e3d 2d11 2fbd
00000370: 249c d3bd 7ccd 32bc 7bba 12bd b14d 4ebd
00000380: ccf8 b23d 68ca 06be 5012 803c af67 eb3d
00000390: 0823 053e 97d7 973d 8f62 e2bd 2523 13be
000003a0: eb14 02be 5f31 bd3c c0d6 4b3e 75dd fbbd
000003b0: e2dc 773c 4ce5 22bd aac5 35bd dd51 1cbd
000003c0: 8dd5 40be becc 073e e70f c3bd a425 1b3d
000003d0: 488b a13d 1c3e f73d 89c6 673e 05a1 d4bd
000003e0: 1b5b 31ba d8fc bd3d 7552 35be 8ff2 cf3d
000003f0: ce4d fbbd 2f59 b3ba c26e e03d 17ba c43d
0.08153726 0.22801766 0.18075752 0.06490535 0.14305352 0.044687975 0.015225669 0.0149347605
0.0018515318 -0.049443483 0.13778879 0.123366654 0.08945015 0.108206935 -0.01730983 0.08672275
0.0608125 0.17166321 0.01663387 -0.018501729 0.30215415 -0.114757955 -0.041244812 -0.028215738
0.13137443 -0.0078046257 0.12628719 -0.0075939256 -0.006935574 0.029740816 0.14026031 0.12811625
0.07105556 -0.042476505 0.18312569 0.14745459 0.08894072 0.07151243 0.20865254 0.1639102
0.18124339 0.011061004 0.08856353 0.014704234 0.027236594 -0.033435334 0.23465714 -0.045795806
0.035011265 0.04453924 0.10400206 0.021635871 0.089028455 -0.23787478 0.09315777 0.07755266
0.0067641893 0.054111198 0.13940656 0.12408444 0.007887902 -0.06534274 0.13890976 0.14779429
0.1132949 0.046680972 0.011663888 0.06498112 0.131166 -0.013929143 0.08482027 0.05929721
0.02855185 0.16551921 0.20129429 0.12176967 0.21010387 0.03358224 -0.07303311 0.0024349787
0.05304276 -0.10481584 -0.061277673 -0.009463603 0.04337113 -0.043220673 0.001686646 0.036359493
-0.037208613 0.12663932 0.09197578 0.11363721 0.121675126 0.04864186 0.06590963 0.13005207
0.12120912 0.18823189 0.024583042 0.060633563 -0.07150327 -0.252636 -0.25563473 -0.07843631
-0.02015045 -0.006359508 -0.20811635 -0.2525298 -0.23142564 -0.10746398 -0.19211851 -0.060946006
-0.17787187 -0.04270901 -0.16272913 -0.20111959 -0.026234893 0.004352277 -0.054478504 -0.2598699
-0.13419753 -0.16861661 -0.2384961 -0.17035605 -0.12593248 -0.1488816 -0.07153698 -0.21682227
-0.2804157 -0.18601996 -0.22099885 -0.15657453 -0.23205724 -0.08905282 -0.16718003 -0.067198604
-0.17364046 -0.16713248 -0.19214433 -0.1097788 -0.180648 -0.24773765 -0.0321472 -0.15148267
-0.17212874 -0.092326 -0.29058328 -0.09657641 -0.10686653 -0.026376644 -0.08798303 -0.16644022
-0.001931223 -0.20173262 -0.040755335 -0.0491437 -0.13640721 -0.09684385 0.0131720975 -0.13563186
-0.11123298 -0.17202285 -0.24987027 -0.064917654 -0.13601936 -0.1845763 -0.21049221 -0.18778701
-0.07007037 -0.14832269 -0.23577061 -0.015650814 -0.012920105 -0.16565093 -0.078898735 -0.10515319
-0.041542448 -0.3107713 -0.033377387 -0.14781813 -0.037738275 -0.12549573 -0.21733165 -0.1253989
-0.20647438 -0.314828 -0.0999456 -0.16730225 -0.23380259 -0.12644796 -0.2812942 -0.090882465
-0.14568537 -0.059111204 -0.06695121 -0.045410223 -0.17590857 -0.07729551 -0.11027778 -0.18714786
0.1861885 0.2216582 0.097525276 -0.05179831 0.14841917 0.14643715 0.106851734 0.17353667
0.14774668 0.0622719 0.115797475 0.12895148 -0.029929712 -0.07370292 0.024765523 0.13698387
-0.020026235 -0.05995709 0.03479118 -0.04274099 -0.10332516 -0.010913249 -0.035822373 -0.05036706
0.087388605 -0.1316315 0.015633732 0.114943855 0.13001645 0.074141674 -0.11053955 -0.14368875
-0.12703292 0.023094831 0.1990614 -0.12298099 0.015128346 -0.039769456 -0.04437796 -0.03816401
-0.18831463 0.13261697 -0.095245175 0.037877694 0.07887894 0.12072393 0.22634329 -0.103822745
-0.000676559 0.09276742 -0.17707236 0.10153686 -0.122706994 -0.0013683195 0.109586254 0.09605806

weight f4 [2, 100]
00000000: cdbe 303e 2a2d 573e 200f 8d3e ca0d 103d
00000010: 8697 a13c 32e1 1b3e 274e 123e c6ea 133e
00000020: cfbe 5d3e 620f 5c3e c0a0 fb3b 461a 353e
00000030: d0ab 89bd 8909 debd 8d85 643e 99b1 4e3e
00000040: 8184 bebd ff4c c3bd c56f 3b3e 5136 7fbe
00000050: d4f0 553d eb31 82be 7426 0bbe c1ea 6abe
00000060: ed01 693e 26bc fdbd 2286 c23d 33f6 733e
00000070: 112f 843e 40de 873e 500e 89be 78c3 74be
00000080: 6256 87be b550 3f3e 8962 ed3d 796a 5ebe
00000090: 0b61 013e 6ad4 243e 5c40 7bbd d0b1 fdbd
000000a0: 79b9 57be 237c 883e e654 55be b94b 893e
000000b0: e409 3cbc 2451 573e e9c6 433e cb2c 42be
000000c0: 87cb 5b3e 6126 453e a99a 47bd fcd3 4c3e
000000d0: e658 a4bd a386 673e 271d 4a3d 6a60 533e
000000e0: a1e0 4f3e 883e 65be 7f16 d53d 3f1a d0bd
000000f0: 987e 2abe f42c 5bbe 1ae8 523e 9470 4a3d
00000100: 043b 1a3e 6800 1f3e cda2 813d 60e3 3e3e
00000110: 23ae c93d 072c 613e 2b5a 8abe c4c8 62be
00000120: f816 89bd 68fe 4fbe 6656 f73d 1c0f 7cbd
00000130: e52a 3d3c d100 693e a407 5d3e ad2e 133e
00000140: 5ad7 4dbe 0c99 51be f6c8 3cbe cddd 513e
00000150: 4345 523e 56ba 8b3e aeb1 2fbe ec9d 463e
00000160: d2c8 1abd ac39 00bd 75cb 873e 212d 1fbe
00000170: cdfd 96bd d5e9 43be 5270 7c3e e4c3 473e
00000180: f983 2cbe aa9c 68be 9202 41be f8f0 ae3d
00000190: 0f96 20be 2c8a 03be f680 85be 20f8 b1bd
000001a0: 08b0 30be be9e 883b 5ba7 7abe 4138 82be
000001b0: e3fd 60be 868d 2abe 589c 3cbe 78b6 37be
000001c0: 082e 603e 4e6d 2d3e 7134 5bbe b362 6fbe
000001d0: b1dd 603e 8539 d93d 0390 76be 6104 743e
000001e0: 4e20 a63d 24df 853e b42f 443e a803 783e
000001f0: 85c5 8ebe 671c 753e 58bd 5dbe 52c0 8ebe
00000200: d4f5 87be 33ec 23be 031f 043e 1a53 7f3e
00000210: 418a 593e 8fb0 4bbe b671 85be dd83 2c3e
00000220: d163 52be 14c7 afbd 3816 113d e68b e33d
00000230: 7f6c 463e 2e62 54be 725e 313d b63a 5dbe
00000240: 662f 09be 28a9 15be 3085 90be 49d1 683e
00000250: 845b 4bbe cf5c f2bd 0881 4b3e 7e4c 16be
00000260: 5d2a 483d 0f42 2ebe e7cd 43be c875 43be
00000270: dc1f 07be 3375 6d3d 0241 02bd 416d 7e3e
00000280: 6621 173e c4e8 4d3e 4e45 77be d03b d8bd
00000290: ea99 1dbe 4648 4bbe 07ff ae3d b889 67be
000002a0: 3f17 44be ba14 6ebd 33fe 893e a3a9 143e
000002b0: caf3 153e 2662 5d3e e236 c1bd 2284 0a3e
000002c0: 91db 45be e1d8 89be 7bec ecbd b1ff b0bd
000002d0: 15a2 4a3e f8a6 453e 0ac9 5d3e 6054 54bd
000002e0: 0c56 14be 0411 89be e3e6 5d3e 2475 50be
000002f0: 53e2 82bc 6712 b43d 2184 7ebe c02b 1e3e
00000300: 8396 a0bc 1f81 353e 4f4c 86bd 363b aebd
00000310: d1f0 0e3e 9e38 ea3d 5e60 663e 5b04 5abe
0.17260285 0.21013322 0.27550602 0.0351694 0.019725572 0.15222624 0.14287625 0.14445028
0.21654819 0.21490243 0.007679075 0.17685804 -0.06722224 -0.108416624 0.2231657 0.20184936
-0.09302617 -0.0953617 0.18304355 -0.24923064 0.052231625 -0.2542871 -0.13588887 -0.22941114
0.22754641 -0.12389402 0.0949824 0.23824386 0.2581716 0.2653675 -0.26768732 -0.2390269
-0.26433092 0.18683131 0.1159106 -0.21720304 0.12634675 0.16096655 -0.061340675 -0.12387431
-0.21066846 0.2665721 -0.20833167 0.26815584 -0.0114769675 0.21027046 0.19118847 -0.189624
0.21464358 0.19252922 -0.04873148 0.2000274 -0.080247685 0.22609954 0.049344208 0.20642248
0.20300533 -0.22387135 0.104046814 -0.10161256 -0.16649854 -0.21403867 0.20596352 0.04942377
0.15061575 0.15527499 0.0632988 0.18641424 0.09847667 0.21989451 -0.27021918 -0.22146899
-0.06693834 -0.20311892 0.12077026 -0.061537847 0.011545871 0.22754218 0.21584946 0.14373274
-0.20101681 -0.20468539 -0.18436036 0.20494767 0.20534234 0.272906 -0.17157623 0.1939618
-0.037789173 -0.031305 0.26522413 -0.15544559 -0.073726274 -0.19132169 0.24652222 0.1950832
-0.16847219 -0.22716013 -0.18848637 0.08542055 -0.15682243 -0.12845677 -0.26074952 -0.08689904
-0.1725465 0.004169314 -0.24477904 -0.25433543 -0.2197185 -0.1665555 -0.18419015 -0.179407
0.2189256 0.16936228 -0.21406724 -0.23377495 0.21959569 0.10606674 -0.24078374 0.23829795
0.081116304 0.26146805 0.19158822 0.24220145 -0.2788507 0.23936616 -0.2165426 -0.27881104
-0.2655474 -0.16008072 0.12902455 0.24934044 0.21244146 -0.1989157 -0.26063317 0.16847177
-0.2054589 -0.08582893 0.03542158 0.11110668 0.19377325 -0.20740578 0.04330296 -0.21604428
-0.13396987 -0.14615309 -0.28226614 0.22736086 -0.19859129 -0.11834108 0.1987344 -0.14677617
0.048868526 -0.17017387 -0.19121514 -0.19087899 -0.13195747 0.057973098 -0.031800278 0.24846365
0.14758834 0.20108324 -0.24147531 -0.10558283 -0.15390745 -0.19851789 0.08544736 -0.2261113
-0.19149493 -0.058125235 0.2695175 0.14517836 0.1464378 0.21619472 -0.09434296 0.13526967
-0.19322039 -0.26923278 -0.115685426 -0.08642519 0.19788392 0.19301975 0.21658722 -0.05183828
-0.1448595 -0.26770794 0.21670108 -0.20357186 -0.01597706 0.087925725 -0.2485509 0.15446377
-0.01960302 0.17725037 -0.065575235 -0.08507387 0.13959052 0.1143658 0.22497699 -0.21290724

bias f4 [2]
00000000: 92e9 573d 8a73 ecbd
0.052712984 -0.11545475

weight f4 [2, 100]
00000000: fb53 c73d e206 103d 8025 ceba 9267 483d
00000010: 1f7c c0bd 5402 f23c 0cea 83bc 76a2 083d
00000020: 8104 bb3d 742f c1bc e937 a33d 007c 62bb
00000030: 07d2 953d 4851 813c 0f04 9a3d d873 42bc
00000040: 4068 56bd 7d8d 31bd 5098 e1bb 8ab4 6dbd
00000050: 80a5 f5ba b430 c73c 5422 f53c 7d06 57bd
00000060: 281a 243c a9e4 cb3d e50c c7bd a5d0 9e3d
00000070: 40a5 a0bc 4cb2 e43c 37cf afbd 49e4 873d
00000080: 34c6 b1bc a105 a63d a001 b4bc 4a05 77bd
00000090: 6824 9cbc 4eca 543d cf62 c93d 2038 c2bd
000000a0: c45b 13bd 0e51 383d a0e0 b8bc f49a c6bc
000000b0: 6475 0fbd 64b8 dd3c 80c9 c43b 6d40 7abd
000000c0: b0bf 35bc e702 77bd 1262 bdbd 2631 333d
000000d0: 35a8 ae3d 3703 883d 059a b2bd 67a6 2abd
000000e0: 3d27 84bd d364 963d dac0 b6bd 4c2f 863c
000000f0: 5b35 bbbd 006a cfbc d317 bdbd 6acb 89bd
00000100: 3a24 783d 482b a3bc e07b ddbc e02a fbbc
00000110: 3f34 b63d 7127 aa3d 5a5b b7bd 88da 8abd
00000120: fd19 833d 0f54 983d b0c3 403c 796c bf3d
00000130: 174b 8d3d e1a1 a33d ca27 47bd 45fc 863d
00000140: c05c 8d3c 08fe b3bd e008 d2bc d154 853d
00000150: bb95 c4bd 1981 ab3d 49ff ae3d 235e cbbd
00000160: 709f 83bd 2881 c13c 874a bfbd 6fab 9a3d
00000170: 1d90 54bd 9670 91bd 8496 df3c fd3f c4bd
00000180: 49c5 a63d e1a6 aa3d 4b0b cc3d d4cc adbc
00000190: 435e c9bd 8a0c 023d 02e8 a8bd edb5 903d
000001a0: 3291 7c3d e233 2a3d 681a c9bc be21 273d
000001b0: 0378 3abd c6c3 763d 9509 b1bd 0026 ef3b
000001c0: 6546 963d 2575 c63d c7d6 20bd c0de 71bd
000001d0: 80ff 90bc 62c0 3c3d 207a 89bd df34 a33d
000001e0: 18b7 d2bc f0bf 6dbc cc91 a93c aa16 753d
000001f0: 55db 853d 3a17 20bd 3a43 aebd 70f0 753c
00000200: 5951 a53d 4569 b8bd 289b adbd a0ed 3fbd
00000210: e086 7bbd 0627 023d 7d23 76bd 2958 ab3d
00000220: a1e2 923d e084 3fbd 94e7 89bc 5023 06bd
00000230: d23e 86bd 22fc 163d c06d 4cbd b140 bb3d
00000240: 91d0 ca3d c0da d33a d028 85bd ec5d 873c
00000250: b042 84bb 346a 09bd fc7e ee3c 835d 64bd
00000260: 182d 98bd bb56 99bd ea85 bfbd de77 173d
00000270: 6653 723d 96cd 203d 3e83 5a3d 0a27 0cbd
00000280: 707a 11bd 9f24 883d 5a81 49bd c0bb 43bb
00000290: 02d3 3c3d 7ab0 2a3d 548b dbbc 0089 f6bc
000002a0: 61db b83d 49da 933d 678c 54bd a354 ae3d
000002b0: a002 bcbc 62f5 323d 4b0a ad3d 86ce 08bd
000002c0: c019 71bd bf64 cabd e5b9 9e3d ca18 8cbd
000002d0: 2c76 96bc a77e 973d 6a6d 11bd 0050 7cb9
000002e0: 7deb 8abd 50dc 50bc 4341 8a3d b4e2 18bd
000002f0: 1675 98bd 625d 283d 5dde afbd 0806 c6bc
00000300: d201 6e3d 43ee b33d c830 dcbc 8005 a4ba
00000310: 065a 6b3d c012 6d3b 1ca7 11bd 8066 96bd
0.09732815 0.035162814 -0.0015727729 0.048926897 -0.09398674 0.029542126 -0.016102813 0.03335806
0.091317184 -0.023582198 0.079696484 -0.0034558773 0.0731545 0.015785828 0.07520305 -0.01186844
-0.052345514 -0.043347824 -0.006884612 -0.058033504 -0.001874134 0.024315216 0.029923595 -0.052496422
0.010016002 0.09955723 -0.09719256 0.077546395 -0.019610047 0.02791705 -0.08584445 0.06635339
-0.021700956 0.081065424 -0.021973431 -0.06030778 -0.019060329 0.051950745 0.09833299 -0.09483361
-0.035976186 0.044999175 -0.022568047 -0.02424381 -0.03502406 0.027065463 0.006005466 -0.061096597
-0.011093065 -0.060305502 -0.09247221 0.043748043 0.08528177 0.06641238 -0.08720783 -0.0416626
-0.064527966 0.073434494 -0.08923502 0.016379975 -0.09141036 -0.0253191 -0.0923306 -0.06728251
0.060581423 -0.019918099 -0.027036607 -0.030660093 0.08896684 0.08308304 -0.08952971 -0.06779963
0.06401441 0.07437908 0.011765406 0.093468614 0.06899088 0.0798986 -0.04862193 0.06591085
0.01725614 -0.08788687 -0.025638998 0.06510318 -0.09598871 0.08374233 0.085447855 -0.099300645
-0.06426895 0.023621157 -0.09340387 0.075522296 -0.05189525 -0.07101552 0.027293451 -0.09582517
0.08143098 0.08332611 0.099630915 -0.021215834 -0.09832432 0.03175024 -0.08247377 0.070659496
0.061661907 0.041553386 -0.024548724 0.040803663 -0.04552461 0.060245298 -0.08644406 0.007298231
0.073376454 0.09690312 -0.039267328 -0.05905032 -0.017699957 0.046081908 -0.067127466 0.07969069
-0.025722072 -0.0145110935 0.020699404 0.059836067 0.06535975 -0.03908465 -0.08508916 0.015010938
0.080721565 -0.090044536 -0.08476859 -0.046857476 -0.061407924 0.031775497 -0.060092438 0.083664246
0.07172132 -0.04675758 -0.016834058 -0.03274852 -0.06554951 0.036861546 -0.049909353 0.09143198
0.09903062 0.0016163215 -0.06501925 0.016524278 -0.00403627 -0.03354855 0.029113285 -0.055753242
-0.07430476 -0.07487246 -0.09351714 0.03697955 0.059161566 0.039258562 0.05334782 -0.034216918
-0.035517156 0.0664761 -0.049195625 -0.0029866546 0.04609967 0.041672207 -0.026799835 -0.030094624
0.09026218 0.07219369 -0.05189171 0.08512237 -0.02295047 0.043691047 0.08449229 -0.03340008
-0.058862448 -0.09882497 0.077503 -0.06840666 -0.018366896 0.07397204 -0.035504736 -0.00024062395
-0.06783197 -0.012747839 0.06750729 -0.037325576 -0.07444207 0.04110468 -0.08587334 -0.024172798
0.058107205 0.08785679 -0.02687873 -0.0012513846 0.0574589 0.0036174506 -0.03555976 -0.07343769

bias f4 [2]
00000000: 6e5d 093d 41c0 873d
0.033536367 0.066284664

amplitudes f4 [10000, 2]
00000000: aa97 7f3f 0000 0000 aa97 7f3f 0000 0000
00000010: 9823 d53c 0000 0000 aa97 7f3f 0000 0000
00000020: aa97 7f3f 0000 0000 aa97 7f3f 0000 0000
00000030: aa97 7f3f 0000 0000 aa97 7f3f 0000 0000
00000040: aa97 7f3f 0000 0000 aa97 7f3f 0000 0000
00000050: aa97 7f3f 0000 0000 aa97 7f3f 0000 0000
00000060: aa97 7f3f 0000 0000 aa97 7f3f 0000 0000
00000070: aa97 7f3f 0000 0000 aa97 7f3f 0000 0000
00000080: aa97 7f3f 0000 0000 aa97 7f3f 0000 0000
00000090: 9823 d53c 0000 0000 aa97 7f3f 0000 0000
000000a0: aa97 7f3f 0000 0000 aa97 7f3f 0000 0000
000000b0: 9823 d53c 0000 0000 9823 d53c 0000 0000
000000c0: aa97 7f3f 0000 0000 9823 d53c 0000 0000
000000d0: aa97 7f3f 0000 0000 aa97 7f3f 0000 0000
000000e0: aa97 7f3f 0000 0000 9823 d53c 0000 0000
000000f0: 9823 d53c 0000 0000 aa97 7f3f 0000 0000
00000100: 9823 d53c 0000 0000 aa97 7f3f 0000 0000
00000110: aa97 7f3f 0000 0000 aa97 7f3f 0000 0000
00000120: aa97 7f3f 0000 0000 9823 d53c 0000 0000
00000130: aa97 7f3f 0000 0000 aa97 7f3f 0000 0000
00000140: aa97 7f3f 0000 0000 aa97 7f3f 0000 0000
00000150: aa97 7f3f 0000 0000 9823 d53c 0000 0000
00000160: aa97 7f3f 0000 0000 aa97 7f3f 0000 0000
00000170: aa97 7f3f 0000 0000 aa97 7f3f 0000 0000
00000180: aa97 7f3f 0000 0000 aa97 7f3f 0000 0000
00000190: 9823 d53c 0000 0000 aa97 7f3f 0000 0000
000001a0: aa97 7f3f 0000 0000 9823 d53c 0000 0000
000001b0: aa97 7f3f 0000 0000 aa97 7f3f 0000 0000
000001c0: aa97 7f3f 0000 0000 aa97 7f3f 0000 0000
000001d0: aa97 7f3f 0000 0000 aa97 7f3f 0000 0000
000001e0: aa97 7f3f 0000 0000 9823 d53c 0000 0000
000001f0: aa97 7f3f 0000 0000 aa97 7f3f 0000 0000
00000200: aa97 7f3f 0000 0000 aa97 7f3f 0000 0000
00000210: aa97 7f3f 0000 0000 aa97 7f3f 0000 0000
00000220: aa97 7f3f 0000 0000 aa97 7f3f 0000 0000
00000230: aa97 7f3f 0000 0000 aa97 7f3f 0000 0000
00000240: aa97 7f3f 0000 0000 aa97 7f3f 0000 0000
00000250: 9823 d53c 0000 0000 aa97 7f3f 0000 0000
00000260: aa97 7f3f 0000 0000 aa97 7f3f 0000 0000
00000270: 9823 d53c 0000 0000 aa97 7f3f 0000 0000
00000280: aa97 7f3f 0000 0000 aa97 7f3f 0000 0000
00000290: aa97 7f3f 0000 0000 aa97 7f3f 0000 0000
000002a0: aa97 7f3f 0000 0000 9823 d53c 0000 0000
000002b0: aa97 7f3f 0000 0000 aa97 7f3f 0000 0000
000002c0: aa97 7f3f 0000 0000 aa97 7f3f 0000 0000
000002d0: aa97 7f3f 0000 0000 aa97 7f3f 0000 0000
000002e0: aa97 7f3f 0000 0000 aa97 7f3f 0000 0000
000002f0: 9823 d53c 0000 0000 aa97 7f3f 0000 0000
00000300: aa97 7f3f 0000 0000 aa97 7f3f 0000 0000
00000310: aa97 7f3f 0000 0000 aa97 7f3f 0000 0000
00000320: aa97 7f3f 0000 0000 aa97 7f3f 0000 0000
00000330: aa97 7f3f 0000 0000 aa97 7f3f 0000 0000
00000340: aa97 7f3f 0000 0000 aa97 7f3f 0000 0000
00000350: aa97 7f3f 0000 0000 aa97 7f3f 0000 0000
00000360: aa97 7f3f 0000 0000 9823 d53c 0000 0000
00000370: 9823 d53c 0000 0000 aa97 7f3f 0000 0000
00000380: aa97 7f3f 0000 0000 aa97 7f3f 0000 0000
00000390: 9823 d53c 0000 0000 aa97 7f3f 0000 0000
000003a0: 9823 d53c 0000 0000 aa97 7f3f 0000 0000
000003b0: aa97 7f3f 0000 0000 aa97 7f3f 0000 0000
000003c0: 9823 d53c 0000 0000 aa97 7f3f 0000 0000
000003d0: aa97 7f3f 0000 0000 aa97 7f3f 0000 0000
000003e0: aa97 7f3f 0000 0000 aa97 7f3f 0000 0000
000003f0: 9823 d53c 0000 0000 aa97 7f3f 0000 0000
0.99840796 0.0 0.99840796 0.0 0.026017949 0.0 0.99840796 0.0
0.99840796 0.0 0.99840796 0.0 0.99840796 0.0 0.99840796 0.0
0.99840796 0.0 0.99840796 0.0 0.99840796 0.0 0.99840796 0.0
0.99840796 0.0 0.99840796 0.0 0.99840796 0.0 0.99840796 0.0
0.99840796 0.0 0.99840796 0.0 0.026017949 0.0 0.99840796 0.0
0.99840796 0.0 0.99840796 0.0 0.026017949 0.0 0.026017949 0.0
0.99840796 0.0 0.026017949 0.0 0.99840796 0.0 0.99840796 0.0
0.99840796 0.0 0.026017949 0.0 0.026017949 0.0 0.99840796 0.0
0.026017949 0.0 0.99840796 0.0 0.99840796 0.0 0.99840796 0.0
0.99840796 0.0 0.026017949 0.0 0.99840796 0.0 0.99840796 0.0
0.99840796 0.0 0.99840796 0.0 0.99840796 0.0 0.026017949 0.0
0.99840796 0.0 0.99840796 0.0 0.99840796 0.0 0.99840796 0.0
0.99840796 0.0 0.99840796 0.0 0.026017949 0.0 0.99840796 0.0
0.99840796 0.0 0.026017949 0.0 0.99840796 0.0 0.99840796 0.0
0.99840796 0.0 0.99840796 0.0 0.99840796 0.0 0.99840796 0.0
0.99840796 0.0 0.026017949 0.0 0.99840796 0.0 0.99840796 0.0
0.99840796 0.0 0.99840796 0.0 0.99840796 0.0 0.99840796 0.0
0.99840796 0.0 0.99840796 0.0 0.99840796 0.0 0.99840796 0.0
0.99840796 0.0 0.99840796 0.0 0.026017949 0.0 0.99840796 0.0
0.99840796 0.0 0.99840796 0.0 0.026017949 0.0 0.99840796 0.0
0.99840796 0.0 0.99840796 0.0 0.99840796 0.0 0.99840796 0.0
0.99840796 0.0 0.026017949 0.0 0.99840796 0.0 0.99840796 0.0
0.99840796 0.0 0.99840796 0.0 0.99840796 0.0 0.99840796 0.0
0.99840796 0.0 0.99840796 0.0 0.026017949 0.0 0.99840796 0.0
0.99840796 0.0 0.99840796 0.0 0.99840796 0.0 0.99840796 0.0
0.99840796 0.0 0.99840796 0.0 0.99840796 0.0 0.99840796 0.0
0.99840796 0.0 0.99840796 0.0 0.99840796 0.0 0.99840796 0.0
0.99840796 0.0 0.026017949 0.0 0.026017949 0.0 0.99840796 0.0
0.99840796 0.0 0.99840796 0.0 0.026017949 0.0 0.99840796 0.0
0.026017949 0.0 0.99840796 0.0 0.99840796 0.0 0.99840796 0.0
0.026017949 0.0 0.99840796 0.0 0.99840796 0.0 0.99840796 0.0
0.99840796 0.0 0.99840796 0.0 0.026017949 0.0 0.99840796 0.0
