data/RNN_runs/sweep2_H2/rnn_sto3g_H2_0-7348_eq1_nU25_nL2_lr001_lrsC_ns1000.pt (torch_old, 84626 bytes, 13 tensors)

weight_ih f4 [75, 2]
-0.1636401 0.2886036 -0.18042083 0.40810174 -0.07176412 0.21947259 -0.0017691978 -0.21108921
-0.18531342 0.17641756 -0.09955235 0.3357403 -0.07099565 -0.20035411 -0.10795599 0.15042007
-0.08808829 0.23852628 0.14540167 0.019138243 0.12904528 0.20028947 0.26100752 0.3480241
-0.11270561 0.36127424 -0.15647306 0.45289093 0.17369571 -0.33451372 0.09386831 0.3656808
0.1373707 -0.009830173 0.11980139 0.27001536 -0.21818082 0.21833226 -0.22017795 0.319431
-0.010472241 0.035430748 -0.07465535 0.50011164 -0.04848754 0.27064237 -0.09769963 0.34386998
0.10613306 0.40552756 0.043965288 -0.23614727 0.029649382 -0.25321525 0.060866747 -0.29516512
-0.3036271 -0.16561824 0.05030728 -0.45754668 -0.10255129 -0.15676685 -0.2813684 -0.4361436
-0.03683828 -0.26602468 -0.25395012 -0.3405327 -0.38461903 -0.21454552 0.20656961 -0.17040291
-0.338114 -0.46761456 0.026872505 -0.28154284 0.115907796 -0.5220843 0.054733593 -0.15130126
0.12591684 -0.28071797 0.05391302 -0.22589165 -0.09866337 -0.38438296 -0.08014313 -0.10430449
0.209366 -0.21348092 -0.25231183 0.0073041087 0.14216642 -0.094060875 -0.0009294759 -0.22051832
0.23418216 -0.19078584 0.21779558 -0.33588666 0.262668 -0.4200353 0.14083683 -0.42047164
-0.0050830645 -0.1402133 -0.12209357 0.49411586 0.020609908 0.25687432 0.27089286 -0.4056509
0.20926529 -0.29744112 -0.122931994 0.2766897 -0.31456348 0.34886 -0.106961906 0.45377573
-0.17413618 0.35393637 0.35911423 -0.37661505 0.30506456 -0.3714212 -0.037909754 0.3725823
-0.03254093 0.43384865 -0.010579969 -0.18945386 -0.03478238 0.08222353 0.080091976 -0.4158068
0.021029513 0.2627486 0.13493045 -0.3208731 0.052779343 -0.2105441 0.13264385 -0.05625801
0.16330321 -0.3487687 -0.23915568 0.31156597 -0.24984738 0.111181065
00000000: 4591 27be dac3 933e 3dc0 38be b6f2 d03e
00000010: 11f9 92bd 6cbd 603e 6de4 e7ba c527 58be
00000020: cdc2 3dbe cea6 343e 1ae2 cbbd 27e6 ab3e
00000030: 2b66 91bd a129 4dbe 0818 ddbd b807 1a3e
00000040: a267 b4bd 3c40 743e 2de4 143e cec7 9c3c
00000050: 7224 043e af18 4d3e c7a2 853e 3730 b23e
00000060: 33d2 e6bd f0f8 b83e 793a 20be 52e1 e73e
00000070: 4add 313e 6245 abbe 073e c03d 843a bb3e
00000080: e8aa 0c3e bc0e 21bc 6e5a f53d 743f 8a3e
00000090: cb6a 5fbe 7e92 5f3e 5476 61be 768c a33e
000000a0: c393 2bbc d51f 113d e7e4 98bd 5107 003f
000000b0: df9a 46bd a391 8a3e be16 c8bd ba0f b03e
000000c0: 4a5c d93d 4fa1 cf3e f214 343d 97d0 71be
000000d0: 43e3 f23c 6ea5 81be 694f 793d e21f 97be
000000e0: 0375 9bbe d497 29be 020f 4e3d 8f43 eabe
000000f0: 6906 d2bd 7d87 20be 850f 90be 374e dfbe
00000100: bce3 16bd 6334 88be c005 82be 4d5a aebe
00000110: c9ec c4be d2b1 5bbe fc86 533e 1a7e 2ebe
00000120: 471d adbe 2d6b efbe ba23 dc3c 6226 90be
00000130: 1161 ed3d 51a7 05bf 5530 603d b8ee 1abe
00000140: 58f0 003e 44ba 8fbe e6d3 5c3d 2450 67be
00000150: 0510 cabd d8cd c4be 1522 a4bd 989d d5bd
00000160: 0a64 563e be9a 5abe 042f 81be 4e57 ef3b
00000170: 1394 113e fda2 c0bd 12a8 73ba 8ecf 61be
00000180: 73cd 6f3e 5d5d 43be ce05 5f3e 56f9 abbe
00000190: 6c7c 863e de0e d7be 8837 103e 0f48 d7be
000001a0: d68f a6bb 1394 0fbe 320c fabd c1fc fc3e
000001b0: 1cd6 a83c 0885 833e 78b2 8a3e 7ab1 cfbe
000001c0: a449 563e 344a 98be c5c3 fbbd 46aa 8d3e
000001d0: 770e a1be c79d b23e d80e dbbd 4b55 e83e
000001e0: c150 32be 2637 b53e d2dd b73e b0d3 c0be
000001f0: 6c31 9c3e eb2a bebe 4247 1bbd 1bc3 be3e
00000200: a349 05bd 6921 de3e 9b57 2dbc 3100 42be
00000210: f877 0ebd cf64 a83d 4307 a43d a1e4 d4be
00000220: 1646 ac3c fc86 863e 352b 0a3e 7b49 a4be
00000230: 272f 583d df98 57be cad3 073e cd6e 66bd
00000240: f538 273e d091 b2be 3ae5 74be 9385 9f3e
00000250: fed7 7fbe e6b2 e33d

weight_hh f4 [75, 25]
-0.2621435 -0.16844206 -0.15550828 0.051025238 0.20653446 0.10010437 -0.15615304 0.124178566
-0.40778416 0.034402173 0.13477798 0.44371623 -0.25076467 0.27803394 0.28217626 0.015917972
0.1768682 0.058287375 0.28385583 0.00217904 -0.042886272 -0.3455183 -0.13450415 0.15752214
-0.01390892 -0.26130828 -0.3075018 -0.25779516 0.07722073 0.18775532 -0.07805413 -0.03734798
0.25008857 -0.4099789 -0.24187776 0.041839816 0.14485283 -0.019341964 0.28307465 -0.06151755
-0.34360495 -0.019576028 -0.068235405 0.33854184 -0.3202406 -0.12779455 -0.15204242 -0.28066754
0.3078067 0.18606484 -0.16665064 -0.08675246 -0.070190996 -0.03478447 -0.035812695 -0.1035186
-0.10309213 0.11903489 0.059313554 0.22459663 0.05532972 -0.10440075 -0.028647445 -0.012395921
0.17213248 -0.1608848 0.21265817 -0.20714195 0.12870306 -0.09134383 -0.28687227 -0.2523629
-0.039996546 0.048042614 0.20839222 -0.3811207 -0.30153647 -0.29896852 0.29673877 0.19491898
-0.23086907 -0.23009002 0.041570086 0.19707462 0.21420972 0.057895347 0.019692635 -0.1936284
0.007309439 0.30149373 -0.09659238 0.18603353 -0.34333953 0.20150623 -0.03865952 0.00071826746
-0.32106867 -0.28035295 0.3533017 0.319912 -0.029494673 -0.243572 0.002816037 -0.1505905
0.15250978 -0.103660956 -0.072788805 -0.005185606 -0.0134748425 0.22716102 -0.0026903013 0.2779416
-0.24697615 0.34922352 0.2591826 -0.055199478 0.3027208 -0.18216445 0.28310484 -0.1650481
-0.15806903 -0.16136073 -0.0930495 0.10368292 0.11300957 -0.27742222 -0.15231113 -0.16028762
-0.06290006 -0.056566115 0.08905897 -0.25202176 0.3027948 -0.1730282 0.041022528 0.2546222
0.25894332 -0.150058 -0.04149035 0.02497022 0.025674734 0.06913367 0.0461547 0.09406763
-0.14026463 0.01629639 -0.17153881 -0.10991644 0.24943994 0.19173855 -0.17675516 -0.10260647
0.027139474 0.22404262 0.120662935 -0.091730736 -0.18010134 0.013312451 0.04652521 0.26319626
0.1720805 0.09754519 -0.2813571 0.3696262 0.08257571 -0.14610063 0.12291078 -0.2870204
0.26669723 -0.23805664 -0.25520483 -0.31857678 -0.024001623 0.30022952 0.32053012 -0.32178214
-0.038148914 -0.112983465 -0.13877876 0.15519638 -0.056322947 -0.19127223 0.04767804 0.015975054
-0.046000265 0.11978704 0.089343175 -0.25378355 0.32922754 0.21077275 -0.19248024 0.3194995
-0.24905396 -0.012017516 -0.36017892 0.01503144 -0.31593195 -0.026153445 0.31787226 0.21682194
-0.025827926 -0.23758908 -0.014845942 0.06330218 0.19678178 -0.041457236 -0.2887298 0.36280453
0.12686065 0.18982483 0.36524528 0.12099778 -0.2755395 0.24422537 0.23510322 -0.06549234
0.3407124 -0.048063964 0.34763128 -0.38841385 -0.053718623 -0.27348512 -0.053689267 0.32969505
0.09380811 -0.21804892 -0.19635089 -0.06520947 0.064136 0.21645738 -0.12252972 -0.112902746
0.31338724 0.1818844 0.05762768 0.35021558 -0.25350058 -0.32804146 0.21431343 0.2692911
-0.088907264 0.14282894 -0.32033032 0.17676741 -0.12959144 -0.32289886 -0.27238536 -0.10420696
0.081335016 0.11787953 -0.009379594 -0.29417676 -0.34900513 0.1613807 0.08676487 -0.11341566
00000000: ac37 86be 137c 2cbe 903d 1fbe d7ff 503d
00000010: c57d 533e 8503 cd3d 95e6 1fbe 5551 fe3d
00000020: 16c9 d0be 4be9 0c3d 3d03 0a3e c62e e33e
00000030: 3a64 80be 775a 8e3e 6879 903e 6866 823c
00000040: f01c 353e bebe 6e3d 8d55 913e 3ace 0e3b
00000050: 84a9 2fbd c6e7 b0be 75bb 09be 7c4d 213e
00000060: 3de2 63bc 33ca 85be e070 9dbe bafd 83be
00000070: e725 9e3d ee42 403e d8da 9fbd 32fa 18bd
00000080: 9c0b 803e c1e8 d1be ceae 77be 3a60 2b3d
00000090: 4d54 143e 0a73 9ebc 29ef 903e d4f9 7bbd
000000a0: fdec afbe e85d a0bc 01bf 8bbd 5b55 ad3e
000000b0: 93f6 a3be 93dc 02be 02b1 1bbe a8b3 8fbe
000000c0: d798 9d3e c887 3e3e 77a6 2abe 46ab b1bd
000000d0: 4cc0 8fbd 297a 0ebd 55b0 12bd 8f01 d4bd
000000e0: f721 d3bd 90c8 f33d c5f2 723d a9fc 653e
000000f0: 6ba1 623d 0fd0 d5bd 0cae eabc 4318 4bbc
00000100: 7f43 303e fcbe 24be 10c3 593e 051d 54be
00000110: bcca 033e 7912 bbbd ece0 92be b635 81be
00000120: 6bd3 23bd 55c8 443d c564 553e 4122 c3be
00000130: fd62 9abe 6712 99be 25ee 973e d798 473e
00000140: f168 6cbe b89c 6bbe 6545 2a3d eecd 493e
00000150: cb59 5b3e ac23 6d3d 7352 a13c 8646 46be
00000160: 0584 ef3b 635d 9a3e 3ad2 c5bd 937f 3e3e
00000170: 33ca afbe a657 4e3e 7259 1ebd 1d4a 3c3a
00000180: 1d63 a4be 6c8a 8fbe f6e3 b43e 81cb a33e
00000190: d09e f1bc f06a 79be 438d 383b 6534 1abe
000001a0: 862b 1c3e 324c d4bd 4c12 95bd 04ec a9bb
000001b0: 96c5 5cbc e69c 683e c44f 30bb 5d4e 8e3e
000001c0: 51e7 7cbe 6dcd b23e 95b3 843e d918 62bd
000001d0: 38fe 9a3e 5189 3abe 1ef3 903e 5e02 29be
000001e0: d9dc 21be bf3b 25be bc90 bebd b657 d43d
000001f0: 9071 e73d 490a 8ebe 73f7 1bbe 7022 24be
00000200: bfd1 80bd dfb1 67bd 8d64 b63d ff08 81be
00000210: ec07 9b3e 4e2e 31be 3d07 283d d75d 823e
00000220: 3894 843e cea8 19be c9f1 29bd 598e cc3c
00000230: d253 d23c f495 8d3d b60c 3d3d 88a6 c03d
00000240: 88a1 0fbe 0280 853c dfa7 2fbe df1b e1bd
00000250: 2f6d 7f3e 1c57 443e 4eff 34be 5723 d2bd
00000260: 9a53 de3c 6e6b 653e 211e f73d 53dd bbbd
00000270: 7c6c 38be 771c 5a3c 3891 3e3d a9c1 863e
00000280: df35 303e c6c5 c73d 0a0e 90be a53f bd3e
00000290: 741d a93d 679b 15be a6b8 fb3d 56f4 92be
000002a0: 8a8c 883e 1fc5 73be 35aa 82be 7f1c a3be
000002b0: 0d9f c4bc afb7 993e 861c a43e a1c0 a4be
000002c0: 0942 1cbd e063 e7bd 051c 0ebe cdeb 1e3e
000002d0: e4b2 66bd dedc 43be 0c4a 433d 1ede 823c
000002e0: c66a 3cbd e852 f53d 8ef9 b63d ebef 81be
000002f0: 8390 a83e d0d4 573e 8a19 45be 7095 a33e
00000300: 0008 7fbe 1ee5 44bc 5f69 b8be 6e46 763c
00000310: d5c1 a1be c03f d6bc 27c0 a23e 9206 5e3e
00000320: 1695 d3bc 8d4a 73be 653c 73bc 93a4 813d
00000330: 2a81 493e 10cf 29bd 64d4 93be 84c1 b93e
00000340: c2e7 013e 7161 423e 6e01 bb3e afcd f73d
00000350: 8313 8dbe 3716 7a3e e6be 703e d920 86bd
00000360: db71 ae3e b8de 44bd bafc b13e 2ede c6be
00000370: 0f08 5cbd 3e06 8cbe 47e9 5bbd cacd a83e
00000380: 771e c03d 3748 5fbe 3510 49be 8b8c 85bd
00000390: bc59 833d 01a7 5d3e ddf0 fabd 8e39 e7bd
000003a0: 4b74 a03e e73f 3a3e 010b 6c3d 754f b33e
000003b0: d4ca 81be 0df5 a7be fb74 5b3e 86e0 893e
000003c0: 0315 b6bd c041 123e 5602 a4be 8402 353e
000003d0: 9eb3 04be 0053 a5be 1876 8bbe 756a d5bd
000003e0: f992 a63d d36a f13d deac 19bc 569e 96be
000003f0: cdb0 b2be fb40 253e c8b1 b13d 7846 e8bd

bias_ih f4 [75]
-0.011612805 0.041207876 -0.1265857 0.1714276 0.13411224 -0.076492056 -0.11479787 0.15031701
0.06795159 0.2753131 0.0179766 0.38959196 0.16224253 0.31855687 -0.14811336 0.10256735
-0.083717875 0.33935782 0.177979 -0.00024090773 0.17801327 0.30340314 -0.04904323 0.17714563
-0.0025549538 -0.2698408 -0.2671732 0.08880594 -0.4204316 -0.1451717 -0.42382625 -0.39472654
-0.42790774 -0.28710428 -0.19770378 -0.40555015 -0.24719636 -0.33901128 -0.41753703 -0.24556218
-0.38469625 -0.030862743 -0.33161977 -0.025864953 -0.24030955 -0.34981528 -0.008178154 -0.28644404
-0.4584198 -0.07475206 -0.12878296 -0.1302309 -0.24472584 0.15052976 0.35642013 -0.31493053
-0.38007832 0.32281163 0.1657774 0.16606458 0.32401702 -0.20088993 -0.26269075 0.1557658
0.3128709 -0.2487776 0.32980323 0.0009836915 0.29727057 -0.18587431 -0.1880523 -0.29038247
-0.30449808 0.19795296 0.32045728
00000000: a243 3ebc 97c9 283d af9f 01be b78a 2f3e
00000010: b854 093e dea7 9cbd 251b ebbd b4ec 193e
00000020: 342a 8b3d d7f5 8c3e aa43 933c 9978 c73e
00000030: e822 263e e319 a33e 07ab 17be d50e d23d
00000040: 4774 abbd 4fc0 ad3e 2140 363e 2d9c 7cb9
00000050: 1c49 363e a857 9b3e 8ee1 48bd aa65 353e
00000060: 0371 27bb 9328 8abe edca 88be e3df b53d
00000070: d042 d7be e4a7 14be c1ff d8be 9919 cabe
00000080: b916 dbbe 55ff 92be dc72 4abe 45a4 cfbe
00000090: 0b21 7dbe e392 adbe 6ac7 d5be a774 7bbe
000000a0: e8f6 c4be ddd3 fcbc 11ca a9be bde2 d3bc
000000b0: b513 76be fd1a b3be aafd 05bc cba8 92be
000000c0: 00b6 eabe 9c17 99bd aedf 03be 405b 05be
000000d0: 6999 7abe 7924 1a3e b37c b63e 933e a1be
000000e0: a099 c2be 9147 a53e 8dc1 293e d50c 2a3e
000000f0: 8fe5 a53e 17b6 4dbe 677f 86be 1281 1f3e
00000100: 9d30 a03e 8ebf 7ebe f8db a83e 36ef 803a
00000110: d933 983e d655 3ebe c890 40be 03ad 94be
00000120: 2ce7 9bbe 2eb4 4a3e fa12 a43e

bias_hh f4 [75]
0.19580899 0.18708049 -0.12847672 0.23990694 -0.06697731 0.14628316 -0.08514347 0.05771733
0.2160759 0.12374091 -0.018245444 0.30733427 0.16143748 0.30835658 -0.21320562 0.36891064
-0.1897556 0.03951021 0.12390831 -0.032986913 0.20469618 0.14314976 0.08313281 0.23227578
0.21191312 -0.124585226 -0.19399993 -0.022120902 -0.54747415 -0.14209619 -0.38980997 -0.2904003
-0.09734076 -0.42362526 -0.34465998 -0.45957413 -0.25644693 -0.35159603 -0.34933555 -0.2558552
-0.18039493 -0.10164654 -0.10194725 -0.060664892 -0.08242111 -0.27019906 -0.35272667 -0.09691079
-0.14917076 -0.13894953 -0.3074863 -0.28405744 0.10996773 0.086251296 0.062317517 -0.16416186
-0.031823862 0.08874761 0.15823005 0.0911524 0.07434564 -0.25166035 -0.19015537 0.29581177
0.0037436457 -0.24420604 -0.016193237 -0.37694964 0.2375063 -0.20558342 -0.28033358 -0.19653364
-0.089006014 0.35128638 0.31429753
00000000: 2782 483e 0792 3f3e 678f 03be 2aaa 753e
00000010: 662b 89bd 41cb 153e b35f aebd 0269 6c3d
00000020: 0043 5d3e e06b fd3d 7877 95bc eb5a 9d3e
00000030: de4f 253e eae0 9d3e 9352 5abe dbe1 bc3e
00000040: 4b4f 42be 75d5 213d a4c3 fd3d 491d 07bd
00000050: e09b 513e da95 123e 8941 aa3d b4d9 6d3e
00000060: c1ff 583e 8a26 ffbd eba7 46be e536 b5bc
00000070: 4427 0cbf aa81 11be 2c95 c7be 59af 94be
00000080: 985a c7bd 69e5 d8be 4677 b0be 4d4d ebbe
00000090: 034d 83be 6504 b4be 1cdc b2be 74ff 82be
000000a0: 73b9 38be 102c d0bd b8c9 d0bd c07b 78bd
000000b0: 66cc a8bd 8857 8abe 9798 b4be 2a79 c6bd
000000c0: 38c0 18be c948 0ebe d86e 9dbe fa6f 91be
000000d0: c336 e13d 85a4 b03d a740 7f3d 0c1a 28be
000000e0: bd59 02bd 4fc1 b53d 0f07 223e 1cae ba3d
000000f0: 8742 983d a0d9 80be 17b8 42be a474 973e
00000100: f457 753b 2611 7abe aea7 84bc 8bff c0be
00000110: da34 733e 7684 52be e287 8fbe 1d40 49be
00000120: c948 b6bd cfdb b33e 9beb a03e

weight_ih f4 [75, 25]
-0.3928352 -0.16566025 -0.32097453 0.38791695 0.28256765 -0.45493993 -0.24279408 0.23462187
0.13628215 0.033285547 0.42159557 -0.13149689 -0.19291133 0.30021766 -0.017789913 -0.20233999
0.004320344 -0.054495227 0.055843353 -0.35545257 -0.4033552 -0.1226983 0.0015171517 0.042850163
0.076201215 0.007974158 0.37367806 0.18257248 -0.14729518 0.06802475 0.25135416 0.30552435
-0.16593415 -0.119821586 -0.3501262 -0.19977613 0.094197884 0.09732676 -0.23996492 -0.18388686
0.2187174 0.010528987 0.12891057 -0.07369248 0.06425777 0.19148926 -0.010861865 0.021679671
-0.040073663 -0.29438654 -0.17022489 -0.002846486 -0.04695571 0.10934866 0.14334892 -0.15854923
0.08066771 -0.024147322 0.11105918 0.3355571 -0.07633308 -0.17966454 0.0037775906 -0.09813938
0.08942095 -0.117354736 0.120303005 -0.044898406 0.14012787 -0.2517127 0.022976931 0.02068152
0.04454551 0.02039678 0.24949042 0.031840727 -0.020000953 -0.16580802 0.23459032 -0.11001173
0.023731086 0.037628543 0.18722418 0.21458526 0.23396575 -0.011272362 0.2002579 -0.072220445
0.12702881 0.16099596 -0.11969544 0.3099703 -0.16786301 0.19812879 0.03630912 0.11147348
-0.17625803 -0.12683254 -0.022500858 -0.04250205 -0.14612307 -0.19164874 -0.036132652 0.124747455
0.22212458 -0.2634726 -0.118105106 0.03988672 0.30203867 0.3851352 0.034542415 -0.1441855
-0.2842389 0.31947625 0.10289642 -0.21639705 -0.07283175 -0.22141542 0.18964788 -0.10229646
0.008326534 0.086715765 -0.13316654 0.25023526 0.07695295 -0.120073855 -0.086448945 -0.10485669
0.2827827 -0.03082454 -0.12819628 -0.050157968 0.33202818 0.24598835 0.17170171 0.2243468
-0.18539332 -0.31785384 0.3641936 0.14711848 -0.26768303 0.07473085 -0.13614017 0.085020505
-0.035227943 -0.07098823 -0.28469557 -0.21088342 0.21682395 0.1384581 -0.05212604 -0.09680583
-0.27177924 0.2874507 0.024013849 -0.3756053 -0.3739315 0.15715207 0.3482632 0.19563417
0.13246232 0.049254775 0.0076026446 0.13601433 0.09236651 0.051285177 0.09697134 0.008604986
0.2549814 -0.08666946 -0.19201839 -0.067104235 -0.18061215 0.3381794 0.21688297 0.040240426
-0.19187404 0.13164407 0.26055112 -0.106584914 0.004013966 -0.037491735 -0.04143639 0.076076515
0.1852828 0.035390638 -0.1586312 -0.2517138 -0.04306098 0.09411371 0.11916222 0.20322782
-0.11531824 0.22100125 -0.21649069 -0.1358219 -0.26893228 -0.01613926 -0.031389322 0.18533182
-0.31190225 -0.18795012 -0.22880365 0.3227932 0.044393223 -0.08668231 -0.32099056 0.12234523
0.40033484 0.267094 0.02195751 -0.24071012 -0.36263305 0.14766736 0.22742671 0.0076267
0.10283325 -0.31103626 0.058748335 -0.21883032 -0.2619275 0.041824937 0.07806236 0.14610893
0.27914795 -0.11267145 -0.29215446 -0.121481866 0.11260317 -0.012490819 -0.37327433 -0.26669306
0.22503856 0.38243547 0.30663306 0.29757443 0.06237382 -0.033226594 0.28768018 0.26458764
-0.019785011 0.10493422 -0.31697422 -0.012770861 -0.31050548 0.08741541 -0.01980346 -0.21734633
0.12680681 0.27918136 -0.24775325 -0.42137554 0.098798975 0.34036562 0.053977024 -0.14944847
00000000: b221 c9be d7a2 29be c656 a4be 0d9d c63e
00000010: b5ac 903e e3ed e8be 039f 78be b740 703e
00000020: 8c8d 0b3e 6d56 083d 60db d73e 1fa7 06be
00000030: 8c8a 45be 21b6 993e 27bc 91bc 3732 4fbe
00000040: ac91 8d3b 6336 5fbd 00bc 643d e1fd b5be
00000050: 9384 cebe 3f49 fbbd 2adb c63a a783 2f3d
00000060: 620f 9c3d 0ba6 023c bb52 bf3e 48f4 3a3e
00000070: 8cd4 16be 8f50 8b3d 7eb1 803e b06d 9c3e
00000080: a4ea 29be 0565 f5bd be43 b3be 1d92 4cbe
00000090: d2ea c03d 4153 c73d 5db9 75be d64c 3cbe
000000a0: 74f7 5f3e c681 2c3c 2201 043e 15ec 96bd
000000b0: 9499 833d c315 443e f7f5 31bc 9199 b13c
000000c0: 4824 24bd d5b9 96be 6f4f 2ebe 1c8c 3abb
000000d0: a154 40bd 31f2 df3d 0fca 123e bb5a 22be
000000e0: 1d35 a53d 9bd0 c5bc ff72 e33d 24ce ab3e
000000f0: 8554 9cbd fbf9 37be 7491 773b 4dfd c8bd
00000100: 5522 b73d ae57 f0bd 6c61 f63d 64e7 37bd
00000110: ae7d 0f3e 7de0 80be 1e3a bc3c 4b6c a93c
00000120: 5a75 363d 2617 a73c 6b7a 7f3e 6c6b 023d
00000130: 0ad9 a3bc 94c9 29be 7238 703e d44d e1bd
00000140: b267 c23c 6320 1a3d b2b7 3f3e 3dbc 5b3e
00000150: b894 6f3e b7af 38bc 6810 4d3e 50e8 93bd
00000160: d713 023e 20dc 243e e222 f5bd 6db4 9e3e
00000170: 48e4 2bbe 46e2 4a3e dfb8 143d 354c e43d
00000180: fc7c 34be 64e0 01be b853 b8bc a116 2ebd
00000190: 49a1 15be 913f 44be d5ff 13bd 987b ff3d
000001a0: a074 633e e1e5 86be 17e1 f1bd 4260 233d
000001b0: d0a4 9a3e 7130 c53e 597c 0d3d 5da5 13be
000001c0: c387 91be 6492 a33e 5cbb d23d 3097 5dbe
000001d0: d028 95bd b9ba 62be 0e33 423e ce80 d1bd
000001e0: 046c 083c 0998 b13d cf5c 08be d61e 803e
000001f0: 8299 9d3d 48e9 f5bd 250c b1bd 1bbf d6bd
00000200: e5c8 903e bf83 fcbc e345 03be 7172 4dbd
00000210: 99ff a93e 5fe4 7b3e 93d2 2f3e 2bbb 653e
00000220: bfd7 3dbe bdbd a2be 9577 ba3e 3aa6 163e
00000230: c00d 89be 7d0c 993d 5468 0bbe 3b1f ae3d
00000240: 2d4b 10bd 4762 91bd 9ec3 91be d3f1 57be
00000250: 1907 5e3e f6c7 0d3e 1d82 55bd 2342 c6bd
00000260: a626 8bbe bd2c 933e b1b8 c43c 564f c0be
00000270: f373 bfbe 79ec 203e 8e4f b23e 5354 483e
00000280: 34a4 073e 60bf 493d 9b1f f93b 5747 0b3e
00000290: a72a bd3d 6810 523d e998 c63d edfb 0c3c
000002a0: ec8c 823e c27f b1bd 78a0 44be f26d 89bd
000002b0: 64f2 38be da25 ad3e 9216 5e3e 25d3 243d
000002c0: a17a 44be b4cd 063e f566 853e 3149 dabd
000002d0: 9687 833b ef90 19bd 34b9 29bd 01ce 9b3d
000002e0: c6ba 3d3e c6f5 103d 3870 22be a2e0 80be
000002f0: b660 30bd b0be c03d 520b f43d f41a 503e
00000300: f82b ecbd 274e 623e bcaf 5dbe e514 0bbe
00000310: 7eb1 89be 7b36 84bc 1792 00bd a0c7 3d3e
00000320: a7b1 9fbe ff75 40be 814b 6abe 2645 a53e
00000330: abd5 353d 7f86 b1bd e058 a4be 2390 fa3d
00000340: b0f8 cc3e 8bc0 883e 3ce0 b33c b77c 76be
00000350: 0aab b9be 1d36 173e 8ce2 683e 66e9 f93b
00000360: 3d9a d23d 2540 9fbe 18a2 703d 0e15 60be
00000370: 5c1b 86be a050 2b3d 29df 9f3d 949d 153e
00000380: 7bec 8e3e 4ac0 e6bd 4595 95be 7ccb f8bd
00000390: 7e9c e63d 4ba6 4cbc d01d bfbe fe8b 88be
000003a0: 8270 663e 95ce c33e 02ff 9c3e ad5b 983e
000003b0: b17b 7f3d 9c18 08bd d14a 933e 0878 873e
000003c0: 2d14 a2bc c1e7 d63d 724a a2be e03c 51bc
000003d0: 93fa 9ebe da06 b33d de3a a2bc 0990 5ebe
000003e0: a5d9 013e dcf0 8e3e 07b3 7dbe 89be d7be
000003f0: 1e57 ca3d 6744 ae3e 0317 5d3d 0509 19be

weight_hh f4 [75, 25]
-0.26545128 -0.05865107 -0.26231933 -0.06535914 -0.08082422 -0.14956985 -0.21456781 0.0075082025
0.09623676 0.30444798 0.03998955 0.046634752 -0.008369271 -0.16081999 -0.058538936 0.26862925
0.2206094 -0.0006759035 -0.02602529 -0.11786141 0.08553987 -0.03043789 -0.05529868 -0.11795066
-0.055275112 -0.10690442 -0.12221437 0.15023981 -0.08524855 0.029499333 -0.023605233 0.089313745
-0.008220167 -0.04772578 0.104392655 -0.2741388 0.22739935 -0.093299985 0.20451102 0.035343282
0.19055045 -0.16380912 -0.08415324 -0.19817233 -0.07795048 0.1069014 0.13131566 -0.061826617
-0.16303156 -0.09518357 -0.09269421 -0.108273216 -0.3214985 -0.023242969 -0.09126316 -0.080370575
-0.22119305 -0.13810726 0.2998906 0.29583427 0.026899995 -0.13776925 -0.12378435 -0.2354867
0.17308185 0.006127653 -0.07737464 0.2729427 0.35339624 -0.09712107 0.06111594 -0.117329426
-0.10327659 -0.19395083 0.08344138 -0.2936684 -0.084329635 -0.07649182 -0.30641496 -0.22796595
-0.13439612 -0.10146612 -0.08970949 0.0025846264 0.1443941 0.18167265 -0.06618985 0.097304374
-0.35834768 0.34296864 0.17283951 0.017618751 0.071120515 0.060111783 -0.3109283 -0.22366485
-0.23153663 -0.21786903 0.013390854 0.23291908 0.14302447 -0.13824946 -0.13115582 -0.043909952
-0.22240557 0.042051803 -0.30236098 -0.33684552 0.09371333 -0.078956895 0.19358557 -0.030136226
0.21653683 -0.16337343 -0.016157681 0.102141656 0.06911274 0.16031274 0.119792864 -0.028549783
0.0899574 0.101045184 -0.12581697 0.058953665 0.09615608 -0.16408174 -0.09344163 -0.3007565
-0.12618278 -0.1160104 -0.13545886 -0.029037178 0.0721182 0.057009574 -0.13361175 0.18443567
-0.08025776 0.19383322 -0.116240755 -0.08856359 -0.0339166 0.08803424 0.144446 0.21894619
0.10245181 0.023975028 -0.12047666 -0.07182224 0.12513743 0.055172626 0.028950056 -0.018805476
-0.15706193 0.05576705 -0.3062619 0.013602952 -0.061063074 -0.28785715 0.27810746 0.15234289
0.1698655 -0.18191393 0.0959629 -0.3243114 0.25039774 -0.082827486 0.23449475 0.3265707
0.3124055 0.090064436 -0.17827852 -0.29437348 -0.08767518 0.090855174 0.19004904 -0.19079143
0.09007117 -0.034818083 -0.18700813 -0.21804379 -0.08448161 -0.09603564 -0.29542115 -0.048803553
0.0884526 0.046372067 -0.20238948 -0.04820031 -0.13734211 0.12925991 0.01453747 0.014818629
0.19311698 0.30394977 -0.17791682 0.05462545 -0.19902961 -0.13315502 0.22898142 0.029965403
-0.13191222 -0.09181559 0.027063983 -0.2516954 -0.12340902 -0.117715865 -0.124053255 -0.031238336
0.25731313 0.15089586 -0.03817551 -0.03162783 0.15044387 -0.2287206 0.14818764 -0.22305071
-0.059081763 0.08436897 0.017454352 0.1717665 0.053967465 -0.07620622 0.014093613 0.16580267
-0.14000887 0.057541892 -0.18202776 -0.20635584 0.05530791 0.018319739 0.019283699 -0.19032234
-0.33244735 0.29177853 -0.024707558 0.22921398 0.114885345 0.1673718 -0.17164406 0.040196482
0.05876076 -0.069856755 0.039069712 0.018053845 0.18955745 -0.20177934 0.0072355624 0.0865907
0.1128735 0.03500216 -0.00041547333 -0.07173532 -0.30619028 -0.030209515 -0.27939597 -0.118615076
00000000: 3be9 87be 1b3c 70bd b84e 86be 03db 85bd
00000010: 2b87 a5bd d728 19be aab7 5bbe 5e07 f63b
00000020: c717 c53d 9be0 9b3e 15cc 233d 1504 3f3d
00000030: 441f 09bc ffad 24be 86c6 6fbd c689 893e
00000040: 6ee7 613e 1e2f 31ba fd32 d5bc 5361 f1bd
00000050: 872f af3d e258 f9bc de80 62bd 1e90 f1bd
00000060: 2868 62bd b4f0 dabd 874b fabd 77d8 193e
00000070: cb96 aebd 96a8 f13c c35f c1bc 20ea b63d
00000080: e1ad 06bc 1c7c 43bd d1cb d53d ec5b 8cbe
00000090: 60db 683e 1014 bfbd 566b 513e 1ec4 103d
000000a0: a81f 433e 94bd 27be 8958 acbd b0ed 4abe
000000b0: 80a4 9fbd 1fef da3d 9d77 063e e83d 7dbd
000000c0: bff1 26be 9bef c2bd 76d6 bdbd 59be ddbd
000000d0: 749b a4be 0a68 bebc 2ee8 babd 5499 a4bd
000000e0: 6e80 62be fd6b 0dbe 438b 993e 9777 973e
000000f0: 615d dc3c 6213 0dbe a682 fdbd 6d23 71be
00000100: 5e3c 313e 7bca c83b 9876 9ebd 25bf 8b3e
00000110: 5af0 b43e 69e7 c6bd b554 7a3d 694a f0bd
00000120: ad82 d3bd 0c9b 46be 50e3 aa3d b45b 96be
00000130: 04b5 acbd bea7 9cbd 6ce2 9cbe e86f 69be
00000140: 239f 09be 78cd cfbd 9cb9 b7bd d662 293b
00000150: 0cdc 133e 6508 3a3e 8b8e 87bd 8447 c73d
00000160: 5979 b7be 9699 af3e d7fc 303e 3355 903c
00000170: a2a7 913d c637 763d fe31 9fbe 6608 65be
00000180: f017 6dbe 0f19 5fbe 5065 5b3c 5782 6e3e
00000190: 0275 123e 4491 0dbe b64d 06be ecda 33bd
000001a0: 49be 63be 833e 2c3d 0fcf 9abe 0477 acbe
000001b0: c6ec bf3d 27b4 a1bd 4c3b 463e 3fe0 f6bc
000001c0: d5bb 5d3e 5d4b 27be 1d5d 84bc a52f d13d
000001d0: fb8a 8d3d 0629 243e f655 f53d 3ce1 e9bc
000001e0: 963b b83d c7f0 ce3d 2ad6 00be 6679 713d
000001f0: 7bed c43d 0b05 28be 535e bfbd c2fc 99be
00000200: 0f36 01be dc96 edbd bab5 0abe 60df edbc
00000210: b5b2 933d df82 693d 85d1 08be b4dc 3c3e
00000220: 2e5e a4bd 377c 463e a20f eebd d460 b5bd
00000230: 22ec 0abd 4c4b b43d a7e9 133e 6e33 603e
00000240: 41d2 d13d 4767 c43c 78bc f6bd 8a17 93bd
00000250: 0724 003e b1fc 613d ab28 ed3c f10d 9abc
00000260: d8d4 20be fd6b 643d 5cce 9cbe eade 5e3c
00000270: 461d 7abd 0362 93be 1a64 8e3e c6ff 1b3e
00000280: 39f1 2d3e a547 3abe 3288 c43d 250c a6be
00000290: 2234 803e 75a1 a9bd 641f 703e 4634 a73e
000002a0: 9df3 9f3e b473 b83d a58e 36be 1fb8 96be
000002b0: 0b8f b3bd 4712 ba3d 379c 423e d45e 43be
000002c0: 3c77 b83d 689d 0ebd 0f7f 3fbe df46 5fbe
000002d0: b204 adbd 55ae c4bd 7141 97be 3ce6 47bd
000002e0: a326 b53d a3f0 3d3d 303f 4fbe b06d 45bd
000002f0: 69a3 0cbe b65c 043e 922e 6e3c d6c9 723c
00000300: 75c0 453e 4e9f 9b3e d42f 36be f0be 5f3d
00000310: 6bce 4bbe ca59 08be 1b7a 6a3e 017a f53c
00000320: ff13 07be d009 bcbd 49b5 dd3c 38de 80be
00000330: debd fcbd 0415 f1bd a20f febd 8ae7 ffbc
00000340: 8cbe 833e 7284 1a3e ec5d 1cbd 2f8c 01bd
00000350: f50d 1a3e bc35 6abe 80be 173e 6867 64be
00000360: b8ff 71bd a3c9 ac3d 6efc 8e3c 8fe3 2f3e
00000370: fd0c 5d3d 0212 9cbd e6e8 663c 2dc8 293e
00000380: 7c5e 0fbe 0cb1 6b3d 7c65 3abe f24e 53be
00000390: 8c8a 623d 4713 963c d9f8 9d3c dce3 42be
000003a0: 8a36 aabe ff63 953e 8167 cabc 12b7 6a3e
000003b0: 0249 eb3d 8363 2b3e 76c3 2fbe 11a5 243d
000003c0: 1faf 703d 0f11 8fbd 9007 203d a8e5 933c
000003d0: 591b 423e 3e9f 4ebe 4c18 ed3b 7756 b13d
000003e0: 392a e73d 6d5e 0f3d e3d3 d9b9 f8e9 92bd
000003f0: f9c4 9cbe f279 f7bc fd0c 8fbe 76ec f2bd

bias_ih f4 [75]
-0.04713642 0.030820293 0.08305871 -0.095396966 0.1892846 -0.03959471 0.08846294 -0.12940124
0.16870484 -0.059670277 -0.06571301 0.06243624 0.024977786 0.17439568 0.08366857 -0.06137443
0.13886364 -0.1914508 0.2015947 0.2425365 0.34147832 0.11859061 0.19854239 0.05045391
-0.14043702 -0.3383179 -0.29721692 -0.17801958 -0.014806288 -0.17484552 -0.42653954 -0.07439799
-0.27617064 -0.15272087 -0.21071172 -0.13146028 -0.2913127 -0.30350116 -0.42461818 -0.15219902
-0.22119142 -0.3423579 -0.088765755 -0.20123513 -0.32915485 -0.3766473 -0.42695135 -0.28538543
-0.012686346 -0.49915734 -0.30217567 -0.32209083 -0.21293241 -0.077708125 -0.1696591 -0.27814952
-0.22755742 -0.011365817 0.14401309 -0.010666219 0.0234475 -0.29583278 0.33423275 0.023076849
0.083366126 0.051449556 0.28935784 0.013410822 0.008539186 -0.25378996 -0.23379853 -0.23035264
-0.36084855 0.06009956 0.14300852
00000000: 1e12 41bd d77a fc3c af1a aa3d 7c5f c3bd
00000010: d2d3 413e 102e 22bd 0f2c b53d c281 04be
00000020: f6c0 2c3e d268 74bd 8b94 86bd 25bd 7f3d
00000030: 379e cc3c c894 323e 6d5a ab3d c163 7bbd
00000040: 4532 0e3e ae0b 44be d76e 4e3e 7d5b 783e
00000050: 3fd6 ae3e a2df f23d b24e 4b3e c2a8 4e3d
00000060: b9ce 0fbe 0138 adbe d12c 98be c44a 36be
00000070: 1396 72bc b40a 33be 6463 dabe f95d 98bd
00000080: 3d66 8dbe dc62 1cbe d0c4 57be 869d 06be
00000090: f026 95be 8164 9bbe 8e67 d9be 0fda 1bbe
000000a0: 0180 62be 8949 afbe d2ca b5bd 9510 4ebe
000000b0: fc86 a8be ead7 c0be 5e99 dabe 0a1e 92be
000000c0: 64da 4fbc 8d91 ffbe c5b6 9abe 17e9 a4be
000000d0: f40a 5abe 7025 9fbd 1dbb 2dbe 9d69 8ebe
000000e0: d004 69be b137 3abc 2b78 133e 5dc1 2ebc
000000f0: f914 c03c 6577 97be 8e20 ab3e a90b bd3c
00000100: dcbb aa3d c5bc 523d b626 943e 10b9 5b3c
00000110: f1e7 0b3c c2f0 81be e268 6fbe 90e1 6bbe
00000120: 24c1 b8be f52a 763d d370 123e

bias_hh f4 [75]
0.019576441 -0.17348728 0.03274469 -0.25516474 0.12625796 0.12910512 0.20447168 -0.02563089
-0.1173127 -0.0035320756 0.22661515 -0.06273168 -0.06311311 0.28871825 -0.08330337 -0.074142694
0.21888722 0.12772599 -0.033318546 0.08974279 -0.009475988 -0.04832884 0.1950277 0.019627813
-0.028751558 -0.34712327 -0.34347138 -0.057980157 -0.18406487 -0.3220309 -0.34920838 0.039134227
-0.03583658 -0.15129045 -0.25427806 -0.05443963 -0.028435772 -0.49588296 -0.038950182 -0.15248233
-0.33701468 -0.42432597 -0.20120656 -0.07615576 -0.250992 -0.14435337 -0.32606447 -0.06261817
0.07150502 -0.23189995 -0.2031948 0.019435927 0.029443653 -0.056438208 -0.2389868 -0.2582817
-0.05449656 0.01886503 0.17617257 0.21870899 0.25558048 -0.0958605 -0.011379724 -0.28187644
0.078133285 0.08212555 0.18714376 0.11248309 0.19667253 -0.13541183 -0.248326 0.07287914
-0.2757967 0.031341273 0.03991989
00000000: c65e a03c a6a6 31be 4c1f 063d f4a4 82be
00000010: c449 013e 2234 043e 0661 513e dff7 d1bc
00000020: a441 f0bd 657a 67bb cd0d 683e 7879 80bd
00000030: 7241 81bd e1d2 933e f59a aabd 20d8 97bd
00000040: f923 603e 9aca 023e 0779 08bd 11cb b73d
00000050: 2d41 1bbc 76f4 45bd 57b5 473e 82ca a03c
00000060: 6388 ebbc 24ba b1be 7bdb afbe 9a7c 6dbd
00000070: 807b 3cbe 3ce1 a4be 71cb b2be 364b 203d
00000080: 61c9 12bd e2eb 1abe bc30 82be 17fc 5ebd
00000090: 23f2 e8bc 5fe4 fdbe 3a8a 1fbd 5424 1cbe
000000a0: 308d acbe 4141 d9be 1809 4ebe 8df7 9bbd
000000b0: 0682 80be 5fd1 13be ecf1 a6be f53d 80bd
000000c0: 3971 923d 2e77 6dbe 4c12 50be 1838 9f3c
000000d0: d133 f13c c02b 67bd f5b8 74be 803d 84be
000000e0: c937 5fbd d68a 9a3c 9566 343e 40f5 5f3e
000000f0: 72db 823e 8352 c4bd 0672 3abc 1c52 90be
00000100: 5804 a03d 7131 a83d 9da2 3f3e 895d e63d
00000110: 8664 493e 66a9 0abe 2c49 7ebe a941 953d
00000120: 3a35 8dbe b55f 003d 0a83 233d

weight f4 [2, 25]
-0.40820795 -0.41349038 -0.35660294 -0.20204663 -0.33817413 -0.34951907 -0.29141638 -0.27446333
0.35972196 0.35876945 0.31489512 -0.3517983 0.40912136 -0.28532228 0.2281204 0.3718384
0.4186784 0.12833174 0.3768716 -0.24842188 -0.39362785 -0.23046412 -0.40636352 -0.14630416
0.2378418 0.41896874 0.20680526 0.04558341 0.2773183 0.26114616 0.3879695 0.07735174
0.18842378 -0.41345087 -0.21733572 -0.16722244 0.06252186 -0.30992857 0.33252755 -0.28202787
-0.43064347 -0.38170043 -0.32882142 -0.38629046 0.4184697 0.4096179 0.45440087 0.42436317
0.064877816 -0.36787033
00000000: a200 d1be 03b5 d3be a994 b6be 50e5 4ebe
00000010: 2925 adbe 2af4 b2be 8734 95be 7586 8cbe
00000020: 7a2d b83e a1b0 b73e ef39 a13e e81e b4be
00000030: 5b78 d13e c315 92be 6598 693e 9a61 be3e
00000040: 045d d63e 6569 033e 50f5 c03e 4e62 7ebe
00000050: 9789 c9be c9fe 6bbe e10e d0be c2d0 15be
00000060: cd8c 733e 1283 d63e c2c4 533e abb5 3a3d
00000070: aafc 8d3e f3b4 853e f0a3 c63e 976a 9e3d
00000080: 2af2 403e d5af d3be 418d 5ebe 5c3c 2bbe
00000090: 760b 803d f5ae 9ebe 0d41 aa3e f565 90be
000000a0: 4d7d dcbe 3d6e c3be 485b a8be ddc7 c5be
000000b0: a941 d63e 70b9 d13e 3ba7 e83e 2146 d93e
000000c0: a9de 843d 8059 bcbe

bias f4 [2]
0.36111024 -0.19899057
00000000: 71e3 b83e 2fc4 4bbe

weight f4 [2, 25]
0.08347665 -0.16193216 0.11263482 -0.098753214 0.07199751 0.07748674 -0.14790866 0.060747758
-0.093278505 0.15814565 0.10023995 -0.17625342 0.00944452 0.02358821 0.19443484 0.17364778
-0.14722688 -0.11577501 0.06653221 -0.090531014 0.14569281 -0.069006175 -0.08237634 -0.00858435
-0.17688368 0.1765386 0.16767718 -0.046874598 0.040271327 -0.19028585 -0.10215943 -0.045676082
0.1419182 -0.016804457 0.12224002 0.012343213 0.013400152 0.030468076 -0.16595426 -0.07246287
-0.17969683 -0.107894495 0.17018713 0.060394928 -0.09190395 0.19719322 -0.024458438 0.06895186
-0.16961877 -0.04023394
00000000: cef5 aa3d 8bd1 25be 16ad e63d 203f cabd
00000010: 6e73 933d 5eb1 9e3d 5e75 17be a4d2 783d
00000020: cd08 bfbd eff0 213e 9a4a cd3d c77b 34be
00000030: 30bd 1a3c 103c c13c ed19 473e b9d0 313e
00000040: a5c2 16be 731b edbd 0a42 883d 5368 b9bd
00000050: 7f30 153e 1c53 8dbd edb4 a8bd 60a5 0cbc
00000060: ff20 35be 89c6 343e 91b3 2b3e 94ff 3fbd
00000070: 8cf3 243d 4bda 42be f738 d1bd d816 3bbd
00000080: 0153 113e 80a9 89bc fa58 fa3d 303b 4a3c
00000090: 508c 5b3c 3098 f93c eaef 29be 6a67 94bd
000000a0: 7202 38be caf7 dcbd 8945 2e3e ac60 773d
000000b0: 2338 bcbd 05ed 493e 105d c8bc a236 8d3d
000000c0: 8bb0 2dbe 58cc 24bd

bias f4 [2]
0.16722973 0.08236714
00000000: 453e 2b3e 1ab0 a83d

amplitudes f4 [1000, 2]
0.99999964 0.0 0.99999964 0.0 0.99999964 0.0 0.99999964 0.0
0.99999964 0.0 0.99999964 0.0 0.99999964 0.0 0.99999964 0.0
0.99999964 0.0 0.99999964 0.0 0.99999964 0.0 0.99999964 0.0
0.99999964 0.0 0.99999964 0.0 0.99999964 0.0 0.99999964 0.0
0.99999964 0.0 0.99999964 0.0 0.99999964 0.0 0.99999964 0.0
0.99999964 0.0 0.99999964 0.0 0.99999964 0.0 0.99999964 0.0
0.99999964 0.0 0.99999964 0.0 0.99999964 0.0 0.99999964 0.0
0.99999964 0.0 0.99999964 0.0 0.99999964 0.0 0.99999964 0.0
0.99999964 0.0 0.99999964 0.0 0.99999964 0.0 0.99999964 0.0
0.99999964 0.0 0.99999964 0.0 0.99999964 0.0 0.99999964 0.0
0.99999964 0.0 0.99999964 0.0 0.99999964 0.0 0.99999964 0.0
0.99999964 0.0 0.99999964 0.0 0.99999964 0.0 0.99999964 0.0
0.99999964 0.0 0.99999964 0.0 0.99999964 0.0 0.99999964 0.0
0.99999964 0.0 0.99999964 0.0 0.99999964 0.0 0.99999964 0.0
0.99999964 0.0 0.99999964 0.0 0.99999964 0.0 0.99999964 0.0
0.99999964 0.0 0.99999964 0.0 0.99999964 0.0 0.99999964 0.0
0.99999964 0.0 0.99999964 0.0 0.99999964 0.0 0.99999964 0.0
0.99999964 0.0 0.99999964 0.0 0.99999964 0.0 0.99999964 0.0
0.99999964 0.0 0.99999964 0.0 0.99999964 0.0 0.99999964 0.0
0.99999964 0.0 0.99999964 0.0 0.99999964 0.0 0.99999964 0.0
0.99999964 0.0 0.99999964 0.0 0.99999964 0.0 0.99999964 0.0
0.99999964 0.0 0.99999964 0.0 0.99999964 0.0 0.99999964 0.0
0.99999964 0.0 0.99999964 0.0 0.99999964 0.0 0.99999964 0.0
0.99999964 0.0 0.99999964 0.0 0.99999964 0.0 0.99999964 0.0
0.99999964 0.0 0.99999964 0.0 0.99999964 0.0 0.99999964 0.0
0.99999964 0.0 0.99999964 0.0 0.99999964 0.0 0.99999964 0.0
0.99999964 0.0 0.99999964 0.0 0.99999964 0.0 0.99999964 0.0
0.99999964 0.0 0.99999964 0.0 0.99999964 0.0 0.99999964 0.0
0.99999964 0.0 0.99999964 0.0 0.99999964 0.0 0.99999964 0.0
0.99999964 0.0 0.99999964 0.0 0.99999964 0.0 0.99999964 0.0
0.99999964 0.0 0.99999964 0.0 0.99999964 0.0 0.99999964 0.0
0.99999964 0.0 0.99999964 0.0 0.99999964 0.0 0.99999964 0.0
00000000: faff 7f3f 0000 0000 faff 7f3f 0000 0000
00000010: faff 7f3f 0000 0000 faff 7f3f 0000 0000
00000020: faff 7f3f 0000 0000 faff 7f3f 0000 0000
00000030: faff 7f3f 0000 0000 faff 7f3f 0000 0000
00000040: faff 7f3f 0000 0000 faff 7f3f 0000 0000
00000050: faff 7f3f 0000 0000 faff 7f3f 0000 0000
00000060: faff 7f3f 0000 0000 faff 7f3f 0000 0000
00000070: faff 7f3f 0000 0000 faff 7f3f 0000 0000
00000080: faff 7f3f 0000 0000 faff 7f3f 0000 0000
00000090: faff 7f3f 0000 0000 faff 7f3f 0000 0000
000000a0: faff 7f3f 0000 0000 faff 7f3f 0000 0000
000000b0: faff 7f3f 0000 0000 faff 7f3f 0000 0000
000000c0: faff 7f3f 0000 0000 faff 7f3f 0000 0000
000000d0: faff 7f3f 0000 0000 faff 7f3f 0000 0000
000000e0: faff 7f3f 0000 0000 faff 7f3f 0000 0000
000000f0: faff 7f3f 0000 0000 faff 7f3f 0000 0000
00000100: faff 7f3f 0000 0000 faff 7f3f 0000 0000
00000110: faff 7f3f 0000 0000 faff 7f3f 0000 0000
00000120: faff 7f3f 0000 0000 faff 7f3f 0000 0000
00000130: faff 7f3f 0000 0000 faff 7f3f 0000 0000
00000140: faff 7f3f 0000 0000 faff 7f3f 0000 0000
00000150: faff 7f3f 0000 0000 faff 7f3f 0000 0000
00000160: faff 7f3f 0000 0000 faff 7f3f 0000 0000
00000170: faff 7f3f 0000 0000 faff 7f3f 0000 0000
00000180: faff 7f3f 0000 0000 faff 7f3f 0000 0000
00000190: faff 7f3f 0000 0000 faff 7f3f 0000 0000
000001a0: faff 7f3f 0000 0000 faff 7f3f 0000 0000
000001b0: faff 7f3f 0000 0000 faff 7f3f 0000 0000
000001c0: faff 7f3f 0000 0000 faff 7f3f 0000 0000
000001d0: faff 7f3f 0000 0000 faff 7f3f 0000 0000
000001e0: faff 7f3f 0000 0000 faff 7f3f 0000 0000
000001f0: faff 7f3f 0000 0000 faff 7f3f 0000 0000
00000200: faff 7f3f 0000 0000 faff 7f3f 0000 0000
00000210: faff 7f3f 0000 0000 faff 7f3f 0000 0000
00000220: faff 7f3f 0000 0000 faff 7f3f 0000 0000
00000230: faff 7f3f 0000 0000 faff 7f3f 0000 0000
00000240: faff 7f3f 0000 0000 faff 7f3f 0000 0000
00000250: faff 7f3f 0000 0000 faff 7f3f 0000 0000
00000260: faff 7f3f 0000 0000 faff 7f3f 0000 0000
00000270: faff 7f3f 0000 0000 faff 7f3f 0000 0000
00000280: faff 7f3f 0000 0000 faff 7f3f 0000 0000
00000290: faff 7f3f 0000 0000 faff 7f3f 0000 0000
000002a0: faff 7f3f 0000 0000 faff 7f3f 0000 0000
000002b0: faff 7f3f 0000 0000 faff 7f3f 0000 0000
000002c0: faff 7f3f 0000 0000 faff 7f3f 0000 0000
000002d0: faff 7f3f 0000 0000 faff 7f3f 0000 0000
000002e0: faff 7f3f 0000 0000 faff 7f3f 0000 0000
000002f0: faff 7f3f 0000 0000 faff 7f3f 0000 0000
00000300: faff 7f3f 0000 0000 faff 7f3f 0000 0000
00000310: faff 7f3f 0000 0000 faff 7f3f 0000 0000
00000320: faff 7f3f 0000 0000 faff 7f3f 0000 0000
00000330: faff 7f3f 0000 0000 faff 7f3f 0000 0000
00000340: faff 7f3f 0000 0000 faff 7f3f 0000 0000
00000350: faff 7f3f 0000 0000 faff 7f3f 0000 0000
00000360: faff 7f3f 0000 0000 faff 7f3f 0000 0000
00000370: faff 7f3f 0000 0000 faff 7f3f 0000 0000
00000380: faff 7f3f 0000 0000 faff 7f3f 0000 0000
00000390: faff 7f3f 0000 0000 faff 7f3f 0000 0000
000003a0: faff 7f3f 0000 0000 faff 7f3f 0000 0000
000003b0: faff 7f3f 0000 0000 faff 7f3f 0000 0000
000003c0: faff 7f3f 0000 0000 faff 7f3f 0000 0000
000003d0: faff 7f3f 0000 0000 faff 7f3f 0000 0000
000003e0: faff 7f3f 0000 0000 faff 7f3f 0000 0000
000003f0: faff 7f3f 0000 0000 faff 7f3f 0000 0000
