data/RNN_runs/rnn/testLiH_3.pt (torch, 150665 bytes, 9 tensors)

weight_ih f4 [150, 2]
00000000: b161 b93e fff6 0cbd 1a6d 6fbe 153f cb3e
00000010: 160f 293e 75c3 533d 2329 aa3d 7a6c d1bd
00000020: 0d0b 263e 17f9 5c3c 94f6 eb3d 41e7 f13d
00000030: 9500 a2be e952 e93e 795b 0e3e 9ac8 debd
00000040: 124e 41be 9aa1 4c3e 6725 d0bd c508 523e
00000050: 823c c03e 2610 62bb d6a5 923e ce50 9c3e
00000060: db50 863c 35eb 573d e02a 24bd 1020 a5bb
00000070: 9ef3 8e3e 92bc 1cbe 4971 183d 2a99 af3e
00000080: 07a1 933d 6dd1 063e 56d6 183d 3e1d ad3e
00000090: 84e2 f03d e547 83bd 8882 91bc f505 0dbe
000000a0: 5749 3b3e b691 7a3c bec5 eabd ce79 da3e
000000b0: 2eb6 fc3d 6ddb 003e df09 62bc fa89 5f3e
000000c0: 5af5 a23e ac7e a53e 2350 873e 1529 c83b
000000d0: 0de0 353e 4020 623c fadb 973e 450b a0be
000000e0: 395b 213d f9bf 263e 207d 173e fd9e c6bd
000000f0: ec90 54bd 73dc d53e 7fad f93c 0347 54be
00000100: bc0b c9bc c962 af3d 35c2 853e 108f 8bbe
00000110: dcd7 a0bd 7a19 a43e 8a49 c03d 46b4 0b3e
00000120: b83f 093e fc57 8ebe 7eae af3e cf89 9bbc
00000130: b636 8b3e 1d8f bdbe 5842 06be 2fa1 3b3e
00000140: 5b18 2fbe d32d 033f 5a9f 8bbd 255d 1bbd
00000150: b31d ebbd c39a 24be 138b fc3d 0583 c53d
00000160: 7508 233b 42b7 873d 5cd6 60be c658 3a3e
00000170: 69fb 9c3d f773 c43d cda4 363e ba99 fdbd
00000180: ddf2 ee3e cd17 c73e 47a6 b03d 6e08 7d3e
00000190: e7af 83be e4b8 75be 53d0 0f3e 5efb abbe
000001a0: 823c 07bf 538f 403d 10ce 22be 587a 1c3e
000001b0: 2750 b6bc ce86 ed3d 4785 1c3e 9439 36be
000001c0: ba2c b23e 1ac7 cfbe 9c37 60bd 6b65 463d
000001d0: c43c ccbd 2c1b 67be 44b9 40bd 798f 6bbd
000001e0: dc01 8dbe da79 133e 3e8e 22be 7f62 8abe
000001f0: 5593 833c d7dc cbbd 91d7 a23d a9cf bfbe
00000200: 837b 24bc 828c e23d e339 8e3d 7409 2dbe
00000210: ac4f 98bd 8459 87be 5413 7fbc 5d26 cdbe
00000220: 0bfd 25be c15b 803d 23fc 25bc d64c aebe
00000230: e986 9abd 2aee 803d 52e9 1bbd c697 00bd
00000240: c850 42be ef22 7bbe d0d8 91be 1b5e 2ebe
00000250: 2da2 0ebf 3734 a6be 1134 adbe 317d 9a3b
00000260: b2f1 a1be d1b8 1e3d d412 bdbc 0d11 dfbd
00000270: f225 d7be 2912 1fbd 34b4 b3be 609d 5e3e
00000280: 51e2 363d 8c4a 0dbd 0f46 a7be d272 7b3e
00000290: a3a8 e53d 2a2c 0fbd 4e86 acbd 9a6c 1b3e
000002a0: a32e eb3d daa4 97be fca7 3cbe 822b 5ebe
000002b0: c00e 5fbe 9aaf e23d 2376 84be a5df 20be
000002c0: 1cf3 14bf 7a7c 85be 84f7 9c3d a435 c4bc
000002d0: aab4 143c 047f 71be ce7e 33be 6bf4 9abe
000002e0: ad84 48be cc16 193c 0cee 71be 2bb5 1c3e
000002f0: e08d 763e 86c3 f3be 7fba e2bc 0c2d 95be
00000300: af56 c63e 9998 ea3d 4e69 d2be 4bb3 ecbd
00000310: 4445 3c3e bc36 cfbe 82fc 973d e0c4 8bbe
00000320: b710 51be 1369 6c3e a8bf d6bd ea7f 3c3e
00000330: bfef 94be 0170 a23d 1155 1bbe 8f79 c53d
00000340: 2075 e9bd 2577 453e dc52 753d 5946 c3bd
00000350: add6 3b3d 2009 86bc da87 36bc 00ff 923d
00000360: 6702 0e3e 9121 58be 196c 9dbe 1c32 9a3e
00000370: 6089 90be afd9 763d e241 533d 88c1 6fbd
00000380: 93cd 5c3e f9e6 20be 64bc aa3d c5b8 99be
00000390: 8955 bbbd ae29 1f3e b927 003d bd75 d03c
000003a0: 9940 85be 290d fabd 4102 023d 4023 8dbe
000003b0: effd 51be c4b0 f83d c3a8 c4be 4e4f 833e
000003c0: 5e83 653e 511b f3bd 6c48 62be 4dc4 443e
000003d0: 4ae2 debc c2dd cf3d ddc7 d3be 79fa 1e3e
000003e0: 46b7 fd3d 0b3c 7f3e afe4 863e 4fbd 03be
000003f0: c45d ec3e e116 86be 900b 06be a037 3c3e
0.36207345 -0.03441524 -0.23381463 0.39696565 0.16509661 0.051700074 0.083086275 -0.102257684
0.16215153 0.013487122 0.115216404 0.11811686 -0.3164107 0.45571068 0.13902082 -0.108781055
-0.18877438 0.19983521 -0.10163384 0.20511158 0.37546164 -0.0034494489 0.28642148 0.305304
0.016395977 0.052714545 -0.04007995 -0.0050392225 0.2792024 -0.15306309 0.037217412 0.34296542
0.07208448 0.13165827 0.03731378 0.33811373 0.117619544 -0.06410197 -0.017762437 -0.13771804
0.18289696 0.015293529 -0.114634976 0.42671055 0.123394355 0.12583704 -0.013796299 0.21829978
0.31827813 0.32323205 0.26428327 0.006108413 0.1776125 0.013801634 0.29660016 -0.31258598
0.039393637 0.1628417 0.14793825 -0.09698293 -0.05189602 0.41769752 0.030478237 -0.20730214
-0.024541728 0.08563764 0.2612473 -0.27257586 -0.07853672 0.32050687 0.093890265 0.13642988
0.13403213 -0.27801502 0.34312814 -0.01898661 0.2719018 -0.3702325 -0.13111246 0.18323205
-0.17099135 0.512418 -0.06817503 -0.037930626 -0.11480274 -0.16074662 0.12331214 0.096441306
0.0024876867 0.066267505 -0.21956772 0.18197927 0.0766514 0.09592431 0.17836304 -0.12382837
0.46669665 0.38885346 0.08625465 0.24710247 -0.2572014 -0.23996311 0.14044313 -0.33590215
-0.528267 0.047011685 -0.15898919 0.15281045 -0.022255016 0.115979776 0.15285216 -0.17795402
0.3479975 -0.4058159 -0.054740533 0.048436563 -0.099725276 -0.22568959 -0.047051683 -0.057509873
-0.2754048 0.14401951 -0.15874574 -0.27028272 0.016061464 -0.09954231 0.07951272 -0.3746312
-0.010039213 0.11061956 0.06944635 -0.16898137 -0.07437071 -0.26435483 -0.015568573 -0.4006833
-0.1620981 0.06267501 -0.010130915 -0.34042996 -0.07545263 0.06295426 -0.03806431 -0.031394742
-0.18976128 -0.24525045 -0.28485727 -0.17028086 -0.5571621 -0.32461712 -0.33828786 0.004714631
-0.3162971 0.038750473 -0.023080267 -0.10891924 -0.42021137 -0.03883568 -0.35098422 0.21739721
0.044649426 -0.03449492 -0.32670638 0.24555519 0.112138055 -0.034954228 -0.08424054 0.15178147
0.114835046 -0.2961796 -0.18423456 -0.21696284 -0.2178297 0.110686496 -0.2587138 -0.15710314
-0.58183455 -0.2607153 0.07664397 -0.02395136 0.009076277 -0.23583609 -0.17528841 -0.302646
-0.19581862 0.009343814 -0.23625964 0.15303485 0.24077559 -0.4761011 -0.027676819 -0.2913593
0.3873801 0.11454887 -0.41095966 -0.11557635 0.18385798 -0.40471447 0.07421209 -0.2729864
-0.20416532 0.23086958 -0.10485774 0.1840817 -0.29089162 0.07931519 -0.15169169 0.09642326
-0.11399293 0.19283731 0.059893474 -0.09534902 0.045859028 -0.016361773 -0.011140788 0.07177544
0.13868104 -0.21106555 -0.30746534 0.30116355 -0.2822981 0.060266193 0.051576503 -0.058534175
0.21562795 -0.15713109 0.08336714 -0.3002378 -0.09147174 0.15543243 0.031287882 0.025446767
-0.26025847 -0.12209541 0.03174043 -0.27565956 -0.20507024 0.1214309 -0.38410005 0.25646442
0.22413394 -0.118704446 -0.22097939 0.19215508 -0.027207512 0.10149719 -0.4136342 0.15525235
0.12388472 0.24925248 0.26346347 -0.12865184 0.46165287 -0.2618933 -0.13090348 0.18380594

weight_hh f4 [150, 50]
00000000: ac39 f9bd f0ac 0d3f 08fd 33be 9528 96be
00000010: 02e0 273c 2419 f03d 625a 263d 854d c1bc
00000020: bbd6 f2be 8410 393e d275 673e 11bd a53e
00000030: c221 e7bd 5aa1 62be 1a75 8c3e 4595 4c3e
00000040: dc48 c8be edf6 e2be 7667 bcbe eb42 8fbe
00000050: cc5a 3e3d 06dc febe e73a 68be 4284 ddbe
00000060: cf1d 043f 8799 053e db17 d73e db61 003f
00000070: 070b b7be 8328 f3bd 4f32 14bd bf34 22be
00000080: 4b84 94be 4271 803c 9621 0dbf b225 26be
00000090: 051a cb3e 82ad 56bb e711 843e aac9 f5bd
000000a0: 0b4e 3abe 9d20 c83d 6858 c83d 8935 abbd
000000b0: 91d4 75bc 0244 9cbd 506c 1e3e 6a6b 073e
000000c0: 01a3 87be 2be0 c73e 8665 403e e277 4fbd
000000d0: 345d 1b3d f7cd 4cbe 3efb 7dbe 0330 ad3e
000000e0: eaec a9be dd97 e6bd a92c 453e 1db2 dfb9
000000f0: 0e89 1cbe 15f0 293d 6867 afbd 062f 7b3e
00000100: fbd2 9fbd 8ed1 aa3d f124 bc3d 5e10 d8bc
00000110: 7e05 0e3d 1089 acbe 0b93 3a3e 1cb6 36be
00000120: d1ca 533e af14 ad3d fe0a 74bd 19f5 e63d
00000130: 3c92 303e f90d 3cbe 3176 c7bc 3a0a 9a3c
00000140: 0f8b 803c d194 d5bb 0d82 383e 53ba 34be
00000150: ce0b cfbe bd4b ccbd f688 a13c c399 393e
00000160: 1bd2 063e 61e7 933c 914d 0d3e e39c 0d3e
00000170: 857f 64bd 2705 333e aec6 ac3c f13b a63d
00000180: b808 f4bd a2d1 f3bc d80d f1bd 37fb 0cbe
00000190: 5508 3d3e 194e c93d 422d 3bbe a3bc e13d
000001a0: 2927 85be 93a3 a03e 28fe b63c 1b02 4dbe
000001b0: 0059 fa3c fbe1 dd3e 6dd7 df3d f7de 5b3c
000001c0: b007 60be 5800 c33d 52e5 1fbe 2f81 7fbc
000001d0: 4127 c0bc 09f5 8fbc 65dd bc3d 08c6 073e
000001e0: 2325 3f3e 271c 3dbd 2c07 253d 5dcc 23be
000001f0: 483b 28bd 81cb 78bd 9660 e03d 4da5 0b3e
00000200: f588 febd 1afa 203e f3f7 babd 1627 ccbc
00000210: 04ba 54bc 9ff2 5dbd 82eb 79be 86f5 813d
00000220: c597 0a3d dbc4 463c 2cf0 86be 538b 59be
00000230: 7f03 d0bd ecba 613c 7f58 cb3c c26a 19bb
00000240: 9fed 4b3d dce0 25be b399 95bd 6655 c3bd
00000250: 6e5a 06be 5916 433e 1a7d b9be dc84 ae3d
00000260: d36a cfbd c7f3 293d a0e8 04bd b106 db3c
00000270: b0f8 ddbd 8ec8 b53e df2d 73bd 3df8 8e3e
00000280: a7a8 c23d 961e 8c3e d025 3f3e 4a4a 04be
00000290: 4f5d 5d3e e432 423d ff91 e9bd 8bb1 e7bd
000002a0: fe08 ae3d a7f8 a23d 5172 b8bd 0d29 abbe
000002b0: 6ce4 b5be 182b 6bbe 8dd1 bf3d d2cf 153e
000002c0: c070 4c3d 3c05 b53c 378f 863d 58c9 373d
000002d0: 1116 123d 19e7 b9be 5624 43be 62e0 2b3e
000002e0: 3bd5 e5be 54ec a6be 6c99 e83b fd40 3d3e
000002f0: e760 6b3e f3a9 9fbc 1618 9cbe b8fb 36bc
00000300: e16d 893c 9bcd 203e 7a30 08be c620 f8bd
00000310: b0c5 893d 6fae 733b 4f14 3f3e 626b a73e
00000320: 5fd1 51be e2ca 553d 83b3 dfbb 3890 8f3d
00000330: 8549 40be effd 6ebd 7945 8abd 14aa 003e
00000340: f130 9d3e c37f 2a3e 8ef6 c4bd 77bd 673e
00000350: bd81 cd3d ba28 21be abb6 edbd 4320 efbd
00000360: ce27 d03d 0200 593e ca32 f13d aa68 12be
00000370: 2a42 bb3d fe91 92be 82d3 1b3d 1617 503d
00000380: dd91 03be 83cf 893e d45a bf3d 430a 20be
00000390: e8cc 653e 6210 273e d5a1 b23d fbc4 37bd
000003a0: 99cc 443e fdd7 cbbc 79c9 0abe ce3d 62be
000003b0: 1f28 0e3e e611 983d 1bec 213e 6cc8 373c
000003c0: a3e4 b0bb 9eca 3f3e 0b43 a63d 7d06 843e
000003d0: e37c 1dbe 2256 083d 8542 aabd f2e9 78be
000003e0: 50a0 833e e180 2abc cf01 5fbe d358 553e
000003f0: b980 a33c 9e05 25bc ab55 b9bd 0445 333e
-0.12169203 0.55342007 -0.17576993 -0.29327837 0.010246279 0.11723545 0.04061354 -0.023596535
-0.4742945 0.18072706 0.22603539 0.3237081 -0.11285736 -0.22131863 0.2743309 0.19978817
-0.39118087 -0.44329014 -0.36797684 -0.27980742 0.04647331 -0.4977724 -0.2267872 -0.43264967
0.51607984 0.13046847 0.42010388 0.50149316 -0.357506 -0.11872961 -0.03618079 -0.15840434
-0.29007182 0.015679006 -0.55129373 -0.16225317 0.3966829 -0.0032757227 0.25794908 -0.12001355
-0.18193834 0.097718455 0.09782487 -0.083598204 -0.015004293 -0.07630159 0.15471005 0.13224569
-0.2649155 0.39038214 0.18788728 -0.05065144 0.037930682 -0.20000444 -0.24802873 0.33825693
-0.33188564 -0.11259434 0.19255318 -0.0004266658 -0.15286657 0.041488726 -0.08564645 0.24529657
-0.07803913 0.08340751 0.091867335 -0.026374992 0.034673207 -0.3369832 0.18220155 -0.17842907
0.20682837 0.08451211 -0.059580795 0.112772174 0.17243284 -0.18364705 -0.02434835 0.018803705
0.015691308 -0.0065179844 0.1801836 -0.17649202 -0.40438694 -0.099753834 0.019718628 0.18125062
0.13166086 0.018054666 0.1379912 0.13829379 -0.055785675 0.17482434 0.021090832 0.08116902
-0.119157255 -0.029763047 -0.117702186 -0.13767706 0.1846021 0.09829349 -0.18278983 0.11022308
-0.2600644 0.31374797 0.022337988 -0.20020334 0.030560017 0.43336472 0.10929761 0.013419858
-0.21877933 0.0952155 -0.15614823 -0.015594765 -0.023456218 -0.017572897 0.09221915 0.13259137
0.1866651 -0.046169426 0.040290043 -0.15995927 -0.04107216 -0.06074095 0.10955922 0.13637276
-0.12428466 0.15720406 -0.09129324 -0.024920981 -0.012983803 -0.05418646 -0.24406245 0.06345658
0.033836145 0.012131895 -0.26355112 -0.21244554 -0.10156917 0.013777476 0.024822472 -0.002340958
0.04978716 -0.16199058 -0.073047064 -0.09537773 -0.13120434 0.19051494 -0.36228257 0.08521435
-0.10127797 0.04149225 -0.03244841 0.02673659 -0.10838449 0.35504574 -0.059369918 0.27923766
0.09504824 0.27367085 0.18666768 -0.12918964 0.21617626 0.047411814 -0.114048 -0.113131605
0.08497809 0.07957583 -0.09006179 -0.33429757 -0.35525835 -0.22965658 0.093661405 0.14630058
0.049912214 0.022097223 0.06570285 0.04486975 0.035665575 -0.36309126 -0.1905683 0.16784814
-0.44889244 -0.3260218 0.0070983674 0.18481822 0.22986184 -0.019490218 -0.30487126 -0.011168413
0.016776027 0.15703432 -0.13299742 -0.12115626 0.06727159 0.0037182828 0.18660091 0.32699114
-0.20490025 0.052195437 -0.0068268194 0.070099294 -0.18778045 -0.05834764 -0.06751532 0.1256488
0.30701402 0.166503 -0.09617339 0.22630869 0.10034511 -0.15738192 -0.11607107 -0.11676075
0.10163842 0.21191409 0.11777265 -0.14297739 0.09143479 -0.28627008 0.038043506 0.050803266
-0.12848611 0.2691613 0.09343496 -0.15628915 0.22441447 0.16314843 0.08722273 -0.04486559
0.19218673 -0.024883265 -0.13553418 -0.22093889 0.13882492 0.07425289 0.15812723 0.011217218
-0.0053983494 0.18729636 0.08118256 0.257862 -0.15379672 0.033285268 -0.08313469 -0.24307993
0.25708246 -0.010406704 -0.21778034 0.20834665 0.01995884 -0.01007214 -0.09049543 0.17506796

bias_ih f4 [150]
00000000: ef1d 733e b513 aabd 253a ab3d 2e17 2c3e
00000010: acb0 9e3c f80b ae3d d641 c0bd 04f0 083d
00000020: 87c2 3e3d 3731 1f3d c71f efbd 161e d43e
00000030: 5266 6ebd e8d4 ebbc 279a 29bd 0094 173e
00000040: b5c2 d13d c751 f33d db66 c83c a1b9 16bd
00000050: 7df8 043e aafc 8f38 9544 9a3e f97d 0e3e
00000060: a177 963e 197b 08bc 400e 513e 4e13 35bd
00000070: 1ed4 ddbc 3c04 1d3e c031 d93d ce17 8cbd
00000080: ba52 283e 5477 6dbd 92b5 923e c305 f53c
00000090: b1c5 eb3d 8488 513e e62e 9c3d 98e1 f6bc
000000a0: 43df 6d3d 94d9 f4bd ac8c 24be 1d59 c63d
000000b0: dc88 a0bd 4980 d23d 4201 cfbc daa3 db3c
000000c0: 8621 003f 0b84 ef3d 13ef a1be 28a6 c1bd
000000d0: f78b 08be 3b83 3cbe 60ba 38be c781 69be
000000e0: af92 3b3c 1f18 21be 4fe4 f0bd 229e 28be
000000f0: 125d 87be 8f5b 8abe 80f4 51be d2fc ddbd
00000100: 1764 9c3d f573 aabd b099 13be 7506 55be
00000110: 7482 09bd cd8d 77be 7c20 cebd a46d b9be
00000120: 6b1f 59be 7ce3 5dbe 82d4 72be d059 a4be
00000130: d168 b6be 239a b3be 0bef b9be b323 113d
00000140: 7b7d 7dbd edc4 51be dce2 e1bd d0c8 e1bd
00000150: 4278 7ebe 9a39 f5bd 82b9 62be 38f4 7abe
00000160: 1675 c6be 6246 41be 4180 89be ba5b 87be
00000170: c554 80bd e9e2 80bd 84ed 60bd e2dd ab3d
00000180: de2f da3d b866 8abe 1aad c2be 8d56 c4be
00000190: 262f efbd cba4 b73d 8810 6bbe abaf 6fbe
000001a0: e267 4ebd 7879 a73d f1fc 823d 5d80 903d
000001b0: de73 c5bd c222 343e b845 f33d 2eb2 ef3d
000001c0: 0ac6 58bc a23d 99bb 508b 803d 5746 413e
000001d0: d2a3 53be 3a05 82be 74cb 083c 611c 76bc
000001e0: fed5 2a3e b319 86bd 08ad 85be cf44 3dbe
000001f0: 114f 8a3e f9b4 433e aec8 e53d dff7 363e
00000200: 99a3 303d ace2 8ebd 0443 b2bd 73f2 30be
00000210: 6612 c6bd 2fe7 1f3e 19e0 57be 2f30 e53a
00000220: a0a8 0a3e 2efe 203d 084b 8bbe 855d 17be
00000230: 61e6 a9bd 9a20 c03c 426d 1b3e 322f a13d
00000240: 956c 3d3e 4830 0dbe 2528 1c3c 31d2 8a3b
00000250: 913a 6abe fc1b 323e
0.23741888 -0.0830454 0.083606996 0.16805717 0.019371353 0.084983766 -0.09387557 0.03343202
0.046572234 0.038865294 -0.11675983 0.41429204 -0.05820305 -0.028788045 -0.041406777 0.14802551
0.102422155 0.11880832 0.024463108 -0.036798123 0.12985416 6.865834e-05 0.3013045 0.13915242
0.29388145 -0.00833013 0.20415592 -0.044207864 -0.027078684 0.15333647 0.10605192 -0.06840478
0.16437808 -0.05797513 0.28654152 0.029909974 0.11512316 0.20462233 0.07626133 -0.030136868
0.058074247 -0.11955562 -0.16069287 0.09684966 -0.07838604 0.10278375 -0.025269154 0.026811529
0.5005115 0.11695107 -0.31627712 -0.0945552 -0.13334642 -0.18409435 -0.18039846 -0.22803412
0.011448546 -0.15731858 -0.117622964 -0.16466573 -0.26438195 -0.2702298 -0.20503426 -0.10839237
0.07636278 -0.08322898 -0.14414096 -0.20803244 -0.033571675 -0.24175186 -0.1006479 -0.36216462
-0.21203391 -0.2166881 -0.23713878 -0.32099771 -0.35626844 -0.35078534 -0.36315188 0.035434436
-0.061887246 -0.20485277 -0.11029598 -0.1102463 -0.24850562 -0.11973877 -0.22141078 -0.24507225
-0.38761204 -0.18874505 -0.26855662 -0.2643717 -0.062661685 -0.0629328 -0.054914013 0.0839193
0.10653661 -0.27031493 -0.3802269 -0.38347283 -0.11678915 0.08966979 -0.22955525 -0.23406856
-0.05039204 0.08177465 0.06395901 0.07055733 -0.096412405 0.17591384 0.11878532 0.11703907
-0.01323081 -0.0046765367 0.06276572 0.18874489 -0.20667961 -0.25394613 0.008349288 -0.0150214145
0.16683194 -0.065478705 -0.26108575 -0.1848328 0.27013448 0.19112004 0.11219917 0.17867993
0.04312477 -0.06976828 -0.087041885 -0.17279987 -0.09671478 0.15615533 -0.2108158 0.0017485673
0.13540888 0.039304905 -0.27205682 -0.14781769 -0.082958944 0.023453046 0.15178397 0.0787033
0.18498452 -0.13787949 0.009531056 0.0042364825 -0.22873904 0.17393488

bias_hh f4 [150]
00000000: 958d c33e 4238 e53c bbd6 653e ece3 2e3e
00000010: a24c 8c3d a431 943e b8ea 223e 159d 6f3e
00000020: 0f4f 1dbd f064 c33d cfdc 343b e602 833e
00000030: ff94 023e e404 083e 9a27 3ebe ef86 96bd
00000040: 35dd a53e c050 e0bd 70c9 6c3e 48a8 773d
00000050: 9c9f df3c f019 123e e301 cf3d b64e 403d
00000060: 8b28 d73e 2a57 7ebd 94e0 593e 5496 c5bd
00000070: ad63 84bd 0f2a a23d bcb1 9a3d 47ea d8bb
00000080: df36 343e bb41 4f3b bc4d 053e 1297 833d
00000090: 4d58 c43c 4665 133e 0a78 893e 2362 0cbd
000000a0: 7c27 cf3d 06cf 85be ed98 ccbd 7671 403e
000000b0: 6cef 203d 9cb0 c53d d63e 3d3e a06f 30be
000000c0: 27ca c63e 873b 533c 810a 9ebe bdd4 2fbe
000000d0: 5877 b9be 07f3 94be 0f1d 9a3d 512f 6abd
000000e0: 1f56 423e 6f90 edbd f583 18be ac0a 1abe
000000f0: f25c 88be fdb9 aabe b7a1 72be f066 e6bd
00000100: 4041 7abd 0330 773d f101 46bd 910d 71bd
00000110: ceb9 38be bcb6 88be c642 2dbe ae97 32be
00000120: 0af3 7dbe 1b67 ebbe 91c9 94be 97d9 4abe
00000130: 039a 8fbe c964 39be 2d20 90be 1fef bcbb
00000140: 2d7a 29be 1919 5bbe aed1 f6bd 4e3b f4bd
00000150: 2ded 16be 00e6 72be 08ed 16be 5431 c3bd
00000160: 4cd2 debe 2253 4b3d 427d 1abe 1071 34be
00000170: 2468 243e fa3e 5abe 780a 8abe fb79 3fbd
00000180: eb20 22bd f352 65be 65e2 a4be 42b4 b9be
00000190: 9dee 22be 9a7b 823e 66f8 27be baae 91bd
000001a0: 69cb c8bd fd32 15be e517 f13d 6973 333e
000001b0: 0131 04bd 4fc8 953d aadf 833d b626 d63d
000001c0: db48 dfbd e2e2 de3c 1471 a33d 3a31 213e
000001d0: 7bcd b9bc c479 2fbe eea0 e6bd 6ac6 03be
000001e0: 766c b23d a36b a3bd 9ef2 52be 32d6 08be
000001f0: e1de 793e 4305 293e 6be3 4c3e fc25 08bd
00000200: f4fc 3dbd 73f2 32bc 8f2b 693e d223 4abe
00000210: 8010 67bd 005d 9ebd 519f 87be 6372 08be
00000220: 8012 d33d ade8 e83d 54c3 703e 341a fcbd
00000230: 9683 9ebd 8a37 903d a3ce a93d 1423 433d
00000240: 827a 95bb bf30 2c3d 99d0 bfbd 47e2 a5bd
00000250: 49a5 81be abfa 693e
0.38193956 0.027980927 0.22445194 0.17079133 0.06850554 0.28944123 0.1590985 0.23399766
-0.038405474 0.09540737 0.0027597432 0.2558815 0.1275215 0.13283116 -0.18569794 -0.07349955
0.3239533 -0.10952902 0.23123717 0.06046322 0.027297787 0.14267707 0.10107782 0.046950065
0.4202312 -0.062094845 0.21277076 -0.096478134 -0.06464324 0.07918178 0.075534314 -0.006619725
0.17599057 0.0031624872 0.13017935 0.06425299 0.023967886 0.14394102 0.26849395 -0.034273278
0.10114953 -0.2613451 -0.09990106 0.18793282 0.03929083 0.09652826 0.18481001 -0.17230082
0.38826105 0.01289261 -0.3086739 -0.17170997 -0.36223865 -0.29091665 0.07525074 -0.05717403
0.18978165 -0.11599814 -0.14894088 -0.15043133 -0.26633412 -0.33345023 -0.23694502 -0.112501025
-0.061097383 0.060348522 -0.048341695 -0.05885083 -0.18039629 -0.26701915 -0.16920003 -0.17440674
-0.24799743 -0.459771 -0.29060033 -0.19809566 -0.2804719 -0.18104853 -0.28149548 -0.00576581
-0.16550513 -0.21396293 -0.12051712 -0.11925374 -0.14738913 -0.2372055 -0.14738858 -0.09530893
-0.4351982 0.04963983 -0.15086845 -0.17621255 0.16055351 -0.21313086 -0.26961112 -0.04674719
-0.039582174 -0.22394924 -0.32203975 -0.36270338 -0.15911336 0.25484926 -0.1640335 -0.071134046
-0.098044224 -0.14570232 0.11772136 0.17524494 -0.032273296 0.073135965 0.06439145 0.10456602
-0.10902568 0.027207796 0.07980552 0.15741435 -0.022680989 -0.17136294 -0.11261164 -0.12868658
0.087120935 -0.079795144 -0.20600364 -0.13362959 0.24401428 0.16505913 0.20008628 -0.03323935
-0.046383813 -0.010922062 0.22770523 -0.19740227 -0.05641222 -0.07732582 -0.26488736 -0.13324885
0.10306263 0.113725044 0.23512012 -0.12309685 -0.07739942 0.07041843 0.08291366 0.047640875
-0.004561723 0.042038675 -0.09365959 -0.080997996 -0.25321415 0.22849528

weight f4 [2, 50]
00000000: 6249 d0be 988f d03e ce8e b8be 309f c3be
00000010: ec2d 853e 248b dabe b858 363e f243 bb3e
00000020: 45b2 1c3e 0dcc 62be 13d6 8e3d 6f52 a93e
00000030: 5d08 a03e 2c18 babe b17c a93e 41df 0bbe
00000040: eaca b4be 458a 9ebe f1a7 7abe 5748 373d
00000050: 7bd5 a53c 6549 96be 7494 b2be 8138 c1be
00000060: 5c15 f83e f5c7 b03e 1251 f53e 18db bb3e
00000070: d359 573e e13f bf3d 21ec 2c3e 0e81 63be
00000080: 7ad3 b2be 89b1 23be 21d3 0bbe 1040 31be
00000090: 5d46 aa3e a363 af3e 866f b03e 119b 683e
000000a0: 384d 8b3d 3ee8 8b3e e9f8 c5bd e18c 573d
000000b0: d726 cfbe 51a4 3cbe 23bd 233e f486 7e3d
000000c0: fc21 3abf d5b2 9c3e c686 1a3f ffbd 24be
000000d0: f1e2 023f 54b0 e83e ee8f 83be 8c35 1b3f
000000e0: f476 56be 3a76 71be b9ea c0bd 3c4d 9b3e
000000f0: 8013 833d 92c5 f2be 4f52 afbe 26fc da3e
00000100: 9967 4cbe 728d 3d3e 48f3 a83e d7bd 5b3e
00000110: 7ea5 863d 677b 6e3d 2d99 6bbd 645f 723e
00000120: 9081 b23e 6cb4 a63e c754 f3be c8b0 00bf
00000130: df7d 07bf ba7c 87be 3142 47bc 735b 183e
00000140: d3c1 41be 1a47 983e 7673 a73e 8c57 3f3d
00000150: cd62 093d 344b 393e 2fb0 99be 6dec 48be
00000160: 1e9c d6be 4127 12be a2f0 4fbd 1472 c5bd
00000170: d543 9bbc c446 a03c 73a6 8d3e 2eb0 09bc
00000180: 5108 5cbe ed18 003e 02b1 5c3f 9c6f 4abe
-0.40680987 0.40734553 -0.3604645 -0.38207388 0.26011598 -0.4268428 0.17807281 0.36575276
0.1530238 -0.22148152 0.06974425 0.33070704 0.3125638 -0.36346567 0.33102944 -0.13659383
-0.3531106 -0.30964866 -0.24478127 0.044746723 0.020243397 -0.2935287 -0.34878886 -0.37738422
0.48453796 0.34527555 0.47913414 0.36690593 0.21030359 0.09338356 0.16886951 -0.22217199
-0.3492697 -0.15985693 -0.13654758 -0.17309594 0.33256808 0.34255704 0.34460086 0.22715403
0.06801838 0.27325624 -0.096666165 0.052624587 -0.4045932 -0.18422057 0.15990119 0.06214042
-0.72708106 0.30605188 0.603619 -0.16088103 0.51127535 0.45447028 -0.25695747 0.6062858
-0.20943815 -0.23580256 -0.0941977 0.30332363 0.06400204 -0.4741636 -0.34242484 0.427705
-0.19961394 0.18510988 0.3299811 0.21459137 0.06574534 0.058223154 -0.057519127 0.23669201
0.34864473 0.32559526 -0.47525617 -0.50269747 -0.5292644 -0.26462346 -0.012161777 0.14878635
-0.18921594 0.29741746 0.32705277 0.04671435 0.03354149 0.18095094 -0.3001723 -0.1962144
-0.41915983 -0.14272787 -0.050766595 -0.09640899 -0.018953243 0.019564994 0.27666053 -0.008403821
-0.21487547 0.12509508 0.8620759 -0.19769138

bias f4 [2]
00000000: e31a 3f3e 080a 36bd
0.186626 -0.04444316

weight f4 [2, 50]
00000000: 2ec0 013e 9154 6f3e 32b5 c43d 679a 233e
00000010: 3539 b9bc a263 b83d b376 b13d ba68 9ebc
00000020: acf6 e83d 38d1 543e 4562 373c c553 09be
00000030: bff3 dfbd f442 f2be 9fec 9dbd 93d7 7cbe
00000040: 1f20 2f3d f5e1 e5bb 3333 3e3e d775 ea3e
00000050: 28ec 933d 9f42 9b3d ee44 123e 2e4d 9c3e
00000060: 7603 e6bd de2f edbd dd0f 48be 461a b03b
00000070: 516f 0ebe 2f13 c93d 519c 733e b287 a33d
00000080: 3fb9 333e 9e5d 783d bc93 cebd 1fd1 7bbd
00000090: 477a 2abe 3b9d fc3c 60b6 84be b6e6 cebb
000000a0: 89e6 8ebe bb3f e9be ad14 35bd e7f7 693d
000000b0: eb19 cfbd d924 3f3e fc08 0d3e 8205 823e
000000c0: db0b 3d3e c6bd 153e 0762 d3be b2d1 8e3d
000000d0: 9bb4 65bd 63f7 c9be 8470 b43c 8e40 2bbe
000000e0: 51d7 b7bc f545 e33e 5b11 d9bd 6adc 25be
000000f0: a2b9 023d aba4 c23e 2c19 f53e 6234 a6bd
00000100: 3d01 ca3d b7fc 673d 62ac 87be f635 22be
00000110: fa85 85be a10f 48be bc76 10bd 563a a3be
00000120: 9cc7 bcbe bd83 65be 9026 8a3d 8c57 7b3d
00000130: 0b59 813e ba99 823b 3d8b 6ebc e47b 74be
00000140: 6196 09be abd5 3cbe 5bf4 85be 3253 a53d
00000150: a103 3fbe 27fd 35be 8728 5f3e 36a2 84bc
00000160: bebe 493d a6da f3bc 5023 723e 56bd a7bc
00000170: a98f db3d 61ce 18be 081d 893e e0bc 933d
00000180: 72c4 553e caf4 2e3e f88e 803b 09e4 1d3e
0.12670967 0.23372103 0.09604873 0.15976869 -0.022610286 0.090033785 0.08665218 -0.019337047
0.11375174 0.20782936 0.011192863 -0.13410862 -0.10935163 -0.47316706 -0.077111475 -0.2469161
0.042755242 -0.0070154616 0.18574218 0.4579303 0.072227776 0.07581066 0.14284107 0.30527633
-0.11231129 -0.115813956 -0.19537301 0.005374226 -0.13909651 0.09818112 0.23790099 0.07984866
0.17551135 0.060636155 -0.10086772 -0.06147873 -0.16648208 0.030836692 -0.2592039 -0.006314124
-0.2791026 -0.45556435 -0.04420917 0.057121184 -0.10112365 0.186664 0.13772959 0.25394827
0.18461554 0.14623174 -0.41285726 0.0697359 -0.056080442 -0.39446554 0.022026308 -0.16723844
-0.022441538 0.4438931 -0.105990134 -0.16197363 0.031915314 0.38016257 0.47870767 -0.0811546
0.098635174 0.056637492 -0.26498705 -0.15840897 -0.26078779 -0.19537212 -0.035269484 -0.31880444
-0.3687104 -0.22413535 0.067456365 0.061362788 0.25263247 0.003985611 -0.014559564 -0.23875386
-0.13436271 -0.18440883 -0.2616299 0.08072509 -0.18653728 -0.17772351 0.21792804 -0.01619063
0.04925417 -0.029767346 0.23646283 -0.020476025 0.107207604 -0.14922477 0.26779962 0.072137594
0.20875719 0.17085567 0.003923293 0.1541902

bias f4 [2]
00000000: 4773 323d 9c8f ad3c
0.04356697 0.021186642

amplitudes f4 [2000, 2]
00000000: 2c01 8f3e de43 05c1 a0dc e83d 8467 a5c0
00000010: a0dc e83d 8467 a5c0 2c01 8f3e de43 05c1
00000020: 2c01 8f3e de43 05c1 2c01 8f3e de43 05c1
00000030: d6ca 6336 ca5b a740 a0dc e83d 8467 a5c0
00000040: 2c01 8f3e de43 05c1 d17a 122f 86b3 0041
00000050: a0dc e83d 8467 a5c0 2c01 8f3e de43 05c1
00000060: 2c01 8f3e de43 05c1 a0dc e83d 8467 a5c0
00000070: 2c01 8f3e de43 05c1 2c01 8f3e de43 05c1
00000080: a0dc e83d 8467 a5c0 a0dc e83d 8467 a5c0
00000090: a0dc e83d 8467 a5c0 a0dc e83d 8467 a5c0
000000a0: 2c01 8f3e de43 05c1 a0dc e83d 8467 a5c0
000000b0: 2c01 8f3e de43 05c1 2c01 8f3e de43 05c1
000000c0: a0dc e83d 8467 a5c0 a0dc e83d 8467 a5c0
000000d0: a0dc e83d 8467 a5c0 d6ca 6336 ca5b a740
000000e0: 2c01 8f3e de43 05c1 2c01 8f3e de43 05c1
000000f0: 2c01 8f3e de43 05c1 d6ca 6336 ca5b a740
00000100: a0dc e83d 8467 a5c0 d688 293e 1d87 95c0
00000110: a0dc e83d 8467 a5c0 a0dc e83d 8467 a5c0
00000120: 2c01 8f3e de43 05c1 d6ca 6336 ca5b a740
00000130: a0dc e83d 8467 a5c0 d6ca 6336 ca5b a740
00000140: a0dc e83d 8467 a5c0 d688 293e 1d87 95c0
00000150: d6ca 6336 ca5b a740 d6ca 6336 ca5b a740
00000160: d688 293e 1d87 95c0 a0dc e83d 8467 a5c0
00000170: 2c01 8f3e de43 05c1 a0dc e83d 8467 a5c0
00000180: d17a 122f 86b3 0041 2c01 8f3e de43 05c1
00000190: a0dc e83d 8467 a5c0 d6ca 6336 ca5b a740
000001a0: a0dc e83d 8467 a5c0 a0dc e83d 8467 a5c0
000001b0: a0dc e83d 8467 a5c0 a0dc e83d 8467 a5c0
000001c0: d6ca 6336 ca5b a740 d6ca 6336 ca5b a740
000001d0: a0dc e83d 8467 a5c0 2c01 8f3e de43 05c1
000001e0: a0dc e83d 8467 a5c0 d6ca 6336 ca5b a740
000001f0: a0dc e83d 8467 a5c0 d688 293e 1d87 95c0
00000200: a0dc e83d 8467 a5c0 2c01 8f3e de43 05c1
00000210: a0dc e83d 8467 a5c0 a0dc e83d 8467 a5c0
00000220: a0dc e83d 8467 a5c0 d6ca 6336 ca5b a740
00000230: a0dc e83d 8467 a5c0 d17a 122f 86b3 0041
00000240: a0dc e83d 8467 a5c0 d6ca 6336 ca5b a740
00000250: a0dc e83d 8467 a5c0 a0dc e83d 8467 a5c0
00000260: d17a 122f 86b3 0041 a0dc e83d 8467 a5c0
00000270: 2c01 8f3e de43 05c1 d6ca 6336 ca5b a740
00000280: a0dc e83d 8467 a5c0 a0dc e83d 8467 a5c0
00000290: a0dc e83d 8467 a5c0 a0dc e83d 8467 a5c0
000002a0: 2c01 8f3e de43 05c1 2c01 8f3e de43 05c1
000002b0: 2c01 8f3e de43 05c1 2c01 8f3e de43 05c1
000002c0: a0dc e83d 8467 a5c0 01f2 5d36 c23f 7f40
000002d0: a0dc e83d 8467 a5c0 a0dc e83d 8467 a5c0
000002e0: d6ca 6336 ca5b a740 a0dc e83d 8467 a5c0
000002f0: 2c01 8f3e de43 05c1 a0dc e83d 8467 a5c0
00000300: a0dc e83d 8467 a5c0 d6ca 6336 ca5b a740
00000310: 2c01 8f3e de43 05c1 a0dc e83d 8467 a5c0
00000320: a0dc e83d 8467 a5c0 d6ca 6336 ca5b a740
00000330: a0dc e83d 8467 a5c0 a0dc e83d 8467 a5c0
00000340: 2c01 8f3e de43 05c1 a0dc e83d 8467 a5c0
00000350: d688 293e 1d87 95c0 d17a 122f 86b3 0041
00000360: a0dc e83d 8467 a5c0 a0dc e83d 8467 a5c0
00000370: d6ca 6336 ca5b a740 a0dc e83d 8467 a5c0
00000380: d6ca 6336 ca5b a740 d6ca 6336 ca5b a740
00000390: d6ca 6336 ca5b a740 a0dc e83d 8467 a5c0
000003a0: 2c01 8f3e de43 05c1 a0dc e83d 8467 a5c0
000003b0: 2c01 8f3e de43 05c1 a0dc e83d 8467 a5c0
000003c0: a0dc e83d 8467 a5c0 d6ca 6336 ca5b a740
000003d0: 2c01 8f3e de43 05c1 2c01 8f3e de43 05c1
000003e0: d6ca 6336 ca5b a740 a0dc e83d 8467 a5c0
000003f0: 2c01 8f3e de43 05c1 d6ca 6336 ca5b a740
0.27930582 -8.329069 0.11370206 -5.168886 0.11370206 -5.168886 0.27930582 -8.329069
0.27930582 -8.329069 0.27930582 -8.329069 3.3943702e-06 5.2299547 0.11370206 -5.168886
0.27930582 -8.329069 1.3322256e-10 8.043829 0.11370206 -5.168886 0.27930582 -8.329069
0.27930582 -8.329069 0.11370206 -5.168886 0.27930582 -8.329069 0.27930582 -8.329069
0.11370206 -5.168886 0.11370206 -5.168886 0.11370206 -5.168886 0.11370206 -5.168886
0.27930582 -8.329069 0.11370206 -5.168886 0.27930582 -8.329069 0.27930582 -8.329069
0.11370206 -5.168886 0.11370206 -5.168886 0.11370206 -5.168886 3.3943702e-06 5.2299547
0.27930582 -8.329069 0.27930582 -8.329069 0.27930582 -8.329069 3.3943702e-06 5.2299547
0.11370206 -5.168886 0.16556105 -4.6727433 0.11370206 -5.168886 0.11370206 -5.168886
0.27930582 -8.329069 3.3943702e-06 5.2299547 0.11370206 -5.168886 3.3943702e-06 5.2299547
0.11370206 -5.168886 0.16556105 -4.6727433 3.3943702e-06 5.2299547 3.3943702e-06 5.2299547
0.16556105 -4.6727433 0.11370206 -5.168886 0.27930582 -8.329069 0.11370206 -5.168886
1.3322256e-10 8.043829 0.27930582 -8.329069 0.11370206 -5.168886 3.3943702e-06 5.2299547
0.11370206 -5.168886 0.11370206 -5.168886 0.11370206 -5.168886 0.11370206 -5.168886
3.3943702e-06 5.2299547 3.3943702e-06 5.2299547 0.11370206 -5.168886 0.27930582 -8.329069
0.11370206 -5.168886 3.3943702e-06 5.2299547 0.11370206 -5.168886 0.16556105 -4.6727433
0.11370206 -5.168886 0.27930582 -8.329069 0.11370206 -5.168886 0.11370206 -5.168886
0.11370206 -5.168886 3.3943702e-06 5.2299547 0.11370206 -5.168886 1.3322256e-10 8.043829
0.11370206 -5.168886 3.3943702e-06 5.2299547 0.11370206 -5.168886 0.11370206 -5.168886
1.3322256e-10 8.043829 0.11370206 -5.168886 0.27930582 -8.329069 3.3943702e-06 5.2299547
0.11370206 -5.168886 0.11370206 -5.168886 0.11370206 -5.168886 0.11370206 -5.168886
0.27930582 -8.329069 0.27930582 -8.329069 0.27930582 -8.329069 0.27930582 -8.329069
0.11370206 -5.168886 3.307243e-06 3.9882665 0.11370206 -5.168886 0.11370206 -5.168886
3.3943702e-06 5.2299547 0.11370206 -5.168886 0.27930582 -8.329069 0.11370206 -5.168886
0.11370206 -5.168886 3.3943702e-06 5.2299547 0.27930582 -8.329069 0.11370206 -5.168886
0.11370206 -5.168886 3.3943702e-06 5.2299547 0.11370206 -5.168886 0.11370206 -5.168886
0.27930582 -8.329069 0.11370206 -5.168886 0.16556105 -4.6727433 1.3322256e-10 8.043829
0.11370206 -5.168886 0.11370206 -5.168886 3.3943702e-06 5.2299547 0.11370206 -5.168886
3.3943702e-06 5.2299547 3.3943702e-06 5.2299547 3.3943702e-06 5.2299547 0.11370206 -5.168886
0.27930582 -8.329069 0.11370206 -5.168886 0.27930582 -8.329069 0.11370206 -5.168886
0.11370206 -5.168886 3.3943702e-06 5.2299547 0.27930582 -8.329069 0.27930582 -8.329069
3.3943702e-06 5.2299547 0.11370206 -5.168886 0.27930582 -8.329069 3.3943702e-06 5.2299547
