data/RNN_runs/sweep_H2/rnn_sto3g_H2_0-7348_eq1_nU100_nL2_lr00025_lrsO_ns10000.pt (torch_old, 788734 bytes, 13 tensors)

weight_ih f4 [300, 2]
0	0x3e0d1ff3	0.13781719
1	0xbd3bab6f	-0.04581779
2	0xbe904772	-0.28179508
3	0x3e70406b	0.23462074
4	0x3d466b56	0.048442207
5	0x3d9646d3	0.073377274
6	0x3d45e227	0.04831138
7	0xbe06fef7	-0.13183199
8	0xbe089bc6	-0.13340673
9	0x3e3b254e	0.1827595
10	0xbc0d9dd9	-0.008643591
11	0x3e0a03df	0.13478039
12	0xbea14958	-0.3150127
13	0x3e2975da	0.16548863
14	0xbe0566ee	-0.13027546
15	0x3d70db2e	0.058802776
16	0x3d0d1c48	0.0344508
17	0x3d4539b6	0.04815074
18	0xbe883e7c	-0.26610172
19	0x3e960712	0.2930227
20	0x3e5e63b6	0.21717724
21	0x3c16b473	0.009198296
22	0x3e23d157	0.15997826
23	0x3d9517bd	0.07279918
24	0xbe87eaa9	-0.2654622
25	0x3e6df743	0.23238854
26	0x3d8d4853	0.068985604
27	0x3d9ca544	0.076487094
28	0x3e7e856a	0.24855581
29	0xbe921e0c	-0.2853855
30	0x3e4c2335	0.19935305
31	0x3c5c5821	0.013448746
32	0x3e3b8e42	0.18315986
33	0x3d045d1f	0.03231537
34	0x3e670ebf	0.22564219
35	0xbe17d3ee	-0.14826939
36	0xbeac1f65	-0.33617702
37	0x3e639387	0.22224246
38	0x3d9623ea	0.07331069
39	0xbca2eb63	-0.019887632
40	0xbe2938d8	-0.1652559
41	0x3df9dedc	0.1220071
42	0x3e064eb9	0.13115968
43	0x3dbe54b9	0.09293503
44	0x3e20f06c	0.15716714
45	0xbe20ab7f	-0.1569042
46	0x3df2e91a	0.11860867
47	0xbb3e0276	-0.0028993166
48	0x3e77da3c	0.24204344
49	0x3b70d475	0.0036747728
50	0xbe0c46e8	-0.13698924
51	0x3e620146	0.22070798
52	0x3e0a81fe	0.1352615
53	0xbd850e5e	-0.06496881
54	0xbe9d5ebd	-0.30736342
55	0x3e755e98	0.23961866
56	0x3d18f3e1	0.037341956
57	0x3d1b7a76	0.037958585
58	0x3e1c6fe1	0.15277053
59	0xbdd65052	-0.10464539
60	0x3e2d573a	0.16927806
61	0xbb9adb7a	-0.0047258707
62	0x3cfaacc8	0.030599967
63	0xbdc7f873	-0.09764185
64	0x3dc59f7f	0.09649562
65	0xbc3773a3	-0.011197004
66	0xbe97073a	-0.294977
67	0x3e29fc54	0.16600162
68	0xbec0b8ce	-0.37640995
69	0x3eb57512	0.3544088
70	0xbc4904fe	-0.012269257
71	0x3e6dd711	0.23226573
72	0xbea58da0	-0.32334614
73	0x3da49110	0.08035481
74	0xbd2f4391	-0.042789046
75	0x3d9dbfc9	0.07702596
76	0xbc83e3fb	-0.01609992
77	0x3d9c31ea	0.07626708
78	0x3da39672	0.079876795
79	0x3d604338	0.054751605
80	0x3e30bf9d	0.17260595
81	0xbc5cb4aa	-0.013470808
82	0x3e244f38	0.16045845
83	0xbbf03ccd	-0.007331467
84	0x3dba4e40	0.09096956
85	0xbd95bfc2	-0.073119655
86	0x3daa4143	0.08313229
87	0xbd8e0fc9	-0.069366045
88	0x3e44c833	0.19216995
89	0x3ce7b906	0.028286468
90	0xbeb58d2b	-0.35459265
91	0x3e92a401	0.2864075
92	0x3e27dfa6	0.16393909
93	0x3d927e95	0.0715305
94	0xbec6fb33	-0.38863525
95	0x3ed3e5ff	0.4138641
96	0xbd7a6ace	-0.061137013
97	0x3e826f9e	0.25475782
98	0x3e740131	0.2382858
99	0xbd1b3d74	-0.037900403
100	0x3d615313	0.055010866
101	0x3d674154	0.056458786
102	0xbe6a5318	-0.2288326
103	0x3e42fdaf	0.19042085
104	0xbe008c2f	-0.12553476
105	0x3dfea3fd	0.12433622
106	0x3e23543f	0.15950106
107	0x3dadd466	0.084877774
108	0xbde1b5c4	-0.11020997
109	0x3e50e917	0.20401417
110	0x3e5966f3	0.21230678
111	0xbd836fc3	-0.06417801
112	0x3e3eeb79	0.18644513
113	0xbd842fac	-0.06454405
114	0xbe2f0022	-0.17089894
115	0x3e376f37	0.17913519
116	0xbe9e78bc	-0.30951488
117	0x3e659169	0.22418751
118	0x3e3cbeda	0.18432179
119	0x3cee8071	0.02911398
120	0xbea27eb0	-0.3173728
121	0x3e7215b3	0.2364109
122	0x3e6854cc	0.22688597
123	0xbe2c6ce7	-0.16838418
124	0x3e6e45b3	0.23268776
125	0xbdbe2603	-0.09284594
126	0x3e56e437	0.20985495
127	0xbd94bf0c	-0.07263002
128	0x3e1ada2c	0.15122288
129	0x3d3528e6	0.044228457
130	0xbe7ebd05	-0.24876793
131	0x3e8852b8	0.2662561
132	0x3e052877	0.13003717
133	0xbddb7653	-0.10715928
134	0x3d035d3b	0.032071333
135	0xbda44f73	-0.08022966
136	0x3e12ab3d	0.14323135
137	0x3d015d45	0.03158309
138	0xbe506a94	-0.20353156
139	0x3e4914a1	0.19636776
140	0x3df050f1	0.11734188
141	0xbcef5926	-0.029217314
142	0x3e1645ab	0.14675014
143	0x3d9cb407	0.07651525
144	0xbe3ee0d3	-0.18640451
145	0x3e42fc96	0.19041666
146	0xbe8f485e	-0.279849
147	0x3e8bd13a	0.27308065
148	0xbe4015db	-0.18758337
149	0x3dab32c9	0.08359296
150	0xbd81b5cb	-0.063335024
151	0x3d8d4939	0.06898732
152	0x3e140e36	0.14458546
153	0x3d017127	0.03160205
154	0x3e3e9ca9	0.18614449
155	0xbd8369fb	-0.064166985
156	0xbef2c7bc	-0.4741801
157	0x3e9d0c1a	0.30673295
158	0x3d6e2e14	0.058149412
159	0x3cf06a3f	0.029347537
160	0x3e216698	0.15761793
161	0x3db8d7f1	0.090255626
162	0xbec43d0c	-0.38327825
163	0x3e8f9956	0.28046674
164	0xbe45ea67	-0.19327699
165	0x3ea5b15e	0.32361883
166	0xbe800315	-0.2500235
167	0x3eb54ad9	0.35408667
168	0xbdbc1a00	-0.091846466
169	0x3e80aeb2	0.25133282
170	0x3e1d7d7f	0.15379904
171	0xbe3d0147	-0.18457519
172	0xbe7c54ac	-0.24641675
173	0x3e6aad5b	0.22917692
174	0x3dac7ca6	0.08422212
175	0xbdad3cd1	-0.084588654
176	0x3b99ffa8	0.004699666
177	0x3c8d9e16	0.017287295
178	0x3dc97019	0.09835834
179	0x3e0d8361	0.13819648
180	0x3e1c9209	0.15290083
181	0xbd810de9	-0.06301481
182	0xbe54a902	-0.20767596
183	0x3e2bbac4	0.16770464
184	0x3d4b2a86	0.0496011
185	0xbd67918b	-0.056535285
186	0x3d5528cf	0.05204087
187	0x3d8d5e3e	0.06902741
188	0x3e5ee804	0.21768194
189	0xbdfbd689	-0.12296779
190	0xbdd1d2eb	-0.102453075
191	0xbd73ab5c	-0.059489593
192	0x3e13014e	0.14355966
193	0x3ccae82d	0.024768913
194	0xbe868a59	-0.26277426
195	0x3e05f1b6	0.13080487
196	0x3e3a87dc	0.18215889
197	0xbd945fb3	-0.07244816
198	0xbdcc0941	-0.099627025
199	0x3e615f45	0.22008999
200	0xbe3a25a2	-0.18178418
201	0x3d4a7302	0.049426086
202	0xbd5586cc	-0.052130505
203	0xbdc3dccf	-0.095636
204	0xbe4ba2d9	-0.1988634
205	0xbd2c1656	-0.04201349
206	0xbdfca55f	-0.123362295
207	0xbb14c5f4	-0.0022700997
208	0x3d5011f2	0.050798364
209	0xbd49e4c3	-0.04929043
210	0xbd66dd30	-0.056363285
211	0xbdd2da61	-0.10295559
212	0x3e8cdc1f	0.2751169
213	0xbe36460d	-0.1780016
214	0xbd9824f9	-0.07428927
215	0xbd7224f9	-0.05911729
216	0xbd9f2b50	-0.07771933
217	0x390cd038	0.00013429008
218	0x3df4d54d	0.119547464
219	0xbe04131b	-0.12897913
220	0xbe555144	-0.20831782
221	0xbe043a30	-0.12912822
222	0xbdb77da7	-0.08959513
223	0x3c0f557a	0.008748407
224	0x3e4b0a54	0.19828159
225	0xbe7d821a	-0.24756661
226	0xbe20acdd	-0.15690942
227	0xbdb03833	-0.08604469
228	0xbda1c1c9	-0.0789829
229	0xbce850e9	-0.028358893
230	0xbdefafe1	-0.11703468
231	0xbca59d5b	-0.020216634
232	0xbe5c9f38	-0.21545112
233	0x3ce35e51	0.027754935
234	0xbdfc65e5	-0.12324122
235	0xbda85ffe	-0.08221434
236	0x3e2791f4	0.1636427
237	0xbe022287	-0.12708484
238	0xbe6bfb8b	-0.23045175
239	0x3daf5e09	0.08562858
240	0x3e513b07	0.20432673
241	0xbe194f26	-0.14971599
242	0xbe58e50f	-0.21181129
243	0xbd68b81a	-0.056816198
244	0xbd5d9f7a	-0.054107167
245	0x3da878c4	0.08226159
246	0xbe4c300e	-0.19940206
247	0xbc09466c	-0.008378606
248	0xbd85c297	-0.06531256
249	0x3d6326f7	0.05545708
250	0x3e7daba8	0.24772513
251	0xbe1991f0	-0.14997077
252	0xbd63b1ac	-0.055589363
253	0xbdc17353	-0.094458245
254	0xbdfc5366	-0.123205945
255	0xbd7fc988	-0.062448055

weight_hh f4 [300, 100]
0	0xbd7a9146	-0.0611737
1	0xbd0c3505	-0.03423025
2	0x3bc1ab08	0.005910281
3	0x3c9a2716	0.018817466
4	0x3e1c963f	0.1529169
5	0x3e319c3c	0.17344755
6	0x3defd611	0.11710752
7	0x3dd5128c	0.10403928
8	0x3d6c83a9	0.05774275
9	0x3dac24c0	0.08405447
10	0xbd4b513c	-0.049638018
11	0xbd02e146	-0.03195312
12	0xbe163f82	-0.14672664
13	0x3d5ee836	0.054420672
14	0xbd1f89c8	-0.038949758
15	0xbd8e8507	-0.06958967
16	0x3c5aa821	0.013345749
17	0x3db2ee97	0.08736914
18	0xbd43a38f	-0.047763404
19	0x3d841bf7	0.06450646
20	0x3d964054	0.07336488
21	0xbd01378d	-0.031547118
22	0xbda128ba	-0.07869096
23	0xbd9818ea	-0.07426627
24	0xbcc2a0f6	-0.023758393
25	0x3b334f8e	0.002736065
26	0xbc4c01be	-0.012451587
27	0x3d13587b	0.035973053
28	0x3e079964	0.13242108
29	0x3d9cd4cd	0.07657776
30	0x3c77138e	0.015080346
31	0x3db182f2	0.08667554
32	0xbacbce4e	-0.0015549154
33	0x3c66c155	0.01408418
34	0x3dd7a1d5	0.10528914
35	0xbc355489	-0.011067518
36	0xbdaa6856	-0.08320682
37	0x3d013bc5	0.03155114
38	0xbe22ca7a	-0.15897551
39	0xbb910c18	-0.0044264905
40	0x3dfe33ab	0.12412199
41	0x3bd72554	0.006565729
42	0xbdf87711	-0.12132085
43	0x3d45a2b4	0.04825087
44	0x3b767655	0.0037607152
45	0x3dfbe091	0.12298692
46	0x3d24094e	0.040047936
47	0xbe20c6ac	-0.15700787
48	0xbdb93249	-0.09042794
49	0x3d7b8329	0.06140438
50	0xbe0ae827	-0.13565122
51	0x3d81d1f3	0.06338873
52	0xbdafe736	-0.08589022
53	0xbd6fd169	-0.05854932
54	0x3d09f8ac	0.033684418
55	0x3d8b6c30	0.068077445
56	0x3d751830	0.05983752
57	0xbdc0c62a	-0.09412797
58	0x3da0c434	0.07849923
59	0xbde49d06	-0.11162762
60	0xbdcc03d1	-0.099616654
61	0xbd80d07f	-0.062897675
62	0xbcf31354	-0.029672302
63	0x3d0246bb	0.031805735
64	0x3d549828	0.05190292
65	0x3d24d238	0.040239543
66	0x3dd1fcd1	0.10253299
67	0xbd4a20ba	-0.049347617
68	0x3decf8a7	0.11570864
69	0x3e1c67ff	0.15274046
70	0x3cebb2c8	0.028771773
71	0xbd0bef27	-0.03416362
72	0xbca044c8	-0.019564047
73	0xbd70a092	-0.05874688
74	0x3c8d0493	0.017214095
75	0xbcc54ee6	-0.024085473
76	0x3d1c76dd	0.038199294
77	0x3e04ed6b	0.12981193
78	0xbe29873a	-0.16555491
79	0x3da4e26c	0.08050999
80	0xbdd3bf13	-0.10339179
81	0xbdf6bc1d	-0.120475985
82	0xbd8d3c2b	-0.06896242
83	0x3e35609c	0.17712635
84	0x3cf41d67	0.029799176
85	0xbd412739	-0.047156546
86	0xbd921816	-0.071335
87	0xbd238c4d	-0.039928723
88	0xbd0961b5	-0.033540446
89	0xbd86cceb	-0.06582054
90	0x3d8b2d19	0.06795711
91	0xbdb6bbe7	-0.08922558
92	0xbdfa4a35	-0.12221185
93	0xbdb74c63	-0.089501165
94	0x3d26a8d9	0.04068837
95	0xbd639465	-0.055561442
96	0x3d0a3ff7	0.033752408
97	0xbda0620a	-0.078311995
98	0x3d012383	0.031528007
99	0x3e0f6707	0.14004146
100	0x3e1308aa	0.14358774
101	0xbdedb6d8	-0.1160714
102	0xbd6bce67	-0.057569887
103	0x3e0111b3	0.12604408
104	0xbd9e71ac	-0.07736525
105	0x3d3294c3	0.0435989
106	0xba509110	-0.00079561863
107	0xbde8910a	-0.11355789
108	0xbe7c0111	-0.24609782
109	0xbcaef47d	-0.021356815
110	0xbd1ef10a	-0.03880409
111	0x3e1e35d5	0.15450223
112	0xbca3364e	-0.019923355
113	0xbcf9e22e	-0.030503359
114	0x3a9730cd	0.001153493
115	0xbd100b0c	-0.035166785
116	0x3cc18893	0.023624694
117	0xbd2c1ad4	-0.042017773
118	0x3cb05b46	0.021527898
119	0x3e0457a9	0.12924065
120	0xbccac96c	-0.024754249
121	0x3db6055b	0.0888774
122	0x3e04707f	0.12933539
123	0x3dc37c30	0.09545171
124	0xbde705d2	-0.11280407
125	0x3c9cc487	0.01913668
126	0xbd4160eb	-0.04721157
127	0xbe012507	-0.12611781
128	0xbe108a3a	-0.14115229
129	0xbe4ecb2e	-0.20194694
130	0x3e0a911c	0.13531917
131	0x3dcefcc5	0.10106806
132	0x3dadbd81	0.084834106
133	0xbe263412	-0.16230801
134	0xbcef4b3e	-0.029210683
135	0xbd836c4a	-0.06417139
136	0xbccdfb37	-0.025144203
137	0xbd6779d8	-0.056512684
138	0x3da0333c	0.07822272
139	0xbe358b32	-0.1772888
140	0x3ddd9382	0.108191505
141	0xbe590d9d	-0.211966
142	0xbc217a6f	-0.009855851
143	0xbe20ab72	-0.15690401
144	0x3d930cde	0.071801886
145	0xbd1262e0	-0.035738826
146	0xbdf3d0f2	-0.119050875
147	0x3ddeb6e7	0.108747296
148	0xbd415104	-0.047196403
149	0x3bcf25e7	0.006321657
150	0xbb9fad72	-0.004872971
151	0xbc811da9	-0.015761213
152	0xbda23ba7	-0.07921534
153	0xbda2cba1	-0.079489954
154	0xbdf8e73b	-0.12153479
155	0x3d622639	0.055212233
156	0x3e031cae	0.12803909
157	0x3ca46e13	0.020072019
158	0x3c6aa162	0.014320703
159	0x3e129272	0.14313677
160	0xbcc0d333	-0.023538208
161	0x3d99321a	0.07480259
162	0xbe2b6513	-0.16737776
163	0xbc91ca4e	-0.017796662
164	0x3d20ef05	0.039290447
165	0x3d3741e2	0.044740565
166	0x3ddcc73d	0.10780189
167	0x3d798516	0.060917936
168	0xbd2decb2	-0.04246206
169	0xbdc0e3b0	-0.09418428
170	0xbc86f282	-0.016473059
171	0x3ccbbb7b	0.024869671
172	0x3d68d475	0.05684324
173	0x3d340666	0.043951415
174	0xbdf54618	-0.1197626
175	0x3d652c4d	0.05595045
176	0x3dc1d6dc	0.09464809
177	0xbbbc432e	-0.005745313
178	0x3e0565cb	0.13027112
179	0x3ddaf4d0	0.106912255
180	0xbe2d4863	-0.16922145
181	0x3dfca0fc	0.12335393
182	0x3df4d934	0.11955491
183	0x3cdd5132	0.027016256
184	0x3c1af465	0.009457682
185	0xbe31b2c3	-0.17353348
186	0x3dc0a490	0.09406388
187	0xbe2f585f	-0.17123555
188	0xbd6395aa	-0.055562653
189	0xbd43294b	-0.047646802
190	0xbddf8b3c	-0.10915229
191	0xbcddd447	-0.02707876
192	0x3d65d668	0.056112677
193	0xbe403863	-0.1877151
194	0x3b87431a	0.004127872
195	0x3e481d37	0.19542395
196	0x39a45fdc	0.00031351938
197	0x3dfa1423	0.12210872
198	0x3d1bdbf3	0.038051557
199	0xbe0df67e	-0.1386356
200	0x3de16628	0.11005813
201	0xbc5a186a	-0.013311485
202	0xbcc5f021	-0.024162354
203	0x3a3d0e82	0.00072119397
204	0x3e0e8195	0.13916619
205	0x3e26c3fa	0.16285697
206	0x3dc37d61	0.095453985
207	0x3d114743	0.03546835
208	0x3d446592	0.047948427
209	0x3db2e287	0.08734613
210	0xbcaed1a5	-0.0213402
211	0xbd9a07c3	-0.07521012
212	0xbe35cf23	-0.17754798
213	0x3ad71ff0	0.0016412716
214	0x3e0ee01b	0.13952677
215	0xbd87f88b	-0.06639203
216	0x3de85e21	0.11346079
217	0x3dfcad3e	0.12337731
218	0xbe208280	-0.15674782
219	0x3d03dc5d	0.032192577
220	0x3daabdbd	0.08336971
221	0x3d018ea9	0.031630192
222	0xbe03dddf	-0.12877606
223	0xbaac260b	-0.0013133896
224	0x3d51916c	0.051164076
225	0xbdc48a60	-0.095967054
226	0x3bf088dd	0.007340534
227	0x3bd17ed3	0.0063932925
228	0x3d7e31c1	0.062059168
229	0x3d429960	0.04750955
230	0xbd0a86e9	-0.033820067
231	0xbc26d620	-0.010182887
232	0x3dc740e3	0.09729173
233	0x3cb955d5	0.022623936
234	0x3d0abbe3	0.03387059
235	0x3cd6f14d	0.026238108
236	0xbd65bea1	-0.05609
237	0xbd09282b	-0.033485573
238	0xbe525dea	-0.20543638
239	0xbde84778	-0.113417566
240	0x3d0b959f	0.034078237
241	0x3dde9985	0.10869125
242	0xbe208984	-0.15677458
243	0x3e0c3e0e	0.13695547
244	0x3c85751f	0.0162912
245	0x3d1b3a78	0.037897557
246	0x3c0b1a63	0.008490178
247	0xbe4d1f01	-0.20031358
248	0xbd33cf3f	-0.043898817
249	0xbdc47f0f	-0.09594547
250	0xbc5da35f	-0.01352772
251	0x3c4a62ef	0.012352689
252	0xbc6bcfc4	-0.014392797
253	0x3c56170a	0.013067016
254	0x3dbff197	0.093722515
255	0x3e16befe	0.14721295

bias_ih f4 [300]
0	0x3d9aa62f	0.07551228
1	0x3d86aa7c	0.06575486
2	0x3e3c5800	0.18392944
3	0x3d965527	0.0734046
4	0x3dd78574	0.10523501
5	0x3e2cf6a5	0.16890962
6	0x3dc20b69	0.094748326
7	0x3e077111	0.13226725
8	0x3cb62015	0.022232095
9	0x3e2a66c3	0.16640763
10	0xbcdc3abc	-0.026883475
11	0xbc98c7f8	-0.01865004
12	0x3deb1993	0.11479487
13	0x3dc927a8	0.09822017
14	0xbdd99308	-0.10623747
15	0x3ddfb2a6	0.10922746
16	0xbce3a06f	-0.027786462
17	0xbdb3053a	-0.08741231
18	0x3dc8132e	0.09769283
19	0x3d9fa09a	0.07794304
20	0x3da0f458	0.07859105
21	0x3d981d09	0.07427413
22	0xbbb02174	-0.0053750817
23	0x3e119082	0.14215282
24	0x3cc0f53a	0.023554433
25	0x3d11412b	0.03546254
26	0xbd4ab8a8	-0.04949251
27	0x3d446ab0	0.047953308
28	0x3d287d2e	0.041135006
29	0x3b4a0581	0.0030826034
30	0xbd25482d	-0.040352035
31	0x3dd9422f	0.10608327
32	0x3b012582	0.0019706194
33	0x3d8a33fd	0.06748197
34	0x3d0841d1	0.033265892
35	0x3e3e5bfe	0.1858978
36	0x3b354562	0.0027659764
37	0x3e09cd9d	0.13457341
38	0x3d19c95e	0.037545554
39	0xbc664f69	-0.014057019
40	0xbd47c669	-0.048773203
41	0x3dcde1f3	0.10052862
42	0xbd0639f2	-0.032770105
43	0xbdecd9b0	-0.11564958
44	0x3e095175	0.1340998
45	0x3de5de07	0.11223989
46	0x3c7a741d	0.015286473
47	0x3dd3d9a3	0.10344245
48	0x3e1588c9	0.1460296
49	0xbd416792	-0.047217913
50	0x3de353f0	0.11099994
51	0x3d967ecf	0.073484056
52	0x3c0df00a	0.008663187
53	0x3dec6f34	0.11544648
54	0x3d79d21f	0.060991403
55	0x3d840ba1	0.064475305
56	0xbdc5bebb	-0.096555196
57	0xbc2a0c5c	-0.010378923
58	0x3dff5866	0.124680325
59	0xbca1e893	-0.01976422
60	0xba98d761	-0.0011660868
61	0xbde85df1	-0.11346043
62	0xbb66ca41	-0.0035215768
63	0xbd1be39f	-0.038058873
64	0x3de90088	0.113770545
65	0x3c88861b	0.016665509
66	0x3df833b8	0.121192396
67	0xbcbb2d44	-0.022848733
68	0x3d31f099	0.043442342
69	0x3e1131fe	0.14179227
70	0x3c981297	0.018563552
71	0xbbde9a27	-0.0067932787
72	0x3daeda14	0.08537689
73	0xba2f1145	-0.00066782936
74	0x3adebdf8	0.0016993871
75	0x3e05cfb1	0.13067509
76	0x3d3c658a	0.045995273
77	0xbdc72b89	-0.097251005
78	0x3de77eae	0.11303459
79	0x3e0c7679	0.13717069
80	0x3d443b15	0.047907908
81	0xbd13d253	-0.036089253
82	0x3dfe6294	0.12421146
83	0x3dfecb5e	0.12441133
84	0x3d76438c	0.06012301
85	0x3db69706	0.08915524
86	0xbcdfd88b	-0.027324935
87	0x3d98cf80	0.074614525
88	0x3d370569	0.044682894
89	0x3d8dbede	0.06921171
90	0x3c15191b	0.009100224
91	0x3ddf9454	0.10916963
92	0x3db6a042	0.089172855
93	0x3ba5106d	0.0050373585
94	0x3dd66170	0.104678035
95	0x3c8e0bf2	0.01733968
96	0x3dc353ce	0.09537469
97	0x3dc3155a	0.09525557
98	0x3e056d51	0.13029982
99	0x3ad4d3b5	0.001623741
100	0xbe3b4f8d	-0.18292065
101	0xbdec17ee	-0.11528002
102	0xbe41ce26	-0.18926296
103	0xbe4b4e33	-0.1985405
104	0xbd38bb72	-0.045100637
105	0xbe040fb8	-0.12896621
106	0xbd7516da	-0.059836246
107	0xbe09c2d1	-0.13453223
108	0xbe61223d	-0.21985717
109	0xbd8eeb05	-0.0697842
110	0xbdcab037	-0.098968916
111	0xbe0b309d	-0.13592763
112	0xbdb836e2	-0.08994843
113	0xbe005f75	-0.12536414
114	0xbd804f03	-0.0626507
115	0xbe0dde48	-0.13854325
116	0xbe403962	-0.1877189
117	0xbc3f0d99	-0.011660957
118	0xbcdd88aa	-0.027042706
119	0xbd29c047	-0.041443136
120	0xbdcc07c0	-0.09962416
121	0xbe69a078	-0.2281512
122	0xbd7afd2a	-0.061276592
123	0xbe34232f	-0.17591546
124	0xbe0bb0af	-0.13641618
125	0xbdc1b98e	-0.0945922
126	0xbe373de4	-0.17894703
127	0xbe48e297	-0.19617687
128	0xbdcbbff3	-0.09948721
129	0xbe3524e3	-0.17689852
130	0xbe27ea31	-0.1639793
131	0xbe0ab114	-0.13544112
132	0xbe1771fb	-0.14789574
133	0xbe195d18	-0.14976919
134	0xbd545caa	-0.051846184
135	0xbd16e1e1	-0.03683651
136	0xbca5d3aa	-0.02024253
137	0x3c43410b	0.011917363
138	0xbe259e3c	-0.16173643
139	0xbe659e4d	-0.22423668
140	0xbe04295e	-0.12906405
141	0xbd11af2b	-0.035567444
142	0x3ae9a884	0.0017826711
143	0xbdc6c40b	-0.09705361
144	0xbe7b79de	-0.24558207
145	0xbd9b4794	-0.07582012
146	0xbd10928d	-0.03529601
147	0xbc5b109d	-0.01337066
148	0xbd2fa113	-0.04287822
149	0xbd9ecaf9	-0.07753558
150	0xbc18b4c9	-0.009320446
151	0xbd9d6817	-0.07685869
152	0xbdbb3d88	-0.091425955
153	0xbe5c0d3a	-0.2148942
154	0xbe04537c	-0.12922472
155	0xbe063806	-0.13107309
156	0xbd85cf2d	-0.06533656
157	0xbde920f4	-0.113832384
158	0xbd847ddc	-0.06469318
159	0xbd8066c9	-0.06269605
160	0xbe026e56	-0.12737402
161	0xbe4b6700	-0.1986351
162	0xbe0e9799	-0.13925017
163	0xbe3e021f	-0.18555497
164	0xbdc12d68	-0.09432489
165	0xbdae272e	-0.08503567
166	0xbdc49462	-0.09598614
167	0xbd2d1ba0	-0.042262673
168	0xbe26b3f0	-0.16279578
169	0xbd00c393	-0.031436514
170	0xbe79ce02	-0.24394992
171	0xbe21ea57	-0.1581205
172	0xbd2b3b77	-0.041804757
173	0xbd7b74a3	-0.06139053
174	0xbcdba66b	-0.026812753
175	0xbdee2fda	-0.11630221
176	0xbd4d8482	-0.050175197
177	0xbcb3e756	-0.021960896
178	0xbdbf9075	-0.09353725
179	0xbdc58fed	-0.09646592
180	0xbe140808	-0.14456189
181	0xbbec6036	-0.0072136177
182	0xbe018907	-0.12649928
183	0xbdf59c01	-0.11992646
184	0xbd8b2fc7	-0.06796222
185	0xbe3a7133	-0.18207245
186	0xbe177d39	-0.14793862
187	0xbd91eb9f	-0.07125019
188	0xbe1aa884	-0.15103346
189	0xbe06bd87	-0.13158236
190	0xbe1a5da2	-0.1507478
191	0xbda75778	-0.0817098
192	0xbd7a8852	-0.06116516
193	0xbd9a5f20	-0.07537675
194	0xbe77b9ca	-0.24191967
195	0xbe403669	-0.18770756
196	0xbe27481a	-0.16336098
197	0xbd7337f6	-0.05937954
198	0xbe249ef4	-0.16076261
199	0x3bceed17	0.0063148844
200	0x3dfd9165	0.123812474
201	0x3dd82380	0.10553646
202	0xbddaefd7	-0.10690277
203	0x3e60ece8	0.21965373
204	0x3e21defc	0.15807718
205	0x3dbe64d0	0.09296572
206	0x3d92411e	0.07141326
207	0x3d9f486b	0.077774845
208	0xbe15a49c	-0.14613575
209	0xbcc858b2	-0.024456356
210	0x3dc6b236	0.0970196
211	0x3d93f5f2	0.07224645
212	0xbd99cae4	-0.075094014
213	0xbe2d8c69	-0.16948093
214	0x3e0ed207	0.13947307
215	0xbddbfa12	-0.107410565
216	0x3da273f2	0.07932271
217	0x3de0cf2e	0.109770164
218	0x3d3bd16f	0.04585403
219	0x3d467462	0.048450835
220	0x3d2ab848	0.04167965
221	0x3e35f4fc	0.17769235
222	0xbdcc5210	-0.0997659
223	0x3de835b7	0.1133837
224	0x3d9b7f03	0.07592585
225	0xbd8f3951	-0.06993354
226	0x3dd46c2e	0.10372196
227	0xbce43e65	-0.027861783
228	0x3d169ff2	0.03677363
229	0xbdd7130d	-0.105016805
230	0xbdd4a53c	-0.103830785
231	0x3e1a56eb	0.15072219
232	0x3e1ca551	0.15297438
233	0x3d9f210d	0.07769976
234	0x3de2fb2f	0.11083066
235	0xbe0956ff	-0.13412093
236	0x3d0bcbdd	0.034129966
237	0x3c749487	0.01492799
238	0xbd59d0a3	-0.053177487
239	0xbe16bb64	-0.14719921
240	0x3e36a6a9	0.17837013
241	0xbdaf111e	-0.08548187
242	0xbe1fa99c	-0.15592045
243	0x3da07c14	0.07836166
244	0x3dd62fb9	0.10458321
245	0x3e0662fd	0.13123699
246	0xbe3a1e72	-0.18175676
247	0x3d045b58	0.032313675
248	0xbe2006a2	-0.1562753
249	0xbe1972fb	-0.14985268
250	0xbe121f89	-0.14269842
251	0x3daf4b17	0.08559244
252	0xbdd7273b	-0.105055295
253	0xbe19b79e	-0.1501145
254	0x3d866657	0.065624885
255	0x3dd540bf	0.1041274

bias_hh f4 [300]
0	0x3da507bd	0.080581166
1	0x3dfcd85d	0.123459555
2	0x3e559b27	0.20859967
3	0xbd9553f9	-0.07291407
4	0x3dc8d77c	0.098067254
5	0x3ca4e699	0.020129489
6	0x3bd5467d	0.006508647
7	0xbc35c124	-0.011093412
8	0xbcc63a09	-0.024197595
9	0xbb5b2335	-0.0033437733
10	0x3db7f2af	0.08981835
11	0x3d82efa1	0.06393362
12	0x3df2df4a	0.11858995
13	0x3d90fab1	0.070790656
14	0xbe307688	-0.17232716
15	0x3d3afca1	0.045651082
16	0x3e08bb07	0.13352595
17	0xbc0d1d76	-0.008612981
18	0x3d368364	0.044558898
19	0xbcfbf01b	-0.03075414
20	0x3e11cd2f	0.14238428
21	0x3d403d21	0.046933297
22	0xbd84d33e	-0.06485604
23	0x3cc6f28b	0.024285575
24	0x3ce1f853	0.02758423
25	0xbcd18c8e	-0.025579717
26	0x3d0923b4	0.033481315
27	0x3c1f66d4	0.009729106
28	0xbdadcb52	-0.08486046
29	0x3d254f38	0.040358752
30	0x3daf8bab	0.085715614
31	0x3db32fdd	0.087493636
32	0x3d7a7f59	0.061156604
33	0x3d32abe5	0.043620963
34	0x3de5daf7	0.11223405
35	0x3e35e580	0.17763329
36	0x3d9f31a2	0.077731386
37	0x3d1fc457	0.039005604
38	0x3e382d8f	0.17986129
39	0x3dad136c	0.0845097
40	0x3da29de0	0.079402685
41	0xbd398396	-0.045291506
42	0x3c8500ba	0.016235698
43	0xbc000a85	-0.007815008
44	0xbd033faf	-0.032043155
45	0xbd183731	-0.03716201
46	0x3ca3f0ce	0.020012286
47	0x3b86962d	0.004107258
48	0x3df951ab	0.1217378
49	0xbd31b4cb	-0.04338531
50	0x3de5b22b	0.112156235
51	0x3d998e19	0.07497806
52	0xbcb2b071	-0.02181265
53	0x3aafd7e6	0.0013415783
54	0x3dbafe13	0.09130492
55	0x3d5f1406	0.054462455
56	0xbcf705ce	-0.030154135
57	0x3c8b7c79	0.017027127
58	0x3d69a78b	0.057044547
59	0x3da798ca	0.08183439
60	0x3d8361f4	0.064151675
61	0xbcf0b0cd	-0.02938118
62	0x3e18326f	0.14862989
63	0x3d3556a7	0.04427209
64	0x3da2874f	0.07935964
65	0x3d63d8b3	0.055626582
66	0x3c1f818a	0.009735474
67	0x3cffdcc3	0.031233197
68	0x3e11e4b7	0.14247404
69	0x3ba180f4	0.0049287025
70	0x3d7f7937	0.06237146
71	0x3d24d1d9	0.04023919
72	0xbc05cb80	-0.008166194
73	0x3e00754c	0.12544745
74	0x3e41d915	0.18930466
75	0x3db89fc2	0.090148464
76	0x3e082296	0.13294443
77	0xbd824adf	-0.06361937
78	0xbd438a7d	-0.047739495
79	0xbd18405b	-0.03717075
80	0x3cb1113c	0.021614663
81	0xbd0e8c99	-0.034802053
82	0xbd0f3a87	-0.034967925
83	0x3c36ccf8	0.011157267
84	0x3b6e84f2	0.003639516
85	0xbdae449f	-0.08509182
86	0xbd35b148	-0.04435852
87	0x3d857138	0.065157354
88	0x3c071d4b	0.00824673
89	0x3db8f290	0.0903064
90	0x3da64a0c	0.08119592
91	0x3dbadace	0.09123765
92	0x3de03276	0.10947125
93	0x3da62e77	0.08114331
94	0x3e13f8f8	0.14450443
95	0x3da1aee3	0.07894685
96	0x3d950a03	0.072773
97	0x3dde2d52	0.10848488
98	0x3d6f68fc	0.05844973
99	0x3d2dc314	0.04242237
100	0xbe023d29	-0.12718643
101	0xbe17e0aa	-0.14831796
102	0xbe698c6c	-0.22807473
103	0xbdd4307d	-0.10360811
104	0xbb98a661	-0.004658506
105	0x3c51c813	0.012804049
106	0xbe05cb76	-0.13065895
107	0xbe3039e3	-0.17209582
108	0xbe532b79	-0.20622052
109	0xbdc53431	-0.09629095
110	0xbe54857d	-0.20754047
111	0xbdff5fb4	-0.12469426
112	0xbe3d1d33	-0.1846817
113	0xbd794651	-0.060858075
114	0xbd44da52	-0.04805977
115	0xbe62a8ec	-0.22134751
116	0xbd02dd02	-0.03194905
117	0xbbf0db16	-0.007350336
118	0xbd1eb0d5	-0.03874286
119	0xbdf53974	-0.11973849
120	0xbb064ffe	-0.0020494456
121	0xbdcb0560	-0.099131346
122	0xbe209ca9	-0.15684761
123	0xbd9a83fc	-0.07544705
124	0x3ac08e4b	0.0014690844
125	0xbd544871	-0.051826898
126	0xbdb2c9f1	-0.087299235
127	0xbe1807a7	-0.14846669
128	0xbe228684	-0.15871626
129	0xbdea653f	-0.114450924
130	0xbdcbb302	-0.099462524
131	0xbdf59e63	-0.119931005
132	0xbe25e4cf	-0.16200565
133	0xbb690447	-0.0035555528
134	0xbcdf9248	-0.027291432
135	0xbd6d6828	-0.05796066
136	0xbe2281f2	-0.15869883
137	0xbdff9126	-0.12478857
138	0xbe2ce421	-0.168839
139	0xbe2537a3	-0.16134505
140	0xbe059267	-0.1304413
141	0xbe2543a4	-0.16139084
142	0xbd115449	-0.03548077
143	0xbcdef591	-0.027216705
144	0xbe5357e4	-0.20638996
145	0xbd23fece	-0.040037923
146	0xbe1778c4	-0.14792162
147	0xbd89c2a1	-0.06726576
148	0xbd9dba9b	-0.07701608
149	0xbd97aead	-0.07406364
150	0xbdb7772a	-0.089582756
151	0xbd909b97	-0.070609264
152	0x3cd6c837	0.026218517
153	0xbe2e9a1b	-0.17050974
154	0x3c81d891	0.015850337
155	0xbdc9797a	-0.09837623
156	0xbe57df08	-0.21081173
157	0xbc9cfcbe	-0.019163486
158	0x3b83eb2b	0.004025837
159	0xbb388c5c	-0.0028159833
160	0xbda21258	-0.07913655
161	0xbe0e514a	-0.13898197
162	0xbe45bf3f	-0.19311236
163	0xbdf90ddf	-0.12160849
164	0xbe1908a3	-0.14944701
165	0xbe280d62	-0.16411355
166	0xbe228a0e	-0.15872976
167	0xbe1e6f00	-0.1547203
168	0xbdea00c4	-0.11425927
169	0xbe0d4d86	-0.13799104
170	0xbe2e4152	-0.17017105
171	0xbd5dfe65	-0.054197688
172	0x3c64b645	0.013959472
173	0xbd40d2db	-0.047076087
174	0xbd9860d6	-0.07440345
175	0xbdbba019	-0.091613956
176	0xbd804550	-0.0626322
177	0xbe3615ed	-0.17781802
178	0xbcd75532	-0.026285741
179	0xbe173a26	-0.14768276
180	0xbdd77672	-0.105206385
181	0xbde87b9c	-0.113517016
182	0xbe1f1e82	-0.15538982
183	0xbe122dcc	-0.14275283
184	0xbe0e00b9	-0.13867463
185	0xbe509873	-0.20370655
186	0xbb2c28e6	-0.0026269495
187	0xbe023034	-0.127137
188	0xbe2fdece	-0.17174837
189	0xbe08d6fe	-0.13363263
190	0xbe389536	-0.1802567
191	0xbcebacd8	-0.028768942
192	0xbe27b3f2	-0.16377237
193	0xbde6ee67	-0.112759404
194	0xbe004e5a	-0.12529889
195	0xbd914317	-0.070928745
196	0xbe550c20	-0.20805407
197	0x3d020923	0.031746995
198	0xbdb46260	-0.08807826
199	0xbe1d0938	-0.15335548
200	0x3e2caa3d	0.16861816
201	0x3dcd02f2	0.100103274
202	0xbe0b0ea4	-0.13579804
203	0x3ce96f7d	0.028495545
204	0x3dfe675e	0.124220595
205	0x3e285f10	0.16442513
206	0x3c914c67	0.017736627
207	0x3df3bf9c	0.11901781
208	0xbd995ecb	-0.074887834
209	0xbd11df3e	-0.03561329
210	0x3dffba88	0.1248675
211	0x3deb47a2	0.11488272
212	0xbc6ec4b6	-0.014573267
213	0xbdb63107	-0.0889607
214	0xbd5f4b49	-0.054515157
215	0xbda39c12	-0.079887524
216	0x3e4016f2	0.18758753
217	0xbcab7cb6	-0.02093349
218	0xbd55e54e	-0.052220635
219	0x3e2a4636	0.16628346
220	0x3d0af126	0.033921383
221	0x3e4592e3	0.19294314
222	0x3d00606c	0.031341955
223	0x3e1ff5aa	0.15621057
224	0xbce0757d	-0.027399773
225	0xbd2c5f40	-0.042083025
226	0x3b70513d	0.0036669516
227	0x3d31a162	0.043366797
228	0x3d092e7f	0.033491608
229	0xbde74ca7	-0.11293917
230	0x3ba9de89	0.005183999
231	0x3d44a6fa	0.048010804
232	0x3e01146d	0.12605448
233	0xbd7288fb	-0.059212666
234	0x3dbb9e88	0.09161097
235	0xbdd00c28	-0.101585686
236	0xbd7d063a	-0.061773516
237	0xbde4dc5f	-0.11174845
238	0xbdb83783	-0.08994963
239	0xbd51e0bf	-0.051239725
240	0x3ca2ce5c	0.01987379
241	0xbd5b6b9b	-0.053569417
242	0xbd9ba386	-0.07599549
243	0xbd3c37e6	-0.045951746
244	0x3e1c1bb4	0.15244943
245	0x3d915760	0.070967436
246	0xbd7cca1f	-0.061716195
247	0xbce1519d	-0.027504737
248	0xbe304f3c	-0.17217726
249	0xbdb342a7	-0.08752947
250	0xbe22992e	-0.15878746
251	0x3c261271	0.010136233
252	0xbdb1b1d3	-0.086764954
253	0xbe35ab03	-0.17741017
254	0x3d9430e2	0.07235886
255	0x3ded3324	0.1158202

weight_ih f4 [300, 100]
0	0x3e35d02e	0.17755195
1	0xbdc02dbc	-0.09383723
2	0x3d7d8d3d	0.061902273
3	0x3d1ac632	0.03778667
4	0xbdf0109a	-0.117219165
5	0x3d0b504f	0.034012135
6	0xbdda09b6	-0.106463835
7	0xbe538dce	-0.20659563
8	0xbd84fb5d	-0.06493256
9	0xbd80c930	-0.062883735
10	0xbd91e1bf	-0.07123136
11	0x3e5b7d5c	0.2143454
12	0x3dff3063	0.12460401
13	0xbce54092	-0.027984891
14	0xbd42a6ca	-0.047522344
15	0xbd4871cd	-0.048936654
16	0x3de18afa	0.11012836
17	0xbe33d5a1	-0.17561962
18	0x3e0a1c85	0.13487442
19	0x3d4ec9e6	0.050485514
20	0xbb94160b	-0.0045192293
21	0xbd9b3841	-0.07579089
22	0x3e24030a	0.16016784
23	0x3ce0816c	0.027405463
24	0xbe159a6e	-0.14609692
25	0x3dbd958b	0.09257039
26	0xbd08ea67	-0.03342667
27	0xbdd4d4d3	-0.103921555
28	0xbdb188a3	-0.086686395
29	0xbd4d108b	-0.050064605
30	0x3e20fed3	0.15722208
31	0x3a66725b	0.0008790844
32	0xbd1c4231	-0.038149063
33	0xbd2b872c	-0.041876957
34	0xbe285322	-0.16437963
35	0xbd6ddcfe	-0.058072083
36	0x3e05404b	0.13012807
37	0x3e2be3ff	0.16786192
38	0x3d3b4e62	0.04572905
39	0xbe16ab9b	-0.147139
40	0x3d9e3f1d	0.07726882
41	0xbd6c2456	-0.05765184
42	0xbde1e669	-0.110302754
43	0xbe0458e9	-0.12924542
44	0xbd5fced6	-0.054640613
45	0x3b5807d9	0.0032963662
46	0xbc970782	-0.018436197
47	0x3e1b9a69	0.15195622
48	0x3e10a721	0.14126255
49	0xbab830a2	-0.001405258
50	0x3dd04aa7	0.10170489
51	0xbc83b07d	-0.016075367
52	0x3d62d2e2	0.055376895
53	0x3d0592c4	0.03261067
54	0xbe0d0758	-0.13772333
55	0x3e0a872e	0.1352813
56	0x3e597961	0.21237709
57	0xbc8236b4	-0.015895225
58	0xbda9e0d8	-0.08294839
59	0x3e833960	0.2562971
60	0x3d6210fa	0.05519197
61	0xbd7812e4	-0.06056489
62	0xbd294705	-0.041327495
63	0x3d99fcb5	0.07518903
64	0x3d269134	0.04066582
65	0xbdcef3b9	-0.1010508
66	0x3dbc080d	0.09181223
67	0x3e6d9056	0.23199591
68	0xbcdcc04e	-0.026947167
69	0xbcad26e5	-0.02113671
70	0xbdc833ee	-0.0977553
71	0xbdfc669e	-0.1232426
72	0x3de1f4d8	0.11033028
73	0x3d93629e	0.07196544
74	0xbd11526c	-0.035478994
75	0x3dc0a294	0.09406009
76	0xbd8b612b	-0.06805643
77	0xbe28534d	-0.16438027
78	0x3e302cdf	0.17204617
79	0x3cd8af5f	0.026450811
80	0xbe130033	-0.14355545
81	0xbc753c82	-0.0149680395
82	0x3da36599	0.079783626
83	0xbc13abe8	-0.009013154
84	0x3befea04	0.007321598
85	0xbde6bfbf	-0.112670414
86	0x3d594205	0.053041477
87	0xbc756ae6	-0.0149791
88	0xbdaa5f78	-0.083189905
89	0x3d92fb6a	0.0717686
90	0xbdded68b	-0.108807646
91	0x3dc6f716	0.09715097
92	0xbd8654b8	-0.065591276
93	0xbe2959c5	-0.1653815
94	0x3d50c94f	0.050973233
95	0x3e85e763	0.26153097
96	0xbd9b3f5d	-0.07580445
97	0xbb8940c6	-0.00418863
98	0xba054339	-0.00050835643
99	0xbe0fc439	-0.14039697
100	0xbce5d109	-0.028053777
101	0x3e10a3c5	0.14124973
102	0xbe19c14b	-0.15015142
103	0x3d190daf	0.037366565
104	0x3a85d120	0.0010209419
105	0x3e2d1e17	0.1690601
106	0xbc4e449e	-0.012589602
107	0x3b32ca4c	0.0027281223
108	0xbdc874fa	-0.097879365
109	0x3d85a9fe	0.06526564
110	0xbcaa6344	-0.020799287
111	0xbd8e8078	-0.06958097
112	0x3bbf48d7	0.0058375406
113	0xbc3adee7	-0.011405683
114	0x3d14d015	0.036331255
115	0xbe04a264	-0.12952572
116	0x3e04c666	0.12966308
117	0x3dfc79d6	0.12327926
118	0xbe329b16	-0.17441973
119	0x3d857eaf	0.065183036
120	0x3e2a0fe5	0.16607626
121	0x3e2ad210	0.16681695
122	0xbd77a0fa	-0.060456254
123	0x3ddedf30	0.108824134
124	0xbcac6d39	-0.021048175
125	0x3c9f477e	0.01944327
126	0x3b72bca6	0.0037038713
127	0xbc9a2ec4	-0.018821128
128	0x3b770b19	0.0037695824
129	0x3cbc17d8	0.022960588
130	0xbe31bf88	-0.1735822
131	0x3e10cf3f	0.14141558
132	0x3dd38785	0.10328583
133	0x3d0f0e0b	0.0349255
134	0xbc618e41	-0.013766826
135	0xbd1ac2dd	-0.037783492
136	0xbe2463ee	-0.16053745
137	0xbdc2014e	-0.09472905
138	0xbde4990d	-0.111620046
139	0xbcead34f	-0.028665213
140	0x3d621163	0.055192363
141	0xbc336897	-0.010950229
142	0xbe124bd4	-0.14286739
143	0x3d43b1b9	0.04777691
144	0x3b7fc9cc	0.0039030192
145	0x3d90d7b9	0.07072396
146	0xbe2fac1d	-0.171555
147	0xbc9ab145	-0.018883357
148	0xbe18d884	-0.14926344
149	0xbd3161fc	-0.043306336
150	0xbba52cc9	-0.005040739
151	0x3d90e9f4	0.07075873
152	0xbde36a76	-0.1110429
153	0xbd93b856	-0.07212894
154	0x3c5720f3	0.013130414
155	0x3bda051a	0.00665344
156	0x3cfe10be	0.031013843
157	0xbe2aec75	-0.16691764
158	0x3e12170d	0.14266606
159	0xbc9ec73f	-0.019382117
160	0xbd89069a	-0.06690712
161	0xbd00b871	-0.031425897
162	0xbe055fc4	-0.13024813
163	0x3c07f655	0.008298476
164	0x3d46b908	0.048516303
165	0x3d183c68	0.037166983
166	0x3e35f5da	0.17769566
167	0xbe1826fe	-0.14858624
168	0xb972f1bc	-0.00023168972
169	0x3e2af589	0.16695227
170	0x3e33b29c	0.17548603
171	0xbd41f028	-0.04734817
172	0xbd274d9f	-0.04084551
173	0xbd0a28b0	-0.03373021
174	0x3dc83d70	0.09777343
175	0xbd845ee4	-0.064634115
176	0xbcedb66d	-0.029017651
177	0xbc1c12fc	-0.009526011
178	0xbd9ae35a	-0.07562895
179	0x3de2227b	0.11041733
180	0x3caeef0e	0.021354225
181	0xbcbb5b56	-0.0228707
182	0xbc04a3d7	-0.008095703
183	0x3e112419	0.14173926
184	0x3d91a3bd	0.07111309
185	0xbb692b1d	-0.0035578676
186	0xbb852664	-0.0040634144
187	0xbdcf2247	-0.1011396
188	0x3dc4c99b	0.09608766
189	0xbd70d733	-0.05879898
190	0xb74469ca	-1.1707141e-05
191	0xbd905549	-0.07047517
192	0xbe063851	-0.1310742
193	0x3c4d5c2c	0.0125341825
194	0x3c5f63f9	0.013634675
195	0xbd1fd78c	-0.03902392
196	0xbd939984	-0.07207015
197	0xbdee9d1b	-0.11651059
198	0x3e140d46	0.14458188
199	0x390fd16e	0.00013715561
200	0x3b5aff4a	0.0033416324
201	0x3da0114c	0.07815799
202	0x3c499b3f	0.01230508
203	0x3de926a0	0.1138432
204	0x3d8fc459	0.07019872
205	0x3dff234b	0.124579035
206	0xbd0ea606	-0.0348263
207	0x3decd9fb	0.11565014
208	0xbdcbae3d	-0.09945343
209	0x3dbe3cd1	0.092889436
210	0x3e2bda9e	0.16782615
211	0x3d1bb295	0.038012106
212	0x3b53f786	0.003234358
213	0xbdaa5b0d	-0.08318148
214	0x3e0e91fe	0.13922879
215	0xbd8b2805	-0.067947425
216	0x3e25ea49	0.16202654
217	0x3d3c6488	0.04599431
218	0xbe03bc05	-0.12864693
219	0x3cc32a30	0.023823828
220	0x3d8047ee	0.062637195
221	0x3cc0d32f	0.0235382
222	0xbd61798a	-0.05504755
223	0x3dc7853a	0.09742208
224	0xbcd7775b	-0.02630203
225	0xbdf6e13f	-0.12054681
226	0x3dbf9145	0.0935388
227	0x3e180e58	0.14849222
228	0xbdb8063b	-0.08985563
229	0x3c89b652	0.01681057
230	0x3cadb925	0.021206448
231	0x3de16b27	0.11006766
232	0xbbd289dc	-0.0064251255
233	0x3e0ff2d3	0.14057474
234	0x3d2a050f	0.04150873
235	0x3bd50139	0.00650039
236	0xbdae9466	-0.085243985
237	0xbe0fd019	-0.14044227
238	0xbdc53ba6	-0.09630518
239	0xbcceade3	-0.0252294
240	0x3e334916	0.17508349
241	0xbe1c417e	-0.15259358
242	0xbde464c9	-0.11152036
243	0x3d24dcad	0.040249515
244	0x3d6b2ea0	0.057417512
245	0x3d42a3dd	0.047519553
246	0xbdeb163c	-0.1147885
247	0xbc02ac6d	-0.00797568
248	0xbd8b2565	-0.06794242
249	0xbe17f69f	-0.14840172
250	0xbdb49a60	-0.08818507
251	0x3bb576e1	0.005537853
252	0xbe26437c	-0.16236681
253	0xbd0e8846	-0.03479793
254	0x3e216130	0.1575973
255	0x3e1add48	0.15123475

weight_hh f4 [300, 100]
0	0xbd512541	-0.05106092
1	0x3d25e8b1	0.040505115
2	0xbdcc9d9c	-0.09990999
3	0x3db771ad	0.08957229
4	0xbd9b2504	-0.075754195
5	0xbc74a30d	-0.014931452
6	0x3de47c21	0.11156488
7	0x3da45487	0.08023935
8	0xbd26a768	-0.040686995
9	0xbcd89134	-0.026436426
10	0xbca8ef7e	-0.020622011
11	0x3d588d94	0.052869394
12	0x3db1837f	0.08667659
13	0x3e274fa8	0.1633898
14	0xbdb1afc6	-0.08676104
15	0xbce3f91b	-0.027828744
16	0x3c735a1b	0.014853026
17	0xbd33936e	-0.04384177
18	0x3cde7a76	0.027158003
19	0x3d677e8e	0.056517176
20	0x3da16030	0.078796744
21	0xbd83f2d8	-0.06442803
22	0xbc32d9df	-0.010916202
23	0xbd1c8085	-0.038208503
24	0x3d0eec85	0.03489353
25	0xba5be810	-0.0008388767
26	0x3d92efc1	0.07174636
27	0x3e045963	0.12924723
28	0xbc7cab69	-0.015421727
29	0xbd39b45b	-0.045338016
30	0xbdd1e6c5	-0.10249094
31	0x3d4aad53	0.0494817
32	0x3af79980	0.0018890351
33	0xbdd23269	-0.10263521
34	0x3dd3d2e2	0.10342957
35	0x3d6d53e1	0.05794132
36	0xbd7a79c3	-0.061151277
37	0x3dd57c14	0.10424057
38	0x3d2348fe	0.039864533
39	0xbcf6aaed	-0.0301108
40	0x3d5ed81c	0.054405317
41	0x3c940810	0.01807025
42	0xbdc6da73	-0.09709635
43	0xbd67375b	-0.056449275
44	0x3dc284db	0.094979964
45	0x3c965369	0.01835032
46	0xbd9ece3d	-0.077541806
47	0x3cfb7f5a	0.030700374
48	0x3b05aa89	0.0020395836
49	0x3d1865a2	0.0372063
50	0xbd9153bd	-0.0709605
51	0xbdaf4df9	-0.08559794
52	0xbd84acb4	-0.06478253
53	0xbd71d903	-0.05904485
54	0xbdf0271c	-0.117262095
55	0x3e201bf9	0.1563567
56	0x3df18870	0.117936015
57	0x3cefe49f	0.02928382
58	0x3c874ab7	0.016515119
59	0x3cb50728	0.022098139
60	0xbd97c15b	-0.074099265
61	0xbb93ac2d	-0.004506609
62	0x3d80c93b	0.06288382
63	0x3bd5f683	0.0065296306
64	0xbdbe6ba2	-0.09297873
65	0xbdf2e291	-0.1185962
66	0xbda7386e	-0.0816506
67	0xbddf8e63	-0.1091583
68	0x3c038c8a	0.008029113
69	0xbd368cef	-0.044568
70	0x3d360c17	0.044445124
71	0xbd182bf7	-0.037151303
72	0x3d3bab5f	0.04581773
73	0xbdf3fa4a	-0.11912973
74	0xbbc8dbe0	-0.006129727
75	0xbd9c6020	-0.07635522
76	0x3d1890dc	0.037247524
77	0xbd8a9a80	-0.0676775
78	0xbd1e1381	-0.03859282
79	0xbbadf913	-0.005309233
80	0x3d22c550	0.039738953
81	0x3cd6bf72	0.026214335
82	0xbbbb9a39	-0.005725172
83	0x3dab7cb4	0.083733946
84	0x3de20792	0.110366
85	0x3dbeb215	0.0931131
86	0xbc11d1b8	-0.0089000985
87	0xbce7227a	-0.028214682
88	0x3d2fd239	0.042925093
89	0xbcee69d0	-0.02910319
90	0x3d3bd9ea	0.045862116
91	0x3d9354d8	0.07193917
92	0xbd5613af	-0.052264865
93	0xbd8abf83	-0.06774809
94	0xbdd5ff98	-0.10449141
95	0x3dc1b7ca	0.09458883
96	0xbd01e78d	-0.031714965
97	0x3d7953ec	0.06087105
98	0x3e0b454f	0.13600658
99	0x3cd76240	0.026291966
100	0xbd484f59	-0.048903797
101	0xbda2cc74	-0.079491526
102	0x3c927d31	0.017881962
103	0x3b935b17	0.0044969427
104	0x3d9f8c92	0.077904835
105	0x3d9c1035	0.07620279
106	0xbd7eed4d	-0.062238026
107	0x3ce32fd7	0.027732773
108	0x3d2f47b2	0.042792983
109	0xbd9541b8	-0.072879255
110	0x3c894552	0.016756687
111	0xbcef8135	-0.029236415
112	0x3ba9beb2	0.0051802034
113	0x3d11fbcc	0.035640523
114	0x3bdb7efc	0.0066984873
115	0xbe04b47e	-0.12959477
116	0x3dcdc931	0.1004814
117	0xbdb8ed23	-0.09029605
118	0x3e1609bd	0.14652152
119	0xbd6620b3	-0.05618353
120	0x3d42cff9	0.04756162
121	0xbc1c3ee4	-0.009536479
122	0xbd8dbe51	-0.069210656
123	0x3d964718	0.07337779
124	0x3d308594	0.04309614
125	0x3de8d77f	0.113692276
126	0x3cdb1a26	0.026745867
127	0x3d4b1682	0.049582012
128	0xbdfe4f4c	-0.124174684
129	0x3dce4d6f	0.10073363
130	0x3df248cc	0.11830291
131	0xbdfc604d	-0.123230554
132	0x3d9b25d8	0.075755775
133	0xbc423dd5	-0.011855562
134	0xbe0c829e	-0.13721702
135	0xbd6d56ea	-0.057944216
136	0xbdd3542e	-0.103187904
137	0x3cd6905f	0.026191888
138	0xbdc4ab4f	-0.09602987
139	0x3deee5a7	0.116648965
140	0xbdbf75cd	-0.093486406
141	0xbce30cf1	-0.027716132
142	0x3d0884d9	0.03332982
143	0xbd1fa559	-0.038976047
144	0xbcebb02d	-0.02877053
145	0x3d9dab51	0.07698692
146	0x3d9ebc08	0.07750708
147	0x3d8b9558	0.068155944
148	0x3c91ee6e	0.017813887
149	0x3d8c4c9e	0.06850551
150	0x3d7552b4	0.059893325
151	0xbda12d0d	-0.07869921
152	0x3dbfda9d	0.09367869
153	0x3d25c326	0.04046931
154	0x3cec39ee	0.028836217
155	0xbe05f21f	-0.13080643
156	0xbbe326cc	-0.006932115
157	0x3dd09df7	0.101863794
158	0xbb8fda7c	-0.004390059
159	0xbc41b5e5	-0.011823152
160	0xbd2b273b	-0.04178546
161	0xbd08fb8a	-0.03344301
162	0x3d6cbec1	0.057799105
163	0xbdffec8e	-0.12496291
164	0xbe0de5db	-0.13857214
165	0x3b78ca07	0.0037962215
166	0x3d90c52f	0.0706886
167	0xbcab9552	-0.020945225
168	0x3c4210d7	0.011844835
169	0x3cbf9149	0.023384707
170	0xbddb7bf5	-0.10717002
171	0xbdf1914c	-0.11795291
172	0xbd917e5d	-0.0710418
173	0x3d98da28	0.07463485
174	0x3cc42623	0.023943966
175	0x3daf0448	0.085457385
176	0x3cb3c1eb	0.021943053
177	0xbd857a07	-0.065174155
178	0x3e0dac82	0.13835338
179	0xbc6e059b	-0.014527704
180	0x3d167182	0.036729343
181	0x3d810218	0.062992275
182	0x3d806663	0.06269529
183	0xbcd3d63e	-0.025858995
184	0xbde66fb5	-0.11251775
185	0xbc9db711	-0.019252332
186	0xbd90cc6b	-0.0707024
187	0xbd47b09f	-0.048752423
188	0xbd18f98b	-0.037347358
189	0x3de3f6e7	0.11131077
190	0x3d797089	0.060898338
191	0xbdc5e654	-0.09663072
192	0x3e055d9a	0.13023987
193	0xbd86c701	-0.06580926
194	0xbca5b99f	-0.020230113
195	0x3d821472	0.06351556
196	0xbcee2cb6	-0.029074054
197	0x3de70461	0.11280132
198	0xbd8c1473	-0.06839838
199	0x3dc53ae5	0.09630374
200	0xbcfebd48	-0.031096116
201	0xbe1cd67f	-0.15316199
202	0x3dcf711a	0.10128994
203	0x3d83642f	0.06415593
204	0xbcb45897	-0.0220149
205	0x3dbfbbd7	0.093619995
206	0xbcc95f36	-0.024581533
207	0x3d86b633	0.065777205
208	0x3bcbb57f	0.0062167044
209	0xbd849705	-0.06474117
210	0xbc973706	-0.018458854
211	0xbc094364	-0.008377884
212	0xbc665a28	-0.014059581
213	0xbd54ec17	-0.051982965
214	0x3c7f1152	0.015568094
215	0xbd90d89d	-0.07072566
216	0x3d2d846f	0.042362627
217	0xbd6c49fc	-0.057687744
218	0x3c959b0e	0.018262412
219	0x3cf97375	0.030450562
220	0xbdafb7fb	-0.08580013
221	0x3cffb905	0.031216154
222	0xbd2f3eb1	-0.042784397
223	0x3db8a180	0.09015179
224	0xbe0047ce	-0.12527391
225	0x3c7d55ab	0.015462319
226	0x3d05522e	0.032549076
227	0xbdeee7be	-0.11665295
228	0x3bd1b580	0.0063998103
229	0x3da78882	0.08180334
230	0x3ded674f	0.1159197
231	0x3d282a2a	0.041055836
232	0x3d89076a	0.06690867
233	0x3d4f86a1	0.0506655
234	0xbe10cc1e	-0.14140365
235	0xbd6d327c	-0.057909474
236	0xbdf60d1e	-0.12014221
237	0x3d11bcb5	0.035580356
238	0xbcc0a77e	-0.023517366
239	0xbd1064c0	-0.035252333
240	0x3cdef47a	0.027216185
241	0x3b1e77d5	0.0024180312
242	0x3ddc433f	0.10755014
243	0x3e121746	0.1426669
244	0x3d9bbe20	0.07604623
245	0x3c90df68	0.017684653
246	0x3d1fb4e5	0.038990874
247	0x3e08e0ab	0.13366954
248	0x3d7f7ab1	0.062372867
249	0x3d4955bd	0.049154032
250	0x3d9e8e6f	0.07742011
251	0x3c8c8633	0.017153835
252	0xbbfd0c5f	-0.007722422
253	0x3e096f38	0.13421333
254	0xbd1d0cab	-0.03834216
255	0x3cffbd4e	0.031218197

bias_ih f4 [300]
0	0xbdd943b9	-0.1060862
1	0x3dd63cc6	0.1046081
2	0x3db2659e	0.08710788
3	0xbd916803	-0.07099917
4	0x3d343897	0.04399928
5	0xbc7c0908	-0.015383013
6	0x3e057cf8	0.13035953
7	0x3d342f4b	0.043990415
8	0x3d4eea07	0.050516155
9	0x3d6715ca	0.056417264
10	0x3d2a6ade	0.041605823
11	0x3d904fdb	0.07046481
12	0xbbc3f507	-0.0059801373
13	0x3b9651ef	0.004587404
14	0xbde25a21	-0.11052347
15	0xbd0250f8	-0.0318155
16	0xbbadc640	-0.0053031743
17	0x3db97fd8	0.090575874
18	0x3dd215db	0.10258075
19	0x3ca63242	0.020287637
20	0x3cb54392	0.022126947
21	0xbda7a758	-0.08186215
22	0x3bc7b56e	0.006094626
23	0x3db7616d	0.08954129
24	0xbd86b76e	-0.06577955
25	0xbdacfe81	-0.0844698
26	0xbda4effc	-0.08053586
27	0x3d849461	0.064736135
28	0xbdfb1635	-0.12260095
29	0xbe189324	-0.1489988
30	0x3d8aafac	0.06771788
31	0x3dbe9909	0.09306533
32	0x3c47c2f0	0.012192473
33	0x3da9f2bc	0.08298251
34	0x3d5d330d	0.054003764
35	0xbd5b313b	-0.053513747
36	0x3dc4fe4f	0.09618818
37	0xbcb98d03	-0.022650247
38	0x3c1d386f	0.009595974
39	0xbd93b2ff	-0.07211875
40	0x3da9d955	0.08293406
41	0xbd6e95e7	-0.058248427
42	0xbd0c43b2	-0.034244247
43	0xbd3e866b	-0.04651491
44	0xbdc16a54	-0.094441086
45	0x3dcf2100	0.10113716
46	0xbcf82102	-0.030289177
47	0xbd99e409	-0.075141974
48	0xbd8a3758	-0.06748837
49	0x3d597d59	0.053098056
50	0xbd744521	-0.05963624
51	0xbd7f4d5f	-0.062329646
52	0xbd077186	-0.03306725
53	0x3d6c15ff	0.057638165
54	0x3d0e1c06	0.034694694
55	0x3dd7ef8b	0.10543736
56	0xbe013cb4	-0.12620813
57	0xbd0e9f25	-0.03481974
58	0x3c995b75	0.018720368
59	0x3df9af71	0.12191666
60	0xbd920819	-0.07130451
61	0x3c6b734f	0.014370753
62	0xbbdd734d	-0.0067581297
63	0x3dbe4e8a	0.09292324
64	0xbdf1c832	-0.11805762
65	0x3dec6f41	0.115446575
66	0xbd874c39	-0.06606335
67	0x3de950a0	0.11392331
68	0x3b6c7db0	0.0036085658
69	0x3c4216f7	0.011846296
70	0x3d88c749	0.066786356
71	0xbd11c044	-0.03558375
72	0x3c9585fc	0.018252365
73	0x3d55ee44	0.05222918
74	0x3e0cbb3d	0.137433
75	0x3debc894	0.115128666
76	0x3da0d5d3	0.07853284
77	0xbd476004	-0.048675552
78	0x3de87a38	0.113514364
79	0xbb8d734c	-0.004316723
80	0x3e0c9ba7	0.13731252
81	0x3dc45eb0	0.09588373
82	0xbdad764d	-0.0846983
83	0x3d393cef	0.045224126
84	0x3d5d2934	0.053994372
85	0x3b9a1a1a	0.0047028186
86	0xbce57bf4	-0.028013207
87	0xbd30c532	-0.04315681
88	0xbd7c90c8	-0.06166151
89	0xbd786d8c	-0.060651347
90	0xbb9e7c65	-0.0048366063
91	0xbdbde29b	-0.09271737
92	0x3c1984e4	0.0093700625
93	0xbc58f824	-0.013242755
94	0xbd0805bc	-0.033208594
95	0xbd391326	-0.045184277
96	0xbdbb2cc0	-0.09139395
97	0xbc62d302	-0.0138442535
98	0x3d039050	0.03212005
99	0xbc7d7aae	-0.015471144
100	0xbd4cd82f	-0.050010856
101	0xbd99d08f	-0.075104825
102	0xbdb9ee3b	-0.09078642
103	0xbe204ac1	-0.15653516
104	0xbe0db03b	-0.13836758
105	0xbd9179db	-0.0710332
106	0xba6c8e73	-0.0009023912
107	0xbd8952ed	-0.0670527
108	0x3beacc9b	0.007165504
109	0xbddef0de	-0.108857855
110	0x3d1e52bd	0.038653124
111	0x3e01f9d9	0.12692966
112	0xbce5ec27	-0.028066708
113	0xbd0f566d	-0.03499453
114	0xbd7c699b	-0.06162415
115	0xbdd1f8e6	-0.10252552
116	0xbdde04b2	-0.10840739
117	0xbd5b2b06	-0.053507827
118	0xbb0028ea	-0.0019555637
119	0x3d340341	0.043948416
120	0xbe110d47	-0.14165221
121	0x3cf6a4c7	0.030107869
122	0xbda28b3f	-0.07936715
123	0xbc84ff05	-0.016234884
124	0xbda682f4	-0.08130446
125	0xbdbeba2f	-0.093128555
126	0xbd373636	-0.044729434
127	0xbe09a9cd	-0.1344368
128	0xbc9e9fd0	-0.019363314
129	0xbdd6f635	-0.10496179
130	0xbdc967ba	-0.098342374
131	0xbd95c3ea	-0.07312758
132	0x3c78e064	0.015190218
133	0xbd185466	-0.037189864
134	0xbd04c842	-0.032417543
135	0x3c843c95	0.016142169
136	0xbdd278a7	-0.10276919
137	0x3d773197	0.060350027
138	0xbcd3262e	-0.025775041
139	0xbe0ab721	-0.1354642
140	0xbd2e91f2	-0.042619653
141	0xbce0386b	-0.027370652
142	0xbd6155e2	-0.055013545
143	0x3cad2a38	0.021138296
144	0xba44658e	-0.00074919395
145	0xbe029ee3	-0.12755923
146	0xbde26d80	-0.11056042
147	0x3dad9f07	0.08477598
148	0xbdeaf70a	-0.114729
149	0x3c398f92	0.011325734
150	0xbdb1958d	-0.08671103
151	0x3d0e2969	0.03470746
152	0x3d7876d3	0.060660195
153	0xbdd2d35f	-0.10294222
154	0xbc754cf3	-0.014971959
155	0xbd859da6	-0.0652421
156	0x3d2c477b	0.042060357
157	0xbb671cec	-0.0035265042
158	0xbd16a416	-0.03677758
159	0xbda84229	-0.08215744
160	0xbdce4703	-0.10072138
161	0x3ba85e39	0.0051381853
162	0xbd69c359	-0.057071064
163	0x3d18501f	0.037185784
164	0x3ccd9bfb	0.025098791
165	0x3d7a72d7	0.061144676
166	0x3cfd65b2	0.030932281
167	0x3b657021	0.003500946
168	0x3cd85787	0.026408924
169	0xbbfe1230	-0.007753633
170	0x3d911f19	0.070860095
171	0x3cf9b056	0.030479591
172	0xbd95627a	-0.072941735
173	0xbcc39dac	-0.023878895
174	0x3cd36c16	0.025808375
175	0x3c841e95	0.016127864
176	0x3d3afe28	0.04565254
177	0x3c9c50a5	0.019081423
178	0xbddbb9a2	-0.10728766
179	0xbcdd1c66	-0.02699108
180	0xbc807414	-0.01568035
181	0x3d29d52c	0.041463062
182	0xbdd2f733	-0.10301056
183	0xbd3d9eb5	-0.046293933
184	0x3c145ce0	0.009055346
185	0xbe09ce6e	-0.13457653
186	0xbe4196e7	-0.18905221
187	0xbd6642b4	-0.056215957
188	0xbdaf93fd	-0.085731484
189	0xbe1db4d6	-0.15401015
190	0xbcf6f9a8	-0.030148342
191	0xbda25035	-0.079254545
192	0xbc3dd7d9	-0.011587107
193	0xbd4c5aaf	-0.04989117
194	0xbd3f78a0	-0.046745896
195	0xbdaac2a9	-0.0833791
196	0x3d2644e6	0.04059305
197	0xbae456e0	-0.001742091
198	0xbe2c9136	-0.16852269
199	0xbe23fb09	-0.16013731
200	0x3db42ea8	0.087979615
201	0xbd8ea355	-0.06964747
202	0x3dd5b6de	0.1043527
203	0x3d5ef67d	0.05443429
204	0x3dd101d6	0.10205428
205	0x3d9624cc	0.07331237
206	0x3dec836b	0.115485035
207	0x3d84dce7	0.06487446
208	0xbcadef0e	-0.021232154
209	0xbcc9075b	-0.02453964
210	0x3c24c7f7	0.010057441
211	0x3d8a4bc4	0.067527324
212	0xbc269537	-0.0101674115
213	0x3d6f2e8b	0.058393996
214	0xbdd4383c	-0.10362288
215	0xbdb5fd63	-0.0888622
216	0xbd6b9a87	-0.057520416
217	0x3dc88492	0.09790911
218	0x3da82f9b	0.08212205
219	0xbd8955b0	-0.06705797
220	0x3d77d287	0.06050351
221	0x3dda474b	0.10658129
222	0x3d1cbcd8	0.038266033
223	0x3dab7013	0.08370986
224	0xbc892784	-0.016742475
225	0x3d7e6add	0.06211363
226	0xbd27584a	-0.040855683
227	0x3a55ecea	0.0008160608
228	0xbd99b726	-0.07505636
229	0x3da06ec5	0.078336276
230	0xbd047a82	-0.032343395
231	0xbd3f2ea6	-0.046675347
232	0xbdccd28e	-0.100010976
233	0xbcac0ec2	-0.02100313
234	0x395e2f76	0.0002118925
235	0xbd9e6d57	-0.07735699
236	0xbdb62542	-0.08893825
237	0xbd65f073	-0.056137513
238	0xbd785af7	-0.060633626
239	0xbd6b8107	-0.057496097
240	0x3d5b3afa	0.05352304
241	0xbd854b32	-0.06508483
242	0x3dd39cfc	0.10332677
243	0x3d38b59a	0.045095064
244	0x3c822d7a	0.015890826
245	0x3c75f7fc	0.015012737
246	0x3d5ee419	0.05441675
247	0x3d060d68	0.03272763
248	0x3d99f80d	0.07518015
249	0xbba5c810	-0.0050592497
250	0x3d7ccfd8	0.061721653
251	0xbd9dcc07	-0.07704931
252	0x3db154f9	0.086587854
253	0xbce4afc4	-0.027915843
254	0x3c9629ab	0.018330416
255	0xbdc824a4	-0.09772614
