data/RNN_runs/sweep_H2/rnn_sto3g_H2_0-7348_eq1_nU50_nL1_lr00025_lrsC_ns10000.pt (torch_old, 452422 bytes, 9 tensors)

weight_ih f4 [150, 2]
-0.20523435 0.2658821 0.060214806 0.25627726 -0.18285075 0.3456796 0.39245662 -0.572742
0.39868912 -0.3370361 0.39822555 -0.36774975 0.07120454 0.2765367 0.5238796 -0.4890782
0.04067044 0.44825578 0.54823065 -0.3471672 0.24645698 -0.040913023 -0.40705234 0.50114965
0.317988 -0.1836364 0.4159639 -0.4066124 0.68909246 -0.47405496 0.3466221 0.2660933
0.70718795 -0.4308661 0.59731454 -0.48731917 -0.3029602 0.2280265 0.31266966 -0.22933501
0.13695909 0.060697254 0.12432778 0.07705441 0.46779728 -0.30569056 -0.07710852 0.16788545
0.40491483 -0.15605944 0.51585317 -0.1455529 0.045741554 0.21788971 0.55172855 -0.621627
0.31618518 -0.047890216 0.16082887 0.06431015 0.49251848 -0.06283995 0.33276743 -0.52222085
-0.56393415 0.50903875 0.56440455 -0.5187611 0.28472522 -0.24366908 0.63755476 -0.4206641
-0.16161431 0.10508903 0.626789 -0.380296 0.55913115 -0.45328876 0.35987604 0.13757347
0.53282875 -0.25182247 0.49213806 -0.24054632 -0.38069662 0.31921825 0.05899106 0.23364958
0.3368061 0.4196063 0.38707986 -0.3607727 0.24471496 0.22007851 0.13517928 0.36870196
0.52053046 -0.13969722 0.64368373 -0.40510455 0.17110293 -0.34222087 -0.1516426 -0.4582463
-0.0037127608 -0.22094654 -0.13646469 0.027776767 -0.23989981 -0.03229721 -0.2022444 -0.063247524
-0.25091615 -0.51962626 -0.36844975 -0.013297653 -0.30120876 -0.40110734 -0.278186 0.14215463
-0.16769667 -0.075102516 0.15785353 -0.19800065 -0.1770063 -0.13139965 -0.15991762 0.09137453
-0.21934111 0.21217985 -0.29842725 -0.32694012 -0.2926598 -0.1687595 -0.2700052 -0.098579325
0.15777382 -0.18122666 -0.23889026 -0.10078111 -0.14065674 -0.32889634 -0.038679607 0.05104381
-0.23799299 -0.05883048 -0.08715085 -0.16169462 -0.16850108 -0.1786338 -0.37460098 0.020893903
0.015252981 0.013280182 -0.22265637 0.11980681 -0.33929655 -0.001766698 -0.42474827 -0.115731515
-0.23303275 0.12988354 -0.35878792 0.16432334 0.27607587 -0.007062049 -0.3074971 0.110026605
-0.15252085 0.07975655 -0.26477647 -0.11731491 0.03604199 -0.17747623 -0.39642394 0.008286494
-0.4523668 -0.12894088 -0.2232063 -0.43832025 -0.290775 -0.020923061 -0.18565343 -0.1425098
-0.17089215 -0.1940639 -0.2646091 -0.14071491 -0.19366595 -0.6809774 -0.35138226 -0.23261285
-0.18742222 0.060811862 -0.34986898 -0.6358099 -0.18761364 -0.12647827 -0.094575055 0.014722088
0.05851733 -0.21213101 -0.042834807 -0.34429228 -0.08365106 -0.2394914 0.2279395 -0.2987646
-0.3905737 0.42367962 -0.3279193 0.27323592 -0.03905903 -0.43800154 0.44684672 -0.41394174
0.057373676 0.24550007 -0.39845186 0.33185288 0.085716784 -0.3945065 -0.26438496 0.19477163
0.48995668 -0.44772765 0.25944823 -0.4668029 -0.24923375 0.33059895 0.12228956 0.17683117
0.23075174 -0.029278811 0.28230128 -0.44435078 0.21734516 -0.19377264 -0.49247515 0.39864376
0.16831127 0.16522865 0.15558183 -0.25672114 0.38505328 -0.23772652 0.16823544 -0.33444244
-0.17467819 0.3119273 0.42935315 -0.37621242 0.09809734 0.08766151 -0.39007574 0.34061015
00000000: f428 52be b321 883e cda3 763d c636 833e
00000010: 3a3d 3bbe ebfc b03e 13f0 c83e 389f 12bf
00000020: fb20 cc3e ff8f acbe 38e4 cb3e b249 bcbe
00000030: b0d3 913d 3896 8d3e f91c 063f 7568 fabe
00000040: 0c96 263d c881 e53e d858 0c3f e6bf b1be
00000050: 385f 7c3e 6a94 27bd 2a69 d0be 584b 003f
00000060: 53cf a23e 2e0b 3cbe 38f9 d43e 802f d0be
00000070: 5d68 303f 55b7 f2be 7478 b13e 623d 883e
00000080: 450a 353f 7b9a dcbe 9be9 183f e681 f9be
00000090: 991d 9bbe c77f 693e 3d16 a03e ccd6 6abe
000000a0: 013f 0c3e af9d 783d 909f fe3d b4ce 9d3d
000000b0: 2083 ef3e 7983 9cbe 12eb 9dbd 2aea 2b3e
000000c0: ff50 cf3e 0cce 1fbe f40e 043f d20b 15be
000000d0: 7f5b 3b3d 7b1e 5f3e 153e 0d3f f222 1fbf
000000e0: 06e3 a13e 8828 44bd 53b0 243e 0ab5 833d
000000f0: 622b fc3e 3bb2 80bd 7e60 aa3e 44b0 05bf
00000100: fd5d 10bf 5d50 023f d17c 103f 87cd 04bf
00000110: 81c7 913e 6384 79be ca36 233f 4961 d7be
00000120: 397e 25be eb38 d73d 3e75 203f 28b6 c2be
00000130: 3823 0f3f 7715 e8be ac41 b83e 0fe0 0c3e
00000140: 7767 083f e0ee 80be 85f9 fb3e c651 76be
00000150: abea c2be 9370 a33e 9ca0 713d d641 6f3e
00000160: d971 ac3e a3d6 d63e 552f c63e 33b7 b8be
00000170: 8f96 7a3e 435c 613e 706c 0a3e 81c6 bc3e
00000180: 7c41 053f ca0c 0fbe 75c8 243f dd69 cfbe
00000190: 9b35 2f3e 9337 afbe 3348 1bbe 429f eabe
000001a0: ca51 73bb cf3f 62be 66bd 0bbe 1a8c e33c
000001b0: 4ca8 75be 144a 04bd 2819 4fbe eb87 81bd
000001c0: 1578 80be 3a06 05bf 72a5 bcbe 66de 59bc
000001d0: 0938 9abe f15d cdbe 656e 8ebe fc90 113e
000001e0: adb8 2bbe 59cf 99bd 5ba4 213e afc0 4abe
000001f0: 2441 35be a18d 06be 72c1 23be 9222 bb3d
00000200: f59a 60be ad45 593e 75cb 98be b264 a7be
00000210: 81d7 95be 4acf 2cbe 1f3e 8abe f5e3 c9bd
00000220: 768f 213e 7b93 39be a69f 74be 5466 cebd
00000230: 5208 10be 1a65 a8be 826e 1ebd 5013 513d
00000240: 6fb4 73be 3bf8 70bd 257c b2bd 4693 25be
00000250: 8c8b 2cbe c7eb 36be b3cb bfbe b129 ab3c
00000260: a4e7 793c 1f95 593c 0800 64be 465d f53d
00000270: 47b8 adbe 8c90 e7ba 9b78 d9be a504 edbd
00000280: 23a0 6ebe 3100 053e 0db3 b7be 6144 283e
00000290: d159 8d3e c368 e7bb 4370 9dbe a155 e13d
000002a0: 6d2e 1cbe 6757 a33d c890 87be cd42 f0bd
000002b0: c4a0 133d 54bc 35be 14f8 cabe 13c4 073c
000002c0: 9f9c e7be 1409 04be 3190 64be 836b e0be
000002d0: 76e0 94be d766 abbc ef1b 3ebe 17ee 11be
000002e0: 5afe 2ebe b0b8 46be d87a 87be 9217 10be
000002f0: 5e50 46be 8954 2ebf 60e8 b3be 1032 6ebe
00000300: 9ceb 3fbe dc15 793d 0722 b3be 70c4 22bf
00000310: ca1d 40be 8583 01be 91b0 c1bd ea34 713c
00000320: deaf 6f3d df38 59be 8d73 2fbd 1447 b0be
00000330: 3f51 abbd 3c3d 75be f968 693e acf7 98be
00000340: 47f9 c7be 89ec d83e 0ae5 a7be 94e5 8b3e
00000350: 5dfc 1fbd bd41 e0be 18c9 e43e 2cf0 d3be
00000360: a900 6b3d 5f64 7b3e e201 ccbe 9fe8 a93e
00000370: 488c af3d c2fc c9be 775d 87be 3772 473e
00000380: 9adb fa3e 8f3c e5be 66d6 843e ca00 efbe
00000390: 2237 7fbe 4444 a93e f372 fa3d 3b13 353e
000003a0: 2f4a 6c3e 1eda efbc cb89 903e f281 e3be
000003b0: bb8f 5e3e 566c 46be b425 fcbe 091b cc3e
000003c0: ca59 2c3e b331 293e d850 1f3e f470 83be
000003d0: b425 c53e 956e 73be e945 2c3e 0a3c abbe
000003e0: d7de 32be efb4 9f3e 2dd4 db3e ea9e c0be
000003f0: 42e7 c83d e187 b33d 02b8 c7be 7464 ae3e

weight_hh f4 [150, 50]
-0.072492324 -0.04040409 0.051337272 -0.005032597 -0.13572106 -0.017098777 -0.11826089 0.031693436
0.03679506 0.0585328 -0.037303604 0.10520348 -0.04553215 0.1399644 -0.075841114 0.17947249
0.122832604 0.053977646 -0.009503531 -0.08416475 0.0008281157 -0.105322346 0.13475703 0.026532507
0.13383415 0.045848265 0.13257933 0.01885905 0.033546004 0.13444231 -0.16759919 -0.27106595
-0.12659621 0.08320198 0.096633136 0.009726361 -0.016811144 -0.075134374 0.16405392 -0.055755097
-0.02346343 0.10475003 -0.017877167 -0.022993077 0.015825043 0.031327944 -0.21029583 -0.028371567
0.094447106 0.07739017 -0.020825619 -0.29755944 -0.025714591 -0.12700094 0.12861243 0.16217057
-0.33930928 -0.06742747 0.36421067 0.10183296 0.07965054 0.20022613 -0.1909614 0.019525953
-0.014887004 0.4110628 0.33254015 0.029729212 -0.018966407 0.0053476165 0.25849876 -0.09664665
0.05645102 -0.012567738 -0.03464695 -0.13742942 0.10871184 0.1449022 -0.23632163 0.25790083
0.18988857 0.22940543 0.0080621 0.13945575 -0.21187343 0.17141527 0.013600117 -0.19766092
-0.11490866 -0.21200663 -0.007859151 -0.1365637 0.036983218 0.14136077 0.38786882 -0.18229897
-0.3882717 -0.17951083 -0.20081913 -0.04918953 0.040381003 -0.19791022 -0.19573647 0.044382643
-0.09721993 -0.0001078281 0.030184489 0.015210874 0.27203295 0.14892079 0.039509453 0.10902168
-0.08245871 0.04827515 -0.06404027 0.053237062 0.06784488 0.11959207 -0.06788101 0.035642803
0.18160953 -0.055815756 0.06773024 -0.17836426 -0.07217271 0.008873451 0.1640882 0.16549975
0.07807622 0.19446728 -0.24610715 -0.13020045 -0.08744621 -0.03139846 -0.02220687 0.12343904
0.07102195 -0.08759824 0.12657493 -0.20639354 0.056142062 0.09754783 -0.019265609 -0.040735807
0.1814435 -0.16497226 -0.09301981 -0.2318312 -0.16021293 0.09103352 -0.038329568 -0.13591506
0.04518006 0.097876005 -0.11444743 -0.12041846 -0.102447696 0.26220953 -0.13897356 -0.011568929
0.14418578 -0.14672208 0.12441794 0.04514143 0.02616425 0.10504305 0.18544997 0.31441647
-0.12912618 -0.09646429 -0.0853258 -0.0077522187 0.043092392 -0.11966242 -0.15488286 0.052341644
-0.09404816 -0.21256986 0.122171216 0.17364253 -0.25462952 -0.34748495 -0.15555309 -0.016436158
-0.014270077 -0.14859374 -0.11712456 0.1830206 0.25205362 -0.055298366 0.04109308 0.11502022
-0.009123845 0.1225294 0.08915625 -0.0037699929 -0.08174242 -0.056800738 0.095860474 -0.0012010379
-0.055222183 0.028779166 0.006591652 0.07966392 -0.21085674 -0.14624971 -0.041484803 0.1956489
-0.01989642 0.10057728 0.14435951 -0.039832693 0.12768202 -0.043827016 -0.05764066 -0.036027875
-0.09459862 0.13732697 0.08566232 -0.14208305 -0.022472408 -0.03146524 -0.055866715 -0.0016149334
-0.094343804 0.2565261 -0.074631654 -0.13251598 0.15550032 0.017570524 0.022087626 -0.03931794
0.3027586 -0.06050505 0.07298284 -0.19195588 0.08607939 0.1483985 -0.006962167 0.07343821
0.18321255 0.10493445 0.05118232 0.08508737 -0.12019285 0.07016806 0.12591468 0.03460657
0.0656061 -0.017354261 -0.037700232 0.014415408 0.07515983 0.0534525 -0.21777928 -0.011266303
00000000: db76 94bd c27e 25bd 0847 523d 7ce8 a4bb
00000010: 76fa 0abe bc12 8cbc c432 f2bd fad0 013d
00000020: 6bb6 163d 17c0 6f3d aacb 18bd ec74 d73d
00000030: eb7f 3abd d452 0f3e 9652 9bbd a3c7 373e
00000040: a98f fb3d aa17 5d3d b3b4 1bbc 925e acbd
00000050: e715 593a 3eb3 d7bd bffd 093e b35a d93c
00000060: d20b 093e 64cb 3b3d e0c2 073e 4b7e 9a3c
00000070: 8967 093d 3fab 093e 1f9f 2bbe 28c9 8abe
00000080: 70a2 01be cd65 aa3d 98e7 c53d 515b 1f3c
00000090: 86b7 89bc 0de0 99bd c0fd 273e 755f 64bd
000000a0: 6136 c0bc 2f87 d63d 2373 92bc fa5b bcbc
000000b0: 85a3 813c bb51 003d ca57 57be 7d6b e8bc
000000c0: 7c6d c13d bd7e 9e3d 7d9a aabc b659 98be
000000d0: 68a7 d2bc 890c 02be fab2 033e 0b10 263e
000000e0: f2b9 adbe 6a17 8abd d279 ba3e cd8d d03d
000000f0: d31f a33d 1408 4d3e 638b 43be e4f4 9f3c
00000100: 9fe8 73bc d376 d23e b442 aa3e ad8a f33c
00000110: 705f 9bbc 0f3b af3b f359 843e aeee c5bd
00000120: 2f39 673d eae8 4dbc f6e9 0dbd 4cba 0cbe
00000130: 50a4 de3d 3e61 143e 4cfe 71be 940b 843e
00000140: 2672 423e 42e9 6a3e e616 043c 7dcd 0e3e
00000150: 59f5 58be 7c87 2f3e 06d3 5e3c a067 4abe
00000160: 3b55 ebbd 4418 59be abc3 00bc 5bd7 0bbe
00000170: b77b 173d e1c0 103e be96 c63e 95ac 3abe
00000180: 8ccb c6be b0d1 37be 88a3 4dbe f67a 49bd
00000190: 8d66 253d faa8 4abe 246f 48be 93ca 353d
000001a0: 3e1b c7bd c521 e2b8 7645 f73c 0837 793c
000001b0: e747 8b3e b17e 183e aad4 213d c246 df3d
000001c0: 1de0 a8bd 2abc 453d 8c27 83bd 1b0f 5a3d
000001d0: 42f2 8a3d b0ec f43d 3305 8bbd 30fe 113d
000001e0: d9f7 393e 109f 64bd 27b6 8a3d 1fa5 36be
000001f0: 49cf 93bd f361 113c bd06 283e c478 293e
00000200: 6de6 9f3d 6e22 473e 8303 7cbe 4453 05be
00000210: 0017 b3bd ac9b 00bd 2feb b5bc 9bcd fc3d
00000220: f573 913d b566 b3bd dc9c 013e d458 53be
00000230: 38f5 653d 28c7 c73d e9d2 9dbc 97da 26bd
00000240: 53cc 393e 7dee 28be 2c81 bebd 2865 6dbe
00000250: dc0e 24be c86f ba3d 77ff 1cbd 512d 0bbe
00000260: ba0e 393d 3773 c83d 6a63 eabd f49d f6bd
00000270: 19d0 d1bd 5440 863e 164f 0ebe 9b8b 3dbc
00000280: 70a5 133e 503e 16be d5ce fe3d 38e6 383d
00000290: 6956 d63c d020 d73d 99e6 3d3e 32fb a03e
000002a0: a739 04be 128f c5bd 4bbf aebd 5306 febb
000002b0: a681 303d 9211 f5bd 9d99 1ebe 3164 563d
000002c0: 529c c0bd eaab 59be e734 fa3d 59cf 313e
000002d0: cd5e 82be 8ce9 b1be 4f49 1fbe 1fa5 86bc
000002e0: 0bcd 69bc f528 18be 00df efbd c169 3b3e
000002f0: 2c0d 813e 8a80 62bd 3851 283d b98f eb3d
00000300: 2e7c 15bc b2f0 fa3d 8d97 b63d fc11 77bb
00000310: 9268 a7bd e4a7 68bd 7f52 c43d 256c 9dba
00000320: a830 62bd 49c2 eb3c c9fe d73b d626 a33d
00000330: d4ea 57be 7cc2 15be f8eb 29bd 2f58 483e
00000340: d1fd a2bc 76fb cd3d fbd2 133e 9b27 23bd
00000350: 13bf 023e f583 33bd 9d18 6cbd f791 13bd
00000360: ecbc c1bd 719f 0c3e ba6f af3d 387e 11be
00000370: 0e18 b8bc b2e1 00bd 7fd4 64bd 2cac d3ba
00000380: 5337 c1bd 6457 833e 7bd8 98bd 45b2 07be
00000390: 7a3b 1f3e 0ff0 8f3c 1cf1 b43c d90b 21bd
000003a0: 2d03 9b3e 25d4 77bd 0778 953d 1590 44be
000003b0: 644a b03d c7f5 173e e422 e4bb c666 963d
000003c0: 129c 3b3e dfe7 d63d 8da4 513d 4942 ae3d
000003d0: ab27 f6bd 46b4 8f3d c7ef 003e 9ebf 0d3d
000003e0: 7e5c 863d 862a 8ebc 8f6b 1abd 9a2e 6c3c
000003f0: 66ed 993d 02f1 5a3d 8801 5fbe 4d96 38bc

bias_ih f4 [150]
0.0101756435 0.09617171 0.020734264 0.027644852 -0.007322596 -0.16292106 0.19140081 -0.14310974
0.47353503 -0.07206072 -0.03509948 0.11574374 -0.072484605 -0.06448274 0.035603955 0.41723487
0.1317755 0.011389747 -0.042252313 -0.008242273 0.21078514 -0.008586414 0.11067937 0.02259558
-0.043518085 -0.08891714 0.17775604 0.03638076 0.027169883 0.30106366 0.10568195 -0.10375246
0.008041918 -0.08276143 0.13109124 0.045931097 0.07760072 0.016038127 -0.09207728 0.35868812
-0.052626334 0.074898005 -0.111192234 0.19575213 0.30472577 0.09731143 0.19141926 0.40315396
0.18796062 0.026367625 -0.11831355 -0.37316945 -0.10914942 -0.06582983 -0.36824107 -0.27638707
-0.55653244 -0.23780479 -0.39896074 -0.107864685 -0.255297 -0.019571742 -0.23100664 -0.097311445
-0.14624697 -0.41735578 -0.36815053 -0.21568395 -0.06045087 -0.2360876 -0.40685406 -0.2255255
-0.08622437 -0.05311467 0.023581712 -0.35087842 -0.03275145 -0.34801504 -0.2184558 -0.4324695
-0.1471451 -0.26757616 -0.009939145 -0.095741086 -0.18723205 -0.15851994 -0.15336555 -0.25183412
-0.20805636 -0.5763452 -0.26692197 -0.16640365 -0.26130453 -0.31901893 -0.37250662 -0.13025893
-0.33138496 -0.48446625 -0.3056555 -0.20649122 -0.21694094 -0.2809905 -0.22372283 -0.16143325
0.0007088444 0.18995667 -0.38980258 -0.18938911 0.337602 0.22256988 0.07920894 0.120706335
-0.06908692 0.05784268 -0.024361547 0.3736527 0.234266 -0.024304433 -0.025995526 0.16395184
0.338731 -0.035256285 -0.06986274 -0.060896922 0.08698773 0.006367697 0.07157483 0.27899688
-0.05787912 0.1837319 -0.11942564 -0.07076763 -0.014710991 0.26165727 0.07915379 0.0694529
0.17079179 -0.08691571 -0.24865025 -0.36278582 -0.101435 -0.16989315 0.07044655 0.23893653
0.47078723 -0.14203437 -0.25635976 -0.40172508 -0.22282492 0.024428802
00000000: beb7 263c acf5 c43d e7da a93c 7577 e23c
00000010: 63f2 efbb c7d4 26be 93fe 433e 5c8b 12be
00000020: 2f73 f23e 9294 93bd 79c4 0fbd 0e0b ed3d
00000030: cf72 94bd 870f 84bd 74d5 113d cf9f d53e
00000040: 28f0 063e 109c 3a3c c310 2dbd 990a 07bc
00000050: 0fd8 573e 08ae 0cbc deab e23d 5e1a b93c
00000060: 0540 32bd 311a b6bd ae05 363e fe03 153d
00000070: 6093 de3c 0425 9a3e c76f d83d 2b7c d4bd
00000080: 40c2 033c d37e a9bd c83c 063e 3f22 3c3d
00000090: 20ed 9e3d 6462 833c 0393 bcbd f8a5 b73e
000000a0: b68e 57bd 2064 993d c1b8 e3bd 3f73 483e
000000b0: 0405 9c3e 374b c73d 6903 443e 326a ce3e
000000c0: c078 403e eb00 d83c 604e f2bd 1110 bfbe
000000d0: bb89 dfbd cad1 86bd 188a bcbe 9b82 8dbe
000000e0: e978 0ebf 1983 73be 9544 ccbe 29e8 dcbd
000000f0: 4ab6 82be eb54 a0bc 018d 6cbe 394b c7bd
00000100: c4c1 15be a8af d5be 3a7e bcbe 41dc 5cbe
00000110: 559b 77bd f3c0 71be 2d4f d0be 28f0 66be
00000120: 6796 b0bd c58e 59bd 6f2e c13c 56a6 b3be
00000130: 6226 06bd 072f b2be e1b2 5fbe a46c ddbe
00000140: 35ad 16be beff 88be ccd7 22bc e713 c4bd
00000150: c2b9 3fbe 0d53 22be dc0b 1dbe 67f0 80be
00000160: ba0c 55be 5c8b 13bf ffa9 88be b865 2abe
00000170: b5c9 85be 7356 a3be 30b9 bebe 9962 05be
00000180: 4aab a9be f60b f8be e17e 9cbe 6f72 53be
00000190: c425 5ebe fddd 8fbe 9917 65be c24e 25be
000001a0: bed1 393a 0084 423e 3494 c7be 38ef 41be
000001b0: 2bda ac3e 5ce9 633e 4c38 a23d e234 f73d
000001c0: 717d 8dbd 72ec 6c3d de91 c7bc 684f bf3e
000001d0: 6de3 6f3e 171a c7bc 92f4 d4bc fee2 273e
000001e0: 266e ad3e e568 10bd 3214 8fbd 0d6f 79bd
000001f0: 9f26 b23d 1da8 d03b d395 923d aed8 8e3e
00000200: a812 6dbd 3724 3c3e 6e95 f4bd 9fee 90bd
00000210: 5e06 71bc f1f7 853e 621b a23d 523d 8e3d
00000220: 0be4 2e3e dd00 b2bd 2c9e 7ebe 10bf b9be
00000230: 27bd cfbd 78f8 2dbe 4846 903d c7ab 743e
00000240: 060b f13e 7571 11be 9641 83be e9ae cdbe
00000250: 372c 64be e91e c83c

bias_hh f4 [150]
0.15469684 0.20719826 0.16157995 0.03037897 0.041811462 0.041535627 0.44437453 0.057457943
0.38855678 -0.015518669 0.08442013 -0.042667035 0.11323925 0.09713694 -0.10868728 0.19570796
0.3533085 -0.21694808 0.16452143 0.08901842 0.108228855 0.13402203 -0.08954671 -0.06960617
0.082831725 -0.14268178 0.18637094 -0.015889645 -0.010394636 0.22690937 0.07516457 -0.041967828
0.019654496 -0.021623753 -0.025270069 0.08027411 -0.013554937 -0.044643197 0.10015645 0.35455158
-0.00955048 -0.06689139 -0.050400116 0.2868348 0.4224023 0.09105574 0.40149853 0.20404138
0.07571115 -0.077690646 -0.11071032 -0.45032367 -0.3380406 -0.17265342 -0.11259207 -0.10552632
-0.3782004 -0.19648398 -0.43027803 -0.093630545 -0.25724918 -0.08279199 -0.26291883 -0.10142004
-0.28370747 -0.27377903 -0.2723516 -0.066501975 -0.2072753 -0.26135382 -0.4754067 -0.03776759
-0.122187115 -0.2961976 -0.029879889 -0.22797817 0.043044537 -0.1782795 -0.13679962 -0.4736699
-0.25076193 -0.2766864 -0.02016072 -0.10474865 -0.086115934 -0.27598703 -0.079343244 -0.10207034
-0.25564325 -0.33795944 -0.14923248 -0.07824554 -0.038089063 -0.46921766 -0.5872066 -0.2609261
-0.4775039 -0.43810022 -0.24746783 -0.18572174 -0.22986828 -0.1777765 -0.17348413 0.049751036
-0.15151867 -0.08816445 -0.45949492 0.12000843 0.42346463 0.00890041 0.023677219 0.14868762
-0.11186955 0.19674625 -0.11517261 0.36150682 0.3514624 0.17497396 -0.15181345 0.014586035
0.2510199 -0.10741309 -0.020725867 -0.064031795 0.033311356 0.0051630964 0.13218427 -0.21655013
-0.14073451 0.25750175 0.056894198 -0.19621 -0.041985422 -0.13108067 0.10149331 -0.21195555
0.13449538 0.16230126 0.09032577 -0.3643084 0.047386993 0.00047842265 0.12442858 0.2319884
0.36630896 0.079941645 -0.34714517 -0.48622045 -0.14975347 0.04385301
00000000: d968 1e3e c82b 543e 3775 253e 51dd f83c
00000010: 7f42 2b3d 4321 2a3d 0f85 e33e 0559 6b3d
00000020: eaf0 c63e 0442 7ebc 76e4 ac3d a1c3 2ebd
00000030: fbe9 e73d bbef c63d 7097 debd ab67 483e
00000040: dae4 b43e a327 5ebe 4e78 283e 4a4f b63d
00000050: 17a7 dd3d 123d 093e 4464 b7bd ae8d 8ebd
00000060: aea3 a93d 2c1b 12be 06d8 3e3e 002b 82bc
00000070: 434e 2abc ee5a 683e e2ef 993d 75e6 2bbd
00000080: 7702 a13c 4c24 b1bc 2d03 cfbc c166 a43d
00000090: 8715 5ebc c9db 36bd d31e cd3d c987 b53e
000000a0: 9e79 1cbc 5afe 88bd 5a70 4ebd 03dc 923e
000000b0: 1d45 d83e 6f7b ba3d 3791 cd3e 39f0 503e
000000c0: 730e 9b3d 461c 9fbd 18bc e2bd d390 e6be
000000d0: a813 adbe 0fcc 30be ac96 e6bd 2f1e d8bd
000000e0: 7ca3 c1be 1933 49be 674d dcbe 5fc1 bfbd
000000f0: 2ab6 83be d98e a9bd 4c9d 86be 4fb5 cfbd
00000100: 1b42 91be c42c 8cbe ab71 8bbe 3032 88bd
00000110: fa3f 54be 2bd0 85be 8268 f3be 30b2 1abd
00000120: 3d3d fabd 36a7 97be abc6 f4bc 1c73 69be
00000130: 784f 303d e78e 36be 3315 0cbe dc84 f2be
00000140: de63 80be d7a9 8dbe 1828 a5bc 7686 d6bd
00000150: 8d5d b0bd 2c4e 8dbe b67e a2bd 410a d1bd
00000160: ace3 82be 0509 adbe 66d0 18be 333f a0bd
00000170: 4703 1cbd 4c3d f0be 2c53 16bf 1b98 85be
00000180: 647b f4be ac4e e0be 3568 7dbe d72d 3ebe
00000190: 9762 6bbe 0b0b 36be d3a5 31be bec7 4b3d
000001a0: b627 1bbe 908f b4bd eb42 ebbe fbc6 f53d
000001b0: 5bd0 d83e 06d3 113c baf6 c13c 9141 183e
000001c0: dd1b e5bd d977 493e 9edf ebbd 6c17 b93e
000001d0: e1f2 b33e 602c 333e fc74 1bbe 44fa 6e3c
000001e0: ae85 803e 65fb dbbd 4bc9 a9bc 1a23 83bd
000001f0: 7d71 083d 312f a93b 505b 073e 51bf 5dbe
00000200: b51c 10be 45d7 833e e409 693d 46eb 48be
00000210: e8f8 2bbd 033a 06be b9db cf3d e00a 59be
00000220: 28b9 093e 4d32 263e b8fc b83d a186 babe
00000230: dd18 423d cdd4 fa39 69d4 fe3d 5e8e 6d3e
00000240: d98c bb3e 72b8 a33d 03bd b1be e3f1 f8be
00000250: f958 19be 379f 333d

weight f4 [2, 50]
0.059974104 0.35866612 0.07944455 -0.27190307 0.44359884 0.43127713 0.2938647 -0.30821413
-0.25130138 0.36410686 -0.24085206 0.12965257 -0.3424906 -0.45449376 0.5489628 -0.33028972
-0.4939542 -0.5014472 -0.2035948 0.40473625 -0.19604489 -0.2683414 -0.49752176 -0.23101844
0.24376877 -0.39101443 0.007365959 0.491754 -0.17990649 -0.131496 0.37611082 0.41700706
-0.31026584 0.281743 -0.49078462 0.42963567 0.041033078 -0.26857316 -0.35087273 0.4270273
-0.3994397 -0.2965342 0.1663425 -0.14864783 -0.3988336 -0.47753683 0.2229739 0.34647015
-0.25731748 0.41286057 0.13683726 -0.11220094 0.0713628 0.34430003 -0.44044036 -0.25183618
-0.32523 0.4381637 0.31012768 -0.2822637 0.374598 -0.27310967 0.31262943 0.5187327
-0.41754782 0.37880564 0.4708249 0.40638995 0.02455867 -0.3017656 0.15876922 0.21150619
0.49737766 0.1792294 -0.2344868 0.23359077 -0.057495207 -0.38947147 0.37804794 0.37366614
-0.39645717 -0.34176293 0.28804904 -0.39488515 0.38777995 -0.4217806 -0.008637248 0.4149164
0.2763142 -0.34260148 0.41669133 0.47338036 -0.28196102 0.22083755 0.2709019 0.2849125
-0.2779485 -0.15923466 0.39231333 -0.30449948
00000000: 68a7 753d 16a3 b73e d3b3 a23d e136 8bbe
00000010: 631f e33e 5bd0 dc3e 6f75 963e 3ece 9dbe
00000020: 93aa 80be 376c ba3e eca1 76be a5c3 043e
00000030: ee5a afbe 68b3 e8be d388 0c3f bc1b a9be
00000040: 91e7 fcbe d85e 00bf 287b 50be 9739 cf3e
00000050: febf 48be 0b64 89be 2cbb febe 1990 6cbe
00000060: 859e 793e 0b33 c8be 255e f13b 2ec7 fb3e
00000070: 6839 38be e3a6 06be 9991 c03e f381 d53e
00000080: 2adb 9ebe 9e40 903e 1f48 fbbe 35f9 db3e
00000090: 4d12 283d 6c82 89be 97a5 b3be 52a3 da3e
000000a0: 5c83 ccbe 55d3 97be b055 2a3e 2337 18be
000000b0: eb33 ccbe b57f f4be 4553 643e 8964 b13e
000000c0: 1ebf 83be 7662 d33e 111f 0c3e 9bc9 e5bd
000000d0: a926 923d 1848 b03e 6681 e1be acf0 80be
000000e0: 8c84 a6be fe56 e03e 0ec9 9e3e de84 90be
000000f0: 4fcb bf3e 08d5 8bbe f710 a03e abcb 043f
00000100: d4c8 d5be d0f2 c13e f60f f13e 5812 d03e
00000110: 442f c93c 0581 9abe 6694 223e 1495 583e
00000120: 49a8 fe3e e987 373e 4f1d 70be 6b32 6f3e
00000130: 1880 6bbd ce68 c7be 808f c13e 2b51 bf3e
00000140: 6ffc cabe 8dfb aebe 2a7b 933e 632e cabe
00000150: 188b c63e a0f3 d7be 3e83 0dbc ec6f d43e
00000160: 0e79 8d3e 7669 afbe 9158 d53e e95e f23e
00000170: 325d 90be 3d23 623e a7b3 8a3e 0de0 913e
00000180: 444f 8ebe 690e 23be 4bdd c83e 5be7 9bbe

bias f4 [2]
-0.033830315 0.1760135
00000000: a891 0abd e23c 343e

weight f4 [2, 50]
0.061511353 0.18997988 0.100205116 0.053445473 -0.11885336 0.16878703 0.10792968 0.14967495
0.2247228 0.14284918 0.050969254 -0.041976694 -0.03521304 -0.08737857 -0.016849903 -0.24535982
0.06609047 -0.07865255 0.17645171 0.16671848 0.057002477 -0.06501888 0.0024021692 0.17736563
-0.05526885 0.06885628 -0.050145973 0.03507463 -0.12086343 0.018804481 0.21753131 0.028254978
0.16583897 0.12911494 -0.029981805 -0.17753704 -0.12806095 0.046539128 -0.18162051 -0.17427728
-0.02722329 -0.1345279 -0.13124143 0.060653996 -0.10383027 0.18541881 -0.017981546 0.18327646
-0.0061253323 0.085998565 -0.16380604 -0.13121077 -0.18112011 -0.16199817 -0.1415597 0.03111113
0.058719486 0.055049945 0.021432139 -0.062064596 -0.21211381 -0.008075784 0.04029457 -0.05424339
-0.011402185 -0.050533332 0.013018887 -0.051742405 -0.087116756 -0.14221746 0.18131232 -0.058728814
-0.1881947 -0.010734292 0.018104171 0.19390243 0.20643385 -0.18557358 0.20527564 0.15049328
-0.10043313 -0.19211514 -0.008059234 -0.05310668 -0.08167639 -0.060806103 0.19752224 0.12827434
0.08970977 0.016075376 0.18321547 0.048565786 0.04749018 0.13656548 -0.04104255 0.095609315
-0.097252585 -0.027315097 0.104606435 0.06766349
00000000: 54f3 7b3d 168a 423e 5738 cd3d a4e9 5a3d
00000010: 6469 f3bd 82d6 2c3e 3c0a dd3d 6444 193e
00000020: bc1d 663e 0e47 123e 23c5 503d c1ef 2bbd
00000030: 8c3b 10bd 89f3 b2bd cf08 8abc 9b3f 7bbe
00000040: 715a 873d 9714 a1bd c2af 343e 40b8 2a3e
00000050: 6e7b 693d 9e28 85bd b66d 1d3b 569f 353e
00000060: 9761 62bd 8504 8d3d dd65 4dbd 6aaa 0f3d
00000070: 3f87 f7bd db0b 9a3c 87c0 5e3e fc76 e73c
00000080: b1d1 293e b536 043e 679c f5bc 45cc 35be
00000090: 6922 03be d09f 3e3d bafa 39be be75 32be
000000a0: 6103 dfbc afc1 09be 2764 06be 5370 783d
000000b0: f7a4 d4bd 6ede 3d3e 094e 93bc d3ac 3b3e
000000c0: 03b7 c8bb 0420 b03d c5bc 27be 1e5c 06be
000000d0: 8d77 39be d9e2 25be 07f5 10be c5dc fe3c
000000e0: d883 703d 0d7c 613d 7492 af3c 7237 7ebd
000000f0: 5d34 59be 4b50 04bc eb0b 253d 512e 5ebd
00000100: 3bd0 3abc 0afc 4ebd 2b4d 553c d8ef 53bd
00000110: 456a b2bd 74a1 11be f0a9 393e a08d 70bd
00000120: 1db6 40be e2de 2fbc 334f 943c 5c8e 463e
00000130: 6563 533e 0007 3ebe c733 523e e91a 1a3e
00000140: e3af cdbd d5b9 44be e10a 04bc 6486 59bd
00000150: f345 a7bd d20f 79bd 4543 4a3e 595a 033e
00000160: c2b9 b73d 82b0 833c d69c 3b3e ebec 463d
00000170: 1085 423d d2d7 0b3e 3c1c 28bd d1ce c33d
00000180: 5d2c c7bd e9c3 dfbc e63b d63d 2893 8a3d

bias f4 [2]
0.12649187 -0.062074352
00000000: 1687 013e ad41 7ebd

amplitudes f4 [10000, 2]
0.13531782 1.8589834 0.13531782 1.8589834 0.13531782 1.8589834 0.13531782 1.8589834
0.13531782 1.8589834 0.13531782 1.8589834 0.13531782 1.8589834 0.13531782 1.8589834
0.13531782 1.8589834 0.13531782 1.8589834 0.13531782 1.8589834 0.13531782 1.8589834
0.13531782 1.8589834 0.13531782 1.8589834 0.13531782 1.8589834 0.13531782 1.8589834
0.13531782 1.8589834 0.13531782 1.8589834 0.13531782 1.8589834 0.13531782 1.8589834
0.13531782 1.8589834 0.13531782 1.8589834 0.13531782 1.8589834 0.13531782 1.8589834
0.13531782 1.8589834 0.13531782 1.8589834 0.13531782 1.8589834 0.13531782 1.8589834
0.13531782 1.8589834 0.13531782 1.8589834 0.13531782 1.8589834 0.13531782 1.8589834
0.13531782 1.8589834 0.13531782 1.8589834 0.13531782 1.8589834 0.13531782 1.8589834
0.13531782 1.8589834 0.13531782 1.8589834 0.13531782 1.8589834 0.13531782 1.8589834
0.13531782 1.8589834 0.13531782 1.8589834 0.13531782 1.8589834 0.13531782 1.8589834
0.13531782 1.8589834 0.13531782 1.8589834 0.13531782 1.8589834 0.13531782 1.8589834
0.13531782 1.8589834 0.13531782 1.8589834 0.13531782 1.8589834 0.13531782 1.8589834
0.13531782 1.8589834 0.13531782 1.8589834 0.13531782 1.8589834 0.13531782 1.8589834
0.13531782 1.8589834 0.13531782 1.8589834 0.13531782 1.8589834 0.13531782 1.8589834
0.13531782 1.8589834 0.13531782 1.8589834 0.13531782 1.8589834 0.13531782 1.8589834
0.13531782 1.8589834 0.13531782 1.8589834 0.13531782 1.8589834 0.13531782 1.8589834
0.13531782 1.8589834 0.13531782 1.8589834 0.13531782 1.8589834 0.13531782 1.8589834
0.13531782 1.8589834 0.13531782 1.8589834 0.13531782 1.8589834 0.13531782 1.8589834
0.13531782 1.8589834 0.13531782 1.8589834 0.13531782 1.8589834 0.13531782 1.8589834
0.13531782 1.8589834 0.13531782 1.8589834 0.13531782 1.8589834 0.13531782 1.8589834
0.13531782 1.8589834 0.13531782 1.8589834 0.13531782 1.8589834 0.13531782 1.8589834
0.13531782 1.8589834 0.13531782 1.8589834 0.13531782 1.8589834 0.13531782 1.8589834
0.13531782 1.8589834 0.13531782 1.8589834 0.13531782 1.8589834 0.13531782 1.8589834
0.13531782 1.8589834 0.13531782 1.8589834 0.13531782 1.8589834 0.13531782 1.8589834
0.13531782 1.8589834 0.13531782 1.8589834 0.13531782 1.8589834 0.13531782 1.8589834
0.13531782 1.8589834 0.13531782 1.8589834 0.13531782 1.8589834 0.13531782 1.8589834
0.13531782 1.8589834 0.13531782 1.8589834 0.13531782 1.8589834 0.13531782 1.8589834
0.13531782 1.8589834 0.13531782 1.8589834 0.13531782 1.8589834 0.13531782 1.8589834
0.13531782 1.8589834 0.13531782 1.8589834 0.13531782 1.8589834 0.13531782 1.8589834
0.13531782 1.8589834 0.13531782 1.8589834 0.13531782 1.8589834 0.13531782 1.8589834
0.13531782 1.8589834 0.13531782 1.8589834 0.13531782 1.8589834 0.13531782 1.8589834
00000000: c190 0a3e 2bf3 ed3f c190 0a3e 2bf3 ed3f
00000010: c190 0a3e 2bf3 ed3f c190 0a3e 2bf3 ed3f
00000020: c190 0a3e 2bf3 ed3f c190 0a3e 2bf3 ed3f
00000030: c190 0a3e 2bf3 ed3f c190 0a3e 2bf3 ed3f
00000040: c190 0a3e 2bf3 ed3f c190 0a3e 2bf3 ed3f
00000050: c190 0a3e 2bf3 ed3f c190 0a3e 2bf3 ed3f
00000060: c190 0a3e 2bf3 ed3f c190 0a3e 2bf3 ed3f
00000070: c190 0a3e 2bf3 ed3f c190 0a3e 2bf3 ed3f
00000080: c190 0a3e 2bf3 ed3f c190 0a3e 2bf3 ed3f
00000090: c190 0a3e 2bf3 ed3f c190 0a3e 2bf3 ed3f
000000a0: c190 0a3e 2bf3 ed3f c190 0a3e 2bf3 ed3f
000000b0: c190 0a3e 2bf3 ed3f c190 0a3e 2bf3 ed3f
000000c0: c190 0a3e 2bf3 ed3f c190 0a3e 2bf3 ed3f
000000d0: c190 0a3e 2bf3 ed3f c190 0a3e 2bf3 ed3f
000000e0: c190 0a3e 2bf3 ed3f c190 0a3e 2bf3 ed3f
000000f0: c190 0a3e 2bf3 ed3f c190 0a3e 2bf3 ed3f
00000100: c190 0a3e 2bf3 ed3f c190 0a3e 2bf3 ed3f
00000110: c190 0a3e 2bf3 ed3f c190 0a3e 2bf3 ed3f
00000120: c190 0a3e 2bf3 ed3f c190 0a3e 2bf3 ed3f
00000130: c190 0a3e 2bf3 ed3f c190 0a3e 2bf3 ed3f
00000140: c190 0a3e 2bf3 ed3f c190 0a3e 2bf3 ed3f
00000150: c190 0a3e 2bf3 ed3f c190 0a3e 2bf3 ed3f
00000160: c190 0a3e 2bf3 ed3f c190 0a3e 2bf3 ed3f
00000170: c190 0a3e 2bf3 ed3f c190 0a3e 2bf3 ed3f
00000180: c190 0a3e 2bf3 ed3f c190 0a3e 2bf3 ed3f
00000190: c190 0a3e 2bf3 ed3f c190 0a3e 2bf3 ed3f
000001a0: c190 0a3e 2bf3 ed3f c190 0a3e 2bf3 ed3f
000001b0: c190 0a3e 2bf3 ed3f c190 0a3e 2bf3 ed3f
000001c0: c190 0a3e 2bf3 ed3f c190 0a3e 2bf3 ed3f
000001d0: c190 0a3e 2bf3 ed3f c190 0a3e 2bf3 ed3f
000001e0: c190 0a3e 2bf3 ed3f c190 0a3e 2bf3 ed3f
000001f0: c190 0a3e 2bf3 ed3f c190 0a3e 2bf3 ed3f
00000200: c190 0a3e 2bf3 ed3f c190 0a3e 2bf3 ed3f
00000210: c190 0a3e 2bf3 ed3f c190 0a3e 2bf3 ed3f
00000220: c190 0a3e 2bf3 ed3f c190 0a3e 2bf3 ed3f
00000230: c190 0a3e 2bf3 ed3f c190 0a3e 2bf3 ed3f
00000240: c190 0a3e 2bf3 ed3f c190 0a3e 2bf3 ed3f
00000250: c190 0a3e 2bf3 ed3f c190 0a3e 2bf3 ed3f
00000260: c190 0a3e 2bf3 ed3f c190 0a3e 2bf3 ed3f
00000270: c190 0a3e 2bf3 ed3f c190 0a3e 2bf3 ed3f
00000280: c190 0a3e 2bf3 ed3f c190 0a3e 2bf3 ed3f
00000290: c190 0a3e 2bf3 ed3f c190 0a3e 2bf3 ed3f
000002a0: c190 0a3e 2bf3 ed3f c190 0a3e 2bf3 ed3f
000002b0: c190 0a3e 2bf3 ed3f c190 0a3e 2bf3 ed3f
000002c0: c190 0a3e 2bf3 ed3f c190 0a3e 2bf3 ed3f
000002d0: c190 0a3e 2bf3 ed3f c190 0a3e 2bf3 ed3f
000002e0: c190 0a3e 2bf3 ed3f c190 0a3e 2bf3 ed3f
000002f0: c190 0a3e 2bf3 ed3f c190 0a3e 2bf3 ed3f
00000300: c190 0a3e 2bf3 ed3f c190 0a3e 2bf3 ed3f
00000310: c190 0a3e 2bf3 ed3f c190 0a3e 2bf3 ed3f
00000320: c190 0a3e 2bf3 ed3f c190 0a3e 2bf3 ed3f
00000330: c190 0a3e 2bf3 ed3f c190 0a3e 2bf3 ed3f
00000340: c190 0a3e 2bf3 ed3f c190 0a3e 2bf3 ed3f
00000350: c190 0a3e 2bf3 ed3f c190 0a3e 2bf3 ed3f
00000360: c190 0a3e 2bf3 ed3f c190 0a3e 2bf3 ed3f
00000370: c190 0a3e 2bf3 ed3f c190 0a3e 2bf3 ed3f
00000380: c190 0a3e 2bf3 ed3f c190 0a3e 2bf3 ed3f
00000390: c190 0a3e 2bf3 ed3f c190 0a3e 2bf3 ed3f
000003a0: c190 0a3e 2bf3 ed3f c190 0a3e 2bf3 ed3f
000003b0: c190 0a3e 2bf3 ed3f c190 0a3e 2bf3 ed3f
000003c0: c190 0a3e 2bf3 ed3f c190 0a3e 2bf3 ed3f
000003d0: c190 0a3e 2bf3 ed3f c190 0a3e 2bf3 ed3f
000003e0: c190 0a3e 2bf3 ed3f c190 0a3e 2bf3 ed3f
000003f0: c190 0a3e 2bf3 ed3f c190 0a3e 2bf3 ed3f
