data/RNN_runs/sweep_H2/rnn_sto3g_H2_0-7348_eq1_nU50_nL1_lr00025_lrsC_ns1000.pt (torch_old, 92427 bytes, 9 tensors)

weight_ih f4 [150, 2]
-0.26895225 0.26426363 -0.20500155 0.27890244 -0.30915135 0.3830434 -0.35961366 0.14022729
-0.054503705 0.21157534 -0.045345705 0.25916284 -0.20907414 0.07618455 -0.045934897 0.14308186
-0.1912302 0.3224685 -0.03658217 0.2557962 -0.11796721 0.29692677 -0.14677756 0.3855254
-0.14431208 0.39031866 -0.28843692 0.2982178 -0.06450986 0.11708848 0.29161724 -0.12726848
-0.13831507 0.22631598 0.1987654 0.14022669 -0.3125651 0.2045438 -0.12309808 0.18953587
-0.15756238 0.17310075 -0.18871735 0.38065577 -0.2082993 0.30644655 -0.23735815 0.26739302
-0.046725858 0.33757085 0.16190663 0.4140454 -0.10474741 0.29850563 -0.24141982 0.06306032
-0.1802873 0.43710643 -0.16709055 0.12456047 -0.10921983 0.45217547 -0.07290939 -0.04067288
-0.16859506 0.23921862 -0.038132973 0.16667399 -0.20368132 0.41840333 -0.10819974 0.32395667
-0.29552856 0.14370209 -0.14479603 0.32217044 0.044076618 -0.1917009 0.2580748 0.24550842
0.0425976 0.29222265 -0.075189404 0.26776934 -0.27015465 0.22932757 -0.12560844 0.35997492
-0.15518305 0.31192923 -0.20455587 0.3528484 -0.09241265 0.34370235 -0.04029303 0.16549617
0.13064459 0.37521937 -0.06799698 0.2250309 0.18385282 -0.363857 0.10543697 -0.26778206
-0.024079755 -0.32282338 0.06674777 -0.103933334 -0.15903756 -0.38349855 0.11195687 -0.20957747
0.17590962 -0.080572195 0.01546836 -0.1611124 -0.0019965002 -0.16719568 0.09204411 -0.009629026
-0.03253531 -0.20756805 0.1881857 -0.3124842 -0.1351463 -0.37348655 0.15519111 -0.2069274
0.13401331 -0.09974604 -0.33187973 -0.1617237 0.108913444 -0.26804128 -0.2884349 -0.47406942
0.18104203 -0.22396137 -0.19785684 -0.37525275 0.13946113 -0.25109336 0.13874836 -0.09224022
0.008989657 -0.401454 -0.024222048 -0.259927 -0.09011496 -0.35514563 -0.39436236 -0.46401933
0.05580431 -0.05514295 0.103932105 -0.1546804 -0.24545386 -0.30774555 -0.014545064 -0.13895677
-0.1855029 -0.24292506 -0.31702027 -0.27532244 0.25268894 -0.08093177 0.03973556 -0.048905544
-0.1783048 -0.33448952 0.03412005 -0.37463394 0.039276287 -0.22227469 -0.13716653 -0.33215883
-0.18296985 -0.34949845 -0.2315156 -0.05284 -0.16091847 -0.283243 -0.040374573 -0.41020146
-0.10511759 -0.3053639 -0.00032591712 -0.10638378 0.17984693 -0.3492843 -0.1738342 -0.43990937
0.16908075 -0.060101427 -0.0899558 -0.22621292 -0.009683726 -0.38419855 0.15652747 -0.22062695
0.14439465 -0.22445825 -0.06362112 0.121598184 0.08541709 -0.2550054 0.1709034 -0.2126389
-0.16826516 0.43646422 -0.04871223 0.04209296 0.10736561 -0.16083935 0.04755015 0.014852403
0.006461803 0.07474847 0.0043111756 0.13134153 0.079803 -0.34092683 -0.123910606 0.18546331
0.26271474 -0.4406104 0.12072 -0.34528765 -0.06225263 0.20513539 0.09516563 -0.40175688
0.037987545 -0.13480733 0.12662615 -0.44914538 0.21762054 -0.2034418 -0.32230183 0.39501253
-0.030427799 0.155436 0.018905353 -0.19841632 0.3232911 -0.15929341 0.04755301 -0.3044447
-0.068803005 0.29669136 0.23248844 -0.47883973 0.04968546 0.06413733 -0.18431088 0.23915157
00000000: 1cb4 89be 904d 873e edeb 51be 4dcc 8e3e
00000010: 1649 9ebe 441e c43e 481f b8be be97 0f3e
00000020: 473f 5fbd 35a7 583e 6bbc 39bd feb0 843e
00000030: 8817 56be a506 9c3d 3b26 3cbd 0d84 123e
00000040: d9d1 43be 971a a53e 2fd7 15bd b8f7 823e
00000050: cb98 f1bd c906 983e db4c 16be 9663 c53e
00000060: 8cc6 13be d9d7 c73e 01ae 93be 01b0 983e
00000070: bf1d 84bd 16cc ef3d db4e 953e ab52 02be
00000080: 77a2 0dbe 60bf 673e 2889 4b3e 9697 0f3e
00000090: 8808 a0be ee73 513e d91a fcbd b115 423e
000000a0: 0858 21be 5341 313e 1f3f 41be 50e5 c23e
000000b0: 694c 55be 90e6 9c3e 040e 73be bde7 883e
000000c0: 9d63 3fbd 16d6 ac3e daca 253e c2fd d33e
000000d0: cf85 d6bd bbd5 983e c236 77be c525 813d
000000e0: 3c9d 38be 6acc df3e c919 2bbe 8f19 ff3d
000000f0: a5ae dfbd 8b83 e73e 8551 95bd 9b98 26bd
00000100: 2fa4 2cbe baf5 743e 5231 1cbd 96ac 2a3e
00000110: d691 50be f638 d63e d397 ddbd a6dd a53e
00000120: 854f 97be a426 133e 6945 14be 86f3 a43e
00000130: af89 343d 3e4d 44be 6122 843e 8f66 7b3e
00000140: d27a 2e3d 359e 953e e7fc 99bd 1019 893e
00000150: b651 8abe d9d4 6a3e 809f 00be a24e b83e
00000160: 4ee8 1ebe 30b5 9f3e 1877 51be 8ca8 b43e
00000170: d842 bdbd c1f9 af3e 4e0a 25bd d477 293e
00000180: b2c7 053e c11c c03e 0042 8bbd 806e 663e
00000190: ea43 3c3e 774b babe 57ef d73d bb1a 89be
000001a0: e842 c5bc 1b49 a5be 0eb3 883d 00db d4bd
000001b0: beda 22be ec59 c4be a549 e53d 7a9b 56be
000001c0: a721 343e 0903 a5bd 016f 7d3c a6fa 24be
000001d0: b7d7 02bb 5835 2bbe 9f81 bc3d 10c3 1dbc
000001e0: bf43 05bd b88c 54be c1b3 403e eefd 9fbe
000001f0: cb63 0abe a139 bfbe 6bea 1e3e c7e4 53be
00000200: c93a 093e a747 ccbd 24ec a9be e69a 25be
00000210: 030e df3d b53c 89be bdad 93be 3ab9 f2be
00000220: 1563 393e 2156 65be fc9a 4abe 2121 c0be
00000230: e6ce 0e3e 4f8f 80be 0d14 0e3e 71e8 bcbd
00000240: 5b49 133c 618b cdbe 516d c6bc 2715 85be
00000250: 318e b8bd a6d5 b5be dde9 c9be f193 edbe
00000260: 0f93 643d 93dd 61bd 5bda d43d 8a64 1ebe
00000270: 4258 7bbe d390 9dbe 6c4e 6ebc af4a 0ebe
00000280: 79f4 3dbe 59c1 78be 7b50 a2be 10f7 8cbe
00000290: 7260 813e 8ebf a5bd c1c1 223d 2e51 48bd
000002a0: 8995 36be 3642 abbe 77c1 0b3d 05d0 bfbe
000002b0: 2ce0 203d fa9b 63be 6275 0cbe b910 aabe
000002c0: 735c 3bbe 76f1 b2be 6d12 6dbe c16e 58bd
000002d0: d0c7 24be 3a05 91be cf5f 25bd ed05 d2be
000002e0: e447 d7bd a858 9cbe dbdf aab9 bddf d9bd
000002f0: cb29 383e 64d5 b2be 9801 32be cd3b e1be
00000300: 8123 2d3e ea2c 76bd bf3a b8bd 5ca4 67be
00000310: 7ea8 1ebc acb5 c4be bd48 203e 08ec 61be
00000320: 31dc 133e 62d8 65be ca4b 82bd 7808 f93d
00000330: 28ef ae3d 1190 82be 4d01 2f3e 03be 59be
00000340: b44d 2cbe 3d78 df3e 7a86 47bd ab69 2c3d
00000350: 80e2 db3d 12b3 24be f2c3 423d 7e57 733c
00000360: 88bd d33b ba15 993d c344 8d3b 657e 063e
00000370: c16f a33d f68d aebe d8c4 fdbd 18ea 3d3e
00000380: 8c82 863e b097 e1be 0c3c f73d 8bc9 b0be
00000390: 9dfc 7ebd 030f 523e 33e6 c23d 14b3 cdbe
000003a0: d498 1b3d ef0a 0abe 49aa 013e 62f6 e5be
000003b0: ebd7 5e3e 0c53 50be bf04 a5be 153f ca3e
000003c0: b843 f9bc 9d2a 1f3e 66df 9a3c a62d 4bbe
000003d0: 6986 a53e d01d 23be f2c6 423d 2de0 9bbe
000003e0: 97e8 8cbd eee7 973e 7311 6e3e 7b2a f5be
000003f0: fb82 4b3d 6f5a 833d febb 3cbe 26e4 743e

weight_hh f4 [150, 50]
-0.08747074 0.20281419 0.050324645 -0.05812281 -0.04891021 0.25550523 -0.13767052 0.07566416
0.1359118 0.2015297 -0.10656099 0.13990189 -0.08766621 0.0062013348 0.07705062 0.15346248
-0.25393236 -0.02164919 -0.06492073 -0.011548421 0.025109122 -0.16606395 0.04678969 -0.0050867475
0.1607034 -0.06977295 0.23230878 0.13843416 -0.12975965 0.13101742 0.017326903 -0.16564167
-0.22871615 0.3010068 0.020448457 0.09062967 0.011587028 -0.02462616 0.0643862 -0.22134556
-0.07500102 0.019519644 0.0007741549 0.036565624 -0.24948753 -0.006543048 0.12760769 -0.13260257
0.06778695 0.1358343 -0.019283567 0.14093027 -0.020492945 -0.21064253 0.090018265 0.2821699
-0.21587868 0.28652793 0.22285058 0.15322107 -0.04520365 0.2546682 -0.15853377 -0.15456581
0.188639 0.104670025 -0.09418937 0.027908677 -0.07105516 -0.0072085815 0.25229508 -0.19642302
-0.014792184 -0.058384176 0.057947483 -0.10625441 0.20419875 0.19389006 -0.24578598 0.16360587
0.15138179 0.127064 -0.11021697 0.20006718 -0.21917427 0.22548012 0.047230944 0.05897117
-0.13543817 -0.009863542 -0.03919537 -0.14817047 0.058039512 0.16219653 -0.1252885 -0.20763786
0.06416827 -0.13622865 -0.22633834 0.068296425 0.06163573 0.056374896 -0.15244506 0.0346585
-0.16684538 0.2252151 0.020316072 0.13681953 0.3318903 0.24716704 0.01708534 0.10333186
0.00060674176 -0.031230774 0.03414682 0.13588463 -0.26546723 0.22237004 -0.10330673 0.05975877
0.19780596 -0.08856881 0.06595681 -0.17029746 -0.091767594 0.05964754 0.24903725 0.21349081
-0.023775764 0.19681819 -0.1659112 -0.20249315 -0.17464513 0.15109976 0.059078403 0.1340971
0.07157289 0.0046353852 0.08578345 -0.318683 0.08897602 0.096148595 -0.05869254 0.03081438
-0.08490241 -0.12785937 0.2452486 -0.3398463 -0.10791157 0.10229731 -0.10848912 0.04023722
-0.011673084 -0.03203323 0.051650178 0.27455658 -0.16858676 0.29722473 0.1030444 0.2498361
0.005134932 -0.04653999 -0.014151498 -0.17914717 0.28490412 0.041397832 -0.16387159 0.09429114
-0.21371855 0.117150754 -0.017554952 -0.13639222 -0.16795585 -0.21208495 -0.06732258 -0.12412181
0.076228485 0.008817893 -0.094619855 0.19030374 0.04953093 -0.14178 -0.24736874 0.26604095
-0.18966076 0.006684041 -0.036740497 0.20756646 0.036226258 -0.20890312 -0.1101209 -0.088272884
0.066598155 0.20238099 -0.1574685 -0.116203606 0.20855048 -0.20176435 -0.04511864 0.14102265
-0.25983408 0.2428402 -0.20499068 -0.15700674 0.15476306 0.14434758 -0.34058782 0.28701428
0.3495737 0.3705801 -0.17764781 0.18623237 -0.13336998 -0.37062755 0.25090814 -0.2645557
-0.2916004 -0.14237775 -0.27779323 0.12712522 0.23093842 -0.25856686 -0.32782617 -0.25572798
0.122570775 -0.075030245 0.2514209 0.14941816 -0.15494318 0.25495964 0.32214433 0.3045231
-0.09555419 0.19183177 -0.23057556 0.16618168 0.34877864 0.3140443 -0.24903888 0.015279291
-0.05836384 -0.16515571 0.2783317 0.36099935 -0.2575961 -0.20336795 0.27797607 -0.37186515
-0.14997941 0.21430622 -0.22009468 0.2457922 -0.09176236 -0.17246878 0.03856822 0.31652763
00000000: dc23 b3bd 86ae 4f3e 3721 4e3d 2f12 6ebd
00000010: 1356 48bd 95d1 823e 80f9 0cbe d0f5 9a3d
00000020: 772c 0b3e cd5d 4e3e a63c dabd 7142 0f3e
00000030: 588a b3bd 9134 cb3b b7cc 9d3d 4525 1d3e
00000040: 6c03 82be a459 b1bc 29f5 84bd 9735 3dbc
00000050: a5b1 cd3c ab0c 2abe 8ca6 3f3d bbae a6bb
00000060: 6f8f 243e 1fe5 8ebd 5ae2 6d3e afc1 0d3e
00000070: b7df 04be 6e29 063e 26f1 8d3c f89d 29be
00000080: 9134 6abe 901d 9a3e 8683 a73c 0c9c b93d
00000090: 85d7 3d3c cdbc c9bc e9dc 833d 69a8 62be
000000a0: 239a 99bd a9e7 9f3c a8f0 4a3a d6c5 153d
000000b0: a979 7fbe 1167 d6bb 97ab 023e f8c8 07be
000000c0: e2d3 8a3d 2618 0b3e 92f8 9dbc 0650 103e
000000d0: d2e0 a7bc adb2 57be 7f5b b83d 9378 903e
000000e0: 4d0f 5dbe cab3 923e f132 643e fce5 1c3e
000000f0: 7627 39bd df63 823e ad56 22be 8046 1ebe
00000100: 952a 413e 3d5d d63d 5be6 c0bd bda0 e43c
00000110: 5e85 91bd f735 ecbb d22c 813e 1e23 49be
00000120: eb5a 72bc 3f24 6fbd 575a 6d3d ea9b d9bd
00000130: 7a19 513e 1e8b 463e 52af 7bbe 4c88 273e
00000140: d403 1b3e 111d 023e 6fb9 e1bd 69de 4c3e
00000150: 386f 60be 43e4 663e 3c75 413d c18b 713d
00000160: 4eb0 0abe b29a 21bc 538b 20bd 00ba 17be
00000170: d7ba 6d3d d916 263e a14b 00be 059f 54be
00000180: a76a 833d 867f 0bbe 3dc5 67be ffde 8b3d
00000190: bf75 7c3d 5de9 663d 8f1a 1cbe 12f6 0d3d
000001a0: 84d9 2abe ca9e 663e e46d a63c 6b1a 0c3e
000001b0: 87ed a93e 5b19 7d3e 8ef6 8b3c a79f d33d
000001c0: c00d 1f3a aed7 ffbc 89dd 0b3d 5725 0b3e
000001d0: 52eb 87be f9b4 633e 7b92 d3bd 9dc5 743d
000001e0: a58d 4a3e 9063 b5bd 5d14 873d 7562 2ebe
000001f0: a6f0 bbbd fb50 743d 9f03 7f3e 569d 5a3e
00000200: 64c5 c2bc b58a 493e a0e4 29be 5d5a 4fbe
00000210: 2cd6 32be e5b9 1a3e 32fc 713d c050 093e
00000220: cf94 923d 6ee4 973b 3caf af3d 6b2a a3be
00000230: 0f39 b63d 8ee9 c43d 9767 70bd 706e fc3c
00000240: 51e1 adbd 91ed 02be 7322 7b3e 5600 aebe
00000250: be00 ddbd 4181 d13d 8b2f debd c8cf 243d
00000260: 7740 3fbc 4735 03bd 238f 533d ae92 8c3e
00000270: 02a2 2cbe d72d 983e f108 d33d 09d5 7f3e
00000280: ef42 a83b b7a0 3ebd afdb 67bc 5b72 37be
00000290: f4de 913e c690 293d f4cd 27be b71b c13d
000002a0: 09d9 5abe bcec ef3d 67cf 8fbc 67aa 0bbe
000002b0: 9efc 2bbe cc2c 59be 6ce0 89bd 9333 febd
000002c0: ae1d 9c3d ed78 103c 0ec8 c1bd fcde 423e
000002d0: f2e0 4a3d c72e 11be 3b4e 7dbe 8536 883e
000002e0: 6e36 42be cd05 db3b 347d 16bd 4d8c 543e
000002f0: fc61 143d b3ea 55be 1187 e1bd 6ac8 b4bd
00000300: 9d64 883d f63c 4f3e 6c3f 21be 28fc edbd
00000310: 428e 553e 509b 4ebe 53ce 38bd 3e68 103e
00000320: f908 85be 1aab 783e 14e9 51be 60c6 20be
00000330: 357a 1e3e dacf 133e 8761 aebe 89f3 923e
00000340: 53fb b23e adbc bd3e 4fe9 35be b3b3 3e3e
00000350: 2492 08be e5c2 bdbe 0877 803e d873 87be
00000360: a64c 95be 79cb 11be ea3a 8ebe 1d2d 023e
00000370: 1f7b 6c3e e062 84be d5d8 a7be c7ee 82be
00000380: 6306 fb3d 75a9 99bd 3dba 803e 1301 193e
00000390: 6da9 1ebe 128a 823e 1af0 a43e 74ea 9b3e
000003a0: eab1 c3bd 8c6f 443e 001c 6cbe 882b 2a3e
000003b0: 1d93 b23e 6aca a03e 0c04 7fbe fe55 7a3c
000003c0: ec0e 6fbd 941e 29be 7e81 8e3e e8d4 b83e
000003d0: a3e3 83be b03f 50be e152 8e3e 1c65 bebe
000003e0: 3494 19be 1773 5b3e 8060 61be f3b0 7b3e
000003f0: e7ed bbbd a89b 30be b6f9 1d3d e90f a23e

bias_ih f4 [150]
0.06260242 0.053554684 0.062404003 0.06503496 0.12090739 0.039491385 -0.01148911 0.055162806
0.19535324 0.111688316 -0.01600263 0.24782896 0.060103916 -0.11773748 0.15057725 0.09172709
-0.0948119 0.23064475 0.029860143 -0.0053421576 0.12936585 0.07302347 0.26735017 0.07936118
0.06413432 0.19014518 0.22364596 0.026507044 0.100899756 0.14521003 0.2349082 0.009538338
0.15306981 0.08373526 0.30393368 0.009496392 0.12259489 0.14103599 -0.18908331 0.24626751
0.010312863 0.14665328 0.024512816 0.13241887 0.055730183 0.15982848 0.05353959 0.23596345
0.2870182 0.15751712 -0.13774876 -0.120405436 -0.12395198 -0.12613527 -0.47564432 -0.22419035
-0.12325495 -0.121801816 -0.0152629325 -0.07174624 -0.31272176 -0.07334627 -0.37116876 -0.075725384
-0.13585515 -0.2742014 -0.033439226 -0.38688156 -0.10274162 -0.3978388 -0.18600142 -0.25776628
-0.19794922 -0.07362991 -0.063919716 -0.53694654 -0.088628754 -0.3028114 -0.37647521 -0.14406247
-0.27871308 -0.41869187 -0.06527855 -0.07239631 -0.3728685 -0.1643759 -0.19387686 -0.2937617
-0.3035557 -0.30305186 -0.36880526 -0.25558904 -0.3577025 -0.14191365 -0.051920142 -0.18635459
-0.117561094 -0.16156256 -0.34691706 -0.27210915 -0.2801855 0.09809146 -0.28421277 -0.2776761
0.16766746 0.16651458 -0.15167902 0.03954248 0.09024729 0.23916495 -0.05273277 0.27361614
-0.19984904 -0.09008923 0.11930991 -0.080820896 -0.035205014 -0.17355987 -0.11080401 0.23880213
0.2575808 -0.17514534 -0.25568554 -0.20103566 0.24811126 -0.25353703 0.12493638 0.24838677
-0.121948645 0.0770832 0.053878926 0.12781358 -0.16172253 0.15335068 -0.24177326 0.20962922
0.23462646 0.17657568 -0.27073795 0.16025893 -0.2349127 -0.19334294 0.25622416 0.1379788
-0.014388297 -0.32626617 0.09931478 -0.060873102 -0.31482676 0.16108799
00000000: b335 803d 285c 5b3d 579b 7f3d 0d31 853d
00000010: 4b9e f73d b8c1 213d d23c 3cbc 65f2 613d
00000020: ae0a 483e d8bc e43d f317 83bc e0c6 7d3e
00000030: 862f 763d 5920 f1bd ec30 1a3e 6adb bb3d
00000040: be2c c2bd 232e 6c3e 429d f43c 440d afbb
00000050: 7b78 043e 548d 953d 1fe2 883e 1d88 a23d
00000060: db58 833d 6bb5 423e 7203 653e 4d25 d93c
00000070: 88a4 ce3d f0b1 143e c68b 703e b046 1c3c
00000080: 55be 1c3e 647d ab3d 329d 9b3e c196 1b3c
00000090: 0813 fb3d bd6b 103e 0e9f 41be 8d2d 7c3e
000000a0: 48f7 283c 472c 163e 1acf c83c d098 073e
000000b0: 5545 643d 14aa 233e 544c 5b3d 67a0 713e
000000c0: 0df4 923e 2b4c 213e 030e 0dbe 2097 f6bd
000000d0: 89da fdbd 9b29 01be a787 f3be 2892 65be
000000e0: 176d fcbd 3b73 f9bd 6111 7abc b1ef 92bd
000000f0: 111d a0be 9236 96bd d509 bebe e915 9bbd
00000100: 9d1d 0bbe 2064 8cbe 92f7 08bd 5715 c6be
00000110: 336a d2bd 87b1 cbbe 2877 3ebe f1f9 83be
00000120: 33b3 4abe 47cb 96bd 57e8 82bd 5475 09bf
00000130: fe82 b5bd 190a 9bbe 5cc1 c0be 1d85 13be
00000140: 7bb3 8ebe c85e d6be c3b0 85bd 8444 94bd
00000150: 9fe8 bebe 2852 28be a887 46be ef67 96be
00000160: a76b 9bbe 9d29 9bbe 0bd4 bcbe 91dc 82be
00000170: c824 b7be d051 11be 37aa 54bd bdd3 3ebe
00000180: dfc3 f0bd a870 25be 1d9f b1be e451 8bbe
00000190: 7974 8fbe 2de4 c83d 5684 91be 902b 8ebe
000001a0: 05b1 2b3e cc82 2a3e bf51 1bbe 4cf7 213d
000001b0: 92d3 b83d a8e7 743e 51fe 57bd 6a17 8c3e
000001c0: 3aa5 4cbe b480 b8bd c158 f43d 6d85 a5bd
000001d0: 2233 10bd aeb9 31be 36ed e2bd 8c88 743e
000001e0: a1e1 833e 4d59 33be 37e9 82be 4bdc 4dbe
000001f0: e110 7e3e 9bcf 81be a5de ff3d 1a59 7e3e
00000200: 36c0 f9bd ccdd 9d3d 26b0 5c3d 90e1 023e
00000210: 979a 25be f607 1d3e 6993 77be 0ba9 563e
00000220: eb41 703e 41d0 343e 2a9e 8abe eb1a 243e
00000230: f48c 70be b1fb 45be d02f 833e 514a 0d3e
00000240: e4bc 6bbc 5c0c a7be 8c65 cb3d 1356 79bd
00000250: f930 a1be 40f4 243e

bias_hh f4 [150]
0.2071241 0.16458184 0.20324907 0.06776914 0.17004205 0.2439482 0.2414847 0.2557292
0.11037566 0.16823055 0.10351734 0.08941912 0.24582735 0.043881997 0.006285885 -0.12979834
0.12672009 0.0023076434 0.23663518 0.09191945 0.026809582 0.21563153 0.0671247 -0.012840755
0.19048415 0.13638029 0.23226082 -0.025763515 0.06333541 0.07105557 0.20439082 0.07132344
0.16468227 0.14487301 0.1475727 0.04383944 0.031439494 0.08035473 0.0031507802 0.24213105
0.053388644 0.004864123 0.08530515 0.22350217 0.17340748 0.15357292 0.26361942 0.03685137
0.17476916 0.053458855 -0.13014571 -0.19755962 -0.35284323 -0.23295948 -0.21999751 -0.053329337
0.055077758 -0.080481045 -0.046580907 -0.05751174 -0.3146739 -0.13656713 -0.40308103 -0.07983406
-0.27331585 -0.13062452 0.06235919 -0.23769931 -0.24956621 -0.4231056 -0.25455454 -0.07000785
-0.23391196 -0.31671265 -0.117381364 -0.41404337 -0.012832733 -0.13307443 -0.29481912 -0.18526311
-0.38233027 -0.42780197 -0.07550002 -0.08140364 -0.27175218 -0.28184205 -0.11985461 -0.14399898
-0.35114196 -0.0646666 -0.25111553 -0.16743147 -0.13448715 -0.2921117 -0.26661813 -0.31702074
-0.26368007 -0.1151961 -0.28873023 -0.25133944 -0.28208196 0.2500377 -0.22478403 -0.085222594
0.11277358 -0.036237337 -0.2028045 0.18668137 0.12948965 0.14820391 -0.10504069 0.25822085
-0.28421205 -0.01936035 0.1390629 -0.017019264 0.029237079 -0.11084788 -0.22631216 0.10830149
0.16212827 -0.22881083 -0.2630393 -0.1798043 0.19984113 -0.27964485 0.18690905 0.044395637
-0.21091922 0.114085056 0.33861747 0.103822045 -0.15186083 -0.047730204 -0.26275605 0.07608479
0.19411081 0.20311426 -0.018707464 0.17376237 -0.18321458 -0.16775797 0.22228728 0.12392243
-0.12563035 -0.13782567 0.035844397 -0.15874633 -0.30113655 0.22761048
00000000: 5718 543e 2488 283e 8620 503e 8cca 8a3d
00000010: 811f 2e3e 8fcd 793e c447 773e f0ee 823e
00000020: a20c e23d a144 2c3e e600 d43d 5f21 b73d
00000030: 2aba 7b3e 9cbd 333d d3f9 cd3b dbe9 04be
00000040: e9c2 013e d53b 173b 7e50 723e 4440 bc3d
00000050: c59f db3c 83ce 5c3e ad78 893d 0862 52bc
00000060: 470e 433e 46a7 0b3e c8d5 6d3e 020e d3bc
00000070: ffb5 813d 9585 913d d44b 513e 0612 923d
00000080: 78a2 283e 9759 143e 4c1d 173e fc90 333d
00000090: b3c6 003d 0591 a43d 527d 4e3b 34f1 773e
000000a0: 0dae 5a3d 3963 9f3b 77b4 ae3d c1dd 643e
000000b0: bb91 313e 3842 1d3e 20f9 863e 76f1 163d
000000c0: b0f6 323e acf7 5a3d eb44 05be 124d 4abe
000000d0: dea7 b4be ee8c 6ebe 0747 61be dd6f 5abd
000000e0: 3799 613d 3fd3 a4bd 9fcb 3ebd 6e91 6bbd
000000f0: f01c a1be 41d8 0bbe a360 cebe 0a80 a3bd
00000100: 0ef0 8bbe 6fc2 05be 5a6c 7f3d 7367 73be
00000110: 498e 7fbe 4ca1 d8be f954 82be 4760 8fbd
00000120: 9e86 6fbe 2928 a2be a465 f0bd 7efd d3be
00000130: 6240 52bc aa44 08be 88f2 96be 9db5 3dbe
00000140: cbc0 c3be dc08 dbbe c19f 9abd f4b6 a6bd
00000150: 1a23 8bbe 9a4d 90be 5576 f5bd 7874 13be
00000160: e1c8 b3be ec6f 84bd 3792 80be 2873 2bbe
00000170: 00b7 09be aa8f 95be 2c82 88be 8b50 a2be
00000180: 1301 87be efeb ebbd 73d4 93be 90af 80be
00000190: 0c6d 90be f104 803e c92d 66be 2f89 aebd
000001a0: d6f5 e63d 9a6d 14bd fcab 4fbe 6729 3f3e
000001b0: ef98 043e c4c2 173e 931f d7bd 8635 843e
000001c0: 3e84 91be 9999 9ebc 8166 0e3e fc6b 8bbc
000001d0: 9982 ef3c 3704 e3bd 60be 67be 2ccd dd3d
000001e0: f404 263e 634d 6abe 16ad 86be 9e1e 38be
000001f0: 27a3 4c3e 9c2d 8fbe 1665 3f3e 33d8 353d
00000200: 35fb 57be 6da5 e93d 455f ad3e a7a0 d43d
00000210: 6881 1bbe bf80 43bd f687 86be 58d2 9b3d
00000220: fcc4 463e 2ffd 4f3e 6540 99bc c3ee 313e
00000230: 9a9c 3bbe bfc8 2bbe 479f 633e 0bcb fd3d
00000240: 3ea5 00be 2c22 0dbe 93d1 123d 668e 22be
00000250: 922e 9abe b912 693e

weight f4 [2, 50]
-0.14548254 0.3188842 -0.18792465 -0.23976564 0.3973366 0.22482054 -0.15944862 0.19556344
0.21781062 0.17830382 -0.2306765 0.17889804 -0.31976008 -0.28246418 0.3361862 -0.28812632
-0.2412526 -0.4292078 -0.3293349 0.393231 0.1626314 -0.2980241 -0.34079948 -0.31217298
0.29760912 -0.43428186 0.22067888 0.3214 -0.21636313 0.32492107 0.347219 0.40392914
-0.22586577 0.07429129 -0.38127825 0.26820442 0.2759228 0.37151197 -0.30739 0.32852376
-0.32314083 -0.21605442 0.18015641 0.19819112 -0.33311763 -0.37549075 0.14869152 -0.0010594558
-0.19055398 0.3225325 0.3422904 -0.07241832 0.3387317 0.31216425 -0.39417815 -0.045378447
0.12808353 -0.06561474 -0.15898459 -0.09646046 0.36442313 -0.32235375 0.2898991 0.34670356
-0.20477341 0.33664244 0.21812314 0.3341496 0.15029877 -0.2902614 -0.19990717 0.24119136
0.3406554 0.26038313 -0.28832704 0.27685815 -0.2708035 -0.21911708 0.4145063 -0.08275489
-0.3675654 -0.3286851 0.20364885 -0.187432 0.2782737 -0.26034757 -0.24352348 -0.2251715
0.23283222 -0.24409771 0.34039262 0.3928998 -0.2957744 -0.12600167 0.20518768 0.18286486
-0.20366599 0.18829532 0.32554862 -0.21417063
00000000: 60f9 14be ca44 a33e 526f 40be 2085 75be
00000010: b46f cb3e 5b37 663e 8046 23be c841 483e
00000020: bf09 5f3e 4795 363e 7636 6cbe 0c31 373e
00000030: 98b7 a3be 259f 90be 9920 ac3e 4b85 93be
00000040: ec0a 77be 20c1 dbbe 969e a8be 9355 c93e
00000050: d988 263e 9d96 98be 457d aebe 23d5 9fbe
00000060: 3960 983e 315a debe a5f9 613e 8a8e a43e
00000070: 4c8e 5dbe 0e5c a63e b0c6 b13e cdcf ce3e
00000080: 5b49 67be 0826 983d e736 c3be 1752 893e
00000090: c145 8d3e d136 be3e 3962 9dbe 4434 a83e
000000a0: b772 a5be 5f3d 5dbe ec7a 383e 9df2 4a3e
000000b0: 658e aabe 5340 c0be 9742 183e 70dd 8aba
000000c0: 9520 43be fb22 a53e b040 af3e 0e50 94bd
000000d0: 3e6e ad3e fed3 9f3e b8d1 c9be c0de 39bd
000000e0: 5428 033e 0561 86bd dbcc 22be 108d c5bd
000000f0: ab95 ba3e 8d0b a5be a86d 943e 2183 b13e
00000100: 1fb0 51be 665c ac3e ac5b 5f3e a815 ab3e
00000110: ece7 193e 249d 94be 77b4 4cbe defa 763e
00000120: 626a ae3e f050 853e 9a9f 93be 5ac0 8d3e
00000130: c2a6 8abe 3a60 60be 2b3a d43e 657b a9bd
00000140: 8831 bcbe 6a49 a8be 5389 503e 2dee 3fbe
00000150: e479 8e3e 474c 85be 385e 79be 5c93 66be
00000160: 926b 6e3e c0f4 79be f147 ae3e 2a2a c93e
00000170: be6f 97be 9506 01be b81c 523e ed40 3b3e
00000180: d18d 50be 7dd0 403e 4fae a63e 8c4f 5bbe

bias f4 [2]
0.21354635 -0.07136324
00000000: e5ab 5a3e e426 92bd

weight f4 [2, 50]
0.0024250299 0.13884895 0.04134582 0.023755461 -0.017334156 0.12802024 0.10181208 0.04697968
0.11483075 0.13712148 0.008271575 0.016497225 -0.05032614 -0.105865434 0.024434507 -0.14095704
0.050824955 0.018290877 0.11206482 0.11763583 0.099533975 -0.09524706 0.05151342 0.116855964
-0.011926666 0.055563882 -0.029113844 0.03738913 -0.06387249 0.066197455 0.1242121 -0.02007886
0.07196261 0.05774176 -0.0032286644 -0.10262421 -0.06568511 0.016542643 -0.13298461 -0.13369195
-0.020761676 -0.117338166 -0.08400174 0.10793044 -0.042850435 0.12399115 -0.033130713 0.13635756
0.005304873 0.10067999 -0.082588 -0.103301674 -0.10580522 -0.07591113 -0.09224334 0.05392553
0.018563718 0.02287902 -0.021661557 -0.07436879 -0.13105644 -0.08248338 -0.010932788 0.016851082
-0.10298077 -0.08032669 0.09241505 -0.07263327 -0.020389013 -0.0763226 0.114690796 0.012111515
-0.1070044 0.066367224 -0.057629578 0.13152371 0.1291257 -0.119145945 0.1367441 0.092481926
-0.033470295 -0.13000523 0.06740296 -0.036497332 -0.072680525 -0.07836069 0.11905007 0.07472275
0.019296497 -0.0806998 0.13597237 0.00013418496 -0.0012706965 0.072212145 0.012624368 0.08870581
-0.12396036 0.02699101 0.12956212 -0.009444818
00000000: 40ed 1e3b 6b2e 0e3e 3c5a 293d d09a c23c
00000010: 5c00 8ebc bd17 033e da82 d03d c46d 403d
00000020: 622c eb3d 9369 0c3e 8085 073c 3025 873c
00000030: c822 4ebd facf d8bd e02a c83c 0b57 10be
00000040: d42d 503d c0d6 953c 3e82 e53d 0eeb f03d
00000050: 78d8 cb3d e410 c3bd bcff 523d 2e52 ef3d
00000060: 1068 43bc f496 633d 2880 eebc 5825 193d
00000070: 94cf 82bd 8892 873d ea62 fe3d 6c7c a4bc
00000080: 2261 933d a082 6c3d 0098 53bb a42c d2bd
00000090: ea85 86bd 7084 873c 1e2d 08be 8be6 08be
000000a0: 6414 aabc fe4e f0bd 1b09 acbd a20a dd3d
000000b0: f083 2fbd 12ef fd3d 12b4 07bd 51a1 0b3e
000000c0: 80d4 ad3b 5031 ce3d e623 a9bd d48f d3bd
000000d0: 68b0 d8bd 4b77 9bbd 14ea bcbd 04e1 5c3d
000000e0: f012 983c c86c bb3c 9473 b1bc aa4e 98bd
000000f0: a933 06be 0ced a8bd 701f 33bc 480b 8a3c
00000100: 95e7 d2bd 5282 a4bd 1a44 bd3d c0c0 94bd
00000110: dc06 a7bc 064f 9cbd 02e3 ea3d 606f 463c
00000120: 1f25 dbbd 8aeb 873d fe0c 6cbd 27ae 063e
00000130: 8739 043e ca02 f4bd a506 0c3e 2a67 bd3d
00000140: 2618 09bd 1720 05be 900a 8a3d 3a7e 15bd
00000150: 87d9 94bd 927b a0bd 86d0 f33d 3e08 993d
00000160: b013 9e3c f045 a5bd 573c 0b3e 00b4 0c39
00000170: 808d a6ba f6e3 933d 70d6 4e3c 64ab b53d
00000180: eede fdbd 401c dd3c efab 043e 70be 1abc

bias f4 [2]
0.07472767 -0.004976377
00000000: d20a 993d e010 a3bb

amplitudes f4 [1000, 2]
0.010571537 0.0 0.99750656 0.0 0.010571537 0.0 0.99750656 0.0
0.010571537 0.0 0.99750656 0.0 0.99750656 0.0 0.99750656 0.0
0.99750656 0.0 0.99750656 0.0 0.99750656 0.0 0.99750656 0.0
0.99750656 0.0 0.99750656 0.0 0.99750656 0.0 0.99750656 0.0
0.99750656 0.0 0.010571537 0.0 0.99750656 0.0 0.99750656 0.0
0.99750656 0.0 0.99750656 0.0 0.99750656 0.0 0.99750656 0.0
0.99750656 0.0 0.99750656 0.0 0.99750656 0.0 0.99750656 0.0
0.99750656 0.0 0.99750656 0.0 0.99750656 0.0 0.99750656 0.0
0.99750656 0.0 0.99750656 0.0 0.99750656 0.0 0.99750656 0.0
0.99750656 0.0 0.99750656 0.0 0.010571537 0.0 0.99750656 0.0
0.99750656 0.0 0.99750656 0.0 0.010571537 0.0 0.99750656 0.0
0.99750656 0.0 0.99750656 0.0 0.99750656 0.0 0.99750656 0.0
0.99750656 0.0 0.99750656 0.0 0.99750656 0.0 0.010571537 0.0
0.99750656 0.0 0.99750656 0.0 0.99750656 0.0 0.99750656 0.0
0.99750656 0.0 0.99750656 0.0 0.010571537 0.0 0.99750656 0.0
0.99750656 0.0 0.99750656 0.0 0.99750656 0.0 0.99750656 0.0
0.010571537 0.0 0.99750656 0.0 0.99750656 0.0 0.99750656 0.0
0.010571537 0.0 0.99750656 0.0 0.010571537 0.0 0.99750656 0.0
0.99750656 0.0 0.99750656 0.0 0.99750656 0.0 0.99750656 0.0
0.010571537 0.0 0.99750656 0.0 0.99750656 0.0 0.99750656 0.0
0.010571537 0.0 0.99750656 0.0 0.99750656 0.0 0.99750656 0.0
0.99750656 0.0 0.010571537 0.0 0.99750656 0.0 0.99750656 0.0
0.99750656 0.0 0.99750656 0.0 0.99750656 0.0 0.99750656 0.0
0.99750656 0.0 0.99750656 0.0 0.99750656 0.0 0.010571537 0.0
0.99750656 0.0 0.99750656 0.0 0.99750656 0.0 0.99750656 0.0
0.99750656 0.0 0.99750656 0.0 0.99750656 0.0 0.99750656 0.0
0.99750656 0.0 0.010571537 0.0 0.99750656 0.0 0.99750656 0.0
0.99750656 0.0 0.99750656 0.0 0.99750656 0.0 0.010571537 0.0
0.99750656 0.0 0.99750656 0.0 0.99750656 0.0 0.99750656 0.0
0.99750656 0.0 0.99750656 0.0 0.99750656 0.0 0.99750656 0.0
0.99750656 0.0 0.99750656 0.0 0.99750656 0.0 0.99750656 0.0
0.99750656 0.0 0.99750656 0.0 0.99750656 0.0 0.99750656 0.0
00000000: 3d34 2d3c 0000 0000 975c 7f3f 0000 0000
00000010: 3d34 2d3c 0000 0000 975c 7f3f 0000 0000
00000020: 3d34 2d3c 0000 0000 975c 7f3f 0000 0000
00000030: 975c 7f3f 0000 0000 975c 7f3f 0000 0000
00000040: 975c 7f3f 0000 0000 975c 7f3f 0000 0000
00000050: 975c 7f3f 0000 0000 975c 7f3f 0000 0000
00000060: 975c 7f3f 0000 0000 975c 7f3f 0000 0000
00000070: 975c 7f3f 0000 0000 975c 7f3f 0000 0000
00000080: 975c 7f3f 0000 0000 3d34 2d3c 0000 0000
00000090: 975c 7f3f 0000 0000 975c 7f3f 0000 0000
000000a0: 975c 7f3f 0000 0000 975c 7f3f 0000 0000
000000b0: 975c 7f3f 0000 0000 975c 7f3f 0000 0000
000000c0: 975c 7f3f 0000 0000 975c 7f3f 0000 0000
000000d0: 975c 7f3f 0000 0000 975c 7f3f 0000 0000
000000e0: 975c 7f3f 0000 0000 975c 7f3f 0000 0000
000000f0: 975c 7f3f 0000 0000 975c 7f3f 0000 0000
00000100: 975c 7f3f 0000 0000 975c 7f3f 0000 0000
00000110: 975c 7f3f 0000 0000 975c 7f3f 0000 0000
00000120: 975c 7f3f 0000 0000 975c 7f3f 0000 0000
00000130: 3d34 2d3c 0000 0000 975c 7f3f 0000 0000
00000140: 975c 7f3f 0000 0000 975c 7f3f 0000 0000
00000150: 3d34 2d3c 0000 0000 975c 7f3f 0000 0000
00000160: 975c 7f3f 0000 0000 975c 7f3f 0000 0000
00000170: 975c 7f3f 0000 0000 975c 7f3f 0000 0000
00000180: 975c 7f3f 0000 0000 975c 7f3f 0000 0000
00000190: 975c 7f3f 0000 0000 3d34 2d3c 0000 0000
000001a0: 975c 7f3f 0000 0000 975c 7f3f 0000 0000
000001b0: 975c 7f3f 0000 0000 975c 7f3f 0000 0000
000001c0: 975c 7f3f 0000 0000 975c 7f3f 0000 0000
000001d0: 3d34 2d3c 0000 0000 975c 7f3f 0000 0000
000001e0: 975c 7f3f 0000 0000 975c 7f3f 0000 0000
000001f0: 975c 7f3f 0000 0000 975c 7f3f 0000 0000
00000200: 3d34 2d3c 0000 0000 975c 7f3f 0000 0000
00000210: 975c 7f3f 0000 0000 975c 7f3f 0000 0000
00000220: 3d34 2d3c 0000 0000 975c 7f3f 0000 0000
00000230: 3d34 2d3c 0000 0000 975c 7f3f 0000 0000
00000240: 975c 7f3f 0000 0000 975c 7f3f 0000 0000
00000250: 975c 7f3f 0000 0000 975c 7f3f 0000 0000
00000260: 3d34 2d3c 0000 0000 975c 7f3f 0000 0000
00000270: 975c 7f3f 0000 0000 975c 7f3f 0000 0000
00000280: 3d34 2d3c 0000 0000 975c 7f3f 0000 0000
00000290: 975c 7f3f 0000 0000 975c 7f3f 0000 0000
000002a0: 975c 7f3f 0000 0000 3d34 2d3c 0000 0000
000002b0: 975c 7f3f 0000 0000 975c 7f3f 0000 0000
000002c0: 975c 7f3f 0000 0000 975c 7f3f 0000 0000
000002d0: 975c 7f3f 0000 0000 975c 7f3f 0000 0000
000002e0: 975c 7f3f 0000 0000 975c 7f3f 0000 0000
000002f0: 975c 7f3f 0000 0000 3d34 2d3c 0000 0000
00000300: 975c 7f3f 0000 0000 975c 7f3f 0000 0000
00000310: 975c 7f3f 0000 0000 975c 7f3f 0000 0000
00000320: 975c 7f3f 0000 0000 975c 7f3f 0000 0000
00000330: 975c 7f3f 0000 0000 975c 7f3f 0000 0000
00000340: 975c 7f3f 0000 0000 3d34 2d3c 0000 0000
00000350: 975c 7f3f 0000 0000 975c 7f3f 0000 0000
00000360: 975c 7f3f 0000 0000 975c 7f3f 0000 0000
00000370: 975c 7f3f 0000 0000 3d34 2d3c 0000 0000
00000380: 975c 7f3f 0000 0000 975c 7f3f 0000 0000
00000390: 975c 7f3f 0000 0000 975c 7f3f 0000 0000
000003a0: 975c 7f3f 0000 0000 975c 7f3f 0000 0000
000003b0: 975c 7f3f 0000 0000 975c 7f3f 0000 0000
000003c0: 975c 7f3f 0000 0000 975c 7f3f 0000 0000
000003d0: 975c 7f3f 0000 0000 975c 7f3f 0000 0000
000003e0: 975c 7f3f 0000 0000 975c 7f3f 0000 0000
000003f0: 975c 7f3f 0000 0000 975c 7f3f 0000 0000
