data/RNN_runs/sweep_H2/rnn_sto3g_H2_0-7348_eq1_nU50_nL2_lr00025_lrsO_ns1000.pt (torch_old, 154322 bytes, 13 tensors)

weight_ih f4 [150, 2]
0	0x3986f9a2	0.00025744463
1	0x3df39297	0.11893194
2	0xbea49585	-0.32145324
3	0x3ec435c2	0.38322264
4	0x3de71702	0.11283685
5	0x3db10e60	0.0864532
6	0x3e2781bf	0.16358088
7	0xbea30e6b	-0.31846938
8	0x3e1605b6	0.14650616
9	0x3b0f524d	0.0021869123
10	0xbe9f5770	-0.31121397
11	0x3ecbfd89	0.3984187
12	0xbeae92fd	-0.34096518
13	0x3e749d60	0.23888159
14	0x3db30169	0.08740503
15	0xb87fee91	-6.101892e-05
16	0x3d8d9e6e	0.06914984
17	0x3e15fdb0	0.14647555
18	0xbc731ba3	-0.014838132
19	0x3e661f54	0.22472888
20	0x3e58d8cc	0.21176451
21	0x3c36831e	0.011139659
22	0x3cab7b27	0.020932747
23	0x3ea96503	0.33084878
24	0xbea5af1d	-0.32360163
25	0x3ef6ec71	0.48227265
26	0xbead877f	-0.33892438
27	0x3ef732d0	0.48280954
28	0xbde381e0	-0.11108756
29	0x3e5991bf	0.21247004
30	0xbe1362b9	-0.14393128
31	0x3ee07df2	0.4384609
32	0xbe63dfd3	-0.22253351
33	0x3edd826e	0.43263572
34	0x3eb60224	0.35548508
35	0xbe9cee97	-0.3065078
36	0xbed9d555	-0.42545572
37	0x3ec7c44d	0.39016953
38	0x3e28d6cc	0.16488189
39	0xbdb980fd	-0.09057806
40	0x3df03622	0.11729075
41	0xbdc75dc4	-0.09734681
42	0xbd3501d5	-0.0441912
43	0x3ea37e8c	0.31932485
44	0x3e64c896	0.22342142
45	0xbabc5de6	-0.0014371246
46	0x3e81433b	0.25246605
47	0xbdbb14b7	-0.091348104
48	0x3e2a8741	0.16653158
49	0x3e2f8dc6	0.17143926
50	0x3e5b3be8	0.21409571
51	0x3cf1122a	0.029427607
52	0x3eab59fb	0.33467087
53	0xbdee5354	-0.11636987
54	0xbe98224c	-0.29713666
55	0x3e3369ec	0.17520875
56	0xbe1033ea	-0.14082304
57	0x3eac7dff	0.33689877
58	0x3e34f45d	0.17671342
59	0xbe23344b	-0.15937917
60	0x3e6b9837	0.23007284
61	0x3da02015	0.07818619
62	0x3db321df	0.08746695
63	0xbe61ac34	-0.22038347
64	0x3e2d65ec	0.16933411
65	0xbd12a84e	-0.03580504
66	0x3e75b61d	0.23995252
67	0xbe1977bd	-0.14987083
68	0xbe8a7b82	-0.27047354
69	0x3eaacd00	0.33359528
70	0xbe16bac3	-0.14719681
71	0x3efd0297	0.49416038
72	0x3e120b1f	0.14262055
73	0xbe22f1e6	-0.1591259
74	0xbe7563c9	-0.23963846
75	0x3eef9eb1	0.4680076
76	0x3e40187f	0.18759345
77	0xbe9657d6	-0.29363889
78	0xbe5c4371	-0.21510102
79	0x3ef902b9	0.4863489
80	0x3e6f19a7	0.2334963
81	0xbe046561	-0.12929298
82	0xbe8e0037	-0.2773454
83	0x3ee07942	0.43842512
84	0xbe8c367b	-0.27385315
85	0x3e92d5db	0.28678784
86	0x3e31d2cd	0.1736557
87	0x3d9c5587	0.076335005
88	0x3e91f8b9	0.28510073
89	0x3d745600	0.05965233
90	0xbec32a69	-0.38118294
91	0x3f021668	0.5081544
92	0xbe548d59	-0.20757045
93	0x3efedd2b	0.49778113
94	0x3e3b2a0b	0.18277757
95	0xbe4f99ed	-0.20273562
96	0x3d54f3cb	0.05199031
97	0x3e9320e9	0.28736046
98	0x3ec83cc9	0.39108875
99	0xbe1cbf65	-0.15307386
100	0x3d8c4404	0.068489105
101	0xbe97255d	-0.29520693
102	0xbe027f00	-0.12743759
103	0xbe5e60cc	-0.21716613
104	0xbe6e858d	-0.23293133
105	0xbe09d490	-0.13459992
106	0xbe6e201b	-0.23254435
107	0xbd134b11	-0.03596026
108	0xbe0782e6	-0.13233528
109	0x3c964bf9	0.018346773
110	0x3dc40528	0.09571296
111	0xbe39e6e1	-0.1815448
112	0x3e8f00f5	0.27930418
113	0xbe2a54d0	-0.16633916
114	0xbe0e0a5b	-0.13871138
115	0xbdb4ac28	-0.08821899
116	0xbe9089f7	-0.2823026
117	0xbc892309	-0.016740339
118	0x3d8eed29	0.069788285
119	0xbb3fab55	-0.002924641
120	0xbe275aee	-0.1634328
121	0x3c4cba5a	0.012495602
122	0x3e3e1d0e	0.18565771
123	0xbe81cb34	-0.25350344
124	0xbc3168bc	-0.010828193
125	0xbe472696	-0.19448313
126	0x3e3add13	0.18248396
127	0xbe60c034	-0.2194832
128	0x3c0b1aca	0.008490274
129	0xbda1e34b	-0.07904681
130	0x3dc3673f	0.09541177
131	0xbe87ad69	-0.2649949
132	0xbe345b34	-0.17612916
133	0xbe7e754f	-0.24849437
134	0xbe7784a6	-0.24171695
135	0xbdf89b3d	-0.12138984
136	0x3dd645e0	0.10462546
137	0xbdedc4b5	-0.116097845
138	0xbe54b94b	-0.20773809
139	0x3db6315d	0.08896134
140	0xbdf3b178	-0.11899084
141	0xbdfa17e6	-0.122115895
142	0x3dbed11d	0.09317229
143	0xbd860722	-0.06544329
144	0xbe23738f	-0.15962051
145	0xbd288c8c	-0.04114966
146	0xbeb12c25	-0.34603992
147	0x3e1e7c99	0.15477218
148	0xbe1826a2	-0.14858487
149	0xbe9347d9	-0.28765753
150	0xbeaad615	-0.33366457
151	0xbe050e6b	-0.12993781
152	0xbe7ae2c2	-0.24500564
153	0x3e3f1aed	0.18662615
154	0x3e865ead	0.26244107
155	0xbdb2562d	-0.08707843
156	0xbe9e50d4	-0.30921042
157	0xbe0bcc55	-0.13652165
158	0xbe927e8d	-0.28612176
159	0x3db50801	0.08839417
160	0xbe4820e7	-0.19543801
161	0x3e65aa1e	0.22428176
162	0xbe90c9a3	-0.28278837
163	0x3ea60a3e	0.3242969
164	0xbd9b975c	-0.07597229
165	0x3e04fb83	0.12986569
166	0xbe6ccbcd	-0.23124619
167	0x3e5fa017	0.21838413
168	0xbe02ac4d	-0.1276104
169	0x3dc720cd	0.09723053
170	0x3d35c41e	0.044376485
171	0xbe9a47f9	-0.30133036
172	0xbe4e1ab8	-0.2012738
173	0x3d64b894	0.05584009
174	0x3d55b1a5	0.05217137
175	0xbe0c421d	-0.13697095
176	0xbe95569e	-0.29167646
177	0xbe094e67	-0.13408814
178	0x3e85e2f2	0.26149708
179	0xbe653a72	-0.22385576
180	0xbe727eac	-0.23681134
181	0xbd22c09a	-0.03973446
182	0xbdf7e09d	-0.121033885
183	0xbe6ece28	-0.2332083
184	0xbe0d7877	-0.13815485
185	0xbe74bda3	-0.23900466
186	0xbea76929	-0.32697418
187	0x3d94a0a4	0.07257202
188	0xbd99da39	-0.07512326
189	0xbe071e75	-0.13195212
190	0xbe8e444b	-0.27786478
191	0xbe9713d6	-0.2950732
192	0xbdcb2196	-0.099185154
193	0x3d3f01db	0.04663263
194	0xbea54124	-0.3227626
195	0xbc863048	-0.016380444
196	0x3e17ec88	0.14836323
197	0xbe74f3c8	-0.2392112
198	0xbe06d5a2	-0.13167432
199	0x3e135bf6	0.14390549
200	0xbdb7c4d3	-0.08973088
201	0xbe073be8	-0.13206446
202	0x3e850df2	0.25987202
203	0xbea9c419	-0.33157423
204	0xbe971d52	-0.29514557
205	0xbd974fba	-0.073882535
206	0x3e8d5008	0.27600121
207	0xbeb3495b	-0.35016903
208	0xbe7309f9	-0.23734273
209	0x3e2dab42	0.16959861
210	0xbe74392d	-0.23849936
211	0x3e54c87c	0.20779604
212	0x3e59e300	0.21278
213	0xbe6fc838	-0.23416221
214	0x3e1c40b4	0.15259057
215	0x3da7fd9b	0.08202668
216	0x3e8a3c88	0.26999307
217	0xbe97fafa	-0.29683667
218	0xbc654524	-0.013993535
219	0x3da8b6b3	0.08237972
220	0xbe29a362	-0.16566232
221	0xbe0eb171	-0.13934876
222	0x3bb6c04e	0.0055771237
223	0x3d90021b	0.070316516
224	0x3e9f6e1c	0.31138694
225	0xbec37331	-0.38173822
226	0x3e17ce5d	0.14824815
227	0xbeaa0a1b	-0.33210835
228	0x3e896fe3	0.26843175
229	0xbe8c1644	-0.27360737
230	0xbe86e1c1	-0.26344112
231	0x3e9ac1db	0.30226025
232	0xbeb3f3c8	-0.35146928
233	0x3e9f93d8	0.31167483
234	0x3e7b983a	0.24569789
235	0xbed4896c	-0.41511095
236	0x3e9631ab	0.2933477
237	0xbe359beb	-0.17735259
238	0xbed10bf7	-0.4082944
239	0x3ea0c2dc	0.31398666
240	0x3e1b4ef7	0.15166841
241	0x3d6b42c8	0.057436734
242	0xbd76c9b4	-0.060250953
243	0xbdfdb6cf	-0.123883836
244	0x3e8358bc	0.25653636
245	0x3df2f49b	0.11863061
246	0xbeae4085	-0.340336
247	0x3cbeea0e	0.023304965
248	0x3dc1c592	0.09461512
249	0x3e61ff17	0.22069965
250	0x3eba05cb	0.36332545
251	0xbecb78c7	-0.39740583
252	0x3eda34ca	0.426184
253	0xbee59629	-0.44841126
254	0xbe2575ee	-0.16158268
255	0x3ceb6486	0.028734457

weight_hh f4 [150, 50]
0	0xbd43f77a	-0.047843434
1	0x3c0b5949	0.008505174
2	0x3daa2064	0.08306959
3	0x3c819eb1	0.01582274
4	0xbe106c28	-0.14103758
5	0x3dc5cf07	0.09658628
6	0xbd37920f	-0.044817027
7	0xbd97b506	-0.07407574
8	0x3db771c7	0.08957248
9	0x3dcc6c8f	0.099816434
10	0xbda795fe	-0.081829056
11	0x3d935448	0.0719381
12	0xbdfa810e	-0.122316465
13	0x3db9d351	0.090735085
14	0xbde83eb5	-0.113400854
15	0x3d664421	0.056217317
16	0xbd08df98	-0.03341636
17	0xbc79edfa	-0.015254492
18	0x3c5ddbe5	0.0135411965
19	0xbe0b6e00	-0.1361618
20	0xbcd51286	-0.02600981
21	0xbdba82e7	-0.09106999
22	0x3e395955	0.18100484
23	0x3d457135	0.048203666
24	0x3e113869	0.14181675
25	0xbe16160b	-0.14656846
26	0x3e4faa69	0.2027985
27	0x3d99f640	0.075176716
28	0xbde5e834	-0.1122593
29	0x3d59c49f	0.053166028
30	0xbd9ed20f	-0.07754909
31	0xbe1ce735	-0.15322573
32	0xbe069bba	-0.13145342
33	0x3e3ec7d6	0.18630919
34	0x3d9785cc	0.073985666
35	0x3d1f3179	0.03886554
36	0x3cbc1964	0.022961326
37	0xbe0542ce	-0.13013765
38	0x3da1832f	0.078863494
39	0x3cf7bd1f	0.030241547
40	0xbd5d62b2	-0.0540492
41	0x3d24eb06	0.0402632
42	0xbd1429d9	-0.03617272
43	0x3c8b7316	0.01702265
44	0xbdab6323	-0.08368518
45	0x3ca3ed9a	0.020010758
46	0xbdde76a0	-0.1086247
47	0x3d70f0fe	0.058823578
48	0x3db1cb55	0.08681361
49	0x3df01fe0	0.1172483
50	0x3e0ec424	0.13942009
51	0x3d4ad49c	0.049519166
52	0x3df85a03	0.121265434
53	0x3cc7c1be	0.024384376
54	0xbdb049cd	-0.086078264
55	0x3b4066f4	0.002935824
56	0x3c5de200	0.013542652
57	0x3dbd6fa9	0.09249813
58	0x3e5d392a	0.21603838
59	0xbdac6b41	-0.084188946
60	0x3e05d5be	0.13069817
61	0x3ca85988	0.020550504
62	0x3d2db530	0.042409122
63	0x3dbfd08c	0.09365949
64	0x3db325ed	0.08747468
65	0x3d41f72c	0.047354862
66	0xbccbf79d	-0.024898345
67	0x3e842176	0.2580678
68	0x3e456b18	0.19279134
69	0xbead4ff1	-0.33850053
70	0x3db54024	0.088501245
71	0x3c805a7a	0.015668143
72	0x3dbb42e6	0.09143619
73	0x3db43791	0.08799661
74	0xbde68c61	-0.11257244
75	0x3d337989	0.043817077
76	0x3e81d011	0.25354055
77	0xbd976b67	-0.07393532
78	0x3aac6997	0.0013154027
79	0xbcd4d937	-0.025982482
80	0x3d8178b4	0.063218504
81	0xbce012bc	-0.027352683
82	0x3d822327	0.06354361
83	0x3d352f39	0.04423449
84	0x3cf01436	0.029306512
85	0xbb01ca68	-0.0019804481
86	0xbdbf2983	-0.093340896
87	0x3c88453c	0.016634576
88	0x3ccd6862	0.025074188
89	0x3de7a265	0.11310271
90	0x3e447caf	0.19188188
91	0x3da08d0b	0.07839402
92	0xbe1773a0	-0.14790201
93	0x3dc92c46	0.098228976
94	0xbbbeb947	-0.0058204266
95	0x3c189aa4	0.009314213
96	0xbce47462	-0.027887527
97	0xbcb00cd9	-0.021490501
98	0xbce3dada	-0.027814317
99	0xbd0127ef	-0.031532224
100	0x3db8f3bc	0.09030864
101	0xbe1d6456	-0.15370306
102	0xbe1f91f0	-0.15583014
103	0x3d7272e0	0.059191585
104	0xbde756e4	-0.1129587
105	0x3d9e80b8	0.07739395
106	0x3d8e34d1	0.06943668
107	0xbb67138c	-0.0035259454
108	0x3e2982e1	0.16553833
109	0x3e4d7b8f	0.20066665
110	0x3cfdd638	0.030985937
111	0x3dfc4822	0.12318446
112	0xbe0484f2	-0.1294134
113	0x3d027f6f	0.03185981
114	0xbe01f520	-0.12691164
115	0xbd4d98a4	-0.050194398
116	0xbc88e132	-0.016708944
117	0x3d8b9b0d	0.06816683
118	0xbd980abd	-0.07423923
119	0x3d4e7e04	0.050413147
120	0x3e0a6de6	0.13518485
121	0xbd3f1bda	-0.04665742
122	0x3e35d52d	0.17757101
123	0xbe3452d8	-0.17609727
124	0xbdbc47ec	-0.091934055
125	0xbe2546e3	-0.16140322
126	0x3d4f65f0	0.050634325
127	0x3e8470da	0.2586735
128	0xbdd3ed04	-0.103479415
129	0x3e2a2d08	0.1661874
130	0xbe350ba6	-0.17680225
131	0xbd99987e	-0.07499789
132	0xbe03b6b6	-0.12862667
133	0x3d3eb1e2	0.04655636
134	0xbde49f84	-0.11163238
135	0x3e02aaeb	0.12760513
136	0x3d6c433c	0.057681307
137	0xbdea78e4	-0.11448839
138	0x3d32ee1b	0.043684106
139	0xbe193ca1	-0.14964534
140	0x3d4cd9d0	0.05001241
141	0x3d850b53	0.064963005
142	0xbd4a28ac	-0.049355194
143	0xbd73b777	-0.059501138
144	0x3df7f73e	0.121077046
145	0xbe204567	-0.15651475
146	0xbb5729fe	-0.0032831426
147	0xbe60944d	-0.21931572
148	0xbe332c57	-0.17497383
149	0x3e19ca16	0.15018496
150	0xbd831936	-0.06401293
151	0xbe4945ec	-0.1965558
152	0x3be94f24	0.00712003
153	0x3d14ed67	0.036359217
154	0x3c83690e	0.016041305
155	0x3e25a4d6	0.16176161
156	0xbdffd5f9	-0.12491984
157	0x3e606e3d	0.21917053
158	0xbe236445	-0.15956219
159	0x3e6998e9	0.22812237
160	0x3cda5d81	0.026655914
161	0xbcf5a5db	-0.029986313
162	0xbdaf824f	-0.08569776
163	0xbe4ac72a	-0.19802538
164	0x3db28022	0.08715846
165	0x3ccad96d	0.02476188
166	0x3e0ef558	0.13960779
167	0x3dad5c5e	0.08464883
168	0xbe6b3aa2	-0.22971585
169	0x3e1b349c	0.15156788
170	0xbd951706	-0.07279782
171	0xbdda40be	-0.1065688
172	0x3df32dc5	0.11873964
173	0xbe6849d0	-0.22684407
174	0xbdb90050	-0.09033263
175	0xbe414692	-0.18874577
176	0xbe4b0970	-0.19827819
177	0x3d51870f	0.051154193
178	0xbdfb8910	-0.12282002
179	0x3e43c599	0.19118346
180	0xbdd50593	-0.10401454
181	0xbe292bfe	-0.16520688
182	0xbe9142a1	-0.28371146
183	0x3e4b80fd	0.19873424
184	0xbe809958	-0.25116992
185	0x3b7a778c	0.0038218228
186	0xbd836c30	-0.064171195
187	0xbc873c97	-0.016508384
188	0x3d18acd0	0.03727418
189	0xbcd33e36	-0.0257865
190	0xbdec8007	-0.11547857
191	0xbde5b905	-0.1121693
192	0x3d19fece	0.037596516
193	0x3dd17451	0.10227264
194	0x3e04e259	0.1297697
195	0xbdeeb966	-0.11656456
196	0xbd927f64	-0.07153204
197	0xbdc7b799	-0.09751815
198	0xbd736cc9	-0.059429917
199	0x3e3dd249	0.18537249
200	0xbdd2d055	-0.102936424
201	0xbd868529	-0.06568367
202	0xbd66ee3c	-0.05637954
203	0x3cfb4f48	0.030677453
204	0xbe00bc8d	-0.12571926
205	0xbcbf325c	-0.023339443
206	0xbe54ecfc	-0.20793527
207	0x3e16a204	0.14710242
208	0x3e42a007	0.19006358
209	0x3e85190f	0.2599568
210	0xbd8fdee9	-0.070249386
211	0x3db39899	0.0876934
212	0xbd630da8	-0.055432945
213	0xbe83f810	-0.25775194
214	0xbd117bc0	-0.035518408
215	0xbb193f2c	-0.00233836
216	0x3d438a14	0.047739103
217	0x3ddb3fa1	0.107054956
218	0xbe35664a	-0.17714801
219	0xbe54c84c	-0.20779532
220	0x3d8c3882	0.068467155
221	0xbe0a0333	-0.13477783
222	0x3dd6ba20	0.10484719
223	0xbe1e9528	-0.15486586
224	0xbc82e26c	-0.015977107
225	0x3dcd6e0f	0.10030758
226	0x3c75bd35	0.014998724
227	0x3d9d1e39	0.0767178
228	0x3d206354	0.039157227
229	0x3e1d3f8f	0.15356277
230	0xbcafedad	-0.021475637
231	0x3d0e86c0	0.034796476
232	0xbd66e152	-0.056367226
233	0x3db6541c	0.08902761
234	0xbd458c16	-0.0482293
235	0x3b8970bf	0.0041943486
236	0x3e665fff	0.22497557
237	0xbd83fc27	-0.064445786
238	0xbdba99d3	-0.09111371
239	0xbc801219	-0.01563363
240	0x3dd2c277	0.102909975
241	0xbc3e46ff	-0.0116136065
242	0x3de796e1	0.11308075
243	0x3e8edc0e	0.27902263
244	0x3e1bf856	0.15231451
245	0xbd5eec79	-0.054424737
246	0xbd28b3ba	-0.041187026
247	0xbe958764	-0.29204857
248	0xbd1fcffd	-0.039016712
249	0x3e011f6a	0.1260964
250	0xbc54ad69	-0.012980797
251	0x3d04eb58	0.032451004
252	0x3ddaed68	0.10689813
253	0x3deb024b	0.11475047
254	0xbe39976c	-0.18124169
255	0x3db15c77	0.086602144

bias_ih f4 [150]
0	0x3d023484	0.031788364
1	0xbdd17679	-0.10227675
2	0x3b751776	0.0037398017
3	0xbd4e5fca	-0.05038432
4	0x3dd1d5bf	0.10245847
5	0xbdf1464e	-0.11780988
6	0xbaab08a8	-0.0013048844
7	0x3d63975f	0.05556428
8	0x3ddc125d	0.1074569
9	0x3da2d7e5	0.07951335
10	0xbd372052	-0.044708557
11	0x3e812b79	0.2522848
12	0xbd8ac1d9	-0.06775255
13	0xbadfc345	-0.0017071745
14	0x3da082f8	0.0783748
15	0x3e817474	0.2528416
16	0xbdd6c87f	-0.1048746
17	0xbc2745ac	-0.010209482
18	0xbc017378	-0.007901065
19	0xbc6df568	-0.014523841
20	0x3bbff238	0.005857732
21	0x3db525b8	0.08845085
22	0x3e2e075b	0.16994993
23	0x3c874a40	0.016514897
24	0xbc1069a8	-0.008814253
25	0xbdb71329	-0.089392014
26	0x3de92d5d	0.113856055
27	0x3e961873	0.29315528
28	0x3d216be5	0.039409537
29	0x3dc4bd6a	0.0960644
30	0x3dcc1191	0.09964288
31	0xbcf20c2f	-0.029546825
32	0x3d408847	0.047004964
33	0xbdb5cd31	-0.08877028
34	0x3e3c2bf1	0.18376137
35	0x3d3c632c	0.045993015
36	0x3d60d532	0.05489082
37	0x3dc14f48	0.0943895
38	0xbdefcfb4	-0.11709538
39	0x3d98725a	0.07443686
40	0xbded4169	-0.115847416
41	0x3d07cf32	0.03315658
42	0xbcc98dca	-0.024603743
43	0x3c108977	0.008821837
44	0x3dac9c3a	0.08428235
45	0x3d05fd7a	0.032712437
46	0xbd780e43	-0.060560476
47	0x3d8354c6	0.064126536
48	0x3e734bba	0.23759356
49	0x3bc63bb1	0.0060495962
50	0xbdf031b1	-0.11728228
51	0xbe08ab70	-0.13346648
52	0xbdef97ea	-0.11698897
53	0xbe25e1fe	-0.1619949
54	0xbe879a5e	-0.2648496
55	0xbe4789ca	-0.19486156
56	0xbe369467	-0.17830049
57	0xbe6db630	-0.2321403
58	0xbd6cba6d	-0.057794977
59	0xbd489f00	-0.04897976
60	0xbe351a36	-0.1768578
61	0xbd095647	-0.033529546
62	0xbe2b36b6	-0.1672009
63	0xbe04b283	-0.12958722
64	0xbe42984a	-0.19003406
65	0xbea2e6da	-0.3181675
66	0xbe110286	-0.14161119
67	0xbe31e06a	-0.17370763
68	0xbd97237d	-0.07379816
69	0xbe484eab	-0.1956126
70	0xbe1be6b1	-0.1522472
71	0xbe818ac0	-0.2530117
72	0xbc9d9c66	-0.019239616
73	0x3cd795ee	0.02631661
74	0xbd745c79	-0.0596585
75	0xbe98903e	-0.29797548
76	0xbdade8eb	-0.08491691
77	0xbe6fab58	-0.23405206
78	0xbe9d3b60	-0.30709362
79	0xbd446982	-0.047952183
80	0xbda36fad	-0.07980285
81	0xbd952adb	-0.07283565
82	0xbcc7d229	-0.024392204
83	0xbcfd8309	-0.030946271
84	0xbde3ba5f	-0.11119532
85	0xbe029b43	-0.1275454
86	0xbe0dde17	-0.13854252
87	0xbe03c493	-0.12867956
88	0xbe2026de	-0.15639827
89	0xbeafec10	-0.3435979
90	0xbe5317b0	-0.20614505
91	0xbe33ed1e	-0.17570922
92	0xbe99df95	-0.30053392
93	0xbe22d9fd	-0.15903468
94	0xbc5e53f4	-0.013569821
95	0xbdbd63f4	-0.0924758
96	0xbdbbb013	-0.09164443
97	0xbe886b82	-0.26644522
98	0xbe4afc5c	-0.1982283
99	0xbe95baf1	-0.29244187
100	0xbe87a3f5	-0.26492277
101	0xbdfd5afa	-0.12370868
102	0xbe79faa5	-0.2441202
103	0xbea7030b	-0.3261951
104	0xbdb889c1	-0.090106495
105	0x3e3a6467	0.18202363
106	0xbe155cb9	-0.14586152
107	0x3e4ef610	0.20211053
108	0xbd910f0d	-0.07082949
109	0x3e4177d0	0.18893361
110	0x3d5dbba0	0.05413401
111	0x3e49a7b4	0.1969288
112	0xbcf45f52	-0.029830609
113	0xbcd8396c	-0.026394568
114	0xbde17d58	-0.110102355
115	0x3e9c550f	0.30533645
116	0x3deb6db2	0.11495532
117	0xbdfb038e	-0.122565374
118	0x3d593485	0.053028602
119	0x3dd296db	0.1028268
120	0x3e4845a8	0.19557822
121	0xbe0a41da	-0.13501683
122	0xbc7df1d0	-0.015499547
123	0xbdae1ef1	-0.08501995
124	0x3e5254f9	0.20540227
125	0xbdd26cc6	-0.10274653
126	0xbdcd310c	-0.100191206
127	0x3d57c7ad	0.05268066
128	0xbcb83c53	-0.022489702
129	0xbcf5de1c	-0.030013137
130	0xbe0365a6	-0.12831745
131	0xbe0289ec	-0.12747926
132	0xbd8c3727	-0.06846457
133	0x3e173f51	0.14770247
134	0xbc02a3ac	-0.007973593
135	0x3e08df50	0.13366437
136	0x3df77022	0.120819345
137	0xbb820818	-0.00396825
138	0xbe5779a9	-0.21042503
139	0xbe4e3303	-0.20136647
140	0xbe5c1090	-0.21490693
141	0xbda19c35	-0.07891122
142	0x3e496674	0.19667989
143	0xbd0e13d5	-0.034686882
144	0x3e2c91c5	0.16852482
145	0xbe425d50	-0.18980908
146	0xbd3b7886	-0.045769237
147	0x3ce211c1	0.027596356
148	0xbe450570	-0.19240355
149	0xbd8cf78d	-0.06883154

bias_hh f4 [150]
0	0x3e348a98	0.17630994
1	0x3c0f5a75	0.008749594
2	0x3e140e25	0.1445852
3	0xbd432cd0	-0.04765016
4	0x3e1b3b20	0.15159273
5	0x3db173af	0.08664643
6	0x3e80dae1	0.2516699
7	0x3e8323cb	0.25613245
8	0x3cb8269c	0.022479348
9	0x3e0b522a	0.13605562
10	0x3d993693	0.07481112
11	0x3dc0409a	0.09387322
12	0x3df19af3	0.11797132
13	0x3e23c019	0.15991248
14	0xbd86ff50	-0.06591666
15	0x3d0045c0	0.03131652
16	0x3deeea23	0.11665752
17	0xbe7445a2	-0.23854688
18	0x3e4ba56a	0.19887319
19	0x3da97218	0.08273715
20	0xbdc609bb	-0.09669825
21	0x3e6c9ad7	0.23105942
22	0xbcf805b7	-0.030276163
23	0xbd9b01df	-0.07568716
24	0x3df0b698	0.11753577
25	0xbe1297af	-0.14315675
26	0x3dfad20f	0.12247097
27	0x3e76aaa3	0.2408853
28	0x3af1dca5	0.0018452598
29	0x3cb37bda	0.021909643
30	0x3d8d91b7	0.069125585
31	0x3d040c16	0.03223809
32	0x3d7018da	0.05861745
33	0xbce25e0e	-0.02763274
34	0x3ce075cd	0.027399922
35	0x3da4873f	0.08033609
36	0xbd148a21	-0.036264542
37	0x3d0a1168	0.033708006
38	0x3d99e230	0.07513845
39	0x3d8ff9ad	0.07030044
40	0xbd950949	-0.07277162
41	0xbdde7abc	-0.108632535
42	0x3d143a18	0.036188215
43	0x3dcc9aed	0.09990487
44	0x3e4ece39	0.20195855
45	0x3cd8bc47	0.026456965
46	0x3e191b77	0.14951883
47	0xbe0a39e4	-0.13498646
48	0x3e005a03	0.12534337
49	0xbdc8b8c7	-0.098008685
50	0xbde09f68	-0.10967904
51	0xbe57ad11	-0.21062113
52	0xbeb11737	-0.34588024
53	0xbe89a295	-0.26881853
54	0xbc16c446	-0.009202069
55	0xbcc49d88	-0.024000898
56	0x3808c52c	3.2608557e-05
57	0xbe436620	-0.19081926
58	0xbdb680e4	-0.08911303
59	0xbd0e514d	-0.034745503
60	0xbe3719f4	-0.17880994
61	0xbdc624f2	-0.096750155
62	0xbe4be454	-0.19911319
63	0xbe08e789	-0.13369574
64	0xbea7ad63	-0.3274947
65	0xbe32c80f	-0.17459129
66	0xbd3ba62c	-0.04581277
67	0xbcc8eb8e	-0.024526384
68	0xbe61eaf8	-0.2206229
69	0xbe622e3d	-0.22087951
70	0xbe62194f	-0.22079967
71	0xbd85a38f	-0.06525337
72	0xbd621c10	-0.055202544
73	0xbe5df80d	-0.21676655
74	0xbde7ab8f	-0.11312019
75	0xbe33468b	-0.17507379
76	0xbc157070	-0.0091210455
77	0xbd83b802	-0.06431581
78	0xbe66d8fe	-0.22543713
79	0xbdb695d0	-0.08915293
80	0xbe3bd26d	-0.1834199
81	0xbda7d332	-0.08194579
82	0xbd0dc715	-0.034613688
83	0xbd23a65e	-0.039953582
84	0xbc252329	-0.010079184
85	0xbe7ae484	-0.24501234
86	0xbd842361	-0.064520605
87	0x3cacb789	0.02108361
88	0xbe50e148	-0.20398438
89	0xbdd779d0	-0.10521281
90	0xbdb52822	-0.08845545
91	0xbdb34e3b	-0.08755156
92	0xbd9e5883	-0.07731726
93	0xbe9e53c3	-0.3092328
94	0xbe69bf37	-0.22826849
95	0xbe647f68	-0.22314227
96	0xbe73782b	-0.23776309
97	0xbe615c79	-0.22007932
98	0xbe0f66fc	-0.14004129
99	0xbe8b18a8	-0.2716725
100	0xbe85ba2b	-0.26118597
101	0xbd357294	-0.044298723
102	0xbe274ecc	-0.16338652
103	0xbdba520c	-0.090976804
104	0xbe1188d2	-0.14212349
105	0x3adfa3fd	0.0017062422
106	0xbe507e2f	-0.20360635
107	0x3ea78cfa	0.32724744
108	0xbd3bd441	-0.045856718
109	0x3dd3c4b5	0.10340253
110	0xbba5f702	-0.005064846
111	0x3e44fb42	0.19236472
112	0xbe3198da	-0.17343464
113	0x3c3c87cf	0.011506989
114	0xbde27d16	-0.110590145
115	0x3ead29ae	0.33820862
116	0x3e86d487	0.2633402
117	0xbbf3572e	-0.007426164
118	0xbdbc1236	-0.09183161
119	0xbd7684fc	-0.060185418
120	0x3dbb6021	0.091491945
121	0xbe43b0bb	-0.19110386
122	0xbc7eb0ac	-0.015545052
123	0xbd99f285	-0.0751696
124	0x3e16acd8	0.14714372
125	0xbe019f93	-0.12658529
126	0x3bd344c5	0.006447407
127	0xbe021dca	-0.12706676
128	0xbe583d6e	-0.21117184
129	0x3c89e893	0.016834533
130	0x3e0e6bc1	0.13908292
131	0xbe04eaec	-0.1298024
132	0xbd7525a4	-0.05985035
133	0xbd7090bf	-0.05873179
134	0xbda03938	-0.078234136
135	0x3ce1b584	0.027552374
136	0x3dc16d02	0.0944462
137	0xbc04e11d	-0.008110312
138	0x3cc6c0b5	0.024261812
139	0xbe552677	-0.20815454
140	0xbdeb2eb7	-0.114835195
141	0xbe0f9779	-0.14022626
142	0x3e44e446	0.19227704
143	0xbd7f7efa	-0.062376954
144	0x3d958f5c	0.07302734
145	0xbdb70514	-0.089365155
146	0xbe3ec40e	-0.18629476
147	0xbdcde924	-0.10054234
148	0xbe437117	-0.19086109
149	0x3d4e97d6	0.05043777

weight_ih f4 [150, 50]
0	0x3c8d80fd	0.01727342
1	0x3db47554	0.08811441
2	0xbd28b256	-0.0411857
3	0xbcfc6975	-0.030812005
4	0x3d204810	0.039131224
5	0x3dcace9f	0.09902691
6	0xbc087c1e	-0.008330373
7	0x3e0da213	0.13831358
8	0x3e236bd7	0.15959106
9	0x3da468d9	0.080278106
10	0xbd7920f3	-0.06082244
11	0x3d4a9164	0.04945506
12	0xbc4bd466	-0.012440776
13	0xbddc330b	-0.10751923
14	0x3d9d4d21	0.07680727
15	0xbcb7a551	-0.022417696
16	0xbd8e56a2	-0.06950118
17	0xbcae4d48	-0.021277085
18	0xbe3739bb	-0.17893116
19	0xbd253a23	-0.040338647
20	0x3d291f14	0.041289404
21	0xbe2eb0f3	-0.17059688
22	0xbb9d0bf9	-0.004792687
23	0xbe316572	-0.17323855
24	0x3e165249	0.14679827
25	0xbda78c12	-0.08181013
26	0x3e64fd61	0.22362281
27	0x3e31b29c	0.1735329
28	0x3dc73694	0.09727207
29	0x3e5378bd	0.20651527
30	0x3ca4d099	0.020118998
31	0x3cc467ae	0.02397522
32	0xbe1b5de0	-0.15172529
33	0x3b6bc1c5	0.003597365
34	0xbd0e2336	-0.03470155
35	0x3d6a105e	0.057144515
36	0x3e10c1ee	0.14136478
37	0x3d9744bb	0.07386156
38	0xbdba1bc7	-0.09087329
39	0x3d82144b	0.06351527
40	0xbd939385	-0.072058715
41	0x3c8186f3	0.01581142
42	0xbd1af65c	-0.037832603
43	0x3e224127	0.15845166
44	0xbc91f645	-0.017817626
45	0xbe1d6372	-0.15369967
46	0xbd643d48	-0.055722505
47	0xbd2b22a6	-0.04178109
48	0xbca69503	-0.020334726
49	0x3e6dbce4	0.23216587
50	0x3db81d7f	0.08990001
51	0xbd8615a8	-0.06547099
52	0x3de2692e	0.11055218
53	0xbde54673	-0.11195078
54	0xbdbd8b0b	-0.09255036
55	0x3e64b9be	0.2233648
56	0xbe0cdd84	-0.13756377
57	0x3de08cf6	0.10964386
58	0xbd649509	-0.055806194
59	0x3df4df12	0.1195661
60	0x3dba1182	0.090853706
61	0xbd3be627	-0.045873787
62	0xbe4e63a6	-0.201552
63	0xbb9d76c7	-0.004805419
64	0xbe203675	-0.15645774
65	0x3e559a7e	0.20859715
66	0x3e75f96a	0.24020925
67	0xbe0f32d0	-0.13984227
68	0xbe68232b	-0.22669666
69	0x3dbb932d	0.09158931
70	0x3b88d860	0.0041761845
71	0x3c3bc3e7	0.011460281
72	0x3dc81a24	0.09770611
73	0x3d543251	0.051805798
74	0xbd18181e	-0.037132375
75	0xbe82fa06	-0.25581378
76	0xbe840827	-0.2578747
77	0x3db5884f	0.088638894
78	0xbdc84cf3	-0.09780302
79	0x3e1a0888	0.15042317
80	0xbde6d3f8	-0.112708986
81	0xbcb8fd46	-0.022581708
82	0x3ce07c41	0.027402999
83	0xbd1ac5da	-0.037786342
84	0xbe23e872	-0.1600664
85	0x3dcd362e	0.100200996
86	0xbd2408bc	-0.040047392
87	0xbdc4da06	-0.09611897
88	0xbd9b0968	-0.075701535
89	0xbdd45dc2	-0.103694454
90	0xbe17b1c8	-0.14813912
91	0xbd876c07	-0.066124015
92	0x3d8ee7ba	0.06977792
93	0xbce94576	-0.028475504
94	0x3d2ae99b	0.04172669
95	0xbe82dbe5	-0.2555839
96	0xbe585e00	-0.21129608
97	0x3e2ee7c3	0.17080598
98	0x3d55ab07	0.052165058
99	0xbd29f81d	-0.041496385
100	0x3d6036b9	0.054739688
101	0x3c70a078	0.014686696
102	0x3db36421	0.087593324
103	0xbde39b63	-0.11113622
104	0x3e4d5a15	0.20053895
105	0x3d7f4ec1	0.062330965
106	0xbd360889	-0.044441734
107	0x3c80274f	0.015643744
108	0xbdda1b13	-0.10649695
109	0x3ca676a0	0.020320237
110	0x3e444dbd	0.1917028
111	0x3e00047f	0.12501715
112	0xbe01aff9	-0.12664784
113	0xbd56324b	-0.052294057
114	0xbe35c2bf	-0.17750071
115	0xbdb50cb9	-0.08840317
116	0x3e20c285	0.15699203
117	0xbee55975	-0.44794813
118	0xbd5f4821	-0.054512147
119	0x3e8f04d7	0.2793338
120	0x3ca117e8	0.01966472
121	0x3e1e0847	0.15432845
122	0x3d13bd82	0.0360694
123	0xbb780db3	-0.0037849962
124	0xbccac025	-0.024749825
125	0xbe615ffe	-0.22009274
126	0xbea56cac	-0.32309473
127	0x3d888add	0.06667111
128	0xbea09c1d	-0.31369105
129	0xbd694e45	-0.05695941
130	0x3d8f7ccc	0.07006225
131	0x3e772dc7	0.24138556
132	0x3e67b7a8	0.22628653
133	0xbe0ed708	-0.13949215
134	0xbd922f63	-0.071379445
135	0x3df12dd6	0.11776321
136	0xbe04b53a	-0.12959757
137	0xbe238234	-0.15967637
138	0x3d065c0e	0.032802634
139	0xbc0851d8	-0.008320294
140	0xbeff9e5b	-0.49925503
141	0xbea42c02	-0.32064825
142	0x3d3dcbd5	0.046336967
143	0xbeae79bd	-0.34077254
144	0xbe0e79a4	-0.1391359
145	0xbccde9be	-0.025135871
146	0xbe5e74ed	-0.21724291
147	0x3eb7bd24	0.3588649
148	0xbc9c7c17	-0.01910214
149	0xbd4ae3f5	-0.049533803
150	0x3d2a12fc	0.04152201
151	0x3b3bddcc	0.0028666137
152	0xbc44f0bc	-0.012020286
153	0xbeee5638	-0.46550155
154	0x3d9a894c	0.075457186
155	0xbd4ff958	-0.050774902
156	0xbe19bcc3	-0.15013413
157	0xbd233f80	-0.03985548
158	0xbe8a08a6	-0.26959723
159	0x3d2bff17	0.04199132
160	0x3dd9871e	0.10621475
161	0xbd2a91e0	-0.041643023
162	0xbe8bf35b	-0.27334103
163	0xbe05b078	-0.13055599
164	0xbddfcd33	-0.109278105
165	0x3d42684a	0.04746274
166	0x3d119b10	0.03554827
167	0xbed2bef2	-0.41161305
168	0xbc8b23cc	-0.016984843
169	0x3e8488f0	0.25885725
170	0xbde7494b	-0.112932764
171	0xbd936d47	-0.071985774
172	0x3cddc982	0.027073625
173	0x3db36b0b	0.08760651
174	0xbe2e5319	-0.17023887
175	0xbe8ba6ce	-0.272757
176	0xbee1fa26	-0.4413616
177	0x3e32a0fc	0.17444223
178	0xbe341e7c	-0.17589754
179	0xbe50f35b	-0.20405333
180	0x3e97c546	0.29642695
181	0x3e8dc795	0.27691332
182	0x3dc66975	0.09688083
183	0xbe89def4	-0.26927912
184	0xbe051207	-0.12995158
185	0x3c52ca84	0.012865666
186	0xbe683883	-0.22677808
187	0xbe1432d3	-0.14472513
188	0x3e55e382	0.20887569
189	0x3cd1f290	0.025628358
190	0xbec4d302	-0.38442236
191	0xbe8d3ad9	-0.2758396
192	0x3e54d1f4	0.20783216
193	0xbe8d5b61	-0.2760878
194	0xbd71ea2d	-0.059061218
195	0xbd68dab0	-0.05684918
196	0xbe147887	-0.14499103
197	0x3e96bbea	0.29440242
198	0xbe192ab8	-0.14957702
199	0xbe3d8858	-0.18509042
200	0x3e30a16b	0.17249076
201	0xbdb3d3b5	-0.08780614
202	0x3e154f91	0.14581133
203	0xbe9a281a	-0.3010872
204	0x3b8ff28e	0.0043929284
205	0xbdee10ed	-0.11624322
206	0xbde61960	-0.11235309
207	0xbe2e9abd	-0.17051215
208	0xbe07d8f6	-0.13266358
209	0xbdb31e4c	-0.08746013
210	0xbca539e2	-0.020169202
211	0xbd7a8f2f	-0.061171707
212	0xbd0e014e	-0.034669213
213	0xbe177c5c	-0.14793533
214	0xbd80874c	-0.06275806
215	0x3c7984a4	0.015229378
216	0x3e310656	0.17287573
217	0xbeccb99e	-0.39985365
218	0xbe463f3c	-0.1936006
219	0x3dffec64	0.1249626
220	0xbd50c839	-0.050972197
221	0xbbdb1e92	-0.006686994
222	0xbdad8fe3	-0.0847471
223	0x3e365163	0.17804484
224	0xbd71b793	-0.05901296
225	0xbebe1b97	-0.37130424
226	0xbe842a07	-0.25813314
227	0x3e19800a	0.1499025
228	0xbeb4beca	-0.3530181
229	0xbda4a853	-0.08039918
230	0x3db5ff5f	0.08886599
231	0x3e961c56	0.29318494
232	0x3dc98688	0.09840113
233	0x3baa108b	0.0051899604
234	0xbe95e11e	-0.29273313
235	0x3df6e3e4	0.120551854
236	0xbe7356bc	-0.23763555
237	0xb9215136	-0.0001538441
238	0x3dd34f4d	0.1031786
239	0xbe32f644	-0.17476755
240	0xbe8e52a9	-0.2779744
241	0xbe0391ef	-0.12848638
242	0x3c5810b8	0.01318758
243	0xbe756515	-0.23964341
244	0xbdc78750	-0.09742606
245	0xbdd52dd4	-0.10409132
246	0xbe9d4f80	-0.30724716
247	0x3e5cf423	0.21577506
248	0xbc1ee403	-0.009697917
249	0xbde33674	-0.110943705
250	0x3d4b7195	0.049668867
251	0x3e0239a6	0.12717304
252	0xbdb15966	-0.086596295
253	0x3ebeb824	0.37249863
254	0xbd602038	-0.054718226
255	0x3df6fd1f	0.12059998

weight_hh f4 [150, 50]
0	0xbd2dce57	-0.04243311
1	0xbe0c2765	-0.13686903
2	0xbe87d8f1	-0.265327
3	0x3bd3e0aa	0.006465991
4	0x3b9d8cc5	0.004808041
5	0x3e04f69e	0.12984702
6	0xbe38267f	-0.17983435
7	0xbe7ec4dd	-0.24879785
8	0x3da32a2d	0.07967029
9	0xbda215d2	-0.07914318
10	0x3d94a0ca	0.072572306
11	0x3e336ca4	0.17521912
12	0x3d6bfaa5	0.05761208
13	0x3dd1b17f	0.10238933
14	0xbe3b650a	-0.18300262
15	0x3e7c8b75	0.24662574
16	0x3cfb353f	0.030665038
17	0x3d29f576	0.041493855
18	0xbc9b085c	-0.018924884
19	0xbdef751e	-0.1169226
20	0x3dfd1aff	0.12358665
21	0x3e7cdd4f	0.24693798
22	0x3e03a631	0.12856366
23	0xbd1a30ef	-0.037644323
24	0x3dd24fe5	0.10269145
25	0x3d1e7595	0.038686354
26	0x3c9333d7	0.017969055
27	0x3e09d554	0.13460284
28	0xbe5a0b06	-0.21293268
29	0x3e796cb7	0.24357878
30	0x3e7d5593	0.24739675
31	0xbdb0beb9	-0.086301275
32	0x3dde69f2	0.10860051
33	0x3dae5fea	0.08514388
34	0x3e7dc5a2	0.24782422
35	0xbd579a45	-0.052637357
36	0x3e3e4c5d	0.18583818
37	0xbd3eb58d	-0.04655986
38	0x3e0bc887	0.13650714
39	0x3daf78b1	0.08567942
40	0xbe7c87f1	-0.24661233
41	0x3e1c752f	0.15279077
42	0x3de4858f	0.11158287
43	0x3e54de39	0.20787896
44	0xbcb47b80	-0.022031546
45	0x3ce44902	0.027866844
46	0x3d539b5f	0.051661845
47	0x3e196ded	0.1498334
48	0xbdc215ce	-0.09476815
49	0x3e7f10ca	0.24908748
50	0xbdac2d65	-0.08407096
51	0xbd82d246	-0.06387763
52	0xbddcd375	-0.1078252
53	0xbd54776d	-0.051871706
54	0x3db2e2c2	0.08734657
55	0x3e1f9813	0.15585355
56	0xbd9147d1	-0.07093776
57	0x3dfc4655	0.12318102
58	0x3ca86c80	0.02055955
59	0x3e108e8c	0.14116877
60	0x3df2105d	0.11819527
61	0xbdb48b45	-0.08815626
62	0x3dfa03a7	0.12207728
63	0xbda7302e	-0.081634864
64	0x3d2bd63b	0.041952353
65	0xbd9fd15e	-0.078036055
66	0xbdb95430	-0.090492606
67	0xbdb6c33f	-0.08923959
68	0xbd808a35	-0.06276361
69	0x3e0db958	0.13840234
70	0x3dc62e5e	0.096768126
71	0x3e213295	0.15741952
72	0xbd748582	-0.059697635
73	0xbe053739	-0.13009347
74	0xbcc98f0c	-0.024604343
75	0xbe01508a	-0.1262838
76	0x3e1e197b	0.15439408
77	0xbe4ddeac	-0.20104474
78	0x3bbdf691	0.0057972153
79	0x3ba843ba	0.0051350268
80	0xbd06541d	-0.03279506
81	0xbd9e0c86	-0.077172324
82	0xbc6e1300	-0.014530897
83	0xbdcf806b	-0.10131916
84	0x3d958db4	0.07302418
85	0x3cb51cd1	0.022108467
86	0x3e196f62	0.14983895
87	0xbd08119a	-0.03321991
88	0x3c8fe83a	0.017566789
89	0x3d44f8e6	0.04808893
90	0x3dd1a2b2	0.1023611
91	0xbe279dc1	-0.16368772
92	0x3dc9b7f5	0.0984954
93	0x3dc9338c	0.09824285
94	0x3da08747	0.07838302
95	0xbe023eae	-0.12719223
96	0x3dca659e	0.09882663
97	0xbd438596	-0.04773482
98	0x3dace0e3	0.08441331
99	0xbd9a9d5d	-0.07549546
100	0x3c28015e	0.010254232
101	0xbe0eb77e	-0.13937184
102	0xbc1b61ba	-0.009483749
103	0x3d2f7e29	0.042844925
104	0x3dc7e9c2	0.09761383
105	0xbd919a33	-0.07109489
106	0x3d1bc058	0.03802523
107	0x3ded380e	0.11582957
108	0xbd88b8a3	-0.06675842
109	0x3d4d8253	0.050173115
110	0xbc53e424	-0.012932811
111	0xbcc6342f	-0.024194805
112	0x3ccf7be0	0.025327623
113	0x3de0c8f8	0.10975832
114	0xbcf6f397	-0.03014545
115	0x3d625c52	0.055263825
116	0xbe282310	-0.16419625
117	0x3dfc475c	0.12318298
118	0xbdf2e196	-0.11859433
119	0x3e169715	0.1470607
120	0xbdd79797	-0.1052696
121	0xbd2fdaba	-0.042933203
122	0xbd534adc	-0.051585063
123	0x3d90e1e9	0.07074339
124	0xbd936a19	-0.07197971
125	0xbdfab444	-0.12241414
126	0x3e077c39	0.13230981
127	0xbd2ba2c5	-0.041903276
128	0xbe070c5d	-0.1318831
129	0xbde07026	-0.109588906
130	0xbd06ba5d	-0.032892574
131	0xbd858450	-0.06519377
132	0x3e15909e	0.14605948
133	0xbe27afb7	-0.16375624
134	0xbe2a4362	-0.16627267
135	0xbe419668	-0.18905032
136	0x3c524ccb	0.012835692
137	0xbdecb2c9	-0.11557538
138	0xbdea2cd7	-0.11434334
139	0xbdf1f2e6	-0.11813907
140	0x3dd91849	0.10600335
141	0xbe81fa1c	-0.2538613
142	0x3dd6bb04	0.10484889
143	0x3ccce455	0.025011221
144	0xbd287e02	-0.041135795
145	0x3e0385e3	0.12844042
146	0x3d313d64	0.043271437
147	0x3e231c4d	0.15928765
148	0xbdf8e855	-0.12153689
149	0x3d96d274	0.073643595
150	0xbe8d50c6	-0.27600688
151	0x3d9fac5f	0.07796549
152	0xbc2ccd1d	-0.01054695
153	0xbd91876b	-0.07105907
154	0xbd9f1796	-0.077681705
155	0x3d495335	0.049151618
156	0x3d9bc813	0.076065205
157	0x3df26eb4	0.11837521
158	0x3df5d5f0	0.12003696
159	0x3dbbd350	0.09171164
160	0xbd86e5e3	-0.06586816
161	0x3cb6d8fa	0.02232026
162	0x3d810581	0.06299878
163	0x3d046c93	0.032330107
164	0x3e4860a7	0.1956812
165	0xbd77a7ed	-0.06046288
166	0xbe1ffd67	-0.15624009
167	0x3d85dc08	0.06536108
168	0xbcc30ebe	-0.02381074
169	0x3e3dfa26	0.18552455
170	0xbe1a418d	-0.15064068
171	0x3dc27dc1	0.09496642
172	0xbd0f3ed9	-0.034972046
173	0xbdc1dd63	-0.09466054
174	0x3d3100b5	0.043213565
175	0xbe08374d	-0.13302346
176	0x3e0beb19	0.13663901
177	0xbd781452	-0.060566254
178	0xbd790b3b	-0.060801726
179	0xbdbc8281	-0.09204579
180	0xbdc46ebe	-0.09591435
181	0x3ca35cd4	0.019941725
182	0x3c2acc77	0.010424725
183	0xbd0629b0	-0.0327546
184	0xbe1fd063	-0.15606837
185	0xbe4f235d	-0.20228334
186	0xbd5188b4	-0.05115576
187	0x3da5fc4e	0.08104764
188	0xbd5eb25d	-0.05436932
189	0xbd696cd6	-0.05698856
190	0xbe0c032c	-0.13673085
191	0x3cc47e30	0.023985952
192	0x3e098322	0.1342893
193	0xbe0c736f	-0.1371591
194	0x3e1413ae	0.14460632
195	0xbd893c65	-0.067009725
196	0x3b510c54	0.0031898217
197	0xbd563e2a	-0.052305378
198	0x3d0fe0fe	0.03512668
199	0xbd517d29	-0.051144753
200	0xbdfb52a2	-0.1227162
201	0x3dc18140	0.094484806
202	0xbb48dd90	-0.003064964
203	0x3e1c425a	0.15259686
204	0x3d074282	0.03302241
205	0x3c801ef2	0.015639756
206	0xbb835164	-0.0040075053
207	0x3dc28295	0.09497563
208	0x3c13b0e8	0.009014346
209	0x3cbb7bfb	0.022886267
210	0xbcb3ecde	-0.021963533
211	0xbd9f876b	-0.07789501
212	0x3e41cf74	0.18926793
213	0xbdfa4877	-0.12220853
214	0x3e0bd2fa	0.136547
215	0x3e0bd9e5	0.13657339
216	0xbdd2ade1	-0.10287071
217	0xbdd1ffba	-0.10253854
218	0xbe5da34a	-0.21644321
219	0x3e226f68	0.1586281
220	0xbd1ba7a8	-0.038001686
221	0xbdcf3a50	-0.10118544
222	0xbde0b154	-0.10971323
223	0xbdd871a9	-0.10568554
224	0xbe298d62	-0.1655784
225	0xbd37d965	-0.044885058
226	0x3e0e5b8d	0.13902111
227	0x3c73ab04	0.014872316
228	0x3e1c1e75	0.15245993
229	0x3d5c7612	0.053823538
230	0xba178801	-0.0005780459
231	0xbd96f35a	-0.073706344
232	0x3c4181c1	0.011810721
233	0xbde439ad	-0.11143813
234	0xbc41d486	-0.011830455
235	0xbda1a22b	-0.07892259
236	0x3b2ab368	0.0026046876
237	0xbb9128ee	-0.004429928
238	0xbcc21f9c	-0.023696713
239	0x3d9a86fb	0.07545277
240	0x3daae4d9	0.083444305
241	0xbd27b487	-0.04094365
242	0x3d31ccee	0.043408327
243	0x3d988a27	0.074482255
244	0x3cfdd549	0.030985491
245	0xbb9bfede	-0.004760607
246	0xbd4a7ac9	-0.049433503
247	0x3ca6ea21	0.020375313
248	0x3de6b161	0.11264301
249	0xbd861d07	-0.06548505
250	0xbd1cec53	-0.038311314
251	0x3dc1462a	0.09437211
252	0xbceb2fa4	-0.02870924
253	0x3dea25c7	0.11432987
254	0xbd5e3e7f	-0.05425882
255	0x3dc861cd	0.09784279

bias_ih f4 [150]
0	0x3d5317df	0.051536437
1	0x3e3f47a4	0.18679672
2	0x3d4a3be5	0.049373526
3	0x3e25fb7e	0.16209218
4	0xbdd92dac	-0.10604414
5	0xbe366d19	-0.17815055
6	0x3d39b767	0.04534092
7	0x3cdcda11	0.02695945
8	0x3d094db2	0.03352136
9	0xbcb55b60	-0.022138298
10	0xbd34d161	-0.04414499
11	0xba2863b7	-0.000642355
12	0x3d139780	0.036033154
13	0x3d982738	0.074293554
14	0x3e11ab54	0.14225513
15	0x3dff3a2c	0.12462267
16	0x3e13d75a	0.14437619
17	0xbdb6af82	-0.08920194
18	0x3db33b68	0.08751565
19	0xbddcf962	-0.107897535
20	0x3e880d39	0.26572588
21	0xbe061bbe	-0.1309652
22	0x3c1bccf9	0.0095093185
23	0xbb3369db	-0.0027376327
24	0xbe04789c	-0.12936634
25	0x3dfd6fdb	0.1237485
26	0xbe793ae1	-0.24338867
27	0xbdbea227	-0.09308272
28	0xbd8f493c	-0.0699639
29	0x3da5fce3	0.08104875
30	0xbd355c31	-0.044277374
31	0xbc0f1022	-0.008731874
32	0xbe12f529	-0.14351334
33	0x3a7e4fd1	0.00097012246
34	0xbd213cac	-0.0393645
35	0xbd9c7e3d	-0.076412655
36	0x3e2bcf82	0.16778377
37	0x3db29211	0.08719266
38	0x3e11fed3	0.14257364
39	0xbd5f18b2	-0.05446691
40	0x3dbfbbc3	0.093619846
41	0xbd95998c	-0.07304677
42	0x3a2d8f6f	0.00066207995
43	0x3daea24e	0.08527051
44	0xbdbd5855	-0.092453636
45	0x3dfd9643	0.12382176
46	0xbd1b1fe7	-0.03787222
47	0xbe0aa34c	-0.13538855
48	0x3e39a3a5	0.18128832
49	0x3e269766	0.16268691
50	0xbd488800	-0.048957825
51	0xbe36a3c0	-0.17835903
52	0xbb87375c	-0.0041264724
53	0x3d8262cd	0.06366501
54	0xbd6ef14e	-0.058335595
55	0xbdd4f05f	-0.1039741
56	0x3e0de78e	0.13857862
57	0xbd59ba04	-0.053155914
58	0x3e0f20a6	0.13977298
59	0x3e2e5332	0.17023924
60	0xbd56485b	-0.052315097
61	0xbe28e5a3	-0.1649385
62	0x3e1760c7	0.14783011
63	0x3cfdbd86	0.03097416
64	0x3d5906c2	0.05298496
65	0x3df28944	0.118425876
66	0xbe0350ec	-0.12823838
67	0xbdf2abae	-0.118491516
68	0xbc137f51	-0.009002523
69	0x3e481955	0.19540913
70	0xbe75e226	-0.2401205
71	0x3c3265bb	0.010888512
72	0xbd5b41f8	-0.05352971
73	0xbcbd5c0b	-0.023115179
74	0x3d93d36c	0.0721806
75	0x3dc510d5	0.09622351
76	0xbe727d08	-0.23680508
77	0x3e4eebc8	0.20207131
78	0xbd77bf1a	-0.060484983
79	0xbe580775	-0.21096595
80	0x3dd33b84	0.10314086
81	0xbd7176f1	-0.058951322
82	0xbdc804c2	-0.097665325
83	0xbdc47eac	-0.09594473
84	0xbc62ea26	-0.013849771
85	0x3ad5cdb8	0.0016311919
86	0xbd54f771	-0.05199379
87	0xbe3e39f2	-0.18576792
88	0x3e0951c9	0.13410105
89	0xbe2a3ef5	-0.16625579
90	0xbe11cd04	-0.14238364
91	0xbd562165	-0.05227794
92	0xbe0cba87	-0.1374303
93	0xbdee4b0f	-0.1163541
94	0xbd172f44	-0.03691031
95	0xbd9e1f82	-0.077208534
96	0xbd1a539b	-0.03767739
97	0xbdba0dc5	-0.090846576
98	0x3def1395	0.11673657
99	0xbe022caf	-0.12712358
100	0xbe037fec	-0.12841767
101	0xbe5d96f4	-0.21639615
102	0xbc7860e4	-0.015159819
103	0x3d33150b	0.04372124
104	0xbdc216d5	-0.09477011
105	0x3e44a0e8	0.19202006
106	0xbe47d322	-0.19514135
107	0xbe35bdac	-0.17748135
108	0x3d8cc8e9	0.06874258
109	0x3e08e259	0.13367595
110	0xbcdb9092	-0.026802335
111	0xbd4850a7	-0.04890504
112	0x3d24a358	0.04019484
113	0x3d9f438f	0.07776558
114	0x3e351735	0.17684634
115	0x3cec5c67	0.028852655
116	0x3c570771	0.013124333
117	0xbbdc8fd6	-0.006731014
118	0x3bf008d2	0.00732527
119	0xbd6f245b	-0.05838428
120	0xbba985ef	-0.005173437
121	0x3e0615d3	0.13094263
122	0xbe145da2	-0.14488843
123	0xbe2edaec	-0.170757
124	0x3dbc02a8	0.09180194
125	0xbdb7d3da	-0.08975954
126	0x3e752ee5	0.2394367
127	0xbca36f2e	-0.019950476
128	0x3e1d30a9	0.15350594
129	0x3d36391c	0.044488057
130	0x3cddbadf	0.027066646
131	0xbc9d5449	-0.01920523
132	0x3e48cce2	0.19609407
133	0x3e3582f0	0.1772573
134	0xbe1027e3	-0.14077716
135	0x3e39f15d	0.18158479
136	0xbdfc2a8e	-0.12312804
137	0x3d82b19e	0.06381534
138	0xbe474170	-0.19458556
139	0x3dfee700	0.124464035
140	0xbe5a6467	-0.21327363
141	0x3e345001	0.17608644
142	0x3d518c4a	0.05115918
143	0x3d9bfcc5	0.07616571
144	0x3d956872	0.07295312
145	0xbe4f166f	-0.20223401
146	0x3dc409f4	0.09572211
147	0x3e10e99a	0.14151612
148	0xbd2a5800	-0.04158783
149	0x3c9d505a	0.019203354

bias_hh f4 [150]
0	0xbdddbf92	-0.10827555
1	0x3d942c98	0.07235068
2	0x3e08a2a3	0.13343291
3	0x3deca0f8	0.1155414
4	0x3d57879d	0.052619565
5	0xbe13e6bb	-0.14443485
6	0xbe35158a	-0.17683998
7	0xbd80623c	-0.06268737
8	0xbd011ead	-0.031523395
9	0x3da5b9b8	0.08092064
10	0xb939a9d2	-0.00017706238
11	0x3d593c69	0.053036127
12	0x3d801401	0.062538154
13	0xbdbc06d0	-0.09180987
14	0x3e05b16a	0.1305596
15	0xbd9587fc	-0.073013276
16	0x3de18390	0.11011422
17	0xbbaefa0e	-0.0053398674
18	0xbcd1eca9	-0.025625544
19	0x3c9cb330	0.019128412
20	0x3d86db96	0.065848514
21	0xbd416297	-0.047213163
22	0xbdd27e45	-0.1027799
23	0x3dd91d09	0.10601241
24	0xbd73caa8	-0.05951944
25	0x3e10a4c6	0.14125356
26	0xbe60f1d8	-0.21967256
27	0xbcddac8d	-0.027059818
28	0x3c6bf55a	0.014401758
29	0x3ab0e122	0.0013494829
30	0xbdd0ca60	-0.1019485
31	0x3d910991	0.07081903
32	0xbcd7d9f7	-0.02634905
33	0x3dfb2e11	0.12264646
34	0x3de76629	0.112987824
35	0x3dfa56bd	0.12223575
36	0x3e0f3038	0.13983238
37	0xbd8dc29f	-0.06921887
38	0x3e2ef3d6	0.17085204
39	0x3d4af139	0.049546454
40	0x3d8a1685	0.067425765
41	0x3d022e5b	0.03178249
42	0xbc98f7eb	-0.018672904
43	0x3c149b6b	0.009070258
44	0x3ca1371d	0.0196796
45	0x3c2d74bc	0.010586914
46	0xbdd8d1ef	-0.10586917
47	0x3bc50e43	0.006013663
48	0x3e02032d	0.12696524
49	0xbd96ca91	-0.07362855
50	0x3c0e74ad	0.00869481
51	0xbd96164b	-0.07328471
52	0xbe212b00	-0.1573906
53	0xbdaa5f62	-0.08318974
54	0x3d9cbe51	0.076534875
55	0x3d17b927	0.03704181
56	0x3ce8e9a8	0.028431728
57	0xbde02146	-0.109438464
58	0xbc93a7f2	-0.018024419
59	0x3c854b57	0.016271276
60	0xbd10b308	-0.035326988
61	0xbdd00be2	-0.101585165
62	0xbda4383a	-0.08018537
63	0xbd1609c2	-0.0366304
64	0xbd82f275	-0.06393901
65	0xbd3d8488	-0.04626897
66	0xbe80eede	-0.2518224
67	0x3c9480d5	0.018127838
68	0xbc31cfd6	-0.010852775
69	0x3e41c073	0.1892107
70	0xbe123d10	-0.14281106
71	0xbdd4042a	-0.10352357
72	0x3d66c1e7	0.056337263
73	0xbdc2df40	-0.09515238
74	0xbd37d089	-0.04487661
75	0x3de31f23	0.11089923
76	0xbe3260ae	-0.17419693
77	0x3e5c1295	0.21491463
78	0x3d77545d	0.06038319
79	0xbc5c65ab	-0.013451974
80	0xbd23e4fe	-0.040013306
81	0x3d660595	0.056157667
82	0xbd6749c7	-0.056466844
83	0xbd7c44f0	-0.06158918
84	0xbdd42a2e	-0.10359608
85	0x3dcfe1e7	0.10150509
86	0x3dfba0a9	0.12286503
87	0xbe6017b3	-0.2188404
88	0xbd713c9f	-0.058895703
89	0xbd60767f	-0.054800507
90	0xbe2f377f	-0.17111014
91	0x3d8ac5f7	0.0677604
92	0xbe209826	-0.1568304
93	0xbe165478	-0.1468066
94	0x3db41393	0.08792796
95	0xbeadac8b	-0.33920702
96	0xbe335089	-0.1751119
97	0x3d15ee40	0.036604166
98	0x3dfe4a67	0.12416535
99	0x3d0ba75c	0.034095153
100	0x3e0107a4	0.12600571
101	0xbe4af81c	-0.19821209
102	0xbdaed291	-0.08536256
103	0x3e52aa56	0.2057279
104	0xbe530413	-0.20607023
105	0x3dcb7024	0.099334985
106	0x3a6d9a30	0.0009063808
107	0x3cf84cea	0.030310113
108	0x3ba82341	0.0051311557
109	0x3e79e3ea	0.24403349
110	0x3e1d522c	0.15363377
111	0xbd45b246	-0.048265718
112	0xbe0a15e2	-0.1348491
113	0x3e6955ce	0.22786638
114	0x3da95750	0.08268607
115	0xbd146488	-0.036228687
116	0xbd8bd645	-0.06827978
117	0x3d7aff24	0.061278477
118	0xbe042111	-0.12903239
119	0x3a9b96f3	0.0011870548
120	0x3e09cb49	0.13456453
121	0x3de3437a	0.110968545
122	0xbe698379	-0.22804059
123	0xbe34bc46	-0.17649946
124	0xbe0e106a	-0.13873449
125	0x3d1bfeac	0.03808467
126	0xbd780378	-0.060550183
127	0xbd451b4e	-0.048121743
128	0xbdc1487c	-0.094376534
129	0xbdee1d7f	-0.1162672
130	0xbd2fe5d5	-0.042943794
131	0xbe5a3880	-0.21310616
132	0x3e1f4728	0.15554488
133	0x3cb472ca	0.022027392
134	0x3e2b8cd8	0.16752946
135	0xbd149ecb	-0.03628425
136	0x3d827c28	0.06371337
137	0x3cc22286	0.023698103
138	0xbd319921	-0.043358926
139	0x3e16f253	0.14740877
140	0xbd9b637f	-0.07587337
141	0x3d3249a4	0.04352726
142	0xbd1472e3	-0.036242377
143	0x3e1c022c	0.15235204
144	0x3d71d60b	0.059042018
145	0xbdacdefa	-0.08440967
146	0xbc8c08c4	-0.017094024
147	0xbd7d55fd	-0.061849583
148	0xbd9a692c	-0.07539591
149	0x3dfb3e96	0.12267797

weight f4 [2, 50]
0	0x3ec47a98	0.38374782
1	0xbee7dc72	-0.45285374
2	0xbf19f309	-0.6013647
3	0x3ef9dce8	0.4880135
4	0xbef8076e	-0.48443168
5	0xbec4651e	-0.38358396
6	0xbedd0d36	-0.43174142
7	0xbef72b8c	-0.4827541
8	0x3eefed87	0.46860906
9	0xbf0c852b	-0.548907
10	0x3eef3c1b	0.46725544
11	0xbe8a5272	-0.27016026
12	0xbef573cf	-0.47939917
13	0x3f18b378	0.5964885
14	0xbf053856	-0.52039087
15	0x3f07b26f	0.53006643
16	0x3e6b5f5b	0.22985594
17	0x3ef649ea	0.48103267
18	0x3f1d50be	0.6145133
19	0xbf0850fc	-0.5324857
20	0x3e504672	0.20339373
21	0x3f04546d	0.51691324
22	0x3f16f975	0.5897439
23	0xbf0c0089	-0.54688317
24	0x3f1e499e	0.6183108
25	0x3f07f38f	0.53106016
26	0x3ee6de0a	0.45091277
27	0x3eff2934	0.49836123
28	0xbf05ef62	-0.52318394
29	0x3ee297b1	0.44256356
30	0x3f12ecd2	0.5739261
31	0xbf1c329f	-0.6101474
32	0x3f146891	0.57972056
33	0x3e5aae85	0.21355636
34	0x3f0f7abb	0.56046647
35	0x3efde7ee	0.4959101
36	0x3f1c7ffb	0.6113278
37	0x3eea0a24	0.45710862
38	0x3eedd44d	0.46451035
39	0x3ede7792	0.434506
40	0xbf1cb663	-0.612158
41	0x3f0f8010	0.5605478
42	0x3ed35306	0.4127428
43	0x3e3fa529	0.18715347
44	0xbef8d91e	-0.48603147
45	0xbeb155d5	-0.34635797
46	0x3f07c90c	0.5304115
47	0x3f19f472	0.6013862
48	0xbef7fc7b	-0.48434815
49	0x3f1b7158	0.60719824
50	0xbe53b2f7	-0.20673738
51	0x3e87325c	0.2640561
52	0x3f151d18	0.5824752
53	0xbeef4ab9	-0.46736696
54	0x3ed25925	0.41083637
55	0x3f07d44a	0.530583
56	0x3f11b240	0.5691261
57	0x3eea5c49	0.45773533
58	0xbf2080e3	-0.62696666
59	0x3f01c567	0.5069184
60	0xbf124bba	-0.571468
61	0x3e9bb64b	0.30412516
62	0x3f16c7fb	0.58898896
63	0xbeb9eb2c	-0.36312234
64	0x3f20bf66	0.6279205
65	0xbf0a71b1	-0.5407973
66	0xbecb1186	-0.39661807
67	0xbf11dd76	-0.5697855
68	0xbf088535	-0.5332826
69	0x3f0af304	0.5427706
70	0xbebb5ffa	-0.36596662
71	0xbee6b553	-0.45060214
72	0xbeb0b0b1	-0.34509805
73	0x3f0a4112	0.5400554
74	0xbf19e59d	-0.6011599
75	0xbf09637d	-0.5366743
76	0xbf0603b0	-0.52349377
77	0xbef361ac	-0.47535455
78	0x3f1a29ad	0.6021984
79	0xbf198438	-0.59967375
80	0xbf0862c0	-0.5327568
81	0x3ef82937	0.48468944
82	0xbf157ce8	-0.58393717
83	0xbebe8e98	-0.37218165
84	0xbf10a367	-0.5649933
85	0xbf040be7	-0.5158066
86	0xbee109f2	-0.439529
87	0xbeff94d2	-0.49918228
88	0xbf0b1c3c	-0.5433996
89	0xbea669a2	-0.32502466
90	0x3ee4ee5c	0.44713104
91	0xbeb3c90c	-0.35114324
92	0xbf10174f	-0.56285566
93	0xbed36843	-0.41290483
94	0x3f1d15ee	0.6136159
95	0x3e2a7663	0.16646723
96	0xbf04ab70	-0.5182409
97	0xbee5ac35	-0.44857946
98	0x3f0942e8	0.53617716
99	0xbef56a6c	-0.47932756

bias f4 [2]
0	0x3ee16b2a	0.44027072
1	0xbee97e08	-0.45603967

weight f4 [2, 50]
0	0xbde57fb9	-0.11206002
1	0xbd9fbd4d	-0.07799778
2	0x3e518c5b	0.20463698
3	0xbe8459c7	-0.25849745
4	0x3e93d769	0.28875282
5	0x3e2fe98b	0.17178933
6	0x3aae49f7	0.001329719
7	0xbe28f905	-0.16501243
8	0x3dd03d5f	0.101679556
9	0x3bdb5086	0.0066929488
10	0xbe3e3ced	-0.18577929
11	0x3c9e6afb	0.019338122
12	0xbe7c3a87	-0.24631701
13	0xbe632a6e	-0.22184154
14	0x3e6aa07b	0.22912781
15	0xbe64c01b	-0.22338907
16	0xbdb920ad	-0.090394355
17	0xbe90adaa	-0.28257495
18	0x3d76d5ab	0.060262363
19	0xbe0bfce0	-0.13670683
20	0xbd8de0ad	-0.06927619
21	0xbe8cf460	-0.27530193
22	0xbd823305	-0.063573875
23	0xbe2eae6c	-0.17058724
24	0x3d4617ee	0.048362665
25	0x3bc34faf	0.0059604268
26	0xbdf08024	-0.11743191
27	0x3dfcaf38	0.12338108
28	0x3e774927	0.24148999
29	0x3d600cf3	0.05469985
30	0xbc14af4b	-0.009074996
31	0x3e90a9f8	0.28254676
32	0xbe644763	-0.22292857
33	0xbd18f1ca	-0.037339963
34	0xbdba15ff	-0.09086227
35	0x3e5a0a8d	0.21293087
36	0xbe3743f7	-0.1789702
37	0xbd9cb036	-0.07650797
38	0xbe580d7b	-0.21098892
39	0x3ba349e4	0.0049831737
40	0xbe4e93cf	-0.20173572
41	0x3e2de08f	0.16980194
42	0xbe94c5bb	-0.29057106
43	0x3b492e45	0.0030697745
44	0x3e5160d0	0.20447087
45	0x3ced3c86	0.028959524
46	0xbdb3e2e3	-0.087835096
47	0xbe036bb2	-0.12834051
48	0x3e526ee9	0.20550121
49	0xbe84567c	-0.25847232
50	0x3e3f5372	0.18684176
51	0xbd64f2af	-0.055895504
52	0xbd1e32ae	-0.03862255
53	0x3d8c4a5f	0.06850123
54	0xbdfe6002	-0.12420656
55	0xbe05d326	-0.13068828
56	0xbe604a97	-0.21903454
57	0x3dd67770	0.10472
58	0x3e38bab3	0.1803997
59	0xbcd01cf8	-0.025404438
60	0x3d911f4c	0.070860475
61	0x3dcc7c03	0.09984591
62	0x3e0a917f	0.13532065
63	0xbd39dd5f	-0.04537713
64	0xbe303820	-0.1720891
65	0x3e427b7b	0.18992417
66	0x3e6e4973	0.23270206
67	0x3e5930f0	0.21210074
68	0xbdb46057	-0.08807438
69	0x3de17822	0.11009242
70	0x3d4e127e	0.050310604
71	0x3e1ee422	0.15516713
72	0xbddc7e9b	-0.107663356
73	0x3db655d3	0.089030884
74	0xbdf45782	-0.11930753
75	0x3e120ebe	0.14263436
76	0xbdb165da	-0.08662005
77	0xbdbe1565	-0.092814244
78	0xbd47f613	-0.04881866
79	0xbd189d76	-0.03725954
80	0x3e1cd6b1	0.15316273
81	0xbd07a79e	-0.033118837
82	0xbd8e181a	-0.06938191
83	0x3e564c67	0.20927583
84	0x3d59b050	0.05314666
85	0xbe453cc1	-0.19261457
86	0x3dc1ab28	0.094564736
87	0xbe04cc19	-0.12968482
88	0x3e5482c7	0.20753013
89	0x3e0c5b27	0.13706647
90	0x3e314c03	0.17314152
91	0xbdd414a8	-0.10355502
92	0xbd0cad86	-0.034345172
93	0x3e38fb8d	0.18064709
94	0xbdcbacae	-0.099450454
95	0xbe1b4e49	-0.15166582
96	0x3d26e717	0.04074773
97	0x3e0ab0e8	0.13544047
98	0xbe40004b	-0.18750112
99	0x3e2589e3	0.16165881

bias f4 [2]
0	0x3e1466fc	0.1449241
1	0xbdec2e27	-0.1153224
