data/RNN_runs/sweep_H2/rnn_sto3g_H2_0-7348_eq1_nU100_nL2_lr00025_lrsC_ns1000.pt (torch_old, 428739 bytes, 13 tensors)

weight_ih f4 [300, 2]
00000000: 3c99 863d f462 89bd b887 e5bd c513 683e
00000010: 8819 e3bd 3634 3e3e 1dd7 8fbb da66 05bd
00000020: c3c8 e9bd a981 7a3e c053 0fbd 3795 3e3e
00000030: 54a2 2fbe 040f 1a3e 79fb f0bd 9580 083e
00000040: feb5 70bc 2b32 173e 1733 c6bd 6d48 bf3e
00000050: 4ea0 d33c 314a 1f3e f031 043e 7699 003e
00000060: 1473 5ebd f10a e53c 3434 b2bd ce24 4e3e
00000070: 9294 273e 5af1 64be 8bf4 763d db34 143e
00000080: 897f 7cbb 0a7d 1b3e 437e 2b3d 6fe3 103c
00000090: 1eed 1cbe a75e 093e 0153 433d e380 7b3c
000000a0: ed54 89bd 0d85 ce3d 747a b9bb fab0 473e
000000b0: 2e16 dd3c bfa9 49bd b72d 813d b4af 943d
000000c0: 3760 673e f688 84bd 6758 fcbc b1c4 553e
000000d0: 4a71 023d c17d e7bb 8359 c1bd b9ee b93d
000000e0: f03c 0dbc 25fd 9d3e fb2b f13d 90be 5cbd
000000f0: 8cd5 f8bc 6242 0b3f ad00 1cbe a3e2 913d
00000100: 6458 5b3c 67ee f63d 8877 963d 8a99 2cbe
00000110: 78d3 2cbe 607e 803e c151 083d 0c61 633e
00000120: 19b7 06be 7ebf 423e 985c 453d 8f8a 8c3e
00000130: f4b2 0ebd f01d 923d bd15 f03c ca0a 043f
00000140: e5d2 553d 9cdf b83d 07a4 ec3d 4b4e e53d
00000150: c750 f9bc 6712 183f b181 d6bd cb3a 833d
00000160: 6086 ae3d 0780 0d3e 0057 12be daa3 613e
00000170: af5c ae3d a4ea 503e e9f6 02be 7807 4a3e
00000180: 5a3e 4d3d d066 443e 735d 1b3e de6d cb3d
00000190: 275c 383d 7665 213d b6df a1bd e8b5 873e
000001a0: cbef a8bd fbf5 3e3e 54a7 b23d 5121 383e
000001b0: 234a 07bc 66aa 3b3e 2590 863d 470b 8b3d
000001c0: 42e7 c33d 2a0f 853d 0f90 aebd 73b5 653e
000001d0: d500 04be 4104 0d3d cb5d 053e 0b08 2c3f
000001e0: 6d46 b2bd 4375 69bc dcf8 8b3d da7f b7bd
000001f0: 4e72 393e e76c a53c c9f1 243e eee4 25bd
00000200: 538c 6e3d d06f a23e 574a e4bd a79c 033e
00000210: 124e 3f3d e285 853e 7248 77bd 01c0 353e
00000220: 5963 e43c f9ec 183e 44a3 72bd 5501 793d
00000230: 082d 54bd 26ad f73d 2557 93bc 9ee9 563e
00000240: c853 2ebd e0a4 193e 6987 02be c636 403e
00000250: 0859 09be 0390 f03d 237d 11be a7c5 c53e
00000260: 34f8 e2bc 7b9e 423e 3587 fe3d 5200 b83d
00000270: 7df8 16be ffac cb3e 6757 27be 1ee2 963e
00000280: efc6 f63d 571a 0a3e 9b3f 05be 0ad7 fa3d
00000290: dcc3 8f3c b617 0c3e a3cd 27bd 4566 083e
000002a0: 9824 ac3b 7166 823e e6bc fa3d 0cde 46be
000002b0: 86f5 9abd a39d 293e 4491 bfbb 54ae b23d
000002c0: f1ab ffbd dbf8 e13d 64ab d33c 1988 913e
000002d0: a04e a0bd b695 ad3e 901f aabb 6f20 743d
000002e0: f6de 9abd dc0c 3d3e 3e87 8cbb 601c 283e
000002f0: d8b8 8f3d 9159 7e3b 5576 2ebe 2e41 823d
00000300: 953d e03d f7b2 e73e d465 14be 0d2a d03d
00000310: 3829 0abd c097 9e3d 9949 9c3c 1ff8 253e
00000320: 2ce0 08be f258 e23c 302f 31bd 8a63 56be
00000330: 77d6 51bd 183c b1bd b1a9 8abd 3940 40bd
00000340: c6e9 1f3d 067c e9bd 2f4b b0bc 199f 1bbe
00000350: 3f5c 53bc 1ed3 51be 338d dd3b 32a8 34be
00000360: 89e7 87bc d07e c7bd 26c8 843c b655 09be
00000370: f922 1bbd db4d 4abe 7dd1 7abd 7efd ccbd
00000380: 3806 e13d 0324 7cbe 8a98 53bb e020 38be
00000390: 8369 02bd 40d7 6fbe 9ee2 50bb 2a24 d4bd
000003a0: 9dd6 efbc eeb2 b1bd 7e0b 90bd 01fe 6abe
000003b0: cd88 2a3d 630c 29be 84e1 5bbe d302 67bd
000003c0: 2198 db3d 71f2 f6bd 7408 83bd 1c44 b6bd
000003d0: 3fa1 3abb 8e9a bcbd b878 1cbe 065f d2bd
000003e0: 4e6e 6ebd cd61 17be c6f8 073e 11e6 47be
000003f0: 1458 1a3e bc1a 5abe 71ac 83bd 7b65 19be
0.06572196 -0.06708327 -0.11207527 0.22663791 -0.11088854 0.18574604 -0.004389657 -0.03256879
-0.114152454 0.24463524 -0.03499198 0.18611608 -0.17151767 0.1504479 -0.117667146 0.133303
-0.014691828 0.14765231 -0.09677713 0.37359944 0.025833275 0.15555646 0.12909675 0.1255854
-0.054308966 0.027959319 -0.08701363 0.20131227 0.16365269 -0.22357693 0.060291808 0.14473288
-0.0038528165 0.15184417 0.04186846 0.008843287 -0.15324828 0.13415013 0.04768658 0.015350553
-0.067056514 0.10083971 -0.0056603495 0.19501105 0.026988115 -0.049234148 0.063075475 0.07260075
0.22595297 -0.06471436 -0.030803872 0.20875813 0.031846322 -0.0070645516 -0.09440901 0.09078736
-0.008620486 0.30857196 0.11775967 -0.053892672 -0.030375265 0.5439817 -0.15234633 0.07123306
0.013387773 0.120571904 0.073470175 -0.16855446 -0.16877544 0.25096416 0.03328109 0.22204989
-0.13155784 0.19018361 0.048184007 0.27449462 -0.03483863 0.071346164 0.02930724 0.5157896
0.052203078 0.09027025 0.11554723 0.11196574 -0.030434025 0.5940308 -0.104739554 0.06407698
0.08521724 0.1381837 -0.14291 0.2203516 0.08513772 0.20402008 -0.12789501 0.19729412
0.05010829 0.19179845 0.15172367 0.09933065 0.04500976 0.0394034 -0.079039976 0.2650597
-0.08248862 0.18648522 0.087233216 0.17981459 -0.008257422 0.1832672 0.06570462 0.0678926
0.09565593 0.06497033 -0.08523571 0.22432499 -0.12890942 0.034427885 0.1302406 0.6719977
-0.08704839 -0.014249149 0.068345755 -0.089599326 0.1811001 0.02019353 0.16107859 -0.040501527
0.058239292 0.3172593 -0.11146992 0.12852727 0.046705313 0.26078707 -0.060371824 0.17749025
0.027879404 0.14934148 -0.059237733 0.060792286 -0.051800758 0.12093572 -0.01798589 0.20987555
-0.04256037 0.15004301 -0.12746967 0.18770894 -0.13412869 0.11746218 -0.14207892 0.3862736
-0.027706243 0.19005768 0.124281324 0.08984436 -0.14743228 0.39780423 -0.16341935 0.2946939
0.12049662 0.1348661 -0.13012545 0.12248047 0.017549448 0.1368092 -0.040967595 0.13320263
0.0052533858 0.25468782 0.12243061 -0.19420642 -0.07566361 0.1656404 -0.0058461744 0.08724657
-0.12483967 0.110337935 0.025838561 0.28424147 -0.078274965 0.33903283 -0.005191751 0.059601244
-0.07562058 0.18461937 -0.004288583 0.16417074 0.07017678 0.003881071 -0.17037328 0.06360088
0.10949246 0.45253727 -0.1449197 0.101642706 -0.033730716 0.07743788 0.019078063 0.16207932
-0.13366765 0.027630303 -0.043257892 -0.20936409 -0.05122992 -0.0865404 -0.06770647 -0.046936247
0.039041303 -0.11400609 -0.021520225 -0.1519741 -0.012900411 -0.20490691 0.006761217 -0.17642286
-0.016589897 -0.097409844 0.01620872 -0.13411602 -0.03787515 -0.19756262 -0.06123494 -0.10009287
0.10987514 -0.24623112 -0.0032286965 -0.17981291 -0.031838905 -0.23421955 -0.0031873356 -0.1035846
-0.02927714 -0.08676706 -0.07033442 -0.22948457 0.04163437 -0.16508631 -0.21472746 -0.056399178
0.10722376 -0.12057961 -0.06398097 -0.088997096 -0.0028477458 -0.092091665 -0.15280426 -0.102720305
-0.058210663 -0.14783402 0.13278493 -0.19521357 0.15072662 -0.21299261 -0.06429375 -0.14980118

weight_hh f4 [300, 100]
00000000: 0394 63ba 89cd 653d b40a 8abd 5b11 953d
00000010: 58ba 5d3e 685b 563e 6fa5 343e 4b8b 523e
00000020: 92ce f13c 115f 023e 668d 943c 0e7f 84bd
00000030: 8995 5dbe 5ce9 863c 64ed ab3d 9c00 ddbd
00000040: c885 7f38 ebcb 523e 990c c2bd 5790 84bb
00000050: 1697 d03d a3e1 303b d909 4abe 9a77 8fbd
00000060: dbe1 d33d 5b1f 74bd 9192 833d 8f01 f03d
00000070: ba32 753e b8f5 903d 720b d2bd 6849 173e
00000080: c7f8 613d f402 a83d 4c70 3e3e 593d c2bd
00000090: ce83 2fbe 0530 83bd 72e1 44be a061 a4bd
000000a0: f0db 7c3d f3ec 4c3d f7cd 4abe 306d 223e
000000b0: 7b63 3b3d 8cfb 223e e11c a83c d81b 55be
000000c0: 483f 1bbe 9156 8c3d bac6 3cbe 1a05 dd3d
000000d0: d8ae 22be 2fa1 f2bd 44e3 eb3d faf3 cd3d
000000e0: 58d0 913d ec06 2abe 5102 153e 3150 67be
000000f0: b226 2ebe d04b 0ebe a259 70bd d3ab c73d
00000100: 6c18 f33d 0147 c23d 4121 333e 21c3 33be
00000110: dacc 3b3e a5a2 3f3e 7abc db3d 1603 66bd
00000120: 5302 89bd 0f44 09be 347f 833d 9634 a2bd
00000130: d9c5 a43d cbb9 753e 9e2d 6ebe 75c2 213e
00000140: 3d6e f2bd 6086 26be 255f 08be b1a2 453e
00000150: 5f3b ab3d 11b6 a73d 0bab 09be ef1b b2bd
00000160: 5888 023d 2fd7 fdbd 08f5 473e 630e 33be
00000170: bbe8 38be 41dd 0fbe fa98 2ebb cfbd 0ebe
00000180: 7527 04bd 74c2 0bbe 571e ad3d fb1f 5b3e
00000190: 4580 043e d5df 4abd 637b 89bd 8edc c13d
000001a0: 7646 eebb 1bf6 203e 1140 bd3d 37fb 8e3b
000001b0: 202c 51be fe73 ce3d 08d0 6fbc b2f3 163e
000001c0: e773 dbbd b413 acbd 337a 273d 8c5a 6fbd
000001d0: c1ad a33d f418 033d 53ca d6bd f99d 143e
000001e0: 1987 a83d e48b 303e 0d90 913d b8de bf3d
000001f0: 1e07 16be 1daa 83bd 40cc 23bb da79 e4bb
00000200: 9d04 aabd eda1 3ebe 8649 733d 62ed f43d
00000210: 685a 493d d429 83bd 34e1 9b3d 3b50 f0bd
00000220: 02ce 06be 54bd b2bd 687e 0ebd d215 97bd
00000230: e9f0 fe3d 3532 67be 3b66 dfbc fac8 81bd
00000240: 6460 df3d 6f6a a53d fd92 31be 261b 79bd
00000250: 74ab 10be 6c97 fabc fc2d debd 55df bd3d
00000260: d60f 0ebe 9be7 56bd 61a1 43bd 61b8 bb3d
00000270: 15f0 0b3e c893 58bd 7805 d23d 053c d63d
00000280: 9539 fabd 3b55 3e3c 9854 2dbe d275 963c
00000290: e47a 4c3d 5f51 263e c2f6 143e c530 023d
000002a0: 14d4 ab3c 5a3c cb3c a2d6 073d f09c 67bd
000002b0: f6b8 71bd f89d 87bd 6609 85bc f2f6 04bd
000002c0: a20f 1f3e b57f c73c 9d34 f4bc 9f6f 0d3e
000002d0: 00f0 0abe 76ce 473c 1740 10bc a1d4 2a3e
000002e0: 466a de3d 8ea2 f7bd ea09 39bb f884 29be
000002f0: be3d c63a c97e 04be 5030 aebc 5040 0abe
00000300: a469 fc3b 09fd 09be de42 13bd 2350 da3c
00000310: 58b3 42bc 78b7 ac3c 47c5 c03d 3910 3abd
00000320: 3e01 233e 0477 63bc 552e 86bd c5b6 573d
00000330: 433a 143e 4741 1c3e 3c08 963d 1bdd 4d3d
00000340: 2d15 a8bc dba0 613d 7b40 143c e0c9 073d
00000350: 0326 31be 933a bfbc e5e5 163e 08c3 fabd
00000360: 7b1d 123e 38de 073e 698a febd b604 f53d
00000370: 20aa 903d 5f7a 343d e342 0bbe fdef 513d
00000380: b5fd e03c 553c babd 7e64 3a3c e68d 25bc
00000390: 1c52 473d 7e93 7abd 0538 1bbd f24a c23c
000003a0: df51 163e 7a2a d43b 6dfe cc3c ef8c c13a
000003b0: 8663 58bd 8cef 02bd a152 3abe 2e7e 37be
000003c0: 0c37 a43d 708a 81bb 7b4f 37be a9d2 043e
000003d0: dc58 413d 1401 653c f613 c0bc 8dcf 2abe
000003e0: 08c8 3bbd 7531 f9bd 92da 51bc 872a 86bc
000003f0: 8d90 dbbc e847 fcbc fc4f cf3d c47f 3d3e
-0.0008681418 0.056104217 -0.06740323 0.07278701 0.21653116 0.20933306 0.17641233 0.20560949
0.029517446 0.12731577 0.01813383 -0.06469546 -0.21639074 0.016468696 0.08394888 -0.10791132
6.092133e-05 0.20585601 -0.09475059 -0.004045527 0.10185067 0.0026989959 -0.19730319 -0.07005234
0.10345813 -0.059600215 0.0642444 0.11719047 0.23945132 0.07078117 -0.10256089 0.14774096
0.055168893 0.08203688 0.18597525 -0.094843574 -0.17140123 -0.064056434 -0.19226626 -0.08026433
0.061733186 0.05003066 -0.19805132 0.15861964 0.04574917 0.1591627 0.020521583 -0.20811403
-0.15160859 0.06852449 -0.18435183 0.10791989 -0.1588701 -0.118471496 0.11517957 0.100563005
0.071198165 -0.16604203 0.14551665 -0.22589184 -0.17006949 -0.13896108 -0.05867923 0.0974957
0.118698925 0.09486199 0.17493154 -0.17554905 0.18339863 0.18714388 0.107293084 -0.056155287
-0.066898964 -0.13404869 0.064207464 -0.07920186 0.08045549 0.23996656 -0.23259589 0.15796836
-0.118374325 -0.16262197 -0.13317545 0.19300343 0.083609335 0.08189023 -0.13444154 -0.08696734
0.03186831 -0.12394559 0.19527066 -0.17485957 -0.1805753 -0.14049245 -0.0026641474 -0.13939594
-0.03226419 -0.13648397 0.084530525 0.21398918 0.12939556 -0.04952987 -0.06712987 0.094658956
-0.007271583 0.15718882 0.09240735 0.0043634432 -0.20426989 0.100807175 -0.014637001 0.147414
-0.10715466 -0.084021956 0.040888023 -0.05843596 0.07992125 0.03200622 -0.10487809 0.14513387
0.08228893 0.17240864 0.07107554 0.09368652 -0.14651152 -0.06428931 -0.0024993569 -0.0069725337
-0.08301661 -0.18616457 0.05939629 0.1195934 0.049158484 -0.064044625 0.076113135 -0.11734053
-0.13164523 -0.08727518 -0.03478852 -0.07377209 0.12448294 -0.22577746 -0.027270427 -0.06337161
0.10907057 0.08076941 -0.17341228 -0.060816906 -0.14127904 -0.030589782 -0.108486146 0.09271113
-0.13873228 -0.05246697 -0.047761325 0.09166027 0.13665803 -0.05287531 0.10254949 0.104606666
-0.12218014 0.011617 -0.16926801 0.018366728 0.049921885 0.16241978 0.14547256 0.03178479
0.02097515 0.024809051 0.033163674 -0.05654615 -0.059014283 -0.06621927 -0.016239833 -0.032462068
0.15533307 0.024352888 -0.029810244 0.13812111 -0.13568115 0.01219522 -0.008804343 0.16682674
0.10860114 -0.12091552 -0.002823467 -0.1655463 0.0015124602 -0.1293899 -0.021263272 -0.13501096
0.007703023 -0.13475432 -0.03595244 0.02664954 -0.011883579 0.021083578 0.09412628 -0.045425627
0.15918443 -0.013883356 -0.06551806 0.052664537 0.1447535 0.15259276 0.07325789 0.05025969
-0.02051791 0.055085044 0.0090485765 0.033151507 -0.17299657 -0.02334336 0.14736135 -0.122442305
0.14269058 0.13268363 -0.124287434 0.11963789 0.07063699 0.044062015 -0.13599734 0.05125426
0.027464727 -0.09093539 0.011376498 -0.010104632 0.04866229 -0.061175816 -0.03789522 0.023717377
0.14679669 0.00647479 0.025023663 0.0014766733 -0.052829288 -0.03196673 -0.18195583 -0.17919227
0.08018312 -0.0039532706 -0.17901413 0.12970985 0.047203884 0.013977308 -0.023447018 -0.16680737
-0.04584506 -0.12167636 -0.012808459 -0.0163777 -0.026802326 -0.030796006 0.10122678 0.1850577

bias_ih f4 [300]
00000000: b5f3 923d 6084 373e d3a6 143e a5e2 2d3e
00000010: 4d4f fc3d 8b34 463e d11b 9f3d e764 133e
00000020: ce5d 923d d82d dd3d e05f bbbc 91e2 373d
00000030: 1793 d13c f2f1 d43d 8f24 623c 2684 153e
00000040: c207 03bd 57cb 8abc f7ce 243e ffe7 bc3d
00000050: 29d7 4a3d dd03 a53d c2ed 8e3d c49e 233e
00000060: a761 d93d 0345 fb3c fc5b d1bd 3bd0 bb3c
00000070: 39b0 103e d45c 883d 3039 80bc 2cdf d63d
00000080: bfcb 0a3d 626e 3d39 7815 a83d 748a 2d3e
00000090: 1804 9e3e 2997 513e d5b4 1dbb a495 8e3d
000000a0: 3c72 273d 3afb 4d3e 4bb7 113e be11 0ebe
000000b0: 1c95 253e 8427 e53d 9bce bf3d cd75 583d
000000c0: 165f fc3d f7b5 463d eb2b a23d 138c b03c
000000d0: 2304 5c3d 32f9 113e f1ce 443d c6b4 d73d
000000e0: 3ecd 74bc 829e 133d 0710 543d 54ea 8c3d
000000f0: 1739 01be 9d3e 87be 87b7 773c 47db a93c
00000100: c8c4 943e 8fe8 e5bc fa15 333e ac0a a43d
00000110: cacb ef3c fd7e 6a3d c53d 1fbc 233b 123c
00000120: 0a24 b03d 4167 5a3b 2117 14bc 0288 c63e
00000130: cdfc 8f3d def8 c93c e669 8d3e 1634 7f3e
00000140: 171a e23d 6742 a7bd 5da6 883d 0eea 1abd
00000150: 05cc bf3d a92e d73d 8801 e5ba 73a1 053e
00000160: 8ee0 003d 7d8e b83d 100f 223c 9e86 dc3d
00000170: 663a 623e f3bd 00bc 7522 de3d a14a c93c
00000180: e5ad 523e ec3c 023e 3b2d 023e e594 c7bb
00000190: 199a 07be f84c 87be f6ae 8ebd 9ff4 e1bd
000001a0: f170 c0bd a05c 26be e3db 07be 963f 5dbe
000001b0: 2dbc 13be 2603 d9bd 30e5 8cbd d435 f6bd
000001c0: 3c55 ebbd 5a77 90bd 76ae e7be 2980 aebc
000001d0: 26b1 0fbe ee68 17be 0446 03be 229a a3bd
000001e0: 5e70 abbd 5348 2ebe fddd 84be 90e6 fcbd
000001f0: 5180 cbbe e120 25be 470c 35be 63f8 8abe
00000200: 23de febe 1745 26be f694 aabe 1928 acbd
00000210: 5156 47be 10b4 04bf 6555 55be c165 03bd
00000220: a201 d7be a255 11be 09a0 3bbe f0bd 79be
00000230: 25ba 8dbd c11a e0bc d0b1 88be bfd9 5fbe
00000240: 4998 2dbe 8009 b5bd dc85 36bd 8bcb 4ebd
00000250: 0304 76bc d624 4fbb 9036 b73c 9943 85be
00000260: c1fb 3ebe 2376 23be 9356 5dbe 554b 5abd
00000270: d48a 0f3d 91e7 82be d512 42be 0da8 b1be
00000280: a5cd 5abe c5d4 65be 4c35 56bd 9c6f e5bd
00000290: 9934 53be 41ed c1bd b857 58be 3c51 04bf
000002a0: 9f48 d0bd 6a29 84bd 09bb 2cbe f75d acbd
000002b0: 2b08 05be e167 0abe 0535 53bd 2eb3 eebe
000002c0: 724e 4a3c 0497 d8be 6bb2 08bf f0a9 3dbe
000002d0: f0b5 a8bd 51c2 943c 3a39 0ebe 7a01 c3bd
000002e0: 854b 06be 1698 14bf dd18 39be beeb 89bc
000002f0: 528b 10be c7b6 8cbe 512f 8ebe cacc f5bd
00000300: 1ea6 19be 50fb 98ba 2d1b 0cbe b43c 40be
00000310: e81d 13be 1ee4 dbbd 6e5c 08be 5473 f7bc
00000320: ee0e 553d 5259 233e b922 58bd b7e8 033e
00000330: 9f5a 4c3e a1cb f23d 59b6 fa3d 41db b93d
00000340: b548 54bd c554 173d 966f c03d 78f9 02bd
00000350: bb29 bdbd e333 00be a756 363e e659 15bd
00000360: 722b da38 7539 073e 761c 16bd 21de 74bd
00000370: 4779 3a3d f273 123e af60 09be 7a02 3e3d
00000380: 99b5 0b3e 9844 f5bd 39f1 bf3d 584f 8a3c
00000390: 52ca b53d d478 053d 6320 0abe 1787 fd3d
000003a0: aa9a a43d c520 253e 9608 233e d885 10be
000003b0: 728e 0cbd 1c7e 1cbe bc48 6abd fa5b 9ebe
000003c0: 9903 f73d df18 a73b 3de2 b8be 9a9e d03d
000003d0: 36ca fb3c 9a8b 1a3e 4512 f2bd ddc1 baba
000003e0: 1ba6 1bbe 5cb6 97bd 63ed 10be ec58 2a3e
000003f0: c62a 28be 1ccc ebbd 31fe c73d a8b7 3d3d
0.0717539 0.17921591 0.14516763 0.1698099 0.12319813 0.19355981 0.077689774 0.1439396
0.07146798 0.107997596 -0.022872865 0.044893805 0.025582833 0.1039771 0.013802662 0.14601192
-0.03198982 -0.016942663 0.16094576 0.09223937 0.0495216 0.080573775 0.069789425 0.15978533
0.10614329 0.030672556 -0.10222623 0.02292644 0.14129724 0.066583306 -0.01565227 0.104917854
0.033885714 0.00018065565 0.0820722 0.16947347 0.30862498 0.2046782 -0.0024064083 0.069621354
0.040880427 0.20115367 0.14230077 -0.13873956 0.16170162 0.11189178 0.09365579 0.05284672
0.12322824 0.04851338 0.07918533 0.021551168 0.053714883 0.14255217 0.048048917 0.10532527
-0.014941512 0.036039837 0.051773097 0.06880632 -0.12619434 -0.26414958 0.01511944 0.020734442
0.29056382 -0.028064994 0.17488852 0.08009848 0.029271979 0.05725001 -0.009719317 0.008925232
0.08600624 0.0033325704 -0.0090387175 0.3877564 0.0703064 0.024654802 0.27619857 0.24922213
0.110401325 -0.08166962 0.06672356 -0.03782087 0.093650855 0.105069466 -0.001747177 0.13049869
0.031464152 0.090115525 0.0098912865 0.10767864 0.2209259 -0.007857787 0.10846416 0.024571719
0.20574148 0.12718552 0.12712567 -0.0060907477 -0.13242377 -0.2642591 -0.06966965 -0.11032986
-0.09396542 -0.16246271 -0.13267474 -0.21606287 -0.14427252 -0.10596304 -0.068796515 -0.12021986
-0.114908665 -0.070540145 -0.4525029 -0.021301346 -0.1403242 -0.14786121 -0.12819678 -0.07988383
-0.08371042 -0.17019777 -0.25950614 -0.12348664 -0.39746335 -0.16125824 -0.17680465 -0.2714263
-0.49778852 -0.16237293 -0.33316773 -0.084060855 -0.19466521 -0.51837254 -0.20833357 -0.032079462
-0.41993433 -0.14192823 -0.18322767 -0.24388862 -0.0692027 -0.027356507 -0.2669816 -0.21860407
-0.16952623 -0.088397026 -0.044561252 -0.050487082 -0.015015605 -0.003160765 0.022364885 -0.26028135
-0.18650724 -0.15963034 -0.21615057 -0.0532945 0.035044506 -0.25567296 -0.18952496 -0.34698525
-0.2136751 -0.22444446 -0.05229692 -0.112029284 -0.20625533 -0.09469081 -0.21127212 -0.51686454
-0.101701014 -0.064532116 -0.16868223 -0.0841636 -0.12991397 -0.13516189 -0.051564235 -0.46621078
0.012347804 -0.42302716 -0.53397244 -0.18521857 -0.08237827 0.018159064 -0.13889018 -0.09521766
-0.13114746 -0.58044565 -0.18075891 -0.016836043 -0.14115646 -0.27483198 -0.27770475 -0.12001951
-0.15004775 -0.0011671577 -0.13682242 -0.18773156 -0.14366877 -0.10736869 -0.13316509 -0.03020636
0.05201619 0.15952042 -0.05276749 0.12881742 0.19956444 0.118552454 0.12241811 0.090750225
-0.05182715 0.036946077 0.09396283 -0.031976193 -0.09236475 -0.12519793 0.17806493 -0.036462687
0.000104031424 0.13205512 -0.036648236 -0.05978215 0.045525815 0.14302042 -0.13415788 0.04638908
0.13643493 -0.11975974 0.093721814 0.016883537 0.0887648 0.032585934 -0.13488917 0.12379282
0.08037312 0.16125782 0.15921244 -0.14113557 -0.034315534 -0.15282482 -0.05719827 -0.30929548
0.12061233 0.0050994004 -0.36110106 0.10186501 0.03073607 0.15092316 -0.11819891 -0.001424845
-0.15200083 -0.07407829 -0.14153056 0.16635484 -0.16422567 -0.1151354 0.0976528 0.046317726

bias_hh f4 [300]
00000000: 2a55 9d3d 429b 723e fee9 2d3e 6471 c03c
00000010: 58a1 ed3d 386b 373d b2d7 2cbc 6ac1 173a
00000020: 001d cd3c 27f2 7cbd 7a29 c03d 7e89 023e
00000030: aea9 f03c fec4 9c3d 352a 56bd 0ad4 a83d
00000040: 286d 043e a15d 7d3d 59cc dc3d a3d2 86bc
00000050: 9811 e83d ab0a 5a3d 58e4 283c 0eb3 2b3d
00000060: 6fa2 e13d f8c9 f8bc 98b7 9dbc 86a3 7abc
00000070: 49b6 7a3c 46b4 d43d 9e21 e23d ddcc b03d
00000080: 589c be3d fffc c1bc e3e7 243e ed13 253e
00000090: ec65 c43e 3a75 df3d 6c44 0f3e a439 2c3e
000000a0: 081d 2d3e b7a5 623d e8e5 433e 4c2c fdbc
000000b0: 3887 91bb a3a4 19bd 2f7c c93d a56a 3ebd
000000c0: 789f ca3d bf68 563d 318a a43d 36c9 bc3c
000000d0: f25f be3c ba0a e93c a47c a03d 2a33 c33d
000000e0: f8c6 523d fbef 813d f5f2 81bc b57e 2e3e
000000f0: bc59 79bd 9464 38be 4849 2b3e 0b14 d33d
00000100: 5826 833e db86 323c 4ee8 813d 9866 093e
00000110: ff61 033e 5b0c a3bd 5ea0 0b3d dc33 653d
00000120: 23f9 f6bb 138e 043e 34da 363e 0ec8 b13e
00000130: 9707 213e edbd 6e3d fd63 ec3d d55a 993d
00000140: e440 ac3d 899f a4bd 9a59 bdbd 77b3 1abe
00000150: f13c 183d 0bad 8dbd 18da 99bc 99e4 f73d
00000160: eaea a2bb 20c2 e33d cbe8 a73d 05cd b73d
00000170: 8c03 773e bbc5 8b3d 70d9 173e 8b7e b03d
00000180: eb88 3b3e bac8 0f3e d668 623d a829 0e3d
00000190: f00f 9dbd 4637 98be 6c2b debd 6543 7cbc
000001a0: 6b3b 5bbd 1883 a9bc cf61 50be 59db 81be
000001b0: 69c5 05be 34a6 07be 11a0 35be 5234 dfbd
000001c0: 4dac 56be 97b9 c5bb 0836 e0be 5735 d5bd
000001d0: ad0d 7d3c eefe 12be 2c41 0fbe bff9 21be
000001e0: e125 633c 92a9 28bd cecc b5be 6190 bcbc
000001f0: 60e7 84be 7aac f2bd d166 aebd dc15 65be
00000200: b898 0ebf f7a5 ccbd 9e8c 89be 4564 8cbd
00000210: 27c9 55be 5a8b bebe 8b30 3cbe 08ec 59bd
00000220: aef2 0ebf 2ba9 8ebe ede5 42be 6457 39be
00000230: 378c 90bd 53db 1cbe 0dc6 9bbe 9856 18be
00000240: 6c76 05be f582 57bd 95f5 20be 7dc6 d5bd
00000250: 4855 49bd 8329 a339 c825 6dbd 7410 82be
00000260: b307 8dbd 2206 ecbd 3a90 91bd 1dbc a8bc
00000270: aa29 e2bd 67de 24be be69 f7bd 79ff 92be
00000280: 8d68 29be f3be 28be 8e6a d9bd 17f2 44bd
00000290: 54d3 85be 50f0 31be d84b 8cbe 4a1b 21bf
000002a0: 97c3 59bd 4331 2fbe d05c c2bd 9edd a13c
000002b0: eadb 97bd a37e f7bd 8c11 cbbd 3a0f e2be
000002c0: d8e1 e4b8 d031 14bf e4f5 eebe 131c 72be
000002d0: 5938 30bd 4685 b4bd 98ce 2bbe 17c1 f1bd
000002e0: 55b4 4ebe e121 1abf b730 11bd ccef 94bd
000002f0: a5c1 25be 86c3 8dbe 234b 9dbe 7a60 89bd
00000300: 005c 81be 61e6 1dbd 9a7e a5bc b74f 91bd
00000310: e8e1 40be 240e 85bc beba 77bd 236f 42be
00000320: 0636 f63d 36d7 133e fd04 a9bd edf0 71bd
00000330: 58f2 263e 5bc2 3f3e 49a1 713d c444 003e
00000340: 550d 203c 38dd ed3c f42c f73d 912f a23c
00000350: a88c a7bc 4ec7 4abd 29fa 87bc c658 d9bb
00000360: d704 e53d a69f 3c3c 938f f3bd 4226 903d
00000370: a706 0a3d bab6 243e db70 abbb 431b cd3d
00000380: 7a80 c8b8 3790 b0bd de64 2abc 7c1b 923d
00000390: 8818 a03d f989 7a3d 7c36 11bd 54b9 ab3c
000003a0: 5a1f 863d cd72 87bb 0316 053e 0fe2 d0bd
000003b0: c6a1 15be 1b94 84be 2692 b1bd d705 92be
000003c0: 1ea1 20bd 643e 1e3d 083e 93be 4286 f2bc
000003d0: 0fca ae3d 14b0 ab3d 3a1e bebc 8881 6cbd
000003e0: da66 26be 53db a8bc 8014 1bbe c69a ae3d
000003f0: 446f 11be 8862 1ebe 6a8a cd3d 6ff6 703d
0.076822594 0.23692039 0.16983792 0.023491569 0.116030395 0.044779986 -0.010549473 0.0005789014
0.025038242 -0.061754372 0.09382911 0.12747762 0.029377785 0.07654761 -0.052286346 0.08243568
0.12932265 0.06185687 0.10781164 -0.016457861 0.11331481 0.05323283 0.010308348 0.041918807
0.1101731 -0.030369744 -0.019252583 -0.015297776 0.015302249 0.10385947 0.11041568 0.086328246
0.09307164 -0.023680208 0.16104083 0.16120882 0.3835901 0.10911031 0.13990945 0.16818863
0.16905606 0.05533382 0.19130671 -0.030904911 -0.004441168 -0.037510525 0.09838139 -0.046488423
0.098936975 0.052345987 0.080341704 0.023045164 0.02323911 0.028447498 0.07836273 0.09531243
0.051459283 0.06344601 -0.015862921 0.17040522 -0.060876593 -0.18007118 0.16727173 0.10306557
0.2561519 0.01089641 0.06343137 0.13418043 0.12830351 -0.07961341 0.034088485 0.05595766
-0.0075370236 0.12944822 0.17856675 0.34722942 0.15725552 0.058286596 0.11542509 0.07488028
0.084108144 -0.080382414 -0.09245606 -0.15107523 0.037167493 -0.06917771 -0.018780753 0.121041484
-0.0049718516 0.11121011 0.081986986 0.08974651 0.24122447 0.068248235 0.1482904 0.08617886
0.18313949 0.14041415 0.05527576 0.034707695 -0.076690555 -0.2972967 -0.10848126 -0.0153969275
-0.053523462 -0.020692393 -0.20349811 -0.2536266 -0.13063587 -0.13246995 -0.17736842 -0.10898651
-0.20964165 -0.006034087 -0.43791223 -0.104105644 0.015445155 -0.1435506 -0.13989705 -0.15817927
0.0138640115 -0.04117734 -0.35507816 -0.023018064 -0.25957775 -0.118493035 -0.085157044 -0.2237162
-0.5570178 -0.09992593 -0.26865095 -0.068550624 -0.20877515 -0.37215692 -0.18377893 -0.053203613
-0.5583905 -0.2786344 -0.19033022 -0.18099743 -0.07057994 -0.1531804 -0.30424538 -0.14876783
-0.13033456 -0.052615125 -0.15718682 -0.10438249 -0.049153596 0.0003112071 -0.05789736 -0.25403178
-0.06886234 -0.11524607 -0.07107587 -0.020597512 -0.11043103 -0.16100465 -0.120807156 -0.28710535
-0.16543789 -0.16479091 -0.10616027 -0.048082437 -0.26137793 -0.17376828 -0.27401614 -0.62932265
-0.053165045 -0.17108636 -0.09490359 0.019758996 -0.07414992 -0.12084701 -0.09915456 -0.44152242
-0.00010913954 -0.5788851 -0.46671975 -0.23643522 -0.043022487 -0.088144824 -0.16778028 -0.11804407
-0.20185979 -0.60207945 -0.03544685 -0.072723 -0.16187151 -0.27688235 -0.30721387 -0.067078546
-0.25265503 -0.038549785 -0.02020197 -0.070952825 -0.18836176 -0.016242094 -0.060480826 -0.18987708
0.12022023 0.14437565 -0.082529046 -0.059067655 0.16303384 0.18726484 0.058991704 0.12526232
0.009768804 0.02903615 0.12069121 0.019798072 -0.020452812 -0.049506478 -0.016598778 -0.006632897
0.11182564 0.0115126725 -0.11892619 0.07038547 0.03369775 0.1608533 -0.0052319593 0.100149654
-9.560674e-05 -0.08621257 -0.010400025 0.071341485 0.07817179 0.061166737 -0.03545235 0.020962395
0.065489486 -0.0041335584 0.12996678 -0.10199367 -0.14612493 -0.25894246 -0.08670454 -0.2852008
-0.039216153 0.03863372 -0.28758264 -0.029605035 0.08534633 0.083831936 -0.023207773 -0.057740718
-0.16250172 -0.020612394 -0.15144539 0.085256144 -0.142026 -0.15467274 0.10036166 0.058828767

weight_ih f4 [300, 100]
00000000: 0285 0d3d f615 5a3d 9016 a03d 0744 08bd
00000010: 310e 99bd 76f6 9b3d bc3c 2c3d 9907 e13c
00000020: eec6 e03c f6ee f43d 9455 95bd 8325 8b3d
00000030: e2ae 3b3d 223e 09bd 4ad8 e63d 29cd 133c
00000040: cd28 f03d e036 fd3c 8fa6 b2bc 6e6f 53bd
00000050: b647 8c3d f7e4 6dbd ed23 aabc 5e4e 39bd
00000060: 1621 233e ad63 19bc 79f6 863b f939 053e
00000070: e759 2f3e de65 c83d eeac f9bd 0284 1abd
00000080: 385f b4bd 54e3 a23d 23cb 28bd c17d c5bd
00000090: e016 80bd cc22 c83c 8fc9 e2bc a783 adbc
000000a0: 042b 833b 7334 8f3d 18a8 b9bd e626 353e
000000b0: e780 82bd fe83 e53d 5357 87bc 9327 c5bd
000000c0: 40b8 993d e0b3 fe3c 69ce 6f3d c5bf b43d
000000d0: 1194 96bb b6d0 963d 8835 7dbd 57d3 c23d
000000e0: 8e04 c83d 080f cdbd 62c6 453c 4b06 c73b
000000f0: 3659 82bd dc32 bebd 4a4f 173d 432d a9bd
00000100: d070 a73c 4682 893d a46d 023d 503f cbbd
00000110: cc0b a7bb 7e7f 0f3e dbd9 abbd 1cc0 13be
00000120: cb1e 0d3b 2404 2abd ca3a b53c 97c4 203d
00000130: f8a1 6dbd eb5c 293e da75 943d bbb4 2e3d
00000140: 741a 8ebd c5f6 b1bd 3d80 9abd fd36 133e
00000150: 2ba4 af3d 5a10 553e d63e 6dbd ec6c d53c
00000160: a89c 8fbd 434a 4a3c 1dd5 383e e9cf 24bd
00000170: dbe3 fdbc 674a 8dbd 6360 9f3d 134d 6bbc
00000180: 02b0 25bd eb87 c7bd 2802 273d ee96 e2bb
00000190: d326 d8bc b267 2f3e bf98 09be f4f6 393c
000001a0: 9282 cbbb 7950 183e 2b60 983c 9e3e 8c3c
000001b0: bebe aabd 2ca5 c83d 04a9 05bd 0bee 44bd
000001c0: c78b 803c b9b6 61bc c935 a93d d453 ebbd
000001d0: 0daa 0a3e db3a 233e aec1 49be 4d7e 913d
000001e0: 7cc3 2e3e e11f 123e 308d cabd 0da6 d03d
000001f0: 011c b63d 7061 cf3b f21a 293c a37a 9e3c
00000200: 226a 9a3d 7454 e7ba c0d5 64be a6c9 163e
00000210: b6f5 a83d d098 783d 5179 703c c29e 8cbc
00000220: df25 52be 8109 d9bd 9809 d0bd a4b9 20bd
00000230: 56c0 733d d6e0 63bd 2104 04be b47e ea3d
00000240: a610 76bc f17b 963d 20b0 1abe 9e55 4bbd
00000250: 11c6 0dbe e08b 12bd 2c87 e23c dfa9 b23d
00000260: 93d6 e9bd 2cb5 69bd fa9b 6b3c 91a2 a0bb
00000270: 84ab 043c 681b 33be d205 2a3e b197 d4bd
00000280: e579 9dbd fe79 1ebd 4733 c8bd a4c1 f3ba
00000290: ba8c c63c 190a 6d3d a17f 163e 4793 b4be
000002a0: 7a09 b1bc cb0c 433e 0ffd 223e 557c 4cbd
000002b0: 739d 3fbd 3099 88bd 1842 b13d 57ec 9bbd
000002c0: f475 06bd 41a1 173e 2ffd b2bd e550 e93d
000002d0: cd96 303d 6984 51bc cae6 d6bc f95c 233e
000002e0: 13cb 923d 084c 003e 5496 5fbc 9534 aebd
000002f0: 156f 9b3d 7a67 89bd 7e60 7d3d 5e87 acbd
00000300: 71b2 e0bd c66d 0c3d a774 023d 102f 9abd
00000310: 4a31 0fbd 5c30 f2bd 34bf 1c3e 14a8 653c
00000320: d02d ddbc ad92 b13d f68e 8c3c d548 d93d
00000330: 0ed1 8d3d bdd2 ff3d 3718 09bc f45d 033e
00000340: e784 bdbd 0995 0a3e c3f7 293e b9bb 9e3c
00000350: 9cfe 3c3c cde7 c6bd 6bc3 183e 2c34 92bd
00000360: 5e1d 323e 0206 923d c08b 0fbe f94a a33b
00000370: 71a9 9f3d ffcc c93c 06fa a3bd 514a c93d
00000380: e163 963d 5f12 04be f62e c73d 0fec 493e
00000390: c643 b4bc 0c0c 713d e859 d1bd 9a89 eb3d
000003a0: a550 2fbc bc5a 143e 98b5 623d 0414 723c
000003b0: 727d debd 1cd4 e7bd 88df c8bd e4db 2bbd
000003c0: 0bac 403e d380 0cbe 3fad eebd fcab 143e
000003d0: 2c1c 763d 4b63 783d daf9 fabd 761a afbd
000003e0: d7ef 8abd 8f2d 15be 2593 aabd 4173 993c
000003f0: d38e 27be 3466 cfbc e44a 1f3e 9b9b 1d3e
0.034550674 0.0532436 0.078168035 -0.033268 -0.0747341 0.07615368 0.04205011 0.027469443
0.027438607 0.11959641 -0.07291713 0.06794264 0.045821078 -0.03350652 0.112717226 0.009021082
0.11726532 0.030909956 -0.021807937 -0.05161994 0.06849615 -0.058079686 -0.020769084 -0.045240752
0.1593059 -0.009362143 0.0041187373 0.13010396 0.17124139 0.097850546 -0.12191187 -0.03772355
-0.08807224 0.07953516 -0.04120935 -0.09643126 -0.06254363 0.024430655 -0.027684001 -0.02118094
0.0040029306 0.06992426 -0.090652645 0.1769062 -0.063722424 0.11206816 -0.016521132 -0.09626689
0.07505846 0.03109163 0.058546457 0.0882564 -0.0045952876 0.07364027 -0.06181863 0.09512966
0.09766494 -0.100126326 0.012071224 0.006073748 -0.06364672 -0.092870444 0.03694085 -0.08260586
0.020439535 0.06714301 0.031842843 -0.09924185 -0.005097842 0.14013478 -0.08391162 -0.14428753
0.0021533247 -0.041507855 0.02212276 0.039249983 -0.058015794 0.16539352 0.07249041 0.042652827
-0.06938639 -0.08689646 -0.07543991 0.14376445 0.085762344 0.20807019 -0.057921253 0.026052915
-0.07012302 0.012346807 0.18050046 -0.04023734 -0.030992439 -0.06898957 0.07782056 -0.014361638
-0.040451057 -0.09742721 0.04077354 -0.006914965 -0.0263857 0.171294 -0.13437174 0.011350382
-0.0062106336 0.14874448 0.018600544 0.017119702 -0.083371624 0.09797129 -0.03263189 -0.048078578
0.015691651 -0.013776475 0.08262212 -0.11490598 0.13541432 0.1594042 -0.19702789 0.07104168
0.17066759 0.14269973 -0.09890211 0.10187922 0.0889206 0.006328754 0.010321366 0.019345587
0.075397745 -0.001764907 -0.22347164 0.1472536 0.08249991 0.06069261 0.014677362 -0.017165545
-0.20522259 -0.10597516 -0.1015808 -0.03923954 0.059509598 -0.055634342 -0.128922 0.11449948
-0.015018618 0.07347859 -0.15106249 -0.049642198 -0.13845088 -0.035777926 0.027652346 0.087238066
-0.1141788 -0.057057545 0.014380449 -0.004902192 0.008097533 -0.17490923 0.16603783 -0.10380495
-0.07689265 -0.03869056 -0.097754054 -0.0018597138 0.024237026 0.057870958 0.14697124 -0.35268614
-0.021610964 0.19047849 0.15916847 -0.04992326 -0.046781015 -0.06669843 0.086551845 -0.076134376
-0.032827333 0.14807607 -0.08739697 0.113923825 0.043112565 -0.012787917 -0.026233096 0.15953435
0.071676396 0.12529004 -0.013646681 -0.08506123 0.075895466 -0.0670919 0.0618596 -0.08424257
-0.10971535 0.034284376 0.03184953 -0.07528508 -0.034959115 -0.1182563 0.15307313 0.014017124
-0.026999384 0.08670554 0.017158013 0.10609595 0.0692464 0.12491367 -0.00836759 0.12828809
-0.09253865 0.13533415 0.1659842 0.019376623 0.011535313 -0.09712181 0.14918296 -0.07138857
0.17394015 0.07130052 -0.14018154 0.0049833027 0.0779599 0.024633883 -0.080066726 0.09828628
0.07343269 -0.12897633 0.09725754 0.19718955 -0.022004973 0.05884938 -0.102222264 0.11500855
-0.0107003795 0.14487737 0.055348963 0.01477528 -0.108637705 -0.113197535 -0.0980826 -0.04195775
0.18815629 -0.13721018 -0.11654138 0.14518732 0.06008546 0.06064157 -0.12254687 -0.08549969
-0.06784027 -0.1456816 -0.08328847 0.018731715 -0.16363077 -0.025317289 0.15555912 0.1539139

weight_hh f4 [300, 100]
00000000: e0e3 b23c bb64 80bd 1f1f cdbb 39b4 9cbb
00000010: b4c4 86bc 5051 8e3a ce2d 233e 14c8 c03d
00000020: 3ae7 713d b4e8 e5bd 89b4 9d3d b4c6 acbd
00000030: 6050 67bc 0559 213d 30b4 573d 969e 01be
00000040: 43fd 143e 5239 d2bd 7598 c63d ec36 673c
00000050: f380 0abd 327e 56bc cdf8 e93c fc1a 1cbc
00000060: a7dd 54bd e7af 083d 4c06 dc3d d742 143d
00000070: 7816 bebd 4d90 0cbc 531b 4b3c 8de9 cfbb
00000080: b6bd 043e 75a7 3cbe 4746 173d 931e 7cbb
00000090: c995 c6bd eb12 683c 3678 a8bd 30fd 3a3d
000000a0: 3d83 8cbd 41d7 1bbd 0b30 b5bc 09d8 2f3b
000000b0: 21c3 e93d 0696 053d 3a67 a4bd 0ef0 ba3d
000000c0: 1e5d ad3d 523e 1c3e dae3 57bc 4a79 ffbd
000000d0: 532f 48bc 03be 393d 1a8e 1abe 0913 ff3c
000000e0: 182d a03d 66d6 003e bb27 08bd 7c59 0e3e
000000f0: 8d11 c4bc c7a9 ddbd df37 b93c 1f18 90bd
00000100: 06a2 18be e0c1 dd3b dad8 833b 0a21 f1bd
00000110: 2d89 9e3d bbe5 b9bd f66a ddbd 9172 80bd
00000120: b56e d6bc b2a4 0f3b 6a35 8e3d d41d c33b
00000130: 2f61 ed3d 5887 e5bd 1fca 1a3c d9a2 f4bd
00000140: 0ca9 cbbd d9db 983d 1d52 813a f349 423d
00000150: 2f92 123d fa2f 94bc 2719 0dbd c217 8cbd
00000160: 0446 82bc 0366 71bc c63a 1c3e 95ce 9b3b
00000170: e186 403d 64ce 1dbd 5dea 0bbe 6309 de3d
00000180: e448 173d a084 0a3e 47d2 5a3e 194c c93c
00000190: 460f bebb 63d4 c1bd 23f2 cb3c c57b d9bd
000001a0: 621a 213e d338 be3d ae25 b139 2038 543d
000001b0: 6592 703d 44db b4bd a5ad 083d c5ca 42bd
000001c0: 8d17 8fbc c736 a03c 80ae d43d d9f6 0ebe
000001d0: 16e8 ea3d 3b18 00be d313 223e 9c69 8dbd
000001e0: 3b1a 173d d519 7b3b b876 883d 00f8 c83d
000001f0: f560 f33c 683f 013e e7ce 383c af73 513d
00000200: 26b7 0cbe d33e ed3d d3cf 093e 716d 0cbe
00000210: 1488 d53d 1e5d 03be 164e 1fbe 49fd a1bd
00000220: a124 eabd 671a 703c eab5 07be af1f 0c3e
00000230: 5152 ecbd 709d 35bd a710 483d 7886 c4bc
00000240: ca30 87bc 01bc 013e 5609 bd3d f99e b03d
00000250: 2c99 203d a9da a73d 5c63 943d 5a92 c2bd
00000260: 3791 dd3d ebe2 8f3d e1bc babd 4544 16be
00000270: fc48 95bc 6faa ef3d d772 e2bc bfc1 58bb
00000280: 9e6f 9fbc e6d4 42bd bfcf 233d 64aa 1bbe
00000290: c164 1dbe f89e 623c 2831 c13d 8eef 4ebd
000002a0: b8f7 f33c 4f8a 983b f3e5 fcbd 66a0 04be
000002b0: a9e6 a6bd 3569 ac3d 4165 d83c d987 c83d
000002c0: 591f 223d e8a3 9ebd 3be7 1a3e 367d ecbc
000002d0: 5b24 a43c ddfa 9e3d a798 a73d 097d 2ebd
000002e0: ff25 02be 7541 f3bc f226 c6bd 31d0 89bd
000002f0: 436d 3bbd 60b2 0a3e 361f ac3d 2b03 e6bd
00000300: 05ad 103e 06d2 14bd 3af8 3ebd 0879 f93d
00000310: 7a4a 3b3a b5af 023e 1e08 2f3d c511 74bc
00000320: c059 f23d 57c3 3bbe 89cb ff3d 3a0b 75bd
00000330: 46a3 2a3d 2e5d 0c3e 320d 9e3d 1093 d13d
00000340: b92a 3b3d f2c6 c4bd 6b5c 853c d78e e7bd
00000350: 3c65 3cbd 8239 c6bd bc57 133e bdfe cebd
00000360: 7a81 b73d cf35 cdbd dceb 563d 15cb 93bb
00000370: 5ebf f7bd c758 823d 2d87 cd3d 2f81 013e
00000380: 6559 28be 2e36 3d3d 55e0 b73d d225 0cbe
00000390: fb90 e5bc 6b00 f13d 192e 213e 5662 fd3b
000003a0: 48c2 c83d 3dd3 83bd 7d73 2abe 111e b1bd
000003b0: 8df0 1bbe 23d3 5d3b 86c9 8bbd 2b95 41bb
000003c0: a1e4 abbc daa3 f5bc b05a 103e 9816 343e
000003d0: 8812 e63d 4e71 1a3e 4ae3 9e3d 6d8e 2f3e
000003e0: 7bdf c73d 279f ad3d 1114 e43d 03dc 8bbc
000003f0: de3d cd3c 38c9 373e dd04 23be 5014 b9ba
0.021837175 -0.06269213 -0.0062598134 -0.0047822264 -0.016451217 0.0010857973 0.15935442 0.09413162
0.059058405 -0.11226025 0.0770045 -0.08436337 -0.014118284 0.039391536 0.052662075 -0.12658152
0.14549737 -0.10264839 0.096970476 0.0141122155 -0.03381438 -0.013091611 0.02856102 -0.009527918
-0.051969197 0.03337088 0.107433885 0.036196556 -0.09281629 -0.008579326 0.012396651 -0.00634498
0.12962994 -0.18423255 0.036932256 -0.0038470372 -0.09696538 0.014164667 -0.082260534 0.045651615
-0.06860969 -0.03804708 -0.022117635 0.0026831648 0.11414171 0.032613777 -0.080275014 0.09127818
0.08465026 0.15258148 -0.013176883 -0.12474306 -0.012218314 0.045347225 -0.1509327 0.031137006
0.07821101 0.12581787 -0.033241015 0.13901323 -0.02393415 -0.10823398 0.02260965 -0.07035851
-0.14905557 0.0067674965 0.0040236535 -0.1177388 0.07741008 -0.09077021 -0.10811417 -0.06271852
-0.026175836 0.0021918234 0.06943782 0.0059544835 0.11590802 -0.112074554 0.0094476035 -0.11945123
-0.099443525 0.074638076 0.0009866391 0.047433805 0.035783943 -0.018089283 -0.034447815 -0.06840469
-0.015902527 -0.014733794 0.15256795 0.004754851 0.04700363 -0.038526908 -0.13663621 0.10841634
0.03693475 0.13527155 0.21369277 0.024572419 -0.0058001606 -0.09464338 0.024895733 -0.1061931
0.1573272 0.09288182 0.00033788144 0.051811337 0.058733363 -0.08830884 0.033368725 -0.047556657
-0.017467285 0.01955737 0.10384846 -0.13961352 0.11470048 -0.12509243 0.15827875 -0.06904909
0.03689025 0.0038314958 0.06663269 0.09812927 0.029709319 0.12621844 0.011279798 0.051135715
-0.1374174 0.115842484 0.13458185 -0.13713624 0.104263455 -0.1282849 -0.15557131 -0.079096384
-0.11432768 0.014654732 -0.13252988 0.13683961 -0.11539138 -0.044339597 0.048844006 -0.023989901
-0.016502757 0.12669374 0.09230296 0.08624072 0.039208576 0.08196003 0.07245514 -0.095005706
0.10818713 0.07025703 -0.09118057 -0.1467448 -0.018223278 0.117024295 -0.02764265 -0.0033074466
-0.019462403 -0.047566317 0.039993044 -0.15201718 -0.15370466 0.013831846 0.09433204 -0.050521426
0.029781207 0.0046551595 -0.12348547 -0.12951812 -0.08149464 0.08418504 0.02641547 0.09791536
0.039580677 -0.077461064 0.1512727 -0.028868299 0.020036867 0.07762692 0.08183413 -0.04259971
-0.12709807 -0.029694298 -0.09675397 -0.067291625 -0.045758497 0.13544607 0.084043905 -0.11231073
0.14128502 -0.036333106 -0.046623446 0.12181288 0.0007144582 0.1276234 0.04273235 -0.014896815
0.11833525 -0.18336235 0.12489993 -0.05982516 0.041659616 0.1370742 0.077173606 0.10233128
0.04569504 -0.09608258 0.01627942 -0.113065414 -0.045994982 -0.096789375 0.14388937 -0.10107181
0.089602426 -0.10020029 0.052471027 -0.0045102932 -0.12097047 0.06364589 0.10035548 0.12646936
-0.16440351 0.046194248 0.08978335 -0.13686302 -0.028023234 0.11767658 0.15740241 0.00773267
0.09802681 -0.06436775 -0.16645618 -0.08648313 -0.15228482 0.003384777 -0.06825547 -0.0029538374
-0.020983042 -0.029985357 0.14097095 0.17586744 0.11234003 0.15082285 0.07758196 0.17144175
0.097594224 0.084776215 0.1113664 -0.017072683 0.025053915 0.17947853 -0.15919824 -0.0014120433

bias_ih f4 [300]
00000000: b602 f5bd 1203 a43d a09c 533d f158 f3bd
00000010: d4f9 c23d 272c 83bc 94e4 383d 87a9 1bbd
00000020: fb72 7bbd dc37 01bc 4792 a83b 77fc dd3c
00000030: 7847 75bd b419 76bd b402 14be d37f ddbc
00000040: 90d3 dbbd 2323 2e3d cec0 aa3d facb febc
00000050: 4424 7e3d ba8b d9bd 885e 1bbe a1bc d03c
00000060: fa2d b9bd 4887 4fbb 2099 eabd 6581 62bd
00000070: 3792 83bd b09f 2bbe 4c1e ec3c 740f b03d
00000080: 5e16 ba3c 8e0b 993d b7a8 673d 417b 46bd
00000090: d756 f23d 8c64 35bd b690 cfbc a251 1dbd
000000a0: bf27 5a3c 4c82 ccbd 5063 37be 2116 efbd
000000b0: 5009 9c3d 3dac 173d 103d 74bd 9dad 3abd
000000c0: 5ff6 22be 2640 983c c943 99bd c9c8 03be
000000d0: 58bb b5bc 7562 063d 0874 b8bd 2ae7 853d
000000e0: 33b9 de3c b970 9ebc 34da bd3c cecc 5abb
000000f0: b5e0 4abe 8987 91bc 5055 c3bb f6e6 433d
00000100: e70f 8cbc b9f1 553d e42d c5bd 38fc 9f3c
00000110: b3d4 183d 76b4 9abb 09c9 32be 9079 aebc
00000120: b4a5 d6bc db3b 98bd f0cc 8f3d 5c2a 863d
00000130: 8d5b 783d c9da 74bd 29d5 a13c 0740 8dbd
00000140: 8671 35be 1e57 b83d 0d3f e8bd 00ea ba3d
00000150: e2b6 a83d 656d 5cbe 1d2a 97bd 7ef6 8cbd
00000160: e5c9 bebd 82fc ddbd c947 02bd a8ec 9dbc
00000170: d91d 023d 374e 8ebd dfad 66bd f692 48be
00000180: d021 d8bd 714a a8bd 6767 a13d af3e dcbd
00000190: b67a 9abd 3a12 433d 88cd b0bc 9dd5 15be
000001a0: f939 15be f773 29be 952e 0e3d 6702 f6bd
000001b0: 35c6 93bd e923 08be ff26 b8bb 6f78 313d
000001c0: 1dfc 49bd 5db0 563a 8999 b8bd 60a5 d8bd
000001d0: 2d3c 1ebe 1e6b 80bd c144 c4bd c10a bebd
000001e0: c9d5 63be 513a 4fbd cbd5 4cbd 2d4f 393c
000001f0: 72f0 14be 11e6 50be 241b 18be 2f22 c4bc
00000200: e8f9 f4bd 7ada 44be 97e0 3abe 33b7 24be
00000210: 0015 07bd 9562 ec3b 45b8 7cbd 2c7f 383b
00000220: 4e45 89bd d9da 843c 66a1 f8bd b270 0bbe
00000230: f81e 37be 55b4 37bd f858 eabd 3f62 4fbd
00000240: 0f4a 26be 8762 95be b834 78be bcf1 943b
00000250: 4d60 48be 1417 e5bc 6719 51be 1e84 1ebd
00000260: d709 9fbc 626b 2dbe 9743 82bd a95e e3bc
00000270: 911f 1bbe e0ec 02be 18fe b4bd 13e5 39be
00000280: 51d7 f6bd 934f bdbd 3c41 cdbd d417 fabc
00000290: bfe7 2c3d 2064 b8bd 884b 693c b77c 40bd
000002a0: a93a b0bb ae33 bfbd 4a51 c7bd d6f3 f83b
000002b0: a1c8 85bd 3486 ba3c 5d2b 2abc fb12 0abd
000002c0: bb73 94bd a216 12be aa1d 6cbe 8f66 b3bd
000002d0: 4d01 803b ea8b 29bd cf10 54be 7ff7 06be
000002e0: ffcd b6bd c652 dbbd b1b4 38be f88e ebbd
000002f0: b7e9 aabd eb99 56be 165a aebd 0a2a 27be
00000300: 99a4 6e3d 269f 9fbd 1278 c0bc f6fd 29be
00000310: 5202 02ba 82c6 cfbd 4f63 31be 6efd a2be
00000320: 8b63 873d ca6b 20bc 2750 173d 761d 4a3d
00000330: 8f03 593d 3642 ee3d ea3f 9e3d 9beb b73d
00000340: f33a 4f3d 0f5c 52bd cd38 3b3d f931 8f3c
00000350: f673 5fbc 5569 6dbd 7cad 8dbd c503 debd
00000360: 7826 f4ba bdfe 803d c717 e43d 030e fcbd
00000370: 31a9 863c 394e 143e 60ae 8b3d b8eb bd3d
00000380: 2f5f 16bd 9989 dd3d 15d9 f03c bdd6 243d
00000390: 023a efbd 9ee6 fc3d a62c 283d fad3 bebd
000003a0: f872 2bbd 4caa 0b3d 0147 a4bc c117 c1bd
000003b0: b91d a6bd 3718 90bd f9cd c3bd 1963 e7bc
000003c0: 4f4c 35bc ff6f c6bd 5fcf 0f3e 683a b63d
000003d0: ec78 e83d f142 233d aac5 1e3e 3915 a23d
000003e0: ca2b 043e 34aa 993b 0abc f23d 0937 0fbe
000003f0: 2d29 053e 6d19 bb3c b136 fabc 47d3 b5bd
-0.11963408 0.08008398 0.05166304 -0.118821986 0.09520307 -0.016012264 0.045139864 -0.03800347
-0.06138895 -0.007886853 0.0051443907 0.027097924 -0.05988261 -0.060083106 -0.14454156 -0.02703849
-0.10733712 0.042513978 0.08337556 -0.031103123 0.062046304 -0.10622354 -0.1517278 0.02548057
-0.090419725 -0.0031666327 -0.114549875 -0.05529918 -0.06424373 -0.16760135 0.02882304 0.085966974
0.022715744 0.07472907 0.056557383 -0.048457388 0.1183297 -0.044285342 -0.025337558 -0.03840793
0.01331514 -0.0998579 -0.17908978 -0.11674143 0.07618964 0.037029494 -0.059628546 -0.045575727
-0.15914296 0.018585276 -0.07483632 -0.12869562 -0.022184059 0.03280874 -0.09006506 0.06538232
0.02718792 -0.01934086 0.023175336 -0.0033386233 -0.19812281 -0.017764824 -0.005961098 0.047827683
-0.017097427 0.052232478 -0.096278936 0.019529447 0.03731222 -0.0047212197 -0.17459501 -0.0212982
-0.02620206 -0.074332915 0.070215106 0.06551048 0.060634185 -0.059778962 0.019754963 -0.06896978
-0.17719087 0.09000991 -0.11340151 0.09126663 0.08238007 -0.21526106 -0.07381079 -0.06882952
-0.09315852 -0.10839178 -0.03180674 -0.019277886 0.031766746 -0.06948512 -0.05631816 -0.19587311
-0.10553324 -0.082173236 0.078810506 -0.107541434 -0.075429365 0.047624804 -0.02158238 -0.14632268
-0.14572896 -0.16548143 0.034712393 -0.12012177 -0.07215539 -0.13294949 -0.005619883 0.043327745
-0.0493127 0.00081897323 -0.090136595 -0.10578418 -0.15452643 -0.06270431 -0.09583426 -0.09279395
-0.22249521 -0.050592724 -0.050008576 0.011310381 -0.14544848 -0.20400263 -0.14854103 -0.023942081
-0.11961728 -0.19223967 -0.18249737 -0.1608551 -0.03297901 0.0072139003 -0.06169917 0.0028151972
-0.06702672 0.016217636 -0.12140159 -0.13617209 -0.17882907 -0.044849712 -0.11442751 -0.050630804
-0.16239189 -0.29176733 -0.2423886 0.0045454185 -0.19567986 -0.027965106 -0.20419846 -0.038700216
-0.019413872 -0.16935495 -0.06360548 -0.027755098 -0.1514876 -0.12785673 -0.08837527 -0.18153791
-0.12052787 -0.09243693 -0.10022208 -0.03052894 0.042213198 -0.09003472 0.014239199 -0.046993937
-0.0053780866 -0.09336029 -0.097323015 0.007597427 -0.065324076 0.022769071 -0.010386315 -0.033709507
-0.07248636 -0.14266446 -0.23058191 -0.08759796 0.003906405 -0.041393198 -0.20709537 -0.1318035
-0.089260094 -0.10709147 -0.18037678 -0.115018785 -0.08345359 -0.20957153 -0.08513276 -0.1632463
0.05826244 -0.07794027 -0.023494754 -0.16600785 -0.0004959452 -0.10145284 -0.1732304 -0.31833977
0.06610783 -0.009791324 0.036941674 0.049344502 0.05298191 0.116337225 0.077270344 0.08980485
0.050593328 -0.051357325 0.045708466 0.017479884 -0.013638487 -0.05796178 -0.06917855 -0.10840563
-0.0018627187 0.062985875 0.11137348 -0.1230736 0.016438099 0.14482965 0.06820369 0.092734754
-0.036711868 0.1081726 0.029400388 0.040243853 -0.11680986 0.12348674 0.041058205 -0.09317775
-0.04185769 0.034097955 -0.020053389 -0.09428359 -0.08111138 -0.070358686 -0.095607705 -0.028245496
-0.011065557 -0.0968933 0.1404395 0.08897859 0.11351189 0.039858762 0.1550509 0.07914204
0.12907329 0.0046894792 0.11852272 -0.13985838 0.13003989 0.022839272 -0.030543657 -0.088781886

bias_hh f4 [300]
00000000: a128 04be 5d0c 5e3d 2581 21bd e3c1 633d
00000010: 64ec da3c 8d60 dbbc ea33 68bd 6e73 bdbc
00000020: 5155 17be 8131 42bd 9c07 14bb 3f55 a23d
00000030: d1a1 963c 0b4a 903d de20 59bd 39cd 963d
00000040: e093 32bd 510c 27bd 4cae a5bd 2717 123c
00000050: 4ca0 273e c357 37bd 55de 4cbe 644c 02be
00000060: 0204 c23d 3365 6f3d 16f8 6f3c 71f2 c6bd
00000070: 7098 063d 4257 6e3b 1ad8 5c3d ac25 403d
00000080: 2cc5 863d c8b1 bb3d 6746 893d cfaf cd3c
00000090: e876 d13d 773f 3e3c 78d1 06be 2213 20bd
000000a0: dba7 87bd f6a7 573d 0c3b a5bd 65e0 99bd
000000b0: b56d 3c3d f9c9 a0bd 3b55 b43d 9c34 2dbd
000000c0: d217 debd 1b2c 613d 198c d93d 05fd a8bd
000000d0: ebf7 7c3d 5ea7 0abd 68b5 24be 7de2 81bc
000000e0: 7333 dd3d b4c4 1bbd eea1 3e3d 928e f3bd
000000f0: f7ea 9ebd ff76 ce3d 0ce7 9f3d 88c3 68bd
00000100: f26a 933d e08b c0bd 730b 1abe fa36 b2bd
00000110: af61 f7bd 624a 523b dd98 87be 66ee 9c3b
00000120: b7d1 40bd 21a2 01be 413e 80bd 7d73 953d
00000130: 3272 8e3d 5081 03be 63cb c5bd 21f7 633d
00000140: 4bb1 75be 241a bc3d 3abf 42bd 001c c23d
00000150: 2713 dfba 601d 1abe 4837 e6bd e13b e63b
00000160: 42cc 7bbd 1bba 553c 9a2b f33c cf2e 7f3d
00000170: d80f 123e 2140 cebd 906a 16bd f865 53bd
00000180: cf5d 1fbe 2185 0ebe 2829 f13d e0ad c83c
00000190: 5625 46bd 4ee8 de3c 7e27 8fbd 15eb 09be
000001a0: ccee 19be b25f 18be af6f 42bd ed5f e1bd
000001b0: dd6c 01be 94db ecbc 9ad5 b8bd 9ad6 ce3a
000001c0: b09e dbbc bacf ddba c1b6 d6bd 2849 bb3c
000001d0: f338 fd3c daff bebb 1616 1fbe 6b1c 53be
000001e0: d6e6 f0bd 964f 09be 5256 0dbe 7116 00be
000001f0: 4755 7ebb 596b 61be 0725 4abe 70b9 f4ba
00000200: 3d97 4bbd ae21 7dbe 3b69 efbb be9e 22be
00000210: 3549 c8bd 3666 66bd abfe 19be bcba f6bd
00000220: f47b 86bb f864 c93c 6e35 02bd 6ca8 c3bc
00000230: 04b8 28be bf7f ccbd 5a7e 29be 976d 06be
00000240: 95ca 87be d5fc 96be 6d42 66be 32a1 fdbd
00000250: 8118 dfbd 715a 6e3c 1f71 0ebe dff9 e2bd
00000260: e710 a4bd 261b 36be 44b6 1fbe 6f4c 0ebe
00000270: b09c fabd cbd7 0fbc 78b7 3ebd 3d2a c0bd
00000280: 4fd2 3dbe d9b5 33be 27bd d6bd 4c0a 6ebd
00000290: 1610 8d3d 27f9 16be ea2b a7bd a074 2abe
000002a0: f226 fabd f205 7ebd 5ea9 00be dc61 1cbe
000002b0: fd1f 8ebd 604a a3bd ce1d b1bd 761b acbd
000002c0: a7b6 fdbd 0a3a fbbd d379 49be d8e5 c23c
000002d0: bf2a 8ebd 8d83 2bbe 2602 5cbe 8810 08be
000002e0: e7b8 3fbd ddc3 fdbd 3dc4 95bd 1375 d1bc
000002f0: 378a 13be ed7b d0bd a8a3 bdbc e626 fbbd
00000300: f553 c3bd 61e5 b2bd c244 dabd e7dc acbd
00000310: 89b3 b5bc 2eec 06bd 623b 55bc 2343 39be
00000320: 56de bdbc c5c0 37bd 1f53 c83d 6638 383d
00000330: 8f2c 9cbd a5de 933c 8d1d a1bc 9071 e23d
00000340: c5b5 9d3c 7caa 7c3a bec8 d73d cb91 1ebd
00000350: 8a11 b13c 4564 62bd 4e62 ffbc 1c22 dbbd
00000360: afef 7a3b b56b efbd 480f a23d 29d6 4fbd
00000370: ca5e c4bd af0b 14bc 3cc7 4fbd 5ce8 fdbc
00000380: 4005 06be 373e db3d 2e50 663d e679 15bd
00000390: d94e 69bd 702c a8bc 89d6 fa3d 0fad 11be
000003a0: 8803 f93d 26fa 30bd a412 d6bd 5a2b 353c
000003b0: 93f3 0cbd 6819 ddbd 5736 613d d199 9c3c
000003c0: fd02 8cbd 8f2e fdbc b26d 54bd c546 0bbd
000003d0: 92f7 d63d ea9c d33d 7a37 593d a964 a33d
000003e0: 40fb a63c 63e3 303d 8fbc 223e b6f9 823c
000003f0: 87fd 813d 31b4 fa3d d1ee d53c 9ed6 98bb
-0.12906124 0.05421101 -0.039429802 0.055604827 0.026724048 -0.026779437 -0.056690134 -0.02312633
-0.1477864 -0.04741049 -0.0022587543 0.07926416 0.018387707 0.070453726 -0.05300986 0.07363362
-0.043598056 -0.04078323 -0.08089885 0.008916653 0.16369742 -0.04476143 -0.20006688 -0.12724453
0.09473421 0.05844612 0.014646551 -0.09714211 0.03286022 0.0036367928 0.053917028 0.046910927
0.06580576 0.091647685 0.06702881 0.025108246 0.10227758 0.011611811 -0.13165843 -0.039080746
-0.06623813 0.052650414 -0.08067903 -0.07513503 0.046003062 -0.07851023 0.08805319 -0.0422865
-0.10844387 0.054973703 0.10622425 -0.08251385 0.06175987 -0.03385102 -0.16084826 -0.015855068
0.10800829 -0.038029388 0.046541147 -0.118924275 -0.0775966 0.100812905 0.078077406 -0.056827098
0.071981326 -0.09401679 -0.1504343 -0.08701892 -0.120791785 0.0032087793 -0.26483813 0.0047891615
-0.047075 -0.12659504 -0.06261874 0.07297418 0.06955375 -0.12842298 -0.096579336 0.055655602
-0.23993413 0.091846734 -0.04754565 0.09477997 -0.0017019258 -0.15050268 -0.11241013 0.007026181
-0.061474092 0.013044859 0.029683877 0.0623005 0.14263856 -0.10070825 -0.03672272 -0.051610917
-0.15563129 -0.13917972 0.11775428 0.024496973 -0.04837545 0.02721038 -0.069899544 -0.13468583
-0.150325 -0.14880255 -0.04746979 -0.110046245 -0.12639184 -0.028913297 -0.09025116 0.0015780509
-0.026809067 -0.0016922869 -0.10484076 0.022862032 0.030910945 -0.0058288397 -0.15535769 -0.2061631
-0.117627785 -0.13409266 -0.1380246 -0.1250856 -0.0038808153 -0.22013606 -0.19740687 -0.0018670987
-0.04970478 -0.24719879 -0.0073062456 -0.15880868 -0.09779588 -0.05624982 -0.15038554 -0.120473355
-0.004104132 0.024584278 -0.031789236 -0.02388402 -0.16476446 -0.09985303 -0.16552106 -0.13127743
-0.26521745 -0.2948977 -0.22486277 -0.12384261 -0.108933456 0.01454793 -0.1391034 -0.110828154
-0.08011036 -0.17783794 -0.15596873 -0.13896345 -0.12236917 -0.008779476 -0.04656169 -0.09383056
-0.18537258 -0.17549838 -0.10485297 -0.05811529 0.06887834 -0.14743482 -0.08162673 -0.16646051
-0.122144595 -0.06201739 -0.12564608 -0.15271705 -0.06939695 -0.0797317 -0.08648263 -0.08403675
-0.12388354 -0.122669294 -0.19675379 0.023791239 -0.06941747 -0.16749401 -0.21485195 -0.13287556
-0.046807196 -0.123908736 -0.0731282 -0.02556852 -0.14408194 -0.10179887 -0.023149326 -0.12263279
-0.09537498 -0.08735157 -0.10657646 -0.08440571 -0.022180336 -0.032940082 -0.013014646 -0.18092017
-0.023177307 -0.044861574 0.09781479 0.04497566 -0.076256864 0.018050501 -0.019667411 0.110568166
0.019251714 0.0009638441 0.105363354 -0.038713258 0.021614809 -0.055271406 -0.031174805 -0.10699865
0.0038289835 -0.11690465 0.07913071 -0.05074135 -0.09588392 -0.009035989 -0.050727114 -0.030994587
-0.1308794 0.10705226 0.05622881 -0.036493205 -0.05695996 -0.020529002 0.122479506 -0.14226173
0.12158877 -0.04320731 -0.10452774 0.011057699 -0.034411978 -0.107958615 0.054983463 0.019116314
-0.068365075 -0.03090599 -0.051862426 -0.034003038 0.10496439 0.10332663 0.053031422 0.07978184
0.020383477 0.043185603 0.15892242 0.015988212 0.06347185 0.122414 0.026114853 -0.0046642562
