data/RNN_runs/sweep_H2/rnn_sto3g_H2_0-7348_eq1_nU50_nL2_lr00025_lrsC_ns1000.pt (torch_old, 154322 bytes, 13 tensors)

weight_ih f4 [150, 2]
-0.054109737 0.09963718 -0.25071922 0.22530079 0.06495716 0.095733546 0.08673605 -0.24655981
0.10495263 0.030758582 -0.23568596 0.27099124 -0.4187767 0.17154215 0.15671569 -0.018595356
0.046804298 0.033809114 -0.14457512 0.18126677 0.21833627 0.03491917 -0.10228117 0.33602613
-0.25319138 0.3726589 -0.27298355 0.40460914 -0.043060854 0.16528356 -0.10194813 0.36317655
-0.14584987 0.3505126 0.29418215 -0.20989102 -0.33950472 0.23690957 0.14390463 -0.080301724
0.12750402 -0.05893109 -0.20409836 0.30067202 0.1807908 0.04429218 0.16851023 0.01140803
0.22718053 0.1559034 0.14892961 0.13817126 0.2984249 -0.13855396 -0.48942718 -0.012796152
-0.033823304 0.22488056 0.21055613 -0.16324887 0.17139955 0.1365845 0.05004542 -0.13086934
0.14713109 -0.025967266 0.14570114 -0.076987915 -0.19512963 0.16927435 -0.09153358 0.39059615
0.10086035 -0.12342463 -0.14339793 0.32307574 0.20359364 -0.20640317 -0.17247571 0.403959
0.14925009 0.03343421 -0.17549416 0.36031175 -0.20844065 0.20947742 0.13200057 0.08699763
0.3296325 0.027477585 -0.30738607 0.41807288 -0.1254807 0.39190492 0.12264414 -0.1382759
-0.25973994 0.26322553 0.32206693 -0.09029962 0.11405067 -0.18413419 -0.23239988 -0.26816744
-0.25146812 -0.023329472 -0.25195664 0.020120835 -0.17249814 0.021537473 0.30542257 -0.21856359
0.460272 -0.15780245 -0.28698832 -0.000440711 -0.3132669 0.07860533 0.11656784 0.007625588
-0.16799507 -0.004878175 0.25664297 -0.2532337 -0.010625163 -0.23595616 0.4086101 -0.21390426
-0.064282134 -0.04702035 0.48365915 -0.10599518 -0.19515349 -0.26679853 -0.26795992 -0.2300012
0.44775546 -0.19480444 -0.35843608 0.012012522 -0.14662734 -0.09215274 0.10720788 -0.041341037
-0.15505362 -0.07149513 -0.29539642 0.080000095 -0.21927431 -0.21110766 -0.4099965 -0.2672845
-0.3511074 0.024121165 0.3354885 -0.06650235 -0.41030774 -0.1654718 -0.33384603 0.07929036
-0.1400315 0.15918308 -0.40407097 0.18698579 -0.09797785 0.13373856 -0.23427044 0.1471036
-0.15902731 0.023747664 0.31234688 -0.28159997 -0.27043015 0.054692823 0.29003945 -0.19859296
-0.33028784 -0.09016661 0.5705053 -0.11478039 -0.33247524 -0.12577324 -0.24477293 -0.2911723
0.14261259 -0.17687088 -0.34251535 0.11607044 -0.1435238 -0.12193243 -0.34261188 -0.30830145
-0.21828352 -0.064527795 -0.37244764 -0.081932865 0.21687183 -0.2169811 -0.19939904 0.17794254
0.0110833645 -0.06605454 0.20136805 -0.2896601 -0.24825053 -0.01739586 0.19791469 -0.23850341
-0.15872417 0.09309922 -0.17315114 0.17319046 0.35807186 -0.22935307 0.21039526 0.0135608995
0.18674627 -0.13068137 -0.114647046 0.11116843 -0.18547797 -0.17592467 -0.13439903 0.10995208
0.2536995 -0.353437 0.10771953 -0.31030267 0.20254505 -0.200791 -0.23523392 0.18186677
-0.29046163 0.26339126 0.1558474 -0.31774953 0.22480218 -0.18719359 -0.32039222 0.19521278
0.17899583 0.03207987 0.07619814 -0.10267312 0.24095657 0.13463506 -0.24709053 -0.025017638
0.16339895 0.16660471 0.29529586 -0.35028955 0.33246332 -0.32922333 -0.3560193 0.18892905
00000000: 2ca2 5dbd 940e cc3d 455e 80be 40b5 663e
00000010: 4208 853d f30f c43d aca2 b13d 2d7a 7cbe
00000020: 68f1 d63d 6cf9 fb3c a957 71be 5dbf 8a3e
00000030: e669 d6be bfa8 2f3e 147a 203e 4a55 98bc
00000040: ddb5 3f3d 6d7b 0a3d 800b 14be ff9d 393e
00000050: 8b93 5f3e 6707 0f3d ca78 d1bd 9e0b ac3e
00000060: 4da2 81be 26cd be3e 80c4 8bbe ee28 cf3e
00000070: 9460 30bd 1840 293e 2eca d0bd 47f2 b93e
00000080: ab59 15be 6376 b33e 0b9f 963e aced 56be
00000090: 90d3 adbe 6c98 723e bc5b 133e 3b75 a4bd
000000a0: 6a90 023e ba61 71bd 29ff 50be aff1 993e
000000b0: 3921 393e b86b 353d f28d 2c3e bfe8 3a3c
000000c0: 03a2 683e 24a5 1f3e 0181 183e c47c 0d3e
000000d0: 26cb 983e 17e1 0dbe 3396 fabe f4a6 51bc
000000e0: 4e8a 0abd 1747 663e 079c 573e b62a 27be
000000f0: 5d83 2f3e cfdc 0b3e 6dfc 4c3d 9d02 06be
00000100: 88a9 163e 4eb9 d4bc ae32 153e d7ab 9dbd
00000110: 10d0 47be 4156 2d3e f575 bbbd 38fc c73e
00000120: df8f ce3d 0dc6 fcbd e8d6 12be 2f6a a53e
00000130: da7a 503e 5a5b 53be 799d 30be b7d3 ce3e
00000140: 04d5 183e 4ff2 083d beb4 33be c87a b83e
00000150: 7771 55be 4081 563e 282b 073e d02b b23d
00000160: 97c5 a83e ac18 e13c b561 9dbe a60d d63e
00000170: 037e 00be c3a7 c83e da2c fb3d 3398 0dbe
00000180: a2fc 84be 7fc5 863e f5e5 a43e 02ef b8bd
00000190: 6693 e93d ac8d 3cbe 3cfa 6dbe 3e4d 89be
000001a0: 6ec0 80be 731d bfbc 7600 81be 73d4 a43c
000001b0: 5aa3 30be 5b6f b03c 5960 9c3e 22cf 5fbe
000001c0: c6a8 eb3e f796 21be 22f0 92be 3b0f e7b9
000001d0: 8564 a0be d5fb a03d 1fbb ee3d 12e0 f93b
000001e0: e606 2cbe 19d9 9fbb b566 833e d9a7 81be
000001f0: 2a15 2ebc 7e9e 71be 5835 d13e b809 5bbe
00000200: 5aa6 83bd 6998 40bd 2ca2 f73e 0014 d9bd
00000210: 51d6 47be d199 88be 0b32 89be 6f85 6bbe
00000220: 3440 e53e d17a 47be ef84 b7be 2bd0 443c
00000230: 7a25 16be 93ba bcbd ce8f db3d 3855 29bd
00000240: 60c6 1ebe 0a6c 92bd 333e 97be 17d7 a33d
00000250: 7289 60be 9b2c 58be 10eb d1be 84d9 88be
00000260: 59c4 b3be c099 c53c 26c5 ab3e 6232 88bd
00000270: db13 d2be 7171 29be deed aabe fc62 a23d
00000280: 6b64 0fbe e400 233e 64e2 cebe 3479 3f3e
00000290: 9ca8 c8bd c3f2 083e 97e4 6fbe 53a2 163e
000002a0: 0ed8 22be 768a c23c eeeb 9f3e df2d 90be
000002b0: d275 8abe 9505 603d 0d80 943e f45b 4bbe
000002c0: 7d1b a9be 46a9 b8bd a30c 123f fb11 ebbd
000002d0: 323a aabe b3ca 00be c1a5 7abe 8914 95be
000002e0: 0909 123e a41d 35be 2c5e afbe 57b6 ed3d
000002f0: e7f7 12be b6b7 f9bd d36a afbe b0d9 9dbe
00000300: b785 5fbe 2627 84bd 75b1 bebe 6bcc a7bd
00000310: a613 5e3e 4b30 5ebe 432f 4cbe 9236 363e
00000320: 0097 353c 9a47 87bd 6d33 4e3e 544e 94be
00000330: 6335 7ebe c381 8ebc 26aa 4a3e 3d3a 74be
00000340: 9788 22be ceaa be3d 884e 31be d758 313e
00000350: 3255 b73e 88db 6abe db71 573e 892e 5e3c
00000360: 6a3a 3f3e 56d1 05be 12cc eabd 46ac e33d
00000370: f0ed 3dbe 9925 34be e69f 09be 8e2e e13d
00000380: e7e4 813e b2f5 b4be 0f9c dc3d fedf 9ebe
00000390: f867 4f3e 289c 4dbe 29e1 70be 483b 3a3e
000003a0: 63b7 94be 38db 863e 7696 1f3e 11b0 a2be
000003b0: 8b32 663e adaf 3fbe 730a a4be dce5 473e
000003c0: af4a 373e 2f66 033d c50d 9c3d 4946 d2bd
000003d0: 52bd 763e c6dd 093e 4d05 7dbe caf1 ccbc
000003e0: 0e52 273e 6d9a 2a3e 0531 973e 2759 b3be
000003f0: a238 aa3e f68f a8be 2948 b6be 9e76 413e

weight_hh f4 [150, 50]
-0.10549732 -0.040593743 0.024711527 -0.04780841 -0.1619575 0.14171073 -0.10089151 -0.01290213
0.004241242 0.15401062 -0.106459215 0.13076445 -0.17579216 0.045828197 -0.1589356 0.11834917
0.020820692 -0.0669698 -0.02866974 -0.09201122 0.009257136 -0.1460163 0.21152453 -0.011661353
0.18171784 -0.196174 0.14723904 0.12201096 -0.16886543 0.10200724 -0.07979512 -0.17780423
-0.1610752 0.22489946 0.022526301 0.08866138 0.021547396 -0.17736821 0.031206584 -0.036055442
-0.11111353 -0.00885562 0.025356347 -0.061557945 -0.038199667 -0.035796154 -0.15278082 0.08177046
0.02872879 0.08049211 0.09427891 -0.017688794 0.08002935 -0.018011156 -0.0989851 0.07404333
-0.054594792 0.1416502 0.14256899 -0.014121576 0.08552548 0.09035625 -0.029867262 0.016116237
0.022543471 0.103674695 0.04081534 0.21748106 0.10675918 -0.2871693 0.12895575 -0.051513772
0.14700483 0.03804827 -0.07142571 0.013248467 0.19506265 0.012382514 -0.058547474 0.034543898
0.013949672 -0.064958856 0.009515114 0.08885389 -0.048262857 0.068440996 -0.049748775 -0.06240548
-0.02290735 0.0540827 0.14371619 0.0114444485 -0.089888014 0.046877947 0.06142259 -0.054979708
-0.09855992 -0.0510394 -0.09540188 0.0022554165 0.049466696 -0.17884 -0.18936154 -0.026573159
-0.1600117 0.08610651 0.07000157 -0.012554811 0.12483354 0.18727586 0.043031357 0.11130522
-0.14797579 0.06338688 -0.16442285 -0.017883113 0.012922874 -0.040460873 -0.038708787 0.10893633
0.16964872 -0.020497316 0.114225075 -0.16911672 -0.05878031 -0.2899518 0.0012293743 0.19422919
-0.14700978 0.12564601 -0.16381308 -0.038327213 -0.027908808 0.0014094425 -0.087612964 0.13344835
0.055114895 -0.08839157 0.052879456 -0.17727447 -0.029707408 0.037826132 -0.00814849 -0.17304373
0.077318765 -0.18787274 -0.02350624 -0.10929778 -0.17513943 0.04036525 -0.013739369 -0.12400237
0.05834725 0.07925504 0.02026282 0.082940035 -0.049594566 0.16194117 -0.107829824 0.14688067
0.09622239 -0.10718545 -0.009210933 -0.11187746 0.15595515 -0.0341723 0.06985411 0.12846813
-0.13354097 0.095824964 -0.12536769 -0.03096954 0.040477045 -0.15939265 -0.13953759 -0.15344082
-0.13488121 -0.049458373 -0.06016022 0.11414521 -0.036174465 -0.130002 -0.19814642 0.13059132
-0.16981801 -0.07257882 -0.11304168 0.07042117 0.09654695 0.035522036 -0.064239904 -0.039300546
-0.022377485 0.13212822 0.046874233 -0.048514325 0.0067838617 -0.096984394 0.016586456 0.12992465
-0.09323756 -0.041101895 -0.048835628 0.014140995 -0.14981063 -0.06628252 -0.15739529 0.12519784
0.20379685 0.19816764 -0.01084318 0.029548777 -0.02450459 -0.20042703 -0.024852414 -0.016148992
0.031121703 0.09137926 -0.11505387 -0.21223314 0.058346868 -0.079417415 0.023106307 -0.1035103
-0.03230649 0.073430404 0.01857432 -0.007115172 0.045019522 0.08432101 0.024697622 0.039174575
0.038581032 0.027599538 0.0031592299 -0.03917892 0.18677352 -0.007523275 -0.06804209 -0.0010025534
0.09503426 0.010577839 0.105855286 0.26207754 0.080997236 -0.04011223 -0.011109396 -0.21161605
0.011135217 0.055969194 -0.07796888 -0.04483981 0.0480672 0.042193998 -0.21225493 0.1661126
00000000: fb0e d8bd a045 26bd d46f ca3c c0d2 43bd
00000010: 30d8 25be 9e1c 113e 35a0 cebd 7563 53bc
00000020: 1efa 8a3b f6b4 1d3e 4a07 dabd 1ee7 053e
00000030: dc02 34be 59b6 3b3d 04c0 22be 0d61 f23d
00000040: 2890 aa3c 7627 89bd cddc eabc 6170 bcbd
00000050: 3eab 173c 4c85 15be e399 583e 420f 3fbc
00000060: 3e14 3a3e d6e1 48be d5c5 163e e2e0 f93d
00000070: 0feb 2cbe 2ce9 d03d a06b a3bd 5012 36be
00000080: e6f0 24be 0b4c 663e 1489 b83c 1994 b53d
00000090: 2a84 b03c 03a0 35be f3a4 ff3c dfae 13bd
000000a0: 7e8f e3bd 2a17 11bc 1db8 cf3c 2f24 7cbd
000000b0: 4177 1cbd fd9e 12bd 9372 1cbe 4577 a73d
000000c0: a458 eb3c 0cd9 a43d 4d15 c13d 17e8 90bc
000000d0: 6ee6 a33d 228c 93bc b3b8 cabd 08a4 973d
000000e0: ca9e 5fbd c00c 113e 9bfd 113e 2f5e 67bc
000000f0: fc27 af3d b30c b93d 30ac f4bc 3306 843c
00000100: 16ad b83c 6653 d43d fc2d 273d 5bb3 5e3e
00000110: 8fa4 da3d db07 93be fa0c 043e 1b00 53bd
00000120: 6f88 163e 81d8 1b3d a547 92bd 1910 593c
00000130: 81be 473e 07e0 4a3c 7acf 6fbd e77d 0d3d
00000140: 2a8d 643c 2609 85bd 48e5 1b3c 07f9 b53d
00000150: 46af 45bd cb2a 8c3d 5fc5 4bbd e39c 7fbd
00000160: 32a8 bbbc d285 5d3d 562a 133e 7f81 3b3c
00000170: 3517 b8bd 1703 403d 4196 7b3d 6732 61bd
00000180: c9d9 c9bd b10e 51bd 1062 c3bd 9ccf 133b
00000190: 979d 4a3d d521 37be fee7 41be f4af d9bc
000001a0: 1bda 23be 9c58 b03d fc5c 8f3d b2b2 4dbc
000001b0: baa8 ff3d 3ec5 3f3e a641 303d fef3 e33d
000001c0: f786 17be fbd0 813d 775e 28be 9b7f 92bc
000001d0: 76ba 533c 4dba 25bd 1b8d 1ebd 031a df3d
000001e0: 65b8 2d3e fde9 a7bc d6ee e93d ef2c 2dbe
000001f0: 9fc3 70bd 9074 94be f522 a13a 04e4 463e
00000200: bb89 16be 59a9 003e 9ebe 27be fffc 1cbd
00000210: 03a1 e4bc 0bbd b83a 6d6e b3bd afa6 083e
00000220: 28c0 613d a406 b5bd 2198 583d 7087 35be
00000230: f35c f3bc 93ef 1a3d 3f81 05bc 6032 31be
00000240: 4d59 9e3d b661 40be 2990 c0bc 84d7 dfbd
00000250: c057 33be 0856 253d 171b 61bc f4f4 fdbd
00000260: 87fd 6e3d 7750 a23d 37fe a53c 77dc a93d
00000270: ac23 4bbd e8d3 253e e2d5 dcbd e367 163e
00000280: 3f10 c53d 0c84 dbbd 74e9 16bc 0220 e5bd
00000290: b5b2 1f3e 41f8 0bbd ac0f 8f3d 268d 033e
000002a0: f7be 08be e13f c43d 6360 00be d5b3 fdbc
000002b0: 42cb 253d d437 23be f1e2 0ebe 971f 1dbe
000002c0: 4d1e 0abe dd94 4abd 906a 76bd f7c4 e93d
000002d0: ad2b 14bd 3f1f 05be e5e6 4abe bbb9 053e
000002e0: c6e4 2dbe 34a4 94bd 6582 e7bd f938 903d
000002f0: 68ba c53d 8e7f 113d 3690 83bd 9cf9 20bd
00000300: fd50 b7bc 9f4c 073e 32ff 3f3d f5b6 46bd
00000310: 284b de3b c19f c6bd 52e0 873c f80a 053e
00000320: 55f3 bebd 765a 28bd de07 48bd a2af 673c
00000330: f567 19be 21bf 87bd 3b2c 21be dd33 003e
00000340: 1fb0 503e 75ec 4a3e 98a7 31bc 4710 f23c
00000350: dabd c8bc be3c 4dbe 4a97 cbbc e44a 84bc
00000360: f1f2 fe3c 0d25 bb3d 5da1 ebbd a553 59be
00000370: 20fd 6e3d 99a5 a2bd 7049 bd3c 35fd d3bd
00000380: cf53 04bd ae62 963d 2c29 983c 6426 e9bb
00000390: 6466 383d 7eb0 ac3d ab52 ca3c 8575 203d
000003a0: 2507 1e3d 6d18 e23c 150b 4f3b 137a 20bd
000003b0: 8f41 3f3e ce85 f6bb a759 8bbd 1c68 83ba
000003c0: 52a1 c23d ac4e 2d3c a8ca d83d 072f 863e
000003d0: e1e1 a53d b94c 24bd 2f04 36bc e1b1 58be
000003e0: 7c70 363c f43f 653d 26ae 9fbd f3a9 37bd
000003f0: 1de2 443d 9dd3 2c3d 5b59 59be 6c19 2a3e

bias_ih f4 [150]
0.011733442 -0.08998972 0.03324455 -0.07204447 0.0766577 -0.08626849 -0.0663786 0.07083611
0.052846726 -0.01124135 -0.02743461 0.15875453 -0.057274844 0.01284604 0.08853684 0.27978262
-0.06484249 -0.0065284525 -0.022141354 0.008055036 0.07356842 0.0916794 0.17503798 0.029250465
0.06470703 -0.068632185 0.10632217 0.05699255 0.06787811 0.097109824 0.06088861 0.027140858
0.07076681 -0.10104134 0.19578032 0.071198426 0.06549035 0.11627437 -0.023697568 0.086793244
-0.12432023 0.07342527 0.0091182785 0.01564512 0.07278894 0.06105605 -0.065855406 0.09494681
0.2105422 0.026480015 -0.020662334 -0.20516083 -0.010307702 -0.11028868 -0.2626764 -0.21529302
-0.16595866 -0.1720916 0.044300545 -0.040671743 -0.19284011 0.012385931 -0.21351817 -0.10384187
-0.15723698 -0.14849542 -0.16624302 -0.25141293 -0.122494966 -0.26869747 -0.13768642 -0.24356644
-0.04075995 -0.026011046 -0.0029298172 -0.43221283 -0.24460182 -0.20954758 -0.34684038 -0.0713377
-0.0707755 -0.28646126 -0.058516826 -0.14744844 -0.181247 -0.08830859 -0.16837594 -0.16182233
-0.13509989 -0.22313392 -0.29182371 -0.27312592 -0.23356013 -0.107904986 -0.02780282 -0.120545596
-0.209171 -0.29804882 -0.18005796 -0.2653358 -0.18366633 -0.11110748 -0.18719134 -0.2796021
-0.13128246 0.19305217 -0.12769146 0.14663306 0.064260684 0.2079611 0.009637279 0.18649718
-0.042716656 -0.012662231 -0.08181465 0.2585878 0.12903348 -0.05828655 0.004952354 0.022655867
0.18964931 -0.11751332 -0.01642421 -0.095544994 0.19992158 -0.061851017 -0.05396792 0.116509974
-0.018373327 0.017492848 -0.20460683 -0.20326671 -0.11780679 0.1711241 -0.007046006 0.122788526
0.16863517 -0.03546357 -0.19591135 -0.16046059 -0.1456351 -0.10195363 0.19032033 0.019815298
0.21229532 -0.19692457 -0.048708215 -0.032414574 -0.18740688 0.008815221
00000000: 9f3d 403c 884c b8bd 702b 083d 0d8c 93bd
00000010: b6fe 9c3d 89ad b0bd 81f1 87bd 8612 913d
00000020: cf75 583d a42d 38bc 8cbe e0bc 8c90 223e
00000030: 0799 6abd 3278 523c ce52 b53d ab3f 8f3e
00000040: 24cc 84bd a1ec d5bb c961 b5bc 45f9 033c
00000050: 0aab 963d 69c2 bb3d 283d 333e ac9e ef3c
00000060: 1f85 843d 088f 8cbd 70bf d93d 0571 693d
00000070: ae03 8b3d 84e1 c63d 5666 793d 8156 de3c
00000080: 30ee 903d c3ee cebd a37a 483e 7bd0 913d
00000090: ce1f 863d 4221 ee3d 6721 c2bc a8c0 b13d
000000a0: 9b9b febd fd5f 963d d564 153c 322a 803c
000000b0: 5e12 953d e915 7a3d 33df 86bd 7973 c23d
000000c0: 6098 573e 9eec d83c 0e44 a9bc ae15 52be
000000d0: a3e1 28bc 08df e1bd 857d 86be c675 5cbe
000000e0: 11f1 29be c838 30be 7d74 353d 6a97 26bd
000000f0: e177 45be 5cee 4a3c 82a4 5abe 0cab d4bd
00000100: bb02 21be 2f0f 18be 9c3b 2abe 32b9 80be
00000110: a4de fabd b792 89be abfd 0cbe 7b69 79be
00000120: e8f3 26bd 1e15 d5bc 2d02 40bb 004b ddbe
00000130: e678 7abe a493 56be 1095 b1be 8019 92bd
00000140: bff2 90bd 0dab 92be 57af 6fbd b9fc 16be
00000150: d098 39be 22db b4bd be6a 2cbe c1b4 25be
00000160: a057 0abe 387d 64be eb69 95be 29d7 8bbe
00000170: 632a 6fbe 4afd dcbd bdc2 e3bc 9ce0 f6bd
00000180: ec30 56be db99 98be 1d61 38be 18da 87be
00000190: 0713 3cbe 528c e3bd 16af 3fbe 0228 8fbe
000001a0: e96e 06be 78af 453e 8dc1 02be fa26 163e
000001b0: 1b9b 833d c1f3 543e aee5 1d3c 1ef9 3e3e
000001c0: a9f7 2ebd 3f75 4fbc 708e a7bd 9f65 843e
000001d0: 5a21 043e e1bd 6ebd 5b47 a23b cc98 b93c
000001e0: 6e33 423e d3aa f0bd 118c 86bc 18ad c3bd
000001f0: 3eb8 4c3e 7e57 7dbd 770d 5dbd c89c ee3d
00000200: a983 96bc 294d 8f3c 7484 51be 2625 50be
00000210: b044 f1bd 283b 2f3e 2fe2 e6bb 8d78 fb3d
00000220: b3ae 2c3e 4042 11bd fc9c 48be c84f 24be
00000230: 5e21 15be 11cd d0bd 55e3 423e b153 a23c
00000240: f263 593e 98a6 49be 4482 47bd 25c5 04bd
00000250: 97e7 3fbe b76d 103c

bias_hh f4 [150]
0.15625541 0.021036787 0.1740903 -0.069310315 0.12579189 0.11818824 0.18659547 0.27140215
-0.032131046 0.0453006 0.09208524 0.00034400093 0.12844937 0.1744655 -0.055755 0.05825757
0.15669005 -0.23486602 0.18463343 0.10531636 -0.028987503 0.23428705 -0.025188629 -0.06295163
0.19105653 -0.12239717 0.11493699 0.004721843 0.030313628 0.022955157 0.030371126 0.08892578
0.08237938 -0.03990387 0.039418746 0.10554154 -0.025665238 0.05559313 0.16853708 0.082656816
-0.08124427 -0.06836378 0.06991041 0.10672849 0.19046538 0.05480056 0.14422408 -0.10416578
0.09829256 -0.07757812 -0.013059108 -0.2823147 -0.2391989 -0.21711245 -0.0070288656 -0.044431686
0.012373914 -0.13077053 0.012982387 -0.026437227 -0.19479226 -0.05083444 -0.24543037 -0.10795048
-0.2946988 -0.0049179466 -0.07044394 -0.10223169 -0.26931956 -0.29396427 -0.20623913 -0.05580813
-0.07672266 -0.2690938 -0.056391418 -0.30931142 -0.16880594 -0.03981094 -0.26518446 -0.11253811
-0.17439248 -0.29557154 -0.06873906 -0.15645583 -0.08013082 -0.2057757 -0.09435351 -0.012058591
-0.18268582 0.015251176 -0.17413504 -0.18496871 -0.010344739 -0.25810367 -0.24250163 -0.2512119
-0.35529095 -0.25168234 -0.121871166 -0.24456643 -0.18680288 0.019704347 -0.1188753 -0.081131995
-0.17278169 -0.010409027 -0.1836733 0.2794612 0.0059135063 0.10922629 -0.049788542 0.16930585
-0.13873626 0.0398986 -0.059312515 0.263978 0.21457227 0.00067156844 -0.12885246 -0.063408196
0.09394972 -0.17810887 -0.015199624 -0.067939594 0.15742712 -0.12359878 0.010043767 -0.089474514
-0.13282706 0.059105676 0.07252613 -0.18472165 -0.09828444 -0.044962782 -0.07181609 0.0004708721
0.14443353 -0.00615303 0.022034826 -0.15235008 -0.09647686 -0.0956599 0.16369107 -0.02719
0.10698715 -0.035738274 -0.13883896 -0.117015906 -0.18240778 0.09464253
00000000: 6b01 203e 5755 ac3c ba44 323e 91f2 8dbd
00000010: 97cf 003e ad0c f23d e212 3f3e 39f5 8a3e
00000020: d89b 03bd 1f8d 393d 3097 bc3d 065b b439
00000030: 3b88 033e 16a7 323e 5b5f 64bd 7d9f 6e3d
00000040: 5b73 203e b880 70be 8c10 3d3e 1bb0 d73d
00000050: 3377 edbc f2e8 6f3e 6258 cebc c9ec 80bd
00000060: 53a4 433e 5eab fabd 1664 eb3d b1b9 9a3b
00000070: 4954 f83c 740c bc3c decc f83c b81e b63d
00000080: 85b6 a83d 3e72 23bd 8d75 213d 2a26 d83d
00000090: e83f d2bc 9fb5 633d fc94 2c3e fa47 a93d
000000a0: 6563 a6bd 4f02 8cbd 302d 8f3d 7794 da3d
000000b0: 5b09 433e 8d76 603d 7aaf 133e de54 d5bd
000000c0: 9c4d c93d 47e1 9ebd def5 55bc 8d8b 90be
000000d0: 8ef0 74be ba52 5ebe 6652 e6bb 00fe 35bd
000000e0: f5bb 4a3c b6e8 05be 14b4 543c e292 d8bc
000000f0: 9f77 47be c637 50bd 1952 7bbe 2415 ddbd
00000100: c3e2 96be ba26 a1bb ea44 90bd d95e d1bd
00000110: 41e4 89be 7c82 96be 5a30 53be 1197 64bd
00000120: c520 9dbd aac6 89be b0fa 66bd 115e 9ebe
00000130: 77db 2cbe cc10 23bd 42c6 87be 617a e6bd
00000140: f193 32be 2755 97be 10c7 8cbd f535 20be
00000150: a11b a4bd ddb6 52be 6a3c c1bd 6591 45bc
00000160: fe11 3bbe 12e0 793c 7550 32be 7068 3dbe
00000170: fb7c 29bc 2a26 84be 5952 78be d99e 80be
00000180: b2e8 b5be 82dc 80be 9797 f9bd 9f6f 7abe
00000190: 4149 3fbe 036b a13c e574 f3bd 8828 a6bd
000001a0: afed 30be a08a 2abc db14 3cbe 8a15 8f3e
000001b0: 16c6 c13b 08b2 df3d 12ef 4bbd 835e 2d3e
000001c0: e110 0ebe b76c 233d aef1 72bd 2028 873e
000001d0: d5b8 5b3e 320c 303a e6f1 03be 28dc 81bd
000001e0: b668 c03d 2c62 36be d807 79bc ea23 8bbd
000001f0: 9334 213e 5b21 fdbd 9d8e 243c 6a3e b7bd
00000200: d103 08be cb18 723d 9488 943d ac27 3dbe
00000210: 5a49 c9bd e52a 38bd 5014 93bd 62df f639
00000220: 62e6 133e 5b9f c9bb 6182 b43c a901 1cbe
00000230: a995 c5bd 56e9 c3bd a29e 273e 90bd debc
00000240: 141c db3d 4c62 12bd cd2b 0ebe 09a6 efbd
00000250: 1bc9 3abe f1d3 c13d

weight_ih f4 [150, 50]
0.0042330483 0.08942565 -0.05734412 -0.0022590274 0.02225365 0.104764305 -0.012639417 0.14909203
0.16238502 0.083209656 -0.07953304 0.048904646 -0.010874734 -0.1047612 0.07445174 -0.02017704
-0.07206406 -0.011960079 -0.17990644 -0.04449307 0.06013252 -0.17773442 0.028620873 -0.20631877
0.15707178 -0.08152612 0.24541074 0.179031 0.109016106 0.22919084 0.0046599777 0.014044378
-0.17299637 0.03245801 -0.02653409 0.061208677 0.16840263 0.069492236 -0.10570014 0.06361071
-0.04800728 0.021623012 -0.035493813 0.16453142 -0.0006162962 -0.15065865 -0.057909038 -0.027524047
-0.024798095 0.23390858 0.08113997 0.020579759 0.07830788 0.006532118 -0.15508261 0.19389008
-0.13691436 0.11924894 0.025927497 0.1276525 0.0514276 -0.055516098 -0.13991039 0.03411044
-0.07548456 0.1751615 0.1574066 -0.030702544 -0.14971973 0.003456726 0.031725585 0.007923303
0.14464328 0.00013418875 -0.032576825 -0.1571179 -0.15871146 0.089557074 0.0050409646 0.18127322
-0.1662548 -0.09498241 -0.036192488 0.017275855 -0.10168916 0.0730861 0.012344598 -0.059904926
-0.09522969 -0.08458935 -0.035508983 0.03215963 0.025794286 0.04770864 0.06432661 -0.16049185
-0.11657951 0.07188952 0.047445714 0.04255679 0.008875169 0.010287817 0.03336864 0.10211597
0.10437153 0.082275435 -0.042842735 0.06496904 0.026994154 0.026577363 0.119232915 0.121954665
-0.11941582 -0.055079173 -0.17226337 -0.07842742 0.14372733 -0.26597932 -0.0480808 0.15416412
0.08671849 0.14405309 0.0995836 -0.03946927 0.02606601 -0.04555271 -0.1600072 0.059527785
-0.2506477 -0.011148442 -0.027546495 0.15092531 0.1513478 -0.06684756 -0.07997761 0.12781012
-0.035422053 -0.1541865 -0.02711216 -0.012214395 -0.27843168 -0.31400877 0.04775679 -0.20992486
-0.10896248 -0.023871 -0.19793141 0.2505552 -0.020533057 0.05569658 0.010805136 0.02987964
-0.06301057 -0.29338345 -0.054766804 -0.051439956 -0.111790195 0.0037659574 -0.04101484 0.012127515
0.02531389 -0.08477611 -0.22006199 -0.09936531 -0.075325675 0.035997152 -0.01593454 -0.23482868
0.039972715 0.02761273 -0.03983727 -0.05656534 0.08930971 0.05999117 -0.12267113 -0.14126325
-0.22426598 0.122493885 -0.084429555 -0.16401862 0.17123626 0.16061205 0.019338042 -0.18593563
-0.05769203 -0.00092676014 -0.10812666 -0.10247654 0.14704785 0.046864413 -0.15623134 -0.21742441
0.18648015 -0.07891855 -0.04716895 -0.01563902 -0.097987436 0.2133257 -0.11810059 -0.045893002
0.15424624 -0.11502155 0.124069825 -0.23307787 -0.054041 -0.1020966 -0.09111819 -0.15537812
-0.0085824635 -0.103283055 -0.059286773 -0.087338775 -0.008643886 -0.122527495 -0.06554851 0.009652018
0.1486643 -0.32568485 -0.18812004 0.016591223 -0.01857896 0.0036525563 -0.055974513 0.18019152
-0.039900128 -0.3338153 -0.1430784 0.11863468 -0.26289862 -0.06767331 0.032245666 0.24930283
0.06544637 0.04050812 -0.25271752 0.113605544 -0.182213 0.01943193 0.07706529 -0.15542
-0.17263754 -0.06985816 0.024523608 -0.13972345 -0.09372721 -0.10692638 -0.26641503 0.2011978
0.0077963783 -0.059967633 0.05791307 0.14135604 -0.090148725 0.31163892 -0.0750313 0.11682598
00000000: 62b5 8a3b cc24 b73d abe1 6abd 310c 14bb
00000010: 494d b63c ab8e d63d 8f15 4fbc 95ab 183e
00000020: 4248 263e d369 aa3d 38e2 a2bd 3d50 483d
00000030: f12b 32bc 0a8d d6bd 277a 983d 524a a5bc
00000040: 5296 93bd 35f4 43bc 6539 38be 5e3e 36bd
00000050: 844d 763d 0300 36be 5276 ea3c 3a45 53be
00000060: 6dd7 203e 2bf7 a6bd f44c 7b3e e753 373e
00000070: d643 df3d 01b1 6a3e bab2 983b 641a 663c
00000080: f625 31be b1f2 043d 055e d9bc f3b5 7a3d
00000090: bd71 2c3e f251 8e3d 5179 d8bd 5546 823d
000000a0: 48a3 44bd be22 b13c f661 11bd ed7a 283e
000000b0: f08e 21ba 4346 1abe 0732 6dbd 1c7a e1bc
000000c0: 6025 cbbc bb85 6f3e b62c a63d e296 a83c
000000d0: e25f a03d 610b d63b facd 1ebe 1f8b 463e
000000e0: 4733 0cbe ca38 f43d e765 d43c 56b7 023e
000000f0: bfa5 523d d964 63bd ab44 0fbe 64b7 0b3d
00000100: a697 9abd 895d 333e 322f 213e e783 fbbc
00000110: 2150 19be 3d8a 623b b0f2 013d bed0 013c
00000120: 5e1d 143e 05b5 0c39 476f 05bd 84e3 20be
00000130: 4285 22be b369 b73d ad2e a53b b09f 393e
00000140: b33e 2abe 2386 c2bd 933e 14bd 1886 8d3c
00000150: 6842 d0bd 2aae 953d ff40 4a3c de5e 75bd
00000160: c907 c3bd 2e3d adbd de71 11bd d1b9 033d
00000170: 8a4e d33c 236a 433d abbd 833d fa57 24be
00000180: 3dc1 eebd d03a 933d 7056 423d 0750 2e3d
00000190: 2869 113c 3b8e 283c 8ead 083d 2d22 d13d
000001a0: bec0 d53d 0680 a83d dd7b 2fbd 7d0e 853d
000001b0: d822 dd3c c5b8 d93c 6330 f43d 5ec3 f93d
000001c0: 4890 f4bd b39a 61bd cf65 30be 8e9e a0bd
000001d0: 422d 133e 712e 88be 5ff0 44bd 33dd 1d3e
000001e0: 7799 b13d a782 133e 7df2 cb3d 87aa 21bd
000001f0: 6388 d53c 7a95 3abd edd8 23be 68d3 733d
00000200: e554 80be f4a7 36bc 30a9 e1bc 2a8c 1a3e
00000210: ebfa 1a3e 60e7 88bd 4dcb a3bd a8e0 023e
00000220: b716 11bd 11e3 1dbe 521a debc e31e 48bc
00000230: 998e 8ebe c2c5 a0be a09c 433d 8bf6 56be
00000240: b927 dfbd 1e8d c3bc 88ae 4abe c548 803e
00000250: f134 a8bc 1922 643d 0608 313c 26c6 f43c
00000260: b00b 81bd 5b36 96be 2853 60bd b4b2 52bd
00000270: 42f2 e4bd 48ce 763b 2dff 27bd 7cb2 463c
00000280: 135f cf3c 199f adbd ee57 61be 0a80 cbbd
00000290: 5944 9abd c071 133d 2789 82bc ee76 70be
000002a0: 6eba 233d 1834 e23c 682c 23bd 0fb1 67bd
000002b0: 02e8 b63d 4db9 753d 003b fbbd 50a7 10be
000002c0: fba5 65be 13de fa3d 67e9 acbd 7ff4 27be
000002d0: 8f58 2f3e 7c77 243e d06a 9e3c e965 3ebe
000002e0: 7a4e 6cbd d2f1 72ba 8371 ddbd 38df d1bd
000002f0: b693 163e e6f4 3f3d 1cfb 1fbe 81a4 5ebe
00000300: a7f4 3e3e 0ca0 a1bd 3b34 41bd 671d 80bc
00000310: a3ad c8bd 0d72 5a3e b9de f1bd 4dfa 3bbd
00000320: baf2 1d3e 6b90 ebbd 5218 fe3d f7ab 6ebe
00000330: 185a 5dbd 0618 d1bd 2c9c babd 711b 1fbe
00000340: 769d 0cbc 1186 d3bd b0d6 72bd acde b2bd
00000350: 169f 0dbc b2ef fabd 4c3e 86bd 7f23 1e3c
00000360: 743b 183e 2ac0 a6be 8aa2 40be 51ea 873c
00000370: e732 98bc ba5f 6f3b 8845 65bd 2084 383e
00000380: 516e 23bd d7e9 aabe 2583 12be bdf6 f23d
00000390: a69a 86be 4e98 8abd 0814 043d 3e49 7f3e
000003a0: bf08 863d d8eb 253d 3164 81be 06aa e83d
000003b0: 0b96 3abe b62f 9f3c 68d4 9d3d 6c26 1fbe
000003c0: e5c7 30be cc11 8fbd bce5 c83c aa13 0fbe
000003d0: 0df4 bfbd 38fc dabd 8d67 88be cc06 4e3e
000003e0: c378 ff3b 9fa0 75bd 4136 6d3d a3bf 103e
000003f0: e59f b8bd 238f 9f3e 03aa 99bd 7642 ef3d

weight_hh f4 [150, 50]
-0.026136354 -0.159902 -0.2619511 0.002644963 0.009544168 0.13686706 -0.17648602 -0.20313719
0.07363374 -0.07012456 0.068633184 0.18808053 0.106061235 0.098374926 -0.18425106 0.24131064
0.047767412 0.037515584 -0.023453582 -0.12414175 0.13536401 0.23961635 0.085170485 0.0042414055
0.0929219 0.03367733 0.009199414 0.1311491 -0.21137479 0.23518457 0.24251832 -0.082671426
0.10426319 0.09962618 0.24463484 -0.06977315 0.18591626 -0.059213188 0.13956109 0.1162785
-0.19959667 0.12627529 0.105299376 0.21914648 -0.021381402 0.016195213 0.046429906 0.14415874
-0.0908214 0.24382868 -0.017140111 -0.09820244 -0.1594486 -0.005254691 0.036590237 0.07975049
-0.12981352 0.103395104 0.08394921 0.068063885 0.16637908 -0.07470848 0.058424294 -0.03623352
-0.03897341 -0.02501986 -0.022608416 -0.031777963 -0.00374786 0.0876393 0.16656353 0.18836626
-0.0023552624 -0.14537005 0.024681257 -0.059276998 0.18765946 -0.12357705 -0.060126815 0.039077614
0.024876155 -0.12596808 0.03163106 -0.040154383 0.12727252 0.078751825 0.21470423 0.024943007
0.100492276 0.0921981 0.08609562 -0.12029851 0.13529186 0.16230784 0.005552467 -0.18361628
0.13899063 0.00395929 0.02159671 -0.023380978 0.12085079 -0.14856687 -0.0074989814 0.031622007
0.109976135 -0.096508875 0.040802702 0.12595227 -0.059060358 -0.006567303 -0.020882918 -0.00350143
-0.02314261 0.09938853 -0.11433338 0.05415479 -0.047099404 0.12629898 -0.08156879 0.08677243
-0.03981148 -0.08913308 -0.018187126 0.09517926 -0.06441196 -0.081942424 0.06837104 0.02027335
-0.14911471 -0.11897048 -0.034939963 -0.057091977 0.1274135 -0.09422412 -0.16375397 -0.15114313
0.06443211 -0.106371194 -0.020099642 -0.051491413 0.12255762 -0.22420414 0.059120517 0.11150726
-0.057473753 0.078787155 0.018830718 0.13715133 -0.118910834 0.053921722 -0.15938851 0.10244749
0.019215222 -0.11018638 -0.03513465 0.04191529 0.09742305 0.14597094 0.11605353 0.061456103
-0.10131407 0.045542523 0.030259164 -0.0033390226 0.15006372 -0.086627334 -0.033201378 0.041009035
-0.007684371 0.13692513 -0.12112497 0.0034935984 -0.01626805 -0.059538316 0.036289576 -0.1137973
0.03158879 -0.023497764 -0.050414853 -0.11773053 -0.11175324 0.056063104 -0.032709446 0.012106156
-0.1761411 -0.1880619 -0.033102974 0.07791684 -0.00051582354 0.016382422 -0.10286706 0.030762363
0.046352085 -0.06963812 0.16240463 -0.07945118 -0.043101903 -0.1025271 0.06698687 -0.10131827
-0.06363501 0.1101125 0.050359953 0.09585559 0.08555855 0.032129012 0.034676008 0.14021762
-0.019994238 0.029926604 -0.07845893 -0.08519447 0.1935096 -0.1778133 0.14401057 0.09009232
-0.037000064 -0.14870408 -0.24210946 0.14986745 -0.0038529881 -0.18291225 -0.12289153 -0.061507415
-0.2058854 -0.06152419 0.032939326 -0.0020261516 0.19257987 0.0010401008 -0.0395 -0.018370353
-0.04911468 -0.077272974 -0.061565954 -0.09754895 -0.025682716 -0.030263819 -0.034851775 0.101584144
0.13494594 -0.0737479 -0.040987838 0.11978756 0.07235297 -0.024683872 -0.114626564 -0.038053002
0.16154198 -0.12452162 -0.08866527 0.093697414 -0.029828439 0.1177984 -0.061005093 0.117719226
00000000: e81b d6bc 5abd 23be 741e 86be 1e57 2d3b
00000010: 245f 1c3c e126 0c3e c0b8 34be 3203 50be
00000020: 49cd 963d 779d 8fbd 8e8f 8c3d 2f98 403e
00000030: a236 d93d cb78 c93d 4fac 3cbe 231a 773e
00000040: c3a7 433d f1a9 193d ba21 c0bc 083e febd
00000050: dd9c 0a3e fd5d 753e dd6d ae3d 7dfb 8a3b
00000060: d64d be3d 3df1 093d 24b9 163c f34b 063e
00000070: a272 58be 39d4 703e b956 783e a34f a9bd
00000080: f087 d53d d008 cc3d 8e81 7a3e 3ae5 8ebd
00000090: d560 3e3e 8789 72bd 1ae9 0e3e 6c23 ee3d
000000a0: 1263 4cbe 4f4e 013e 33a7 d73d ef67 603e
000000b0: 0d28 afbc d3ab 843c 492d 3e3d 599e 133e
000000c0: 9200 babd 3aae 793e 6b69 8cbc 5c1e c9bd
000000d0: 7e46 23be 8b2f acbb a5df 153d 3a54 a33d
000000e0: d6ed 04be d0c0 d33d 90ed ab3d 1465 8b3d
000000f0: 475f 2a3e c200 99bd 504e 6f3d 9969 14bd
00000100: 95a2 1fbd 73f6 ccbc 4935 b9bc 9c29 02bd
00000110: a89e 75bb 3c7c b33d a18f 2a3e 16e3 403e
00000120: bf5a 1abb e3db 14be 5930 ca3c 70cc 72bd
00000130: cd29 403e f715 fdbd 8947 76bd d90f 203d
00000140: 14c9 cb3c c7fd 00be 928f 013d ec78 24bd
00000150: ba53 023e a348 a13d 6ddb 5b3e 4755 cc3c
00000160: e5ce cd3d 5cd2 bc3d e752 b03d 115f f6bd
00000170: f389 0a3e 0734 263e 78f1 b53b e805 3cbe
00000180: 8f53 0e3e efbc 813b 95eb b03c 7789 bfbc
00000190: 9e80 f73d ea21 18be 04ba f5bb 1486 013d
000001a0: 2b3b e13d 72a6 c5bd bc20 273d a2f9 003e
000001b0: 46e9 71bd 8832 d7bb a712 abbc 3f78 65bb
000001c0: 9295 bdbc 378c cb3d 9e27 eabd 6ad1 5d3d
000001d0: 4eeb 40bd 8554 013e 8a0d a7bd beb5 b13d
000001e0: 5d11 23bd 678b b6bd 2bfd 94bc 58ed c23d
000001f0: 6bea 83bd 6ed1 a7bd 1e06 8c3d 4c14 a63c
00000200: 87b1 18be cca6 f3bd 351d 0fbd 47d9 69bd
00000210: af78 023e 93f8 c0bd 1faf 27be 44c5 1abe
00000220: fbf4 833d 24d9 d9bd 01a8 a4bc a9e8 52bd
00000230: 7dff fa3d c595 65be 5b28 723d eb5d e43d
00000240: 9969 6bbd 295b a13d e142 9a3c 6671 0c3e
00000250: 8687 f3bd 06dd 5c3d be36 23be fdcf d13d
00000260: 3e69 9d3c 66a9 e1bd 5ae9 0fbd 5eaf 2b3d
00000270: bc85 c73d 6879 153e 79ad ed3d 65b9 7b3d
00000280: c07d cfbd cc8a 3a3d 11e2 f73c 81d3 5abb
00000290: 4eaa 193e ac69 b1bd 2bfe 07bd 17f9 273d
000002a0: 2dcd fbbb 1a36 0c3e 5e10 f8bd dbf4 643b
000002b0: 9344 85bc 73de 73bd 61a4 143d 8f0e e9bd
000002c0: 3f63 013d 627e c0bc ce7f 4ebd b41c f1bd
000002d0: e2de e4bd 6da2 653d 57fa 05bd e658 463c
000002e0: 555e 34be 4c93 40be fc96 07bd dd92 9f3d
000002f0: 5538 07ba 6e34 863c f7ab d2bd 5a01 fc3c
00000300: afdb 3d3d 6e9e 8ebd 664d 263e 4db7 a2bd
00000310: 9f8b 30bd baf9 d1bd 6930 893d f47f cfbd
00000320: 1253 82bd aa82 e13d 3d46 4e3d f04f c43d
00000330: 5239 af3d b699 033d 6e08 0e3d 3595 0f3e
00000340: f5ca a3bc a328 f53c 13af a0bd 707a aebd
00000350: 6127 463e b114 36be 8277 133e 5382 b83d
00000360: 618d 17bd e245 18be 8beb 77be da76 193e
00000370: 6a82 7cbb 594d 3bbe 8eae fbbd 33ef 7bbd
00000380: 9fd3 52be ca00 7cbd 63eb 063d 2fc9 04bb
00000390: a833 453e fe53 883a c1ca 21bd 6c7d 96bc
000003a0: 7a2c 49bd 4b41 9ebd 952c 7cbd bec7 c7bd
000003b0: 8f64 d2bc d4eb f7bc bcc0 0ebd 590b d03d
000003c0: 452f 0a3e 2409 97bd dde2 27bd 2e53 f53d
000003d0: cb2d 943d d535 cabc 55c1 eabd 77dd 1bbd
000003e0: 436b 253e 3105 ffbd 2396 b5bd 6ee4 bf3d
000003f0: c55a f4bc 4a40 f13d 7ae0 79bd c716 f13d

bias_ih f4 [150]
0.050724916 0.16751158 0.03526072 0.12906173 -0.118640214 -0.14187045 0.089868166 0.069798306
0.03739947 0.0283505 -0.058575485 -5.3068008e-05 0.09022972 0.0800746 0.09030697 0.1027205
0.25049734 -0.122861706 0.12310146 -0.16244683 0.17192017 -0.06172997 0.03266413 0.13015962
-0.1377896 0.0773184 -0.16076195 -0.116950214 -0.09908739 0.10327586 -0.042634264 -0.012587636
-0.103728965 0.082430296 -0.044216614 -0.010555271 0.13209204 0.083531044 0.10275413 0.013202111
0.09646405 0.00035776405 0.050069764 0.07699817 -0.06678901 0.16092418 -0.045424905 -0.13103376
0.1443083 0.097653106 -0.12146417 -0.066712976 -0.22616069 -0.17716356 -0.21682721 -0.13974535
-0.04911471 -0.30725127 -0.082109265 -0.11325731 -0.26120755 -0.02556637 -0.1250205 -0.15360104
-0.1317565 -0.075722836 -0.06741742 -0.28634495 -0.35027483 -0.16049072 -0.16501378 -0.13822013
-0.35877296 -0.21661893 -0.19707799 -0.15165246 -0.34777635 -0.0662121 -0.3305079 -0.45871854
-0.08433099 -0.27923948 -0.31268957 -0.0041793687 -0.2827868 -0.34605783 -0.32106826 -0.08650945
-0.09431307 -0.17288466 -0.35703498 -0.44194913 -0.3693692 -0.10711957 -0.21310468 0.07968949
-0.23085819 -0.31034717 -0.062338233 -0.27884978 -0.19591245 -0.15017246 -0.07403091 0.06508978
-0.09343565 0.1748553 -0.17227057 -0.22990711 0.06156986 0.09002631 0.019229593 0.0730071
-0.0044452874 0.12972246 0.08686684 0.0436276 -0.041757233 0.01794147 0.024770565 -0.21157119
-0.13191882 0.092662975 -0.084619604 -0.1829775 0.09913474 -0.056865413 0.18748936 -0.02480461
0.100870624 0.060711544 0.014451188 -0.06491307 0.19239824 0.05871133 -0.06543897 0.20946385
-0.033611313 0.082922556 -0.07529656 0.17308536 -0.2652828 0.20935494 0.043577213 -0.027482545
0.09497341 -0.02769119 0.11024716 0.12439245 -0.007286806 -0.025787286
00000000: eec4 4f3d 2888 2b3e 8b6d 103d c228 043e
00000010: a4f9 f2bd 7d46 11be cd0c b83d 6af2 8e3d
00000020: 3030 193d 4f3f e83c d9ec 6fbd 5795 5eb8
00000030: 5cca b83d 27fe a33d dcf2 b83d 205f d23d
00000040: 3041 803e eb9e fbbd 9e1c fc3d 7658 26be
00000050: d70b 303e 91d8 7cbd d3ca 053d 9048 053e
00000060: b818 0dbe 1c59 9e3d c89e 24be 9883 efbd
00000070: 54ee cabd 4b82 d33d 44a1 2ebd 5f3c 4ebc
00000080: da6f d4bd 37d1 a83d 7b1c 35bd 04f0 2cbc
00000090: 2343 073e 5312 ab3d c270 d23d ab4d 583c
000000a0: f28e c53d 4792 bb39 f415 4d3d 37b1 9d3d
000000b0: adc8 88bd 4fc9 243e 770f 3abd b72d 06be
000000c0: 8ec5 133e 5afe c73d 35c2 f8bd d0a0 88bd
000000d0: ab96 67be 5d6a 35be f407 5ebe 6819 0fbe
000000e0: 822c 49bd 0a50 9dbe e728 a8bd 73f3 e7bd
000000f0: ffbc 85be 9070 d1bc 6005 00be 9749 1dbe
00000100: 2deb 06be 9314 9bbd 2512 8abd ce9b 92be
00000110: 3957 b3be ae57 24be 5ff9 28be 9489 0dbe
00000120: 17b1 b7be 5ad1 5dbe d0ce 49be c84a 1bbe
00000130: be0f b2be 369a 87bd 5538 a9be 28dd eabe
00000140: bab5 acbd 7af8 8ebe d918 a0be 16f3 88bb
00000150: 6ec9 90be 7e2e b1be 0f63 a4be de2b b1bd
00000160: 3627 c1bd ad08 31be 4acd b6be 2847 e2be
00000170: f61d bdbe 8161 dbbd 1d38 5abe 3e34 a33d
00000180: 1766 6cbe d3e5 9ebe 6056 7fbd 66c5 8ebe
00000190: 469d 48be cfc6 19be 859d 97bd ca4d 853d
000001a0: 315b bfbd 450d 333e b267 30be c56c 6bbe
000001b0: ad30 7c3d b75f b83d 6187 9d3c bf84 953d
000001c0: c6a9 91bb f7d5 043e 3ee7 b13d dbb2 323d
000001d0: a209 2bbd fdf9 923c a4eb ca3c 1ea6 58be
000001e0: ba15 07be 16c6 bd3d 0b4d adbd 745e 3bbe
000001f0: 2807 cb3d b5eb 68bd 36fd 3f3e 0a33 cbbc
00000200: 4295 ce3d abac 783d adc4 6c3c 25f1 84bd
00000210: 0b04 453e 4b7b 703d de04 86bd b17d 563e
00000220: 04ac 09bd 4dd3 a93d 1535 9abd 4a3d 313e
00000230: 26d3 87be 2461 563e 057e 323d 1323 e1bc
00000240: 6b81 c23d a2d8 e2bc 43c9 e13d 78c1 fe3d
00000250: 29c6 eebb dc3f d3bc

bias_hh f4 [150]
-0.109087124 0.053065438 0.11932006 0.082510605 0.040023312 -0.10815431 -0.13231248 -0.019848421
-0.027645517 0.13140944 -0.014607248 0.05362553 0.116734594 -0.08602883 0.07861179 -0.09491546
0.21623477 -0.03899942 0.009960045 -0.035420865 -0.027962329 0.02202211 -0.07962528 0.23890892
-0.06794288 0.094823174 -0.13704595 -0.05092727 -0.014722138 0.023576796 -0.10030542 0.06696326
0.013435475 0.20410654 0.10813613 0.18809272 0.10414055 -0.07288068 0.13103244 0.11721543
0.07027029 0.105186954 0.030734789 0.00079762505 0.04534401 0.047689423 -0.113421686 0.010368913
0.08998567 -0.13866267 -0.06381166 0.038361534 -0.37942457 -0.32401863 -0.08195613 0.0012702524
-0.15926239 -0.36353415 -0.2399069 -0.26722506 -0.24421942 0.037787426 -0.3530361 -0.22120543
-0.24868065 -0.24041781 -0.191001 -0.14972563 -0.3521251 -0.16668919 -0.0677047 -0.25263214
-0.24890658 -0.2886557 -0.31413463 -0.13697661 -0.28516892 -0.053368997 -0.2096397 -0.2612045
-0.2274847 -0.16412981 -0.27149087 0.03017618 -0.37253213 -0.2461846 -0.14620951 -0.11958164
-0.28730905 -0.061429568 -0.38576138 -0.32191098 -0.3887692 -0.13757229 -0.08826599 -0.18230991
-0.36829257 -0.18289623 -0.054909322 -0.11763173 0.06834071 -0.11452789 -0.09121019 0.1882978
-0.21852918 0.049171414 0.0123487795 -0.04909751 0.014627023 0.15005873 0.13591191 0.016022602
-0.26382965 0.1933628 0.0051950277 -0.047220487 -0.13243257 0.06716018 -0.05919981 -0.09512571
-0.005924769 0.07319792 -0.13562573 -0.18387243 -0.08266536 0.05885593 -0.062341306 -0.0020164049
-0.11607428 -0.07089881 -0.03676243 -0.21120276 0.20559505 -0.101259574 0.20368584 0.03525808
0.16553646 0.07219213 0.08887878 0.18511422 -0.16139565 0.17787877 0.012690181 0.062354468
0.054074775 0.0914366 0.028118463 -0.0658866 -0.034993947 0.08678308
00000000: 1269 dfbd 255b 593d 135e f43d 52fb a83d
00000010: 7cef 233d 0280 ddbd ec7c 07be 2899 a2bc
00000020: da78 e2bc 3290 063e 3d53 6fbc 72a6 5b3d
00000030: 8c12 ef3d e22f b0bd 38ff a03d 0963 c2bd
00000040: a66c 5d3e dbbd 1fbd 752f 233c 7815 11bd
00000050: 4111 e5bc b667 b43c 9412 a3bd 8aa4 743e
00000060: a325 8bbd a732 c23d c655 0cbe 1d99 50bd
00000070: 1f35 71bc 2024 c13c ee6c cdbd 0924 893d
00000080: 7720 5c3c 4e01 513e 7a76 dd3d 619b 403e
00000090: a447 d53d 7742 95bd 5e2d 063e a50e f03d
000000a0: dfe9 8f3d 426c d73d 86c7 fb3c b617 513a
000000b0: a4ba 393d fc55 433d a149 e8bd 60e2 293c
000000c0: 684a b83d 96fd 0dbe b0af 82bd fc20 1d3d
000000d0: f043 c2be c5e5 a5be 9ed8 a7bd 997e a63a
000000e0: ae15 23be 2621 babe 28aa 75be b9d1 88be
000000f0: a814 7abe fdc6 1a3d 26c1 b4be ad83 62be
00000100: 24a6 7ebe 1630 76be c495 43be ad51 19be
00000110: be49 b4be 92b0 2abe c3a8 8abd 0059 81be
00000120: 5ee1 7ebe aeca 93be 41d6 a0be 9943 0cbe
00000130: a901 92be 7399 5abd caab 56be 99bc 85be
00000140: c0f1 68be a511 28be da00 8bbe 0934 f73c
00000150: 88bc bebe d117 7cbe f2b7 15be 38e7 f4bd
00000160: 2c1a 93be 929d 7bbd 8482 c5be 84d1 a4be
00000170: c20c c7be c0df 0cbe cdc4 b4bd 73af 3abe
00000180: d890 bcbe 2649 3bbe 99e8 60bd e8e8 f0bd
00000190: 37f6 8b3d 998d eabd 68cc babd 23d1 403e
000001a0: 1dc6 5fbe f767 493d 8952 4a3c 781a 49bd
000001b0: 2ea6 6f3c ffa8 193e 7e2c 0b3e d541 833c
000001c0: ae14 87be e600 463e 0d3b aa3b 456a 41bd
000001d0: 679c 07be 478b 893d 807b 72bd 45d1 c2bd
000001e0: 9124 c2bb cbe8 953d 79e1 0abe 0e49 3cbe
000001f0: 754c a9bd ea12 713d 9959 7fbd a925 04bb
00000200: 5ab8 edbd 6533 91bd 3494 16bd 8945 58be
00000210: 8287 523e 2e61 cfbd 0593 503e c76a 103d
00000220: 6482 293e 78d9 933d 1406 b63d 958e 3d3e
00000230: e744 25be da25 363e 7aea 4f3c 6667 7f3d
00000240: 837d 5d3d 1d43 bb3d b158 e63c 8eef 86bd
00000250: d055 0fbd 54bb b13d

weight f4 [2, 50]
0.10192645 -0.18668292 -0.32873565 0.21047278 -0.19633329 -0.09280947 -0.1334509 -0.2346157
0.19762035 -0.29623544 0.19647291 -0.063010894 -0.19355172 0.33003348 -0.23484042 0.24643807
-0.052057166 0.19801988 0.36495256 -0.18791673 -0.07231875 0.17142995 0.3313904 -0.29339802
0.369816 0.27417937 0.10956608 0.23353618 -0.24604326 0.1955421 0.3106908 -0.33527735
0.3146331 -0.06358354 0.29443306 0.2419857 0.33255616 0.101097345 0.16861026 0.16375163
-0.35715184 0.3067553 0.06650312 -0.093078524 -0.1920726 -0.07191283 0.27176577 0.31148925
-0.19623227 0.32136485 0.0750835 -0.0021163719 0.3098465 -0.18982655 0.1227391 0.23980148
0.27084136 0.20959681 -0.35596392 0.25424713 -0.3006942 0.096975945 0.30312365 -0.09666092
0.3423537 -0.25717756 -0.114704974 -0.28678152 -0.28372207 0.1982016 -0.09025192 -0.105119996
-0.086751364 0.28657043 -0.35266486 -0.2797934 -0.18214749 -0.21052982 0.32505924 -0.35266444
-0.2695218 0.20981401 -0.3188497 -0.09504135 -0.29896027 -0.26189193 -0.16075231 -0.14316599
-0.24749967 -0.054266874 0.19212066 -0.097345114 -0.2166159 -0.13266945 0.31965265 -0.10797741
-0.2595949 -0.15867388 0.24805933 -0.19348894
00000000: d1be d03d cf29 3fbe 0a50 a8be 2d86 573e
00000010: 980b 49be e412 bebd 5aa7 08be 193f 70be
00000020: fd5c 4a3e 2cac 97be 3230 493e db0b 81bd
00000030: 6c32 46be 26fa a83e 027a 70be 435a 7c3e
00000040: e539 55bd b9c5 4a3e 10db ba3e 3e6d 40be
00000050: da1b 94bd 558b 2f3e 01ac a93e 4438 96be
00000060: 8658 bd3e 3d61 8c3e 2e64 e03d 1c24 6f3e
00000070: c4f2 7bbe 303c 483e dd12 9f3e 79a9 abbe
00000080: 9717 a13e 1638 82bd eebf 963e 19cb 773e
00000090: cd44 aa3e 200c cf3d 2ba8 2c3e 82ae 273e
000000a0: 9bdc b6be 080f 9d3e ca32 883d f49f bebd
000000b0: aeae 44be 0947 93bd e224 8b3e 857b 9f3e
000000c0: 1df1 48be ef89 a43e 61c5 993d d4b2 0abb
000000d0: 33a4 9e3e e461 42be a35e fb3d 858e 753e
000000e0: b8ab 8a3e 8ca0 563e e740 b6be ae2c 823e
000000f0: 97f4 99be 539b c63d 0633 9b3e 29f6 c5bd
00000100: fc48 af3e c7ac 83be 71ea eabd 07d5 92be
00000110: 0544 91be 5cf5 4a3e 00d6 b8bd 2749 d7bd
00000120: b3aa b1bd 5cb9 923e 7d90 b4be 1541 8fbe
00000130: df84 3abe 2195 57be 2a6e a63e 6f90 b4be
00000140: c3fe 89be 7cd9 563e 4540 a3be 0aa5 c2bd
00000150: 5211 99be b316 86be 419c 24be 1b9a 12be
00000160: 8e70 7dbe f146 5ebd 47bb 443e e05c c7bd
00000170: 8fd0 5dbe 80da 07be 83a9 a33e 4323 ddbd
00000180: 9fe9 84be 687b 22be 4403 7e3e f721 46be

bias f4 [2]
0.20785876 -0.22362776
00000000: edd8 543e adfe 64be

weight f4 [2, 50]
-0.12522325 -0.05211289 0.13634107 -0.18810983 0.23038587 0.11723444 0.00965063 -0.15568954
0.0636907 -0.00725185 -0.11655305 -0.013426203 -0.21891163 -0.15583234 0.15396975 -0.170022
-0.1051295 -0.21924594 0.062057283 -0.09487831 -0.0891603 -0.25451538 -0.051398776 -0.17952321
0.0508239 0.019645523 -0.07317518 0.09190641 0.1760616 0.03703274 -0.0035922232 0.21380644
-0.1468042 -0.057608034 -0.032768965 0.19344182 -0.108595595 -0.030372337 -0.12121794 -0.017425327
-0.18953763 0.15271479 -0.24654792 -0.016084602 0.18352991 0.051570445 -0.032026876 -0.07254549
0.14401308 -0.19584298 0.1546968 -0.033182204 -0.028264534 0.06048739 -0.1397332 -0.121641986
-0.16351074 0.11913956 0.1323396 0.029830381 0.05973815 0.076368615 0.19099821 -0.05783555
-0.14776693 0.17678793 0.19920745 0.19930908 -0.11203005 0.17230076 0.019272933 0.17051715
-0.1381554 0.1114032 -0.13988025 0.11444031 -0.06176253 -0.1382664 -0.039516807 -0.044902965
0.102367766 -0.023117855 -0.10439742 0.17854367 0.0359414 -0.19156559 0.07476536 -0.17289633
0.186675 0.11148601 0.19346197 -0.11438644 -0.023432072 0.1494897 -0.07733931 -0.121984534
0.01751505 0.09982945 -0.16331367 0.13244894
00000000: 863a 00be 5374 55bd fe9c 0b3e dd9f 40be
00000010: 46ea 6b3e 9c18 f03d ad1d 1e3c 146d 1fbe
00000020: 4570 823d eda0 edbb 5eb3 eebd 94f9 5bbc
00000030: 5f2a 60be 8392 1fbe 3faa 1d3e 3f1a 2ebe
00000040: 234e d7bd 0282 60be c72f 7e3d 8f4f c2bd
00000050: ad99 b6bd d74f 82be 8687 52bd efd4 37be
00000060: b92c 503d a6ef a03c dedc 95bd 6e39 bc3d
00000070: 7e49 343e a4af 173d 816b 6bbb 13f0 5a3e
00000080: d753 16be 67f6 6bbd c038 06bd 9d15 463e
00000090: 5e67 debd 68cf f8bc 1c41 f8bd 8fbf 8ebc
000000a0: 2716 42be 4461 1c3e 0f77 7cbe dbc3 83bc
000000b0: 44ef 3b3e 883b 533d 9d2e 03bd bb92 94bd
000000c0: 2a78 133e 108b 48be d768 1e3e 10ea 07bd
000000d0: 068b e7bc a0c1 773d 3816 0fbe 6f1f f9bd
000000e0: 5c6f 27be 71ff f33d 0884 073e d85e f43c
000000f0: feaf 743d 2667 9c3d 0995 433e f8e4 6cbd
00000100: 3750 17be e507 353e 0afd 4b3e ae17 4c3e
00000110: 0370 e5bd 9c6f 303e 45e2 9d3c 0c9c 2e3e
00000120: 9c78 0dbe 5c27 e43d c53c 0fbe ae5f ea3d
00000130: b5fa 7cbd b595 0dbe 60dc 21bd 2cec 37bd
00000140: 31a6 d13d a861 bdbc 51ce d5bd 27d4 363e
00000150: 4a37 133d c529 44be 951e 993d bc0b 31be
00000160: bb27 3f3e c752 e43d e51a 463e 7043 eabd
00000170: 9ef4 bfbc d413 193e 1264 9ebd 07d3 f9bd
00000180: b97b 8f3c 6273 cc3d b33b 27be b2a0 073e

bias f4 [2]
0.114112094 -0.13280608
00000000: 9ab3 e93d 51fe 07be
