data/RNN_runs/sweep_H2/rnn_sto3g_H2_0-7348_eq1_nU50_nL2_lr001_lrsC_ns10000.pt (torch_old, 514322 bytes, 13 tensors)

weight_ih f4 [150, 2]
0.041548617 0.22026388 -0.35795042 0.11543753 0.091003135 0.25509873 0.16376404 -0.15065253
0.13575056 0.18136229 -0.24579594 0.15505585 -0.22123048 0.27122533 -0.35113946 0.39209554
0.06557979 0.18920839 -0.09833911 0.38813362 0.28790697 0.1662394 -0.15131007 0.5240594
-0.36016408 0.28714958 -0.20575263 0.2732449 -0.08970326 0.25110334 -0.20717858 0.3530369
-0.23398331 0.2633782 0.3296017 -0.13738903 -0.4249078 0.21466617 0.15701596 0.034786817
0.14165196 0.10062184 0.08143539 0.38785866 0.2071669 0.19827305 0.2504572 0.13473049
0.1411196 0.33827478 0.14552419 0.21262309 0.3515558 -0.11713502 -0.3271465 -0.09569025
-0.19751088 0.1922176 0.2184135 0.01135925 0.26022702 0.18220054 0.049390092 -0.07414367
0.20991358 0.1476558 0.22402233 0.026569651 -0.6269761 0.43937698 -0.2097912 0.2178349
0.12929393 0.009600871 -0.21679677 0.24026062 0.25725415 -0.08836942 -0.2741333 0.39418042
0.28457403 0.01940426 -0.18063228 0.26251626 -0.2941463 0.24588253 0.14417392 0.21755567
0.288149 0.2584926 -0.36481103 0.34026882 -0.18093926 0.3543864 0.038427107 -0.15766916
0.14996335 0.3771158 0.35004026 0.0008432027 0.019214796 -0.27680156 -0.06572775 -0.31538624
-0.23221187 -0.17437202 -0.18044448 -0.018188046 -0.16572283 -0.11853194 0.12712716 -0.2749166
0.18593706 -0.2502574 0.2986459 -0.31996483 -0.26044673 -0.039545104 0.15365233 -0.120058745
-0.26739708 -0.10999557 0.3519688 -0.36867207 0.027122758 -0.28506482 0.19631313 -0.36213186
0.13565159 -0.19927959 0.0098669715 -0.21880475 -0.091432355 -0.3220605 -0.18858914 -0.26791114
0.119391866 -0.28001198 -0.18255778 -0.042670943 -0.16366655 -0.21421656 -0.05707148 -0.11377658
-0.14894468 -0.23749284 -0.3329542 -0.012983168 -0.15925029 -0.32463595 -0.28844056 -0.2326038
-0.22157004 0.02129393 0.13186695 -0.14676914 -0.27958605 -0.18084764 -0.35355306 -0.07223555
-0.23210868 0.082093194 -0.23390102 0.09295982 -0.10302255 0.0043122363 -0.23888162 0.02883216
-0.068852834 -0.18747093 0.05821251 -0.39609197 -0.22827701 -0.056476876 0.008920688 -0.26717377
-0.3492496 -0.19201899 0.2179631 -0.20734471 -0.2176362 -0.09806158 -0.07494886 -0.3085117
-0.05011507 -0.27656335 -0.2900098 0.033208106 -0.10116256 -0.29978693 -0.22848712 -0.35096768
-0.051951304 -0.07941363 -0.2617216 -0.14977519 0.06624744 -0.31974614 -0.100117914 0.07746892
-0.12970072 -0.17225629 0.28906018 -0.25176826 -0.28166378 -0.1716943 0.24720113 -0.10000221
-0.24357036 -0.044283584 -0.1959488 0.24351749 0.09767467 -0.32910457 -0.1496285 0.24108621
0.22803713 -0.18090257 -0.015797378 0.22604772 -0.26919174 -0.27969176 -0.07680255 0.21932232
0.3530821 -0.32512733 0.016777001 -0.4024339 0.22302651 -0.1293394 -0.27405554 0.1264368
-0.3711748 0.14239343 0.20175496 -0.23316377 0.28810182 -0.2365953 -0.38523254 0.21126859
0.201842 0.15730381 -0.17381927 -0.22400516 0.23420514 0.33005482 -0.33399713 -0.15894833
0.15529656 0.27498195 0.35378128 -0.23626274 0.40731674 -0.2827401 -0.18138072 0.26320904
00000000: e22e 2a3d db8c 613e 4745 b7be 836a ec3d
00000010: da5f ba3d 4d9c 823e c3b1 273e a844 1abe
00000020: 3202 0b3e 09b7 393e eeb1 7bbe f6c6 1e3e
00000030: 3e8a 62be 0cde 8a3e 8dc8 b3be bfc0 c83e
00000040: b24e 863d d8bf 413e 0466 c9bd 73b9 c63e
00000050: 8b68 933e a93a 2a3e 07f1 1abe c228 063f
00000060: 6d67 b8be 4505 933e d1b0 52be c1e6 8b3e
00000070: 58b6 b7bd 9e90 803e 9f26 54be 41c1 b43e
00000080: 5299 6fbe 82d9 863e 8ec1 a83e b6af 0cbe
00000090: 848d d9be 73d1 5b3e cbc8 203e 9f7c 0e3d
000000a0: 360d 113e d312 ce3d 99c7 a63d 6995 c63e
000000b0: 8f23 543e 1708 4b3e ed3b 803e caf6 093e
000000c0: a881 103e 5a32 ad3e 4b04 153e deb9 593e
000000d0: 1fff b33e 7ce4 efbd bf7f a7be 40f9 c3bd
000000e0: 4b40 4abe b1d4 443e caa7 5f3e 261c 3a3c
000000f0: 7a3c 853e c792 3a3e 444d 4a3d a3d8 97bd
00000100: 96f3 563e 1533 173e 1c66 653e 99a8 d93c
00000110: 8181 20bf 05f6 e03e 81d3 56be 1d10 5f3e
00000120: a165 043e f94c 1d3c f9ff 5dbe e106 763e
00000130: d1b6 833e 07fb b4bd 335b 8cbe 04d2 c93e
00000140: b0b3 913e aff5 9e3c abf7 38be 8868 863e
00000150: 589a 96be a1c8 7b3e 54a2 133e eac6 5e3e
00000160: 4488 933e 2459 843e 83c8 babe b737 ae3e
00000170: 2448 39be 2272 b53e be65 1d3d 0674 21be
00000180: fe8f 193e 5215 c13e 7a38 b33e 600a 5d3a
00000190: 5968 9d3c efb8 8dbe 459c 86bd 4e7a a1be
000001a0: f3c8 6dbe 948e 32be 70c6 38be 19ff 94bc
000001b0: 3fb3 29be e0c0 f2bd 9f2d 023e dec1 8cbe
000001c0: 4966 3e3e bd21 80be 1ee8 983e 6ed2 a3be
000001d0: 4659 85be 0cfa 21bd 0957 1d3e 5ce1 f5bd
000001e0: 45e8 88be 5b45 e1bd 4135 b43e 96c2 bcbe
000001f0: 8c30 de3c 04f4 91be 4f06 493e 5969 b9be
00000200: 40e8 0a3e f30f 4cbe 14a9 213c 5a0e 60be
00000210: e340 bbbd 1de5 a4be 831d 41be a62b 89be
00000220: b983 f43d bb5d 8fbe 6df0 3abe bac7 2ebd
00000230: 3498 27be 965b 5bbe c9c3 69bd b203 e9bd
00000240: f484 18be 5331 73be f978 aabe 5ab7 54bc
00000250: 8212 23be af36 a6be 7bae 93be b12f 6ebe
00000260: 42e3 62be 9c70 ae3c 2108 073e a64a 16be
00000270: e725 8fbe 2030 39be e804 b5be 3bf0 93bd
00000280: e6ad 6dbe 7a20 a83d c083 6fbe b861 be3d
00000290: 7dfd d2bd a94d 8d3b 629d 74be 6c31 ec3c
000002a0: b702 8dbd 61f8 3fbe 3e70 6e3d 91cc cabe
000002b0: 73c1 69be 4c54 67bd 1428 123c 00cb 88be
000002c0: d8d0 b2be a0a0 44be b831 5f3e 2c52 54be
000002d0: 06dc 5ebe 82d4 c8bd ca7e 99bd 3ff5 9dbe
000002e0: 7645 4dbd b699 8dbe 2a7c 94be 3905 083d
000002f0: 512e cfbd ac7d 99be 87f8 69be 09b2 b3be
00000300: e4ca 54bd 9da3 a2bd 6000 86be ab5e 19be
00000310: bdac 873d c4b5 a3be 9f0a cdbd 06a8 9e3d
00000320: 44d0 04be f463 30be b2ff 933e c5e7 80be
00000330: 3c36 90be a1d0 2fbe 4b22 7d3e f5cd ccbd
00000340: 826a 79be b462 35bd cda6 48be a65c 793e
00000350: a809 c83d 6580 a8be 3738 19be 4edf 763e
00000360: 9182 693e 863e 39be 8169 81bc 0e79 673e
00000370: 80d3 89be c233 8fbe a84a 9dbd 0896 603e
00000380: 2dc7 b43e 1777 a6be ec6f 893c d10b cebe
00000390: 1061 643e 8c71 04be 0251 8cbe a678 013e
000003a0: a00a bebe 95cf 113e da98 4e3e 7cc2 6ebe
000003b0: 1582 933e 0a46 72be 333d c5be cb56 583e
000003c0: abaf 4e3e 4014 213e aefd 31be 9c61 65be
000003d0: 79d3 6f3e f2fc a83e ac01 abbe 5ac3 22be
000003e0: 1006 1f3e 6fca 8c3e d222 b53e dcee 71be
000003f0: d28b d03e 4fc3 90be debb 39be 56c3 863e

weight_hh f4 [150, 50]
-0.19344021 -0.112422034 -0.060019724 -0.051604144 -0.23237576 0.22071819 -0.19828945 0.06321185
0.035824336 0.25110456 -0.18609588 0.22797026 -0.24565676 -0.048342604 -0.23378277 0.19643949
0.09920379 -0.09200399 -0.10743272 -0.09863154 0.09652523 -0.24238859 0.29569834 -0.102037095
0.27218145 -0.20677629 0.13593055 0.21225892 -0.24417853 0.19447947 -0.16026352 -0.25020036
-0.25152352 0.30558592 -0.09597698 0.17200042 0.09388515 -0.25592908 -0.057147544 -0.117255144
-0.13098021 -0.08485733 0.10412998 -0.030028168 0.04644265 -0.11402974 -0.223138 0.14782596
-0.06475132 0.22598337 0.28195527 0.1529497 0.25341195 0.10467082 0.005004491 -0.07760192
0.16922508 -0.18185644 0.13636936 -0.2445939 0.21248856 -0.17617239 0.13436258 0.23386176
0.1981375 -0.07406513 -0.12360961 0.28437486 0.27235243 -0.3433796 -0.05030486 0.1572356
-0.054576032 0.1841508 -0.24640772 0.18261875 0.2733417 -0.14508824 0.1072616 -0.1379586
0.14776848 0.038438775 0.149017 -0.056076076 0.0473297 -0.103950776 -0.17915072 0.10704109
0.16257618 0.21614216 0.3132268 0.16786605 -0.26283526 0.067356065 -0.17353919 0.112543
0.05640238 -0.1662607 0.10765319 -0.051572647 -0.11202123 -0.33070922 -0.34536296 -0.06871827
-0.29545847 0.23906218 -0.102696784 0.21018815 0.1316725 0.37014937 -0.13995354 0.29960868
-0.29187155 -0.16857494 -0.32254276 0.12954158 0.15433596 -0.074996345 -0.23060192 0.18428458
0.3299384 -0.23282549 0.3430685 -0.3419158 0.0973763 -0.30745763 -0.086224474 0.37140533
-0.27399448 0.33472627 -0.33117467 -0.17958045 -0.26856396 0.19944651 -0.2940731 0.29803616
0.21504837 -0.26622495 -0.1423422 -0.32681888 -0.112705626 -0.10569875 0.13283497 -0.14710778
0.29719523 -0.3329407 -0.17111039 0.012601575 -0.34397113 0.1609651 -0.19087867 -0.32706046
-0.105352096 -0.084031135 -0.09164761 0.27822316 -0.24110451 0.34691027 -0.32125014 0.32913378
-0.030190999 0.07745003 -0.20867042 -0.28373796 -0.05425742 0.15672007 0.2625912 -0.024066476
-0.33660465 0.35390955 0.039226692 -0.20745711 0.16740441 -0.2951194 0.015716832 -0.32362348
-0.35182545 0.11625713 -0.24424258 0.26151064 -0.15634568 -0.20851324 -0.2988535 0.24741691
-0.36457556 0.12576757 0.0030826281 -0.1331538 -0.075786635 -0.16697781 -0.24385692 -0.22081684
0.18450268 -0.14591834 0.2287422 -0.25254568 -0.18094239 0.12235028 -0.16407467 0.12198317
-0.2663983 -0.2146979 -0.22248125 -0.11434115 -0.30823112 0.10138451 -0.33760247 0.3141982
0.1225808 0.38480645 -0.19494194 0.21426645 -0.18898882 -0.4126403 -0.20518865 0.14983125
0.19478124 -0.058945037 -0.29437408 -0.05157577 0.23885195 -0.27179554 0.23713711 -0.2872822
0.12780213 -0.05893487 -0.12148568 0.15153019 -0.12140713 0.2772885 -0.1574128 -0.105805434
-0.1731921 0.21448413 -0.22359096 0.13976125 0.35784036 -0.18104179 -0.25073183 -0.16831054
-0.04097698 -0.14837499 0.2692338 0.15656514 0.2874609 -0.20497109 -0.18081364 -0.053595323
-0.16480024 0.197759 0.034285255 0.13624547 0.13903622 0.28668588 -0.18136515 0.011973636
00000000: 3115 46be 863d e6bd 3ed7 75bd de5e 53bd
00000010: e9f3 6dbe f303 623e 640c 4bbe 3775 813d
00000020: 8abc 123d c790 803e eb8f 3ebe 0971 693e
00000030: 728d 7bbe e502 46bd c064 6fbe 6f27 493e
00000040: 5b2b cb3d 976c bcbd b005 dcbd 55ff c9bd
00000050: 05af c53d b734 78be c665 973e d3f8 d0bd
00000060: 5e5b 8b3e 2abd 53be 6131 0b3e 675a 593e
00000070: f009 7abe a025 473e 1f1c 24be 431a 80be
00000080: b1c7 80be c275 9c3e 948f c4bd e120 303e
00000090: dc46 c03d 2309 83be 8b13 6abd 7723 f0bd
000000a0: ad1f 06be aec9 adbd 1942 d53d a2fd f5bc
000000b0: a63a 3e3d 6d88 e9bd 4a7e 64be b05f 173e
000000c0: 579c 84bd 2f68 673e 715c 903e d99e 1c3e
000000d0: 36bf 813e a85d d63d b7fc a33b c1ed 9ebd
000000e0: 5749 2d3e 9338 3abe 69a4 0b3e d376 7abe
000000f0: 9a96 593e 8966 34be 5896 093e 7579 6f3e
00000100: 8fe4 4a3e 75af 97bd 0927 fdbd 9599 913e
00000110: c771 8b3e 73cf afbe 780c 4ebd 5e02 213e
00000120: 1e8b 5fbd 0792 3c3e 4e52 7cbe 6900 3b3e
00000130: 71f3 8b3e 0392 14be f8ab db3d 0545 0dbe
00000140: 9f50 173e fa71 1d3d ea97 183e 07b0 65bd
00000150: cadc 413d 25e4 d4bd 4973 37be 5c38 db3d
00000160: 5f7a 263e 5f54 5d3e 435f a03e 14e5 2b3e
00000170: 5892 86be faf1 893d 42b4 31be f27c e63d
00000180: 2f06 673d 3f40 2abe 4779 dc3d d73d 53bd
00000190: 636b e5bd b852 a9be 6ad3 b0be 2abc 8cbd
000001a0: 5546 97be b7cc 743e b152 d2bd 903b 573e
000001b0: 28d5 063e 3884 bd3e fb4f 0fbe 4f66 993e
000001c0: 3070 95be e99e 2cbe 5324 a5be 8ca6 043e
000001d0: 3f0a 1e3e af97 99bd e922 6cbe 19b5 3c3e
000001e0: b0ed a83e ce69 6ebe ada6 af3e 960f afbe
000001f0: 3a6d c73d 166b 9dbe 7596 b0bd d728 be3e
00000200: 0149 8cbe 3e61 ab3e ba8f a9be f0e3 37be
00000210: 3781 89be b53b 4c3e c090 96be 3298 983e
00000220: a435 5c3e a34e 88be 27c2 11be ce54 a7be
00000230: 35d2 e6bd 9678 d8bd e405 083e 6ca3 16be
00000240: f929 983e 3477 aabe 9037 2fbe d676 4e3c
00000250: fc1c b0be 09d4 243e b375 43be 7874 a7be
00000260: d7c2 d7bd 8418 acbd beb1 bbbd 4473 8e3e
00000270: 1ae4 76be 399e b13e e67a a4be 3984 a83e
00000280: 1d53 f7bc 1f9e 9e3d b3ad 55be 1a46 91be
00000290: 073d 5ebd 3a7b 203e 5b72 863e 0f27 c5bc
000002a0: 7257 acbe a233 b53e 2bac 203d a36f 54be
000002b0: 106c 2b3e e419 97be 96c0 803c fab1 a5be
000002c0: 7722 b4be 3818 ee3d ba1a 7abe b9e4 853e
000002d0: 1519 20be 7f84 55be 5303 99be dc5a 7d3e
000002e0: a6a9 babe 37c9 003e eb05 4a3b 7859 08be
000002f0: 0636 9bbd 3bfc 2abe a1b5 79be cf1d 62be
00000300: 45ee 3c3e 9e6b 15be 653b 6a3e ab4d 81be
00000310: f648 39be c992 fa3d 3103 28be 50d2 f93d
00000320: 5c65 88be c4d9 5bbe 20d2 63be b12b eabd
00000330: 78d0 9dbe afa2 cf3d 3bda acbe 96de a03e
00000340: a40b fb3d 5a05 c53e dc9e 47be aa68 5b3e
00000350: 4986 41be 9745 d3be f91c 52be 5d6d 193e
00000360: bc74 473e 5a70 71bd 33b8 96be 1d41 53bd
00000370: 9b95 743e c928 8bbe 12d4 723e a716 93be
00000380: 90de 023e b165 71bd 7ccd f8bd bb2a 1b3e
00000390: 4da4 f8bd c2f8 8d3e d230 21be 85b0 d8bd
000003a0: 4559 31be baa1 5b3e 07f5 64be 931d 0f3e
000003b0: da36 b73e 0563 39be ec5f 80be 9959 2cbe
000003c0: 7ad7 27bd 9def 17be 03d9 893e 9d52 203e
000003d0: 132e 933e f1e3 51be 3627 39be c586 5bbd
000003e0: 65c1 28be 5681 4a3e b26e 0c3d ef83 0b3e
000003f0: 835f 0e3e 7ec8 923e c9b7 39be 122d 443c

bias_ih f4 [150]
0.11432487 -0.23032643 0.15430124 0.14499152 0.23962577 -0.25833783 0.11228888 0.23308466
0.20219515 0.21953976 0.13153112 0.39402372 -0.13093628 0.0696698 0.14537421 0.14281973
-0.11335593 0.12176719 -0.16755098 0.12659486 0.20579243 0.21918425 0.37181097 0.18005104
0.16167484 0.063449435 0.22478607 0.036079224 -0.047964655 0.2515887 0.2108188 0.07955292
0.2220567 0.07478298 0.09702439 -0.14214239 0.1903357 -0.09609012 0.06132309 -0.0069358414
-0.0032704568 0.012309617 -0.033665378 0.14391048 0.2677075 -0.015723785 -0.1277451 0.033686537
0.336062 0.17293568 -0.112585954 -0.20840998 -0.1337785 -0.155077 -0.34302688 -0.28077435
-0.27552107 -0.2767258 -0.031994283 -0.16698492 -0.31887704 -0.13939844 -0.25652352 -0.21894932
-0.24601397 -0.27220157 -0.21458937 -0.26515985 -0.2248305 -0.30575198 -0.2443091 -0.3500039
-0.17587619 -0.07815937 -0.079862796 -0.39934584 -0.2416415 -0.32626447 -0.34943792 -0.18735734
-0.16896398 -0.3058756 -0.14507791 -0.165894 -0.3252473 -0.21758375 -0.22782633 -0.25853115
-0.21480255 -0.3287734 -0.2808092 -0.26393884 -0.33214298 -0.17632256 -0.12758973 -0.15028763
-0.20997675 -0.27788186 -0.29005018 -0.34062153 -0.2869343 -0.11490535 -0.3225128 -0.12542972
-0.23906456 0.25139448 -0.27133757 0.2158331 -0.017306661 0.32486653 -0.09961273 0.3203843
-0.028234402 -0.15927593 -0.081402674 0.19967616 0.051439703 0.077842765 -0.07416403 -0.010682554
0.3084009 -0.2559939 0.15422632 -0.23062734 0.2866129 0.08720374 0.08409662 0.27687168
0.1774814 0.13092837 -0.31860545 -0.29831675 -0.25393873 0.320229 -0.07445847 0.09560967
0.27081257 -0.11596651 -0.30749676 -0.20908661 0.0037271525 0.007733713 0.1896744 0.027674308
0.3251201 -0.12630242 0.01857496 -0.08384154 -0.31175148 0.14670408
00000000: 2823 ea3d b1da 6bbe 2501 1e3e a878 143e
00000010: 7560 753e db44 84be b6f7 e53d bfad 6e3e
00000020: 3f0c 4f3e 08cf 603e 18b0 063e 7abd c93e
00000030: 2914 06be 0aaf 8e3d fadc 143e 563f 123e
00000040: 2727 e8bd 1461 f93d 7c92 2bbe 15a2 013e
00000050: 40bb 523e d671 603e 025e be3e 4d5f 383e
00000060: 178e 253e c7f1 813d 522e 663e cfc7 133d
00000070: 9676 44bd 3cd0 803e e2e0 573e a4ec a23d
00000080: d562 633e d227 993d b9b4 c63d c68d 11be
00000090: 5de7 423e e6ca c4bd ec2d 7b3d 0e46 e3bb
000000a0: 2955 56bb 47ae 493c b5e4 09bd 455d 133e
000000b0: f510 893e 2bcf 80bc 9dcf 02be e5fa 093d
000000c0: 5210 ac3e 0d16 313e 7793 e6bd 6d69 55be
000000d0: 3bfd 08be 81cc 1ebe 38a1 afbe a8c1 8fbe
000000e0: 1911 8dbe 01af 8dbe 700c 03bd 18fe 2abe
000000f0: da43 a3be 77be 0ebe 0d57 83be 4034 60be
00000100: 16eb 7bbe 015e 8bbe 51bd 5bbe 08c3 87be
00000110: f739 66be 868b 9cbe 2a2c 7abe b633 b3be
00000120: e318 34be 0512 a0bd 1b8f a3bd 0f77 ccbe
00000130: df70 77be 230c a7be 87e9 b2be 9ada 3fbe
00000140: e504 2dbe ba9b 9cbe 4e8f 14be 1ee0 29be
00000150: d086 a6be 46ce 5ebe 4e4b 69be 325e 84be
00000160: 33f5 5bbe fd54 a8be 39c6 8fbe fe22 87be
00000170: a50e aabe e78d 34be e2a6 02be 00e5 19be
00000180: 2504 57be 8846 8ebe 7581 94be f265 aebe
00000190: 0de9 92be 7f53 ebbd 6620 a5be a670 00be
000001a0: 57cd 74be c7b6 803e c2ec 8abe 5a03 5d3e
000001b0: b3c6 8dbc e854 a63e c201 ccbd 6909 a43e
000001c0: d54b e7bc 3b19 23be 72b6 a6bd e877 4c3e
000001d0: 70b2 523d 076c 9f3d 50e3 97bd e105 2fbc
000001e0: b9e6 9d3e a211 83be 81ed 1d3e 9329 6cbe
000001f0: edbe 923e e097 b23d d93a ac3d 20c2 8d3e
00000200: afbd 353e 1612 063e 4120 a3be f9bc 98be
00000210: 4204 82be 0ef5 a33e af7d 98bd 01cf c33d
00000220: f2a7 8a3e d97f edbd 3770 9dbe cd1a 56be
00000230: 3e43 743b 166b fd3b 023a 423e 3bb5 e23c
00000240: 2476 a63e 6c55 01be 842a 983c 1db5 abbd
00000250: e49d 9fbe 9839 163e

bias_hh f4 [150]
0.25884515 -0.1192995 0.29514682 0.14772564 0.28876016 -0.053879984 0.36526132 0.43365055
0.11721644 0.27607754 0.2510511 0.23561533 0.0547841 0.23128997 0.001083258 -0.07870519
0.10817656 -0.10656999 0.039224282 0.22385566 0.10323618 0.36179096 0.17158449 0.087848686
0.28802302 0.00968536 0.2334009 -0.016191212 -0.08552886 0.1774341 0.18030137 0.14133741
0.23366924 0.13592137 -0.059336822 -0.10780008 0.09918059 -0.15677175 0.25355697 -0.011072316
0.039805245 -0.12948078 0.027126692 0.23499362 0.38538423 -0.021979304 0.08233556 -0.16542663
0.22381295 0.06887696 -0.10498271 -0.2855651 -0.3626688 -0.2618987 -0.08737969 -0.10991465
-0.0971879 -0.23540528 -0.063312314 -0.15275058 -0.32082918 -0.20261902 -0.2884357 -0.2230579
-0.38347352 -0.12862286 -0.118790574 -0.11597917 -0.3716536 -0.33101887 -0.31286174 -0.16224706
-0.21183893 -0.3212408 -0.13332437 -0.27644423 -0.16584544 -0.15652822 -0.26778173 -0.22855777
-0.27258164 -0.31498572 -0.15529951 -0.1749013 -0.22413212 -0.33505076 -0.1538041 -0.1087667
-0.2623894 -0.09038798 -0.16312103 -0.17578004 -0.10892696 -0.3265223 -0.34228802 -0.28095546
-0.35609496 -0.23151502 -0.23186156 -0.319852 -0.2885297 -0.08597674 -0.25473872 0.09260952
-0.28142643 0.074296266 -0.3242873 0.37076375 0.020111501 0.2388519 -0.1599927 0.31843433
-0.23666616 -0.10562148 -0.08703776 0.26764706 0.25817087 0.15016994 -0.24610496 -0.2119915
0.2139798 -0.3107198 0.15160899 -0.20772712 0.24331619 0.04214632 0.1727839 0.096712664
-0.17242046 0.17050597 -0.03943249 -0.26706833 -0.22863233 0.101798475 -0.18846782 0.08784046
0.23205666 -0.12625134 -0.08304625 -0.24985863 0.08204795 -0.12948023 0.20144242 0.017543348
0.22799602 -0.07354115 -0.20975102 -0.010856909 -0.30540147 0.22879757
00000000: 5a87 843e 4c53 f4bd 7c1d 973e 6445 173e
00000010: 5fd8 933e 42b1 5cbd 8803 bb3e 7207 de3e
00000020: 2c0f f03d 095a 8d3e c589 803e 2545 713e
00000030: 4b65 603d 47d7 6c3e 1bfc 8d3a 3030 a1bd
00000040: ac8b dd3d 5e41 dabd a4a9 203d 6b3a 653e
00000050: 7e6d d33d aa3c b93e d8b3 2f3e 03ea b33d
00000060: c177 933e 58af 1e3c a500 6f3e 6fa3 84bc
00000070: c129 afbd 49b1 353e eca0 383e c1ba 103e
00000080: fd46 6f3e f92e 0b3e 2b0b 73bd 4ac6 dcbd
00000090: 311f cb3d c688 20be 38d2 813e a968 35bc
000000a0: d30a 233d 9c96 04be cc38 de3c 2ba2 703e
000000b0: 1551 c53e f10d b4bc 8c9f a83d 9965 29be
000000c0: 392f 653e 5d0f 8d3d 2d01 d7bd 9735 92be
000000d0: baaf b9be 9617 86be 1ff4 b2bd ef1a e1bd
000000e0: 730a c7bd 150e 71be e3a9 81bd a66a 1cbe
000000f0: b943 a4be 5c7b 4fbe d8ad 93be 4a69 64be
00000100: a456 c4be b6b5 03be 7948 f3bd 7d86 edbd
00000110: 6149 bebe 4e7b a9be 6a2f a0be 1824 26be
00000120: 4eec 58be ad79 a4be 2f86 08be 198a 8dbe
00000130: 63d3 29be ef48 20be b01a 89be 0c0b 6abe
00000140: d28f 8bbe cf45 a1be d606 1fbe 5419 33be
00000150: e482 65be c68b abbe d27e 1dbe 13c1 debd
00000160: e757 86be 551d b9bd 3309 27be afff 33be
00000170: 1915 dfbd ee2d a7be 6040 afbe 65d9 8fbe
00000180: 1452 b6be 4612 6dbe 1e6d 6dbe a4c3 a3be
00000190: 2aba 93be 9314 b0bd 1d6d 82be 0faa bd3d
000001a0: 2017 90be a428 983d fc08 a6be bfd4 bd3e
000001b0: e0c0 a43c 9895 743e 20d5 23be d309 a33e
000001c0: 9d58 72be 1350 d8bd da40 b2bd 0909 893e
000001d0: f92e 843e 26c6 193e f002 7cbe 4d14 59be
000001e0: 851d 5b3e aa16 9fbe 633f 1b3e 6bb6 54be
000001f0: e127 793e 9fa1 2c3d 43ee 303e 4a11 c63d
00000200: fd8e 30be 1e99 2e3e f683 21bd 2ebd 88be
00000210: 981e 6abe b87b d03d b5fd 40be b3e5 b33d
00000220: 43a0 6d3e 0848 01be 2714 aabd f1da 7fbe
00000230: c108 a83d 7796 04be ec46 4e3e 11b7 8f3c
00000240: ca77 693e be9c 96bd f9c8 56be 2de1 31bc
00000250: 955d 9cbe e949 6a3e

weight_ih f4 [150, 50]
0.0053449804 0.07530977 -0.050277993 0.039116308 0.029962733 0.12227577 -0.012951047 0.11067754
0.15293084 0.07026652 -0.06748002 0.026419833 -0.023968201 -0.0927273 0.0652089 -0.011200746
-0.059049156 -0.07334167 -0.178425 -0.008707742 0.052941673 -0.16823825 -0.008558767 -0.18008243
0.14788517 -0.075062685 0.22250555 0.16163914 0.09120663 0.20229992 0.025373356 0.034192376
-0.15304668 -0.0011947942 -0.10040865 0.06389432 0.1479741 0.062045515 -0.09764129 0.045425545
-0.041234024 0.011344182 -0.017407855 0.155104 -0.022899732 -0.16701269 -0.063156515 -0.006101717
-0.024961 0.23481192 0.10158634 0.05880326 0.115532696 -3.756232e-05 -0.10627115 0.16088295
-0.14015335 0.19263221 0.0073830164 0.13730037 0.07886782 -0.02489117 -0.09667945 -0.010407579
-0.037916236 0.12630093 0.108949415 -0.06218588 -0.15304878 0.063520364 0.002591912 0.012978424
0.14684841 0.04948775 -0.054424904 -0.16337073 -0.21426658 0.070010096 -0.0012140408 0.14360921
-0.13198222 -0.030938745 0.0054953904 -0.016340427 -0.16918285 0.044545073 -0.022666885 -0.042966794
-0.07842993 -0.052178334 -0.0799069 0.04877076 -0.00464585 0.018472476 0.08887406 -0.114436865
-0.09442688 0.097014755 0.06407204 -0.026057644 0.1430903 0.11642615 0.16851118 0.029464552
0.22464402 -0.008270121 0.08150405 -0.014517269 -0.058160886 -0.10335802 0.2622786 0.01648032
-0.055280432 0.09583232 -0.03931742 -0.12563719 0.091355234 -0.36971295 0.027215121 0.23362838
-0.048428226 0.2826924 -0.015972966 0.09610133 -0.09162589 -0.08888633 -0.26581976 -0.030586202
-0.20836715 -0.14056356 0.10704551 0.2833241 0.2969017 -0.19450717 -0.021182217 0.04533097
-0.1632625 -0.081964314 0.10539981 0.070182174 -0.3562012 -0.28149727 -0.040606607 -0.30787283
-0.21312638 0.054110706 -0.13688642 0.24059513 0.114895485 -0.076097436 0.04318581 -0.026331626
-0.0131000355 -0.37370992 -0.0037128692 -0.030641401 -0.09908815 0.06163076 -0.08467903 -0.008180951
0.080335386 -0.07949729 -0.26352185 -0.09203418 -0.0640286 0.08729682 0.039399702 -0.31824848
-0.01536078 0.081881136 -0.0862049 -0.013852887 0.067728944 0.11376176 -0.1536717 -0.2233231
-0.26799244 0.14673175 -0.14637406 -0.20943226 0.2158137 0.22966945 0.09598196 -0.23608775
-0.16379587 0.033530522 -0.15445396 -0.1365341 0.19088379 0.046580482 -0.2684982 -0.31364465
0.19130366 -0.11605957 -0.065426685 -0.059356306 -0.16405186 0.29056954 -0.08470505 -0.099030755
0.23213847 -0.13409182 0.21295385 -0.27896217 0.04671007 -0.11286747 -0.06108607 -0.08292253
-0.108346 -0.14115255 0.06079242 -0.091811106 -0.05857488 -0.08102588 -0.0359011 0.06823133
0.20605995 -0.42159134 -0.2410684 0.10591048 -0.104833685 0.083326 -0.110017166 0.2817261
-0.113998726 -0.37868896 -0.24627998 0.09939834 -0.31545806 -0.1567303 0.12729041 0.35252285
0.17140596 -0.0633845 -0.36416066 0.12573165 -0.2820516 -0.0006888917 0.16668037 -0.15266123
-0.2512704 -0.15735655 0.027382487 -0.23855266 -0.1419816 -0.14933237 -0.33466107 0.2293658
0.07532773 -0.14581524 0.11909998 0.05439626 -0.007219063 0.056301944 0.06238349 0.12465832
00000000: f224 af3b 023c 9a3d 4cf0 4dbd 6c38 203d
00000010: 6874 f53c b86b fa3d a130 54bc e8aa e23d
00000020: e799 1c3e e5e7 8f3d f732 8abd 686e d83c
00000030: f658 c4bc d0e7 bdbd 3e8c 853d 5583 37bc
00000040: 87dd 71bd 2834 96bd 0bb5 36be ebaa 0ebc
00000050: 5ed9 583d a646 2cbe 123a 0cbc 8767 38be
00000060: 366f 173e 77ba 99bd 7fd8 633e bb84 253e
00000070: 8bca ba3d b627 4f3e c9db cf3c 4e0d 0c3d
00000080: 45b8 1cbe a49a 9cba 0da3 cdbd 06db 823d
00000090: 8686 173e 7023 7e3d 28f8 c7bd 2310 3a3d
000000a0: 02e5 28bd f3dc 393c eb9a 8ebc 95d3 1e3e
000000b0: 3898 bbbc 6005 2bbe 3458 81bd e9f0 c7bb
000000c0: 037b ccbc 8972 703e 800c d03d b0db 703d
000000d0: 689c ec3d 3c8c 1db8 b0a4 d9bd 80be 243e
000000e0: 5c84 0fbe 6141 453e 3bed f13b 7898 0c3e
000000f0: 7485 a13d 91e8 cbbc e0ff c5bd 8d84 2abc
00000100: 0e4e 1bbd 0855 013e df20 df3d 9fb6 7ebd
00000110: d2b8 1cbe f716 823d 11dd 293b 75a3 543c
00000120: 6e5f 163e abb3 4a3d a6ec 5ebd a84a 27be
00000130: b368 5bbe 7461 8f3d 7320 9fba 4b0e 133e
00000140: 5926 07be 4073 fdbc ad12 b43b 5cdc 85bc
00000150: 453e 2dbe e574 363d e7af b9bc f3fd 2fbd
00000160: df9f a0bd f3b8 55bd 3ba6 a3bd d9c3 473d
00000170: 373c 98bb 9753 973c 9a03 b63d e05d eabd
00000180: e162 c1bd acaf c63d 3438 833d d776 d5bc
00000190: 4386 123e d570 ee3d 328e 2c3e a55f f13c
000001a0: 1509 663e 677f 07bc 98eb a63d d7d9 6dbc
000001b0: 1c3a 6ebd 5fad d3bd 6149 863e bc01 873c
000001c0: bc6d 62bd bc43 c43d 4e0b 21bd 09a7 00be
000001d0: 7418 bb3d 044b bdbe 3ff2 de3c 473c 6f3e
000001e0: ad5c 46bd 0fbd 903e bdd9 82bc c6d0 c43d
000001f0: 5ba6 bbbd 090a b6bd 8719 88be ea8f fabc
00000200: 335e 55be e5ef 0fbe ad3a db3d db0f 913e
00000210: 8003 983e e32c 47be 5486 adbc f8ac 393d
00000220: 492e 27be e8dc a7bd dbdb d73d acbb 8f3d
00000230: 0160 b6be 6920 90be 1d53 26bd 82a1 9dbe
00000240: cd3d 5abe 30a3 5d3d f42b 0cbe 925e 763e
00000250: 534e eb3d f9d8 9bbd 9be3 303d 6cb5 d7bc
00000260: 88a1 56bc e856 bfbe 9c53 73bb ad03 fbbc
00000270: baee cabd 8970 7c3d 336c adbd 6509 06bc
00000280: e186 a43d 7acf a2bd 56ec 86be 6b7c bcbd
00000290: 6d21 83bd adc8 b23d 9561 213d 77f1 a2be
000002a0: c8ab 7bbc 4cb1 a73d 328c b0bd 38f7 62bc
000002b0: 79b5 8a3d edfb e83d 1d5c 1dbe d0ae 64be
000002c0: 4e36 89be d940 163e 15e3 15be 6975 56be
000002d0: 44fe 5c3e 782e 6b3e 3192 c43d fdc0 71be
000002e0: 1bba 27be 4d57 093d 2e29 1ebe 98cf 0bbe
000002f0: 0a77 433e 2dcb 3e3d 9978 89be 0896 a0be
00000300: 1be5 433e a4b0 edbd 6dfe 85bd 991f 73bd
00000310: 36fd 27be 88c5 943e d779 adbd a3d0 cabd
00000320: b5b5 6d3e 5e4f 09be 9310 5a3e 21d4 8ebe
00000330: 0f53 3f3d 0f27 e7bd 6335 7abd 4ad3 a9bd
00000340: 82e4 ddbd 4b8a 10be 7901 793d 7607 bcbd
00000350: 37ec 6fbd e6f0 a5bd 080d 13bd debc 8b3d
00000360: 6101 533e d2da d7be a2da 76be 98e7 d83d
00000370: 0bb3 d6bd d2a6 aa3d ae50 e1bd 673e 903e
00000380: 2a78 e9bd 85e3 c1be d230 7cbe 5b91 cb3d
00000390: b883 a1be e87d 20be 6b58 023e e07d b43e
000003a0: 0b85 2f3e bccf 81bd 4473 babe ccbf 003e
000003b0: 1169 90be bd96 34ba 42ae 2a3e 3a53 1cbe
000003c0: 84a6 80be 1322 21be 3d51 e03c 2647 74be
000003d0: a063 11be 96ea 18be b258 abbe dede 6a3e
000003e0: 6d45 9a3d 9750 15be b1ea f33d 9dce 5e3d
000003f0: e48d ecbb de9c 663d d585 7f3d dc4c ff3d

weight_hh f4 [150, 50]
-0.051047347 -0.1697711 -0.27615672 0.03195003 -0.015163014 0.19137855 -0.16996302 -0.1009438
0.07343869 -0.019639093 0.07940829 0.21762843 0.06488085 0.11821444 -0.20351544 0.26287538
0.028541146 0.058324184 0.037929587 -0.050056763 0.112920254 0.2606641 0.0015490184 -0.0016688249
0.12051304 0.040993825 0.030464767 0.016587356 -0.23189898 0.2570473 0.2700283 -0.10675266
0.123165205 0.0775763 0.25529647 -0.087892406 0.2009334 -0.07722 0.05173418 0.07523959
-0.18183474 0.122176304 0.12453497 0.19810027 -0.012919422 0.04807969 0.052012876 0.111637875
0.00494206 0.26099306 0.05153073 -0.078719124 -0.1404782 -0.006466619 0.02188806 -0.01917953
-0.1449051 0.08061689 0.09582004 0.026421586 0.17344715 -0.14552373 0.07078145 -0.035077207
-0.08108352 -0.018221771 0.014501192 -0.018246474 0.022732085 0.18968995 0.2402764 0.20056446
0.1339687 -0.13136697 0.041209657 -0.043753885 0.20776975 -0.167053 -0.08206571 0.10356232
0.071931094 -0.14102343 0.023054881 -0.018462902 0.11261507 0.037738975 0.20311336 -0.09616399
0.14288434 0.110365815 0.08633034 -0.14433774 0.12471184 0.1777026 -0.20985189 -0.22927834
0.1555558 0.1548101 0.007000962 0.0012018793 -0.014463909 -0.052857287 0.04683888 -0.05413646
0.20226134 -0.13841759 0.12902893 0.11130116 -0.15560488 0.012771635 -0.07670152 0.05775589
-0.11118665 0.03214395 -0.03249378 -0.04025749 -0.1880927 0.042774566 -0.118962795 0.13339747
-0.17539051 -0.16153489 -0.09491142 0.15601255 -0.19985862 -0.16579637 0.025485953 0.10461034
-0.058426045 -0.17233771 -0.19595928 0.023949983 0.060744226 -0.23613049 -0.21653862 0.006005934
0.0043690344 -0.10649923 -0.15752538 -0.19836119 0.19356032 -0.05472352 0.0053510885 -0.040766582
0.014371507 0.1981805 -0.04577862 0.08342208 0.039704587 -0.03420818 -0.16267435 0.24140559
0.18507789 -0.29361624 0.13330956 -0.023536624 0.26943305 -0.041122496 -0.074070744 0.17998177
-0.26827294 0.11563344 0.004108676 -0.17610954 0.34494588 -0.26769155 -0.04293078 -0.13393053
-0.15227532 0.25288814 -0.112821065 -0.14422283 -0.15694082 -0.02860033 -0.1285748 -0.2984694
-0.10635049 0.0774039 0.15579201 -0.27766073 -0.28982896 0.2296905 -0.18856002 -0.012916708
-0.35360435 -0.06095457 -0.20925774 0.051885784 -0.022536092 -0.0025389837 -0.13604026 0.17544769
-0.10696051 -0.10166495 0.3343639 -0.050322108 -0.2132604 -0.22277792 0.09841626 -0.27115083
-0.1518199 0.11781632 0.065903984 0.071689636 0.115561366 -0.037971176 0.058904823 0.04186039
-0.0698767 0.045102604 -0.087868944 0.035124 0.050234094 -0.19444625 0.20892262 0.06279165
-0.1252884 -0.17603719 -0.28327712 0.19115537 -0.0528513 -0.19329433 -0.2506612 -0.07752894
-0.33687854 -0.11727462 0.035577245 0.22845179 0.2647012 -0.03807294 -0.1651416 0.0005466366
-0.058661763 -0.17495926 -0.091814905 0.15344791 -0.056360368 0.061108865 -0.15190692 0.033753816
0.122364745 0.18564533 -0.053109672 0.009760897 0.16183242 0.09399821 -0.115652114 -0.03964553
0.26336068 -0.15571539 -0.1522335 -0.09118908 -0.24641469 0.25661713 -0.260725 0.13204305
00000000: 0617 51bd 7ad8 2dbe 6a64 8dbe 09de 023d
00000010: 4a6e 78bc bdf8 433e c90a 2ebe 9fbb cebd
00000020: 0667 963d 2ae2 a0bc d0a0 a23d fdd9 5e3e
00000030: 40e0 843d 6a1a f23d 5a66 50be 9a97 863e
00000040: 1fcf e93c 57e5 6e3d 0e5c 1b3d 5208 4dbd
00000050: bc42 e73d c475 853e 6f08 cb3a 79bc daba
00000060: 8acf f63d 24e9 273d 3f91 f93c 35e2 873c
00000070: ed76 6dbe b49b 833e 2641 8a3e 23a1 dabd
00000080: 0a3e fc3d 53e0 9e3d 38b6 823e ef00 b4bd
00000090: 7cc1 4d3e 8525 9ebd 38e7 533d 3717 9a3d
000000a0: e332 3abe 9237 fa3d 310c ff3d ccda 4a3e
000000b0: fcab 53bc 36ef 443d 740b 553d 66a2 e43d
000000c0: 01f1 a13b e2a0 853e e311 533d 7e37 a1bd
000000d0: 84d9 0fbe efe5 d3bb 974e b33c 641e 9dbc
000000e0: 0162 14be 781a a53d 4c3d c43d 1572 d83c
000000f0: 219c 313e 2c04 15be ddf5 903d 1ead 0fbd
00000100: 1e0f a6bd d345 95bc 6896 6d3c a179 95bc
00000110: a338 ba3c 153e 423e 040b 763e c560 4d3e
00000120: 172f 093e 1085 06be 75cb 283d 4637 33bd
00000130: 98c1 543e f10f 2bbe 1112 a8bd 7b18 d43d
00000140: 9c50 933d 7268 10be 97dd bc3c 833f 97bc
00000150: bba2 e63d 2f94 1a3d f3fc 4f3e a0f1 c4bd
00000160: 4650 123e 7907 e23d f6cd b03d 46cd 13be
00000170: ec68 ff3d acf7 353e 6ae3 56be f1c7 6abe
00000180: 054a 1f3e 8a86 1e3e 5368 e53b 6188 9d3a
00000190: 08fa 6cbc e280 58bd 20da 3f3d 31be 5dbd
000001a0: 991d 4f3e 57bd 0dbe 2920 043e ddf1 e33d
000001b0: e356 1fbe 1f40 513c b015 9dbd 7191 6c3d
000001c0: d4b5 e3bd 60a9 033d 3318 05bd 0ae5 24bd
000001d0: 5f9b 40be 6234 2f3d c4a2 f3bd 5999 083e
000001e0: 9299 33be 6769 25be eb60 c2bd c1c1 1f3e
000001f0: bda7 4cbe 86c6 29be ebc7 d03c f23d d63d
00000200: 2650 6fbd 4c79 30be 8da9 48be c132 c43c
00000210: f0ce 783d 31cc 71be 4dbc 5dbe 6dcd c43b
00000220: 1e2a 8f3b 451c dabd 554e 21be 321f 4bbe
00000230: ad34 463e c525 60bd 2f58 af3b dcfa 26bd
00000240: 7876 6b3c d4ef 4a3e 5d82 3bbd 32d9 aa3d
00000250: 47a1 223d e01d 0cbd 1b94 26be 0733 773e
00000260: 0f85 3d3e de54 96be 4d82 083e e1cf c0bc
00000270: 21f3 893e 1070 28bd 67b2 97bd 244d 383e
00000280: 125b 89be 3ad1 ec3d 13a2 863b 0f56 34be
00000290: bf9c b03e de0e 89be 30d8 2fbd 1625 09be
000002a0: 10ee 1bbe 8e7a 813e bb0e e7bd 26af 13be
000002b0: 18b5 20be 3d4b eabc 1da9 03be fbd0 98be
000002c0: 49ce d9bd f085 9e3d f187 1f3e 8c29 8ebe
000002d0: 7664 94be fd33 6b3e e115 41be 9aa0 53bc
000002e0: a10b b5be 80ab 79bd a947 56be 3086 543d
000002f0: 9c9d b8bc 1465 26bb 234e 0bbe 8fa8 333e
00000300: 1d0e dbbd b735 d0bd bf31 ab3e 8e1e 4ebd
00000310: ef60 5abe e51f 64be 778e c93d 48d4 8abe
00000320: ad76 1bbe af49 f13d abf8 863d 04d2 923d
00000330: 70ab ec3d aa87 1bbd 2f46 713d cd75 2b3d
00000340: 841b 8fbd 82bd 383d a2f4 b3bd 2fde 0f3d
00000350: 44c2 4d3d eb1c 47be d0ef 553e e998 803d
00000360: 9a4b 00be 1843 34be b309 91be 3cbe 433e
00000370: 9b7a 58bd f3ee 45be aa56 80be 7ec7 9ebd
00000380: 587b acbe ad2d f0bd 72b9 113d 44ef 693e
00000390: ea86 873e 5ff2 1bbd e11a 29be 294c 0f3a
000003a0: 5147 70bd 8528 33be 7409 bcbd 7321 1d3e
000003b0: 21da 66bd 4a4d 7a3d 7d8d 1bbe 7141 0a3d
000003c0: 5e9a fa3d cf19 3e3e 8789 59bd 2bec 1f3c
000003d0: 66b7 253e 2282 c03d 04db ecbd 5a63 22bd
000003e0: 36d7 863e db73 1fbe 19e3 1bbe 57c1 babd
000003f0: 2254 7cbe 5263 833e bf7d 85be 4b36 073e

bias_ih f4 [150]
0.08754738 0.13488565 -0.062291067 0.09238074 -0.16198225 -0.19787566 0.11732026 0.10559747
-0.025964918 0.10765861 -0.12800513 0.09241847 0.090869814 0.028426562 -0.000594709 -0.061851725
0.15104792 -0.2650324 0.1471931 -2.3669925e-05 0.20587271 -0.18783902 0.10364338 0.007858067
-0.068550475 0.028721487 -0.21909083 0.0041176225 -0.18493079 0.10004867 0.053519845 -0.00053678034
-0.2039208 -0.06519546 -0.106210224 -0.011518831 0.024505392 0.18170457 0.18952899 -0.059522193
0.08177969 -0.00094990723 -0.080072366 0.14029849 -0.010684622 0.16402765 0.06830171 -0.009056528
0.14396258 0.09688602 -0.004895789 -0.0021113793 -0.06735927 -0.0013874882 -0.00739228 -0.2488392
0.15605389 -0.11261767 0.055852447 -0.014003329 -0.11102953 -0.10357482 0.016040798 -0.07213239
0.05047978 0.08310995 0.070150256 -0.14314839 -0.193061 0.04752733 -0.17659673 0.010585401
-0.23014653 -0.11361951 -0.08049729 -0.013621421 -0.28688043 0.0017398832 -0.12360057 -0.30689377
-0.02907967 -0.072242886 -0.15023014 0.052016646 -0.1192427 -0.13644789 -0.11530552 -0.018616045
0.121875994 -0.05990748 -0.21051046 -0.13204008 -0.22104903 -0.049139306 -0.0039313305 0.07409355
-0.08769593 -0.073793754 0.21284084 -0.09848845 -0.12687162 -0.004379672 0.045708966 0.056481306
0.037627395 0.26568404 0.019992605 -0.16161942 -0.036459893 0.28703886 -0.093044676 0.085407436
0.08681631 0.05646447 0.20563585 -0.073184945 -0.014812223 -0.10928889 -0.011851522 0.019823913
-0.15081537 -0.011550207 -0.091495834 -0.15428601 0.10374815 -0.13967228 0.09222991 -0.11193692
0.19858257 -0.059800707 0.038475957 -0.06377545 0.0984081 0.153618 -0.17320573 0.109168544
-0.163532 -0.06379938 0.007076956 0.10021146 -0.21683607 0.16407745 -0.106857 0.094555326
0.19433768 -0.14529854 0.01329239 0.06302881 0.02940948 -0.09076298
00000000: 0a4c b33d 771f 0a3e eb24 7fbd 1d32 bd3d
00000010: adde 25be eb9f 4abe 9b45 f03d 7d43 d83d
00000020: 61b4 d4bc 1e7c dc3d c713 03be e545 bd3d
00000030: f419 ba3d d2de e83c 3fe6 1bba 3c58 7dbd
00000040: 4eac 1a3e 54b2 87be cab9 163e c78e c6b7
00000050: 4cd0 523e df58 40be fb42 d43d 1fbf 003c
00000060: 3164 8cbd 5349 eb3c 5959 60be 1fed 863b
00000070: 7f5e 3dbe 51e6 cc3d a037 5b3d b8b6 0cba
00000080: 9dd0 50be 3385 85bd bf84 d9bd 7bb9 3cbc
00000090: 88bf c83c c310 3a3e e313 423e 8bcd 73bd
000000a0: 1c7c a73d 3203 79ba fbfc a3bd 68aa 0f3e
000000b0: 8e0e 2fbc ddf6 273e c4e1 8b3d d561 14bc
000000c0: ed6a 133e 2d6c c63d db6c a0bb 115f 0abb
000000d0: a8f3 89bd 61dc b5ba f03a f2bb b4cf 7ebe
000000e0: 97cc 1f3e 18a4 e6bd 89c5 643d 386e 65bc
000000f0: 7363 e3bd 091f d4bd fe67 833c 26ba 93bd
00000100: e3c3 4e3d 8d35 aa3d f0aa 8f3d 7e95 12be
00000110: c8b1 45be 05ac 423d c6d5 34be 646e 2d3c
00000120: 88ab 6bbe 58b1 e8bd c3db a4bd 612c 5fbc
00000130: fee1 92be cb0c e43a 4c22 fdbd 2e21 9dbe
00000140: 7d38 eebc 14f4 93bd eed5 19be 680f 553d
00000150: 8435 f4bd ffb8 0bbe 4d25 ecbd ad80 98bc
00000160: 1f9a f93d 8c61 75bd 0e90 57be 8435 07be
00000170: ad5a 62be 4c46 49bd 64d2 80bb 5cbe 973d
00000180: ec99 b3bd 2e21 97bd f3f2 593e 50b4 c9bd
00000190: a2ea 01be 5a83 8fbb 5339 3b3d f158 673d
000001a0: 2f1f 1a3d bd07 883e 88c7 a33c 907f 25be
000001b0: f856 15bd c2f6 923e 358e bebd 18ea ae3d
000001c0: c0cc b13d 4a47 673d 3492 523e fde1 95bd
000001d0: f7ae 72bc dbd2 dfbd e32c 42bc c265 a23c
000001e0: 586f 1abe 143d 3dbc 2b62 bbbd 27fd 1dbe
000001f0: e979 d43d 4006 0fbe 09e3 bc3d 2f3f e5bd
00000200: 3b59 4b3e 96f1 74bd f798 1d3d b49c 82bd
00000210: 308a c93d 094e 1d3e d85c 31be c293 df3d
00000220: ef74 27be 40a9 82bd cfe5 e73b aa3b cd3d
00000230: 460a 5ebe eb03 283e d8d7 dabd 39a6 c13d
00000240: 7500 473e 24c9 14be 53c8 593c 4015 813d
00000250: 26ec f03c f1e1 b9bd

bias_hh f4 [150]
-0.072264835 0.02044084 0.021767769 0.045829494 -0.0033186122 -0.16416006 -0.10486042 0.015950633
-0.091009974 0.21071702 -0.08403671 0.14609669 0.1173743 -0.13767634 -0.012289803 -0.25948748
0.11678556 -0.1811686 0.034052152 0.12700151 0.0059984094 -0.10407945 -0.008645852 0.11660761
0.0012966298 0.046226125 -0.19537495 0.070140295 -0.10056098 0.020349607 -0.0041510127 0.079013914
-0.08675661 0.056480665 0.04614246 0.18712898 -0.0034460176 0.025292791 0.2178074 0.044491094
0.0555855 0.10387926 -0.09940739 0.06409809 0.10144843 0.050793245 0.00030465666 0.1323462
0.089642905 -0.13942906 0.05275693 0.102963395 -0.220623 -0.14824209 0.12747845 -0.10782222
0.045906287 -0.1689002 -0.10194461 -0.1679714 -0.09404161 -0.040221248 -0.21197432 -0.13973795
-0.06644436 -0.08158461 -0.053433806 -0.006529175 -0.19491124 0.041328903 -0.079286605 -0.10382727
-0.12027987 -0.18565732 -0.19755433 0.0010542695 -0.22427201 0.014583195 -0.0027324148 -0.109379515
-0.17223418 0.04286647 -0.10903171 0.08637194 -0.208989 -0.03657404 0.059553783 -0.051688645
-0.07112073 0.05154774 -0.23923689 -0.012002369 -0.24044903 -0.07959231 0.12090674 -0.18790491
-0.22513123 0.053657267 0.22026967 0.062729836 0.11576441 0.0330082 -0.058932044 0.20038654
-0.07369502 0.053465422 0.17241567 0.019653872 0.0640528 0.29571182 0.04300787 0.07071914
-0.14179379 0.15792817 0.06524512 -0.044201426 -0.10159388 0.002546448 -0.093217045 0.07876544
-0.0074560023 0.062108234 -0.14153531 -0.17409736 -0.100141086 0.043399967 -0.11582488 -0.08953377
-0.06384018 -0.16265993 -0.017197538 -0.21877691 0.19031028 -0.01824261 0.21150187 -0.0683636
0.10197365 -0.06970402 0.12748519 0.10656447 -0.11901212 0.075516425 -0.008529207 0.16274123
0.05113678 -0.032163464 -0.06168432 -0.124962546 0.004168591 0.08175188
00000000: 96ff 93bd 8c73 a73c 5252 b23c b5b7 3b3d
00000010: 137d 59bb 9319 28be 0fc1 d6bd e7aa 823c
00000020: 7063 babd 34c6 573e 701b acbd 5f9a 153e
00000030: f061 f03d 07fb 0cbe 2b5b 49bc 8bdb 84be
00000040: 452d ef3d 4384 39be 457a 0b3d af0c 023e
00000050: 4e8e c43b 9b27 d5bd 55a7 0dbc f8cf ee3d
00000060: adf3 a93a 9b57 3d3d 5f10 48be b7a5 8f3d
00000070: eaf2 cdbd 38b4 a63c 3805 88bb 0cd2 a13d
00000080: 73ad b1bd 4558 673d e0ff 3c3d bd9e 3f3e
00000090: 95d6 61bb d432 cf3c e708 5f3e 4b3c 363d
000000a0: 9fad 633d a6be d43d 1a96 cbbd dc45 833d
000000b0: 32c4 cf3d 940c 503d 53ba 9f39 c385 073e
000000c0: b396 b73d 7ec6 0ebe a717 583d 79de d23d
000000d0: ffea 61be c6cc 17be b689 023e e5d1 dcbd
000000e0: 3b08 3c3d 2df4 2cbe 56c8 d0bd b200 2cbe
000000f0: e398 c0bd 09bf 24bd cc0f 59be 7717 0fbe
00000100: fb13 88bd d515 a7bd 68dd 5abd b1f2 d5bb
00000110: d096 47be 7f48 293d 0461 a2bd 64a3 d4bd
00000120: 4b55 f6bd f41c 3ebe af4b 4abe 6a2f 8a3a
00000130: 90a7 65be 5aee 6e3c 5012 33bb 5e02 e0bd
00000140: 285e 30be c094 2f3d 044c dfbd c6e3 b03d
00000150: 3601 56be a9ce 15bd abee 733d 79b7 53bd
00000160: bfa7 91bd b923 533d 84fa 74be 96a5 44bc
00000170: 4538 76be 4b01 a3bd f49d f73d 256a 40be
00000180: cd88 66be b9c7 5b3d 5f8e 613e 8078 803d
00000190: e415 ed3d 9b33 073d ba62 71bd 2132 4d3e
000001a0: 6aed 96bd 8ffe 5a3d bc8d 303e 2801 a13c
000001b0: 1d2e 833d 8a67 973e 0529 303d 32d5 903d
000001c0: 6432 11be ecb7 213e 3c9f 853d 8e0c 35bd
000001d0: 7410 d0bd 4fe2 263b 94e8 bebd c64f a13d
000001e0: 7b51 f4bb 3465 7e3d a2ee 10be 9446 32be
000001f0: c516 cdbd 2ac4 313d 9835 edbd 7b5d b7bd
00000200: a4be 82bd 5390 26be dae1 8cbc 0e07 60be
00000210: b3e0 423e 8771 95bc f293 583e 3702 8cbd
00000220: 90d7 d03d fbc0 8ebd 7a8b 023e 793e da3d
00000230: a0bc f3bd 5ba8 9a3d 16be 0bbc a3a5 263e
00000240: cd74 513d d6bd 03bd b3a8 7cbd 5dec ffbd
00000250: ad98 883b 886d a73d

weight f4 [2, 50]
0.0098123085 -0.23845385 -0.39989883 0.272385 -0.3006809 0.013340605 -0.18508565 -0.075905986
0.22711636 -0.3682038 0.2530075 -0.070669204 -0.16953118 0.4093877 -0.27958813 0.28895822
-0.13598455 0.2388637 0.40452448 -0.13555475 -0.1540588 0.31013462 0.33086103 -0.22713755
0.44809574 0.32854554 0.25044975 0.101638995 -0.303233 0.27132514 0.3769759 -0.4029995
0.3914531 -0.13616139 0.34300575 0.17001791 0.4105263 0.11300949 -0.07843711 0.0911759
-0.25045198 0.24468578 0.2352766 -0.15668471 -0.22786078 0.007919046 0.30481777 0.3580888
-0.038976543 0.38920152 0.16719751 0.049656663 0.38100934 -0.2517386 0.22708568 0.13365835
0.32247403 0.050887242 -0.38547292 0.3262151 -0.35722157 0.10463403 0.279121 -0.17602302
0.38711822 -0.29968882 -0.030777114 -0.3276175 -0.32329366 0.14583954 -0.008511772 -0.24382535
-0.086217664 0.22030972 -0.43094468 -0.3341596 -0.32303008 -0.078632735 0.38224724 -0.4284354
-0.3358066 0.27754295 -0.3956696 -0.022463702 -0.34753296 -0.18991317 -0.23872712 -0.15508297
-0.00045215146 0.01830567 0.08542343 -0.035281755 -0.38538888 -0.06906589 0.3554442 -0.18780957
-0.2926471 -0.20528328 0.09080399 -0.26132986
00000000: cec3 203c 3f2d 74be 8abf ccbe 0c76 8b3e
00000010: d9f2 99be 8e92 5a3c 1887 3dbe 9974 9bbd
00000020: 3191 683e 3585 bcbe 338a 813e 04bb 90bd
00000030: 9599 2dbe 449b d13e 2d26 8fbe 55f2 933e
00000040: 893f 0bbe b098 743e d51d cf3e ddce 0abe
00000050: 97c1 1dbe f7c9 9e3e 9e66 a93e bf96 68be
00000060: ce6c e53e 1f37 a83e f33a 803e 1b28 d03d
00000070: 5b41 9bbe 21eb 8a3e fc02 c13e f355 cebe
00000080: 8a6c c83e e46d 0bbe 739e af3e 2d19 2e3e
00000090: 8130 d23e 8571 e73d a3a3 a0bd 6eba ba3d
000000a0: 3e3b 80be e98e 7a3e 59ec 703e f571 20be
000000b0: 5654 69be e3be 013c 1311 9c3e 6a57 b73e
000000c0: dea5 1fbd 6c45 c73e d335 2b3e c964 4b3d
000000d0: a813 c33e e2e3 80be 2689 683e bcdd 083e
000000e0: 511b a53e 246f 503d b55c c5be aa05 a73e
000000f0: bfe5 b6be 5e4a d63d f3e8 8e3e 613f 34be
00000100: 5c34 c63e d070 99be 4920 fcbc 7bbd a7be
00000110: bf86 a5be f656 153e f674 0bbc 5aad 79be
00000120: e392 b0bd df98 613e c8a4 dcbe f816 abbe
00000130: 3364 a5be 330a a1bd e9b5 c33e e25b dbbe
00000140: d8ee abbe 1c1a 8e3e 3595 cabe cc05 b8bc
00000150: d7ef b1be 9978 42be e274 74be 12ce 1ebe
00000160: be0e edb9 c6f5 953c 7bf2 ae3d 9a83 10bd
00000170: b151 c5be 6b72 8dbd c8fc b53e 2751 40be
00000180: d7d5 95be c835 52be 71f7 b93d 07cd 85be

bias f4 [2]
0.08384695 -0.09961598
00000000: f3b7 ab3d 7703 ccbd

weight f4 [2, 50]
-0.036377113 -0.04798334 0.09480641 -0.13693032 0.2647436 0.17407252 -0.0937937 -0.19173726
0.066963114 -0.09767301 -0.055190384 -0.017154157 -0.09787636 -0.10504925 0.16842692 -0.17873111
-0.028271344 -0.22949243 0.05518914 -0.12757684 -0.03400348 -0.16035606 -0.062415887 -0.16529065
0.044123873 0.013089306 0.004066494 -0.022723233 0.13750193 0.02294052 0.026218677 0.15793583
-0.13730924 0.025073308 0.007297636 0.09966242 -0.057646092 -0.06412192 0.055993896 0.076224394
-0.17471753 0.0457372 -0.14797573 0.069751784 0.17111303 0.0024360516 0.022148188 -0.093856856
-0.03700034 -0.21753925 0.17973304 -0.08424111 0.011307611 -0.0064009177 -0.0894118 -0.13588631
0.01804416 0.014348918 0.07433091 0.16142724 0.07256584 -0.036348164 0.22912195 -0.097934626
-0.12059807 0.15877602 0.30408454 0.17319942 -0.14117719 0.16225424 0.012036087 0.101484306
-0.16342963 0.06315925 -0.098271556 0.06336659 -0.113586836 -0.008071951 -0.0058203875 -0.06910207
0.10821375 0.047289938 -0.1344153 0.24057405 0.0013827515 -0.38078538 0.035018332 -0.12831555
0.23643625 0.16747436 0.099545315 -0.26435924 -0.11122873 0.20577937 -0.038343128 -0.23787491
0.055742342 0.077460326 -0.21234284 0.11109809
00000000: 2b00 15bd 2e8a 44bd dd29 c23d 7637 0cbe
00000010: 798c 873e 1140 323e e916 c0bd c656 44be
00000020: f523 893d c908 c8bd 500f 62bd e086 8cbc
00000030: 6773 c8bd 1024 d7bd 1b78 2c3e 4a05 37be
00000040: 4e99 e7bc 1000 6bbe 020e 623d 81a3 02be
00000050: 3c47 0bbd 6134 24be cda7 7fbd f441 29be
00000060: 3cbb 343d 8774 563c 3940 853b 1326 babc
00000070: 4ecd 0c3e c2ed bb3c 8dc8 d63c eeb9 213e
00000080: cb9a 0cbe 8a66 cd3c 0221 ef3b d01b cc3d
00000090: 4f1e 6cbd 5a52 83bd db59 653d 891b 9c3d
000000a0: 27e9 32be ee56 3b3d f386 17be 06da 8e3d
000000b0: 4138 2f3e 2aa6 1f3b 1e70 b53c 0638 c0bd
000000c0: ab8d 17bd 9cc2 5ebe f00b 383e 9a86 acbd
000000d0: 8f43 393c cabe d1bb 891d b7bd c825 0bbe
000000e0: 59d1 933c b917 6b3c ce3a 983d 2f4d 253e
000000f0: 669d 943d d0e1 14bd f29e 6a3e f391 c8bd
00000100: 1ffc f6bd 2e96 223e f8b0 9b3e 305b 313e
00000110: c190 10be fa25 263e 0233 453c 01d7 cf3d
00000120: 195a 27be a359 813d 9942 c9bd 58c6 813d
00000130: 37a0 e8bd 3740 04bc f3b8 bebb 6385 8dbd
00000140: 2c9f dd3d 18b3 413d 2aa4 09be 0b59 763e
00000150: 713d b53a 4df6 c2be 626f 0f3d 2765 03be
00000160: 581c 723e 667e 2b3e 6ade cb3d 185a 87be
00000170: e3cb e3bd d4b7 523e af0d 1dbd 7b95 73be
00000180: 1552 643d 85a3 9e3d 6770 59be 6587 e33d

bias f4 [2]
0.20115136 -0.095903285
00000000: 9ffa 4d3e f168 c4bd

amplitudes f4 [10000, 2]
0.95177454 6.371724 0.95177454 6.371724 0.95177454 6.371724 0.95177454 6.371724
0.95177454 6.371724 0.95177454 6.371724 0.95177454 6.371724 0.95177454 6.371724
0.95177454 6.371724 0.95177454 6.371724 0.95177454 6.371724 0.95177454 6.371724
0.95177454 6.371724 0.95177454 6.371724 0.95177454 6.371724 0.95177454 6.371724
0.95177454 6.371724 0.95177454 6.371724 0.95177454 6.371724 0.95177454 6.371724
0.95177454 6.371724 0.95177454 6.371724 0.95177454 6.371724 0.95177454 6.371724
0.95177454 6.371724 0.95177454 6.371724 0.95177454 6.371724 0.95177454 6.371724
0.95177454 6.371724 0.95177454 6.371724 0.95177454 6.371724 0.95177454 6.371724
0.95177454 6.371724 0.95177454 6.371724 0.95177454 6.371724 0.95177454 6.371724
0.95177454 6.371724 0.95177454 6.371724 0.95177454 6.371724 0.95177454 6.371724
0.95177454 6.371724 0.95177454 6.371724 0.95177454 6.371724 0.95177454 6.371724
0.95177454 6.371724 0.95177454 6.371724 0.95177454 6.371724 0.95177454 6.371724
0.95177454 6.371724 0.95177454 6.371724 0.95177454 6.371724 0.95177454 6.371724
0.95177454 6.371724 0.95177454 6.371724 0.95177454 6.371724 0.95177454 6.371724
0.95177454 6.371724 0.95177454 6.371724 0.95177454 6.371724 0.95177454 6.371724
0.95177454 6.371724 0.95177454 6.371724 0.95177454 6.371724 0.95177454 6.371724
0.95177454 6.371724 0.95177454 6.371724 0.95177454 6.371724 0.95177454 6.371724
0.95177454 6.371724 0.95177454 6.371724 0.95177454 6.371724 0.95177454 6.371724
0.95177454 6.371724 0.95177454 6.371724 0.95177454 6.371724 0.95177454 6.371724
0.95177454 6.371724 0.95177454 6.371724 0.95177454 6.371724 0.95177454 6.371724
0.95177454 6.371724 0.95177454 6.371724 0.95177454 6.371724 0.95177454 6.371724
0.95177454 6.371724 0.95177454 6.371724 0.95177454 6.371724 0.95177454 6.371724
0.95177454 6.371724 0.95177454 6.371724 0.95177454 6.371724 0.95177454 6.371724
0.95177454 6.371724 0.95177454 6.371724 0.95177454 6.371724 0.95177454 6.371724
0.95177454 6.371724 0.95177454 6.371724 0.95177454 6.371724 0.95177454 6.371724
0.95177454 6.371724 0.95177454 6.371724 0.95177454 6.371724 0.95177454 6.371724
0.95177454 6.371724 0.95177454 6.371724 0.95177454 6.371724 0.95177454 6.371724
0.95177454 6.371724 0.95177454 6.371724 0.95177454 6.371724 0.95177454 6.371724
0.95177454 6.371724 0.95177454 6.371724 0.95177454 6.371724 0.95177454 6.371724
0.95177454 6.371724 0.95177454 6.371724 0.95177454 6.371724 0.95177454 6.371724
0.95177454 6.371724 0.95177454 6.371724 0.95177454 6.371724 0.95177454 6.371724
0.95177454 6.371724 0.95177454 6.371724 0.95177454 6.371724 0.95177454 6.371724
00000000: 7fa7 733f 2ae5 cb40 7fa7 733f 2ae5 cb40
00000010: 7fa7 733f 2ae5 cb40 7fa7 733f 2ae5 cb40
00000020: 7fa7 733f 2ae5 cb40 7fa7 733f 2ae5 cb40
00000030: 7fa7 733f 2ae5 cb40 7fa7 733f 2ae5 cb40
00000040: 7fa7 733f 2ae5 cb40 7fa7 733f 2ae5 cb40
00000050: 7fa7 733f 2ae5 cb40 7fa7 733f 2ae5 cb40
00000060: 7fa7 733f 2ae5 cb40 7fa7 733f 2ae5 cb40
00000070: 7fa7 733f 2ae5 cb40 7fa7 733f 2ae5 cb40
00000080: 7fa7 733f 2ae5 cb40 7fa7 733f 2ae5 cb40
00000090: 7fa7 733f 2ae5 cb40 7fa7 733f 2ae5 cb40
000000a0: 7fa7 733f 2ae5 cb40 7fa7 733f 2ae5 cb40
000000b0: 7fa7 733f 2ae5 cb40 7fa7 733f 2ae5 cb40
000000c0: 7fa7 733f 2ae5 cb40 7fa7 733f 2ae5 cb40
000000d0: 7fa7 733f 2ae5 cb40 7fa7 733f 2ae5 cb40
000000e0: 7fa7 733f 2ae5 cb40 7fa7 733f 2ae5 cb40
000000f0: 7fa7 733f 2ae5 cb40 7fa7 733f 2ae5 cb40
00000100: 7fa7 733f 2ae5 cb40 7fa7 733f 2ae5 cb40
00000110: 7fa7 733f 2ae5 cb40 7fa7 733f 2ae5 cb40
00000120: 7fa7 733f 2ae5 cb40 7fa7 733f 2ae5 cb40
00000130: 7fa7 733f 2ae5 cb40 7fa7 733f 2ae5 cb40
00000140: 7fa7 733f 2ae5 cb40 7fa7 733f 2ae5 cb40
00000150: 7fa7 733f 2ae5 cb40 7fa7 733f 2ae5 cb40
00000160: 7fa7 733f 2ae5 cb40 7fa7 733f 2ae5 cb40
00000170: 7fa7 733f 2ae5 cb40 7fa7 733f 2ae5 cb40
00000180: 7fa7 733f 2ae5 cb40 7fa7 733f 2ae5 cb40
00000190: 7fa7 733f 2ae5 cb40 7fa7 733f 2ae5 cb40
000001a0: 7fa7 733f 2ae5 cb40 7fa7 733f 2ae5 cb40
000001b0: 7fa7 733f 2ae5 cb40 7fa7 733f 2ae5 cb40
000001c0: 7fa7 733f 2ae5 cb40 7fa7 733f 2ae5 cb40
000001d0: 7fa7 733f 2ae5 cb40 7fa7 733f 2ae5 cb40
000001e0: 7fa7 733f 2ae5 cb40 7fa7 733f 2ae5 cb40
000001f0: 7fa7 733f 2ae5 cb40 7fa7 733f 2ae5 cb40
00000200: 7fa7 733f 2ae5 cb40 7fa7 733f 2ae5 cb40
00000210: 7fa7 733f 2ae5 cb40 7fa7 733f 2ae5 cb40
00000220: 7fa7 733f 2ae5 cb40 7fa7 733f 2ae5 cb40
00000230: 7fa7 733f 2ae5 cb40 7fa7 733f 2ae5 cb40
00000240: 7fa7 733f 2ae5 cb40 7fa7 733f 2ae5 cb40
00000250: 7fa7 733f 2ae5 cb40 7fa7 733f 2ae5 cb40
00000260: 7fa7 733f 2ae5 cb40 7fa7 733f 2ae5 cb40
00000270: 7fa7 733f 2ae5 cb40 7fa7 733f 2ae5 cb40
00000280: 7fa7 733f 2ae5 cb40 7fa7 733f 2ae5 cb40
00000290: 7fa7 733f 2ae5 cb40 7fa7 733f 2ae5 cb40
000002a0: 7fa7 733f 2ae5 cb40 7fa7 733f 2ae5 cb40
000002b0: 7fa7 733f 2ae5 cb40 7fa7 733f 2ae5 cb40
000002c0: 7fa7 733f 2ae5 cb40 7fa7 733f 2ae5 cb40
000002d0: 7fa7 733f 2ae5 cb40 7fa7 733f 2ae5 cb40
000002e0: 7fa7 733f 2ae5 cb40 7fa7 733f 2ae5 cb40
000002f0: 7fa7 733f 2ae5 cb40 7fa7 733f 2ae5 cb40
00000300: 7fa7 733f 2ae5 cb40 7fa7 733f 2ae5 cb40
00000310: 7fa7 733f 2ae5 cb40 7fa7 733f 2ae5 cb40
00000320: 7fa7 733f 2ae5 cb40 7fa7 733f 2ae5 cb40
00000330: 7fa7 733f 2ae5 cb40 7fa7 733f 2ae5 cb40
00000340: 7fa7 733f 2ae5 cb40 7fa7 733f 2ae5 cb40
00000350: 7fa7 733f 2ae5 cb40 7fa7 733f 2ae5 cb40
00000360: 7fa7 733f 2ae5 cb40 7fa7 733f 2ae5 cb40
00000370: 7fa7 733f 2ae5 cb40 7fa7 733f 2ae5 cb40
00000380: 7fa7 733f 2ae5 cb40 7fa7 733f 2ae5 cb40
00000390: 7fa7 733f 2ae5 cb40 7fa7 733f 2ae5 cb40
000003a0: 7fa7 733f 2ae5 cb40 7fa7 733f 2ae5 cb40
000003b0: 7fa7 733f 2ae5 cb40 7fa7 733f 2ae5 cb40
000003c0: 7fa7 733f 2ae5 cb40 7fa7 733f 2ae5 cb40
000003d0: 7fa7 733f 2ae5 cb40 7fa7 733f 2ae5 cb40
000003e0: 7fa7 733f 2ae5 cb40 7fa7 733f 2ae5 cb40
000003f0: 7fa7 733f 2ae5 cb40 7fa7 733f 2ae5 cb40
