data/RNN_runs/sweep_H2/rnn_sto3g_H2_0-7348_eq1_nU25_nL2_lr001_lrsO_ns10000.pt (torch_old, 444626 bytes, 13 tensors)

weight_ih f4 [75, 2]
-0.19247042 0.2893529 -0.22712784 0.41952518 -0.072839946 0.22900243 -0.022120964 -0.13633373
-0.20446521 0.14122689 -0.09727692 0.3390414 -0.081042066 -0.15501486 -0.12826557 0.14747901
-0.10204867 0.26957843 0.13277197 0.10047313 0.1095057 0.19536346 0.27355537 0.35933772
-0.13619857 0.3629528 -0.20518613 0.4532439 0.16544165 -0.30433398 0.08267576 0.3688863
0.12621087 0.02201901 0.07904739 0.28032884 -0.24184239 0.21929358 -0.26348063 0.33054277
-0.015987989 0.027649226 -0.10652202 0.50845677 -0.078624845 0.27009934 -0.13134061 0.34336147
0.06184734 0.41478217 0.041350123 -0.24284486 0.022435324 -0.26801872 0.070894696 -0.31613117
-0.30312172 -0.20351481 0.05632993 -0.4635541 -0.10513821 -0.15508223 -0.27363056 -0.46917424
-0.05889028 -0.27743706 -0.24712671 -0.3631158 -0.3845147 -0.25095502 0.20634201 -0.18460087
-0.3336948 -0.42484388 0.026626522 -0.28640735 0.109099396 -0.5272462 0.027370026 -0.15743418
0.14569135 -0.29363254 0.063384995 -0.24062112 -0.08881828 -0.40407935 -0.06550579 -0.110748455
0.2525819 -0.23703758 -0.2602465 0.013625512 0.16423184 -0.12267537 -0.029276159 -0.24370778
0.23342218 -0.19465587 0.23329806 -0.35412255 0.26675802 -0.42014647 0.15948008 -0.4250164
-0.0014670393 -0.16212486 -0.13058399 0.5226283 0.021082824 0.25458825 0.2860836 -0.39715758
0.21391676 -0.3233377 -0.13015085 0.2784244 -0.3215949 0.35202035 -0.11573221 0.48159093
-0.18801813 0.35888866 0.3681163 -0.35305092 0.30965352 -0.3698595 -0.040837973 0.3692477
-0.03957453 0.43346688 -0.011816052 -0.19125554 -0.031762224 0.08112546 0.093655944 -0.42371494
0.020677522 0.26047438 0.14431752 -0.33573192 0.044262458 -0.19789553 0.14816265 -0.073006496
0.17437564 -0.3650484 -0.25022617 0.30790162 -0.27121747 0.115302406
00000000: f716 45be 1026 943e 3394 68be 01cc d63e
00000010: 1c2d 95bd 9d7f 6a3e 0637 b5bc 129b 0bbe
00000020: 545f 51be c89d 103e 1f39 c7bd d696 ad3e
00000030: 62f9 a5bd 37bc 1ebe 0d58 03be bd04 173e
00000040: e5fe d0bd 2f06 8a3e 60f5 073e dbc4 cd3d
00000050: 8644 e03d 5c0d 483e 730f 8c3e 1dfb b73e
00000060: a377 0bbe f3d4 b93e 501c 52be 960f e83e
00000070: 8969 293e aad1 9bbe e951 a93d aade bc3e
00000080: 6c3d 013e 3661 b43c 99e3 a13d 4387 8f3e
00000090: 88a5 77be 7f8e 603e efe6 86be e73c a93e
000000a0: 3ef9 82bc a180 e23c 3828 dabd 392a 023f
000000b0: 1006 a1bd 764a 8a3e 277e 06be 13cd af3e
000000c0: a353 7d3d 545e d43e bf5e 293d 53ac 78be
000000d0: 49ca b73c c039 89be 3d31 913d f2db a1be
000000e0: c532 9bbe 3066 50be 36ba 663d f756 edbe
000000f0: b452 d7bd e0cd 1ebe 4e19 8cbe 9b37 f0be
00000100: ef36 71bd 3b0c 8ebe c90e 7dbe 50ea b9be
00000110: 1cdf c4be 2d7d 80be 524b 533e 0308 3dbe
00000120: 0bda aabe 2385 d9be dd1f da3c fca3 92be
00000130: 816f df3d 9bf9 06bf 1b37 e03c 6d36 21be
00000140: 1d30 153e 0157 96be fecf 813d 6265 76be
00000150: 5ce6 b5bd 7de3 cebe e627 86bd 16d0 e2bd
00000160: 6a52 813e fbb9 72be 073f 85be 8a3d 5f3c
00000170: 642c 283e 393d fbbd 8ed4 efbc 888e 79be
00000180: 3906 6f3e de53 47be b0e5 6e3e 8d4f b5be
00000190: 8294 883e 701d d7be bf4e 233e c09b d9be
000001a0: ac49 c0ba 0f04 26be cfb7 05be f8ca 053f
000001b0: e3b5 ac3c 6459 823e 8d79 923e 3d58 cbbe
000001c0: ff0c 5b3e 858c a5be 4446 05be a58d 8e3e
000001d0: 16a8 a4be 033c b43e 0205 edbd 1693 f63e
000001e0: d387 40be 41c0 b73e bd79 bc3e 17c3 b4be
000001f0: e88a 9e3e 395e bdbe b845 27bd 090e bd3e
00000200: e718 22bd 5fef dd3e 1d98 41bc 7ed8 43be
00000210: 1b19 02bd 1b25 a63d b0ce bf3d 2af1 d8be
00000220: e863 a93c e65c 853e f9c7 133e 0ee5 abbe
00000230: 8d4c 353d 20a5 4abe f3b7 173e 6e84 95bd
00000240: 878f 323e a0e7 babe a51d 80be 48a5 9d3e
00000250: 04dd 8abe ab23 ec3d

weight_hh f4 [75, 25]
-0.2631539 -0.15757251 -0.16050413 0.015841575 0.20410582 0.13450345 -0.10980286 0.11803566
-0.38766956 -0.007428842 0.12216337 0.43194604 -0.24450637 0.26460055 0.2761601 0.010613557
0.19451429 0.068915956 0.28915754 -0.0032399998 -0.0021827223 -0.35872614 -0.1325716 0.15299201
-0.016971907 -0.25242728 -0.28211057 -0.2656501 0.025318135 0.18773724 -0.032736994 0.037639137
0.23454411 -0.3974427 -0.29875782 0.017057901 0.14363426 -0.00042123924 0.26900446 -0.07391904
-0.36049384 0.018142996 -0.05210024 0.35519022 -0.3214335 -0.06581794 -0.18503466 -0.2723748
0.29384562 0.17262375 -0.17300996 -0.09258184 -0.07852485 -0.029097179 -0.028620163 -0.11033917
-0.109693274 0.12596142 0.06732679 0.23275836 0.06183019 -0.12121533 -0.035002805 -0.005948496
0.17865153 -0.16846944 0.22108364 -0.21213873 0.13532865 -0.09810477 -0.29581892 -0.25604683
-0.04667783 0.054448616 0.2123894 -0.40740773 -0.31940502 -0.3052199 0.29974648 0.21249196
-0.24005406 -0.23657325 0.056464676 0.20094441 0.22201507 0.07138268 0.018216252 -0.21107362
0.022803849 0.31733012 -0.11791586 0.21928906 -0.36307535 0.22667961 -0.06981918 0.0012648002
-0.32739925 -0.30346757 0.3732444 0.34164125 -0.035966493 -0.254985 -0.0036828367 -0.23040727
0.15863049 -0.1074176 -0.072436966 0.0023364443 -0.013170587 0.1281364 0.0043624905 0.2790602
-0.2532092 0.3538761 0.26486263 -0.06294306 0.3144659 -0.19086024 0.28910318 -0.1740097
-0.15581919 -0.16645442 -0.097883515 0.11287418 0.1276353 -0.31138578 -0.17566942 -0.19379559
-0.109924346 -0.020454995 0.08708646 -0.2523217 0.3305532 -0.19512282 -0.024658047 0.27353674
0.26093265 -0.17413484 -0.009840839 0.054796122 -0.01642845 0.12254236 0.010444351 0.13664356
-0.18417354 0.013842248 -0.2075542 -0.1433017 0.28261605 0.23235507 -0.18291923 -0.11054461
0.0093093375 0.21646586 0.12686452 -0.09247104 -0.17700297 0.018346058 0.0216488 0.25308886
0.17568423 0.10458651 -0.28498185 0.37250608 0.087041415 -0.15571244 0.13999143 -0.2939574
0.27582443 -0.24879633 -0.2525963 -0.3428688 -0.029706364 0.30634376 0.33491653 -0.32773265
-0.044012453 -0.11981176 -0.21553297 0.16473427 -0.051258925 -0.17796898 0.054668184 0.020122632
-0.12627837 0.12322379 0.08711989 -0.25804102 0.3354323 0.21710724 -0.20561865 0.33850613
-0.2578868 -0.0016406723 -0.3700885 0.022888709 -0.3242317 -0.03158121 0.3264706 0.22963625
-0.043203477 -0.25299117 -0.027084554 0.053773556 0.21714494 -0.037664067 -0.2949684 0.38068023
0.13715847 0.19357494 0.3774231 0.098264314 -0.2892742 0.268032 0.25343192 -0.08641586
0.3550149 -0.07472865 0.36794716 -0.40951967 -0.04972244 -0.2912828 -0.0726265 0.35093236
0.11822804 -0.24933474 -0.21452257 -0.04805039 0.06935953 0.23329253 -0.13097176 -0.11765916
0.32704386 0.19227879 0.06301409 0.3631701 -0.25834146 -0.3474692 0.22955725 0.28512168
-0.10996992 0.17236301 -0.3413119 0.2041695 -0.16419066 -0.320282 -0.2615547 -0.13080911
0.102908224 0.13948643 -0.016909527 -0.3083208 -0.358899 0.06833406 0.097639814 -0.11641417
00000000: 1cbc 86be b05a 21be 325b 24be 31c6 813c
00000010: 1e01 513e 46bb 093e 52e0 e0bd aebc f13d
00000020: a07c c6be a56d f3bb ca30 fa3d 0828 dd3e
00000030: e15f 7abe b979 873e db64 8d3e 7ce4 2d3c
00000040: c12e 473e cf23 8d3d 750c 943e 2d56 54bb
00000050: 010c 0fbb f4aa b7be d9c0 07be f0a9 1c3e
00000060: ab08 8bbc 263e 81be cc70 90be 4a03 88be
00000070: fa67 cf3c 313e 403e 3a17 06bd 7f2b 1a3d
00000080: 552c 703e 9c7d cbbe c9f6 98be 03bd 8b3c
00000090: dc14 133e c6d9 dcb9 f4ba 893e de62 97bd
000000a0: a692 b8be 9fa0 943c 1067 55bd 7edb b53e
000000b0: ef92 a4be 8ecb 86bd ba79 3dbe b674 8bbe
000000c0: ef72 963e 48c4 303e 8629 31be 8c9b bdbd
000000d0: a3d1 a0bd 355d eebc d574 eabc 81f9 e1bd
000000e0: dea6 e0bd 08fc 003e a1e2 893d 3558 6e3e
000000f0: a741 7d3d be3f f8bd 1a5f 0fbd 9aeb c2bb
00000100: 6df0 363e 4183 2cbe c063 623e e53a 59be
00000110: 9893 0a3e 27eb c8bd 9475 97be 9218 83be
00000120: 4131 3fbd 8305 5f3d 9b7c 593e bf97 d0be
00000130: 0e89 a3be c845 9cbe 5f78 993e 7e97 593e
00000140: bbd0 75be 4240 72be 8147 673d 5fc4 4d3e
00000150: eb57 633e 1531 923d 403a 953c af23 58be
00000160: 23cf ba3c 1879 a23e df7d f1bd 508d 603e
00000170: 03e5 b9be b31e 683e 5cfd 8ebd a7c7 a53a
00000180: e0a0 a7be 1a60 9bbe e419 bf3e 9aeb ae3e
00000190: 9a51 13bd 658d 82be bf5b 71bb e2ef 6bbe
000001a0: 0870 223e c2fd dbbd d559 94bd 081f 193b
000001b0: 72c9 57bc 3036 033e 39f3 8e3b fbe0 8e3e
000001c0: a3a4 81be 402f b53e 139c 873e 4be8 80bd
000001d0: ad01 a13e de70 43be 5505 943e 992f 32be
000001e0: 118f 1fbe 0773 2abe 2777 c8bd 942a e73d
000001f0: d4b2 023e f56d 9fbe afe2 33be 5a72 46be
00000200: 0420 e1bd 3c91 a7bc 635a b23d 4f30 81be
00000210: 453e a93e 47ce 47be acff c9bc 020d 8c3e
00000220: f798 853e 6750 32be 783b 21bc e671 603d
00000230: f594 86bc 7df7 fa3d c81e 2b3c 4aec 0b3e
00000240: fd97 3cbe 99ca 623c 1789 54be aebd 12be
00000250: 0db3 903e 7dee 6d3e 2e4f 3bbe 3665 e2bd
00000260: 3186 183c 3aa9 5d3e c6e8 013e 7561 bdbd
00000270: 4440 35be 794a 963c d358 b13c dd94 813e
00000280: 91e6 333e 7431 d63d 24e9 91be 1eb9 be3e
00000290: c542 b23d 1573 1fbe ea59 0f3e 9681 96be
000002a0: dc38 8d3e 77c4 7ebe 4d54 81be 808c afbe
000002b0: c35a f3bc 17d9 9c3e 2e7a ab3e 93cc a7be
000002c0: 6746 34bd de5f f5bd adb4 5cbe 1ab0 283e
000002d0: e1f4 51bd 803d 36be bfeb 5f3d 38d8 a43c
000002e0: 1e4f 01be c15c fc3d ea6b b23d f41d 84be
000002f0: c8bd ab3e 5c51 5e3e b28d 52be ad50 ad3e
00000300: bd09 84be d40b d7ba 3d7c bdbe 1a81 bb3c
00000310: b301 a6be 4d5b 01bd 2827 a73e c425 6b3e
00000320: 21f6 30bd 0f88 81be 6de0 ddbc a941 5c3d
00000330: 3e5b 5e3e a345 1abd 1906 97be 85e8 c23e
00000340: 4573 0c3e 8238 463e 9a3d c13e cd3e c93d
00000350: bf1b 94be 7e3b 893e d4c1 813e ccfa b0bd
00000360: 83c4 b53e 560b 99bd 9263 bc3e 90ac d1be
00000370: c2a9 4bbd 0523 95be 34bd 94bd 68ad b33e
00000380: 8b21 f23d 9b51 7fbe ceab 5bbe 7cd0 44bd
00000390: 5f0c 8e3d 3de4 6e3e 761d 06be 49f7 f0bd
000003a0: 4b72 a73e bbe4 443e 880d 813d 6ef1 b93e
000003b0: 5545 84be 7ce7 b1be 0e11 6b3e 78fb 913e
000003c0: e937 e1bd ee7f 303e 6fc0 aebe cf11 513e
000003d0: 9921 28be 01fc a3be 7fea 85be d3f2 05be
000003e0: 8cc1 d23d 88d5 0e3e d985 8abc 39dc 9dbe
000003f0: 9cc1 b7be baf2 8b3d 62f7 c73d 8d6a eebd

bias_ih f4 [75]
0.0026222623 0.064122364 -0.107705936 0.19267246 0.12031629 -0.041532613 -0.09519493 0.15771471
0.063070275 0.30119154 0.034925 0.38598347 0.18017307 0.3443713 -0.1724619 0.12086564
-0.07963401 0.3690119 0.1936931 0.01911401 0.22245932 0.32918367 -0.03815505 0.20383273
0.02450536 -0.27317548 -0.27569 0.06599411 -0.43133944 -0.160086 -0.40945187 -0.41548344
-0.44110566 -0.27895847 -0.21615982 -0.41674316 -0.2200582 -0.33842605 -0.42797697 -0.2552001
-0.40445903 -0.0472624 -0.35239178 -0.039455578 -0.27033108 -0.33807188 -0.03060787 -0.31341037
-0.4617102 -0.09846109 -0.14820549 -0.15762757 -0.26333636 0.17400852 0.36424974 -0.3385273
-0.3896104 0.3369791 0.20574775 0.19224805 0.34768537 -0.16579154 -0.28185987 0.17310344
0.33029434 -0.2589422 0.33658066 -0.025776666 0.30563778 -0.21090358 -0.18833789 -0.31500587
-0.32936433 0.21808423 0.33806154
00000000: 43da 2b3b 9652 833d ee94 dcbd ee4b 453e
00000010: 6368 f63d 1a1e 2abd 8ff5 c2bd f77f 213e
00000020: fd2a 813d c735 9a3e 840d 0f3d a09f c53e
00000030: 4a7f 383e 6f51 b03e da99 30be 6888 f73d
00000040: 2817 a3bd 21ef bc3e 7c57 463e fc94 9c3c
00000050: 60cc 633e c38a a83e 7848 1cbd 87b9 503e
00000060: 77bf c83c a8dd 8bbe 3d27 8dbe ec27 873d
00000070: 86d8 dcbe 96ed 23be ada3 d1be 3fba d4be
00000080: 9ad8 e1be a5d3 8ebe 0059 5dbe 5c5f d5be
00000090: f056 61be 2e46 adbe cc1f dbbe 96a9 82be
000000a0: 4115 cfbe 3896 41bd b26c b4be 2c9c 21bd
000000b0: d668 8abe c217 adbe 5bbd fabc 5377 a0be
000000c0: 4865 ecbe f8a5 c9bd 2ec3 17be 1f69 21be
000000d0: 06d4 86be 4a2f 323e f17e ba3e 7353 adbe
000000e0: 047b c7be 8688 ac3e 8aaf 523e acdc 443e
000000f0: d103 b23e 42c5 29be f04f 90be 0742 313e
00000100: 571c a93e 1294 84be 4d54 ac3e 9629 d3bc
00000110: 8e7c 9c3e 1cf7 57be a6db 40be 7348 a1be
00000120: 71a2 a8be 7951 5f3e 6716 ad3e

bias_hh f4 [75]
0.2100486 0.20999491 -0.10959691 0.26115134 -0.08077697 0.18124302 -0.06554056 0.06511299
0.21119401 0.14960572 -0.0012971181 0.3037257 0.179368 0.33417103 -0.23755378 0.3872208
-0.18567519 0.06915922 0.13962048 -0.013632043 0.24914223 0.16891775 0.0940214 0.25896367
0.2389738 -0.12791999 -0.20251898 -0.044933062 -0.558381 -0.15701039 -0.37543553 -0.31115732
-0.11053912 -0.41547984 -0.36311546 -0.4707672 -0.22932076 -0.35101098 -0.35977554 -0.26549184
-0.20015468 -0.11804614 -0.12272265 -0.07425542 -0.112443365 -0.25845584 -0.3751641 -0.123878315
-0.15246184 -0.16265786 -0.32815236 -0.313937 0.08891172 0.12157686 0.06941946 -0.18653464
-0.052933954 0.10413818 0.20140488 0.12855735 0.0986744 -0.21289678 -0.21072392 0.31358913
0.021947028 -0.25620753 -0.007948875 -0.40540117 0.24791203 -0.23320471 -0.2812156 -0.22369358
-0.11551057 0.3715711 0.3337814
00000000: fb16 573e e808 573e 5874 e0bd a1b5 853e
00000010: 656e a5bd c597 393e 213a 86bd f659 853d
00000020: 3e43 583e 3e32 193e 1004 aaba ef81 9b3e
00000030: 3fac 373e 7718 ab3e 4c41 73be ce41 c63e
00000040: a321 3ebe 59a3 8d3d acf8 0e3e ef58 5fbc
00000050: 241f 7f3e c6f8 2c3e 4b8e c03d e396 843e
00000060: 8cb5 743e 75fd 02be 2361 4fbe bb0b 38bd
00000070: 0ff2 0ebf 55c7 20be 1639 c0be 0350 9fbe
00000080: 5662 e2bd c6b9 d4be 45ea b9be 6608 f1be
00000090: 10d3 6abe b6b7 b3be 8034 b8be 8cee 87be
000000a0: 59f5 4cbe 2dc2 f1bd 0356 fbbd 3a13 98bd
000000b0: b548 e6bd 5354 84be 8215 c0be eab3 fdbd
000000c0: f51e 1cbe c88f 26be 9603 a8be 5abc a0be
000000d0: 5917 b63d 4afd f83d ca2b 8e3d f002 3fbe
000000e0: 46d1 58bd 6646 d53d 153d 4e3e 8aa4 033e
000000f0: ce15 ca3d 9d01 5abe 03c8 57be c18e a03e
00000100: 41ca b33c a22d 83be 003c 02bc be90 cfbe
00000110: a7dc 7d3e 37cd 6ebe 7efb 8fbe ee0f 65be
00000120: ce90 ecbd 913e be3e 65e5 aa3e

weight_ih f4 [75, 25]
-0.42208827 -0.19792388 -0.35079163 0.34557897 0.31035087 -0.44198528 -0.2312838 0.26316738
0.101434305 -0.01365661 0.408588 -0.123575605 -0.16983016 0.32927015 0.010489113 -0.23171413
0.032076474 -0.037453655 0.08518548 -0.3867362 -0.38154364 -0.15782775 -0.029873952 0.07531062
0.10719816 0.0050207097 0.3827153 0.14560445 -0.15382259 0.09450761 0.2751906 0.3474701
-0.159111 -0.14008738 -0.35861868 -0.20272608 0.15596922 0.09722137 -0.24574514 -0.16545264
0.18992719 0.03207655 0.15091456 -0.04486206 0.05983844 0.22592534 -0.03802454 0.019547008
-0.047376502 -0.30002195 -0.18494487 -0.023304086 -0.033394758 0.092090964 0.16112876 -0.16080058
0.07560148 0.00052529626 0.09594755 0.32326558 -0.05492971 -0.23449932 -0.009235901 -0.07391928
0.1136343 -0.12718497 0.11448185 -0.06736217 0.14946732 -0.27955058 0.022358457 -0.0150850145
0.018907716 0.042244416 0.28284362 0.013783635 -0.057189275 -0.1724638 0.30015147 -0.105765
-0.0025526232 -0.038963456 0.20178533 0.2693351 0.28970167 0.010172212 0.13669744 -0.08961859
0.14825173 0.16794822 -0.12755409 0.31735086 -0.20028861 0.20261003 0.006776625 0.075251065
-0.19586948 -0.14845379 0.010444427 -0.001980336 -0.15207997 -0.21310411 -0.03222071 0.12978764
0.22374916 -0.27373907 -0.159497 0.050298825 0.32526463 0.40877005 0.048284058 -0.21361199
-0.2895602 0.33321106 0.10932055 -0.21320821 -0.08622893 -0.24288574 0.18485408 -0.11762624
0.011126108 0.09214488 -0.14591588 0.2682339 0.10295736 -0.1321506 -0.08181532 -0.14363238
0.25201815 -0.004211231 -0.114175476 -0.03648319 0.36285868 0.19700097 0.13362353 0.20512842
-0.15687227 -0.2960066 0.3677855 0.17630005 -0.296345 0.1084127 -0.12416781 0.113834776
-0.064773776 -0.047647938 -0.3309363 -0.24252738 0.25261822 0.1727868 -0.045367334 -0.09278042
-0.27154273 0.26018375 0.010750889 -0.3610894 -0.36126044 0.14976451 0.3214251 0.17323327
0.12509872 0.01166081 0.015834222 0.1297038 0.08534213 0.067161486 0.069922216 0.012524592
0.2414199 -0.08609412 -0.14744139 -0.06786853 -0.17733288 0.33383656 0.21464978 0.049838077
-0.1949912 0.17063792 0.25640544 -0.14357078 -0.0031044486 -0.04613214 -0.07699423 0.071588024
0.18557294 0.03440403 -0.21791863 -0.23127514 -0.07962271 0.061623465 0.15615289 0.15797402
-0.16293074 0.18475465 -0.20341927 -0.103144415 -0.24445458 0.007747555 -0.05762798 0.16482118
-0.3193021 -0.20923622 -0.22396249 0.3082068 0.046955336 -0.115603104 -0.32534203 0.13340148
0.38608566 0.25966224 0.037177462 -0.2642347 -0.36908445 0.16351414 0.2340762 0.009775929
0.09360181 -0.32841465 0.05653276 -0.23127186 -0.30952263 0.045699395 0.06400429 0.16542071
0.2972907 -0.12782249 -0.32600582 -0.1790167 0.10786493 0.02956484 -0.42369276 -0.25572804
0.2605189 0.38876027 0.31693575 0.32334706 0.01922719 -0.043893516 0.31875134 0.2974403
-0.061251253 0.14649197 -0.33984447 0.0259697 -0.34988543 0.026167471 -0.07259949 -0.24871542
0.15865995 0.33355555 -0.25678954 -0.4441128 0.10871561 0.3638792 0.05400942 -0.20586146
00000000: f41b d8be 8fac 4abe f69a b3be baef b03e
00000010: 4fe6 9e3e e54b e2be a9d5 6cbe e0bd 863e
00000020: cabc cf3d f9bf 5fbc 7232 d13e 3515 fdbd
00000030: f5e7 2dbe 1996 a83e 87da 2b3c 7846 6dbe
00000040: 9f62 033d 0169 19bd ba75 ae3d 4a02 c6be
00000050: b059 c3be 999d 21be 38ba f4bc 743c 9a3d
00000060: b58a db3d c484 a43b 43f3 c33e 5519 153e
00000070: ab83 1dbe 358d c13d c8e5 8c3e 9ae7 b13e
00000080: feed 22be 1173 0fbe de9c b7be 6d97 4fbe
00000090: 65b6 1f3e ff1b c73d 9da4 7bbe 6b6c 29be
000000a0: 467c 423e b362 033d 5989 1a3e 48c1 37bd
000000b0: 2719 753d f958 673e 9fbf 1bbd 0c21 a03c
000000c0: dd0d 42bd 7a9c 99be 3062 3dbe 36e8 bebc
000000d0: f1c8 08bd 309a bc3d f0fe 243e e8a8 24be
000000e0: f3d4 9a3d 09b4 093a 2680 c43d 1183 a53e
000000f0: fafd 60bd 9720 70be 2d52 17bc fe62 97bd
00000100: 1ab9 e83d c73c 02be 7675 ea3d 2df5 89bd
00000110: f60d 193e 4121 8fbe 1529 b73c 2327 77bc
00000120: 5be4 9a3c 7b08 2d3d e1d0 903e c1d4 613c
00000130: 4d3f 6abd 5a9a 30be 74ad 993e 529b d8bd
00000140: e949 27bb 2598 1fbd d0a0 4e3e 4ae6 893e
00000150: c753 943e 59a9 263c 6afa 0b3e f489 b7bd
00000160: 4dcf 173e 9efa 2b3e 8a9d 02be d07b a23e
00000170: 7518 4dbe 0179 4f3e 730e de3b 3b1d 9a3d
00000180: 0292 48be 4504 18be 1a1f 2b3c 86c8 01bb
00000190: daba 1bbe f737 5abe ddf9 03bd 0de7 043e
000001a0: 801e 653e 8727 8cbe 2e53 23be 2406 4e3d
000001b0: 1689 a63e 4f4a d13e 81c5 453d 1abd 5abe
000001c0: 3c41 94be a49a aa3e 74e3 df3d 4153 5abe
000001d0: cb98 b0bd 0ab7 78be 634a 3d3e 07e6 f0bd
000001e0: 474a 363c 74b6 bc3d f96a 15be f455 893e
000001f0: 4fdb d23d 7d52 07be ca8e a7bd 5e14 13be
00000200: 8608 813e 5efe 89bb d5d4 e9bd 666f 15bd
00000210: 9dc8 b93e 9fba 493e 9bd4 083e 2f0d 523e
00000220: 20a3 20be 2d8e 97be 624e bc3e 0088 343e
00000230: 88ba 97be 7a07 de3d b14b febd 3522 e93d
00000240: 1da8 84bd 7c2a 43bd 7c70 a9be 1959 78be
00000250: 2d57 813e 06ef 303e 19d3 39bd a903 bebd
00000260: a607 8bbe ce36 853e 7f24 303c b6e0 b8be
00000270: 21f7 b8be de5b 193e d591 a43e 1064 313e
00000280: e119 003e fb0c 3f3c c5b6 813c 13d1 043e
00000290: dbc7 ae3d f68b 893d 6133 8f3d f233 4d3c
000002a0: c736 773e 1d52 b0bd e0fa 16be a8fe 8abd
000002b0: c096 35be a0ec aa3e 27cd 5b3e 0323 4c3d
000002c0: c6ab 47be b5bb 2e3e 9347 833e 3804 13be
000002d0: 0174 4bbb 0ef5 3cbd 27af 9dbd be9c 923d
000002e0: d506 3e3e 3deb 0c3d 1026 5fbe 64d3 6cbe
000002f0: 3b11 a3bd e368 7c3d 8be6 1f3e f1c3 213e
00000300: 51d7 26be 5330 3d3e 244d 50be 613d d3bd
00000310: 4d52 7abe 34df fd3b 510b 6cbd e2c6 283e
00000320: 917b a3be 0542 56be 6c56 65be 48cd 9d3e
00000330: 3d54 403d 52c1 ecbd 3b93 a6be 669a 083e
00000340: 05ad c53e 73f2 843e 6547 183d c549 87be
00000350: a3f8 bcbe 4070 273e acb1 6f3e 382b 203c
00000360: 4eb2 bf3d f725 a8be e58e 673d 88d2 6cbe
00000370: c079 9ebe 4a2f 3b3d ae14 833d 0c64 293e
00000380: 7d36 983e e6e3 02be 3cea a6be 2750 37be
00000390: 4ae8 dc3d f731 f23c 42ee d8be c9ee 82be
000003a0: bc62 853e 960b c73e 6745 a23e bf8d a53e
000003b0: 5782 9d3c b0c9 33bd 6033 a33e 184a 983e
000003c0: 98e2 7abd fe01 163e 1800 aebe 69be d43c
000003d0: 2f24 b3be 2a5d d63c 0baf 94bd 41af 7ebe
000003e0: c177 223e cbc7 aa3e eb79 83be c162 e3be
000003f0: 4aa6 de3d 604e ba3e fb38 5d3d 59cd 52be

weight_hh f4 [75, 25]
-0.29236355 -0.083872214 -0.2904951 -0.08732823 -0.111100726 -0.17732213 -0.24149123 -0.021135023
0.12418682 0.33298323 0.071930856 0.03253403 0.01873119 -0.18931043 -0.035047036 0.29361132
0.2476493 0.029574303 0.003538464 -0.10915156 0.05808943 -0.057410575 -0.08093844 -0.12386371
-0.034226086 -0.15970537 -0.18016955 0.16658553 -0.08222591 0.014432934 -0.07645655 0.10290518
-0.0051831054 -0.012522579 0.14388698 -0.279117 0.15870667 -0.03884218 0.16815037 0.052746344
0.25673044 -0.10820486 -0.07715298 -0.16959998 -0.14693652 0.05404474 0.07886475 -0.118342414
-0.17639594 -0.009853316 -0.048681498 -0.06798752 -0.318585 -0.010485778 -0.07221771 -0.03652524
-0.21220285 -0.122131094 0.27363366 0.27072456 0.02211202 -0.09739602 -0.16760151 -0.21153517
0.15301241 -0.019638002 -0.114757776 0.26270953 0.33217958 -0.041629452 0.09991912 -0.07006687
-0.07186956 -0.18262969 0.046259306 -0.27975348 -0.07922994 -0.0782301 -0.3081853 -0.23543459
-0.1224828 -0.098274805 -0.08764508 0.0079732705 0.14596152 0.18853204 -0.054711964 0.08592217
-0.36139485 0.34834 0.18350178 0.015616811 0.07780847 0.06849067 -0.2594633 -0.21985134
-0.21109988 -0.22144005 0.025032423 0.22565725 0.17277639 -0.107988104 -0.14800912 -0.046155278
-0.20344378 0.06909274 -0.30944753 -0.33302936 0.067271315 -0.10792333 0.20658207 0.016329296
0.18713625 -0.13602436 -0.02998942 0.059353366 0.040514667 0.16139853 0.093757756 0.043377373
0.11638363 0.13166362 -0.09488671 0.06376149 0.04765548 -0.19159 -0.11928941 -0.32147667
-0.14272061 -0.14154075 -0.16282165 -0.049846634 0.0482614 0.08237255 -0.10872793 0.20505767
-0.098369546 0.22136705 -0.14152402 -0.06772787 -0.009486706 0.11452852 0.16790925 0.244469
0.10070832 -0.0028532117 -0.14811228 -0.09652255 0.11201998 0.075304605 0.05625293 0.007634772
-0.14585836 0.06647151 -0.29177123 0.04148728 -0.044626765 -0.27414376 0.2596406 0.13880141
0.17157789 -0.1558987 0.06869531 -0.3114063 0.24417765 -0.097339444 0.20956108 0.32988128
0.30060783 0.129703 -0.15238331 -0.26524916 -0.065710194 0.12508877 0.16679248 -0.16708824
0.11168784 -0.04994874 -0.17986579 -0.21137981 -0.059685916 -0.10746392 -0.29134434 -0.060910888
0.079183675 0.050564967 -0.17751469 -0.07150833 -0.12856068 0.12089116 0.009761146 -0.004978597
0.1921922 0.2986743 -0.1433458 0.07560318 -0.17373809 -0.11695739 0.24035616 0.014393057
-0.119474925 -0.0792951 0.004085722 -0.2635494 -0.12584363 -0.10673591 -0.14052592 -0.040918205
0.253983 0.14781334 -0.015445264 -0.012580876 0.13812485 -0.22760497 0.15873004 -0.23708113
-0.0702531 0.104150705 0.019061994 0.22276391 0.06355418 -0.06214639 0.026064679 0.16089612
-0.1677975 0.050509922 -0.1940733 -0.21927474 0.042334147 -0.0071764626 0.0122027695 -0.19535969
-0.34500277 0.31442377 0.004156248 0.24943815 0.09862032 0.17603481 -0.20234655 0.07045969
0.08607846 -0.05680295 0.066064015 0.05155267 0.24467066 -0.21403286 0.0033046403 0.06991688
0.1117958 0.046342514 0.02656694 -0.044122934 -0.32317728 -0.018495243 -0.26822934 -0.093144745
00000000: adb0 95be 32c5 abbd c6bb 94be 25d9 b2bd
00000010: c788 e3bd ef93 35be 7a49 77be 5b23 adbc
00000020: a955 fe3d c77c aa3e 7c50 933d 6742 053d
00000030: 2772 993c 98da 41be 7b8d 0fbd 3954 963e
00000040: c797 7d3e cf45 f23c 93e5 673b da8a dfbd
00000050: 2fef 6d3d 5a27 6bbd 0ec3 a5bd 42ac fdbd
00000060: a730 0cbd ce89 23be 5e7e 38be 6695 2a3e
00000070: 0f66 a8bd 1d78 6c3c 4095 9cbd f3bf d23d
00000080: 0ad7 a9bb 812b 4dbc 1c57 133e 6ce8 8ebe
00000090: 0084 223e fa18 1fbd 9c2f 2c3e 8d0c 583d
000000a0: 2c72 833e 829a ddbd 6202 9ebd 9eab 2dbe
000000b0: 8776 16be 045e 5d3d d883 a13d 825d f2bd
000000c0: 23a1 34be cd6f 21bc 4066 47bd 0a3d 8bbd
000000d0: 931d a3be 8acc 2bbc e1e6 93bd 7d9b 15bd
000000e0: b44b 59be de1f fabd b619 8c3e 699c 8a3e
000000f0: 4424 b53c 9177 c7bd bb9f 2bbe ad9c 58be
00000100: 49af 1c3e e0df a0bc 2006 ebbd dd81 863e
00000110: 7113 aa3e a583 2abd 65a2 cc3d 387f 8fbd
00000120: 5930 93bd 4703 3bbe 667a 3d3d d93b 8fbe
00000130: 4f43 a2bd 1a37 a0bd 77ca 9dbe c415 71be
00000140: 43d8 fabd 4d44 c9bd 447f b3bd 52a2 023c
00000150: f076 153e 8b0e 413e a719 60bd f6f7 af3d
00000160: bf08 b9be 9f59 b23e e4e7 3b3e a7dd 7f3c
00000170: 0c5a 9f3d d644 8c3d 60d8 84be b620 61be
00000180: 912a 58be 2ec1 62be cc10 cd3c b212 673e
00000190: 4bec 303e de28 ddbd b48f 17be 510d 3dbd
000001a0: 9153 50be 7f80 8d3d e86f 9ebe d382 aabe
000001b0: 8bc5 893d e806 ddbd 408a 533e 04c5 853c
000001c0: a5a0 3f3e f849 0bbe 5fac f5bc 841c 733d
000001d0: b5f2 253d a845 253e 1104 c03d 79ac 313d
000001e0: 8a5a ee3d d4d2 063e f753 c2bd 6295 823d
000001f0: 6532 433d 2b30 44be 024e f4bd 9798 a4be
00000200: 5a25 12be 0ff0 10be b8ba 26be fc2b 4cbd
00000210: bfad 453d f1b2 a83d c0ac debd a3fa 513e
00000220: f975 c9bd 0bae 623e aceb 10be e9b4 8abd
00000230: 216e 1bbc ee8d ea3d 67f0 2b3e 1556 7a3e
00000240: 2a40 ce3d f3fc 3abb bfaa 17be 9dad c5bd
00000250: bb6a e53d 4d39 9a3d 7969 663d 1c2d fa3b
00000260: e55b 15be 3722 883d 0a63 95be 91ee 293d
00000270: 8eca 36bd 925c 8cbe 9def 843e f521 0e3e
00000280: 1db2 2f3e e9a3 1fbe 20b0 8c3d a670 9fbe
00000290: b509 7a3e e759 c7bd 2e97 563e 33e6 a83e
000002a0: 45e9 993e ddd0 043e 5f0a 1cbe bdce 87be
000002b0: 1193 86bd 4517 003e a6cb 2a3e 2e19 2bbe
000002c0: 98bc e43d 0d97 4cbd bd2e 38be f373 58be
000002d0: 3879 74bd 0b16 dcbd 162b 95be b27d 79bd
000002e0: 0d2b a23d 361d 4f3d 69c6 35be f672 92bd
000002f0: 69a5 03be c995 f73d 37ed 1f3c 8023 a3bb
00000300: 08ce 443e d6eb 983e 3ec9 12be d7d5 9a3d
00000310: 66e8 31be 5b87 efbd ed1f 763e dbd0 6b3c
00000320: 45af f4bd 7865 a2bd 85e1 853b f2ef 86be
00000330: 27dd 00be 5b98 dabd 07e6 0fbe d999 27bd
00000340: 0f0a 823e 615c 173e 220e 7dbc 0520 4ebc
00000350: 9a70 0d3e 4711 69be 218a 223e 65c5 72be
00000360: dbe0 8fbd f74c d53d e627 9c3c 391c 643e
00000370: b228 823d 378d 7ebd 9885 d53c f4c1 243e
00000380: 1cd3 2bbe 7ee3 4e3d 27bb 46be 8f89 60be
00000390: 9266 2d3d 8828 ebbb 20ee 473c 5f0c 48be
000003a0: 34a4 b0be 27fc a03e 2331 883b b76c 7f3e
000003b0: 73f9 c93d 7842 343e ef33 4fbe 2c4d 903d
000003c0: e749 b03d 36aa 68bd 924c 873d e428 533d
000003d0: f28a 7a3e 6e2b 5bbe aa92 583b 9530 8f3d
000003e0: 32f5 e43d a6d1 3d3d e9a2 d93c 40ba 34bd
000003f0: 7e77 a5be 5683 97bc 5b55 89be acc2 bebd

bias_ih f4 [75]
-0.022977844 0.05868637 0.086180314 -0.11331755 0.18360367 -0.015453257 0.057758987 -0.1846596
0.16687912 -0.026729345 -0.07242488 0.15359412 0.06549367 0.19039261 0.09018307 -0.03974838
0.14029051 -0.21427745 0.20563352 0.21155797 0.32674587 0.14814563 0.19228475 0.04576126
-0.09886871 -0.30838126 -0.28352448 -0.16201203 -0.014246485 -0.1968459 -0.40728223 -0.05990253
-0.29590505 -0.15679455 -0.22007331 -0.14030014 -0.27364698 -0.28124312 -0.4347729 -0.14313509
-0.19572772 -0.3307262 -0.08564568 -0.19970937 -0.2918151 -0.36368325 -0.40124935 -0.27774698
-0.007041014 -0.5033501 -0.28936887 -0.31295893 -0.19331911 -0.067753464 -0.1626004 -0.26454127
-0.22231986 0.001320068 0.13481459 -0.013752414 0.014425524 -0.29448852 0.3223027 0.026282208
0.07468609 0.039114233 0.27350056 0.0057200296 -5.2751297e-05 -0.26133132 -0.21843985 -0.21777357
-0.34205294 0.07217222 0.15115476
00000000: 083c bcbc 1e61 703d 4e7f b03d 0813 e8bd
00000010: 9a02 3c3e a82f 7dbc b094 6c3d 6817 3dbe
00000020: 5ce2 2a3e 80f7 dabc 7f53 94bd c747 1d3e
00000030: 8c21 863d 48f6 423e e7b1 b83d 33cf 22bd
00000040: 51a8 0f3e 8c6b 5bbe 9891 523e a7a2 583e
00000050: 3c4b a73e 7db3 173e 4be6 443e 2970 3b3d
00000060: ae7b cabd 26e4 9dbe 1f2a 91be 7be6 25be
00000070: 176a 69bc f991 49be 4c87 d0be 5b5c 75bd
00000080: de80 97be c08e 20be e65a 61be d7aa 0fbe
00000090: 751b 8cbe 19ff 8fbe 8e9a debe 0192 12be
000000a0: d96c 48be f254 a9be 0167 afbd 9d80 4cbe
000000b0: ca68 95be b134 babe 8e70 cdbe da34 8ebe
000000c0: 4eb8 e6bb 8ddb 00bf 2828 94be 273c a0be
000000d0: 72f5 45be 54c2 8abd b880 26be f471 87be
000000e0: d1a7 63be 2206 ad3a d60c 0a3e ce51 61bc
000000f0: 0859 6c3c 33c7 96be dc04 a53e c94d d73c
00000100: 05f5 983d 3f36 203d 4408 8c3e 166f bb3b
00000110: 4641 5db8 38cd 85be b2ae 5fbe 0900 5fbe
00000120: 9021 afbe 07cf 933d 50c8 1a3e

bias_hh f4 [75]
0.043735027 -0.14561401 0.035866242 -0.27306983 0.12057773 0.15324657 0.17376736 -0.080885716
-0.11913775 0.029408326 0.21990925 0.028426448 -0.022597121 0.3047158 -0.07678879 -0.0525162
0.22031417 0.10489889 -0.029282698 0.058765277 -0.024212934 -0.018773964 0.18877007 0.01493596
0.0128167765 -0.31718665 -0.32977864 -0.041973293 -0.18350495 -0.344028 -0.329951 0.053629782
-0.055573802 -0.15536408 -0.26363865 -0.06327902 -0.010771274 -0.47362453 -0.049107235 -0.14341839
-0.31155026 -0.41269428 -0.19808692 -0.07463063 -0.21365224 -0.13138984 -0.3003624 -0.054981407
0.077149995 -0.2360916 -0.19782558 0.036456738 0.052814398 -0.054735173 -0.23768818 -0.25018683
-0.046332106 0.032458235 0.1704103 0.2226909 0.25211623 -0.1035753 -0.023119953 -0.28501603
0.07327019 0.06554571 0.17584851 0.10822565 0.19418223 -0.15512533 -0.23781542 0.079935
-0.2620462 0.043990716 0.029001897
00000000: 8023 333d d71b 15be 7be8 123d cfcf 8bbe
00000010: 75f1 f63d abec 1c3e 12f0 313e 69a7 a5bd
00000020: 7efe f3bd bbe9 f03c e42f 613e 95de e83c
00000030: 991d b9bc b603 9c3e 7143 9dbd 3a1b 57bd
00000040: 0a9a 613e 3bd5 d63d 45e2 efbc dcb3 703d
00000050: 345a c6bc dbcb 99bc f14c 413e f5b5 743c
00000060: 75fd 513c 4a66 a2be bfd8 a8be 30ec 2bbd
00000070: b9e8 3bbe 7024 b0be 56ef a8be e7aa 5b3d
00000080: 5ba1 63bd c317 1fbe a5fb 86be 6e98 81bd
00000090: ff79 30bc ea7e f2be ab24 49bd 45dc 12be
000000a0: 8483 9fbe aa4c d3be 4cd7 4abe f2d7 98bd
000000b0: a7c7 5abe 0f8b 06be 1ac9 99be 2f34 61bd
000000c0: d100 9e3d ffc1 71be ca92 4abe a953 153d
000000d0: e953 583d fd31 60bd 8864 73be 7d18 80be
000000e0: bcc6 3dbd edf2 043d 0a80 2e3e 1509 643e
000000f0: 6115 813e 491f d4bd 0e66 bdbc 9fed 91be
00000100: ae0e 963d d43c 863d a211 343e 69a5 dd3d
00000110: b5d7 463e 2dd9 1ebe e385 73be f6b4 a33d
00000120: eb2a 86be 9c2f 343d 6395 ed3c

weight f4 [2, 25]
-0.41261658 -0.41871163 -0.38084707 -0.21586432 -0.36262646 -0.354058 -0.3086695 -0.30864036
0.37463918 0.3807439 0.33262083 -0.35291803 0.4136884 -0.3067629 0.24100874 0.3846261
0.4252485 0.14040501 0.39130262 -0.26523787 -0.39911026 -0.23353547 -0.41652453 -0.14411446
0.25627822 0.42337742 0.21202727 0.069829345 0.29113537 0.2855983 0.39250848 0.09460761
0.2226021 -0.42836788 -0.23931071 -0.1849493 0.063642636 -0.31449553 0.35396874 -0.29491487
-0.4434312 -0.38827047 -0.34089428 -0.40072152 0.4352846 0.41510037 0.4574729 0.43452412
0.06268798 -0.38630664
00000000: 7b42 d3be 5f61 d6be 63fe c2be 890b 5dbe
00000010: 2daa b9be 1747 b5be ee09 9ebe 1c06 9ebe
00000020: b5d0 bf3e ddf0 c23e 474d aa3e acb1 b4be
00000030: f7ce d33e 0710 9dbe ffca 763e b6ed c43e
00000040: 2cba d93e 55c6 0f3e d158 c83e 42cd 87be
00000050: 2e58 ccbe ec23 6fbe b442 d5be be92 13be
00000060: e636 833e edc4 d83e ad1d 593e b002 8f3d
00000070: b20f 953e f139 923e dff6 c83e a2c1 c13d
00000080: cef1 633e 0953 dbbe de0d 75be 5963 3dbe
00000090: 1257 823d 8f05 a1be 643b b53e 15ff 96be
000000a0: 6a09 e3be 63cb c6be b289 aebe 5f2b cdbe
000000b0: a0dd de3e 0988 d43e e339 ea3e f279 de3e
000000c0: 8e62 803d fcc9 c5be

bias f4 [2]
0.35664648 -0.19452845
00000000: 5e9a b63e 7732 47be

weight f4 [2, 25]
0.08347665 -0.16193216 0.11263482 -0.098753214 0.07199751 0.07748674 -0.14790866 0.060747758
-0.093278505 0.15814565 0.10023995 -0.17625342 0.00944452 0.02358821 0.19443484 0.17364778
-0.14722688 -0.11577501 0.06653221 -0.090531014 0.14569281 -0.069006175 -0.08237634 -0.00858435
-0.17688368 0.1765386 0.16767718 -0.046874598 0.040271327 -0.19028585 -0.10215943 -0.045676082
0.1419182 -0.016804457 0.12224002 0.012343213 0.013400152 0.030468076 -0.16595426 -0.07246287
-0.17969683 -0.107894495 0.17018713 0.060394928 -0.09190395 0.19719322 -0.024458438 0.06895186
-0.16961877 -0.04023394
00000000: cef5 aa3d 8bd1 25be 16ad e63d 203f cabd
00000010: 6e73 933d 5eb1 9e3d 5e75 17be a4d2 783d
00000020: cd08 bfbd eff0 213e 9a4a cd3d c77b 34be
00000030: 30bd 1a3c 103c c13c ed19 473e b9d0 313e
00000040: a5c2 16be 731b edbd 0a42 883d 5368 b9bd
00000050: 7f30 153e 1c53 8dbd edb4 a8bd 60a5 0cbc
00000060: ff20 35be 89c6 343e 91b3 2b3e 94ff 3fbd
00000070: 8cf3 243d 4bda 42be f738 d1bd d816 3bbd
00000080: 0153 113e 80a9 89bc fa58 fa3d 303b 4a3c
00000090: 508c 5b3c 3098 f93c eaef 29be 6a67 94bd
000000a0: 7202 38be caf7 dcbd 8945 2e3e ac60 773d
000000b0: 2338 bcbd 05ed 493e 105d c8bc a236 8d3d
000000c0: 8bb0 2dbe 58cc 24bd

bias f4 [2]
0.16722973 0.08236714
00000000: 453e 2b3e 1ab0 a83d

amplitudes f4 [10000, 2]
0.99999964 0.0 0.99999964 0.0 0.99999964 0.0 0.99999964 0.0
0.99999964 0.0 0.99999964 0.0 0.99999964 0.0 0.99999964 0.0
0.99999964 0.0 0.99999964 0.0 0.99999964 0.0 0.99999964 0.0
0.99999964 0.0 0.99999964 0.0 0.99999964 0.0 0.99999964 0.0
0.99999964 0.0 0.99999964 0.0 0.99999964 0.0 0.99999964 0.0
0.99999964 0.0 0.99999964 0.0 0.99999964 0.0 0.99999964 0.0
0.99999964 0.0 0.99999964 0.0 0.99999964 0.0 0.99999964 0.0
0.99999964 0.0 0.99999964 0.0 0.99999964 0.0 0.99999964 0.0
0.99999964 0.0 0.99999964 0.0 0.99999964 0.0 0.99999964 0.0
0.99999964 0.0 0.99999964 0.0 0.99999964 0.0 0.99999964 0.0
0.99999964 0.0 0.99999964 0.0 0.99999964 0.0 0.99999964 0.0
0.99999964 0.0 0.99999964 0.0 0.99999964 0.0 0.99999964 0.0
0.99999964 0.0 0.99999964 0.0 0.99999964 0.0 0.99999964 0.0
0.99999964 0.0 0.99999964 0.0 0.99999964 0.0 0.99999964 0.0
0.99999964 0.0 0.99999964 0.0 0.99999964 0.0 0.99999964 0.0
0.99999964 0.0 0.99999964 0.0 0.99999964 0.0 0.99999964 0.0
0.99999964 0.0 0.99999964 0.0 0.99999964 0.0 0.99999964 0.0
0.99999964 0.0 0.99999964 0.0 0.99999964 0.0 0.99999964 0.0
0.99999964 0.0 0.99999964 0.0 0.99999964 0.0 0.99999964 0.0
0.99999964 0.0 0.99999964 0.0 0.99999964 0.0 0.99999964 0.0
0.99999964 0.0 0.99999964 0.0 0.99999964 0.0 0.99999964 0.0
0.99999964 0.0 0.99999964 0.0 0.99999964 0.0 0.99999964 0.0
0.99999964 0.0 0.99999964 0.0 0.99999964 0.0 0.99999964 0.0
0.99999964 0.0 0.99999964 0.0 0.99999964 0.0 0.99999964 0.0
0.99999964 0.0 0.99999964 0.0 0.99999964 0.0 0.99999964 0.0
0.99999964 0.0 0.99999964 0.0 0.99999964 0.0 0.99999964 0.0
0.99999964 0.0 0.99999964 0.0 0.99999964 0.0 0.99999964 0.0
0.99999964 0.0 0.99999964 0.0 0.99999964 0.0 0.99999964 0.0
0.99999964 0.0 0.99999964 0.0 0.99999964 0.0 0.99999964 0.0
0.99999964 0.0 0.99999964 0.0 0.99999964 0.0 0.99999964 0.0
0.99999964 0.0 0.99999964 0.0 0.99999964 0.0 0.99999964 0.0
0.99999964 0.0 0.99999964 0.0 0.99999964 0.0 0.99999964 0.0
00000000: faff 7f3f 0000 0000 faff 7f3f 0000 0000
00000010: faff 7f3f 0000 0000 faff 7f3f 0000 0000
00000020: faff 7f3f 0000 0000 faff 7f3f 0000 0000
00000030: faff 7f3f 0000 0000 faff 7f3f 0000 0000
00000040: faff 7f3f 0000 0000 faff 7f3f 0000 0000
00000050: faff 7f3f 0000 0000 faff 7f3f 0000 0000
00000060: faff 7f3f 0000 0000 faff 7f3f 0000 0000
00000070: faff 7f3f 0000 0000 faff 7f3f 0000 0000
00000080: faff 7f3f 0000 0000 faff 7f3f 0000 0000
00000090: faff 7f3f 0000 0000 faff 7f3f 0000 0000
000000a0: faff 7f3f 0000 0000 faff 7f3f 0000 0000
000000b0: faff 7f3f 0000 0000 faff 7f3f 0000 0000
000000c0: faff 7f3f 0000 0000 faff 7f3f 0000 0000
000000d0: faff 7f3f 0000 0000 faff 7f3f 0000 0000
000000e0: faff 7f3f 0000 0000 faff 7f3f 0000 0000
000000f0: faff 7f3f 0000 0000 faff 7f3f 0000 0000
00000100: faff 7f3f 0000 0000 faff 7f3f 0000 0000
00000110: faff 7f3f 0000 0000 faff 7f3f 0000 0000
00000120: faff 7f3f 0000 0000 faff 7f3f 0000 0000
00000130: faff 7f3f 0000 0000 faff 7f3f 0000 0000
00000140: faff 7f3f 0000 0000 faff 7f3f 0000 0000
00000150: faff 7f3f 0000 0000 faff 7f3f 0000 0000
00000160: faff 7f3f 0000 0000 faff 7f3f 0000 0000
00000170: faff 7f3f 0000 0000 faff 7f3f 0000 0000
00000180: faff 7f3f 0000 0000 faff 7f3f 0000 0000
00000190: faff 7f3f 0000 0000 faff 7f3f 0000 0000
000001a0: faff 7f3f 0000 0000 faff 7f3f 0000 0000
000001b0: faff 7f3f 0000 0000 faff 7f3f 0000 0000
000001c0: faff 7f3f 0000 0000 faff 7f3f 0000 0000
000001d0: faff 7f3f 0000 0000 faff 7f3f 0000 0000
000001e0: faff 7f3f 0000 0000 faff 7f3f 0000 0000
000001f0: faff 7f3f 0000 0000 faff 7f3f 0000 0000
00000200: faff 7f3f 0000 0000 faff 7f3f 0000 0000
00000210: faff 7f3f 0000 0000 faff 7f3f 0000 0000
00000220: faff 7f3f 0000 0000 faff 7f3f 0000 0000
00000230: faff 7f3f 0000 0000 faff 7f3f 0000 0000
00000240: faff 7f3f 0000 0000 faff 7f3f 0000 0000
00000250: faff 7f3f 0000 0000 faff 7f3f 0000 0000
00000260: faff 7f3f 0000 0000 faff 7f3f 0000 0000
00000270: faff 7f3f 0000 0000 faff 7f3f 0000 0000
00000280: faff 7f3f 0000 0000 faff 7f3f 0000 0000
00000290: faff 7f3f 0000 0000 faff 7f3f 0000 0000
000002a0: faff 7f3f 0000 0000 faff 7f3f 0000 0000
000002b0: faff 7f3f 0000 0000 faff 7f3f 0000 0000
000002c0: faff 7f3f 0000 0000 faff 7f3f 0000 0000
000002d0: faff 7f3f 0000 0000 faff 7f3f 0000 0000
000002e0: faff 7f3f 0000 0000 faff 7f3f 0000 0000
000002f0: faff 7f3f 0000 0000 faff 7f3f 0000 0000
00000300: faff 7f3f 0000 0000 faff 7f3f 0000 0000
00000310: faff 7f3f 0000 0000 faff 7f3f 0000 0000
00000320: faff 7f3f 0000 0000 faff 7f3f 0000 0000
00000330: faff 7f3f 0000 0000 faff 7f3f 0000 0000
00000340: faff 7f3f 0000 0000 faff 7f3f 0000 0000
00000350: faff 7f3f 0000 0000 faff 7f3f 0000 0000
00000360: faff 7f3f 0000 0000 faff 7f3f 0000 0000
00000370: faff 7f3f 0000 0000 faff 7f3f 0000 0000
00000380: faff 7f3f 0000 0000 faff 7f3f 0000 0000
00000390: faff 7f3f 0000 0000 faff 7f3f 0000 0000
000003a0: faff 7f3f 0000 0000 faff 7f3f 0000 0000
000003b0: faff 7f3f 0000 0000 faff 7f3f 0000 0000
000003c0: faff 7f3f 0000 0000 faff 7f3f 0000 0000
000003d0: faff 7f3f 0000 0000 faff 7f3f 0000 0000
000003e0: faff 7f3f 0000 0000 faff 7f3f 0000 0000
000003f0: faff 7f3f 0000 0000 faff 7f3f 0000 0000
