data/RNN_runs/sweep_H2/rnn_sto3g_H2_0-7348_eq1_nU100_nL1_lr001_lrsC_ns1000.pt (torch_old, 185628 bytes, 9 tensors)

weight_ih f4 [300, 2]
0	0x3ea638b9	0.3246515
1	0xbe3c3120	-0.18378115
2	0x3ea90e73	0.33018836
3	0xbdd20267	-0.102543645
4	0x3de97cf0	0.11400783
5	0x3a784348	0.0009470475
6	0x3bfc8090	0.0077057555
7	0xbcec0df9	-0.028815256
8	0x3dc85770	0.097823024
9	0x3dd98e5f	0.10622858
10	0x3e7dfbad	0.24803038
11	0xbcdd62a9	-0.027024584
12	0xbeda2767	-0.42608187
13	0x3f16abd8	0.5885596
14	0x3e25a4de	0.16176173
15	0x3d8de755	0.06928889
16	0x3e1b2e14	0.15154296
17	0x3d5928d7	0.053017464
18	0xbeb595f0	-0.35465956
19	0x3f0f1160	0.5588589
20	0x3edefb19	0.43550947
21	0xbe65ee97	-0.22454296
22	0xbd3208aa	-0.043465294
23	0x3e93b313	0.2884756
24	0xbec0067f	-0.37504956
25	0x3ee702e0	0.4511938
26	0xbe4cbbd1	-0.19993521
27	0x3eba5880	0.36395645
28	0x3ef726b8	0.48271728
29	0xbf0df5da	-0.55453265
30	0x3df43627	0.11924391
31	0x3de592a6	0.112096116
32	0x3ec812de	0.39076895
33	0xbe9d9e6d	-0.30784932
34	0x3f01f081	0.50757605
35	0xbea8d5c1	-0.3297558
36	0xbdb12b10	-0.08650792
37	0x3e17c4d0	0.14821172
38	0x3e8ba3dd	0.27273455
39	0xbe90cc18	-0.2828071
40	0x3ea95950	0.33075953
41	0xbe8150bf	-0.25256917
42	0x3e8488d9	0.25885656
43	0xbe8eed51	-0.27915433
44	0x3ec47d23	0.38376722
45	0xbeb6dc13	-0.35714778
46	0x3eaa9f05	0.33324447
47	0xbe9a78ed	-0.30170384
48	0x3eb5aafe	0.3548202
49	0xbe746619	-0.23867072
50	0xbe6fb788	-0.23409855
51	0x3f05f4bf	0.5232658
52	0xbed897dc	-0.4230336
53	0x3f1ff561	0.62483793
54	0x3e8d3463	0.2757903
55	0xbeb1c2a2	-0.34718806
56	0xbc875e3f	-0.016524432
57	0x3ea03fcc	0.31298673
58	0x3eb96725	0.36211506
59	0xbe980818	-0.29693675
60	0x3eb33c7e	0.3500709
61	0xbe043419	-0.12910499
62	0xbe90f849	-0.28314427
63	0x3ec87c97	0.39157555
64	0x3dc9f669	0.09861452
65	0x3dba41d7	0.09094589
66	0x3e71d6da	0.23617116
67	0xbf03d4c4	-0.5149653
68	0xbc7e06f8	-0.015504591
69	0x3d0be3cd	0.034152795
70	0x3ef0aa43	0.470049
71	0xbe94924c	-0.29017866
72	0xbcf77c96	-0.030210774
73	0xbba1e02e	-0.0049400544
74	0x3ef010c8	0.46887803
75	0xbec116df	-0.37712762
76	0x3eccc937	0.39997265
77	0xbea87ef1	-0.3290935
78	0x3e84ec6b	0.25961623
79	0xbdbbbe92	-0.09167208
80	0x3e46fe29	0.19432892
81	0x3b6585e2	0.0035022427
82	0x3e47cc61	0.19511558
83	0xbe02ec2a	-0.12785402
84	0xbd7fef5b	-0.062484127
85	0x3e3ab013	0.1823123
86	0xbdcdcc40	-0.10048723
87	0x3eb899ed	0.36054936
88	0x3eaedb82	0.34151846
89	0xbcde8fb0	-0.027168125
90	0xbe8d1f21	-0.27562812
91	0x3ee56f0e	0.4481129
92	0x3e825e45	0.25462547
93	0x3df9526c	0.12173924
94	0x3e488c59	0.19584788
95	0x3c465eaf	0.012107535
96	0x3eee59ce	0.4655289
97	0xbe8fe5d1	-0.28105024
98	0xbf4c078a	-0.79699004
99	0x3f893ced	1.0721718
100	0x3f07dd8c	0.5307243
101	0xbede16fb	-0.43376908
102	0x3ec03fb5	0.37548605
103	0xbf15834b	-0.5840346
104	0x3e7b6e7d	0.24553867
105	0xbe2952a9	-0.16535439
106	0x3e6f3fc9	0.23364176
107	0x3d69d25b	0.057085376
108	0x3f1fc725	0.62413245
109	0xbf278771	-0.6544104
110	0xbd536a15	-0.05161484
111	0x3e7fd980	0.24985313
112	0xbc1bbbbd	-0.0095052095
113	0x3dbf7b76	0.0934972
114	0xbf2314a2	-0.6370336
115	0x3f4b45f4	0.79403615
116	0x3ebba2bd	0.36647597
117	0xbec73b2a	-0.38912326
118	0xbe833033	-0.2562271
119	0x3f0981c4	0.5371363
120	0xbea655de	-0.32487386
121	0x3f40e171	0.75343996
122	0x3f105691	0.5638209
123	0xbf33301e	-0.69995296
124	0x3eddc112	0.43311363
125	0xbecd73e1	-0.4012747
126	0x3ed6d0eb	0.41956267
127	0xbea4b864	-0.3217193
128	0xbe32b523	-0.1745191
129	0x3f23ffdf	0.64062303
130	0xbe94df90	-0.29076815
131	0x3ededfd5	0.43530145
132	0x3eb6f6e8	0.3573525
133	0xbe336471	-0.17518784
134	0x3edf8b02	0.43660742
135	0xbf1780df	-0.59181017
136	0xbd4ba97f	-0.04972219
137	0x3e867304	0.26259625
138	0x3e75295d	0.2394156
139	0xbe0625bc	-0.13100332
140	0x3e599e3a	0.21251765
141	0xbd104513	-0.035222124
142	0x3e8a265f	0.269824
143	0xbe9e52d3	-0.30922565
144	0x3e862fd0	0.26208353
145	0xbe01ddcc	-0.12682265
146	0x3d8aa27e	0.06769274
147	0x3dffe6be	0.124951825
148	0x3e84e50b	0.25955996
149	0xbe6821fa	-0.22669211
150	0x3e1e8157	0.15479027
151	0xbc72fa39	-0.014830166
152	0x3ed6f52a	0.4198392
153	0xbe8b1d8a	-0.27170974
154	0x3e9aeeda	0.30260354
155	0xbd0fd73a	-0.035117365
156	0x3e8749bf	0.2642345
157	0xbe14c6b8	-0.1452893
158	0x3e09e5b4	0.13466531
159	0x3acb5dba	0.0015515604
160	0xbd8a25e4	-0.06745508
161	0x3eb5dbee	0.35519356
162	0x3ea2e8f7	0.31818363
163	0xbeff48d2	-0.49860245
164	0xbdbfa9c1	-0.0935855
165	0x3f1ca98b	0.611962
166	0x3eef8442	0.46780592
167	0xbf221e7d	-0.6332777
168	0xbe168a7b	-0.14701264
169	0x3ed2bee9	0.41161278
170	0x3e9afe75	0.3027226
171	0xbef033a7	-0.46914408
172	0xbe7e86a2	-0.24856046
173	0x3f0812de	0.5315379
174	0xbf5229f8	-0.8209529
175	0x3f68f9ce	0.9100617
176	0x3e27ed37	0.16399084
177	0xbdd31951	-0.10307563
178	0x3e90c902	0.28278357
179	0x3dc2fcd7	0.095208816
180	0x3e7d5b81	0.24741937
181	0xbea2f93b	-0.31830773
182	0x3baa1fe9	0.0051917923
183	0x3de3c031	0.11120642
184	0x3e8010ab	0.25012717
185	0xbe8243bf	-0.2544231
186	0x3e91965d	0.2843503
187	0xbe403565	-0.18770368
188	0x3ed43925	0.41449848
189	0xbe960d31	-0.2930694
190	0xbc9716e4	-0.018443532
191	0x3d5ecede	0.054396503
192	0xbe175c84	-0.14781386
193	0x3edc94db	0.43082318
194	0xbed44b51	-0.41463712
195	0x3ec47413	0.38369808
196	0xbe67c3be	-0.22633263
197	0x3f0cf75f	0.5506496
198	0xbe82d7cb	-0.25555262
199	0x3edffdcb	0.43748316
200	0xbe8ff765	-0.28118435
201	0x3c02ab9c	0.007975485
202	0xbe59557a	-0.21224013
203	0x3c4c9b37	0.012488178
204	0xbe984946	-0.29743403
205	0x3d569c29	0.05239502
206	0xbe5090f2	-0.20367792
207	0x3e064cce	0.13115236
208	0xbe52b214	-0.20575744
209	0x3cfebc23	0.03109557
210	0xbeb0e197	-0.3454711
211	0x3c3c71b9	0.011501723
212	0xbc381e6c	-0.011237722
213	0xbde2f604	-0.1108208
214	0xbe141407	-0.14460765
215	0xbdd373c9	-0.10324819
216	0xbe453e66	-0.19262084
217	0xbce90247	-0.028443469
218	0x3de74a54	0.11293474
219	0xbe054643	-0.13015084
220	0xbe9c99ff	-0.3058624
221	0xbd064233	-0.032777976
222	0x3dc0c234	0.09412041
223	0xbe89a5e1	-0.26884368
224	0x3e6aeac0	0.22941113
225	0xbe866099	-0.26245573
226	0xbd90fec0	-0.0707984
227	0xbe3ad27d	-0.18244357
228	0xbe3abe0c	-0.1823656
229	0x3c0a41d3	0.008438545
230	0xbe49aefe	-0.1969566
231	0x3cd9f84b	0.026607653
232	0xbea47a38	-0.32124496
233	0x3d6a2dff	0.05717277
234	0xbeae9c86	-0.34103793
235	0xbe9a1de9	-0.30100945
236	0xbdbcd56c	-0.092203945
237	0xbdbb256c	-0.09137997
238	0xbea93794	-0.33050215
239	0x3d808e8b	0.06277188
240	0xbe253956	-0.16135153
241	0xbe6a5d72	-0.22887209
242	0xbe7bf13c	-0.24603742
243	0x3d866d14	0.06563774
244	0xbe4da866	-0.2008377
245	0x3e0b7aca	0.13621059
246	0xbe9cd279	-0.30629328
247	0xbc9b103e	-0.018928643
248	0xbdb2d6e1	-0.08732391
249	0x3ce33056	0.02773301
250	0x3e30d107	0.17267238
251	0xbe20b26e	-0.15693066
252	0x3e73477b	0.23757736
253	0xbe95559b	-0.29166874
254	0xbe44fef5	-0.19237883
255	0x3c0dcdbf	0.008655011

weight_hh f4 [300, 100]
0	0xbe06d56b	-0.1316735
1	0xbe62ec2c	-0.22160405
2	0xbcbb800b	-0.022888204
3	0x3dd329ae	0.10310684
4	0x3e59a805	0.212555
5	0x3e2c7fba	0.16845599
6	0x3dc1f819	0.09471149
7	0xbc571477	-0.013127438
8	0xbd8d9fe8	-0.06915265
9	0x3da351ef	0.07974612
10	0xbe2525a5	-0.16127641
11	0xbba2ab0b	-0.0049642376
12	0xbe170445	-0.14747722
13	0xbd677e8a	-0.05651716
14	0xbe000f9c	-0.12505955
15	0xbe1305de	-0.14357707
16	0x3db62183	0.088931106
17	0xbc913c98	-0.017729089
18	0x3d876c67	0.06612473
19	0x3e2d2073	0.1690691
20	0x3cb85e44	0.022505887
21	0xbd4ab8b3	-0.04949255
22	0x3d4aaf2f	0.049483474
23	0x3d5a0afe	0.05323314
24	0xbdee9c1d	-0.1165087
25	0x3c72587c	0.014791604
26	0x3abbd83b	0.001433141
27	0xbddbc068	-0.10730058
28	0x3ac12e8e	0.0014738606
29	0xbd7826dc	-0.060583934
30	0x3e25f615	0.16207154
31	0x3d1b7f62	0.03796328
32	0x3d4842db	0.048891883
33	0xbdaaae3d	-0.083340146
34	0x3cbbe5f5	0.0229368
35	0x3d962dce	0.07332955
36	0x3e413dee	0.1887128
37	0x3c544cda	0.012957776
38	0xbe5593d6	-0.20857176
39	0x3d9cb3c6	0.076514766
40	0x3e35df46	0.17760953
41	0xbd7bbd31	-0.061459724
42	0xbe1713ee	-0.14753696
43	0xbd3f6f43	-0.046736967
44	0x3df240fb	0.118288
45	0x3e0ae703	0.13564686
46	0xbd97137e	-0.07376765
47	0x3cbd52e0	0.023110807
48	0xbd37cc46	-0.044872545
49	0x3e1e2b22	0.15446141
50	0xbd0d344d	-0.034473706
51	0xbd8a765a	-0.06760855
52	0xbe331d55	-0.17491658
53	0xbe127778	-0.14303386
54	0xbda5978a	-0.080855444
55	0x3dbd236a	0.0923527
56	0x3e1909cd	0.14945145
57	0xbd96deb6	-0.073666975
58	0x3dc0438c	0.093878835
59	0xbe35d438	-0.17756736
60	0xbd39e33f	-0.045382734
61	0x3cf3347d	0.029688114
62	0xbdd0d8a9	-0.10197575
63	0x3dc78fc9	0.09744222
64	0x3ce78ad9	0.02826445
65	0x3db59cab	0.08867773
66	0x3deb2e02	0.11483385
67	0xbda23a45	-0.0792127
68	0x3dfa2c50	0.12215483
69	0xbcf4c01e	-0.029876765
70	0x3da9a3b0	0.08283174
71	0xbd6b3500	-0.05742359
72	0xbd9aaa4e	-0.07552014
73	0x3d4e7ab2	0.05040998
74	0x3cc19b83	0.023633724
75	0xbd9fe383	-0.07807066
76	0xbd866d0d	-0.065637685
77	0xbd03bd94	-0.032163218
78	0x3cbc622a	0.022996027
79	0xbd0364c4	-0.03207852
80	0xbdf7ec74	-0.12105647
81	0xbb2313f4	-0.002488372
82	0xbd36f410	-0.04466635
83	0x3cad168b	0.021128913
84	0x3c95839c	0.018251233
85	0xbe2e5483	-0.17024426
86	0xbcf86ec7	-0.03032626
87	0x3d4e8332	0.050418086
88	0xbd5cc071	-0.053894464
89	0xbda6b933	-0.08140793
90	0xbd46ef16	-0.048567854
91	0xbe023f3c	-0.12719434
92	0xbcd7dcd9	-0.026350426
93	0xbc14d076	-0.009082904
94	0xbdc7a9a8	-0.09749156
95	0x3dd66a08	0.104694426
96	0x3c8f4b96	0.017492097
97	0xbd92656e	-0.071482524
98	0xbcbe6176	-0.023239832
99	0x3dfc9ba7	0.12334376
100	0xbc7f6bbb	-0.01558965
101	0xbdb51787	-0.08842378
102	0x3d570d63	0.052503
103	0x3d3da4ec	0.04629986
104	0x3d1dcc00	0.038524628
105	0x3e058f71	0.13043
106	0x3e0b46e5	0.13601263
107	0xbd23b1d7	-0.039964523
108	0xbd85053e	-0.064951405
109	0x3e2e8047	0.17041121
110	0xbdb0bb2b	-0.086294495
111	0x3d13696a	0.035989203
112	0xbe25bfe3	-0.1618648
113	0xbe100b6c	-0.14066857
114	0x3cff0150	0.031128556
115	0x3d9d8175	0.076907076
116	0xbcb1da01	-0.021710398
117	0xbc92c4e2	-0.017916147
118	0xbc0b665b	-0.00850829
119	0x3a4b62e7	0.0007758573
120	0x3d4fcbd5	0.0507315
121	0x3dcab93c	0.09898612
122	0x3daaeb1e	0.08345626
123	0xbc8ad928	-0.016949251
124	0xbcc1f588	-0.023676649
125	0xbdc00e1d	-0.09377692
126	0x3d149a36	0.03627988
127	0xbd020982	-0.03174735
128	0xbd238495	-0.039921362
129	0xbd6d7589	-0.05797342
130	0x3db81c78	0.08989805
131	0xbd80b522	-0.06284548
132	0xbd05c2d8	-0.03265652
133	0xbd9492dc	-0.07254574
134	0x3dfc98e7	0.12333851
135	0xbd733bd7	-0.05938324
136	0x3e1d2556	0.15346274
137	0xbddb56bb	-0.10709902
138	0xbdd8b51c	-0.10581419
139	0x3e3d5bc7	0.18492042
140	0xbc56efab	-0.013118665
141	0xbda1c05f	-0.0789802
142	0xbd2974e3	-0.041371237
143	0xbd158e42	-0.03651262
144	0x3dcac749	0.09901292
145	0x3e00eb61	0.1258979
146	0xbe180620	-0.14846087
147	0xbd2795fc	-0.04091452
148	0xbcfad342	-0.030618314
149	0x3e3f1cf0	0.18663383
150	0xbd5f8a74	-0.0545754
151	0x3d2e7af9	0.042597745
152	0xbe5d7e6a	-0.21630254
153	0x3d02904b	0.03187589
154	0xbdb0b299	-0.08627815
155	0x3ccea7ba	0.025226463
156	0x3db23694	0.08701816
157	0xbdacefd8	-0.08444184
158	0x3e1f9b46	0.15586576
159	0xbcd2b7e0	-0.025722444
160	0xbdfc5b0a	-0.12322052
161	0x3d9d4f3c	0.076811284
162	0xbd88a62e	-0.06672321
163	0xbc15a3f1	-0.009133325
164	0x3cf16e44	0.029471524
165	0x3e57abf4	0.21061689
166	0x3d9d848d	0.07691298
167	0xbd70cb22	-0.058787473
168	0x3aad4d21	0.0013221839
169	0xbda31226	-0.07962446
170	0xbbf037b8	-0.007330861
171	0x3ca9b548	0.020716324
172	0xbe03829c	-0.12842792
173	0xbd6e1f7f	-0.058135506
174	0xbd2635f2	-0.04057879
175	0xbde401e0	-0.1113317
176	0x3cf9f2db	0.03051131
177	0x3d9befe9	0.076141186
178	0x3d4e3af1	0.05034918
179	0x3dcb3418	0.099220455
180	0xbd791d2a	-0.06081883
181	0x3da1f513	0.07908072
182	0xbbf76424	-0.0075497795
183	0x3d95d22b	0.07315477
184	0x3e0eee9e	0.13958213
185	0xbda3d1bd	-0.07998989
186	0xbc413efd	-0.011794803
187	0x3cd1a367	0.025590612
188	0xbd9aac96	-0.075524494
189	0xbe21be28	-0.15795195
190	0xbce20592	-0.027590547
191	0xbe43183f	-0.19052218
192	0x3de3c899	0.11122245
193	0x3d31d2ea	0.043414034
194	0x3cff3421	0.031152787
195	0x3e2fff93	0.17187338
196	0xbc3eb113	-0.0116388975
197	0xbc7dd6d4	-0.015493114
198	0xbd5b35a6	-0.05351796
199	0xbc134467	-0.008988476
200	0x3dd34d28	0.10317451
201	0xbdc47058	-0.0959174
202	0xbc3d9eed	-0.011573535
203	0x3e3c9c6a	0.18419042
204	0x3d1a2d6a	0.037640966
205	0x3dfee92e	0.12446819
206	0xbdddf195	-0.10837094
207	0xbd63092b	-0.055428665
208	0x3d1d20dd	0.03836142
209	0xbe2d4e34	-0.16924363
210	0xbd021d7b	-0.031766396
211	0xbcb0513c	-0.02152311
212	0x3d294d21	0.04133332
213	0x3e32805c	0.17431778
214	0x3dad9e2d	0.08477435
215	0xbd21b5f6	-0.039480172
216	0x3d085232	0.033281513
217	0x3de8c048	0.113648
218	0xbdf653c2	-0.12027694
219	0x3caa5c4f	0.02079597
220	0x3e18a220	0.14905596
221	0xbcb05de7	-0.021529151
222	0xbd8a2311	-0.0674497
223	0xbcd939d3	-0.02651683
224	0xbcc67141	-0.024223926
225	0x3db09d93	0.08623805
226	0xbe5538d2	-0.20822456
227	0xbd84dc45	-0.064873256
228	0xbda821e7	-0.08209591
229	0x3cb87eb7	0.02252136
230	0x3d8e38b6	0.069444105
231	0x3d1132ef	0.035448965
232	0x3de1b9b4	0.11021748
233	0x3cb6d191	0.022316726
234	0xbe1cfb0d	-0.15330143
235	0xbc7cf3d2	-0.015438991
236	0x3e09af81	0.13445856
237	0xbda37b0b	-0.07982453
238	0xbe55edbb	-0.20891468
239	0xbdaa64ae	-0.083199844
240	0xbb0ed3a2	-0.0021793623
241	0x3db23455	0.08701388
242	0xbcc0f504	-0.023554333
243	0xbd6876d5	-0.056753952
244	0x3dff9336	0.1247925
245	0xbe3459ea	-0.17612424
246	0xbdb88afe	-0.09010886
247	0xbc9434be	-0.018091556
248	0xbc81412e	-0.01577815
249	0xbe69c10e	-0.22827551
250	0x3d9aa6c2	0.07551338
251	0xbb796ab8	-0.0038057994
252	0x3b1f353a	0.00242932
253	0xbdcd1c2a	-0.100151375
254	0x3d08a61c	0.03336154
255	0x3d9de025	0.07708768

bias_ih f4 [300]
0	0x3c9ab3b4	0.018884517
1	0x3c55734a	0.013027975
2	0x3e0c5e48	0.1370784
3	0x3e390c5d	0.18071122
4	0x3e1dc6c4	0.15407854
5	0x3e89ae49	0.26890782
6	0x3dd39a9f	0.10332226
7	0x3e0c349b	0.13691942
8	0x3db3e717	0.08784311
9	0x3e423221	0.18964435
10	0xbe16d53b	-0.14729778
11	0x3d034680	0.032049656
12	0x3dd6f043	0.10495045
13	0x3e00b260	0.12568045
14	0xbe6212f3	-0.22077541
15	0x3e097daf	0.1342685
16	0xbe48dd03	-0.1961556
17	0x3d0fe5bf	0.035131212
18	0x3e01e3b6	0.12684521
19	0x3b2b7d63	0.0026167266
20	0x3d2bfc65	0.04198875
21	0xbdaa0939	-0.0830254
22	0xbd21fcfd	-0.03954791
23	0x3ba87c60	0.00514178
24	0xbdf44e2d	-0.11928973
25	0x3d9dc3d3	0.07703366
26	0x3d0744cc	0.033024594
27	0xbe446ba4	-0.19181687
28	0x3dae7785	0.0851889
29	0xbdf90cf3	-0.12160673
30	0xbdbb9703	-0.091596626
31	0x3e1e9564	0.15486676
32	0x3ba96352	0.0051693106
33	0xbd384cbe	-0.044995062
34	0x3d92ab40	0.071615696
35	0x3cc0f888	0.023556009
36	0x3c100099	0.008789205
37	0x3d081dd8	0.033231586
38	0xbe46fa55	-0.19431432
39	0x3c5ea287	0.013588554
40	0xbc178dca	-0.009250114
41	0x3d932073	0.071839236
42	0x3d8e2161	0.0693996
43	0x3d24cbc5	0.040233392
44	0x3dde6493	0.10859027
45	0x3df7feb6	0.12109129
46	0x3d4cfab2	0.05004377
47	0x3dc6920c	0.09695825
48	0x3d0bd8c1	0.03414226
49	0xbd7f3791	-0.06230885
50	0xbdfe0784	-0.12403777
51	0xbe0818d0	-0.13290715
52	0x3d293194	0.041307047
53	0x3df8bdb6	0.121455595
54	0xbe1cff59	-0.15331782
55	0x3dd2d447	0.10294395
56	0xbda4e503	-0.08051493
57	0xbca01460	-0.019540966
58	0x3db88a4a	0.090107515
59	0x3da5e83a	0.08100934
60	0xba18c325	-0.00058274186
61	0xbe8373a6	-0.2567417
62	0xbe6ccbb8	-0.23124588
63	0xbcc586ff	-0.024112223
64	0x3e2ea341	0.17054464
65	0x3d65f1a4	0.05613865
66	0x3e40e8f0	0.18838859
67	0xbe058350	-0.13038373
68	0x3ceda343	0.029008513
69	0x3d20b868	0.039238364
70	0x3cacf1e6	0.02111144
71	0xbe3f524b	-0.18683736
72	0x3dce5148	0.10074097
73	0xbc095791	-0.008382694
74	0x3d130272	0.035891004
75	0x3e38020b	0.1796953
76	0xbe150aad	-0.14554854
77	0xbda6e1ef	-0.08148562
78	0x3d43265d	0.047644008
79	0x3e1355c1	0.14388181
80	0x3db0e7a5	0.08637933
81	0xbe7db8ca	-0.24777523
82	0x3e0d0a62	0.13773492
83	0xbd96c1a8	-0.07361156
84	0x3db937d5	0.09043852
85	0xbe195dea	-0.14977232
86	0x3c20a1c4	0.009804193
87	0x3db925e4	0.0904043
88	0x3e0728e2	0.1319919
89	0x3e0eb67b	0.13936798
90	0xbe1ab912	-0.15109661
91	0x3e1bdbeb	0.15220611
92	0xbd86dab5	-0.06584684
93	0xbda6a05d	-0.081360556
94	0xbd82841c	-0.06372854
95	0x3dda4eab	0.10659536
96	0x3e33fd1b	0.17577021
97	0x3e179e1c	0.14806408
98	0x3e2b8214	0.1674884
99	0xbc23b2be	-0.009991346
100	0xbe7cf460	-0.24702597
101	0xbddd246e	-0.10797964
102	0xbe08dd26	-0.13365611
103	0xbe6e0e13	-0.23247556
104	0xbd7069b1	-0.058694545
105	0xbea4ee5c	-0.32213104
106	0xbd8a58dd	-0.067552306
107	0xbe841536	-0.25797433
108	0xbe741435	-0.23835833
109	0xbc800c08	-0.015630737
110	0xbe505084	-0.20343214
111	0xbdfd9d3d	-0.123835064
112	0xbdccfe6a	-0.10009463
113	0xbdd6bf85	-0.10485748
114	0xbe494971	-0.19656922
115	0xbe029eb3	-0.12755851
116	0xbe71781c	-0.23580974
117	0xbe9cd472	-0.30630833
118	0xbe0c68ce	-0.13711855
119	0xbd8d5f98	-0.06902999
120	0xbec00220	-0.3750162
121	0xbe4e914e	-0.20172617
122	0xbe3d848d	-0.18507595
123	0xbe4ce2bc	-0.20008367
124	0xbe54095a	-0.20706692
125	0xbdc661e1	-0.09686638
126	0xbe5bb9ab	-0.21457545
127	0xbe91f1b9	-0.28504732
128	0xbe231671	-0.1592653
129	0xbe4dc6fc	-0.20095438
130	0xbdee4c44	-0.1163564
131	0xbe1f26ad	-0.15542097
132	0xbe0c1da7	-0.13683186
133	0xbe8fc92f	-0.28083178
134	0xbdb4007b	-0.08789154
135	0xbe567a14	-0.20945007
136	0xbd469837	-0.048485007
137	0xbe1bbd1f	-0.15208863
138	0xbe5d8a48	-0.21634781
139	0xbebea44a	-0.37234718
140	0xbe332a04	-0.17496496
141	0xbdb2f9e1	-0.08739067
142	0xbdd2d92c	-0.102953285
143	0xbdeb5a0e	-0.11491786
144	0xbe487c82	-0.19578746
145	0xbe000e46	-0.12505445
146	0xbce14b09	-0.0275016
147	0xbd5d4c3c	-0.05402778
148	0xbe09aaf9	-0.13444127
149	0xbd8b5061	-0.068024404
150	0xbe7acc50	-0.24492002
151	0xbe9d52a4	-0.30727112
152	0xbdd090da	-0.10183878
153	0xbe6aacc8	-0.22917473
154	0xbea541e8	-0.32276845
155	0xbe32802c	-0.17431706
156	0xbc5edd8f	-0.013602628
157	0xbde4e42b	-0.11176332
158	0xbd6e9da1	-0.058255795
159	0xbdb7b4f5	-0.08970062
160	0xbe8b91c7	-0.27259657
161	0xbeb3b1c4	-0.35096562
162	0xbe4b24f5	-0.19838317
163	0xbe84440a	-0.2583316
164	0xbe2e2d76	-0.1700953
165	0xbd62239b	-0.055209737
166	0xbeb8b7d1	-0.3607774
167	0xbec92e99	-0.39293364
168	0xbe81d5c3	-0.253584
169	0xbd249653	-0.040182423
170	0xbe416623	-0.18886618
171	0xbe921073	-0.28528175
172	0xbd9734d0	-0.0738312
173	0xbe1b103d	-0.15142913
174	0xbe5627b5	-0.20913585
175	0xbe0e18f8	-0.13876712
176	0xbdebf106	-0.11520581
177	0xbd943dd7	-0.072383575
178	0xbdd35c57	-0.10320347
179	0xbe259d38	-0.16173255
180	0xbe25bf8a	-0.16186348
181	0xbe605e37	-0.2191094
182	0xbe248917	-0.1606792
183	0xbecb39e7	-0.39692613
184	0xbd95a826	-0.073074624
185	0xbe66dfd3	-0.2254632
186	0xbe610c3c	-0.21977323
187	0xbe34e9ac	-0.17667264
188	0xbede17f3	-0.43377647
189	0xbe5e1bd5	-0.21690305
190	0xbe871f7d	-0.2639121
191	0xbd9ff17a	-0.0780973
192	0xbdbe1f42	-0.09283306
193	0xbd61d7b3	-0.055137347
194	0xbe45e3bb	-0.19325154
195	0xbe709ca5	-0.23497255
196	0xbe353836	-0.17697224
197	0xbd56b6fc	-0.0524206
198	0xbe74dd78	-0.23912609
199	0x39511f62	0.00019943484
200	0x3e17ccb2	0.14824179
201	0x3e85022d	0.25978222
202	0x3a93efb8	0.0011286652
203	0x3e22f2e0	0.15912962
204	0x3e35be8f	0.17748474
205	0x3e3d5db4	0.18492776
206	0x3d3dd48f	0.04634529
207	0x3e059258	0.13044107
208	0x3c5060de	0.012718407
209	0xbd165ba8	-0.036708504
210	0x3dc152f7	0.094396524
211	0x3de997c5	0.11405901
212	0xbd9e0344	-0.077154666
213	0xbdbe9a84	-0.09306815
214	0x3e2c63c4	0.16834933
215	0x3d2e17ca	0.042503156
216	0xbe6615a9	-0.224692
217	0x3e840c9c	0.2579087
218	0x3da55dd3	0.08074536
219	0xbe3596ef	-0.17733358
220	0x3e2f5dde	0.17125651
221	0x3d58ded6	0.052946888
222	0xbe035270	-0.12824416
223	0xbda57389	-0.08078677
224	0x3e0a3da4	0.13500077
225	0xbdb05e9c	-0.08611795
226	0x3dec9e33	0.115536116
227	0xbc01fa18	-0.007933162
228	0x3cdb0d1c	0.02673965
229	0x3d95d36f	0.073157184
230	0xbe105158	-0.1409353
231	0x3d182353	0.037143063
232	0x3c23a4c1	0.009988011
233	0x3e3fa67f	0.18715857
234	0x3cf634fb	0.03005456
235	0xbe3973e4	-0.18110615
236	0x3d087402	0.03331376
237	0xbcad3c87	-0.021147026
238	0x3cce5573	0.02518723
239	0xbe6f2529	-0.23354019
240	0x3c8d4714	0.017245807
241	0x3cab5e26	0.020918917
242	0xbe6bf8c1	-0.23044111
243	0x3d06d060	0.032913566
244	0x3c26f14f	0.010189368
245	0x3dea51da	0.11441393
246	0xbcdae463	-0.026720231
247	0x3cd4e672	0.025988791
248	0xbe0c533e	-0.1370363
249	0xbe3c2950	-0.18375134
250	0xbe3e6b51	-0.18595625
251	0x3e8099ce	0.25117344
252	0xbdf5ff34	-0.12011567
253	0xbc916c26	-0.017751765
254	0x3e0b7cf3	0.13621883
255	0x3dcfa598	0.101390064

bias_hh f4 [300]
0	0x3cc4398c	0.023953222
1	0x3d90dc16	0.07073228
2	0x3e25a163	0.16174845
3	0x3d0cdff2	0.03439326
4	0x3e166fc9	0.1469108
5	0x3df605ac	0.120128006
6	0x3c771f1a	0.015083099
7	0xbbd31063	-0.0064411624
8	0x3d29a11e	0.04141342
9	0x3ca2f65a	0.01989286
10	0xbcfaa387	-0.030595554
11	0x3deac4c3	0.114633106
12	0x3ddeb5ef	0.10874545
13	0x3dc937fb	0.098251306
14	0xbe92dfe6	-0.28686446
15	0x3d90c718	0.07069224
16	0xbd0eb858	-0.034843773
17	0x3de9547b	0.113930665
18	0x3d96f5f2	0.07371129
19	0xbdd940b1	-0.10608042
20	0x3dd8a42b	0.105781876
21	0xbde207bd	-0.11036632
22	0xbdcacfbc	-0.099029034
23	0xbde6dc95	-0.112725414
24	0xbdec0d5d	-0.11525986
25	0x3c830011	0.015991243
26	0x3ded907d	0.115998246
27	0xbe6b8ff0	-0.23004127
28	0xbd272443	-0.040806066
29	0xbdacb57d	-0.08433054
30	0x3d0d3218	0.0344716
31	0x3e0b8c3f	0.13627718
32	0x3d83ccaf	0.06435525
33	0xbd8d0482	-0.068856254
34	0x3e1a32bf	0.1505842
35	0x3c7a88d4	0.015291411
36	0x3dab8785	0.08375458
37	0xbd7f5493	-0.062336516
38	0xbd54fc5d	-0.051998485
39	0x3de5b1aa	0.11215527
40	0x3df38f33	0.118925475
41	0xbd97830f	-0.07398044
42	0x3df27e97	0.11840551
43	0x3e179f29	0.14806809
44	0xbd6bbc0e	-0.05755239
45	0xbce7eca9	-0.02831109
46	0x3d6055d2	0.054769345
47	0xbb1bc7e2	-0.0023770262
48	0x3c2165fe	0.009850977
49	0xbd6f84dd	-0.058476318
50	0xbdfba92c	-0.12288126
51	0xbe06912a	-0.13141313
52	0x3c3175e6	0.010831332
53	0x3bf0de49	0.007350717
54	0xbdfbe9e2	-0.12300469
55	0x3dbe52ae	0.09293114
56	0xbc673ea1	-0.014114053
57	0x3c00dcba	0.007865125
58	0x3cb8169a	0.022471715
59	0x3e3afd85	0.18260773
60	0x3d8493d9	0.06473512
61	0xbe30cec0	-0.17266369
62	0xbda1fc8e	-0.07909499
63	0x3d6e7719	0.05821905
64	0x3e0b6675	0.13613303
65	0x3dc2c3eb	0.09510025
66	0x3d9d8e46	0.07693152
67	0xbd9c43f8	-0.076301515
68	0x3e031cd4	0.12803966
69	0xbdc7efa7	-0.09762507
70	0x3d84f479	0.06491942
71	0xbe0f2901	-0.13980485
72	0x3bebdb42	0.0071977684
73	0x3df11e13	0.11773314
74	0x3e64dc29	0.2234961
75	0x3e0e823e	0.13916871
76	0xbd700616	-0.058599554
77	0xbd4402d3	-0.047854256
78	0xbde7b0bf	-0.113130085
79	0xbcf986cc	-0.030459784
80	0x3d761d02	0.060086258
81	0xbe7c675a	-0.246488
82	0xbcafacb5	-0.021444658
83	0xbe3f599a	-0.18686524
84	0x3d0b1444	0.033954874
85	0xbea5e5c0	-0.32401848
86	0xbbece498	-0.007229399
87	0x3da5c798	0.0809471
88	0x3dc3b2c8	0.09555584
89	0x3e245046	0.16046247
90	0xbda1cb91	-0.07900155
91	0x3e097f25	0.13427408
92	0xbd3a90d6	-0.045548283
93	0xbbac2f4e	-0.0052546626
94	0xbcc3ceb4	-0.023902275
95	0x3e2c3d54	0.1682027
96	0x3e1cd822	0.15316823
97	0x3e2529f0	0.16129279
98	0x3dc3de09	0.09563834
99	0x3cfc5f9c	0.030807309
100	0xbe43e216	-0.19129214
101	0xbe1066ea	-0.14101759
102	0xbe309b66	-0.1724678
103	0xbe0cd7ec	-0.13754243
104	0xbc958617	-0.018252416
105	0xbe38b0ac	-0.18036145
106	0xbe0db240	-0.13837528
107	0xbe9750c3	-0.29553804
108	0xbe661d71	-0.22472169
109	0xbd2c9849	-0.042137418
110	0xbe9fbef6	-0.3120038
111	0xbde69bb9	-0.112601705
112	0xbe4780b8	-0.19482696
113	0xbd254797	-0.040351477
114	0xbe3a5883	-0.18197827
115	0xbe576966	-0.210363
116	0xbda3ec14	-0.08004013
117	0xbe9a9f6f	-0.30199763
118	0xbe1863ec	-0.14881867
119	0xbe16dc6e	-0.14732525
120	0xbe8e0cd8	-0.27744174
121	0xbd94e6c6	-0.07270579
122	0xbe8fb0e3	-0.2806464
123	0xbdcc0313	-0.09961524
124	0xbd8daf30	-0.0691818
125	0xbd5d98f2	-0.05410094
126	0xbdfbc18a	-0.12292774
127	0xbe730850	-0.2373364
128	0xbe5fbcdb	-0.21849386
129	0xbe0dd4d5	-0.1385072
130	0xbd5455bd	-0.05183958
131	0xbe0f44c2	-0.13991073
132	0xbe1a9093	-0.15094213
133	0xbe09d961	-0.1346183
134	0xbd81b6c8	-0.06333691
135	0xbe6c1ba4	-0.23057419
136	0xbe3f6d79	-0.18694104
137	0xbe93dcd1	-0.28879407
138	0xbe64d037	-0.22345053
139	0xbe9e70f8	-0.30945563
140	0xbe34930a	-0.17634216
141	0xbe5a54c3	-0.21321397
142	0xbe0f9509	-0.14021696
143	0xbd38a702	-0.045081146
144	0xbe205a8c	-0.15659541
145	0xbdb6d45b	-0.08927222
146	0xbe0f7d72	-0.14012697
147	0xbddd06a8	-0.10792285
148	0xbe2ca003	-0.16857915
149	0xbd84340b	-0.06455239
150	0xbea67e53	-0.32518253
151	0xbe9a1f88	-0.3010218
152	0x3c817bb0	0.01580605
153	0xbe3d39a5	-0.18479021
154	0xbe35f527	-0.177693
155	0xbe1104e4	-0.14162022
156	0xbe22e553	-0.15907793
157	0xbc8c0a6e	-0.017094817
158	0x3c2b6d39	0.010463052
159	0xbcf44a4d	-0.029820586
160	0xbe65be8a	-0.22435966
161	0xbe9526e4	-0.29131234
162	0xbe81265c	-0.25224578
163	0xbe470cd2	-0.19438484
164	0xbe669f5a	-0.22521725
165	0xbe098296	-0.13428721
166	0xbed8d7ab	-0.42352042
167	0xbf016154	-0.50539136
168	0xbe51f81c	-0.20504802
169	0xbe164216	-0.14673647
170	0xbdebb323	-0.11508777
171	0xbe39b60f	-0.18135856
172	0xbc9401d8	-0.018067285
173	0xbe0c67ae	-0.13711426
174	0xbe8371a4	-0.25672638
175	0xbde9a21b	-0.11407872
176	0xbe02b9f1	-0.12766244
177	0xbe69b7f0	-0.22824073
178	0xbd134209	-0.035951648
179	0xbe5a0f54	-0.2129491
180	0xbdfae56f	-0.12250792
181	0xbea69c8d	-0.32541314
182	0xbe421e8f	-0.1895697
183	0xbed6e9c9	-0.4197524
184	0xbe133c9c	-0.1437859
185	0xbe7d070d	-0.24709721
186	0xbd987f87	-0.07446199
187	0xbe6e2422	-0.23255971
188	0xbee8b321	-0.45449165
189	0xbe60354f	-0.21895336
190	0xbe963b48	-0.29342103
191	0xbcce1486	-0.02515627
192	0xbe4821b1	-0.19544102
193	0xbdbd7b0c	-0.09251985
194	0xbd9cf037	-0.07663005
195	0xbdf20f51	-0.118193276
196	0xbe62fc3a	-0.2216653
197	0x3d1e8a21	0.03870595
198	0xbe2a6fb9	-0.16644181
199	0xbe234c64	-0.1594711
200	0x3e3a541c	0.18196148
201	0x3e29ae40	0.16570377
202	0xbd9f0f79	-0.07766623
203	0x3cd3a8c5	0.025837312
204	0x3e150ddc	0.14556068
205	0x3e8a8099	0.27051237
206	0xbb141906	-0.0022597923
207	0x3e2c62ff	0.16834639
208	0x3dcad4a0	0.09903836
209	0xbd0985a7	-0.033574726
210	0x3da27302	0.07932092
211	0x3e2e73f5	0.17036422
212	0xbca02e75	-0.019553402
213	0xbcd058cf	-0.025432972
214	0xbddb8078	-0.10717863
215	0x3c2bc0af	0.010482951
216	0x3d1b6532	0.037938304
217	0x3e6657f4	0.22494489
218	0x3c9edd48	0.019392624
219	0x3c9523ff	0.01820564
220	0x3e71d508	0.23616421
221	0x3e30cac4	0.17264849
222	0x3df70133	0.120607756
223	0x3d3e4aa0	0.046457887
224	0xbd264f42	-0.04060293
225	0xbd83aec3	-0.064298175
226	0x3d11e721	0.035620812
227	0xbd039c87	-0.032131698
228	0x3d4a281f	0.04935467
229	0xbc8905fc	-0.016726486
230	0x3bcdfc1a	0.0062861564
231	0xbdb1b51b	-0.08677121
232	0x3d86ac16	0.065757915
233	0xbbec8610	-0.00721813
234	0x3d066344	0.03280951
235	0xbdd90384	-0.10596374
236	0xbd8ec6ad	-0.06971488
237	0xbe9141bd	-0.28370467
238	0xbdd90f17	-0.10598581
239	0xbe085fdb	-0.13317816
240	0xbda32631	-0.07966269
241	0xbc9ad563	-0.018900579
242	0xbe1f79af	-0.15573762
243	0xbdb02419	-0.08600635
244	0x3d9de799	0.07710189
245	0x3d771691	0.060324255
246	0x3d81e725	0.063429154
247	0xbbf56356	-0.0074886484
248	0xbe8c0599	-0.2734802
249	0xbdb51f08	-0.08843809
250	0xbe057723	-0.13033728
251	0x3d9d0fe6	0.07669048
252	0xbde19232	-0.11014213
253	0xbdb7f9d0	-0.08983195
254	0x3d13164a	0.03590993
255	0x3e1e5e24	0.154656

weight f4 [2, 100]
0	0x3e410b35	0.18851931
1	0x3e930765	0.2871658
2	0x3ee2895c	0.44245422
3	0xbe5d551f	-0.21614502
4	0xbdb9f71b	-0.09080335
5	0xbc85c8a7	-0.01633103
6	0x3e9c4f5c	0.30529296
7	0x3e9d42b2	0.30714947
8	0x3eb28c4a	0.34872657
9	0x3e78e55b	0.24306242
10	0x3e31cab2	0.17362478
11	0x3dac013d	0.08398674
12	0xbd8e7267	-0.06955414
13	0xbdfa7eaf	-0.12231194
14	0x3ee3b761	0.44475845
15	0x3ec8bba1	0.3920565
16	0xbe615ce0	-0.22008085
17	0xbdeafc42	-0.114738956
18	0x3ea60c8c	0.32431448
19	0xbe97f36f	-0.29677913
20	0xbdfc0195	-0.12304989
21	0xbed8202f	-0.42212054
22	0xbec60a27	-0.3867962
23	0xbe939c61	-0.28830245
24	0x3ec28178	0.37989402
25	0xbe5b3e4a	-0.2141048
26	0x3ea0dd1b	0.3141869
27	0x3ec8449f	0.39114854
28	0x3edcf81d	0.43158045
29	0x3ebfbc54	0.3744837
30	0xbea71f9d	-0.32641307
31	0xbec86a18	-0.39143443
32	0xbedce2b8	-0.43141723
33	0x3e4c3b93	0.19944601
34	0x3e901e81	0.28148273
35	0xbe6d0829	-0.23147644
36	0xbd851927	-0.06498938
37	0x3e999e1a	0.30003434
38	0x3e6186fa	0.22024146
39	0xbe2c6f05	-0.16839226
40	0xbecae58a	-0.3962825
41	0x3ee59c0f	0.44845626
42	0xbdd81353	-0.10550561
43	0x3efa8104	0.48926556
44	0xbe4f627e	-0.20252416
45	0x3e448668	0.19191897
46	0x3e6c7049	0.23089708
47	0xbebc5c14	-0.36789
48	0x3eaac888	0.33356118
49	0x3f299b8a	0.6625296
50	0xbea4a83d	-0.32159606
51	0x3e90671e	0.28203672
52	0x3d860bda	0.06545229
53	0x3e9fba28	0.31196713
54	0x3ea27eaf	0.31737277
55	0x3e4519fa	0.1924819
56	0x3d9d19f0	0.07670963
57	0xbedfdece	-0.43724674
58	0xbdb05d79	-0.086115785
59	0xbda5cf3c	-0.080961674
60	0xbeec4900	-0.46149445
61	0xbebaa292	-0.36452156
62	0x3edd0c3d	0.431734
63	0xbdfe9e5d	-0.12432549
64	0x3dfee84c	0.12446651
65	0x3e03688e	0.12832853
66	0xbdde6f3b	-0.10861059
67	0x3e9aa774	0.30205882
68	0x3bb15203	0.005411388
69	0x3eda2cde	0.42612356
70	0xbecce1f6	-0.40016145
71	0xbe932d37	-0.28745434
72	0x3db9a9a2	0.09065558
73	0xbec99fec	-0.39379823
74	0xbdcc8d03	-0.09987833
75	0x3d830527	0.06397467
76	0x3e34e4d3	0.17665415
77	0x3ea7cc9d	0.32773295
78	0xbdd65504	-0.10465434
79	0x3ea6adcd	0.32554474
80	0xbe0cccd0	-0.13750005
81	0xbe9bcfa6	-0.3043186
82	0xbeb6a674	-0.3567387
83	0x3edb136b	0.42788252
84	0x3e35561c	0.1770863
85	0x3edfcf48	0.4371283
86	0xbea3502e	-0.3189711
87	0x3f09a208	0.53762865
88	0xbe557af0	-0.20847678
89	0x3d978095	0.07397572
90	0x3eecde36	0.46263283
91	0xbd8f5429	-0.06998474
92	0xbeb813d1	-0.3595262
93	0xbe38c5bc	-0.1804418
94	0x3eabff4a	0.33593208
95	0x3d9afab4	0.07567349
96	0xbe161693	-0.14657049
97	0xbeb9e8e4	-0.36310494
98	0xbeac25d6	-0.33622617
99	0x3e8c6f64	0.27428734
100	0xbe30e270	-0.17273879
101	0xbe526baf	-0.2054889
102	0xbedafb38	-0.4276979
103	0x3e285c4f	0.16441463
104	0xbd7e059d	-0.062017072
105	0x3e30df6c	0.17272729
106	0xbed07bf6	-0.40719575
107	0xbed585c3	-0.41703615
108	0xbeb42bd2	-0.35189682
109	0xbe47638c	-0.19471568
110	0xbeb34510	-0.35013628
111	0xbdb139a1	-0.0865357
112	0x3e629123	0.22125678
113	0x3e3ba819	0.18325843
114	0xbedf0ed7	-0.4356601
115	0xbed9142c	-0.42398202
116	0x3eb17c3a	0.3466509
117	0x3e007487	0.12544452
118	0xbec39cae	-0.38205475
119	0x3e925a77	0.28584644
120	0x3e834699	0.256398
121	0x3edbcd55	0.42930093
122	0x3ee28ec9	0.4424956
123	0x3e9a28cf	0.3010926
124	0xbedcc5df	-0.43119714
125	0x3ea8be80	0.3295784
126	0xbedf1a00	-0.43574524
127	0xbedd09f9	-0.4317167
128	0xbee0bedf	-0.43895623
129	0xbe89d410	-0.26919603
130	0x3e40411c	0.18774837
131	0x3ecdb1e8	0.40174794
132	0x3ec25192	0.37952858
133	0xbe589b5d	-0.21153016
134	0xbeda37ad	-0.42620602
135	0x3e3b21a2	0.18274549
136	0xbc6763d2	-0.01412292
137	0xbe664b8a	-0.22489753
138	0xbe7c117d	-0.24616046
139	0x3e1f5c0d	0.15562458
140	0x3ec23f06	0.37938708
141	0xbec7511f	-0.38929078
142	0xbd73cf7e	-0.05952405
143	0xbedfd2a8	-0.43715405
144	0x3d69cc47	0.05707958
145	0xbe02de80	-0.1278019
146	0xbea4d9d8	-0.32197452
147	0x3ecfae55	0.40562692
148	0xbea29082	-0.31750876
149	0xbf169d7b	-0.58834046
150	0x3ef17587	0.4715998
151	0xbe6a4700	-0.22878647
152	0xbdc64f50	-0.096830964
153	0xbe8317ec	-0.25604188
154	0xbeeb21e9	-0.4592431
155	0xbe352f60	-0.17693853
156	0xbbb9775b	-0.0056599802
157	0x3e8aee2b	0.27134833
158	0x3e2229d8	0.15836275
159	0x3e6947a4	0.22781235
160	0x3ee29a68	0.44258428
161	0x3eb4007c	0.3515662
162	0xbeef3ad9	-0.46724585
163	0x3d8b9b17	0.068166904
164	0xbe02d313	-0.12775831
165	0xbe2fb074	-0.17157155
166	0x3e83c424	0.2573558
167	0xbeaefaaa	-0.34175617
168	0xbdc9962e	-0.098430976
169	0xbe875966	-0.26435393
170	0x3ecc85fd	0.39945975
171	0x3e583b29	0.21116318
172	0xbc36c6a7	-0.011155761
173	0x3ed051d0	0.40687418
174	0x3e015678	0.12630641
175	0x3c1fd93c	0.009756383
176	0xbeb7773c	-0.35833156
177	0xbebd252b	-0.3694242
178	0x3e51bbbb	0.2048177
179	0xbe89565f	-0.26823708
180	0x3e09978c	0.13436717
181	0x3e95d69a	0.2926529
182	0x3ec72678	0.38896537
183	0xbe8cafad	-0.2747778
184	0xbdeecda5	-0.11660317
185	0xbedd25f6	-0.43193024
186	0x3eba6ac0	0.3640957
187	0xbf0c17d5	-0.54723865
188	0x3e1e6c62	0.15471032
189	0xbc8e2b37	-0.01735459
190	0xbee454e2	-0.4459601
191	0x3d8d5162	0.06900288
192	0x3e884b0f	0.26619765
193	0x3e2a5d04	0.16637045
194	0xbe1eb3f9	-0.15498342
195	0x3d0ca390	0.034335673
196	0x3df106e9	0.11768896
197	0x3e8028c0	0.2503109
198	0x3ebed4cd	0.3727173
199	0xbecdb564	-0.40177453

bias f4 [2]
0	0xbd8ce73b	-0.06880041
1	0x3bc6863c	0.0060584825

weight f4 [2, 100]
0	0x3cef02c1	0.029176118
1	0x3daaeef1	0.08346356
2	0xbd9f5850	-0.07780516
3	0xbc82c2cc	-0.015962027
4	0xbe4b7b11	-0.19871165
5	0xbd4ed08e	-0.050491862
6	0xbdac9bda	-0.08428164
7	0x3d4c05b0	0.04981011
8	0x3dec9760	0.1155231
9	0xbe198c47	-0.14994918
10	0x3dcb1cef	0.09917628
11	0xbd51d0e0	-0.05122459
12	0x3e3a05b1	0.18166234
13	0x3dde716e	0.10861479
14	0x3db7e622	0.08979441
15	0xbdbf0fd8	-0.09329194
16	0xbdefcb12	-0.117086545
17	0xbd875361	-0.066077
18	0xbdb65df7	-0.08904641
19	0xbe03f97c	-0.1288814
20	0xbd473a3e	-0.04863953
21	0x3d59ffef	0.053222593
22	0xbcd45737	-0.025920494
23	0xbe044a21	-0.12918903
24	0xbcbca18c	-0.02302625
25	0x3e334d80	0.17510033
26	0xbe361c7b	-0.17784302
27	0x3d5b11ba	0.053483702
28	0xbc2b9c01	-0.010474206
29	0x3d995eee	0.074888095
30	0xbdfd89ce	-0.123798
31	0x3e0e379a	0.13888398
32	0x3c35fc52	0.011107521
33	0x3cee4233	0.0290843
34	0xbdab099e	-0.08351444
35	0x3cedb516	0.029017013
36	0xbdc0a30a	-0.09406097
37	0x3aebc73a	0.0017988451
38	0x3e2fd7ce	0.17172167
39	0xbe320833	-0.1738594
40	0xbdbb85aa	-0.09156354
41	0xbb6baf81	-0.0035962763
42	0x3d652e50	0.05595237
43	0xbdb0d3db	-0.08634158
44	0xbe0d468b	-0.13796441
45	0xbd8bd718	-0.06828135
46	0x3d721b0c	0.059107825
47	0xbdc50313	-0.09619727
48	0xbcb394f9	-0.021921622
49	0xbe44ee29	-0.19231476
50	0xbde66562	-0.11249806
51	0xbd1f6356	-0.038913094
52	0x3e44a87d	0.19204898
53	0x3de7f915	0.113268055
54	0xbda10943	-0.07863095
55	0xbdf0a8a0	-0.11750913
56	0xbe0203ab	-0.12696712
57	0x3e116ac4	0.14200884
58	0xbe41d3b3	-0.18928413
59	0x3e084f8f	0.13311599
60	0xbcf56759	-0.029956507
61	0x3da3dd7f	0.080012314
62	0xbe24b6b8	-0.16085327
63	0xbe1f95b6	-0.15584454
64	0x3bd4c99b	0.00649376
65	0xbe08bafa	-0.13352576
66	0xbd94025e	-0.07227014
67	0xbdbe9c64	-0.09307173
68	0x3d498f6f	0.049209055
69	0x3e04bda6	0.1296297
70	0xbe1cb7aa	-0.15304437
71	0x3c3cf518	0.011533044
72	0x3e2035c5	0.15645511
73	0x3e0a1483	0.13484387
74	0xbdb96918	-0.09053248
75	0x3e59aabc	0.21256536
76	0x3dd6b6e3	0.104841016
77	0x3df639c1	0.120227344
78	0xbdcfc590	-0.10145104
79	0x3dcb22b9	0.09918732
80	0x3dbbab6f	0.09163558
81	0x3b9fbc97	0.0048747766
82	0x3d19a901	0.03751469
83	0xbc216c7d	-0.009852526
84	0xbe4d38f8	-0.20041263
85	0x3d9b95f1	0.075969584
86	0x3e0e21cc	0.1388008
87	0xbe4dd03c	-0.20098966
88	0xbdefee0c	-0.11715326
89	0x3dc2a0b1	0.09503306
90	0xbe289330	-0.16462398
91	0x3e4089cb	0.18802564
92	0xbdafd260	-0.08585048
93	0x3d51ed91	0.05125195
94	0x3dbdf8d2	0.09275974
95	0xbe36b678	-0.17843044
96	0x3e0d9849	0.13827623
97	0x3e2cb157	0.16864525
98	0x3e2c6130	0.16833949
99	0xbe098d90	-0.13432908
100	0xbd55747f	-0.052113052
101	0xbcedd4f9	-0.029032217
102	0xbda09388	-0.07840639
103	0x3dfcb1d4	0.123386055
104	0x3e50a6f8	0.20376194
105	0x3de7b5e4	0.1131399
106	0x3ddff1a6	0.10934763
107	0x3d7d1078	0.061783284
108	0xbdaca6a3	-0.08430221
109	0x3e714fab	0.23565547
110	0xbdb5f2cb	-0.088842
111	0x3d7c3121	0.06157029
112	0xbdab0ec1	-0.083524235
113	0xbd060718	-0.03272161
114	0xbdc733e8	-0.09726697
115	0xbcaa9913	-0.020824945
116	0x3d244e6e	0.04011386
117	0xbc5cbf2c	-0.013473313
118	0x3aa4719d	0.0012546066
119	0x3e1349b2	0.14383581
120	0xbd0744df	-0.033024665
121	0xbd20a36a	-0.039218344
122	0x3d94b38d	0.07260809
123	0x3e025a06	0.12729654
124	0x3d347f3c	0.044066653
125	0xbe388e6d	-0.18023081
126	0x3da874ae	0.0822538
127	0x3c4cab32	0.012491988
128	0x3d3e472b	0.04645459
129	0xbe1919de	-0.14951274
130	0xbcf46a4c	-0.029835843
131	0xbe351600	-0.17684174
132	0xbd175303	-0.0369444
133	0x3da46767	0.08027535
134	0xbd88909b	-0.06668206
135	0x3d01d866	0.031700514
136	0x3e3af05c	0.18255752
137	0xbcdaa7dc	-0.02669137
138	0xbdc5e1da	-0.096622184
139	0xbd86c544	-0.06580594
140	0xbd1a81ce	-0.037721448
141	0xb85c7c36	-5.2567768e-05
142	0xbe1584fe	-0.14601514
143	0x3df97e05	0.121822394
144	0x3e384140	0.17993641
145	0x3e0ce826	0.13760433
146	0xbddc1301	-0.10745812
147	0x3d1a5895	0.037682135
148	0xbb994890	-0.0046778396
149	0x3e20e28d	0.15711422
150	0xbbe6c8aa	-0.007042964
151	0x3999b60b	0.00029318067
152	0xbe6f8117	-0.23389088
153	0xbde6ba2b	-0.112659775
154	0xbe0987d0	-0.13430715
155	0x3dcb36e7	0.09922581
156	0x3df49241	0.11941958
157	0xbd708df0	-0.058729112
158	0x3e19b39c	0.15009922
159	0xbe4d9efc	-0.20080179
160	0xbe247156	-0.16058859
161	0x36e4fe02	6.8245e-06
162	0xbda459df	-0.08024954
163	0x3db84586	0.089976355
164	0x3decccaa	0.11562474
165	0x3e4e491a	0.20145074
166	0xbcb1303d	-0.021629447
167	0x3c789091	0.015171186
168	0x3e20ec19	0.15715064
169	0x3d87c372	0.06629075
170	0xbd33d3d0	-0.043903172
171	0x3d0caace	0.03434258
172	0xbe381829	-0.17977966
173	0x3d52b821	0.05144513
174	0x3e0e0bec	0.13871735
175	0xbe589ab8	-0.2115277
176	0xbd89fbe4	-0.067374974
177	0xbe18debe	-0.1492872
178	0x3e19d48b	0.15022485
179	0xbd953e3b	-0.0728726
180	0xbd99d860	-0.075119734
181	0x3c937a2b	0.01800259
182	0xbe2bcd2d	-0.16777487
183	0x3d3b50a3	0.045731198
184	0x3d70e7a8	0.058814675
185	0xbd87e1f2	-0.066348925
186	0xbd24bff1	-0.040222112
187	0x3db4c413	0.08826461
188	0xbd6534ef	-0.055958685
189	0xbdc4fac5	-0.09618143
190	0xbdff7f95	-0.12475506
191	0xbe3327ef	-0.17495702
192	0x3c85f86a	0.016353805
193	0x3d108ba5	0.035289425
194	0xbd9aab77	-0.075522356
195	0x3e0136ba	0.12618533
196	0xbc940a8e	-0.01807144
197	0xbe1dea1b	-0.15421335
198	0xbdee775f	-0.11643862
199	0x3d2dc400	0.04242325

bias f4 [2]
0	0x3dbdc305	0.09265713
1	0x3bc37044	0.005964311

amplitudes f4 [1000, 2]
0	0x35b6b90a	1.361391e-06
1	0xbfc6093a	-1.5471566
2	0x35b6b90a	1.361391e-06
3	0xbfc6093a	-1.5471566
4	0x35b6b90a	1.361391e-06
5	0xbfc6093a	-1.5471566
6	0x35b6b90a	1.361391e-06
7	0xbfc6093a	-1.5471566
8	0x35b6b90a	1.361391e-06
9	0xbfc6093a	-1.5471566
10	0x35b6b90a	1.361391e-06
11	0xbfc6093a	-1.5471566
12	0x35b6b90a	1.361391e-06
13	0xbfc6093a	-1.5471566
14	0x35b6b90a	1.361391e-06
15	0xbfc6093a	-1.5471566
16	0x35b6b90a	1.361391e-06
17	0xbfc6093a	-1.5471566
18	0x35b6b90a	1.361391e-06
19	0xbfc6093a	-1.5471566
20	0x35b6b90a	1.361391e-06
21	0xbfc6093a	-1.5471566
22	0x35b6b90a	1.361391e-06
23	0xbfc6093a	-1.5471566
24	0x35b6b90a	1.361391e-06
25	0xbfc6093a	-1.5471566
26	0x35b6b90a	1.361391e-06
27	0xbfc6093a	-1.5471566
28	0x35b6b90a	1.361391e-06
29	0xbfc6093a	-1.5471566
30	0x35b6b90a	1.361391e-06
31	0xbfc6093a	-1.5471566
32	0x35b6b90a	1.361391e-06
33	0xbfc6093a	-1.5471566
34	0x35b6b90a	1.361391e-06
35	0xbfc6093a	-1.5471566
36	0x35b6b90a	1.361391e-06
37	0xbfc6093a	-1.5471566
38	0x35b6b90a	1.361391e-06
39	0xbfc6093a	-1.5471566
40	0x35b6b90a	1.361391e-06
41	0xbfc6093a	-1.5471566
42	0x35b6b90a	1.361391e-06
43	0xbfc6093a	-1.5471566
44	0x35b6b90a	1.361391e-06
45	0xbfc6093a	-1.5471566
46	0x35b6b90a	1.361391e-06
47	0xbfc6093a	-1.5471566
48	0x35b6b90a	1.361391e-06
49	0xbfc6093a	-1.5471566
50	0x35b6b90a	1.361391e-06
51	0xbfc6093a	-1.5471566
52	0x35b6b90a	1.361391e-06
53	0xbfc6093a	-1.5471566
54	0x35b6b90a	1.361391e-06
55	0xbfc6093a	-1.5471566
56	0x35b6b90a	1.361391e-06
57	0xbfc6093a	-1.5471566
58	0x35b6b90a	1.361391e-06
59	0xbfc6093a	-1.5471566
60	0x35b6b90a	1.361391e-06
61	0xbfc6093a	-1.5471566
62	0x35b6b90a	1.361391e-06
63	0xbfc6093a	-1.5471566
64	0x35b6b90a	1.361391e-06
65	0xbfc6093a	-1.5471566
66	0x35b6b90a	1.361391e-06
67	0xbfc6093a	-1.5471566
68	0x35b6b90a	1.361391e-06
69	0xbfc6093a	-1.5471566
70	0x35b6b90a	1.361391e-06
71	0xbfc6093a	-1.5471566
72	0x35b6b90a	1.361391e-06
73	0xbfc6093a	-1.5471566
74	0x35b6b90a	1.361391e-06
75	0xbfc6093a	-1.5471566
76	0x35b6b90a	1.361391e-06
77	0xbfc6093a	-1.5471566
78	0x35b6b90a	1.361391e-06
79	0xbfc6093a	-1.5471566
80	0x35b6b90a	1.361391e-06
81	0xbfc6093a	-1.5471566
82	0x35b6b90a	1.361391e-06
83	0xbfc6093a	-1.5471566
84	0x35b6b90a	1.361391e-06
85	0xbfc6093a	-1.5471566
86	0x35b6b90a	1.361391e-06
87	0xbfc6093a	-1.5471566
88	0x35b6b90a	1.361391e-06
89	0xbfc6093a	-1.5471566
90	0x35b6b90a	1.361391e-06
91	0xbfc6093a	-1.5471566
92	0x35b6b90a	1.361391e-06
93	0xbfc6093a	-1.5471566
94	0x35b6b90a	1.361391e-06
95	0xbfc6093a	-1.5471566
96	0x35b6b90a	1.361391e-06
97	0xbfc6093a	-1.5471566
98	0x35b6b90a	1.361391e-06
99	0xbfc6093a	-1.5471566
100	0x35b6b90a	1.361391e-06
101	0xbfc6093a	-1.5471566
102	0x35b6b90a	1.361391e-06
103	0xbfc6093a	-1.5471566
104	0x35b6b90a	1.361391e-06
105	0xbfc6093a	-1.5471566
106	0x35b6b90a	1.361391e-06
107	0xbfc6093a	-1.5471566
108	0x35b6b90a	1.361391e-06
109	0xbfc6093a	-1.5471566
110	0x35b6b90a	1.361391e-06
111	0xbfc6093a	-1.5471566
112	0x35b6b90a	1.361391e-06
113	0xbfc6093a	-1.5471566
114	0x35b6b90a	1.361391e-06
115	0xbfc6093a	-1.5471566
116	0x35b6b90a	1.361391e-06
117	0xbfc6093a	-1.5471566
118	0x35b6b90a	1.361391e-06
119	0xbfc6093a	-1.5471566
120	0x35b6b90a	1.361391e-06
121	0xbfc6093a	-1.5471566
122	0x35b6b90a	1.361391e-06
123	0xbfc6093a	-1.5471566
124	0x35b6b90a	1.361391e-06
125	0xbfc6093a	-1.5471566
126	0x35b6b90a	1.361391e-06
127	0xbfc6093a	-1.5471566
128	0x35b6b90a	1.361391e-06
129	0xbfc6093a	-1.5471566
130	0x35b6b90a	1.361391e-06
131	0xbfc6093a	-1.5471566
132	0x35b6b90a	1.361391e-06
133	0xbfc6093a	-1.5471566
134	0x35b6b90a	1.361391e-06
135	0xbfc6093a	-1.5471566
136	0x35b6b90a	1.361391e-06
137	0xbfc6093a	-1.5471566
138	0x35b6b90a	1.361391e-06
139	0xbfc6093a	-1.5471566
140	0x35b6b90a	1.361391e-06
141	0xbfc6093a	-1.5471566
142	0x35b6b90a	1.361391e-06
143	0xbfc6093a	-1.5471566
144	0x35b6b90a	1.361391e-06
145	0xbfc6093a	-1.5471566
146	0x35b6b90a	1.361391e-06
147	0xbfc6093a	-1.5471566
148	0x35b6b90a	1.361391e-06
149	0xbfc6093a	-1.5471566
150	0x35b6b90a	1.361391e-06
151	0xbfc6093a	-1.5471566
152	0x35b6b90a	1.361391e-06
153	0xbfc6093a	-1.5471566
154	0x35b6b90a	1.361391e-06
155	0xbfc6093a	-1.5471566
156	0x35b6b90a	1.361391e-06
157	0xbfc6093a	-1.5471566
158	0x35b6b90a	1.361391e-06
159	0xbfc6093a	-1.5471566
160	0x35b6b90a	1.361391e-06
161	0xbfc6093a	-1.5471566
162	0x35b6b90a	1.361391e-06
163	0xbfc6093a	-1.5471566
164	0x35b6b90a	1.361391e-06
165	0xbfc6093a	-1.5471566
166	0x35b6b90a	1.361391e-06
167	0xbfc6093a	-1.5471566
168	0x35b6b90a	1.361391e-06
169	0xbfc6093a	-1.5471566
170	0x35b6b90a	1.361391e-06
171	0xbfc6093a	-1.5471566
172	0x35b6b90a	1.361391e-06
173	0xbfc6093a	-1.5471566
174	0x35b6b90a	1.361391e-06
175	0xbfc6093a	-1.5471566
176	0x35b6b90a	1.361391e-06
177	0xbfc6093a	-1.5471566
178	0x35b6b90a	1.361391e-06
179	0xbfc6093a	-1.5471566
180	0x35b6b90a	1.361391e-06
181	0xbfc6093a	-1.5471566
182	0x35b6b90a	1.361391e-06
183	0xbfc6093a	-1.5471566
184	0x35b6b90a	1.361391e-06
185	0xbfc6093a	-1.5471566
186	0x35b6b90a	1.361391e-06
187	0xbfc6093a	-1.5471566
188	0x35b6b90a	1.361391e-06
189	0xbfc6093a	-1.5471566
190	0x35b6b90a	1.361391e-06
191	0xbfc6093a	-1.5471566
192	0x35b6b90a	1.361391e-06
193	0xbfc6093a	-1.5471566
194	0x35b6b90a	1.361391e-06
195	0xbfc6093a	-1.5471566
196	0x35b6b90a	1.361391e-06
197	0xbfc6093a	-1.5471566
198	0x35b6b90a	1.361391e-06
199	0xbfc6093a	-1.5471566
200	0x35b6b90a	1.361391e-06
201	0xbfc6093a	-1.5471566
202	0x35b6b90a	1.361391e-06
203	0xbfc6093a	-1.5471566
204	0x35b6b90a	1.361391e-06
205	0xbfc6093a	-1.5471566
206	0x35b6b90a	1.361391e-06
207	0xbfc6093a	-1.5471566
208	0x35b6b90a	1.361391e-06
209	0xbfc6093a	-1.5471566
210	0x35b6b90a	1.361391e-06
211	0xbfc6093a	-1.5471566
212	0x35b6b90a	1.361391e-06
213	0xbfc6093a	-1.5471566
214	0x35b6b90a	1.361391e-06
215	0xbfc6093a	-1.5471566
216	0x35b6b90a	1.361391e-06
217	0xbfc6093a	-1.5471566
218	0x35b6b90a	1.361391e-06
219	0xbfc6093a	-1.5471566
220	0x35b6b90a	1.361391e-06
221	0xbfc6093a	-1.5471566
222	0x35b6b90a	1.361391e-06
223	0xbfc6093a	-1.5471566
224	0x35b6b90a	1.361391e-06
225	0xbfc6093a	-1.5471566
226	0x35b6b90a	1.361391e-06
227	0xbfc6093a	-1.5471566
228	0x35b6b90a	1.361391e-06
229	0xbfc6093a	-1.5471566
230	0x35b6b90a	1.361391e-06
231	0xbfc6093a	-1.5471566
232	0x35b6b90a	1.361391e-06
233	0xbfc6093a	-1.5471566
234	0x35b6b90a	1.361391e-06
235	0xbfc6093a	-1.5471566
236	0x35b6b90a	1.361391e-06
237	0xbfc6093a	-1.5471566
238	0x35b6b90a	1.361391e-06
239	0xbfc6093a	-1.5471566
240	0x35b6b90a	1.361391e-06
241	0xbfc6093a	-1.5471566
242	0x35b6b90a	1.361391e-06
243	0xbfc6093a	-1.5471566
244	0x35b6b90a	1.361391e-06
245	0xbfc6093a	-1.5471566
246	0x35b6b90a	1.361391e-06
247	0xbfc6093a	-1.5471566
248	0x35b6b90a	1.361391e-06
249	0xbfc6093a	-1.5471566
250	0x35b6b90a	1.361391e-06
251	0xbfc6093a	-1.5471566
252	0x35b6b90a	1.361391e-06
253	0xbfc6093a	-1.5471566
254	0x35b6b90a	1.361391e-06
255	0xbfc6093a	-1.5471566
