data/RNN_runs/sweep_H2/rnn_sto3g_H2_0-7348_eq1_nU50_nL2_lr001_lrsO_ns1000.pt (torch_old, 154322 bytes, 13 tensors)

weight_ih f4 [150, 2]
000000 56 c5 c7 3b f2 da 1d 3e 97 2f 5f be ff 38 12 3e
       0.0060965223 0.15415552 -0.21795498 0.14279555
000010 8a 13 96 3c 98 c9 19 3e cd db d1 3d 30 3a 62 be
       0.018319864 0.15018308 0.10247002 -0.2209251
000020 57 07 67 3d 3c 39 d8 3d 2a 4d 20 be bd 55 4f 3e
       0.056403484 0.105577916 -0.15654436 0.2024755
000030 37 ad 91 be c5 ab 74 3e 17 ed d6 be 6f 0d c8 3e
       -0.28452465 0.2389365 -0.4197776 0.3907275
000040 e0 8e 1f 3d 8e 09 07 3e ab 42 04 be 92 6b a2 3e
       0.038954616 0.13187239 -0.12916057 0.31722695
000050 92 63 82 3e 36 47 9e 3d 68 c4 41 be cd 14 f1 3e
       0.2546659 0.07728426 -0.1892258 0.47086182
000060 8b 1f 65 be a6 32 e0 3e 47 07 5f be 2e bc b6 3e
       -0.22375314 0.43788642 -0.2178012 0.35690445
000070 f6 36 63 bc ae 2b 77 3e a9 e0 df bc 74 45 dd 3e
       -0.013868084 0.24137756 -0.027328806 0.4321705
000080 b9 d5 e8 bd 66 fa a5 3e c4 22 88 3e 8e d0 5a be
       -0.11368889 0.324176 0.26589024 -0.2136862
000090 22 90 a7 be c5 6a 8f 3e 09 28 e2 3d f0 8c f0 bc
       -0.32727152 0.28011146 0.11042792 -0.02936408
0000a0 d3 61 db 3d 70 5d 08 3b 77 19 c1 3d 4d 9e 93 3e
       0.10712018 0.0020807646 0.09428685 0.2883171
0000b0 96 79 45 3e 04 c9 b2 3d 98 64 4c 3e 98 94 10 3d
       0.19284663 0.08729747 0.19960248 0.03529796
0000c0 8b 9a de 3d d5 2c 85 3e b2 70 e2 3d 66 8f 27 3e
       0.108693205 0.26010767 0.11056651 0.16363296
0000d0 49 a4 92 3e ff 67 1e be f7 20 56 be a6 94 83 bd
       0.28640965 -0.15469359 -0.20911013 -0.06424837
0000e0 70 4f 91 bd 09 de 28 3e 3c 08 60 3e b3 2a 48 be
       -0.070952296 0.1649095 0.21878141 -0.19547538
0000f0 d9 22 27 3e b2 5d 0c 3e 32 ab 3d 3b 9d 56 1c be
       0.16321887 0.13707617 0.0028941152 -0.15267415
000100 82 ba 02 3e a2 22 59 3d 81 c1 09 3e e1 79 8e bd
       0.1276646 0.053011544 0.13452722 -0.0695684
000110 6b 2b 11 bf 2b 0f ef 3e 10 83 74 bd 05 26 9d 3e
       -0.56706876 0.4669126 -0.059695303 0.3069307
000120 40 a0 bf 3d 7b 93 9d bd 8d 4d fd bd b7 df 9b 3e
       0.09356737 -0.07694145 -0.12368307 0.30444118
000130 34 d6 3c 3e d0 40 28 be 33 c4 bb bd 64 11 e1 3e
       0.18441087 -0.16430974 -0.091682814 0.4395858
000140 99 4a 6b 3e 0f ac 2e bd 8d ea e2 bd 4e 90 59 3e
       0.22977675 -0.042644557 -0.11079893 0.21246454
000150 2b 92 24 be c7 4e 97 3e 99 fe ee 3d bb 71 20 3e
       -0.16071384 0.2955229 0.116696544 0.15668385
000160 5b 24 7e 3e 7b c2 07 3e dd 71 7f be f8 ac b4 3e
       0.24818556 0.13257782 -0.24945779 0.35288215
000170 6e df e4 bd a3 36 b3 3e e8 4a 03 3e c9 01 6b be
       -0.11175428 0.35002622 0.12821543 -0.229499
000180 25 95 f1 3d c6 fc 98 3e 24 51 a9 3e ad b9 bd bd
       0.11796025 0.2988035 0.33069718 -0.092639305
000190 e3 c9 46 3d 10 dc 65 be ea 97 e0 bd 1e 4f a5 be
       0.048532378 -0.22447228 -0.10966475 -0.32286924
0001a0 18 cf 1f be 54 86 97 bd b4 58 2a be fa 54 9d be
       -0.15606344 -0.07398668 -0.166354 -0.30728894
0001b0 ab 63 75 bd 37 c8 22 bd 78 5d 69 3d 47 79 7b be
       -0.059909504 -0.03974172 0.056973904 -0.24557982
0001c0 6c 3d 87 3e 02 1f 60 be b3 72 b1 3e 37 5d b8 be
       0.2641405 -0.21886829 0.3465782 -0.36008617
0001d0 cc 66 70 be 10 13 0b 3c 7b 0d 49 3e 9f 13 6d bd
       -0.23476714 0.008488432 0.19634049 -0.05788004
0001e0 75 11 3d be 2c 1e c5 bc b7 2d ce 3e 9f b6 aa be
       -0.1846369 -0.024062239 0.40269253 -0.33342454
0001f0 88 9d 23 3b 3e 84 8f be 88 d8 4d 3e 36 f5 fb be
       0.0024965722 -0.2803058 0.20102131 -0.4921052
000200 98 05 e6 3d 75 0c 3c be dd 78 58 bd d6 39 21 bf
       0.11231536 -0.18364127 -0.05284964 -0.62978876
000210 52 6e ef bd 5f ea fc be 44 69 29 be 87 e6 ac be
       -0.11690964 -0.4939756 -0.16544062 -0.33769628
000220 2d 2b 0c 3e 3e 70 9d be 3d 37 3d be 94 5b 31 3b
       0.13688345 -0.30749696 -0.18478103 0.0027062641
000230 d4 c7 a1 bd bf 54 02 be c6 08 67 bc 71 3b b7 bc
       -0.07899442 -0.1272764 -0.014101213 -0.022367211
000240 bb 86 af bd 7c 13 10 be 23 37 83 be 34 23 ab 3d
       -0.0857062 -0.14069933 -0.25628003 0.08356324
000250 17 15 0a be 73 3c 81 be c3 a7 8e be f1 3e 88 be
       -0.13484608 -0.25241432 -0.27862367 -0.2661052
000260 ba fd 65 be 99 89 09 3d de fe a5 3d 70 57 e2 bd
       -0.2246007 0.03357849 0.08105253 -0.11051834
000270 9a 60 87 be f3 1d 78 be 8d 00 96 be b8 d5 33 3d
       -0.2644089 -0.24230175 -0.29297295 0.04390499
000280 88 9a fe bd e3 a6 15 3e a1 42 67 be eb dd 52 3e
       -0.12431818 0.14614443 -0.2258401 0.20592467
000290 25 b6 b6 bc 1f 85 e2 3d 80 f5 1f be 54 e2 1f 3e
       -0.02230365 0.11060547 -0.15620995 0.15613681
0002a0 0e d8 ec bc 00 19 f8 be 9a 5f df 3c 3e 4e e6 be
       -0.028911617 -0.48456573 0.027267266 -0.4498157
0002b0 47 b9 1d be 0b 56 28 3d 00 30 b4 bc 7a 39 7c be
       -0.15402709 0.041097682 -0.021995544 -0.246313
0002c0 83 e0 83 be 74 27 eb bd b5 d4 48 3e ae ba 29 be
       -0.25757226 -0.114821345 0.19612391 -0.16575119
0002d0 07 56 61 be 7f c0 08 be 20 af dd bd 36 d4 d8 be
       -0.22005473 -0.13354681 -0.10824418 -0.42349404
0002e0 fc fc b8 bd 9c e7 8d be 21 2a 8f be fa f1 a5 3d
       -0.09032628 -0.27715766 -0.2796183 0.08102794
0002f0 8e 28 4f bd 4c 70 4c be 4f 7e 86 be 01 28 dd be
       -0.050575785 -0.19964713 -0.2626824 -0.43194583
000300 46 f4 8f bd bc c8 fa bd a1 d7 72 be 49 4e 95 bd
       -0.07029013 -0.12245318 -0.23715068 -0.07290322
000310 1d 60 08 3d a9 b6 7d be 0a 5a c3 bd 12 c2 41 3e
       0.033294786 -0.2477671 -0.09538658 0.18921688
000320 78 bb ae bd eb 48 f0 bd 79 4a 3b 3e 01 02 ec be
       -0.085318506 -0.11732658 0.18290128 -0.4609528
000330 4d f2 51 be ba 72 8e bd 11 11 52 3e f0 a9 ad be
       -0.20502587 -0.06955476 0.20514323 -0.33918715
000340 b4 2b 0c be 89 01 1b 3d 23 ef 02 be c6 50 56 3e
       -0.13688546 0.03784326 -0.12786536 0.2092925
000350 b8 e4 17 3e 38 b1 92 be 77 fb 4e be e9 63 70 3e
       0.14833343 -0.28650832 -0.20213114 0.23475613
000360 d7 8f 4c 3e 56 67 8f bd 8f 23 57 bd 47 bd 26 3e
       0.19976746 -0.07002132 -0.052524146 0.16283141
000370 01 e6 67 be 29 4f 3d be 56 86 db bd 86 10 29 3e
       -0.22646333 -0.18487228 -0.10718982 0.1651021
000380 5c 68 6d 3e 88 c2 de be 85 97 85 3d 57 04 e0 be
       0.23184341 -0.4350779 0.06523041 -0.4375331
000390 4b 16 1b 3e 41 be 83 be df 02 2d be a4 0b d7 3e
       0.15145223 -0.2573109 -0.16895626 0.4200107
0003a0 bb 6a 88 be eb 3a d3 3e 96 aa 16 3e ea 88 a6 be
       -0.2664393 0.41255888 0.14713511 -0.32526332
0003b0 f6 c7 54 3e 6a 4c e3 be f8 74 ab be f0 b5 38 3e
       0.20779404 -0.44394237 -0.33487678 0.18038154
0003c0 f5 37 24 3e a2 6b 90 3d cb 56 21 be 01 a1 10 be
       0.16036971 0.07051779 -0.15755765 -0.14123918
0003d0 e1 9e 5e 3e f0 7f 74 3e df 75 90 be d1 f4 6f bd
       0.21740295 0.2387693 -0.28214929 -0.058583084
0003e0 a3 49 ed 3d 81 e7 4e 3e 7d f5 94 3e 0f 5c a6 be
       0.11586311 0.20205499 0.29093543 -0.3249211
0003f0 d3 61 b4 3e 18 6c b3 be 7b 1c d1 bd 16 68 7c 3e
       0.35230884 -0.35043406 -0.1021051 0.2464908

weight_hh f4 [150, 50]
000000 5e f7 15 be 73 cd a5 bd a0 f5 88 bc 1c 09 7f bd
       -0.14645144 -0.08095827 -0.016718686 -0.062264547
000010 bc 1b 42 be 0a c5 41 3e 44 f4 1d be ec 5a ba 3c
       -0.18955892 0.1892282 -0.15425211 0.022748433
000020 09 cf ae 3d 37 3a 53 3e 73 4b 12 be 8e 89 3e 3e
       0.085355826 0.20627676 -0.14286594 0.1860716
000030 34 f0 5f be 1f 98 53 bb 3d f2 4b be ec b5 25 3e
       -0.21868974 -0.0032286716 -0.19916625 0.16182679
000040 ce c1 87 3d 0d 29 db bd 12 f2 a4 bd be cc a1 bd
       0.06628762 -0.10701189 -0.08053984 -0.079003796
000050 99 d0 57 3d 02 e6 4b be ac 5a 80 3e d0 b3 6b bd
       0.05268917 -0.1991196 0.25069177 -0.05754453
000060 fd 51 69 3e 5b 3d 59 be 6a 7a e6 3d 1e 8c 39 3e
       0.22785182 -0.21214812 0.112538174 0.18119857
000070 aa 81 5a be b7 83 1a 3e 09 b8 e8 bd 9f 94 5a be
       -0.21338525 0.15089308 -0.11363227 -0.21345757
000080 c3 c1 52 be 9d 3b 85 3e b7 9f 9d bd ac a8 10 3e
       -0.20581727 0.26022044 -0.07696479 0.14126843
000090 5a 67 4f 3d b1 3c 69 be f3 c5 4e bc 7b 16 ac bd
       0.050635673 -0.22777058 -0.012620437 -0.08402725
0000a0 c8 27 0b be a5 1e 4b bd ab 11 8e 3d 42 8c 83 bd
       -0.13589394 -0.04958977 0.06936964 -0.064232364
0000b0 cc ad 8d 3b f9 42 a1 bd d6 63 47 be c9 33 e4 3d
       0.0043236967 -0.07874102 -0.19471678 0.1114269
0000c0 48 4f b1 bc 6e f6 cb 3d 83 8a a0 3d 12 8b 46 bc
       -0.02164425 0.09959112 0.07838919 -0.012118118
0000d0 29 1d 64 3d e2 9e b1 3b 69 3d 04 be 9f dc b5 3d
       0.05569187 0.0054205516 -0.12914051 0.08879971
0000e0 dd 4d 81 bd 26 38 86 3d c7 53 4e 3e 7c 8f 4e bc
       -0.06313679 0.06553678 0.20149146 -0.0126074515
0000f0 74 d8 5c 3d 5d 0a 95 3d 2f 3c d4 bc e9 8f 01 3c
       0.053917363 0.07277367 -0.025907604 0.007907846
000100 7b 3b d2 3c cb cd cc 3d 82 89 29 3d 5b c9 30 3e
       0.025663128 0.100001894 0.041390903 0.17264311
000110 3a e0 e2 3d 6b b0 af be 73 c1 1a 3e e6 5a 90 bd
       0.11077924 -0.34314284 0.15112858 -0.070485875
000120 4b 06 19 3e 08 47 64 3c ff 14 2c bd a5 6d 71 3d
       0.14943807 0.013932951 -0.04201221 0.058942456
000130 0e 64 2c 3e 59 b9 0c 3d 32 1d 32 bd a5 0f 5b 3d
       0.16835043 0.03435645 -0.043484874 0.053481717
000140 8f e0 0b bc ac 3d 8a bd 93 b4 42 bc e2 ee d5 3d
       -0.008537426 -0.06750044 -0.011883873 0.10445954
000150 3b db e2 bd 4a 9b 95 3d 2a 6f f3 bc 1d b0 7a bd
       -0.11076971 0.0730501 -0.029716093 -0.06120311
000160 5a 0c 2e bd 41 f0 1d 3d 75 a7 37 3e a4 97 6c 3c
       -0.042492248 0.038559202 0.17934974 0.014440451
000170 ec 61 ab bd 1f 6d fd 3d 7e cf 2f 3d a5 d4 4d bd
       -0.083682865 0.12374329 0.04292249 -0.05025162
000180 94 4a c1 bd 81 62 0d bc b0 7c ef bd f8 4b 30 3d
       -0.09438053 -0.008629442 -0.11693704 0.0430412
000190 87 51 d1 bb b7 6a 77 be cc 90 74 be e8 89 b3 bc
       -0.0063878926 -0.24161802 -0.2388336 -0.021916345
0001a0 9a de 41 be 4a f6 17 3e 87 0f db 3a 46 a6 d0 3d
       -0.18932572 0.14840046 0.0016713002 0.10187964
0001b0 bc fb d2 3d 7d 54 85 3e 84 1e b0 bc d2 21 46 3e
       0.10301921 0.26041022 -0.021498926 0.19348839
0001c0 69 69 53 be 4d aa 51 bd dc ad 6d be b1 0d 34 3d
       -0.2064568 -0.051187802 -0.23210853 0.04395837
0001d0 54 8c 8a 3d 83 ad d7 bc 87 95 0c be 4a db 1a 3e
       0.06765047 -0.026327854 -0.13728915 0.15122715
0001e0 62 11 61 3e b7 45 fa bd 7d 14 63 3e 67 82 68 be
       0.21979287 -0.12220328 0.22175784 -0.22705995
0001f0 fc ae b9 bb 81 09 7c be e0 a2 1a bd 21 30 8d 3e
       -0.0056666117 -0.24613 -0.037752986 0.27575782
000200 66 12 43 be fc 12 62 3e 7e c3 5d be bd 23 cc bd
       -0.19049987 0.22077554 -0.21656606 -0.09967754
000210 5b a7 0d be 30 c8 a5 3d b4 4f 50 be 32 d0 52 3e
       -0.13833372 0.08094823 -0.20342904 0.20587233
000220 d0 58 d2 3d ab e5 31 be 38 a0 04 bd 58 1c 73 be
       0.10270846 -0.17372768 -0.03237936 -0.23741281
000230 fa b7 52 bd a2 e6 99 bc b0 f2 2e 3d 4d 13 20 be
       -0.051444985 -0.018786732 0.042711914 -0.15632363
000240 b4 c9 3c 3e af 81 7a be d6 b9 af bd dd e2 91 bd
       0.18436319 -0.24463533 -0.08580367 -0.07123349
000250 8d 3a 75 be 36 0e 67 3d 34 fd a4 bd b0 6f 44 be
       -0.23948117 0.056410037 -0.08056107 -0.1918323
000260 4b ff bd 3b 88 2f a1 3d a5 6f bd bc da 37 1c 3e
       0.0057982556 0.07870394 -0.023124525 0.1525568
000270 a8 75 d2 bd 8d 8e 4c 3e 1b 1c 4c be 61 ef 48 3e
       -0.102763474 0.19976254 -0.19932596 0.19622566
000280 de cd 83 3d 98 3e 83 bd a2 04 94 bd 63 76 08 be
       0.064357504 -0.06408423 -0.07227446 -0.13326411
000290 98 16 ae 3d cf 08 c8 3c 77 83 02 3e 0c b4 0b 3e
       0.08500403 0.024418263 0.12745462 0.13642901
0002a0 fc 96 36 be de b3 2c 3e 18 69 99 bd b0 63 9f bd
       -0.17831033 0.16865489 -0.07490748 -0.07782686
0002b0 a5 1b 0b 3d 99 89 57 be 6b cc d1 bd f7 0f 24 be
       0.03396191 -0.21048583 -0.10244068 -0.16021715
0002c0 06 aa 2f be f8 8e c1 bc 48 b0 98 bd fc b1 21 3e
       -0.17154703 -0.023627743 -0.07455498 0.15790552
0002d0 1c 17 a2 bd 3e 29 43 be c9 d5 5e be 18 b2 32 3e
       -0.07914564 -0.19058701 -0.2176124 0.1745075
0002e0 2c 16 3e be 31 09 97 bc ae 8c 94 bd 63 d6 9d 3b
       -0.18563145 -0.018437 -0.07253395 0.0048168167
0002f0 f3 48 20 3d e0 13 f7 bc 34 17 b1 bd ab d9 83 bd
       0.03913207 -0.030160844 -0.08647004 -0.06438001
000300 78 5f 3b 3d 26 c4 19 3c d6 bd d8 3d d1 7a e8 bd
       0.045745343 0.009385144 0.10583083 -0.1135155
000310 a5 fe 8d bc 96 78 2b bd 88 85 06 bd b9 cb 16 3e
       -0.017333338 -0.041863047 -0.03284219 0.14726152
000320 27 1f 46 be a0 40 0d be af c0 16 be b5 ac 33 bd
       -0.19347821 -0.13794184 -0.1472194 -0.043865878
000330 dd f5 73 be c0 2f e8 3c 93 6e 86 be 7b 3d 6d 3e
       -0.23824258 0.028343081 -0.26256236 0.23167984
000340 c2 31 3a 3e d9 67 9c 3e 31 df ea bd 47 8e 0a 3e
       0.18183044 0.3054798 -0.11468352 0.13530837
000350 54 0e ea bd 7e 1d a5 be e8 2b fd bd ea 91 9e 3d
       -0.11428514 -0.32249063 -0.1236189 0.07742675
000360 c7 c1 f5 3d 5d d1 48 3c 6d 24 5c be 1d 7b ec bd
       0.11999851 0.012256947 -0.2149827 -0.115469195
000370 3b 1b 26 3e 10 e5 45 be 12 36 15 3e 33 b4 57 be
       0.16221325 -0.19325662 0.14571407 -0.21064834
000380 76 77 63 3d d6 96 78 3c 00 33 61 bd a5 82 9c 3d
       0.05553385 0.015172681 -0.054980278 0.07642106
000390 6e 6b 32 bd 5f 9f 4a 3e 5c ef a4 bd 9a 1b 25 bd
       -0.043559484 0.19787358 -0.08053467 -0.040309526
0003a0 94 82 9b bd 8f 1a 0c 3e c2 03 10 be 85 42 7e 3d
       -0.07593265 0.13682006 -0.14063933 0.062075157
0003b0 5a 85 90 3e 1b a7 d6 bd 07 61 34 be b8 09 c7 bd
       0.2822674 -0.104810916 -0.17615138 -0.097186506
0003c0 8d 83 f7 3c 9a 8a 93 bd d3 4d 49 3e 75 88 4a 3e
       0.030214095 -0.072041705 0.19658594 0.19778617
0003d0 47 30 4f 3e 24 71 06 be cf f4 ce bd a5 5d 02 be
       0.2023326 -0.13129097 -0.10105287 -0.12731035
0003e0 91 91 ba bd 95 f8 8c 3d 65 16 98 bd e7 18 a3 bc
       -0.09109796 0.06883351 -0.074261464 -0.019909335
0003f0 00 51 15 3d 97 de 0d 3e 12 15 83 be 63 10 26 3e
       0.0364542 0.13854443 -0.25602013 0.16217189

bias_ih f4 [150]
000000 db a6 61 3d a9 6c 7b bd e0 8c 32 3d a7 57 9c bb
       0.055090766 -0.061382923 0.04359138 -0.004771191
000010 7d 92 20 3e 7b c1 f9 bd 20 5b 95 3d c2 9e 6c 3e
       0.15680881 -0.121951066 0.07292771 0.23107436
000020 35 07 0c 3e 33 77 1f 3e 1f 2b 01 3d 9c 5d b1 3e
       0.13674624 0.15572815 0.031535264 0.3464173
000030 49 f6 71 bc f0 06 8f 3d 0f d0 00 3e a5 59 88 3e
       -0.014768192 0.06983745 0.12579368 0.26630893
000040 5f 48 ce bc 16 45 3b bd 71 f7 2f 3b 5a 4d 59 3d
       -0.025180994 -0.045720182 0.0026850367 0.053052284
000050 54 f3 d4 3d ae 87 fc 3d 5e 6f 80 3e 6f ed a2 3d
       0.10397974 0.12330566 0.25084966 0.07955443
000060 4c 18 9e 3d 34 d2 a4 bd 2a c2 2c 3e 24 b5 92 3d
       0.07719478 -0.080479056 0.16870943 0.07163456
000070 d7 d0 55 3d 37 05 46 3d 07 26 23 3e fa f7 24 3c
       0.05220112 0.048344817 0.15932475 0.010068888
000080 cf f3 00 3e a7 09 ab bc 2f 49 5a 3e 53 bd cc 3d
       0.12593006 -0.020878626 0.2131698 0.09997048
000090 c4 50 d6 3d a3 95 c4 3d 84 3e 83 bc 98 dd ef 3d
       0.104646236 0.095988534 -0.01602102 0.117121875
0000a0 b1 12 eb bd 15 6f 7c 3d fc 31 86 3d f0 ef 9b 3d
       -0.114781745 0.061629374 0.065525025 0.07614124
0000b0 76 54 0a 3e 7f 2c 95 3d 75 02 5d bd 02 62 8d 3d
       0.13508782 0.072838776 -0.05395742 0.06903459
0000c0 f1 d2 85 3e 22 b4 9c 3d 26 b5 81 bd 6a e9 5c be
       0.26137498 0.07651545 -0.063333794 -0.21573415
0000d0 5a 93 ed bc 8f 36 fe be 3e 52 85 be be 71 80 be
       -0.029000927 -0.49651 -0.26039308 -0.25086778
0000e0 a5 de 79 be dd 7b a4 be a0 9b a4 3c 9a 7f d9 bd
       -0.24401338 -0.3212575 0.020093739 -0.10620041
0000f0 8e 71 63 be 13 4b da bd b6 6e 7f be fe 77 a9 be
       -0.22211286 -0.106588505 -0.24944577 -0.3309936
000100 52 85 6b be 54 8e 30 bf 13 fe c4 be f9 21 c3 be
       -0.23000076 -0.68967175 -0.38475093 -0.38111857
000110 03 2a 80 be 48 ac 86 be 5f 9a 1d be d9 aa 86 be
       -0.25032052 -0.26303315 -0.15390919 -0.2630222
000120 4c 48 91 bd 16 2d bd 3c 0b 58 1a bc 00 87 e9 be
       -0.07093868 0.023092788 -0.009420405 -0.4561081
000130 50 91 6c be 99 86 94 be f3 2b da be 8a 93 78 bd
       -0.23102307 -0.2900894 -0.42611656 -0.06068758
000140 22 40 cd bd 98 70 51 be f8 44 20 bd 9f 72 35 bd
       -0.10021998 -0.20453107 -0.039128274 -0.044298764
000150 74 3d 35 bf e9 60 8a be 83 fc 06 be d2 52 73 be
       -0.70796895 -0.27027062 -0.13182263 -0.23762062
000160 70 b9 0a be b2 10 93 be fd e1 a2 be a7 f9 c1 be
       -0.13547301 -0.28723675 -0.3181304 -0.37885782
000170 51 74 a9 be 47 a3 02 be 56 fd 93 bc b9 7c 6a be
       -0.33096555 -0.12757598 -0.018065136 -0.2289914
000180 24 94 80 be d6 0c 53 be 43 25 63 be c5 ce 67 be
       -0.25113022 -0.20610365 -0.22182183 -0.2263747
000190 e7 56 71 be bd 67 36 be 9a a5 5f be 86 77 ad be
       -0.23568307 -0.1781301 -0.21840516 -0.33880252
0001a0 dc bc 1b be 9b 67 7a 3e 6c d0 6c be 57 b6 56 3e
       -0.15208763 0.24453585 -0.23126382 0.20967995
0001b0 cd 26 ac 3d c6 41 87 3e 44 4f 7d 38 3c 39 89 3e
       0.08405838 0.2641737 6.0393722e-05 0.2680148
0001c0 90 16 db bd 9a d7 47 be 08 7c 19 be 81 3e aa 3e
       -0.10697663 -0.19515839 -0.1498872 0.33250812
0001d0 8b e7 56 3e 87 77 05 be e8 e7 7c bd 2c 02 06 bd
       0.20986764 -0.13033877 -0.0617446 -0.032716915
0001e0 7c f0 62 3e e2 16 34 be 59 d7 74 3d 4c 7e 01 be
       0.2216205 -0.17586854 0.059775684 -0.12645835
0001f0 87 cc 59 3e 42 c9 db bd d6 43 b6 bb aa 06 84 3e
       0.21269427 -0.10731746 -0.005562286 0.25786334
000200 ad 93 cc bc 6d bf cf 3c 77 f0 74 be 28 e0 60 be
       -0.024972761 0.025359834 -0.23919855 -0.21960509
000210 94 08 26 be 6b fe 48 3e 23 36 b0 bd a1 55 78 3e
       -0.1621421 0.19628303 -0.08604076 0.24251415
000220 8e 1c 2e 3e c4 82 d0 bd a0 8f 65 be b5 6a 65 be
       0.1700308 -0.101811916 -0.2241807 -0.22403987
000230 ef 43 46 be a9 a1 10 be 97 7f 8d 3e 01 37 e2 3d
       -0.19361852 -0.14124168 0.27636406 0.110456474
000240 74 38 75 3e ee 89 85 be ea 5b b0 bd b0 e2 b2 3d
       0.23947316 -0.26081795 -0.08611281 0.087346435
000250 c6 26 77 be fb 6f 18 3d
       -0.24135885 0.037216168

bias_hh f4 [150]
000000 15 67 4c 3e ea 56 4b 3d 37 dd 3c 3e 75 7f 05 bb
       0.19961198 0.049643435 0.18443762 -0.002037016
000010 c0 e2 52 3e bd f8 a8 3d 8b dc a6 3e 0f 00 dd 3e
       0.20594311 0.08250568 0.32590136 0.43164107
000020 cf 0a 54 3d 57 5d 59 3e f0 ad 1a 3e a3 84 40 3e
       0.05176812 0.21227013 0.15105414 0.18800597
000030 1e 0f 2f 3e 16 03 6d 3e c3 88 97 bc 95 6e 37 3d
       0.1709561 0.23145708 -0.01849783 0.044783194
000040 82 10 49 3e 47 51 8c be 6f 7c 56 3e c6 eb 19 3e
       0.19635203 -0.2740576 0.20945905 0.15031347
000050 ef 99 ba 3a db 25 88 3e b4 58 4f 3d 3e 37 4f bc
       0.001423655 0.2659138 0.050621703 -0.012647448
000060 0d 6e 50 3e 40 77 09 be 82 94 35 3e 2a a1 9e 3c
       0.20354481 -0.13424397 0.17732432 0.019363958
000070 1c ce 6f 3c e6 6e d3 bc 0c e6 03 3e 30 28 93 3d
       0.014636543 -0.025809716 0.12880725 0.071853995
000080 f3 d7 0c 3e 9f e6 24 3d db af 68 3d 85 89 09 3e
       0.13754253 0.040259 0.056808334 0.13431366
000090 b1 09 5d 3c 42 9e 10 3d fe 71 34 3e ea 64 e7 3d
       0.01349108 0.035307176 0.1762161 0.11298545
0000a0 7a da 92 bd e1 2a a4 bd 2f 59 01 3e f0 3c 2b 3e
       -0.07170577 -0.08015991 0.12631677 0.16722465
0000b0 50 6a 81 3e d2 5c 88 3d bd de 1f 3e 3e 33 05 be
       0.25276423 0.06658329 0.15612312 -0.13007829
0000c0 a6 b4 18 3e 53 a1 e1 bc b1 45 64 bd 81 f5 95 be
       0.14912662 -0.027542746 -0.055730525 -0.29288867
0000d0 5e 0a 84 be 0d 74 1a bf 85 81 9b bb 33 db a3 bd
       -0.2578916 -0.6033333 -0.0047456645 -0.08000793
0000e0 c3 83 86 bd ea 53 8f be 22 e6 37 bc ae 58 bc bd
       -0.065681 -0.2799371 -0.0112243015 -0.09196602
0000f0 4e 71 65 be 69 e2 2d be 03 0e 90 be 82 92 ab be
       -0.22406504 -0.169809 -0.2813569 -0.33510214
000100 c5 23 bc be cb cc 0b bf 83 f1 93 be b3 80 6d be
       -0.3674604 -0.54609364 -0.28895196 -0.23193626
000110 a2 56 cb be 1a 9c 93 be 10 cd 63 be 8b 24 9a bd
       -0.39714533 -0.28830034 -0.22246194 -0.07526501
000120 23 ef da bd 19 45 61 be 41 c8 80 bd 05 9a aa be
       -0.10690143 -0.21999015 -0.062881954 -0.33320633
000130 d7 f3 1e be 7d 7b f6 bd 20 5d b0 be 97 aa d0 bd
       -0.15522705 -0.12035272 -0.3444605 -0.101887874
000140 aa ba 50 be c6 c4 5a be 1d 23 4a bd 88 57 5a bd
       -0.20383707 -0.21364126 -0.049349893 -0.053306133
000150 ba 5a 1b bf 86 85 c6 be f2 bf 6c bd 54 ee b3 bd
       -0.6068531 -0.38773745 -0.05780024 -0.08785692
000160 e6 73 3b be 30 18 48 bd 18 40 4d be 9d d6 94 be
       -0.1830593 -0.048851192 -0.20043981 -0.29069987
000170 d4 ac dc bd 70 38 8e be 91 59 6e be 18 25 b8 be
       -0.10775152 -0.27777433 -0.23276354 -0.359658
000180 fc 63 cb be 28 92 23 be d2 8f 27 be 2d 8a 52 be
       -0.3972472 -0.15973723 -0.16363457 -0.20560522
000190 5e 93 71 be 52 c2 5a bd 78 db 18 be 4e 83 cc bd
       -0.23591372 -0.053407975 -0.1492747 -0.09985982
0001a0 10 df 47 be 0d 46 0f 3d fd db 91 be c9 c2 bc 3e
       -0.19518685 0.034978915 -0.2848815 0.3686736
0001b0 15 49 df 3d 34 ff 34 3e 5e 08 75 bd 90 c5 88 3e
       0.10902611 0.17675477 -0.059822433 0.26713228
0001c0 a1 ca 59 be 25 bf 0e be a9 80 05 be 33 cc ae 3e
       -0.21268703 -0.13940103 -0.13037361 0.34140167
0001d0 30 d8 a2 3e d0 14 1a bd 8e 09 62 be 9e 79 19 be
       0.31805563 -0.037617505 -0.22073957 -0.149878
0001e0 ca 32 00 3e 38 d5 69 be a1 72 5f 3d 8d 7e d7 bd
       0.12519374 -0.22835243 0.054552678 -0.105221845
0001f0 80 80 2c 3e 11 05 13 be a0 a7 90 3d f4 79 66 3d
       0.16845894 -0.14357401 0.07063222 0.056268647
000200 f3 ff 9f be b4 37 8a 3d 80 92 1c 3d aa 9b 48 be
       -0.3124996 0.06748906 0.03822565 -0.19590631
000210 ad 23 0e be 36 27 a5 bc a3 ca 73 be fc 9a 00 3e
       -0.13880797 -0.020160299 -0.23807769 0.12559122
000220 aa e2 08 3e 08 fc ad bd f7 ae 9b b9 51 a5 56 be
       0.13367715 -0.08495337 -0.00029694263 -0.209615
000230 0b 00 e1 bd c1 e7 27 be be 4a 7f 3e 77 ba 92 3d
       -0.10986336 -0.16397001 0.24930856 0.071644716
000240 83 01 0f 3e 4c af da bd 99 9b 70 be 91 a4 28 bd
       0.1396542 -0.106779665 -0.23496856 -0.041172568
000250 4f 19 70 be 42 ae 00 3e
       -0.23447154 0.12566474

weight_ih f4 [150, 50]
000000 cf 7e bd bd 61 7e 83 bd 26 4d 0d be 73 ee c1 bd
       -0.092527024 -0.06420589 -0.13798961 -0.09469309
000010 15 18 7b bd bd a9 6c 3e 5b 56 f0 bd 7a ec 84 3e
       -0.061302263 0.23111625 -0.11735221 0.25961667
000020 fe 07 4b 3e 6d a2 3b 3e 68 ad 2c be 0a e6 22 3e
       0.19827268 0.1832368 -0.16863024 0.15908065
000030 3b 87 0d be af c6 71 be a0 4f 8b bd ad b1 ef 3d
       -0.13821118 -0.23610948 -0.06802297 0.11703811
000040 f2 80 8d 3d f6 db 3f be 0d 0a a2 be db b0 d0 bc
       0.0690936 -0.18736252 -0.31648293 -0.025474956
000050 7e 3a 10 3e a3 e6 8c be b5 44 c3 3d e8 68 8a be
       0.14084813 -0.27519712 0.09534589 -0.27033162
000060 68 89 82 3e 3c 77 3a be 52 a1 3b 3e ab c3 8f 3e
       0.25495458 -0.18209547 0.18323258 0.2807897
000070 e4 8a 13 bd 5f ca 9e 3e 64 04 65 bd 3c 9b 98 bc
       -0.03602113 0.31013772 -0.05591239 -0.018628709
000080 7b 9c 57 be 36 80 be 3d cb e3 84 be b8 56 45 3e
       -0.21055786 0.09301798 -0.25955042 0.19271362
000090 a9 0c 69 3e 5d 0c 4c bd a9 44 50 be 4d c2 70 bd
       0.22758736 -0.049816478 -0.20338692 -0.05877905
0000a0 2b fd 29 be 8e 9c ec bd eb c2 b6 3d 68 eb 3d 3e
       -0.16600482 -0.11553298 0.089238964 0.18546832
0000b0 ae 53 d2 3d 2e a7 94 be ef 7f 3e be 9d 57 e3 3d
       0.10269867 -0.29033798 -0.1860349 0.11100695
0000c0 be 87 03 be 99 1b 86 3e 2f db b6 3c a1 21 10 be
       -0.1284475 0.2619293 0.022321312 -0.14075328
0000d0 94 d5 3f 3d d5 05 1e be ef 4d 28 be 56 a8 9a 3e
       0.046834543 -0.15431912 -0.1643598 0.30206555
0000e0 9d 39 6c be 83 d3 92 3e 13 70 86 3c 46 f7 5d 3e
       -0.23068853 0.28676996 0.016410863 0.21676359
0000f0 4b b4 58 3c 81 e2 8a 3d 25 0f 84 be 32 a2 ea bd
       0.013226579 0.067814834 -0.25792804 -0.114567176
000100 ae d9 55 be 2b 99 a1 3e f6 83 93 3e ca 69 57 be
       -0.2088382 0.3156217 0.28811616 -0.21036449
000110 d7 68 9b be 45 4f 78 3d cd 0a 8e 3d 75 ce 8d bd
       -0.30353424 0.060622472 0.06935654 -0.06924144
000120 39 d2 61 3e 20 5b 3a bc f7 e8 3b 3d 49 98 9a be
       0.2205285 -0.011374265 0.04587647 -0.3019431
000130 c2 7d 84 be f8 c0 5d 3e ff 58 20 be 80 38 6c 3e
       -0.25877196 0.21655643 -0.1565895 0.23068428
000140 80 5e 35 be f4 c8 8d bd 06 34 44 bd bb 4e 0e 3d
       -0.1771183 -0.069230944 -0.047901176 0.034743052
000150 b7 75 99 be 42 b4 60 3e 28 6d b5 3c e3 88 38 be
       -0.29972622 0.21943763 0.022146776 -0.18020968
000160 36 59 22 be b0 3c 36 be eb 90 62 be ea 59 08 be
       -0.15854344 -0.17796588 -0.22125594 -0.1331555
000170 13 28 00 3e 5f e2 b0 3c 74 9b 1c 3e ff 28 95 be
       0.12515287 0.021592317 0.15293676 -0.2913284
000180 4b 5b 7a be 39 11 97 3e 04 8e de bc d3 af 01 bc
       -0.24448888 0.29505327 -0.027167328 -0.007915455
000190 28 95 37 3d 01 0c 5f 3d 79 e5 8b 3d c7 4b 59 3d
       0.04481998 0.054454807 0.06830878 0.053050783
0001a0 c8 02 01 3e 21 0d 78 3d 56 35 4c bc f1 4e 95 3d
       0.12598717 0.060559396 -0.012463888 0.072904475
0001b0 6a 6b 13 3d 47 38 08 bc b4 d0 26 3e 91 a3 d4 3d
       0.03599111 -0.008314199 0.16290551 0.1038276
0001c0 24 e8 f6 bd 38 6e 5e 38 dd 91 e3 bd 70 07 5c bd
       -0.12055996 5.3031574e-05 -0.111118056 -0.05371803
0001d0 f1 65 21 3e 0f 7a 96 be 8f 29 aa bc 9a 82 09 3e
       0.15761544 -0.29389998 -0.02077177 0.13428727
0001e0 0d f7 4e 3d 6b a9 3b 3e 3e b0 a4 3d 9f bb 2f bb
       0.050528575 0.18326347 0.08041428 -0.0026814712
0001f0 58 38 e6 3b 8a 38 a0 bd 84 7d 2c be d3 5a 0b 3d
       0.0070257597 -0.07823284 -0.16844755 0.034022164
000200 7f 99 72 be 3b 3d 21 bd 65 14 13 3c 42 e1 35 3e
       -0.23691367 -0.039365035 0.00897703 0.1776171
000210 4f 83 3f 3e 74 ca c2 bd 9a 1d 19 be 3e 59 ce 3d
       0.18702434 -0.09511271 -0.14952698 0.10075615
000220 39 ce 88 bd 63 60 11 be 9e 4e 9c 3b 08 a0 3b 3b
       -0.06679959 -0.14196925 0.004770114 0.0028629322
000230 3e bf b2 be 96 5f bf be cd f7 cd 3c 7e 74 58 be
       -0.3491153 -0.37377614 0.025142575 -0.21138188
000240 70 68 f4 bd ef e5 9c bc 09 5e 55 be 23 69 a2 3e
       -0.11933982 -0.01915261 -0.20836653 0.31720838
000250 f2 0a 80 3c 34 5a 06 3d e5 c0 9f 3d 3b 35 13 3c
       0.01563022 0.03280087 0.078004636 0.008984859
000260 89 9c dd 3c 1a 7b 4d bf 48 a9 72 3d d2 56 9a bd
       0.02705218 -0.80265963 0.05924347 -0.07536091
000270 81 07 d4 bd d5 e1 81 3d 4f 5c 33 be d5 e8 c4 bc
       -0.10352994 0.06341902 -0.17515682 -0.024036804
000280 c6 8c 07 3e df 44 b0 bd 1f 65 7d be b5 8a b8 bd
       0.13237295 -0.08606886 -0.24745606 -0.09010831
000290 3a d0 e4 bc 18 f7 ca 3d ed fd dd 3c 5b 90 df be
       -0.027931321 0.09910411 0.02709862 -0.43664822
0002a0 8f 91 ac 3b 0c 14 47 3e 22 33 01 be 5c 8d 54 3c
       0.0052663754 0.19441241 -0.12617162 0.012973156
0002b0 45 2d d1 3c 34 2b 2f 3e 76 c5 37 be 3f 15 cd be
       0.025534282 0.17106324 -0.17946419 -0.40055272
0002c0 06 bc d3 be 81 4a d6 3d 06 0d d7 be 5f 6d 84 be
       -0.41354388 0.10463429 -0.42002124 -0.25864694
0002d0 c8 11 90 3e 8b 67 9e 3e d2 9d f8 3d 4b fd 99 be
       0.28138566 0.30938372 0.12139477 -0.3007606
0002e0 c5 df ba be e9 88 b0 3c 51 fe 63 be 4a 27 c8 bd
       -0.36498848 0.021549659 -0.22264983 -0.09773119
0002f0 bf f8 69 3e 44 c3 69 3d 44 85 a1 be b3 d5 95 be
       0.22848795 0.057070985 -0.31546986 -0.29264602
000300 74 67 40 3e b7 4a 57 be 92 f8 c0 bd 13 85 5d bd
       0.18789464 -0.21024595 -0.09422411 -0.054081988
000310 0b c0 01 be a5 fc 87 3e 74 60 98 bd b3 be 40 be
       -0.12670915 0.2655994 -0.07440272 -0.18822746
000320 d2 0d 6f 3e 65 13 bf bd 99 56 5c 3e d1 4f d8 be
       0.23345116 -0.09329871 0.2151741 -0.42248395
000330 1c f9 41 3d a8 a6 14 be a3 74 4b bd 23 2a e8 bd
       0.04735671 -0.145167 -0.04967178 -0.11336162
000340 e3 7c ee bd 27 23 1f be 5d b6 60 3d 62 84 f8 bd
       -0.11644914 -0.15540753 0.054861415 -0.12134625
000350 2e 85 5a bc 7d 53 87 bd 45 e7 75 3b 38 b4 c6 3c
       -0.013337417 -0.06607721 0.003752188 0.024255857
000360 f2 36 1d 3e aa 90 be be fc fe 3a be 67 38 04 3e
       0.15352991 -0.37219745 -0.18261331 0.12912141
000370 fb 32 de bd 4e d5 b6 3d d8 b8 f2 bd 61 32 92 3e
       -0.108495675 0.089274034 -0.118516624 0.2855406
000380 e7 e0 e1 bd 68 b1 b6 be 73 d5 8c be df 5a 80 3d
       -0.11029225 -0.35682225 -0.275066 0.06267332
000390 fe 54 b1 be 6b e4 28 be c0 21 07 3e da ff c0 3e
       -0.34635156 -0.16493385 0.13196468 0.376952
0003a0 bc 56 25 3e 9d 87 89 bd aa d5 9b be bc a0 b1 3d
       0.16146368 -0.06715319 -0.3043645 0.08673236
0003b0 1e 28 93 be 97 38 1f 3d c9 10 29 3e 8f 42 f6 bd
       -0.28741544 0.038872328 0.1651031 -0.12024414
0003c0 1e 2e 5f be ff 53 fd bd 67 6e 8b bc bd 26 80 be
       -0.21794936 -0.123695366 -0.017020417 -0.25029555
0003d0 7e 02 1e be 07 6a df bd 95 ae 91 be 04 3c 52 3e
       -0.15430638 -0.10908895 -0.28453508 0.20530707
0003e0 33 fa 9d 3d 43 c6 36 be 05 6d 3b 3e df 70 c1 3e
       0.07713737 -0.17849068 0.18303306 0.37781426
0003f0 47 cd c1 3b 6a e8 8c 3e d2 3f a2 3d 0b 7c a8 bd
       0.0059143635 0.27521068 0.07922329 -0.08226784

weight_hh f4 [150, 50]
000000 83 11 60 bc f9 76 19 be 5a 69 7f be 62 22 d2 bb
       -0.01367605 -0.1498679 -0.24942532 -0.00641279
000010 ad fa 87 3c f5 eb 4f 3e 6e 8e 10 be 45 74 1a be
       0.016599024 0.20304854 -0.14116833 -0.15083416
000020 93 dd 22 3d 3a 97 c3 3c 45 c2 64 3d 20 14 3f 3e
       0.03976209 0.023875821 0.055849332 0.18660021
000030 9c b0 cd 3d 7a 8d b4 3d 6e bd 27 be 7e d3 6d 3e
       0.10043451 0.08816047 -0.16380855 0.23225209
000040 af d9 8d 3d bd a5 e0 3c 25 82 12 bc 4d 02 10 bd
       0.069262855 0.02742278 -0.008942162 -0.035158444
000050 22 81 25 3e 81 8e 6c 3e 38 c9 34 3d 97 73 28 3c
       0.16162542 0.23101236 0.04413721 0.010281465
000060 3d 36 9a 3d 18 1c 20 bb 82 7f f3 3a 33 8c 67 3d
       0.075298764 -0.0024430808 0.0018577429 0.05653019
000070 ad 5e 45 be bb 40 63 3e 3b fb 64 3e 3c 83 92 bd
       -0.19274397 0.22192661 0.22361462 -0.07153937
000080 1d 63 bd 3d 06 2b ed 3d 83 1a 64 3e 6f 06 02 be
       0.0924742 0.11580472 0.22275738 -0.12697767
000090 53 b6 30 3e ac 33 e4 bd c7 a9 b7 3d 3c 86 ec 3d
       0.17257051 -0.11142668 0.08967929 0.11549041
0000a0 cd 75 42 be 28 c3 a4 3d d6 91 c4 3d 90 53 72 3e
       -0.1899025 0.080450356 0.095981285 0.23664689
0000b0 8c 43 0b bd b1 5f 0e 3c fb 89 0b 3d 86 53 08 3e
       -0.033999965 0.008689807 0.034067135 0.13313112
0000c0 ff a4 ff bc 1e 13 6b 3e e6 5a 9e 3c 7b bb f5 bd
       -0.031206606 0.22956511 0.019330453 -0.1199865
0000d0 3b 50 37 be f8 b8 38 3c 0c c3 99 3c 6f 3d 07 3e
       -0.17901699 0.011274569 0.018769763 0.13207029
0000e0 b5 95 10 be 8b 1f 8c 3d 1e 25 de 3d 85 af 8f 3d
       -0.14119609 0.06841954 0.10846923 0.070158996
0000f0 8e cb 42 3e 11 7b b2 bd 9e ad 5f 3d 12 e2 9f bc
       0.19022962 -0.08714879 0.054608934 -0.019516978
000100 57 84 86 bd 83 be 99 bb 0c da 9d bc fc e6 21 bc
       -0.065682106 -0.0046919 -0.019269012 -0.009881731
000110 7a 5e 07 3c fa d7 02 3e 81 69 50 3e 32 c7 5f 3e
       0.008262271 0.12777701 0.20352747 0.2185333
000120 e9 8d 4b 3c 45 9d 35 be 07 37 2f 3d c7 a1 01 bd
       0.012423971 -0.17735775 0.042777088 -0.031648424
000130 60 23 54 3e b0 b3 06 be f8 25 97 bd a9 29 91 3d
       0.2071662 -0.13154483 -0.07380289 0.07088024
000140 4c 0a 82 3d 19 54 1c be e5 b3 54 3d ce f2 43 bd
       0.0634962 -0.15266456 0.051929373 -0.04783898
000150 06 6c 12 3e a1 d5 61 3d bd b8 6f 3e 1e 4b bc bc
       0.1429902 0.055135373 0.23410316 -0.022985037
000160 3e b8 c6 3d 95 75 d3 3d af 36 3f 3d ca e9 03 be
       0.0970311 0.10325161 0.04668301 -0.12882152
000170 47 0d 1e 3e 5b 14 1d 3e 22 da 3d bd c7 d9 4d be
       0.15434752 0.15339796 -0.046350606 -0.20102607
000180 a1 59 22 3e aa 80 f9 3c 6b c7 0a 3d e3 c0 23 3b
       0.15854503 0.03045686 0.033881586 0.0024986796
000190 1f 94 b1 3d a3 25 be bd b8 a1 8b 3c 3f 0d 83 bb
       0.0867083 -0.092845224 0.017044887 -0.003999382
0001a0 e2 38 30 3e 33 48 c5 bd 4d ef c9 3d 2f bf e7 3b
       0.17209199 -0.096329115 0.09860096 0.0070723514
0001b0 b6 ad fe bd 54 ef 22 bd 1c d3 41 bd c1 36 41 bd
       -0.124354765 -0.039779022 -0.04732047 -0.047171358
0001c0 db a0 7a bc 41 0f 8e 3d b5 da aa bd fd 04 4e 3c
       -0.01529714 0.06936503 -0.08342496 0.0125744315
0001d0 bf 94 b7 bd 10 35 c2 3d 64 3f d3 bd 66 a7 aa 3d
       -0.08963918 0.09482777 -0.10314825 0.0833271
0001e0 38 7f 98 bd f2 cf f3 bd b8 98 a2 b9 28 d0 04 3e
       -0.0744614 -0.11904897 -0.00031012832 0.1297003
0001f0 42 63 d4 bd 98 36 06 be bb 08 2b 3d 90 56 2b 3e
       -0.103704944 -0.13106763 0.041756373 0.1673224
000200 4b f2 d2 bd 2e 13 22 be bb 72 bc bd 51 64 be bc
       -0.1030012 -0.15827629 -0.092015706 -0.023241194
000210 56 b8 cd 3d a5 fb 0b be db 1c 46 be cb 16 c6 bd
       0.10044925 -0.13670214 -0.19346945 -0.09672316
000220 9a 8e 17 3d 38 56 d8 bd 94 11 76 bd 99 9a cb bd
       0.03700123 -0.1056332 -0.060075358 -0.099415965
000230 91 2e dc 3d 54 db 20 be 8d a8 12 3d 98 ec 80 3d
       0.10751069 -0.15708667 0.035805274 0.06295127
000240 ff 94 b6 bc 01 d1 ca 3d d4 38 91 bc 2c 1f bd 3d
       -0.022287844 0.099031456 -0.017727293 0.09234461
000250 b0 fc 75 bd db 51 5e 3c 1c 54 83 be d1 37 5b 3e
       -0.060055435 0.013569321 -0.25650108 0.21408011
000260 17 28 b4 3c ff 5d f4 bd 55 b4 f4 bc 6c f9 a3 bd
       0.021991773 -0.11931991 -0.029871145 -0.08006558
000270 73 21 58 3e 42 7d 4a bd 77 49 1d 3b 60 2f c1 3d
       0.2110651 -0.04943586 0.0024000087 0.09432864
000280 c0 bd d3 bd 10 a3 bc 3d 8d 94 f8 3d bc c7 c8 bb
       -0.10338926 0.09210789 0.12137709 -0.006127326
000290 94 a9 2a 3e c7 48 ca bd ca 08 13 be 4d 8f 02 3d
       0.16666251 -0.098771624 -0.14358822 0.031874944
0002a0 5f bd b0 bd c4 6f 52 3e 64 4a 4a be 78 db c3 3c
       -0.0862987 0.20550448 -0.1975494 0.023908362
0002b0 fc b6 a3 bc 17 ab 0b 3d 9b 6b 8c bd 42 68 5f be
       -0.019984715 0.03409871 -0.068564616 -0.21817115
0002c0 26 9b 52 3d d7 7f d4 3d 49 b6 a6 bc a6 71 62 be
       0.051417492 0.10375946 -0.020350592 -0.22113666
0002d0 6b 68 2e be 6c ec 68 3d 06 6a c0 bc af ab e3 bd
       -0.1703202 0.056866094 -0.023488056 -0.111167304
0002e0 99 24 54 be 19 61 1e 3d 10 59 5e bd 0e bb 20 3e
       -0.20717086 0.03866682 -0.054284155 0.15696356
0002f0 13 df fc bd 2c d7 c9 bd e2 76 7e bd c8 f6 88 3e
       -0.123472355 -0.09855494 -0.062125094 0.2675078
000300 17 31 79 3d 31 16 49 be ad 97 3c 3e 40 55 1d 3d
       0.06083783 -0.19637372 0.18417235 0.03841138
000310 51 23 93 bd 60 89 c2 bd b5 d0 40 3e fe ca d5 bd
       -0.071844704 -0.094988585 0.18829615 -0.10439108
000320 59 af 1f be ed fb 3f 3e fa ba ba 3c 68 87 04 3e
       -0.15594234 0.18748446 0.022794235 0.12942278
000330 10 aa 66 3d 45 a2 f3 bd 84 60 dd 3d 0d 20 4b bd
       0.056314528 -0.11896185 0.108094245 -0.049591113
000340 f7 6d d8 bd bf 13 2d 3d 63 cc 2c bd 6e 3f b0 bc
       -0.10567849 0.04225516 -0.042187106 -0.02151462
000350 21 25 7c 3e 94 d1 0f be 98 ca 0e 3e 0e 75 f6 3d
       0.24623539 -0.14044791 0.13944471 0.12034045
000360 52 af 06 be 41 5a f3 bd 2d 45 a9 be 98 ad 74 3e
       -0.13152817 -0.11882449 -0.3306059 0.23894346
000370 0d 8b 83 bd 42 0b 0e be 96 9c 02 be bb df 83 b8
       -0.06423006 -0.13871482 -0.12755045 -6.28824e-05
000380 ee 07 9c be d7 c7 1b be 47 90 a3 3d ed 65 14 3e
       -0.304748 -0.15212952 0.07986503 0.14492007
000390 39 55 4c 3e cd 9a b9 bd fd 8a e0 bd 7d 43 62 bd
       0.19954385 -0.09062729 -0.1096401 -0.055240143
0003a0 dc 45 38 bc a6 d9 3b be 72 8f bd bd 21 bb 17 3e
       -0.0112471245 -0.18344745 -0.09255876 0.14817478
0003b0 ee e3 09 bd d2 95 8b 3d 6a 10 1a be 3e 8e b1 3c
       -0.033664636 0.06815685 -0.15045324 0.021674272
0003c0 dc 80 22 3e 1e 21 37 3e eb 93 b4 bb 16 37 8d 3b
       0.15869468 0.17883727 -0.0055107973 0.0043095453
0003d0 3d 3c be 3d d5 6f bb 3d 01 8e 0c be a2 49 c0 3a
       0.09288833 0.0915219 -0.13726045 0.0014670382
0003e0 6c 02 86 3e a8 98 c6 bd 27 4c 14 be eb 39 35 3e
       0.26173723 -0.096970856 -0.14482175 0.17697875
0003f0 bc f1 57 bd d0 e9 96 3d a8 d5 4b 3c 5c e8 af 3d
       -0.05272077 0.07368815 0.012441076 0.08589241

bias_ih f4 [150]
000000 47 d6 2d 3e 0f 2a 5d 3e a6 d6 1e 3d 25 20 84 3e
       0.16976272 0.21598075 0.038778923 0.25805774
000010 90 f5 24 be 2d a1 67 be 4d 15 22 3e f7 53 dd 3d
       -0.161093 -0.22620077 0.15828438 0.10807031
000020 b5 ac 28 3e 25 6c 0e be 1a c9 ef bc 23 1f 29 bd
       0.16472133 -0.13908441 -0.029270697 -0.04128946
000030 c9 6c 6d 3d a6 8c af 3d 9e 2d 13 3e 38 d0 cd 3e
       0.057965074 0.085717484 0.1437287 0.4019792
000040 af 5c 18 3e 1e 76 7a 3e 58 ed 32 3d f5 da b9 3d
       0.14879106 0.2445912 0.04368338 0.09074966
000050 09 be 8c 3e 51 00 85 bb 0f 67 37 3d 48 64 9c 3d
       0.27488735 -0.0040588756 0.04477602 0.07636315
000060 c7 11 57 be 75 0e c5 3d 81 69 94 be d5 1e 8d bd
       -0.21002875 0.09621898 -0.28986743 -0.06890646
000070 a2 06 07 be db 8c e4 ba 68 93 a1 bd 37 6a 86 3d
       -0.13186124 -0.0017436998 -0.07889444 0.065632276
000080 33 b2 48 bb 22 35 8e bc 3f 8f 23 bd 19 fc 90 bd
       -0.0030623793 -0.01735932 -0.039931532 -0.07079334
000090 35 d9 0c 3e ec ad a1 3d 1a ae 72 3e c4 fc 0e 3d
       0.13754733 0.07894501 0.23699227 0.034909025
0000a0 b7 e0 27 3d 10 eb 13 bd ae 99 c6 3d ef 33 48 3e
       0.04098579 -0.036112845 0.09697281 0.19551061
0000b0 32 65 ba bd dd 8d 09 3e b3 71 18 bc 2b 65 64 bd
       -0.09101333 0.13433023 -0.009304452 -0.055760544
0000c0 0a a9 8e 3e 11 94 c7 3d be fd 6e be 40 3c 99 be
       0.27863342 0.09745038 -0.23338982 -0.2992878
0000d0 05 a0 80 be c2 de fb bd bc 94 28 be ca 8c bf be
       -0.25122085 -0.12298347 -0.16462988 -0.374121
0000e0 67 45 fe bd 3b 1d a5 be 1b 48 1e be f0 e0 99 be
       -0.12415581 -0.32248864 -0.15457194 -0.30054426
0000f0 f7 02 89 be 79 d3 83 be e9 64 7f be 39 6b 65 be
       -0.26760074 -0.25747278 -0.24940838 -0.22404183
000100 5f 7f 37 be 64 db fa bd 80 11 b7 be 4e 3c bc be
       -0.17919682 -0.12248877 -0.3575554 -0.3676476
000110 45 3f af be 11 fe 40 be 9e 1b d4 be ee 97 02 be
       -0.34227958 -0.18846919 -0.4142732 -0.12753269
000120 c8 a3 d8 be eb ec 8c be 6e 0d 78 be 2b 45 78 be
       -0.42312455 -0.27524504 -0.24223873 -0.24245135
000130 37 25 d9 be d0 df 46 bd 1f a0 a3 be 42 ab f6 be
       -0.42411205 -0.048553288 -0.319581 -0.48177534
000140 85 20 39 be 0d 18 8e be f6 8e aa be 39 4e a4 be
       -0.18078811 -0.27752724 -0.33312196 -0.3209093
000150 0f ed 96 be 31 50 a8 be 11 38 c0 be a1 d6 8b 3d
       -0.29477736 -0.3287368 -0.37542775 0.068280466
000160 44 17 be be b0 86 b5 be 08 5f c2 be 2f 8b 5c be
       -0.37127125 -0.3545432 -0.37963128 -0.2153747
000170 e9 c4 aa be 64 7c bf be 59 db 85 be 51 92 3c be
       -0.33353356 -0.3739959 -0.2614391 -0.1841519
000180 d7 9a 94 be 03 06 95 be 4d 50 20 be e3 b8 8f be
       -0.29024383 -0.2910615 -0.15655632 -0.28070745
000190 1d e5 15 bd 11 be 6f be 77 4b bc bd 4a b6 65 3d
       -0.036595453 -0.23412348 -0.09194081 0.056082048
0001a0 aa 5e ae bd 9a d2 8e 3e 70 ca 5b be 67 b0 55 be
       -0.085141495 0.2789505 -0.21463943 -0.20868073
0001b0 06 2c eb 3d 87 b5 23 3c ee d7 24 3d b6 26 8c bc
       0.11483006 0.00999201 0.04024499 -0.017108303
0001c0 02 5c bb bd 39 0c 20 3e 64 65 05 3d 45 9b d9 3c
       -0.091484085 0.15629663 0.032567397 0.026563296
0001d0 00 81 51 3e f1 34 04 3c fe 9c da 3d c6 14 19 be
       0.20459366 0.008069263 0.10674475 -0.1494933
0001e0 00 c8 f9 3c ee 69 2e 3d fd 5a ca bc 3d f5 8d be
       0.030490875 0.04258149 -0.02470159 -0.27726164
0001f0 57 2d 30 3e ec 12 6a bc 41 77 4d 3e a5 8d 06 3d
       0.17204796 -0.014286738 0.20065023 0.032849927
000200 74 60 f1 3c 3e 00 e9 3d b8 2b 47 3d 32 00 ce bd
       0.029464938 0.11376999 0.048625678 -0.10058631
000210 91 f9 47 3e 05 e1 64 3e f2 c3 40 bd 53 ba 6e 3e
       0.19528796 0.22351463 -0.047061868 0.23313265
000220 21 a4 6a bc c4 20 10 3d 67 f4 89 3d f8 35 73 3e
       -0.014321358 0.035187498 0.06736069 0.23751056
000230 51 07 a2 be e3 15 2a 3e 00 76 6d 3c d2 4d 19 3e
       -0.31646207 0.16609912 0.014493465 0.14971092
000240 c2 d2 47 3d 3e b0 32 be 3d 3e f2 3d 9f 62 e4 3d
       0.04878498 -0.17450044 0.11828277 0.11151623
000250 79 d3 f2 bd b5 b3 10 bc
       -0.118567415 -0.008831908

bias_hh f4 [150]
000000 41 06 23 3c 1a f1 cf 3d 87 92 fb 3d 54 95 58 3e
       0.0099502215 0.10153408 0.12283807 0.21150714
000010 0a 29 1f bb ca 1a 45 be 07 dc 82 bd 96 ec 96 3c
       -0.0024285936 -0.192485 -0.06389623 0.01842336
000020 5f 23 cc 3d 42 8f 13 bd 3c cd 70 3c 42 fb 4a 3c
       0.09967684 -0.036025293 0.014697369 0.012389006
000030 c0 fe ac 3d 6a a1 a4 bd c4 33 07 3e 1e 3f 51 3e
       0.08447027 -0.080386 0.13203341 0.20434234
000040 ba 8d ea 3d 04 2b a8 3e 2c 40 8e bd 76 00 5f 3e
       0.114528134 0.32845318 -0.069458336 0.2177752
000050 ee 9d 99 3d 04 36 a3 3d 7e 44 8a bd 40 8e 3d 3e
       0.07500826 0.07969287 -0.06751345 0.18511295
000060 da 8b 0f be f8 e7 e8 3d 00 45 88 be ce f9 3c bb
       -0.14018193 0.113723695 -0.26615143 -0.0028835419
000070 33 8b 42 bd 36 cb a6 bd 7e d7 0b be dc aa 14 3e
       -0.047496032 -0.08144228 -0.13656422 0.14518303
000080 25 ae e9 3d ff a3 d5 3d 02 3d e6 3d 49 ec 02 3e
       0.114101686 0.104316704 0.11242105 0.12785448
000090 ef 73 e0 3d da a6 9e bd ac d1 87 3e ab 41 0e 3e
       0.109596126 -0.07746668 0.26527154 0.13892238
0000a0 f9 59 72 3c 1e bb 8c 3d 88 00 9f 3d e9 58 f4 3d
       0.014791959 0.06871627 0.07763773 0.11931021
0000b0 c2 02 ad 3c 47 d1 ac 3c 40 50 9e bd f6 64 af 3d
       0.02111948 0.021095885 -0.0773015 0.08564179
0000c0 46 b1 65 3e c0 32 0e be 7b f4 33 be f4 df 46 be
       0.22430906 -0.13886547 -0.1757373 -0.19421369
0000d0 c2 18 cf be 4f 28 8a be ef c9 f3 bc 1d b3 6e be
       -0.40448576 -0.26983878 -0.029759375 -0.23310514
0000e0 49 ed 6f be 5f ee c1 be e5 ee 9f be cd b5 e8 be
       -0.23430361 -0.37877175 -0.3123695 -0.45451203
0000f0 45 50 80 be 16 c7 46 be f2 70 f4 be c0 52 95 be
       -0.2506124 -0.19411883 -0.4774242 -0.29164696
000100 29 9d 97 be b2 09 93 be e5 57 f6 be 26 93 6c be
       -0.2961209 -0.28718334 -0.48113933 -0.23103008
000110 c9 31 b0 be ef 56 47 be 18 49 a2 be 64 c0 77 be
       -0.34412983 -0.19466756 -0.3169639 -0.24194485
000120 4e 63 a0 be ef ce b1 be 70 f5 b7 be 04 3e 69 be
       -0.31325763 -0.3472819 -0.3592944 -0.22777563
000130 05 17 b9 be a0 44 12 bd 9b 7b 4b be 9f 8a 91 be
       -0.36150375 -0.035709977 -0.1987137 -0.28426072
000140 bb db a5 be 8e 50 26 be ff 76 95 be 3f b7 92 be
       -0.32394204 -0.16241667 -0.2919235 -0.2865543
000150 4b e0 c4 be 11 5b 6a be 08 62 4d be 5b 36 10 3d
       -0.38452372 -0.22886302 -0.20056927 0.035208087
000160 c1 73 10 bf d4 eb 78 be 3e 14 d1 be 7b 3f c3 bd
       -0.56426626 -0.24308711 -0.40835756 -0.09533592
000170 b5 b3 b4 be ea 13 cf be 25 e1 0b be dc 6d e4 be
       -0.35293356 -0.4044488 -0.13660105 -0.44615066
000180 b7 f8 da be 82 89 27 be e3 b4 18 be 56 b6 f4 bd
       -0.4276788 -0.16361049 -0.14912753 -0.1194884
000190 c8 67 6b 3e c4 83 6d be 4f c7 b8 be 08 32 6c 3f
       0.22988808 -0.23194796 -0.3608956 0.9226384
0001a0 b8 6a ed be 91 00 89 3c 06 13 b8 bd 0c c2 04 bc
       -0.46370482 0.016723903 -0.089880034 -0.008102905
0001b0 fb 1e 58 3e f4 a0 33 3d 16 dc b2 3e d4 74 23 bd
       0.21105568 0.04385467 0.34933537 -0.039906338
0001c0 0a a8 85 be 0c 85 b2 3e 7d 37 37 bf c3 61 3f 3f
       -0.26104766 0.34867132 -0.71569043 0.7475855
0001d0 c0 d6 ee 3d 39 5a 4c 3f be 70 9e 3c 2c 90 b6 bd
       0.11662054 0.7982517 0.019340869 -0.08914217
0001e0 11 57 44 3e c9 cd 27 3f 25 cc cc bd e3 46 98 be
       0.19173838 0.6554838 -0.09999875 -0.29741582
0001f0 7f 2d 42 bd df 52 51 3e 82 13 0a bc 89 eb 2a 3d
       -0.04740667 0.20441769 -0.008427503 0.04172853
000200 62 d3 09 bf 86 4a 62 bc e4 75 1f bc fd 19 4f bf
       -0.5383817 -0.013811713 -0.009732697 -0.8089903
000210 e2 12 d8 3e 4e d6 89 3d 5e c1 80 3e 77 ba c0 3c
       0.42201906 0.067303285 0.25147527 0.023526413
000220 7c 8a d6 3e 8e 69 b8 3c 6f 28 6c 3e ec fb 8e 3e
       0.4190253 0.02251127 0.23062299 0.27926576
000230 3d f5 2a be 6f 2a a2 3d 1d f4 8f 3e 19 80 84 3e
       -0.16695113 0.0791825 0.2811593 0.2587898
000240 54 86 24 bd e6 97 8d bd 86 58 a0 3d 87 20 ea bd
       -0.040167168 -0.06913738 0.078293845 -0.11431985
000250 85 2e 30 be 00 b3 4d 3e
       -0.17205246 0.20087814

weight f4 [2, 50]
000000 d2 4c 29 3e 48 b7 99 be db 5e cf be 73 90 41 3e
       0.16533211 -0.30022645 -0.40502056 0.18902759
000010 c2 52 1c be 3d 06 ac 3e 47 72 45 be 63 28 5c be
       -0.15265945 0.3359851 -0.19281875 -0.21499781
000020 68 fd 74 3e c6 36 aa be 77 64 6d 3e 1a 9e a3 be
       0.23924792 -0.33244914 0.23182856 -0.3195656
000030 44 54 89 be a2 49 b4 3e 7d 0a 41 be 07 60 52 3e
       -0.26822102 0.35212427 -0.18851657 0.20544444
000040 14 fd 73 3c 91 c7 1e 3e 3b 51 e5 3e c4 76 5f be
       0.0148918815 0.15505816 0.44788536 -0.21822649
000050 dc 68 23 3c 6b cd 63 3e cf e5 93 3e 98 32 cd be
       0.009973731 0.2224633 0.28886268 -0.40077662
000060 9e 4a ec 3e 17 e3 ac 3e 20 61 66 3e a1 e0 4a 3e
       0.46150678 0.33767006 0.22497988 0.19812252
000070 d5 5d 69 be c5 2e 98 3e c6 45 bf 3e 78 ca a8 be
       -0.227897 0.29723182 0.3735792 -0.3296697
000080 02 e1 b4 3e 08 d6 43 3c 1e 7c d3 3e 98 9f ac 3d
       0.35327917 0.0119528845 0.4130563 0.084288776
000090 a8 2c 00 3f 8e 1d f8 3d 3a 67 94 3d 3f ca 7a 3e
       0.5006814 0.12115012 0.072462514 0.24491213
0000a0 66 8d da be 6e 1a fe 3d a0 9d 45 3e cc d4 dc bb
       -0.42686003 0.12407385 0.1929841 -0.0067392346
0000b0 8d 23 34 be ff e8 0d be 62 cf cf 3e 49 11 95 3e
       -0.17591687 -0.13858412 0.40587908 0.2911475
0000c0 9e f1 4d be 1b 63 97 3e 68 53 3f 3c b8 34 e4 3d
       -0.20111701 0.295678 0.0116776 0.11142868
0000d0 fd b2 c5 3e 19 6c 2c be 1a ec a1 3d d8 85 41 be
       0.3861312 -0.16838111 0.07906361 -0.18898714
0000e0 d0 10 a9 3e d5 89 42 3e de 92 cb be 3a b7 94 3e
       0.3302064 0.18997891 -0.39760488 0.2904604
0000f0 bd 0d ac be e8 01 b5 3e 6c 70 c1 3e 7a 37 f3 bd
       -0.3360423 0.35353017 0.37781084 -0.11875816
000100 63 93 97 3e 03 5d 5d be 8d 03 3a be f3 a9 79 be
       0.29604635 -0.21617512 -0.18165417 -0.24381237
000110 2f ba bb be dc fe 69 3e 9d af 30 be a1 e6 1f be
       -0.36665484 0.22851127 -0.17254491 -0.15615322
000120 b5 1d 35 bd a8 b3 c9 3e 9c 82 e3 be ef c2 af be
       -0.044217784 0.3939488 -0.44435585 -0.3432841
000130 e5 59 98 be b7 51 33 be 70 23 9d 3e 89 9f e8 be
       -0.29756084 -0.1751164 0.306911 -0.45434216
000140 a4 31 aa be 31 1d 51 3e ab 09 b7 be 10 ac 2e be
       -0.33240998 0.20421292 -0.35749564 -0.17057824
000150 82 cd d5 be 76 5e d5 bd 5f 63 a8 be 03 24 27 be
       -0.41758353 -0.104184076 -0.32888314 -0.16322331
000160 02 fc 1a be 4e ae 0a be df 0e 86 3e e4 c1 ae 3d
       -0.15135196 -0.13543054 0.2618322 0.085330755
000170 52 aa af be 5d 44 60 be 5f 64 9b 3e ca 30 29 bd
       -0.34309632 -0.21901079 0.30350015 -0.041306295
000180 24 94 c9 be 1c a9 0d be e5 81 81 3e 8a d5 2b be
       -0.39370835 -0.13834041 0.25294414 -0.16780677

bias f4 [2]
000000 85 92 88 3e 5f a5 90 be
       0.26674286 -0.28251168

weight f4 [2, 50]
000000 9a 79 98 bd ea f5 d2 bd a0 a7 dc 3d 29 ba 3f be
       -0.07445069 -0.10300811 0.107741594 -0.18723358
000010 25 fa 80 3e a5 62 f3 3d 7a d1 18 be 83 99 3a be
       0.25190845 0.11884049 -0.14923659 -0.18222623
000020 44 c9 eb 3d 30 98 e3 bd 08 e3 b6 bd 31 0a e3 bc
       0.11512998 -0.11113012 -0.089300215 -0.02771482
000030 21 57 6b be fa aa fc bd 75 4f 1d 3e 10 10 1b be
       -0.22982456 -0.12337299 0.15362342 -0.15142846
000040 8a b9 7b bd 3b 5d 4d be 31 0a 59 3d b9 b1 52 be
       -0.06145624 -0.20055096 0.052988235 -0.20575608
000050 32 07 04 bd fa d6 51 be be f8 84 bd bf 83 38 be
       -0.032233424 -0.20492163 -0.06492756 -0.18019007
000060 6e f4 62 3d c4 25 50 3d d2 20 b3 3b b8 90 5c 3d
       0.055408888 0.050817266 0.005466559 0.053848952
000070 d5 87 25 3e 68 83 16 3d 54 26 a0 3c 88 ae 49 3e
       0.16165097 0.036746413 0.019549526 0.19695485
000080 4e 0c f1 bd 6c 95 2f bc b9 35 a6 bb 4f 7c 0a 3e
       -0.11769925 -0.010716777 -0.005072322 0.13523982
000090 f0 32 af bd 9b d2 8c bd 07 5c ac 3c 4b fa 1b 3d
       -0.085546374 -0.06876107 0.021039976 0.038080495
0000a0 b5 01 52 be b2 5a a8 3d 90 f0 29 be 00 c4 ff 3c
       -0.20508464 0.08220424 -0.16595674 0.03122139
0000b0 26 5e 01 3e 4f f6 06 3d 64 4d 86 ba 6f 0a 9c bd
       0.12633571 0.032949742 -0.0010246453 -0.076191776
0000c0 e9 12 7f 3a 2c 30 46 be 96 31 2b 3e 38 61 71 bd
       0.0009730296 -0.19354314 0.16718134 -0.058930606
0000d0 91 26 dc bb aa d1 4a 3d 17 2a c1 bd a2 be 72 bd
       -0.0067184647 0.049516357 -0.09431856 -0.059263833
0000e0 62 c4 13 be db a6 26 3e 57 20 2a 3e 91 6a f8 3c
       -0.14430383 0.16274588 0.16613899 0.030324252
0000f0 89 7a 24 3d 35 61 2f bc b6 13 19 3e 70 1f b7 bd
       0.04015592 -0.010704328 0.14948925 -0.08941543
000100 cd 9f 09 be 05 d6 30 3e fb 87 76 3e 88 b5 3e 3e
       -0.13439865 0.17269142 0.2407531 0.18623936
000110 4e 77 c6 bc c6 c9 35 3e d8 69 f6 3b ac 7e f7 3d
       -0.02422681 0.17752752 0.007519942 0.120847076
000120 66 a4 2e be 30 cb 6f 3d 23 ea 7c bd 6a 82 21 3e
       -0.170549 0.058543384 -0.061746728 0.15772405
000130 4b 39 ef bd 35 60 b9 bd a5 f1 a0 bc 73 77 13 3d
       -0.1168085 -0.09051553 -0.019646475 0.036002588
000140 85 5a dc 3d e9 8c 19 bc ff d8 db bd 1b 22 5a 3e
       0.10759453 -0.0093719745 -0.10734748 0.21302073
000150 bf 40 9a 3c d7 48 9a be 64 49 75 3d 90 f7 3c be
       0.018829701 -0.30133697 0.059884444 -0.18453813
000160 73 ad 61 3e f5 5e 10 3e 2b 90 18 3e 98 be 39 be
       0.22038822 0.14098723 0.14898746 -0.18139112
000170 e7 db a9 bd 1a 7f 3c 3e 62 33 03 bd a3 ba 30 be
       -0.08293896 0.1840786 -0.032031424 -0.17258696
000180 ba 28 28 bc d5 ad b6 3d fd 4d 25 be 74 ec 00 3e
       -0.010263616 0.089198746 -0.16143031 0.125902

bias f4 [2]
000000 0e 11 38 3e c7 92 f2 bd
       0.17975256 -0.11844402
