data/RNN_runs/sweep_H2/rnn_sto3g_H2_0-7348_eq1_nU100_nL1_lr00025_lrsO_ns10000.pt (torch_old, 545633 bytes, 9 tensors)

weight_ih f4 [300, 2]
0	0xbe094404	-0.13404852
1	0x3e15e528	0.14638197
2	0xbd8187bd	-0.06324718
3	0x3e58ab27	0.2115904
4	0xbda184aa	-0.07886632
5	0x3e7db7bb	0.24777119
6	0xbcce2090	-0.025162011
7	0x3d733f45	0.05938651
8	0xbda4cdb9	-0.08047051
9	0x3e419b03	0.18906789
10	0x3c1d0622	0.009583982
11	0x3e21ae34	0.1578911
12	0xbe4ec909	-0.20193876
13	0x3dd59727	0.10429221
14	0xbe1aba93	-0.15110235
15	0x3e23aca6	0.15983829
16	0xbe4215fc	-0.18953699
17	0x3e767594	0.2406829
18	0xbe1c6653	-0.15273409
19	0x3e40d3eb	0.1883084
20	0x3d8bb946	0.068224475
21	0x3e278abd	0.16361518
22	0xbd7f9e2e	-0.06240671
23	0x3e806536	0.25077218
24	0xbe299f98	-0.16564786
25	0x3e3adfb1	0.18249394
26	0xbdd9a55b	-0.10627242
27	0x3e6d1641	0.2315302
28	0x3d448138	0.047974795
29	0xbda73164	-0.081637174
30	0xbb91db5b	-0.004451198
31	0x3e6455c1	0.22298338
32	0xbdd8e1cf	-0.105899446
33	0x3e437f9a	0.19091645
34	0x3d3461b2	0.044038482
35	0x3e289f7b	0.16467087
36	0xbe503c16	-0.20335421
37	0x3df34290	0.1187793
38	0xbc406e30	-0.011745021
39	0xbae32c25	-0.0017331882
40	0x3dee18ba	0.1162581
41	0x3e3c69d0	0.1839974
42	0xbccd77f0	-0.025081605
43	0x3d4b475c	0.0496286
44	0xbe0ff9e0	-0.14060163
45	0x3e0e0986	0.1387082
46	0xbd3f379f	-0.046683904
47	0x3d445d4b	0.047940534
48	0x3de08657	0.10963123
49	0x3e7bcd26	0.24589977
50	0xbe06207e	-0.13098332
51	0x3e4f05cd	0.20217057
52	0xbdb97f49	-0.09057481
53	0x3e3e39a4	0.18576676
54	0xbdbc422b	-0.09192308
55	0x3dbe81fb	0.093021356
56	0xbe039718	-0.12850606
57	0x3e924a56	0.2857234
58	0xbd4d9f46	-0.050200723
59	0x3d970ca1	0.07375456
60	0x3c969c75	0.018385151
61	0x3e633603	0.22188573
62	0xbe43db88	-0.19126713
63	0x3ddac628	0.106823266
64	0xbd475ad0	-0.04867059
65	0x3e60f637	0.21968924
66	0xbdf3c277	-0.119023256
67	0x3cb22d3e	0.021750089
68	0xbdf6e93b	-0.12056204
69	0x3e81b1a5	0.25330845
70	0xbca52837	-0.020160777
71	0x3e64598d	0.22299786
72	0xbe312e0f	-0.17302726
73	0x3db10ef9	0.08645434
74	0xbc10a329	-0.008827963
75	0x3e22647c	0.15858644
76	0x3e1f4258	0.15552652
77	0x3d149534	0.036275104
78	0xbdc074bb	-0.093972646
79	0x3e861148	0.2618506
80	0xbd41322e	-0.047166996
81	0x3e44d6d7	0.1922258
82	0xbd54214c	-0.051789567
83	0x3e325cd4	0.17418224
84	0xbdfb00e6	-0.12256031
85	0x3e041147	0.12897216
86	0xbddec1c7	-0.10876804
87	0x3dfdcab3	0.123921774
88	0x3df95435	0.12174264
89	0x3e28e166	0.16492233
90	0xbe355e4f	-0.17711757
91	0x3e708156	0.23486838
92	0x3dc8d5db	0.09806415
93	0x3ead74ee	0.33878273
94	0xbe36f192	-0.1786559
95	0x3e51edf4	0.20500928
96	0x3e688763	0.22707896
97	0xbd582445	-0.052768964
98	0xba63a9e0	-0.0008684676
99	0x3e23fd58	0.16014612
100	0x3ba5e24f	0.0050623785
101	0x3d8e0996	0.06935422
102	0xbdb81cb9	-0.089898534
103	0x3dcefb97	0.10106581
104	0x3d5fc6fb	0.054633122
105	0x3deb3f4d	0.11486683
106	0xbe23397a	-0.15939894
107	0x3df02772	0.117262736
108	0xbd33ee6b	-0.043928545
109	0x3e2970db	0.16546957
110	0xbcf4102b	-0.029792866
111	0x3dd8e209	0.10589988
112	0xbd2b1ba7	-0.04177442
113	0x3e0c214e	0.1368458
114	0xbe241dd6	-0.16027007
115	0x3e3e57db	0.18588202
116	0xbbf8a601	-0.0075881486
117	0x3e18a4f3	0.14906673
118	0xbd998352	-0.074957505
119	0x3e90417c	0.2817496
120	0xbe1b7b12	-0.15183666
121	0x3e356278	0.17713344
122	0x3ade9928	0.00169829
123	0x3ce74262	0.028229896
124	0x3d86a61f	0.06574654
125	0x3e0f35af	0.13985322
126	0x3daec7d3	0.08534207
127	0x3e43e7b8	0.19131362
128	0xbdbd6bdc	-0.09249088
129	0x3e6c54f0	0.23079276
130	0xbe212cb7	-0.15739714
131	0x3e597d9f	0.21239327
132	0x3e082096	0.1329368
133	0xbd8b1c7a	-0.06792541
134	0xbe2a2044	-0.16613871
135	0x3dfda04c	0.1238409
136	0xbd02e41b	-0.03195582
137	0x3e2e4c6e	0.17021343
138	0xbda4d227	-0.08047896
139	0x3e067e45	0.13134106
140	0x3c5de92b	0.013544361
141	0x3e43e767	0.19131242
142	0xbd721ec5	-0.059111375
143	0x3e82415d	0.25440493
144	0xbc5b5d7b	-0.013388987
145	0x3defc895	0.1170818
146	0xbd95dc6b	-0.07317432
147	0x3e52c025	0.2058111
148	0xbe2097e2	-0.15682939
149	0x3da2d6fc	0.07951161
150	0xbdcc1432	-0.099647895
151	0x3dde35bc	0.10850093
152	0xbc2e18a4	-0.010625992
153	0x3e671f0b	0.22570436
154	0x3cb8e535	0.022570232
155	0x3e7311da	0.23737279
156	0xbe437594	-0.19087821
157	0x3e2a13d5	0.16609128
158	0xbe214547	-0.15749083
159	0x3e522021	0.20520069
160	0xbdad4b26	-0.08461599
161	0x3e850de2	0.25987154
162	0xbe44932a	-0.19196764
163	0x3e5f854f	0.21828197
164	0x3d43c0c5	0.04779126
165	0x3e338acb	0.17533414
166	0xbd70408a	-0.0586553
167	0x3e630a9a	0.22172013
168	0x3b0b87fc	0.002129077
169	0x3e737dec	0.23778504
170	0x3ab7d8e1	0.0014026427
171	0xba28a271	-0.0006432897
172	0xbdef8c9e	-0.116967425
173	0x3e46858b	0.1938688
174	0xbe542be9	-0.20719875
175	0x3dfcc118	0.12341517
176	0xbcba6e71	-0.02275774
177	0xbd6aedf5	-0.05735584
178	0x3e1a9b04	0.15098196
179	0x3e1734e7	0.14766274
180	0xbdac201c	-0.08404562
181	0x3e1fa695	0.1559089
182	0xbd567bd8	-0.0523642
183	0x3dafe03b	0.085876904
184	0x3d1baabf	0.038004633
185	0x3d7b17de	0.06130206
186	0xbe304d77	-0.1721705
187	0x3e666f7e	0.22503468
188	0xbd898575	-0.06714908
189	0x3d3fac5d	0.046795238
190	0xbe38b243	-0.18036751
191	0x3daee37a	0.085394815
192	0xbd8455c9	-0.06461675
193	0x3e729fd9	0.2369379
194	0xbdfe80bd	-0.12426899
195	0x3e127ea7	0.14306127
196	0xbdcefa45	-0.10106329
197	0x3db6303c	0.08895919
198	0xbc1b6913	-0.009485501
199	0x3e3738e4	0.17892796
200	0x3c0f5866	0.008749103
201	0xbe03eb36	-0.12882695
202	0xbdf80db5	-0.121119894
203	0xbe646481	-0.22303964
204	0xbe13b8d3	-0.14425974
205	0xbe693eb1	-0.22777821
206	0xbd607c05	-0.054805774
207	0xbdd686c6	-0.10474925
208	0x3a8a6411	0.0010558387
209	0xbd330e4f	-0.043714818
210	0xbd870451	-0.0659262
211	0xbde2a9fb	-0.110675775
212	0x3d924cb8	0.07143539
213	0xbe7120d4	-0.23547679
214	0x3d4cbc43	0.049984228
215	0xbe55c6b0	-0.20876575
216	0x3d8a5263	0.06753995
217	0xbe6c9b98	-0.2310623
218	0x3db8ee07	0.09029775
219	0xbe165ed3	-0.1468461
220	0xbd8a2bdc	-0.06746647
221	0xbe3b798d	-0.18308087
222	0x3dc9eef3	0.09860029
223	0xbe183c90	-0.14866853
224	0x3e06a631	0.13149334
225	0xbe68544a	-0.22688404
226	0x3c05a6c0	0.008157432
227	0xbe519bca	-0.20469585
228	0x3cc323c0	0.023820758
229	0xbe41ffb2	-0.18945196
230	0xbcb40f9f	-0.021980105
231	0xbe4afc5a	-0.19822827
232	0x3c486ff7	0.012233726
233	0xbe009d13	-0.12559919
234	0x3d408237	0.046999183
235	0xbe4b75fc	-0.19869226
236	0x3dacfe98	0.084469974
237	0xbe183f05	-0.1486779
238	0xbe7d5ffe	-0.2474365
239	0xbe437393	-0.19087057
240	0xbddca68f	-0.10773956
241	0xbe3f3e68	-0.1867615
242	0xbe0725d8	-0.1319803
243	0xbe6d9d18	-0.23204458
244	0x3e12b2f7	0.14326082
245	0xbd6468b2	-0.055763908
246	0xbe4fedc8	-0.2030555
247	0xbe8f644f	-0.28006217
248	0xbb4a7050	-0.0030889697
249	0xbe1d63fe	-0.15370175
250	0x3dc66f7d	0.096892335
251	0xbe6a0846	-0.22854719
252	0x3e2c391c	0.1681866
253	0xbe61663c	-0.22011656
254	0xbc7ddff7	-0.015495292
255	0xbe41a6e3	-0.18911318

weight_hh f4 [300, 100]
0	0x3ce44032	0.027862642
1	0xbd492f02	-0.049117096
2	0x3da59b2b	0.080862366
3	0x3e091e2d	0.13390417
4	0x3e34b170	0.17645812
5	0x3e4da071	0.20080735
6	0x3de59216	0.11209504
7	0x3e06c79c	0.13162082
8	0x3de939a5	0.11387948
9	0x3d9da947	0.07698303
10	0x3bb052a3	0.005380945
11	0x3d8b2721	0.067945726
12	0xbe2de71b	-0.16982691
13	0xbd1442e2	-0.036196597
14	0x3bcb6696	0.0062072976
15	0xbc026d11	-0.007960574
16	0xbdd0d179	-0.10196204
17	0xbd4e46ba	-0.05036042
18	0x3e10ab75	0.14127906
19	0x3c22ea0d	0.009943497
20	0x3e12ecb4	0.14348108
21	0xbe10b00c	-0.14129657
22	0xbe107d70	-0.1411035
23	0xbdf185b6	-0.117930815
24	0x3ceff06e	0.02928945
25	0x3b05492a	0.0020337799
26	0x3cd35228	0.025796011
27	0x3d233d76	0.039853536
28	0x3e1ae3f2	0.15126017
29	0x3deaeaed	0.1147059
30	0xbb206a9a	-0.0024477602
31	0xbc12d2ff	-0.008961438
32	0xbd595558	-0.053059906
33	0x3c8d6d95	0.017264167
34	0x3ddf5f27	0.10906821
35	0xbd4797da	-0.0487288
36	0x3d945bdf	0.072440855
37	0x3e430259	0.19043864
38	0xbe4a3726	-0.197476
39	0xbdeac36c	-0.11463055
40	0x3c8c7108	0.017143741
41	0x3dbbb5fa	0.09165569
42	0xbe249814	-0.16073638
43	0x3d91cfc3	0.071197055
44	0x3dcc59dd	0.099780776
45	0x3df7ec45	0.12105612
46	0x3c997aad	0.018735254
47	0xbe14395e	-0.14475009
48	0xbda30a1b	-0.07960912
49	0x3e369b0d	0.17832585
50	0xbe1ff5be	-0.15621087
51	0x3d4e78d6	0.050408207
52	0xbe0026bc	-0.12514776
53	0x3cc2d9bc	0.023785464
54	0x3d948973	0.07252779
55	0x3e1e2974	0.154455
56	0x3e2c37c5	0.1681815
57	0xbde0bd39	-0.10973591
58	0x3e11ba16	0.14231142
59	0xbe2c00f1	-0.16797234
60	0xbdf944ea	-0.121713474
61	0xbdbe866e	-0.09302984
62	0x3d10b561	0.035329226
63	0x3e0004b8	0.125018
64	0x3db4ad86	0.088221595
65	0x3d741e0b	0.059598964
66	0x3e417a16	0.18894228
67	0x3d45a3f5	0.048252065
68	0x3e29c03f	0.16577242
69	0x3e25bb47	0.16184722
70	0xbc98fe5b	-0.018675974
71	0xbe11b53b	-0.1422929
72	0xbd19f565	-0.037587542
73	0xbd80e9d8	-0.06294602
74	0x3d25d98a	0.040490665
75	0xbd3310d4	-0.04371722
76	0x3deb6bf4	0.114952
77	0x3e0d6f51	0.13811995
78	0xbbf17854	-0.0073690806
79	0x3de933ca	0.11386831
80	0xbe375b5c	-0.17905945
81	0xbe01162a	-0.12606111
82	0xbda5bc6b	-0.080925785
83	0x3e419668	0.18905032
84	0x3cf0a1a1	0.029373946
85	0xbb9d1b96	-0.0047945483
86	0xbd967cb2	-0.073480025
87	0x3d427bdf	0.047481414
88	0x3d04eb12	0.032450743
89	0xbde5d336	-0.11221926
90	0x3de3add8	0.111171424
91	0xbdf0bf2b	-0.117552124
92	0xbe4c84f3	-0.19972591
93	0xbe238eb2	-0.15972403
94	0x3e04d133	0.12970428
95	0x3dc42f83	0.09579375
96	0xbc1eb0d7	-0.009685717
97	0xbd9cef6c	-0.076628536
98	0xbdac791e	-0.08421539
99	0x3e2a9645	0.16658886
100	0x3e2ab1be	0.16669366
101	0xbd93be4e	-0.07214032
102	0x3dfb08c5	0.12257532
103	0x3e17ab5c	0.14811462
104	0x3d756a33	0.059915733
105	0x3e72d045	0.23712261
106	0x3e14fc56	0.14549384
107	0x3dc1430c	0.09436616
108	0x3d0b037c	0.03393887
109	0x3e400a7a	0.18753996
110	0x3d7d20c5	0.06179883
111	0x3e2ef6d8	0.17086351
112	0xbe4a8650	-0.19777799
113	0xbe0f41b9	-0.13989915
114	0x3db6d573	0.08927431
115	0x3e37fadf	0.17966793
116	0xbe31f82b	-0.17379825
117	0xbe05d923	-0.13071112
118	0x3dca1801	0.0986786
119	0x3c21ba13	0.009871024
120	0x3e12994d	0.14316292
121	0xbcae9b12	-0.021314178
122	0xbccf3ce0	-0.025297582
123	0xbd9199cb	-0.07109412
124	0x3c1051d8	0.008808576
125	0xbdd5df34	-0.10442963
126	0x3da6729d	0.081273295
127	0x3d7cea96	0.061747156
128	0xbc7af081	-0.01531613
129	0x3d0955ee	0.033529215
130	0x3d83874c	0.0642229
131	0xbdd416be	-0.103559
132	0xbdeea898	-0.116532505
133	0x3bc0d178	0.0058843456
134	0x3dc79ae2	0.097463384
135	0xbe334eeb	-0.17510574
136	0x3d5b6a95	0.05356844
137	0x3d3b3481	0.04570437
138	0xbe011bc8	-0.12608254
139	0xbe07fc3c	-0.13279814
140	0xbdd8d323	-0.10587146
141	0xbb0a32ef	-0.0021087488
142	0xbdc43cea	-0.09581931
143	0xbc39b2fe	-0.011334179
144	0x3e2aab6c	0.16666955
145	0x3e106af3	0.14103298
146	0xbe35568a	-0.17708793
147	0xbe1c80ee	-0.15283558
148	0xbde7fc1f	-0.11327385
149	0x3e7e260a	0.24819198
150	0xbe2d19e6	-0.1690441
151	0x3e1e7330	0.15473628
152	0xbe63ff33	-0.2226532
153	0x3e2440cd	0.16040345
154	0x3d1a1dcb	0.03762607
155	0x3e0b3761	0.13595344
156	0x3e3356a7	0.17513524
157	0xbdf4fd77	-0.11962407
158	0x3e476822	0.19473317
159	0xbd08d889	-0.03340963
160	0xbe5582c1	-0.2085066
161	0xbd7cc46b	-0.061710756
162	0x3c1607b3	0.009157109
163	0x3db557b9	0.088546224
164	0x3de00c1b	0.10939809
165	0x3e74cb08	0.23905575
166	0x3e4e9244	0.20172983
167	0x3e075e82	0.13219646
168	0x3da32797	0.079665355
169	0x3df1ba0c	0.11803064
170	0xbd531be3	-0.051540267
171	0xbdcc19af	-0.09965836
172	0xbe1cd554	-0.15315753
173	0xbdcb12c1	-0.099156864
174	0x3d7cc67e	0.061712734
175	0xbe0606c6	-0.13088521
176	0x3e5ecca0	0.21757746
177	0x3dc587a1	0.0964501
178	0x3e1935a3	0.14961867
179	0x3e6ea1e6	0.23303947
180	0xbe230238	-0.15918815
181	0xbd57793c	-0.052605852
182	0xbd4a2c5e	-0.049358718
183	0x3e7f8f38	0.24956977
184	0x3e1f38fb	0.1554908
185	0xbd6be652	-0.057592697
186	0xbd2bb39d	-0.04191934
187	0x3d824b10	0.06361973
188	0x3d482c54	0.0488704
189	0xbe6be4d9	-0.23036517
190	0x3d0e1a97	0.034693327
191	0xbe50f954	-0.20407611
192	0xbd9b247d	-0.07575319
193	0xbe342b1a	-0.17594567
194	0x3e5440c4	0.20727831
195	0x3e7649f3	0.24051647
196	0xbd862a85	-0.06551079
197	0xbc8ccf32	-0.017188642
198	0xbe0b090c	-0.1357767
199	0x3d173473	0.036915254
200	0x3e582d26	0.21110973
201	0xbd0b3602	-0.033987053
202	0x3e204ba8	0.1565386
203	0x3dea780e	0.1144868
204	0x3e4e7a09	0.2016374
205	0x3e67d3bc	0.22639364
206	0x3dfeb4a6	0.124368
207	0x3de218d8	0.11039895
208	0x3e6364f9	0.22206487
209	0x3dfb95a2	0.122843996
210	0x3d9ba7ca	0.076003626
211	0x3dbe0c52	0.09279694
212	0xbe7760a0	-0.24157953
213	0xbdaff197	-0.085910015
214	0x3e42beb3	0.19018058
215	0x3dfe4793	0.124159954
216	0xbddffd75	-0.10937015
217	0xbd9a62c5	-0.0753837
218	0x3dec94ad	0.11551795
219	0xbd750410	-0.059818327
220	0x3e15e69f	0.14638756
221	0xbe3602a2	-0.17774442
222	0xbe59b885	-0.21261795
223	0xbe17dc73	-0.14830188
224	0x3de63d8d	0.11242209
225	0xbe0c3e46	-0.1369563
226	0x3d9f24ae	0.07770668
227	0x3d4962a7	0.049166348
228	0x3dc0ba38	0.094105184
229	0x3e1ecc6a	0.15507665
230	0xbd20a789	-0.039222274
231	0xbe5f5b35	-0.21812136
232	0xbd6e994d	-0.058251668
233	0x3d811852	0.06303467
234	0x3d7ffe9a	0.062498666
235	0xbd5f513a	-0.054520823
236	0x3e310352	0.17286423
237	0x3e33c030	0.17553782
238	0xbe871f77	-0.26391193
239	0xbe7f07bc	-0.24905294
240	0xbe23a345	-0.15980251
241	0x3e65074e	0.22366068
242	0xbe746921	-0.23868228
243	0x3e3609bb	0.1777715
244	0x3ddcbc37	0.10778087
245	0x3d90bcaa	0.07067235
246	0x3d80487b	0.062638246
247	0xbe6288b2	-0.22122458
248	0x3d6c2e75	0.057661492
249	0x3e071691	0.13192202
250	0xbd92f388	-0.07175356
251	0x3d22f882	0.039787777
252	0xbdcf29ba	-0.101153806
253	0x3e45efe9	0.193298
254	0x3e32184d	0.17392083
255	0x3e7c18c8	0.24618828

bias_ih f4 [300]
0	0x3d901ed6	0.070371315
1	0x3e31bc8a	0.17357078
2	0x3e221733	0.15829162
3	0x3e5bbd55	0.21458943
4	0x3e1389c6	0.14408025
5	0x3e3f4c71	0.18681504
6	0x3dcc1e04	0.099666625
7	0x3e1cf79d	0.15328832
8	0x3d2f5a6d	0.042810846
9	0x3de810bb	0.11331316
10	0x3c6edb10	0.014578596
11	0x3d0bf0be	0.034165137
12	0x3da37420	0.079811335
13	0x3e03d92f	0.12875818
14	0x3d14bc10	0.036312163
15	0x3e16f521	0.14741947
16	0xbdcbda5c	-0.09953758
17	0x3db1f661	0.08689571
18	0x3d825f9a	0.06365891
19	0x3dce841c	0.100837916
20	0x3e79b209	0.24384321
21	0xbdaee60d	-0.085399725
22	0x3c7f681e	0.015588788
23	0x3ddac43d	0.10681961
24	0x3e04d399	0.12971343
25	0x3d4b8dd2	0.049695797
26	0x3d201dcd	0.03909092
27	0x3cf5ff5b	0.03002899
28	0x3df7b693	0.1209537
29	0xb9c6d31d	-0.00037922795
30	0x3c95c741	0.018283488
31	0x3e113468	0.14180148
32	0x3c5f7870	0.013639554
33	0xbcb26540	-0.021776795
34	0x3dd8b4a9	0.10581333
35	0x3e19886b	0.14993446
36	0x3bffc363	0.0078052743
37	0x3e2faf6b	0.1715676
38	0x3d793bc5	0.060848016
39	0x3d7152f2	0.058916993
40	0x3d5177df	0.05113971
41	0x3e2053b4	0.1565693
42	0x3d065efe	0.032805435
43	0xbbe09066	-0.006853151
44	0x3e3f89e2	0.18704942
45	0x3de03545	0.1094766
46	0x3e6b9bd4	0.23008662
47	0x3d400ccf	0.046887215
48	0x3d838202	0.064212814
49	0x3d0a7be4	0.033809558
50	0x3dc616ff	0.09672355
51	0x3c737afa	0.014860863
52	0x3de7b1e0	0.11313224
53	0xbe0ac249	-0.13550676
54	0x3d65f01d	0.056137193
55	0x3da50d5f	0.08059191
56	0xbd875509	-0.06608016
57	0x3cbabdf4	0.022795655
58	0x3e58b751	0.2116368
59	0x3cb886f9	0.022525297
60	0xbd4a24a7	-0.04935136
61	0xbe21b5c9	-0.15792002
62	0xbc3cf2c8	-0.011532493
63	0x3d71e12c	0.05905263
64	0x3e10522b	0.14093845
65	0x3a13f8f3	0.00056447013
66	0x3e0f3a64	0.13987118
67	0x3b688f64	0.0035485858
68	0x3cceeecd	0.025260353
69	0x3dedde57	0.116146736
70	0x3d2f02fa	0.042727448
71	0x3b9ea0f4	0.0048409645
72	0x3decd181	0.11563397
73	0x3d2a2147	0.041535642
74	0x3bf8ee83	0.007596792
75	0x3e2018e3	0.15634494
76	0x3defc675	0.117077745
77	0x3b832da9	0.004003246
78	0x3daad06f	0.08340537
79	0x3e2e8f26	0.17046794
80	0x3d95f9de	0.07323049
81	0xbdde7887	-0.108628325
82	0x3e0b24f8	0.13588321
83	0x3dd408ed	0.10353265
84	0x3dc66412	0.09687056
85	0x3e1399b2	0.14414099
86	0x3c818f24	0.015815325
87	0x3d2517f3	0.040306043
88	0x3b0c71a6	0.0021430044
89	0x3dca6692	0.09882845
90	0x3ca7c1db	0.02047818
91	0x3e012f1a	0.12615624
92	0x3dccae12	0.09994139
93	0xbd0aa29c	-0.033846483
94	0x3cd8aecf	0.026450543
95	0x3d7b049f	0.061283704
96	0x3e0c2f73	0.13689975
97	0x3e332471	0.1749437
98	0x3db775fd	0.08958051
99	0x3c5c4380	0.013443828
100	0xbdf8bb94	-0.12145153
101	0xbe604068	-0.21899569
102	0xbe5c3aec	-0.21506852
103	0xbe2a8438	-0.16652
104	0xbd5f9c7f	-0.054592606
105	0xbe108bc2	-0.14115813
106	0xbe09826d	-0.1342866
107	0xbe58f516	-0.21187243
108	0xbe77985d	-0.24179216
109	0xbd9be092	-0.07611193
110	0xbd9cf597	-0.0766403
111	0xbd866371	-0.06561936
112	0xbd9e747a	-0.0773706
113	0xbdcd93b6	-0.10037939
114	0xbe33803c	-0.17529386
115	0xbdece19d	-0.1156647
116	0xbe351321	-0.17683078
117	0xbb9af421	-0.0047288095
118	0xbd1a7748	-0.03771141
119	0xbe385174	-0.17999822
120	0xbe71c895	-0.23611672
121	0xbe979e3b	-0.29612908
122	0xbe0e94c3	-0.13923936
123	0xbe89e3c7	-0.26931593
124	0xbe860feb	-0.2618402
125	0xbe415d57	-0.18883263
126	0xbe2104a2	-0.15724424
127	0xbe862bc7	-0.26205274
128	0xbe600b84	-0.21879393
129	0xbe7c9b7e	-0.2466869
130	0xbe91a9df	-0.28449914
131	0xbe2cfa1e	-0.16892287
132	0xbe5dde92	-0.21666935
133	0xbe6d993a	-0.23202983
134	0xbe42a95b	-0.19009916
135	0xbd2aa00d	-0.041656543
136	0xbce69cd5	-0.028150955
137	0xbcf687ef	-0.030094115
138	0xbe370e6b	-0.17876594
139	0xbe29dd37	-0.16588293
140	0xbe356b94	-0.17716819
141	0xbdf4e2b4	-0.11957303
142	0x3c331743	0.010930839
143	0xbe60a29e	-0.21937034
144	0xbe516751	-0.20449568
145	0xbdfc7d12	-0.12328543
146	0xbe367118	-0.1781658
147	0xbd1dced5	-0.03852733
148	0xbd947281	-0.072484024
149	0xbcbfb02b	-0.023399433
150	0xbb05d239	-0.0020419492
151	0xbe2d3b83	-0.16917233
152	0xbde790d4	-0.11306921
153	0xbe78b9f4	-0.24289685
154	0xbe3919ae	-0.18076202
155	0xbd9c5526	-0.07633428
156	0x3c800a2e	0.015629854
157	0xbe41b781	-0.18917657
158	0xbd4aaeea	-0.049483217
159	0xbe4613e4	-0.19343525
160	0xbe1e27cc	-0.15444869
161	0xbe69f0f9	-0.2284583
162	0xbe4711d0	-0.19440389
163	0xbdf973b2	-0.1218027
164	0xbd9b0e13	-0.07571044
165	0xbdce8251	-0.1008345
166	0xbe1b90d3	-0.15191965
167	0xbd904f0c	-0.07046327
168	0xbde702c1	-0.11279822
169	0xbd116b83	-0.03550292
170	0xbe9de136	-0.30835885
171	0xbde7d674	-0.113202006
172	0xbd7e6f7a	-0.06211803
173	0xbe3678ec	-0.17819566
174	0xbccf67cc	-0.025318049
175	0xbdfd3670	-0.12363899
176	0xbcb5a1ad	-0.02217182
177	0xbe1c9438	-0.15290916
178	0xbdb8ab09	-0.09016997
179	0xbdb9f89b	-0.09080621
180	0xbd939a88	-0.07207209
181	0xbc6b243e	-0.0143519025
182	0xbe3e3b0b	-0.1857721
183	0xbdc3fd61	-0.095698126
184	0xbe08010f	-0.13281654
185	0xbe94eaf0	-0.29085493
186	0xbe782f96	-0.24236903
187	0xbddefcd2	-0.108880654
188	0xbe5c9676	-0.21541771
189	0xbdf0267b	-0.117260896
190	0xbe7f06a8	-0.24904883
191	0xbe0fbc52	-0.14036682
192	0xbd31bca3	-0.04339279
193	0xbc872ebe	-0.01650178
194	0xbe36a90d	-0.17837925
195	0xbe1fa7a0	-0.15591288
196	0xbe0112c9	-0.12604822
197	0xbe2acca0	-0.1667962
198	0xbe36f1d7	-0.17865692
199	0xbcb69c91	-0.022291454
200	0x3e03a0a9	0.12854256
201	0x3e73c06b	0.2380387
202	0x3dfc9538	0.12333149
203	0x3e0085b5	0.12551005
204	0x3e36bc7e	0.17845342
205	0x3d877677	0.06614392
206	0x3e2b6989	0.16739477
207	0x3e0ab451	0.13545348
208	0x3d9a2826	0.07527189
209	0x3d8698ab	0.06572088
210	0x3d9d2d0f	0.0767461
211	0x3d98d373	0.07462206
212	0xbdbccf01	-0.0921917
213	0xbe10f85d	-0.14157243
214	0x3e5256fd	0.20540996
215	0x3dd2db55	0.102957405
216	0xbdfd71b1	-0.123752005
217	0x3d9b1c77	0.075737886
218	0x3de4cbe3	0.11171701
219	0xbe3c309c	-0.18377918
220	0xbe00a7b0	-0.12563968
221	0xbcf7ef01	-0.030265333
222	0xbe1afd9b	-0.15135805
223	0xbdd94e6e	-0.106106624
224	0x3e575a8c	0.21030635
225	0xbe25e930	-0.16202235
226	0x3ddecfcc	0.10879478
227	0x3d700ac6	0.058604024
228	0x3e094c5a	0.13408032
229	0x3daac8e2	0.083390966
230	0xbe5df335	-0.21674807
231	0xbd1b00e0	-0.03784263
232	0xbde14c42	-0.11000873
233	0x3e277e99	0.16356887
234	0x3e68ca62	0.22733453
235	0xbe20a10a	-0.15686432
236	0x3decb21f	0.115574114
237	0x3d90904b	0.07058772
238	0x3c1a8fb1	0.009433673
239	0xbdf99a5c	-0.12187645
240	0xbcc5c040	-0.024139524
241	0x3dc5f9cd	0.09666786
242	0xbe2c6f9f	-0.16839455
243	0x3e2e7e10	0.17040277
244	0x3c2864b1	0.010277913
245	0x3e3c36a0	0.18380213
246	0x3dfe4cce	0.12416993
247	0xbd340aaf	-0.0439555
248	0x3d151b15	0.03640278
249	0x3cc49c1f	0.024000226
250	0xbe256ca6	-0.16154727
251	0x3e36a709	0.17837156
252	0xbe05af0d	-0.13055058
253	0x3d0b6ed0	0.034041226
254	0x3dcbabc4	0.09944871
255	0x3da69e3c	0.081356496

bias_hh f4 [300]
0	0x3d9a8042	0.075439945
1	0x3e6cd370	0.23127532
2	0x3e3b5a5d	0.1829619
3	0x3d8bd176	0.06827061
4	0x3e0c32c0	0.13691235
5	0x3d1bc9e5	0.03803434
6	0x3c3b394c	0.011427235
7	0x3c22a687	0.0099273985
8	0xbb6d2b10	-0.0036188997
9	0xbd672c86	-0.056438945
10	0x3e066e4d	0.13128014
11	0x3def19f8	0.11674875
12	0x3dab39d0	0.08360636
13	0x3dcf8596	0.10132901
14	0xbcf3eef1	-0.029777022
15	0x3dabb5dc	0.08384296
16	0x3d7d07c7	0.061774995
17	0x3e29ac08	0.16569531
18	0x3c2c7129	0.010525026
19	0xbc00c474	-0.007859338
20	0x3e9d825f	0.30763528
21	0xbde6e489	-0.11274058
22	0xbd33c83e	-0.043892138
23	0xbc35023b	-0.011047895
24	0x3e08f3fb	0.13374321
25	0xbc39e718	-0.011346601
26	0x3df9fd19	0.12206478
27	0xbc06456b	-0.0081952615
28	0xbba5327a	-0.0050414177
29	0x3d172143	0.036896955
30	0x3e13d0d6	0.14435133
31	0x3dfc56ca	0.12321241
32	0x3d9525a4	0.0728257
33	0xbd3aeeb8	-0.045637816
34	0x3e3d3776	0.18478188
35	0x3e1111ed	0.14166994
36	0x3da983ca	0.0827709
37	0x3d9ba5a9	0.075999565
38	0x3e500a16	0.20316347
39	0x3e214388	0.15748417
40	0x3e379e80	0.17931557
41	0x3c301d03	0.010749104
42	0x3da78ca8	0.08181125
43	0x3dcecf4f	0.10098135
44	0x3cab44a2	0.02090675
45	0xbd238936	-0.039925776
46	0x3e70729d	0.23481221
47	0xbd56d3b1	-0.05244798
48	0x3d23853e	0.03992199
49	0x3d1a2eab	0.037642162
50	0x3dc87547	0.09787994
51	0x3c85faa4	0.016354866
52	0x3da947cc	0.08265647
53	0xbe7f9a2f	-0.2496116
54	0x3db10d20	0.086450815
55	0x3d908ba9	0.07057888
56	0x39a80d3f	0.00032053326
57	0x3d4da063	0.050201785
58	0x3e1374f7	0.14400087
59	0x3dfe349a	0.12412377
60	0x3c82cbb2	0.01596627
61	0xbd973a23	-0.073841356
62	0x3e0ffe78	0.14061916
63	0x3e10c6d2	0.14138344
64	0x3dda2b0e	0.10652743
65	0x3d21e5fd	0.039525975
66	0x3ce8c572	0.028414462
67	0x3d6c0e2e	0.05763071
68	0x3dfe8cc7	0.12429195
69	0xbca9b604	-0.020716675
70	0x3db1394d	0.086535074
71	0x3d547966	0.051873587
72	0x3cb4f7aa	0.022090752
73	0x3e2bacba	0.16765109
74	0x3e47e2ff	0.19520186
75	0x3ded31f5	0.11581794
76	0x3e50ec49	0.20402636
77	0x3d1a26f7	0.037634816
78	0xbd9e7367	-0.07736855
79	0xbb7dde3e	-0.0038737203
80	0x3d404133	0.04693718
81	0xbddbd5ab	-0.10734113
82	0xbcbed88b	-0.023296615
83	0xbc1f47c2	-0.009721698
84	0x3d256cae	0.04038685
85	0xbcf6a1a0	-0.030106366
86	0xba9fad65	-0.0012182413
87	0x3cfcb6c2	0.030848864
88	0xbd0c76d5	-0.034293015
89	0x3df59a2d	0.11992297
90	0x3dbd9768	0.09257394
91	0x3ddda4b8	0.10822433
92	0x3df64048	0.120239794
93	0x3d2d182c	0.04225938
94	0x3d87bc3a	0.06627698
95	0x3dfbae2d	0.12289081
96	0x3dea1503	0.11429789
97	0x3e40b03f	0.18817233
98	0x3c913ffa	0.017730702
99	0x3d5e2d2e	0.054242305
100	0xbd8696dc	-0.06571743
101	0xbe810a83	-0.25203332
102	0xbe81fcb9	-0.25388125
103	0xbd929c27	-0.0715869
104	0xbc67d7b9	-0.014150553
105	0x3a2080b8	0.0006122696
106	0xbe520847	-0.2051097
107	0xbe7f6c2a	-0.24943605
108	0xbe69a197	-0.22815548
109	0xbdd229b4	-0.102618605
110	0xbe3da837	-0.185212
111	0xbd5ec3c6	-0.054385923
112	0xbe303bec	-0.17210358
113	0xbd12f025	-0.03587355
114	0xbe248f45	-0.16070278
115	0xbe4b3ba6	-0.19846973
116	0xbcac8a3f	-0.021062015
117	0xb9db4022	-0.00041818718
118	0xbd4a63c1	-0.04941154
119	0xbe843ef6	-0.25829285
120	0xbe0dddf8	-0.13854206
121	0xbe2b1e9b	-0.16710894
122	0xbe707224	-0.23481041
123	0xbe2ce64f	-0.16884731
124	0xbdfddbdc	-0.123954505
125	0xbe1592a1	-0.14606716
126	0xbd865717	-0.0655958
127	0xbe5b7c89	-0.21434225
128	0xbe8e5911	-0.27802327
129	0xbe3ca95c	-0.1842398
130	0xbe614300	-0.21998215
131	0xbe1d183a	-0.15341273
132	0xbe6c5170	-0.23077941
133	0xbdafc02d	-0.085815765
134	0xbe29847d	-0.16554447
135	0xbd80932a	-0.06278069
136	0xbe2a9afd	-0.16660686
137	0xbe2acda1	-0.16680004
138	0xbe3e5451	-0.18586852
139	0xbdd2ed47	-0.10299163
140	0xbe36d49c	-0.17854542
141	0xbe7b4944	-0.24539667
142	0xbcd7b7b9	-0.026332723
143	0xbe191f63	-0.1495338
144	0xbe294567	-0.16530381
145	0xbdb334da	-0.08750315
146	0xbe94e273	-0.29079017
147	0xbdbd4849	-0.09242303
148	0xbdda5cc5	-0.10662226
149	0xbca33ef1	-0.019927474
150	0xbda88f38	-0.08230442
151	0xbe26d541	-0.16292287
152	0x3b95eb24	0.00457515
153	0xbe4b46c8	-0.1985122
154	0xbd122d67	-0.03568783
155	0xbd32bd7b	-0.043637734
156	0xbe04f63c	-0.12984556
157	0xbdc18d0b	-0.0945073
158	0x3c9d938c	0.019235395
159	0xbe08c2c3	-0.13355546
160	0xbdd98586	-0.10621171
161	0xbe2cdb27	-0.16880475
162	0xbe7e3959	-0.24826564
163	0xbd6cfa19	-0.0578557
164	0xbe05f8e1	-0.13083221
165	0xbe383add	-0.17991205
166	0xbe5bd0ad	-0.21466322
167	0xbe3b4f9d	-0.18292089
168	0xbd839bde	-0.06426214
169	0xbe117788	-0.14205754
170	0xbe7035d9	-0.23458041
171	0xbc1808aa	-0.009279409
172	0xbbd03436	-0.0063538803
173	0xbe27d075	-0.16388114
174	0xbd95510a	-0.072908476
175	0xbdcaa6b1	-0.09895075
176	0xbd0dd6dc	-0.034628734
177	0xbe9e168d	-0.3087658
178	0xbcbbbf7a	-0.022918452
179	0xbe116e87	-0.14202319
180	0xbd060195	-0.032716352
181	0xbdf71a5e	-0.12065576
182	0xbe5bd079	-0.21466245
183	0xbdf2bcf3	-0.118524455
184	0xbe5069f2	-0.20352915
185	0xbe9ffe8c	-0.3124889
186	0xbdc6c58b	-0.09705647
187	0xbe28b89f	-0.16476677
188	0xbe71ccd0	-0.23613286
189	0xbdf4596b	-0.119311176
190	0xbe8e9f29	-0.27855805
191	0xbdb30c88	-0.087426245
192	0xbe158104	-0.14599997
193	0xbd5cb635	-0.053884704
194	0xbd7cf628	-0.06175819
195	0xbd204b78	-0.039134473
196	0xbe2ed6a4	-0.17074066
197	0xbd9af870	-0.07566917
198	0xbdd90827	-0.10597258
199	0xbe3a542f	-0.18196176
200	0x3e390ed1	0.18072058
201	0x3e60de12	0.21959713
202	0x3dc16e86	0.09444909
203	0xbd71489a	-0.05890713
204	0x3e1203c6	0.14259252
205	0x3e0ea965	0.13931806
206	0x3dd25c4a	0.10271509
207	0x3e2d385a	0.16916028
208	0x3e12bba1	0.14329387
209	0x3d6972f1	0.056994382
210	0x3ddf9986	0.10917954
211	0x3dfc8270	0.123295665
212	0xbcc80551	-0.024416598
213	0xbd8a419f	-0.067507975
214	0x3ca895db	0.02057927
215	0x3e080cad	0.13286085
216	0xbc6f1cc8	-0.014594264
217	0xbd566b6d	-0.052348543
218	0x3cf0bce9	0.029386954
219	0xbd25d425	-0.04048552
220	0xbdeda480	-0.116036415
221	0xbbee2629	-0.0072677326
222	0xbcfdb192	-0.030968461
223	0xbd435a0b	-0.047693294
224	0x3dac43ed	0.08411393
225	0xbe02c3bb	-0.12769978
226	0x3c24565b	0.010030354
227	0x3de2fdce	0.11083566
228	0x3e015412	0.12629727
229	0x3d911a99	0.07085151
230	0xbdde79a3	-0.10863044
231	0xbe0e8fe8	-0.13922083
232	0xbdff8333	-0.12476196
233	0x3c98ba9a	0.018643666
234	0x3e489b7d	0.19590564
235	0xbdf20ae4	-0.118184835
236	0x3c12d28b	0.00896133
237	0xbd3fe1af	-0.046846088
238	0xbd1aac04	-0.037761703
239	0xbd01e1aa	-0.03170935
240	0xbe3cda79	-0.18442716
241	0x3e03d981	0.1287594
242	0xbdb78dc8	-0.089625895
243	0x3d0dcdf5	0.034620244
244	0x3d931908	0.07182509
245	0x3decc40b	0.1156083
246	0x3e6751a5	0.22589739
247	0xbdca46ce	-0.09876786
248	0xbb0514eb	-0.0020306658
249	0x3db1aa05	0.08675007
250	0xbe2f9440	-0.17146397
251	0x3dc6b5b0	0.09702623
252	0xbdedfb2e	-0.11620174
253	0xbbd16c05	-0.0063910508
254	0x3dd593f5	0.10428611
255	0x3db9b728	0.090681374

weight f4 [2, 100]
0	0x3e29393f	0.16525744
1	0x3e50522d	0.20343848
2	0x3e89a1e4	0.26881325
3	0x3ce0508d	0.02738216
4	0x3c4cb5cd	0.012494517
5	0x3e13e6cc	0.14443511
6	0x3e0b31d2	0.13593224
7	0x3e0cf047	0.13763534
8	0x3e56a837	0.20962606
9	0x3e54e1fd	0.20789333
10	0x38d86e69	0.00010320248
11	0x3e2d75d7	0.16939484
12	0xbd75b306	-0.059985183
13	0xbdce9268	-0.100865185
14	0x3e5d94d1	0.216388
15	0x3e479f30	0.19494319
16	0xbdb021c5	-0.08600191
17	0xbdb17320	-0.086645365
18	0x3e3436bd	0.17599006
19	0xbe783ef9	-0.24242772
20	0x3d333ae7	0.043757346
21	0xbe7d8d75	-0.24760993
22	0xbe043d02	-0.12913898
23	0xbe63fd5e	-0.2226462
24	0x3e620fcd	0.2207634
25	0xbdef8fcf	-0.11697351
26	0x3db3b266	0.08774261
27	0x3e6cf74c	0.23141211
28	0x3e80afc9	0.25134113
29	0x3e8464e7	0.25858232
30	0xbe85a8a9	-0.2610524
31	0xbe6da6d4	-0.23208171
32	0xbe83de94	-0.2575575
33	0x3e382905	0.17984398
34	0x3ddfa54c	0.109202
35	0xbe57168a	-0.21004692
36	0x3df39902	0.11894418
37	0x3e1ca84c	0.15298575
38	0xbd592905	-0.053017635
39	0xbdedea0c	-0.116169065
40	0xbe50d3ed	-0.20393343
41	0x3e84fa88	0.2597239
42	0xbe4ddc6a	-0.20103613
43	0x3e85d030	0.26135397
44	0xbc9dd41e	-0.019266184
45	0x3e500180	0.20313072
46	0x3e3ce27a	0.18445769
47	0xbe3b1963	-0.18271403
48	0x3e546913	0.20743208
49	0x3e3dc882	0.18533519
50	0xbd29e0ae	-0.041474037
51	0x3e45ad07	0.19304286
52	0xbd94e028	-0.07269317
53	0x3e60570e	0.21908209
54	0x3d2d0614	0.042242125
55	0x3e4c03c5	0.19923313
56	0x3e483bdf	0.19554089
57	0xbe5e5aee	-0.21714374
58	0x3dc37149	0.09543092
59	0xbdc24971	-0.09486664
60	0xbe233383	-0.15937619
61	0xbe541ab7	-0.20713316
62	0x3e4bfb91	0.19920184
63	0x3d2a89ce	0.041635327
64	0x3e12df40	0.14342976
65	0x3e17cfd9	0.14825381
66	0x3d624f58	0.05525145
67	0x3e37d984	0.1795407
68	0x3dbab751	0.09116996
69	0x3e59c60d	0.21266957
70	0xbe86e386	-0.26345462
71	0xbe5b3f60	-0.21410894
72	0xbd737269	-0.059435282
73	0xbe490d58	-0.19633996
74	0x3de834f2	0.113382235
75	0xbd5d2b00	-0.053996086
76	0x3b7d2d89	0.0038631877
77	0x3e61ff67	0.22070085
78	0x3e55b2e9	0.2086903
79	0x3e0bb4ce	0.1364319
80	0xbe46736c	-0.19379967
81	0xbe4a483e	-0.1975412
82	0xbe35b355	-0.17744191
83	0x3e4a1db9	0.19737901
84	0x3e4b237a	0.19837752
85	0x3e883d9f	0.26609513
86	0xbe289685	-0.16463669
87	0x3e3fa9e2	0.18717149
88	0xbd41567c	-0.04720162
89	0xbcbee61d	-0.023303086
90	0x3e843fc6	0.25829905
91	0xbe181a36	-0.14853749
92	0xbd86be9b	-0.06579324
93	0xbe3c74d5	-0.18403943
94	0x3e757e1a	0.23973885
95	0x3e40399d	0.18771978
96	0xbe2526f2	-0.16128138
97	0xbe61b38c	-0.22041148
98	0xbe39e110	-0.18152261
99	0x3da058b1	0.078294165
100	0xbe191087	-0.14947711
101	0xbdf95e29	-0.12176163
102	0xbe8213c0	-0.25405693
103	0xbda2060d	-0.0791131
104	0xbe294871	-0.1653154
105	0x3c43f751	0.01196082
106	0xbe738ae8	-0.23783457
107	0xbe7d7688	-0.24752247
108	0xbe59e74a	-0.21279636
109	0xbe236023	-0.15954642
110	0xbe34da7b	-0.17661469
111	0xbe30120a	-0.17194381
112	0x3e58c4e4	0.21168858
113	0x3e25b1cb	0.16181104
114	0xbe5443b6	-0.20728955
115	0xbe685044	-0.22686869
116	0x3e59abd2	0.2125695
117	0x3dc75fa4	0.09735039
118	0xbe6f5702	-0.23373035
119	0x3e6d0d05	0.23149498
120	0x3db77b2c	0.0895904
121	0x3e827413	0.25479183
122	0x3e3d463a	0.1848382
123	0x3e711646	0.23543653
124	0xbe8b4c57	-0.2720668
125	0x3e6e065d	0.23244615
126	0xbe5652cc	-0.20930022
127	0xbe8b40b6	-0.27197808
128	0xbe84766f	-0.25871608
129	0xbe1cf985	-0.15329559
130	0x3dfaa704	0.12238887
131	0x3e783674	0.24239522
132	0x3e529add	0.20566888
133	0xbe4488e2	-0.19192842
134	0xbe820264	-0.2539245
135	0x3e253006	0.161316
136	0xbe4acf96	-0.1980575
137	0xbd9f7033	-0.07785072
138	0x3cddfe09	0.027098672
139	0x3dd3c41d	0.1034014
140	0x3e3f86f3	0.18703823
141	0xbe4d5f23	-0.20055823
142	0x3d137d1f	0.036007997
143	0xbe56437e	-0.20924184
144	0xbe0135e9	-0.12618221
145	0xbe0e598d	-0.13901348
146	0xbe8d12fc	-0.27553546
147	0x3e61bddf	0.22045086
148	0xbe43f919	-0.19137992
149	0xbde3a0b1	-0.11114634
150	0x3e441327	0.19147931
151	0xbe0f2589	-0.13979162
152	0x3d2939ef	0.041315015
153	0xbe27127c	-0.16315645
154	0xbe3c8813	-0.18411283
155	0xbe3c1925	-0.18368967
156	0xbdfef497	-0.124489956
157	0x3d51e7f7	0.05124661
158	0xbcbdef12	-0.023185287
159	0x3e778510	0.24171853
160	0x3e0fd65b	0.14046614
161	0x3e46d688	0.19417775
162	0xbe7058c0	-0.23471355
163	0xbdc8483b	-0.09779402
164	0xbe163e24	-0.14672142
165	0xbe4417c9	-0.19149698
166	0x3dbf7a1f	0.093494646
167	0xbe607fd5	-0.21923764
168	0xbe3c9c70	-0.18419051
169	0xbd507ab5	-0.050898273
170	0x3e868791	0.26275304
171	0x3e0d2032	0.13781813
172	0x3e0e44ca	0.13893428
173	0x3e567118	0.2094158
174	0xbdb21566	-0.08695488
175	0x3e02caf4	0.12772733
176	0xbe3dfe10	-0.18553948
177	0xbe865837	-0.26239178
178	0xbdde4263	-0.10852506
179	0xbda20b98	-0.079123676
180	0x3e433e29	0.19066681
181	0x3e3e562a	0.18587556
182	0x3e56b36f	0.20966886
183	0xbd355876	-0.044273816
184	0xbe0d3448	-0.13789475
185	0xbe85944b	-0.260897
186	0x3e56cbc1	0.20976163
187	0xbe498120	-0.19678164
188	0xbbd71e7b	-0.006564913
189	0x3da3af4f	0.07992422
190	0xbe776c77	-0.2416247
191	0x3e1718d6	0.14755568
192	0xbce191a2	-0.027535263
193	0x3e2e0c1e	0.1699681
194	0xbd70cd6a	-0.058789648
195	0xbd9f261f	-0.07770943
196	0x3e0793da	0.13239995
197	0x3ddc6646	0.107616946
198	0x3e5f3edf	0.21801327
199	0xbe52b88c	-0.20578212

bias f4 [2]
0	0x3d3f64b9	0.046726916
1	0xbde03143	-0.10946896

weight f4 [2, 100]
0	0x3dc753fb	0.09732815
1	0x3d1006e2	0.035162814
2	0xbace2580	-0.0015727729
3	0x3d486792	0.048926897
4	0xbdc07c1f	-0.09398674
5	0x3cf20254	0.029542126
6	0xbc83ea0c	-0.016102813
7	0x3d08a276	0.03335806
8	0x3dbb0481	0.091317184
9	0xbcc12f74	-0.023582198
10	0x3da337e9	0.079696484
11	0xbb627c00	-0.0034558773
12	0x3d95d207	0.0731545
13	0x3c815148	0.015785828
14	0x3d9a040f	0.07520305
15	0xbc4273d8	-0.01186844
16	0xbd566840	-0.052345514
17	0xbd318d7d	-0.043347824
18	0xbbe19850	-0.006884612
19	0xbd6db48a	-0.058033504
20	0xbaf5a580	-0.001874134
21	0x3cc730b4	0.024315216
22	0x3cf52254	0.029923595
23	0xbd57067d	-0.052496422
24	0x3c241a28	0.010016002
25	0x3dcbe4a9	0.09955723
26	0xbdc70ce5	-0.09719256
27	0x3d9ed0a5	0.077546395
28	0xbca0a540	-0.019610047
29	0x3ce4b24c	0.02791705
30	0xbdafcf37	-0.08584445
31	0x3d87e449	0.06635339
32	0xbcb1c634	-0.021700956
33	0x3da605a1	0.081065424
34	0xbcb401a0	-0.021973431
35	0xbd77054a	-0.06030778
36	0xbc9c2468	-0.019060329
37	0x3d54ca4e	0.051950745
38	0x3dc962cf	0.09833299
39	0xbdc23820	-0.09483361
40	0xbd135bc4	-0.035976186
41	0x3d38510e	0.044999175
42	0xbcb8e0a0	-0.022568047
43	0xbcc69af4	-0.02424381
44	0xbd0f7564	-0.03502406
45	0x3cddb864	0.027065463
46	0x3bc4c980	0.006005466
47	0xbd7a406d	-0.061096597
48	0xbc35bfb0	-0.011093065
49	0xbd7702e7	-0.060305502
50	0xbdbd6212	-0.09247221
51	0x3d333126	0.043748043
52	0x3daea835	0.08528177
53	0x3d880337	0.06641238
54	0xbdb29a05	-0.08720783
55	0xbd2aa667	-0.0416626
56	0xbd84273d	-0.064527966
57	0x3d9664d3	0.073434494
58	0xbdb6c0da	-0.08923502
59	0x3c862f4c	0.016379975
60	0xbdbb355b	-0.09141036
61	0xbccf6a00	-0.0253191
62	0xbdbd17d3	-0.0923306
63	0xbd89cb6a	-0.06728251
64	0x3d78243a	0.060581423
65	0xbca32b48	-0.019918099
66	0xbcdd7be0	-0.027036607
67	0xbcfb2ae0	-0.030660093
68	0x3db6343f	0.08896684
69	0x3daa2771	0.08308304
70	0xbdb75b5a	-0.08952971
71	0xbd8ada88	-0.06779963
72	0x3d8319fd	0.06401441
73	0x3d98540f	0.07437908
74	0x3c40c3b0	0.011765406
75	0x3dbf6c79	0.093468614
76	0x3d8d4b17	0.06899088
77	0x3da3a1e1	0.0798986
78	0xbd4727ca	-0.04862193
79	0x3d86fc45	0.06591085
80	0x3c8d5cc0	0.01725614
81	0xbdb3fe08	-0.08788687
82	0xbcd208e0	-0.025638998
83	0x3d8554d1	0.06510318
84	0xbdc495bb	-0.09598871
85	0x3dab8119	0.08374233
86	0x3daeff49	0.085447855
87	0xbdcb5e23	-0.099300645
88	0xbd839f70	-0.06426895
89	0x3cc18128	0.023621157
90	0xbdbf4a87	-0.09340387
91	0x3d9aab6f	0.075522296
92	0xbd54901d	-0.05189525
93	0xbd917096	-0.07101552
94	0x3cdf9684	0.027293451
95	0xbdc43ffd	-0.09582517
96	0x3da6c549	0.08143098
97	0x3daaa6e1	0.08332611
98	0x3dcc0b4b	0.099630915
99	0xbcadccd4	-0.021215834
100	0xbdc95e43	-0.09832432
101	0x3d020c8a	0.03175024
102	0xbda8e802	-0.08247377
103	0x3d90b5ed	0.070659496
104	0x3d7c9132	0.061661907
105	0x3d2a33e2	0.041553386
106	0xbcc91a68	-0.024548724
107	0x3d2721be	0.040803663
108	0xbd3a7803	-0.04552461
109	0x3d76c3c6	0.060245298
110	0xbdb10995	-0.08644406
111	0x3bef2600	0.007298231
112	0x3d964665	0.073376454
113	0x3dc67525	0.09690312
114	0xbd20d6c7	-0.039267328
115	0xbd71dec0	-0.05905032
116	0xbc90ff80	-0.017699957
117	0x3d3cc062	0.046081908
118	0xbd897a20	-0.067127466
119	0x3da334df	0.07969069
120	0xbcd2b718	-0.025722072
121	0xbc6dbff0	-0.0145110935
122	0x3ca991cc	0.020699404
123	0x3d7516aa	0.059836067
124	0x3d85db55	0.06535975
125	0xbd20173a	-0.03908465
126	0xbdae433a	-0.08508916
127	0x3c75f070	0.015010938
128	0x3da55159	0.080721565
129	0xbdb86945	-0.090044536
130	0xbdad9b28	-0.08476859
131	0xbd3feda0	-0.046857476
132	0xbd7b86e0	-0.061407924
133	0x3d022706	0.031775497
134	0xbd76237d	-0.060092438
135	0x3dab5829	0.083664246
136	0x3d92e2a1	0.07172132
137	0xbd3f84e0	-0.04675758
138	0xbc89e794	-0.016834058
139	0xbd062350	-0.03274852
140	0xbd863ed2	-0.06554951
141	0x3d16fc22	0.036861546
142	0xbd4c6dc0	-0.049909353
143	0x3dbb40b1	0.09143198
144	0x3dcad091	0.09903062
145	0x3ad3dac0	0.0016163215
146	0xbd8528d0	-0.06501925
147	0x3c875dec	0.016524278
148	0xbb8442b0	-0.00403627
149	0xbd096a34	-0.03354855
150	0x3cee7efc	0.029113285
151	0xbd645d83	-0.055753242
152	0xbd982d18	-0.07430476
153	0xbd9956bb	-0.07487246
154	0xbdbf85ea	-0.09351714
155	0x3d1777de	0.03697955
156	0x3d725366	0.059161566
157	0x3d20cd96	0.039258562
158	0x3d5a833e	0.05334782
159	0xbd0c270a	-0.034216918
160	0xbd117a70	-0.035517156
161	0x3d88249f	0.0664761
162	0xbd49815a	-0.049195625
163	0xbb43bbc0	-0.0029866546
164	0x3d3cd302	0.04609967
165	0x3d2ab07a	0.041672207
166	0xbcdb8b54	-0.026799835
167	0xbcf68900	-0.030094624
168	0x3db8db61	0.09026218
169	0x3d93da49	0.07219369
170	0xbd548c67	-0.05189171
171	0x3dae54a3	0.08512237
172	0xbcbc02a0	-0.02295047
173	0x3d32f562	0.043691047
174	0x3dad0a4b	0.08449229
175	0xbd08ce86	-0.03340008
176	0xbd7119c0	-0.058862448
177	0xbdca64bf	-0.09882497
178	0x3d9eb9e5	0.077503
179	0xbd8c18ca	-0.06840666
180	0xbc96762c	-0.018366896
181	0x3d977ea7	0.07397204
182	0xbd116d6a	-0.035504736
183	0xb97c5000	-0.00024062395
184	0xbd8aeb7d	-0.06783197
185	0xbc50dc50	-0.012747839
186	0x3d8a4143	0.06750729
187	0xbd18e2b4	-0.037325576
188	0xbd987516	-0.07444207
189	0x3d285d62	0.04110468
190	0xbdafde5d	-0.08587334
191	0xbcc60608	-0.024172798
192	0x3d6e01d2	0.058107205
193	0x3db3ee43	0.08785679
194	0xbcdc30c8	-0.02687873
195	0xbaa40580	-0.0012513846
196	0x3d6b5a06	0.0574589
197	0x3b6d12c0	0.0036174506
198	0xbd11a71c	-0.03555976
199	0xbd966680	-0.07343769

bias f4 [2]
0	0x3d095d6e	0.033536367
1	0x3d87c041	0.066284664

amplitudes f4 [10000, 2]
0	0x3f7ef2d3	0.9958927
1	0x00000000	0.0
2	0x3f7ef2d3	0.9958927
3	0x00000000	0.0
4	0x3d077d11	0.033078257
5	0x00000000	0.0
6	0x3f7ef2d3	0.9958927
7	0x00000000	0.0
8	0x3f7ef2d3	0.9958927
9	0x00000000	0.0
10	0x3f7ef2d3	0.9958927
11	0x00000000	0.0
12	0x3f7ef2d3	0.9958927
13	0x00000000	0.0
14	0x3f7ef2d3	0.9958927
15	0x00000000	0.0
16	0x3f7ef2d3	0.9958927
17	0x00000000	0.0
18	0x3f7ef2d3	0.9958927
19	0x00000000	0.0
20	0x3f7ef2d3	0.9958927
21	0x00000000	0.0
22	0x3f7ef2d3	0.9958927
23	0x00000000	0.0
24	0x3f7ef2d3	0.9958927
25	0x00000000	0.0
26	0x3f7ef2d3	0.9958927
27	0x00000000	0.0
28	0x3f7ef2d3	0.9958927
29	0x00000000	0.0
30	0x3f7ef2d3	0.9958927
31	0x00000000	0.0
32	0x3f7ef2d3	0.9958927
33	0x00000000	0.0
34	0x3f7ef2d3	0.9958927
35	0x00000000	0.0
36	0x3d077d11	0.033078257
37	0x00000000	0.0
38	0x3f7ef2d3	0.9958927
39	0x00000000	0.0
40	0x3f7ef2d3	0.9958927
41	0x00000000	0.0
42	0x3f7ef2d3	0.9958927
43	0x00000000	0.0
44	0x3d077d11	0.033078257
45	0x00000000	0.0
46	0x3d077d11	0.033078257
47	0x00000000	0.0
48	0x3f7ef2d3	0.9958927
49	0x00000000	0.0
50	0x3d077d11	0.033078257
51	0x00000000	0.0
52	0x3f7ef2d3	0.9958927
53	0x00000000	0.0
54	0x3f7ef2d3	0.9958927
55	0x00000000	0.0
56	0x3f7ef2d3	0.9958927
57	0x00000000	0.0
58	0x3d077d11	0.033078257
59	0x00000000	0.0
60	0x3d077d11	0.033078257
61	0x00000000	0.0
62	0x3f7ef2d3	0.9958927
63	0x00000000	0.0
64	0x3d077d11	0.033078257
65	0x00000000	0.0
66	0x3f7ef2d3	0.9958927
67	0x00000000	0.0
68	0x3f7ef2d3	0.9958927
69	0x00000000	0.0
70	0x3f7ef2d3	0.9958927
71	0x00000000	0.0
72	0x3f7ef2d3	0.9958927
73	0x00000000	0.0
74	0x3d077d11	0.033078257
75	0x00000000	0.0
76	0x3f7ef2d3	0.9958927
77	0x00000000	0.0
78	0x3f7ef2d3	0.9958927
79	0x00000000	0.0
80	0x3f7ef2d3	0.9958927
81	0x00000000	0.0
82	0x3f7ef2d3	0.9958927
83	0x00000000	0.0
84	0x3f7ef2d3	0.9958927
85	0x00000000	0.0
86	0x3d077d11	0.033078257
87	0x00000000	0.0
88	0x3f7ef2d3	0.9958927
89	0x00000000	0.0
90	0x3f7ef2d3	0.9958927
91	0x00000000	0.0
92	0x3f7ef2d3	0.9958927
93	0x00000000	0.0
94	0x3f7ef2d3	0.9958927
95	0x00000000	0.0
96	0x3f7ef2d3	0.9958927
97	0x00000000	0.0
98	0x3f7ef2d3	0.9958927
99	0x00000000	0.0
100	0x3d077d11	0.033078257
101	0x00000000	0.0
102	0x3f7ef2d3	0.9958927
103	0x00000000	0.0
104	0x3f7ef2d3	0.9958927
105	0x00000000	0.0
106	0x3d077d11	0.033078257
107	0x00000000	0.0
108	0x3f7ef2d3	0.9958927
109	0x00000000	0.0
110	0x3f7ef2d3	0.9958927
111	0x00000000	0.0
112	0x3f7ef2d3	0.9958927
113	0x00000000	0.0
114	0x3f7ef2d3	0.9958927
115	0x00000000	0.0
116	0x3f7ef2d3	0.9958927
117	0x00000000	0.0
118	0x3f7ef2d3	0.9958927
119	0x00000000	0.0
120	0x3f7ef2d3	0.9958927
121	0x00000000	0.0
122	0x3d077d11	0.033078257
123	0x00000000	0.0
124	0x3f7ef2d3	0.9958927
125	0x00000000	0.0
126	0x3f7ef2d3	0.9958927
127	0x00000000	0.0
128	0x3f7ef2d3	0.9958927
129	0x00000000	0.0
130	0x3f7ef2d3	0.9958927
131	0x00000000	0.0
132	0x3f7ef2d3	0.9958927
133	0x00000000	0.0
134	0x3f7ef2d3	0.9958927
135	0x00000000	0.0
136	0x3f7ef2d3	0.9958927
137	0x00000000	0.0
138	0x3f7ef2d3	0.9958927
139	0x00000000	0.0
140	0x3f7ef2d3	0.9958927
141	0x00000000	0.0
142	0x3f7ef2d3	0.9958927
143	0x00000000	0.0
144	0x3f7ef2d3	0.9958927
145	0x00000000	0.0
146	0x3f7ef2d3	0.9958927
147	0x00000000	0.0
148	0x3d077d11	0.033078257
149	0x00000000	0.0
150	0x3f7ef2d3	0.9958927
151	0x00000000	0.0
152	0x3f7ef2d3	0.9958927
153	0x00000000	0.0
154	0x3f7ef2d3	0.9958927
155	0x00000000	0.0
156	0x3d077d11	0.033078257
157	0x00000000	0.0
158	0x3f7ef2d3	0.9958927
159	0x00000000	0.0
160	0x3f7ef2d3	0.9958927
161	0x00000000	0.0
162	0x3f7ef2d3	0.9958927
163	0x00000000	0.0
164	0x3f7ef2d3	0.9958927
165	0x00000000	0.0
166	0x3f7ef2d3	0.9958927
167	0x00000000	0.0
168	0x3f7ef2d3	0.9958927
169	0x00000000	0.0
170	0x3d077d11	0.033078257
171	0x00000000	0.0
172	0x3f7ef2d3	0.9958927
173	0x00000000	0.0
174	0x3f7ef2d3	0.9958927
175	0x00000000	0.0
176	0x3f7ef2d3	0.9958927
177	0x00000000	0.0
178	0x3f7ef2d3	0.9958927
179	0x00000000	0.0
180	0x3f7ef2d3	0.9958927
181	0x00000000	0.0
182	0x3f7ef2d3	0.9958927
183	0x00000000	0.0
184	0x3f7ef2d3	0.9958927
185	0x00000000	0.0
186	0x3f7ef2d3	0.9958927
187	0x00000000	0.0
188	0x3d077d11	0.033078257
189	0x00000000	0.0
190	0x3f7ef2d3	0.9958927
191	0x00000000	0.0
192	0x3f7ef2d3	0.9958927
193	0x00000000	0.0
194	0x3f7ef2d3	0.9958927
195	0x00000000	0.0
196	0x3f7ef2d3	0.9958927
197	0x00000000	0.0
198	0x3f7ef2d3	0.9958927
199	0x00000000	0.0
200	0x3f7ef2d3	0.9958927
201	0x00000000	0.0
202	0x3f7ef2d3	0.9958927
203	0x00000000	0.0
204	0x3f7ef2d3	0.9958927
205	0x00000000	0.0
206	0x3f7ef2d3	0.9958927
207	0x00000000	0.0
208	0x3f7ef2d3	0.9958927
209	0x00000000	0.0
210	0x3f7ef2d3	0.9958927
211	0x00000000	0.0
212	0x3f7ef2d3	0.9958927
213	0x00000000	0.0
214	0x3f7ef2d3	0.9958927
215	0x00000000	0.0
216	0x3f7ef2d3	0.9958927
217	0x00000000	0.0
218	0x3d077d11	0.033078257
219	0x00000000	0.0
220	0x3d077d11	0.033078257
221	0x00000000	0.0
222	0x3f7ef2d3	0.9958927
223	0x00000000	0.0
224	0x3f7ef2d3	0.9958927
225	0x00000000	0.0
226	0x3f7ef2d3	0.9958927
227	0x00000000	0.0
228	0x3d077d11	0.033078257
229	0x00000000	0.0
230	0x3f7ef2d3	0.9958927
231	0x00000000	0.0
232	0x3d077d11	0.033078257
233	0x00000000	0.0
234	0x3f7ef2d3	0.9958927
235	0x00000000	0.0
236	0x3f7ef2d3	0.9958927
237	0x00000000	0.0
238	0x3f7ef2d3	0.9958927
239	0x00000000	0.0
240	0x3d077d11	0.033078257
241	0x00000000	0.0
242	0x3f7ef2d3	0.9958927
243	0x00000000	0.0
244	0x3f7ef2d3	0.9958927
245	0x00000000	0.0
246	0x3f7ef2d3	0.9958927
247	0x00000000	0.0
248	0x3f7ef2d3	0.9958927
249	0x00000000	0.0
250	0x3f7ef2d3	0.9958927
251	0x00000000	0.0
252	0x3d077d11	0.033078257
253	0x00000000	0.0
254	0x3f7ef2d3	0.9958927
255	0x00000000	0.0
