data/RNN_runs/sweep_H2/rnn_sto3g_H2_0-7348_eq1_nU100_nL1_lr001_lrsO_ns1000.pt (torch_old, 185628 bytes, 9 tensors)

weight_ih f4 [300, 2]
0	0x3e914eef	0.28380534
1	0xbe53daaf	-0.2068889
2	0x3ea83f37	0.3286073
3	0xbe84a55e	-0.25907415
4	0x3d9a3c21	0.07531
5	0x3e2acdad	0.16680022
6	0x3db9688f	0.09053146
7	0xbe85ce91	-0.2613416
8	0xbda0d375	-0.07852832
9	0xbd512ac5	-0.05106618
10	0x3e41617e	0.18884847
11	0xbcebc619	-0.028780984
12	0xbeda61dc	-0.42652786
13	0x3f162efd	0.5866545
14	0xbe91e807	-0.28497335
15	0x3e89e1ef	0.26930186
16	0x3ca2ff6c	0.019897185
17	0x3e1fc50d	0.15602513
18	0xbf8be621	-1.0929605
19	0x3f2a620b	0.6655585
20	0x3ec86d39	0.3914583
21	0xbe5b3750	-0.21407819
22	0xbd9584d1	-0.07300723
23	0x3e7aa759	0.244779
24	0xbfa185e8	-1.261899
25	0x3f0c97a8	0.5491891
26	0xbe43f535	-0.19136508
27	0x3eb76881	0.35821918
28	0x3edaec51	0.4275842
29	0xbf15f502	-0.5857698
30	0xbe37977e	-0.17928883
31	0x3f05d2a3	0.5227453
32	0x3ed57730	0.41692495
33	0xbebdc476	-0.3706395
34	0x3f0911c1	0.53542715
35	0xbee482c7	-0.44631025
36	0xbdf4381a	-0.11924763
37	0x3e2eacc9	0.170581
38	0x3e565252	0.2092984
39	0xbe60849b	-0.21925585
40	0x3eaafc69	0.333957
41	0xbd9bc29b	-0.076054774
42	0xbab369dc	-0.0013688165
43	0x3d70fcee	0.058834963
44	0x3e92f804	0.28704846
45	0xbe8af157	-0.27137253
46	0x3e8db65e	0.27678198
47	0xbe565c60	-0.20933676
48	0x3dd8523e	0.105625615
49	0x3bee77f0	0.0072774813
50	0xbe555eae	-0.20836899
51	0x3ee3f91e	0.44526
52	0xbecfa3cb	-0.40554652
53	0x3f08ede7	0.5348801
54	0x3e598244	0.21241099
55	0xbe333ae9	-0.17502941
56	0xbd6829c9	-0.056680474
57	0x3eb27b20	0.34859562
58	0x3eaed84a	0.3414939
59	0xbe822fcb	-0.25427088
60	0x3e956530	0.29178762
61	0x3d5fc4df	0.05463111
62	0xbe872dfd	-0.26402274
63	0x3eb15897	0.346379
64	0xbd221fd7	-0.039581146
65	0x3e6c4eac	0.23076886
66	0x3e4fb40a	0.20283523
67	0xbefa5e88	-0.48900247
68	0xbe423566	-0.18965682
69	0x3d8025d6	0.06257217
70	0x3ee28ce6	0.44248122
71	0xbe98ada1	-0.29819968
72	0xbb902f93	-0.0044002025
73	0xbd433ae6	-0.04766359
74	0xbef118c6	-0.47089213
75	0xbe49ff89	-0.19726385
76	0x3ec4c1f8	0.38429236
77	0xbebc61bb	-0.36793312
78	0x3e3db646	0.18526563
79	0xbde8cfe0	-0.11367774
80	0xbebd17a7	-0.36932108
81	0x3ea69047	0.3253195
82	0xbf22ed32	-0.6364318
83	0x3f157d51	0.5839434
84	0xbdb1ba31	-0.08678091
85	0x3cbcc58e	0.02304342
86	0xbde96b28	-0.113973916
87	0x3ec5934b	0.38588938
88	0x3eacd982	0.33759695
89	0xbdb38aa3	-0.08766677
90	0xbf89f850	-1.0778904
91	0x3f09e90d	0.5387123
92	0x3e73a051	0.23791625
93	0x3e323277	0.17402063
94	0x3df171bf	0.117892735
95	0x3e293b30	0.16526484
96	0xbf450de9	-0.7697435
97	0xbd999fc5	-0.07501177
98	0xbf4e863c	-0.80673575
99	0x3f8a44db	1.0802263
100	0x3ef162fa	0.47145826
101	0xbec3fe4d	-0.38279954
102	0x3eaa33bd	0.33242598
103	0xbf129cfb	-0.57270783
104	0x3e7a754d	0.24458809
105	0xbe5edfe0	-0.21765089
106	0x3e6850df	0.226871
107	0x3ded66a8	0.11591846
108	0x3f17795f	0.5916957
109	0xbf19c78c	-0.6007011
110	0x3c435722	0.01192263
111	0x3e8e37fc	0.27777088
112	0xbdc95adc	-0.09831783
113	0x3cf9e0ab	0.030502638
114	0xbf24bcb3	-0.6435043
115	0x3f4fe6ad	0.8121136
116	0x3e93def7	0.28881046
117	0xbed1bca5	-0.40964237
118	0xbf6c5c2d	-0.9232815
119	0x3f180f42	0.5939828
120	0xbec0da78	-0.37666678
121	0x3f59203f	0.8481483
122	0x3f04dc20	0.51898384
123	0xbf30c16a	-0.69045126
124	0x3eda6413	0.42654476
125	0xbee03176	-0.43787736
126	0x3eb3bfd0	0.3510728
127	0xbe4dbc83	-0.20091443
128	0xbe8e8fcd	-0.27844086
129	0x3f190627	0.5977501
130	0xbf3e29ef	-0.74282736
131	0x3f0c6b74	0.5485146
132	0x3e98bc82	0.2983132
133	0xbe1bc3b4	-0.15211374
134	0x3ebb74bd	0.36612502
135	0xbf15fc5e	-0.58588207
136	0xbb2192b1	-0.0024654085
137	0x3e50cb67	0.20390092
138	0x3e8c0b1e	0.27352232
139	0x3db8ad27	0.09017401
140	0x3e2f9316	0.17145953
141	0x3d9248c8	0.07142788
142	0x3e826651	0.25468686
143	0xbea3c423	-0.31985578
144	0x3ebe5c57	0.37179825
145	0xbe1fff35	-0.15624698
146	0x3d60f793	0.054923605
147	0x3e1a24df	0.15053128
148	0xbd071ae0	-0.032984614
149	0xbea19489	-0.31558636
150	0x3ddd13a6	0.10794763
151	0xbe379501	-0.17927934
152	0x3ec79bd1	0.38986066
153	0xbe9b56b5	-0.3033959
154	0x3ddb8f38	0.10720676
155	0x3e0b703e	0.13617036
156	0x3e41167d	0.18856235
157	0xbe429a4d	-0.19004174
158	0x3e0b8d4d	0.1362812
159	0x3d653c26	0.055965565
160	0xbd7d8be3	-0.061900984
161	0x3ece255d	0.4026288
162	0x3ea0c838	0.31402755
163	0xbefb66b5	-0.49101797
164	0xbe0301c4	-0.12793642
165	0x3f13eb3e	0.57780826
166	0x3ecc744f	0.39932486
167	0xbf1d7c31	-0.61517626
168	0xbf19dc44	-0.60101724
169	0x3f05b375	0.52226955
170	0x3e7a4996	0.24442133
171	0xbed09177	-0.4073598
172	0xbe7ff84e	-0.24997064
173	0x3eed6045	0.4636251
174	0xbf3c7b3c	-0.7362554
175	0x3f551c9e	0.8324679
176	0x3e23d245	0.1599818
177	0xbdf3c144	-0.11902097
178	0x3e437399	0.19087066
179	0x3d5bb295	0.053637106
180	0xbe7d73f2	-0.24751261
181	0x3e9c5863	0.30536184
182	0xbe818bad	-0.25301877
183	0x3a8a50d1	0.001055265
184	0x3daf10cc	0.085481256
185	0xbe18edff	-0.14934538
186	0x3e859fc6	0.2609846
187	0xbe578769	-0.21047749
188	0x3ec03861	0.37543014
189	0xbe9bf65c	-0.30461395
190	0x3d7402a4	0.05957283
191	0xbc262053	-0.010139543
192	0xbd409b30	-0.047023
193	0x3e1777d4	0.14791805
194	0xbeccd047	-0.40002653
195	0x3eb178fb	0.34662613
196	0xbe478896	-0.19485697
197	0x3eefe613	0.4685522
198	0xbf97c882	-1.1858065
199	0x3f01e9cc	0.5074737
200	0xbe89ff29	-0.26952484
201	0x3d8de56f	0.069285266
202	0xbe228c90	-0.15873933
203	0x3d014859	0.031563137
204	0xbe773aaf	-0.2414348
205	0xbd4f752b	-0.05064885
206	0xbe37a372	-0.17933443
207	0x3e34270a	0.17593017
208	0xbe162fe0	-0.146667
209	0x3d460cef	0.04835218
210	0xbe9205cf	-0.28520057
211	0x3d639b05	0.05556776
212	0x3da5770a	0.080793455
213	0xbdf4d41a	-0.11954518
214	0xbdb27cfc	-0.08715245
215	0xbe003476	-0.12520012
216	0xbe15399c	-0.14572757
217	0xbca48e0e	-0.020087268
218	0x3e195a10	0.14975762
219	0xbde4e4eb	-0.11176475
220	0xbe80617b	-0.25074372
221	0xbd7bb306	-0.061450027
222	0x3dcbca04	0.09950641
223	0xbe92fd8b	-0.28709063
224	0x3e6a762b	0.2289664
225	0xbe85e13c	-0.26148403
226	0x3c9fcb2e	0.019506063
227	0xbde35e8a	-0.11102016
228	0xbdf70d9b	-0.12063142
229	0xba13f1e6	-0.00056436507
230	0xbe09f0e3	-0.13470797
231	0xbe049a08	-0.12949383
232	0xbe748c1e	-0.23881575
233	0x3dc98031	0.09838904
234	0xbe892871	-0.26788667
235	0xbe4100cc	-0.1884796
236	0xbe137602	-0.14400485
237	0xbe369724	-0.17831093
238	0xbe83846a	-0.2568696
239	0x3dd5832f	0.10425412
240	0xbd96e86e	-0.07368551
241	0xbe066de0	-0.13127851
242	0xbe9256c6	-0.28581828
243	0x3cd69a04	0.026196487
244	0xbda36229	-0.07977707
245	0x3da4cfc9	0.080474444
246	0xbe59345e	-0.21211383
247	0x3be1c537	0.006889965
248	0xbc8b0cb5	-0.016973833
249	0xbcdf8869	-0.027286725
250	0x3e74c7d3	0.23904352
251	0xbdb15b52	-0.08659996
252	0x3efda86a	0.49542552
253	0xbe78a415	-0.24281342
254	0xbe1e42e5	-0.15455206
255	0xbbaae22a	-0.005214949

weight_hh f4 [300, 100]
0	0xbe1b7efe	-0.15185162
1	0xbe7d5127	-0.24737988
2	0xbd4618a6	-0.04836335
3	0x3e1f24d7	0.15541397
4	0x3e2d3084	0.16913038
5	0x3e0ffb67	0.14060746
6	0x3d7a826b	0.061159533
7	0xbd1325d9	-0.035924766
8	0xbdc566db	-0.09638759
9	0x3d27b694	0.040945604
10	0xbe3dd143	-0.18536858
11	0xbce45583	-0.027872806
12	0xbde50637	-0.11182826
13	0xbc4a4113	-0.012344616
14	0xbe19e8aa	-0.1503016
15	0xbe2cf582	-0.16890529
16	0x3de69630	0.11259115
17	0xbd2317f7	-0.039817777
18	0x3d1bae75	0.038008172
19	0x3e4778d1	0.19479682
20	0xbb42eb1b	-0.0029742185
21	0xbcc15296	-0.02359895
22	0x3d994829	0.074844666
23	0x3da158ff	0.07878303
24	0xbe10965f	-0.14119862
25	0x3d44d502	0.048054703
26	0xbd179206	-0.037004493
27	0xbe067355	-0.13129933
28	0xbcc20456	-0.023683708
29	0xbdb03a12	-0.08604826
30	0x3e410680	0.18850136
31	0x3d981c09	0.07427222
32	0x3d976990	0.07393181
33	0xbdd9e35a	-0.10639067
34	0xbc55d4fb	-0.013051267
35	0x3dc2e4c9	0.095162936
36	0x3e49dc57	0.19712959
37	0x3ca41eb6	0.020034175
38	0xbe6dfef0	-0.23241782
39	0x3dd04380	0.101691246
40	0x3e4ee123	0.2020307
41	0xbdaff2a9	-0.085912056
42	0xbddf1c26	-0.10894041
43	0xbd9e14c6	-0.07718806
44	0x3e078628	0.1323477
45	0x3dcd86f5	0.10035507
46	0xbdcacc7b	-0.09902283
47	0x3d44f3c6	0.048084043
48	0xbd89231b	-0.06696149
49	0x3dede5cb	0.11616095
50	0xbc2e8fb3	-0.010654378
51	0xbdb9120b	-0.090366445
52	0xbe0aed7f	-0.1356716
53	0xbe2ebce1	-0.17064239
54	0xbdd621b3	-0.10455646
55	0x3d89386e	0.06700216
56	0x3df9b687	0.121930175
57	0xbd2d9ece	-0.042387776
58	0x3d7a112a	0.061051525
59	0xbe10b5a1	-0.14131786
60	0xbc7b4fcb	-0.015338848
61	0x3d55e9e9	0.052225027
62	0xbe012cd8	-0.12614763
63	0x3d873522	0.06601931
64	0x3ac90aa9	0.001533826
65	0x3d44bc2e	0.048031025
66	0x3da8f2e2	0.08249451
67	0xbdccc89c	-0.09999201
68	0x3dbff004	0.09371951
69	0xbd65fd11	-0.056149546
70	0x3ddb8382	0.107184425
71	0xbd0d7b83	-0.034541618
72	0xbd177af9	-0.03698251
73	0x3d9eec11	0.0775987
74	0xbabe36eb	-0.0014512216
75	0xbd098258	-0.03357157
76	0xbdb8e21b	-0.09027501
77	0xbd6ff9da	-0.058587886
78	0x3d3a9363	0.045550715
79	0xbd6d8e8f	-0.057997283
80	0xbdc667df	-0.096877806
81	0x3ca48d15	0.020086804
82	0xbc5b4619	-0.013383412
83	0xba907891	-0.001102226
84	0xbc7c1022	-0.015384706
85	0xbe480383	-0.1953259
86	0x3af2cc77	0.001852407
87	0x3d09cc12	0.033641882
88	0xbda712df	-0.08157896
89	0xbd294f4b	-0.041335385
90	0xbd95f60e	-0.07322322
91	0xbdb4835e	-0.08814119
92	0xba7c7cbe	-0.0009631625
93	0x3c2b187e	0.010442851
94	0xbdfca032	-0.12335242
95	0x3d800665	0.0625122
96	0x3d5e6dee	0.054304056
97	0xbd10e5ce	-0.03537541
98	0x3bd2b2f0	0.0064300224
99	0x3db7b8ac	0.0897077
100	0xbce4a10f	-0.02790883
101	0xbbb57655	-0.005537788
102	0x3db94e03	0.09048083
103	0x3c89bfcb	0.016815087
104	0xbd10bc9e	-0.03533613
105	0x3d7224be	0.05911707
106	0x3e00870d	0.12551518
107	0xbc9785ce	-0.01849642
108	0xbcdf7b4b	-0.02728047
109	0x3e3dc1c6	0.1853095
110	0xbd8c1dd4	-0.06841627
111	0xbd8899fd	-0.06669996
112	0xbe36910d	-0.1782877
113	0xbd3bf4cf	-0.045887765
114	0x3d30b7f0	0.043144166
115	0x3df13b12	0.11778845
116	0xbde07e5d	-0.10961602
117	0xbdc0f3f5	-0.09421531
118	0xbc288a0b	-0.010286818
119	0xbd457612	-0.048208304
120	0xbdd153d9	-0.10221071
121	0x3d887d66	0.06664543
122	0x3d65ea1e	0.056131475
123	0xbda228e2	-0.07917954
124	0xbb7cd8f0	-0.0038581453
125	0xbc006b15	-0.00783803
126	0xbd1f1b53	-0.038844418
127	0xbaa24636	-0.0012380544
128	0xbcd3eefd	-0.025870794
129	0xbcc1db6d	-0.0236642
130	0x3d54c521	0.05194581
131	0x3cbf4fa4	0.023353405
132	0xbd95f1a8	-0.07321483
133	0xbda8afc6	-0.08236651
134	0x3d459e7c	0.048246846
135	0xbd8ebe04	-0.06969836
136	0x3e04d404	0.12971503
137	0xbd1d9e8d	-0.038481284
138	0xbd085b01	-0.033289913
139	0x3e8de93b	0.27717003
140	0xbd287964	-0.041131392
141	0xbd2d8ad3	-0.04236872
142	0xbd441080	-0.047867298
143	0xbd3d284b	-0.046181004
144	0xbdaba9cf	-0.08381998
145	0x3df6bb9b	0.12047502
146	0xbe4477e9	-0.19186367
147	0xbd89eb0d	-0.067342855
148	0x3d2807b8	0.041022986
149	0x3e5bb2e0	0.21454954
150	0xbd712ebe	-0.058882467
151	0x3d723007	0.059127834
152	0xbdc33627	-0.09531813
153	0x3d54f509	0.051991496
154	0xbd8558e0	-0.06511092
155	0xbd65abb5	-0.056071956
156	0x3c8e1ba0	0.017347157
157	0xbdb54c6f	-0.08852469
158	0x3d6b2618	0.057409376
159	0xbc086792	-0.008325474
160	0xbdbd22e0	-0.092351675
161	0x3d603a9a	0.054743387
162	0xbccf53f2	-0.025308583
163	0xbe1b672a	-0.15176073
164	0xbd38a431	-0.04507846
165	0x3df26008	0.11834723
166	0xbdc40721	-0.09571672
167	0xbd63f326	-0.055651806
168	0xbd9add3a	-0.07561727
169	0xbd8c923f	-0.06863832
170	0xbcbc2da7	-0.022970987
171	0x3be77e5f	0.007064625
172	0xb9a9010f	-0.0003223498
173	0xbda01009	-0.078155585
174	0xbe3fde1a	-0.18737069
175	0xbcee2bb9	-0.029073583
176	0x3d5a99d7	0.05336937
177	0x3ddfbf01	0.10925103
178	0xbb99a8d4	-0.0046893153
179	0x3df70f7a	0.12063499
180	0x3cf461e6	0.029831838
181	0x3d7a6db8	0.061139792
182	0x3cd44be6	0.025915097
183	0x3dafd12e	0.0858482
184	0x3e19fed7	0.1503862
185	0xbd55263e	-0.052038424
186	0x3caae44b	0.020860812
187	0x3c5a5165	0.01332507
188	0xbe503eaf	-0.20336412
189	0xbd0f1f26	-0.034941815
190	0x3c47ea87	0.012201912
191	0xbe3c3fa5	-0.18383653
192	0x3dbc40a4	0.09192017
193	0x3d32c12f	0.043641265
194	0x3d77639d	0.060397733
195	0x3d691e86	0.056913875
196	0x3d204afe	0.039134018
197	0x3d6dbbe9	0.058040533
198	0x3d0b8c13	0.034069132
199	0x3cd279eb	0.0256929
200	0xbc953b47	-0.018216742
201	0xbde3052f	-0.11084973
202	0x3c4d45c9	0.012528845
203	0x3d45db12	0.048304625
204	0x3dd5c1e7	0.104373746
205	0x3e1770a4	0.14789063
206	0xbd88281a	-0.06648274
207	0xbd85ea9f	-0.06538891
208	0x3d77daf8	0.06051156
209	0xbddda9ba	-0.108233884
210	0xbd568d66	-0.05238094
211	0xbd04e96c	-0.03244917
212	0xbc63fdca	-0.0139154885
213	0x3e047deb	0.12938659
214	0x3d905f66	0.07049446
215	0xbd06ad74	-0.03288026
216	0x3d67d17a	0.056596257
217	0x3d9e65ca	0.077342585
218	0xbdcd2502	-0.10016824
219	0x3d8a13db	0.067420684
220	0x3dbae853	0.091263436
221	0xbc9a25b0	-0.018816799
222	0xbd619c27	-0.05508056
223	0x3c3e512c	0.011616033
224	0xbd152b38	-0.03641817
225	0x3d80731d	0.06271956
226	0xbe32b8b1	-0.17453267
227	0xbdaf34cf	-0.08554994
228	0xbd957492	-0.07297625
229	0x3ca373e5	0.019952724
230	0x3dbc2704	0.09187129
231	0x3c0933f5	0.008374204
232	0x3dc69dac	0.09698042
233	0xbde389b8	-0.11110252
234	0xbdfb6d66	-0.122767255
235	0x3ea3c65e	0.3198728
236	0x3e78619a	0.24255982
237	0xbce05c4b	-0.027387759
238	0xbe57b4f6	-0.21065125
239	0x3e2e7d68	0.17040026
240	0x393e42a2	0.00018144635
241	0x3d9b01a1	0.0756867
242	0xbdd09076	-0.10183804
243	0xbcda1303	-0.026620394
244	0x3da9a51d	0.08283446
245	0xbe0014ad	-0.12507887
246	0xbd9e496f	-0.0772885
247	0xbd119ea7	-0.035551693
248	0x3d01efa0	0.031722665
249	0xbe2c3c01	-0.16819765
250	0x3dd77ec5	0.10522226
251	0xbdf4f13f	-0.119600765
252	0xbd5f514c	-0.05452089
253	0xbd8df3f2	-0.069312945
254	0xbcdca580	-0.026934385
255	0x3dc02e19	0.093837924

bias_ih f4 [300]
0	0xbc05a96c	-0.008158069
1	0xbd8706cd	-0.06593094
2	0x3dff2f10	0.12460148
3	0xbc9a6348	-0.01884617
4	0x3d01130a	0.031512298
5	0x3e5c3a6f	0.21506666
6	0x3db383cb	0.08765372
7	0x3e10d636	0.14144215
8	0xbd5e7a12	-0.054315634
9	0x3dc66ee9	0.09689123
10	0xbe2ef427	-0.17085324
11	0xba6ab874	-0.0008953877
12	0x3d8def97	0.06930464
13	0x3dcfab1f	0.10140061
14	0xbe65d2a9	-0.22443642
15	0x3dd8fae0	0.105947256
16	0xbe415a23	-0.1888204
17	0xbddb4f82	-0.10708524
18	0x3daa8dc3	0.0832782
19	0xbd490178	-0.049073666
20	0x3c850b5f	0.016240774
21	0xbcfdaad6	-0.03096525
22	0xbd9b3ab1	-0.07579554
23	0xbd018450	-0.031620324
24	0xbdd83e69	-0.10558779
25	0x3d5dbd34	0.054135516
26	0x3c3c8973	0.01150738
27	0xbe576278	-0.21033657
28	0x3d993f1d	0.07482741
29	0xbe15ddb7	-0.14635359
30	0xbde617f4	-0.112350374
31	0x3e1e166e	0.15438244
32	0xbbe375bb	-0.006941525
33	0xbd8c89a3	-0.068621896
34	0x3db462c3	0.088079
35	0x3b5f4a0f	0.0034071242
36	0xbd0e686e	-0.03476756
37	0x3d89de49	0.06731851
38	0xbe5924c9	-0.21205439
39	0xbca180e7	-0.019714786
40	0xbd9ce30a	-0.07660492
41	0x3dd45ad7	0.10368889
42	0xbcf79c13	-0.03022579
43	0x3cf03f0a	0.029326934
44	0x3dc4f4b1	0.09616984
45	0x3d8fc696	0.07020299
46	0x3c15c177	0.009140364
47	0x3cff72f8	0.031182751
48	0x3d9f9220	0.07791543
49	0xbd5cbddc	-0.053892
50	0xbd9dd592	-0.07706751
51	0xbe1853ee	-0.14875767
52	0xbc8ab3ff	-0.016931532
53	0x3d5d7b76	0.05407282
54	0xbe3e1164	-0.18561321
55	0x3e20d7ae	0.15707275
56	0xbe17c280	-0.1482029
57	0xbc4d5962	-0.012533518
58	0x3d22bc68	0.03973046
59	0xbda8337c	-0.08212945
60	0xbc17eadc	-0.009272303
61	0xbe880814	-0.26568663
62	0xbe83fe19	-0.257798
63	0xbd958772	-0.07301225
64	0x3dfdf903	0.12401011
65	0xbdf5cac4	-0.12001565
66	0x3e4f92c0	0.20270824
67	0xbe1b1893	-0.15146093
68	0x3a9e2c8a	0.0012067717
69	0xbcb7cb41	-0.022435786
70	0xbcc6a3d0	-0.024248034
71	0xbe4e43ed	-0.20143099
72	0x3d9474f4	0.072488695
73	0xbd2bb7fe	-0.041923515
74	0xbe1915ca	-0.14949718
75	0x3d5932ba	0.053026892
76	0xbe2b99bb	-0.16757862
77	0xbe51454d	-0.20436592
78	0xbc52ca22	-0.012865575
79	0x3d8daf5b	0.06918212
80	0x3e0a7b84	0.1352368
81	0xbe811231	-0.2520919
82	0x3df97857	0.12181156
83	0xbdb8fc46	-0.09032492
84	0x3d27a299	0.04092655
85	0xbe28c9ce	-0.16483232
86	0xbc4005a8	-0.011720099
87	0x3d633171	0.055467073
88	0x3e2e5b04	0.17026907
89	0x3db5b2c3	0.08871987
90	0xbd81c76f	-0.06336867
91	0x3d77ebd1	0.060527626
92	0xbd7cd8eb	-0.061730307
93	0xbdd1597b	-0.10222145
94	0xbdc200e6	-0.094728276
95	0x3dc17f92	0.0944816
96	0x3d816ecb	0.0631996
97	0x3e07507e	0.13214299
98	0x3df593b4	0.11991063
99	0xbd00bfe4	-0.031433
100	0xbe5180b7	-0.20459257
101	0xbd9a2999	-0.075274654
102	0xbdd05e27	-0.10174208
103	0xbe261311	-0.16218211
104	0xbcc207de	-0.023685392
105	0xbe852358	-0.26003528
106	0xbd8c34a6	-0.068459794
107	0xbe8b6d1d	-0.27231684
108	0xbe616a10	-0.22013116
109	0xbc95f982	-0.018307451
110	0xbe34ba89	-0.17649283
111	0xbe0c9f5f	-0.1373267
112	0xbdcdfa3e	-0.100574955
113	0xbd267dcf	-0.040647324
114	0xbe3463a7	-0.1761614
115	0xbe32f2c4	-0.1747542
116	0xbe368efd	-0.17827983
117	0xbe4f9e59	-0.20275249
118	0xbe2796f7	-0.16366182
119	0xbc9b401f	-0.018951474
120	0xbe8ce12d	-0.27515545
121	0xbe820cda	-0.2540043
122	0xbe53217c	-0.20618242
123	0xbe250e06	-0.16118631
124	0xbe802601	-0.25028995
125	0xbca028a0	-0.019550622
126	0xbe23188b	-0.15927331
127	0xbe99bc20	-0.3002634
128	0xbe3972bc	-0.18110174
129	0xbe84e4da	-0.2595585
130	0xbdd6a22b	-0.1048015
131	0xbdf228db	-0.11824199
132	0xbe33aef3	-0.17547207
133	0xbe876168	-0.26441503
134	0xbdb617ca	-0.08891256
135	0xbe279b45	-0.16367824
136	0x3d08a05d	0.03335606
137	0xbc347c1b	-0.011015917
138	0xbe0b2207	-0.13587199
139	0xbe62e7ce	-0.22158739
140	0xbe3b8188	-0.18311131
141	0xbe1328a2	-0.14370969
142	0xbd13c007	-0.036071803
143	0xbdf75a41	-0.120777614
144	0xbe45db28	-0.19321883
145	0xbdc0317f	-0.09384441
146	0x3d2c7832	0.042106815
147	0xbcfb9eb4	-0.030715324
148	0xbd663627	-0.056203987
149	0xbd5e69fb	-0.05430029
150	0xbe6b25cc	-0.22963637
151	0xbe9bdaf6	-0.3044049
152	0xbd5f669b	-0.05454121
153	0xbe233174	-0.15936834
154	0xbec0fcc6	-0.3769285
155	0xbe4598d0	-0.19296575
156	0x3d7b00e5	0.06128015
157	0xbdc34213	-0.09534087
158	0x3c97cb84	0.018529661
159	0xbdaed8c0	-0.085374355
160	0xbe75597d	-0.23959918
161	0xbebee3a8	-0.37283063
162	0xbe33ebc9	-0.17570414
163	0xbdcf1ddf	-0.10113119
164	0xbe344fd9	-0.17608584
165	0xbd233797	-0.039847936
166	0xbea90853	-0.33014163
167	0xbf06b30b	-0.5261695
168	0xbe35ffc7	-0.17773353
169	0x3c827e51	0.015929373
170	0xbddd1a88	-0.10796076
171	0xbe64e685	-0.22353561
172	0xbb0915c2	-0.002091751
173	0xbde757d1	-0.112960465
174	0xbdc7ae7e	-0.097500786
175	0xbdb80f98	-0.08987349
176	0xbdab4534	-0.08362809
177	0xbd6884dc	-0.05676733
178	0x3d1783c5	0.0369909
179	0xbe2d30c1	-0.1691313
180	0xbe7f1ace	-0.24912569
181	0xbe44c0bc	-0.19214147
182	0xbe059a36	-0.13047108
183	0xbece0e34	-0.4024521
184	0xbd36b5e2	-0.04460705
185	0xbe54c69b	-0.20778887
186	0xbe750c5f	-0.239305
187	0xbe4d8b9b	-0.20072787
188	0xbee52900	-0.44757843
189	0xbe56d60a	-0.20980087
190	0xbe7888cb	-0.24270932
191	0xbd955104	-0.07290843
192	0xbe0879fa	-0.1332778
193	0xbd043c6a	-0.032284178
194	0xbe39300c	-0.18084735
195	0xbe1ce589	-0.15321936
196	0xbe2e4389	-0.1701795
197	0x3bc604ba	0.006043044
198	0xbe4ba379	-0.19886579
199	0xbd5e6c7a	-0.05430267
200	0x3e2a1b56	0.1661199
201	0x3e2c65a8	0.16835654
202	0x3d25ef4c	0.040511414
203	0x3dcadc1f	0.09905266
204	0x3e2c04f7	0.16798769
205	0x3e12a45f	0.14320515
206	0x3dad463b	0.08460661
207	0x3e1fb78f	0.15597366
208	0x3d57da7f	0.05269861
209	0xbda230b3	-0.07919445
210	0x3e0301b3	0.12793617
211	0x3e1aa68f	0.151026
212	0xbd4255b9	-0.047445033
213	0xbe082c43	-0.13298135
214	0x3e4f08dc	0.20218223
215	0x3d983c90	0.074334264
216	0xbe06f8e0	-0.13180876
217	0x3e3838e0	0.17990446
218	0x3de517ec	0.11186203
219	0xbdc2626a	-0.09491427
220	0x3db17726	0.08665304
221	0x3c806961	0.015675249
222	0xbe224d1d	-0.15849729
223	0xbc1ab157	-0.009441695
224	0x3e2988ab	0.16556041
225	0xbdfaf73d	-0.12254188
226	0x3e161654	0.14656955
227	0x3cda8cef	0.02667853
228	0x3d70f2fd	0.05882548
229	0x3dd352fb	0.10318562
230	0xbdc6cdf6	-0.09707253
231	0xba5ccb97	-0.0008422671
232	0xbce09c15	-0.027418176
233	0x3e27c8ab	0.16385143
234	0x3cd26f28	0.025687769
235	0xbe338512	-0.17531231
236	0x3d0ca2ef	0.034335073
237	0x3cfc2354	0.030778565
238	0x3d904aaa	0.07045491
239	0xbe835802	-0.25653082
240	0xbc80da9b	-0.01572924
241	0x3d3bc144	0.04583861
242	0xbe5ec369	-0.2175423
243	0x3d86547a	0.065590814
244	0xbd18655b	-0.037206035
245	0x3d8f9030	0.070099235
246	0x3b88c893	0.004174301
247	0xbc6c4576	-0.014420858
248	0xbd9c9b83	-0.07646849
249	0xbe17c96c	-0.1482293
250	0xbe5a109b	-0.21295397
251	0x3e5cb727	0.21554242
252	0xbdb3ac5c	-0.08773109
253	0x3cc55b37	0.024091346
254	0x3e192e8a	0.1495916
255	0x3e06b0c4	0.13153368

bias_hh f4 [300]
0	0xbb4a76b9	-0.0030893518
1	0xbc06c89d	-0.008226541
2	0x3e18dacb	0.14927213
3	0xbe2920d4	-0.16516429
4	0x3cc76e20	0.024344504
5	0x3d87c10b	0.06628617
6	0xba197e4d	-0.0005855307
7	0xbafb7995	-0.0019186015
8	0xbdce538a	-0.100745276
9	0xbd95380a	-0.07286079
10	0xbd5dcdd3	-0.054151367
11	0x3da74c21	0.08168817
12	0x3d95b53d	0.07309959
13	0x3d977e30	0.07397115
14	0xbe94bfb8	-0.2905252
15	0x3d2d8d12	0.042370863
16	0xbce15912	-0.027508292
17	0xbce7b792	-0.028285775
18	0x3cf6f09d	0.03014403
19	0xbe218e92	-0.15777043
20	0x3da3e8de	0.080034
21	0xbd6ed254	-0.058306053
22	0xbe0a85e3	-0.13527636
23	0xbe191354	-0.1494878
24	0xbdcffd9f	-0.10155796
25	0xbbe252b2	-0.0069068307
26	0x3dc17f57	0.09448116
27	0xbe7e8686	-0.24856004
28	0xbd519524	-0.051167622
29	0xbddf63f5	-0.10907737
30	0x3c60bf89	0.013717541
31	0x3e0b0d49	0.13579287
32	0x3d55fe03	0.052244198
33	0xbdbd67b1	-0.09248293
34	0x3e2b0e78	0.16704738
35	0xbb9f2c03	-0.0048575415
36	0x3d24a68e	0.0401979
37	0xbce76b49	-0.0282494
38	0xbd8ed30c	-0.06973848
39	0x3da17d39	0.078852125
40	0x3d533bbf	0.05157065
41	0xbd2c91b1	-0.04213113
42	0x3c99d8af	0.01878008
43	0x3e0c73fd	0.13716121
44	0xbd8f4df3	-0.069972895
45	0xbda2333c	-0.079199284
46	0x3c632e44	0.013866011
47	0xbd8b93ab	-0.06815275
48	0x3d5ba516	0.053624235
49	0xbd4d0b1e	-0.05005943
50	0xbd9b774e	-0.07591115
51	0xbe16cc47	-0.14726363
52	0xbd422e30	-0.04740733
53	0xbd75e425	-0.06003203
54	0xbe1f06db	-0.15529959
55	0x3e1696e4	0.14705998
56	0xbda78801	-0.081802376
57	0x3c73ac29	0.014872589
58	0xbce4998c	-0.027905248
59	0x3c9f7e2c	0.019469343
60	0x3d658fbc	0.05604528
61	0xbe39f722	-0.1816068
62	0xbdd85d1c	-0.10564634
63	0x3c18ae48	0.009318896
64	0x3db77f67	0.08959847
65	0xbda5ffbe	-0.081054196
66	0x3dbae21c	0.09125158
67	0xbdc76e7b	-0.09737869
68	0x3dcd49d0	0.10023844
69	0xbe231f53	-0.15929918
70	0x3ca03bfa	0.019559849
71	0xbe1e1aaa	-0.15439859
72	0xbcac7ade	-0.021054681
73	0x3dac6cfe	0.08419226
74	0x3d1c16c1	0.038107637
75	0x3c4ccebd	0.012500462
76	0xbda5210e	-0.08062945
77	0xbe2ed4fc	-0.17073435
78	0xbe31ce8b	-0.17363946
79	0xbdd75df2	-0.105159655
80	0x3ddf1df3	0.10894384
81	0xbe80697b	-0.25080475
82	0xbd190e71	-0.037367288
83	0xbe507701	-0.20357896
84	0xbc7ee317	-0.015557072
85	0xbead9bef	-0.3390803
86	0xbceb8d35	-0.028753856
87	0x3d3c74ca	0.046009816
88	0x3e090b94	0.13383323
89	0x3de0e660	0.109814405
90	0x3c0efba1	0.008726985
91	0x3d2e78ce	0.042595677
92	0xbd29b4a1	-0.041432027
93	0xbcd5f0f0	-0.026115865
94	0xbd60e0f5	-0.054902036
95	0x3e1fd5d9	0.1560892
96	0x3d264976	0.0405974
97	0x3e14dc51	0.14537169
98	0x3d44db5e	0.048060767
99	0x3c1971ac	0.00936548
100	0xbe186e54	-0.14885837
101	0xbdddd310	-0.108312726
102	0xbe0fed67	-0.14055406
103	0xbd89b9fa	-0.06724925
104	0x3c894569	0.01675673
105	0xbdf234e0	-0.11826491
106	0xbe0ea030	-0.13928294
107	0xbe9ea8a3	-0.30988035
108	0xbe53734e	-0.20649454
109	0xbd378ee7	-0.044814017
110	0xbe91f408	-0.28506494
111	0xbe011e98	-0.12609327
112	0xbe47fee3	-0.19530825
113	0x3cc37342	0.02385867
114	0xbe2572a9	-0.1615702
115	0xbe83deb4	-0.25755847
116	0xbcb8676b	-0.022510251
117	0xbe4b3452	-0.19844177
118	0xbe33921f	-0.1753621
119	0xbdc72987	-0.097247176
120	0xbe35d7a1	-0.17758037
121	0xbdfff783	-0.12498381
122	0xbe9a7f63	-0.30175313
123	0xbd78b2ea	-0.0607175
124	0xbde6346d	-0.11240468
125	0x3cbe2cc3	0.023214703
126	0xbd8a7ee9	-0.067624874
127	0xbe814ea2	-0.25255305
128	0xbe761918	-0.2403301
129	0xbe49d784	-0.19711119
130	0xbd2500f6	-0.04028412
131	0xbdd26517	-0.102731876
132	0xbe4221dc	-0.18958229
133	0xbdf213b5	-0.11820165
134	0xbd83cdf3	-0.06435766
135	0xbe3d3cc8	-0.18480217
136	0xbdd73e93	-0.10509982
137	0xbe174473	-0.14772205
138	0xbe1267ed	-0.14297457
139	0xbe228130	-0.15869594
140	0xbe3cea8c	-0.18448848
141	0xbe8a003e	-0.2695331
142	0xbd9630d7	-0.07333534
143	0xbd50a799	-0.050941084
144	0xbe1db92d	-0.1540267
145	0xbd6dd243	-0.05806185
146	0xbd906bf3	-0.0705184
147	0xbdad4848	-0.08461052
148	0xbdb90525	-0.09034184
149	0xbd50313b	-0.0508282
150	0xbe9eab0e	-0.3098988
151	0xbe98a7dd	-0.2981557
152	0x3d813c65	0.063103475
153	0xbdeb7cf3	-0.114984415
154	0xbe6d6b2e	-0.23185417
155	0xbe241d81	-0.1602688
156	0xbdac6e82	-0.08419515
157	0xba304c76	-0.0006725261
158	0x3db2af41	0.08724833
159	0xbcd0d92e	-0.025494184
160	0xbe43f455	-0.19136174
161	0xbea058cd	-0.3131775
162	0xbe6b1371	-0.22956635
163	0xbd184e88	-0.03718427
164	0xbe6cc1c3	-0.23120789
165	0xbdf38f56	-0.118925735
166	0xbec92830	-0.39288473
167	0xbf237d12	-0.6386272
168	0xbe044c68	-0.12919772
169	0xbdb999ae	-0.09062515
170	0xbd0c021f	-0.03418171
171	0xbdf4f779	-0.11961264
172	0x3d5bd7b7	0.05367252
173	0xbdca06eb	-0.09864601
174	0xbe1492de	-0.1450915
175	0xbd857fe1	-0.065185316
176	0xbdc4c830	-0.09608495
177	0xbe59ba42	-0.21262458
178	0x3dd57d3a	0.10424276
179	0xbe61a2e9	-0.22034802
180	0xbe56cdea	-0.20976987
181	0xbe98cdb6	-0.29844445
182	0xbe232f93	-0.15936117
183	0xbed9be1a	-0.42527848
184	0xbdec2c8e	-0.11531936
185	0xbe6aedb3	-0.22942238
186	0xbdc07f9f	-0.09399342
187	0xbe8362fa	-0.2566145
188	0xbeefc42e	-0.4682936
189	0xbe58ef82	-0.21185115
190	0xbe8b6024	-0.27221787
191	0xbca392de	-0.019967493
192	0xbe718bd1	-0.23588492
193	0xbd8ead88	-0.06966692
194	0xbd838925	-0.064226426
195	0xbd1542b2	-0.03644056
196	0xbe5c0789	-0.2148725
197	0x3dc700d3	0.09716954
198	0xbe0135c1	-0.12618162
199	0xbe5b1bbe	-0.21397302
200	0x3e537e77	0.20653711
201	0x3dfd9d09	0.12383468
202	0xbd877c2d	-0.066154815
203	0x3d8abf26	0.0677474
204	0x3ddb0238	0.106937826
205	0x3e7ea12f	0.24866174
206	0x3d002ed7	0.03129467
207	0x3e4dc7c9	0.20095743
208	0x3d9b70de	0.07589887
209	0x3d214ea4	0.03938164
210	0x3e867276	0.26259202
211	0x3e5176e1	0.20455505
212	0xbd90c07b	-0.07067963
213	0x3cdea44a	0.027177949
214	0x3d07c1bd	0.033143748
215	0x3df05c90	0.11736405
216	0x3dab4f6a	0.083647564
217	0x3e197995	0.14987786
218	0x38093e89	3.2721586e-05
219	0x3cd0f226	0.02550609
220	0x3e410d7e	0.18852803
221	0x3e1823ee	0.14857456
222	0x3e018d56	0.12651572
223	0x3d0fecbf	0.035137888
224	0xbc3e1b8d	-0.011603248
225	0x3b85a21a	0.004078162
226	0xbc3c53f9	-0.01149463
227	0x3d4a973b	0.04946063
228	0x3d8e2f00	0.06942558
229	0x3c343137	0.010998062
230	0xbd32158e	-0.043477587
231	0xbd38c7ea	-0.045112528
232	0xbcc7ab5d	-0.024373705
233	0x3bc1dae5	0.005915987
234	0x3cf72ca7	0.03017266
235	0xbe086f86	-0.13323793
236	0xbd9b555b	-0.0758464
237	0xbe88ba11	-0.26704457
238	0xbe22fc42	-0.15916541
239	0xbe187eff	-0.14892195
240	0xbe0cc3eb	-0.13746612
241	0x3dba8d38	0.091089666
242	0xbdeef094	-0.116669804
243	0xbd91bffa	-0.07116695
244	0x3cb6ab48	0.02229847
245	0x3dd65765	0.10465888
246	0x3d29c511	0.041447703
247	0x3c05c268	0.008164026
248	0xbe88b161	-0.2669783
249	0x3c2d3ce5	0.0105736
250	0xbe6ce911	-0.23135783
251	0x3db0b41e	0.086281046
252	0xbd83c15b	-0.06433364
253	0xbe29d5b2	-0.16585425
254	0x3d9226c1	0.07136298
255	0x3e81d99e	0.2536134

weight f4 [2, 100]
0	0x3e1c24a4	0.15248352
1	0x3e830250	0.25587702
2	0x3edd5c67	0.4323456
3	0xbe30e4c6	-0.1727477
4	0xbd8f82f1	-0.07007397
5	0x3cccaf62	0.024985973
6	0x3e96cdbf	0.29453847
7	0x3ea20025	0.31640735
8	0x3ea93145	0.33045402
9	0x3e99bba5	0.30025974
10	0x3e313f85	0.17309387
11	0x3e1492a1	0.1450906
12	0xbe014835	-0.12625201
13	0xbd80b625	-0.06284741
14	0x3ee745fb	0.45170578
15	0x3ec4d2d0	0.38442087
16	0xbe41ce1c	-0.1892628
17	0xbda379e0	-0.0798223
18	0x3ea3577b	0.3190268
19	0xbe88be89	-0.26707867
20	0xbdcdcc92	-0.10048784
21	0xbed93408	-0.4242251
22	0xbec76c49	-0.38949803
23	0xbe844be9	-0.25839165
24	0x3ec867d2	0.3914171
25	0xbe04cc4c	-0.12968558
26	0x3d4a09f3	0.049325895
27	0x3ec905f5	0.39262357
28	0x3edc2a29	0.43000916
29	0x3eaef9a0	0.34174824
30	0xbe966451	-0.2937341
31	0xbe9809cc	-0.29694974
32	0xbed8df3b	-0.4235781
33	0x3e334d22	0.17509893
34	0x3ea5c602	0.3237763
35	0xbe4fc15b	-0.20288603
36	0xbd009111	-0.031388346
37	0x3e95cd2c	0.29258096
38	0x3e4adb10	0.19810128
39	0xbe0337dc	-0.12814277
40	0xbecbbe69	-0.3979371
41	0x3ee63f15	0.44970003
42	0xbe05d5f2	-0.13069895
43	0x3ef1f3a9	0.4725621
44	0xbe2d02da	-0.16895619
45	0x3e7cc369	0.24683918
46	0x3e53340a	0.2062532
47	0xbeb7be53	-0.35887393
48	0x3ea3adee	0.31968635
49	0x3f247b6b	0.6425082
50	0xbeb340b1	-0.35010293
51	0x3e825b20	0.25460148
52	0x3d0554e5	0.032551665
53	0x3e937b3c	0.28804958
54	0x3e9779a7	0.29585
55	0x3e7d062a	0.24709383
56	0x3dd01cef	0.10161769
57	0xbed8ce00	-0.42344666
58	0xbd43ebfa	-0.047832467
59	0xbe06823f	-0.13135622
60	0xbebeb493	-0.37247142
61	0xbeabfb59	-0.335902
62	0x3edab853	0.42718753
63	0xbdc5361e	-0.09629463
64	0x3e4869f8	0.19571674
65	0x3e30da7d	0.17270847
66	0xbdb7a6a1	-0.08967329
67	0x3e8d3d33	0.27585754
68	0x3d4c2af0	0.049845636
69	0x3ebb1d75	0.3654591
70	0xbec6c5d3	-0.38822803
71	0xbe80ccc3	-0.2515622
72	0x3d6b89c9	0.05750445
73	0xbec5d685	-0.38640228
74	0xbd841c22	-0.064506784
75	0x3d2d3a41	0.042291883
76	0x3e1d652e	0.15370628
77	0x3ea62619	0.3245094
78	0xbd94f5a9	-0.072734185
79	0x3e927761	0.28606704
80	0xbe55120e	-0.20807669
81	0xbe8e0d53	-0.2774454
82	0xbea81082	-0.32825094
83	0x3ecd3166	0.4007675
84	0x3e6c230c	0.23060244
85	0x3ee143f1	0.43997148
86	0xbe99245d	-0.29910555
87	0x3ef5bf0e	0.47997326
88	0xbe3deb53	-0.185468
89	0x3d4c88e5	0.04993524
90	0x3eea50a8	0.4576466
91	0xbddfc497	-0.109261684
92	0xbebc5fc5	-0.36791816
93	0xbe13323d	-0.14374633
94	0x3ea32622	0.3186503
95	0x3dd71eb1	0.10503901
96	0xbe1872c7	-0.14887534
97	0xbe5b579c	-0.21420139
98	0xbe267dc8	-0.16258919
99	0x3eae4ff1	0.34045365
100	0xbe0bfbe8	-0.13670313
101	0xbe326186	-0.17420015
102	0xbed5ce47	-0.4175894
103	0x3df7d7e9	0.121017285
104	0xbda97717	-0.08274668
105	0x3e069049	0.13140978
106	0xbecafa52	-0.39644104
107	0xbeda4340	-0.42629433
108	0xbeaad0cf	-0.33362433
109	0xbe80fabf	-0.25191304
110	0xbeb2ff6a	-0.3496049
111	0xbe172edb	-0.14763968
112	0x3e8e502a	0.27795535
113	0x3dfd8759	0.12379331
114	0xbee29d6d	-0.4426073
115	0xbed52b56	-0.41634625
116	0x3ea1b4d7	0.31583282
117	0x3db9665a	0.09052725
118	0xbec0e790	-0.37676668
119	0x3e83257c	0.25614536
120	0x3e6f7297	0.23383556
121	0x3edce12e	0.43140548
122	0x3ee3f0e4	0.44519722
123	0x3e8ad85f	0.27118203
124	0xbee2ac44	-0.44272053
125	0x3e7b0ad0	0.24515843
126	0xbe2efc47	-0.17088424
127	0xbeddcb49	-0.43319157
128	0xbedff0ea	-0.4373849
129	0xbe7222b7	-0.23646055
130	0x3e1eca8c	0.15506953
131	0x3e9d519c	0.30726326
132	0x3ebe4e0e	0.37168926
133	0xbe3facf8	-0.18718326
134	0xbeefdf44	-0.46850026
135	0x3e1ddadb	0.15415518
136	0xbd437a59	-0.0477241
137	0xbe5ea9d6	-0.21744475
138	0xbe65658f	-0.22402023
139	0x3dec49bb	0.115375005
140	0x3ec317eb	0.38104185
141	0xbec7f42c	-0.39053476
142	0xbd0c9e27	-0.034330513
143	0xbed74531	-0.42044976
144	0x3cc09965	0.023510644
145	0xbe3b1b6f	-0.18272184
146	0xbe983bce	-0.29733127
147	0x3ecb1097	0.39661095
148	0xbe9b75e5	-0.30363384
149	0xbf117d62	-0.56831944
150	0x3f0006f7	0.5001063
151	0xbe4e2ed9	-0.20135058
152	0xbd82eddf	-0.063930266
153	0xbe6db205	-0.2321244
154	0xbee01cfa	-0.43772107
155	0xbe6d1b8d	-0.23155041
156	0xbcfa6aae	-0.030568447
157	0x3e83dd7f	0.25754926
158	0x3df5ec43	0.12007954
159	0x3e8e711c	0.2782067
160	0x3eb50606	0.35356158
161	0x3ea5593d	0.32294646
162	0xbeece6e5	-0.4626991
163	0x3d246617	0.040136423
164	0xbe4bc8d8	-0.19900835
165	0xbe5d2262	-0.21595147
166	0x3e742470	0.23842025
167	0xbea1905f	-0.3155546
168	0xbe124b5b	-0.14286558
169	0xbe509429	-0.20369019
170	0x3ec669db	0.38752636
171	0x3e337a5d	0.17527147
172	0x3cb42f54	0.021995224
173	0x3ecc8867	0.39947817
174	0x3dba3ba8	0.0909341
175	0x3d00c669	0.03143922
176	0xbeabb74a	-0.33538276
177	0xbebb7eb7	-0.36620113
178	0x3e310c20	0.17289782
179	0xbe6a3fdd	-0.22875924
180	0x3e51dcca	0.2049438
181	0x3e881447	0.2657797
182	0x3eb8908e	0.36047786
183	0xbe7d9b47	-0.24766265
184	0xbe2e33cf	-0.17011951
185	0xbede9a9c	-0.43477333
186	0x3eb03efb	0.3442305
187	0xbefaaaaa	-0.4895833
188	0x3e06dcc8	0.13170159
189	0x3bdb1427	0.006685752
190	0xbee1c754	-0.44097388
191	0x3dddc1d5	0.10827986
192	0x3e8c9703	0.27458963
193	0x3e04c984	0.12967497
194	0xbe0d015c	-0.1377005
195	0x3ba2dd12	0.0049702013
196	0x3df5bf4b	0.11999377
197	0x3dcfaec4	0.10140756
198	0x3e4bdba6	0.19908008
199	0xbeef95fc	-0.46794116

bias f4 [2]
0	0xbc908669	-0.017642217
1	0xbd38ba63	-0.045099627

weight f4 [2, 100]
0	0x3c2b710b	0.010463963
1	0x3e063429	0.13105835
2	0xbe0afcd1	-0.13573004
3	0xbdd91a1e	-0.106006846
4	0xbe751e4a	-0.23937336
5	0xbdae343c	-0.08506057
6	0x3cf093d1	0.02936736
7	0x3d97c7b6	0.07411139
8	0x3d82c1fe	0.06384657
9	0xbe8a8459	-0.27054098
10	0x3cfd28cd	0.030903244
11	0xbd532f66	-0.051558875
12	0x3e933af7	0.28755924
13	0xbcfbd561	-0.030741395
14	0x3d2f8655	0.04285272
15	0xbdc2a998	-0.09505004
16	0xbe0998d4	-0.13437206
17	0x3d1e3129	0.0386211
18	0xbda9ccc9	-0.08291013
19	0xbdb595f2	-0.088664904
20	0xbe0411c1	-0.12897398
21	0xbd586386	-0.052829288
22	0xbdbd4921	-0.09242464
23	0xbe1ffb2c	-0.15623158
24	0x3dcf9e4d	0.10137615
25	0x3e0954e7	0.13411294
26	0x3c80142b	0.015634617
27	0x3c1baf71	0.009502278
28	0x3e09d57a	0.13460341
29	0x3de3407b	0.11096283
30	0xbd00fc05	-0.031490345
31	0xbd0a98d9	-0.033837173
32	0xbdddb14b	-0.108248316
33	0x3cf30bf8	0.029668793
34	0xbdd91cc0	-0.10601187
35	0x3d722160	0.05911386
36	0xbdf248d8	-0.118303
37	0xbd7261e9	-0.059175406
38	0x3df593cc	0.11991081
39	0xbe808572	-0.2510181
40	0xbd008071	-0.03137249
41	0xbd545089	-0.051834617
42	0x3e018ab1	0.12650563
43	0x3d0e3369	0.034716997
44	0xbe2ebbcb	-0.17063825
45	0xbe114e72	-0.14190081
46	0x3d1db644	0.0385039
47	0xbd2474c5	-0.040150423
48	0xbdd3d0e8	-0.1034258
49	0xbdf9d6ac	-0.121991485
50	0xbd8a1691	-0.067425855
51	0xbc96c859	-0.01840608
52	0x3e5b2100	0.21399307
53	0x3d31dbb1	0.043422405
54	0xbd82f1dd	-0.06393788
55	0xbdf906ef	-0.121595256
56	0xbe0a833d	-0.13526626
57	0x3d4a4564	0.049382582
58	0xbe583348	-0.21113312
59	0x3e827443	0.25479326
60	0xbe04d982	-0.12973598
61	0x3d8fc04c	0.070190996
62	0xbd615711	-0.055014674
63	0xbe2b7698	-0.16744459
64	0x3c7aa62c	0.0152984075
65	0xbdd9e9d3	-0.106403016
66	0x3ccab8f5	0.024746398
67	0xbde310ad	-0.11087165
68	0x3c86130d	0.016366506
69	0x3e439e93	0.1910346
70	0xbdb3d99f	-0.08781742
71	0x3d45ffff	0.04833984
72	0x3e347133	0.17621307
73	0xbc83b789	-0.016078727
74	0xbd75581a	-0.059898473
75	0x3e84d8a8	0.25946546
76	0x3dea20a9	0.11432011
77	0x3d72813a	0.05920527
78	0xbdef121c	-0.11673376
79	0x3e03c353	0.12867479
80	0x3dc08b35	0.09401552
81	0x3d30986c	0.04311411
82	0xbd9ee8de	-0.0775926
83	0xbc1d68fc	-0.00960755
84	0xbe966772	-0.29375798
85	0x3d1a9bef	0.037746366
86	0x3d4b3d1f	0.049618836
87	0xbe1ef761	-0.15524055
88	0xbe144fd2	-0.14483574
89	0x3e09660f	0.13417839
90	0xbe4bd5b7	-0.19905744
91	0x3e959d9e	0.29221815
92	0xbc49ff01	-0.012328864
93	0x3d8bc3d6	0.06824462
94	0x3e0f5990	0.13999009
95	0xbe537ace	-0.20652315
96	0x3e26417d	0.1623592
97	0x3bc90499	0.0061345813
98	0x3d9fbf2f	0.07800137
99	0xbe86f682	-0.26359946
100	0xbba76f19	-0.0051096794
101	0xbb7e253f	-0.0038779525
102	0xbbfd3764	-0.0077275503
103	0x3dfd49b6	0.12367575
104	0x3e81f3df	0.2538137
105	0x3e1a83bd	0.15089317
106	0x3d9c886e	0.076432094
107	0x3d964c5e	0.07338785
108	0xbd54952e	-0.05190008
109	0x3e94a690	0.29033327
110	0xbbe026e2	-0.0068405727
111	0x3dd869c3	0.105670474
112	0xbe111db6	-0.1417149
113	0x3bc4e21d	0.0060084
114	0xbcc29611	-0.023753198
115	0x3cfe2325	0.031022618
116	0x3d4ab307	0.04948714
117	0xbdae420f	-0.085086934
118	0xbd6bb0be	-0.0575416
119	0x3e04ec81	0.12980844
120	0xbd35c374	-0.04437585
121	0x3c45f5b4	0.012082506
122	0x3d4e0448	0.05029705
123	0x3e07dcaa	0.1326777
124	0x3cc2e767	0.023791982
125	0xbd96c389	-0.07361514
126	0xbd0555c6	-0.032552503
127	0x3db4a296	0.08820073
128	0x3d8567ad	0.06513915
129	0xbe170af8	-0.14750278
130	0xbd99a28f	-0.07501709
131	0xbda36fc5	-0.07980303
132	0xbd76f326	-0.06029048
133	0x3d930463	0.07178571
134	0xbceb35c4	-0.02871216
135	0xbcee1768	-0.029063895
136	0x3e427538	0.18990028
137	0x3d2feb17	0.04294881
138	0xbd428e9a	-0.047499277
139	0xbd74157f	-0.059590813
140	0xbe1b6358	-0.15174615
141	0x3d9c0989	0.07619006
142	0xbdebce4b	-0.11513957
143	0x3dead530	0.114664435
144	0x3e3bd0e2	0.18341401
145	0x3e22cadd	0.15897699
146	0xbda8d2fb	-0.08243366
147	0xbd6eb44a	-0.058277406
148	0x3d4555b9	0.048177455
149	0x3da4144d	0.080116846
150	0xbd926cdb	-0.07149669
151	0x3c2422b7	0.010018042
152	0xbe8a45a4	-0.27006257
153	0xbddc733d	-0.107641675
154	0xbe0c9440	-0.13728428
155	0x3e0d0e89	0.13775076
156	0x3e1e0e5a	0.15435162
157	0xbd1d11ad	-0.038346935
158	0x3e2e7802	0.17037967
159	0xbe991456	-0.29898328
160	0xbe130ff7	-0.14361559
161	0xbd9848bc	-0.07435748
162	0xbd7fb176	-0.0624251
163	0x3dcaa6f3	0.09895124
164	0x3e4cfc24	0.20018059
165	0x3e33d61e	0.17562148
166	0xbd163ddc	-0.036680087
167	0x3d595d82	0.05306769
168	0x3e439a89	0.19101919
169	0x3da28725	0.07935933
170	0xbddc525e	-0.10757898
171	0xbcb4bf1e	-0.022063788
172	0xbe4f6810	-0.2025454
173	0x3e1c5450	0.15266538
174	0x3e37071a	0.17873803
175	0xbe7e90ea	-0.24859968
176	0xbd1539e1	-0.03643215
177	0xbe07e281	-0.13269998
178	0x3e1f4883	0.15555005
179	0xbd88d032	-0.06680335
180	0xbdf90f40	-0.12161112
181	0xbd7d6f4d	-0.061873723
182	0xbe21325e	-0.1574187
183	0x3d249356	0.040179573
184	0x3e07b031	0.13250805
185	0x3c6c7a8b	0.014433513
186	0xbd4db423	-0.05022062
187	0x3d313caf	0.043270763
188	0xbd105cf2	-0.03524489
189	0xbdd8ce37	-0.10586207
190	0xbd7580c2	-0.059937246
191	0xbe5259d5	-0.2054208
192	0xbdb8d064	-0.09024122
193	0xbbc10d7e	-0.005891501
194	0xbd280505	-0.041020412
195	0x3e37e568	0.17958605
196	0x3ab9470f	0.0014135557
197	0xbd97f3dc	-0.07419559
198	0x3c6e9a91	0.014563219
199	0x3e00e8ea	0.1258885

bias f4 [2]
0	0x3d766fd3	0.060165238
1	0x3de609d5	0.11232344

amplitudes f4 [1000, 2]
0	0x37049988	7.90356e-06
1	0x3f260f20	0.6486683
2	0x37049988	7.90356e-06
3	0x3f260f20	0.6486683
4	0x37049988	7.90356e-06
5	0x3f260f20	0.6486683
6	0x37049988	7.90356e-06
7	0x3f260f20	0.6486683
8	0x37049988	7.90356e-06
9	0x3f260f20	0.6486683
10	0x37049988	7.90356e-06
11	0x3f260f20	0.6486683
12	0x37049988	7.90356e-06
13	0x3f260f20	0.6486683
14	0x37049988	7.90356e-06
15	0x3f260f20	0.6486683
16	0x37049988	7.90356e-06
17	0x3f260f20	0.6486683
18	0x37049988	7.90356e-06
19	0x3f260f20	0.6486683
20	0x37049988	7.90356e-06
21	0x3f260f20	0.6486683
22	0x37049988	7.90356e-06
23	0x3f260f20	0.6486683
24	0x37049988	7.90356e-06
25	0x3f260f20	0.6486683
26	0x37049988	7.90356e-06
27	0x3f260f20	0.6486683
28	0x37049988	7.90356e-06
29	0x3f260f20	0.6486683
30	0x37049988	7.90356e-06
31	0x3f260f20	0.6486683
32	0x37049988	7.90356e-06
33	0x3f260f20	0.6486683
34	0x37049988	7.90356e-06
35	0x3f260f20	0.6486683
36	0x37049988	7.90356e-06
37	0x3f260f20	0.6486683
38	0x37049988	7.90356e-06
39	0x3f260f20	0.6486683
40	0x37049988	7.90356e-06
41	0x3f260f20	0.6486683
42	0x37049988	7.90356e-06
43	0x3f260f20	0.6486683
44	0x37049988	7.90356e-06
45	0x3f260f20	0.6486683
46	0x37049988	7.90356e-06
47	0x3f260f20	0.6486683
48	0x37049988	7.90356e-06
49	0x3f260f20	0.6486683
50	0x37049988	7.90356e-06
51	0x3f260f20	0.6486683
52	0x37049988	7.90356e-06
53	0x3f260f20	0.6486683
54	0x37049988	7.90356e-06
55	0x3f260f20	0.6486683
56	0x37049988	7.90356e-06
57	0x3f260f20	0.6486683
58	0x37049988	7.90356e-06
59	0x3f260f20	0.6486683
60	0x37049988	7.90356e-06
61	0x3f260f20	0.6486683
62	0x37049988	7.90356e-06
63	0x3f260f20	0.6486683
64	0x37049988	7.90356e-06
65	0x3f260f20	0.6486683
66	0x37049988	7.90356e-06
67	0x3f260f20	0.6486683
68	0x37049988	7.90356e-06
69	0x3f260f20	0.6486683
70	0x37049988	7.90356e-06
71	0x3f260f20	0.6486683
72	0x37049988	7.90356e-06
73	0x3f260f20	0.6486683
74	0x37049988	7.90356e-06
75	0x3f260f20	0.6486683
76	0x37049988	7.90356e-06
77	0x3f260f20	0.6486683
78	0x37049988	7.90356e-06
79	0x3f260f20	0.6486683
80	0x37049988	7.90356e-06
81	0x3f260f20	0.6486683
82	0x37049988	7.90356e-06
83	0x3f260f20	0.6486683
84	0x37049988	7.90356e-06
85	0x3f260f20	0.6486683
86	0x37049988	7.90356e-06
87	0x3f260f20	0.6486683
88	0x37049988	7.90356e-06
89	0x3f260f20	0.6486683
90	0x37049988	7.90356e-06
91	0x3f260f20	0.6486683
92	0x37049988	7.90356e-06
93	0x3f260f20	0.6486683
94	0x37049988	7.90356e-06
95	0x3f260f20	0.6486683
96	0x37049988	7.90356e-06
97	0x3f260f20	0.6486683
98	0x37049988	7.90356e-06
99	0x3f260f20	0.6486683
100	0x37049988	7.90356e-06
101	0x3f260f20	0.6486683
102	0x37049988	7.90356e-06
103	0x3f260f20	0.6486683
104	0x37049988	7.90356e-06
105	0x3f260f20	0.6486683
106	0x37049988	7.90356e-06
107	0x3f260f20	0.6486683
108	0x37049988	7.90356e-06
109	0x3f260f20	0.6486683
110	0x37049988	7.90356e-06
111	0x3f260f20	0.6486683
112	0x37049988	7.90356e-06
113	0x3f260f20	0.6486683
114	0x37049988	7.90356e-06
115	0x3f260f20	0.6486683
116	0x37049988	7.90356e-06
117	0x3f260f20	0.6486683
118	0x37049988	7.90356e-06
119	0x3f260f20	0.6486683
120	0x37049988	7.90356e-06
121	0x3f260f20	0.6486683
122	0x37049988	7.90356e-06
123	0x3f260f20	0.6486683
124	0x37049988	7.90356e-06
125	0x3f260f20	0.6486683
126	0x37049988	7.90356e-06
127	0x3f260f20	0.6486683
128	0x37049988	7.90356e-06
129	0x3f260f20	0.6486683
130	0x37049988	7.90356e-06
131	0x3f260f20	0.6486683
132	0x37049988	7.90356e-06
133	0x3f260f20	0.6486683
134	0x37049988	7.90356e-06
135	0x3f260f20	0.6486683
136	0x37049988	7.90356e-06
137	0x3f260f20	0.6486683
138	0x37049988	7.90356e-06
139	0x3f260f20	0.6486683
140	0x37049988	7.90356e-06
141	0x3f260f20	0.6486683
142	0x37049988	7.90356e-06
143	0x3f260f20	0.6486683
144	0x37049988	7.90356e-06
145	0x3f260f20	0.6486683
146	0x37049988	7.90356e-06
147	0x3f260f20	0.6486683
148	0x37049988	7.90356e-06
149	0x3f260f20	0.6486683
150	0x37049988	7.90356e-06
151	0x3f260f20	0.6486683
152	0x37049988	7.90356e-06
153	0x3f260f20	0.6486683
154	0x37049988	7.90356e-06
155	0x3f260f20	0.6486683
156	0x37049988	7.90356e-06
157	0x3f260f20	0.6486683
158	0x37049988	7.90356e-06
159	0x3f260f20	0.6486683
160	0x37049988	7.90356e-06
161	0x3f260f20	0.6486683
162	0x37049988	7.90356e-06
163	0x3f260f20	0.6486683
164	0x37049988	7.90356e-06
165	0x3f260f20	0.6486683
166	0x37049988	7.90356e-06
167	0x3f260f20	0.6486683
168	0x37049988	7.90356e-06
169	0x3f260f20	0.6486683
170	0x37049988	7.90356e-06
171	0x3f260f20	0.6486683
172	0x37049988	7.90356e-06
173	0x3f260f20	0.6486683
174	0x37049988	7.90356e-06
175	0x3f260f20	0.6486683
176	0x2d80feeb	1.4665122e-11
177	0x410408a0	8.252106
178	0x37049988	7.90356e-06
179	0x3f260f20	0.6486683
180	0x37049988	7.90356e-06
181	0x3f260f20	0.6486683
182	0x37049988	7.90356e-06
183	0x3f260f20	0.6486683
184	0x37049988	7.90356e-06
185	0x3f260f20	0.6486683
186	0x37049988	7.90356e-06
187	0x3f260f20	0.6486683
188	0x37049988	7.90356e-06
189	0x3f260f20	0.6486683
190	0x2d80feeb	1.4665122e-11
191	0x410408a0	8.252106
192	0x37049988	7.90356e-06
193	0x3f260f20	0.6486683
194	0x37049988	7.90356e-06
195	0x3f260f20	0.6486683
196	0x37049988	7.90356e-06
197	0x3f260f20	0.6486683
198	0x37049988	7.90356e-06
199	0x3f260f20	0.6486683
200	0x37049988	7.90356e-06
201	0x3f260f20	0.6486683
202	0x37049988	7.90356e-06
203	0x3f260f20	0.6486683
204	0x37049988	7.90356e-06
205	0x3f260f20	0.6486683
206	0x37049988	7.90356e-06
207	0x3f260f20	0.6486683
208	0x37049988	7.90356e-06
209	0x3f260f20	0.6486683
210	0x37049988	7.90356e-06
211	0x3f260f20	0.6486683
212	0x37049988	7.90356e-06
213	0x3f260f20	0.6486683
214	0x37049988	7.90356e-06
215	0x3f260f20	0.6486683
216	0x37049988	7.90356e-06
217	0x3f260f20	0.6486683
218	0x2d80feeb	1.4665122e-11
219	0x410408a0	8.252106
220	0x37049988	7.90356e-06
221	0x3f260f20	0.6486683
222	0x37049988	7.90356e-06
223	0x3f260f20	0.6486683
224	0x37049988	7.90356e-06
225	0x3f260f20	0.6486683
226	0x37049988	7.90356e-06
227	0x3f260f20	0.6486683
228	0x37049988	7.90356e-06
229	0x3f260f20	0.6486683
230	0x37049988	7.90356e-06
231	0x3f260f20	0.6486683
232	0x37049988	7.90356e-06
233	0x3f260f20	0.6486683
234	0x37049988	7.90356e-06
235	0x3f260f20	0.6486683
236	0x37049988	7.90356e-06
237	0x3f260f20	0.6486683
238	0x37049988	7.90356e-06
239	0x3f260f20	0.6486683
240	0x37049988	7.90356e-06
241	0x3f260f20	0.6486683
242	0x37049988	7.90356e-06
243	0x3f260f20	0.6486683
244	0x37049988	7.90356e-06
245	0x3f260f20	0.6486683
246	0x37049988	7.90356e-06
247	0x3f260f20	0.6486683
248	0x37049988	7.90356e-06
249	0x3f260f20	0.6486683
250	0x37049988	7.90356e-06
251	0x3f260f20	0.6486683
252	0x37049988	7.90356e-06
253	0x3f260f20	0.6486683
254	0x37049988	7.90356e-06
255	0x3f260f20	0.6486683
