data/RNN_runs/sweep_H2/rnn_sto3g_H2_0-7348_eq1_nU100_nL2_lr00025_lrsO_ns1000.pt (torch_old, 428734 bytes, 13 tensors)

weight_ih f4 [300, 2]
00000000: 064e e73d 89b9 93bd 6616 5bbe fbe7 8d3e
00000010: b6e4 323d 70bf 8f3d d9ff 613d 1dfc 11be
00000020: 9244 fbbd e580 5c3e b7a0 46ba f1e8 223e
00000030: 66c0 8cbe 70ec 4f3e 8025 c5bd c544 343e
00000040: 9d58 283d 9e82 0d3d f10f 59be 98e0 923e
00000050: e060 453e 4a7e 143d 0b45 273e 6e2f 5a3d
00000060: 04ef 4cbe 94ab 663e eb47 883d 371c 9f3d
00000070: a1a9 683e fe3c 9cbe a938 483e 4fb5 a33b
00000080: ccb6 393e f479 b33c 7338 603e 539d 17be
00000090: 13a7 8bbe 8e6c 7b3e 7653 953d 8329 38bd
000000a0: 64c7 f0bd 0ad3 023e 8727 023e c562 ab3d
000000b0: 20e3 153e ab38 28be 2d30 f33d 5e08 a1bc
000000c0: fc07 7b3e 4b9c e0bb ea5c e9bd 5f61 803e
000000d0: 3247 0c3e ba26 98bd f69b 66be a20d 883e
000000e0: 6a47 bf3c f569 ab3d 5de1 1d3e 96a2 02be
000000f0: 002c 323e 452c 21bc be68 e73c 6fc7 dbbd
00000100: 98dc cc3d 1744 e6bc ac48 3cbe 390a 033e
00000110: 3a88 9cbe b2ab ab3e b373 d439 9c92 8c3e
00000120: 19d8 62be 0a8c aa3d b264 263c a7f9 e03d
00000130: ed3a 76bc 3062 ef3d 1786 b43d 4d43 423d
00000140: cf24 313e cf70 9bbc 8b7f 283e 4a2d 93bc
00000150: f3a1 b13d 9350 8cbd e55f 7e3d e9da 90bd
00000160: 0138 433e f9c2 e43c f662 88be 7527 a93e
00000170: 386c 2a3e d7a3 863d 98bf 90be f119 b43e
00000180: c4ea 05bd 6ed0 9a3e 2ce6 743e 9306 5fbd
00000190: a7d4 763d 790e d83d 9fd3 42be f644 583e
000001a0: 2ea1 eebd 1b56 193e badd 213e 7e96 2f3d
000001b0: 49e2 a2bd 8f20 823e 7b1e 563e c8a6 99bd
000001c0: 6e5b 3a3e 9a0a 8ebd 1a64 13be 6e9c 623e
000001d0: b878 83be 181b 593e 021b 2a3e 9f1f 543d
000001e0: bf4f 67be f2a1 503e 8f96 453e 0c61 1fbe
000001f0: 3452 533e 1c36 bebd 03a2 3a3e 2c64 9ebd
00000200: e930 1a3e 97ab 0c3d 16be 4abe 0512 8e3e
00000210: b720 be3d c187 4dbd 8620 293d 8d80 3abd
00000220: 7c6d 093e 4011 af3d 3bb8 1ebe f7f4 573e
00000230: 6679 d33d 1c72 a73b cf7a 123e 550f 9b3d
00000240: 4128 10be 0fd2 593e b3ac 5fbe 1606 893e
00000250: c13f 1cbe 47b8 093e bceb 6bbd 67dd d93d
00000260: 4a5e 0f3e 0150 8c3c 64c6 203e f5e7 4bbd
00000270: 4189 b9be cce4 8a3e 7201 673d 9632 b63c
00000280: 2d39 263e 9024 863d 4935 92be 4b66 933e
00000290: eb8e e3bd 058c 973e 99bb 2dbe d9d4 9f3e
000002a0: ff88 85bd e090 9d3e eda4 203e 6a8d 4fbe
000002b0: 2412 4abe 859b 8f3e 8b28 a13d 41cd d7bd
000002c0: e4d0 c53b fcfc 7a3d e236 e13d a932 253e
000002d0: 17e7 203e 65f4 92bd 7a38 0abe f8b3 803e
000002e0: 3cd2 173d 73d8 23bd 7b0c 883d 086e c13c
000002f0: 02ed 543e 1274 04be bca5 b6bd 63d5 a73b
00000300: d621 143e 8086 153d fb08 6ebe efa1 393e
00000310: 7dc6 383e 44cd b7bd db45 7bbd a49d 9e3e
00000320: 148f 2cbe 2e35 633d 3d69 69bd f5ca 49be
00000330: 8f75 4abe fc65 bbbc 6096 00be 9aaf d23c
00000340: 281a 383d b73c a2bd 8339 80bd 3a55 01be
00000350: 2ce7 573e 076d 8abe 42b6 92bd 41f8 48be
00000360: c10a a5bd 39a8 30bb d427 903d f6f1 6dbe
00000370: 1e39 42be 3a4c 1bbe 9a18 c0bd 6a63 12bd
00000380: 22bf 2d3e 0ad2 aabe 1f2d 21be bce0 c5bd
00000390: fe78 93bd ab13 11be d0de f4bd dc65 263c
000003a0: 4fb0 5fbe 93a8 323d ac47 ffbd 5bb1 49be
000003b0: 6270 d43d 516b 58be e162 70be 47b3 713d
000003c0: dc02 273e cbb2 34be 38a0 55be 1a3b 0bbd
000003d0: 0490 56bd 94da 30bd 2dec 50be c8b0 093b
000003e0: bcb0 8dbd 8466 86bc e705 633e b8b6 65be
000003f0: c326 66bd ce1e bebd 7169 00be 86ba 6ebe
0.11294179 -0.072131224 -0.21395263 0.2771605 0.043675147 0.07018936 0.055175636 -0.1425633
-0.12268938 0.21533544 -0.0007577049 0.15909173 -0.27490538 0.20305037 -0.09626293 0.17604358
0.041100133 0.034548394 -0.21197487 0.28686976 0.19275236 0.03625325 0.16334932 0.05326789
-0.20013052 0.2252639 0.06654342 0.077690534 0.22720958 -0.30515283 0.19552864 0.004995979
0.18136138 0.021908738 0.21896534 -0.14806108 -0.27275905 0.24553129 0.072913095 -0.044961464
-0.11756781 0.12775818 0.12710391 0.08368448 0.14637423 -0.16427867 0.11874423 -0.01965731
0.24514765 -0.006854569 -0.11394675 0.25074288 0.13699034 -0.074292615 -0.22520432 0.265729
0.023349483 0.08369819 0.15418 -0.12757334 0.17399597 -0.009837215 0.028248187 -0.10731398
0.100030124 -0.02810864 -0.18387097 0.12796868 -0.30572683 0.3352943 0.00040521994 0.27455604
-0.22152747 0.083274916 0.010155844 0.109851174 -0.015028697 0.1168865 0.08814638 0.047427464
0.17299198 -0.01897469 0.16454904 -0.017965931 0.086734675 -0.06851306 0.06210317 -0.07073004
0.19064333 0.027925001 -0.26638 0.33037916 0.16642845 0.06574219 -0.28271174 0.35176042
-0.032694593 0.30237144 0.23915929 -0.05444963 0.060261395 0.105496354 -0.1902604 0.21120057
-0.11651836 0.14974253 0.15807238 0.04286813 -0.07953317 0.25415465 0.20910065 -0.07502514
0.1819894 -0.06935616 -0.14393654 0.22129986 -0.2567804 0.21201742 0.16611865 0.05178797
-0.22589014 0.20374277 0.19295715 -0.15564364 0.20636827 -0.09287664 0.18225865 -0.0773395
0.1505772 0.03434333 -0.19799075 0.27748123 0.092835836 -0.050178293 0.041290782 -0.04553275
0.13420671 0.08548212 -0.15499966 0.2108954 0.10325889 0.0051100384 0.1430466 0.07571284
-0.14077856 0.21271537 -0.21843223 0.26762456 -0.15258695 0.13449202 -0.05759786 0.10637932
0.14000812 0.017127993 0.1570068 -0.04978176 -0.3623753 0.27127683 0.056397863 0.022240918
0.16232748 0.065499425 -0.28556278 0.2878898 -0.11111244 0.29599014 -0.16966094 0.31217077
-0.065202706 0.30774593 0.15687914 -0.20268789 -0.19733483 0.2804834 0.07869061 -0.10537196
0.0060368646 0.06127642 0.10996796 0.16132607 0.15713154 -0.07175521 -0.13498107 0.25137305
0.03706573 -0.040001344 0.066430055 0.023612037 0.20793536 -0.12934902 -0.0891833 0.005121873
0.14466032 0.036505222 -0.23245613 0.18128179 0.18044467 -0.08974698 -0.061345916 0.30979645
-0.16851455 0.055470638 -0.05698513 -0.19706328 -0.19771408 -0.022875778 -0.12557364 0.025718499
0.04494682 -0.07921737 -0.062609695 -0.12630168 0.21084279 -0.27036306 -0.07163669 -0.19625951
-0.08058692 -0.0026955737 0.070388466 -0.23236832 -0.18967101 -0.15165797 -0.093796924 -0.03573934
0.16967443 -0.33363372 -0.15739869 -0.09662005 -0.07200812 -0.14167659 -0.119565606 0.010156121
-0.218446 0.043617796 -0.12464842 -0.19696562 0.10372998 -0.21134688 -0.2347522 0.059008863
0.16309685 -0.17646329 -0.208619 -0.03399191 -0.052383438 -0.043177202 -0.20402594 0.002100991
-0.06918475 -0.016406305 0.2217022 -0.22432983 -0.05618931 -0.09283219 -0.12540223 -0.2331334

weight_hh f4 [300, 100]
00000000: b242 80bd 96c4 93bd 4fc0 7c3d 4508 cbbc
00000010: bc20 da3d 48c2 f83d 8688 803d 54a0 8a3d
00000020: 62a2 d03d 8a87 2b3c 687a d4bd e70e e8bc
00000030: 2fc1 b2bd 5ca5 fe3d 8a34 44bd 54e1 cdba
00000040: 09d2 70bd db52 9a3d edaa ce3c 1140 7f3c
00000050: e9d6 233c ae68 b1bd ef4f 86bd a0d6 ffbd
00000060: 8741 0dbd fb09 623d f8c3 7fbd 44db 89bc
00000070: f509 e03d 4a82 8f3d ff2f f63c e8bc 863c
00000080: 2ee6 3dbd 196a 1fbd c30f 7b3d 54c0 203d
00000090: fbd4 22bd b621 8e3d e335 d2bd 8604 f23c
000000a0: 4fe8 7e3d 7865 6b3c 88ee 9abd 06a4 ef3c
000000b0: 17b5 48bd d725 853d df17 b93d b511 c0bd
000000c0: e7c8 2ebd 49e5 ed3d f287 aebd e32e c73b
000000d0: 3b89 11bd c946 8dbc 346f 45bc a4f1 f23b
000000e0: 65cf ecbb da16 3fbd 3895 b43c d500 c6bd
000000f0: 56ad 2fbd 800f fa3a dd0a c53b ef96 9a3c
00000100: 55a3 b63b 33d5 febc 827b 823d 0462 1cbd
00000110: 1069 863d 161f ac3d 9709 cabc 84d8 013d
00000120: f4dc 393d f9e1 00bc 6c70 16bd a678 e63c
00000130: d0b7 b4bc f9da e33d 2aae e8bd 2b12 f63c
00000140: 7f53 85bd dac6 69bd 8af5 aabc 3212 ba3d
00000150: dfab a9bc 8926 81bd a53e b0bc 7af6 8a3b
00000160: e109 a9bd b2e9 25bc 12b9 613d ca27 3cbd
00000170: a757 87bd 647d 35bd d026 ca3d 1dd2 abbc
00000180: e2f4 9b3d 72d8 d1bc 87ac 0dbd c075 ab3d
00000190: 3866 e73d d897 c0bd d997 e7bc 0347 723d
000001a0: 1386 a8bd 518b 4f3d e2f6 d939 daf2 a2bd
000001b0: 50af 2cbe 601b c3bb 9fb6 67bd d33f cb3d
000001c0: 4d3b 16bd 142d 69bc 3b3d 3e3c 0194 aabb
000001d0: 64cf e73b 051b 8cbc 70c4 b63a a6be 943d
000001e0: 2acf 9fbc 91f6 c23d 117e e13d 9c15 213d
000001f0: c83f 98bd a4b2 a13c 3136 4abd deaf acbd
00000200: d59b e0bd 260a 0cbe 0d47 dc3d 66f9 873d
00000210: 0f45 983c 90b6 1cbe 4f5a bc3b 0602 93bd
00000220: 7649 7bbd c32f a0bd 3761 913d 6d08 a1bd
00000230: b0c3 513d d66f 2ebe cba8 0c3c 3f08 01be
00000240: 65ce 4a3d 086b eabc 36da d3bd 4148 5e3d
00000250: a695 4fbd 25e0 253d cc19 4fbc d3c4 21bc
00000260: 1a3c 9fbd 345a e5bc fb2e d9bd 870e f93c
00000270: 226f ac3d 0d19 ac3c 51cf a73c 5478 ea3d
00000280: 3ea7 1abd 46e5 833d feb5 f9bd 6216 c3bc
00000290: ae8c 243c 2f68 743d 5cef c93d 2d57 1c3d
000002a0: d38c 2bbd 2d3e aebd 9608 9cbc 8451 cf3c
000002b0: 4d55 313d 8936 433c de9d e6bd 2183 483d
000002c0: b0bd a63d d37f c93c 1ffa 8d3d a205 d53d
000002d0: edc9 c4bd a189 e13d 7688 b23d 86d0 3f3d
000002e0: 5e08 4c3c e456 04be eef1 ba3d 37e8 febd
000002f0: 422e 74bd d6d9 46bd 5768 a4bd 3ce4 78bd
00000300: ab64 803d 8321 07be 132f b13c a6f4 213e
00000310: 5c95 d63c fa16 ee3d 977a ed3c 829e 00be
00000320: dab1 d43d 517a 61bd 052d d2b9 2ace 8fbc
00000330: 5661 db3d 5543 053e 4aed 743d a063 cdbb
00000340: ad4f 4a3d df0f 2f3d 3599 4bbd cb35 06bd
00000350: 3bd8 0bbe 08c2 df3c 8532 d73d e9aa 4bbd
00000360: abbf b73d e00b b43d 5c7a e5bd 6b4f 7e3d
00000370: 18c6 483d d70a 503a 12e4 c2bd ca5d 15bc
00000380: 68b2 793c 5221 80bd c9f9 acbc 549c 45bd
00000390: 70e7 b03c 15af 113c 645c abba f57e b8bc
000003a0: 7b65 a03d f1f4 56bc 6c3f 29bc 373e 7f3d
000003b0: 858e 1ebc 2b18 0c3c b841 2ebe 32dc e9bd
000003c0: 824f 073d 8cdd 853d 6b04 04be c45b c23d
000003d0: 7de2 47bc bfb6 a33a e398 0b3d 742d 12be
000003e0: df97 25bc 6320 a3bd f53e ae3c c244 b6bc
000003f0: 5a21 983c 92ec f83c adca 5f3d 927b 033e
-0.06262721 -0.0721523 0.061706837 -0.024784217 0.10650775 0.12146431 0.0627604 0.067688614
0.10187222 0.010469327 -0.1037491 -0.028327418 -0.08728253 0.124338835 -0.047901668 -0.0015707412
-0.058794055 0.07535335 0.025227988 0.015579239 0.009999969 -0.08662544 -0.06558215 -0.12492108
-0.03448632 0.0551853 -0.06244275 -0.016828187 0.10939399 0.070072725 0.030052183 0.0164475
-0.046362095 -0.038919542 0.06129433 0.03924592 -0.039753895 0.069400236 -0.10264184 0.029543173
0.062233265 0.014367454 -0.075650275 0.029253017 -0.049000826 0.06501358 0.09037756 -0.09378377
-0.042672064 0.11615998 -0.08522023 0.0060785874 -0.035531264 -0.017245667 -0.012050439 0.0074140597
-0.007226872 -0.046652652 0.02204381 -0.096681274 -0.042889915 0.0019078106 0.006013258 0.018870799
0.00557367 -0.03110752 0.063712135 -0.038179412 0.06563008 0.08404367 -0.024662776 0.031700626
0.045376733 -0.007866376 -0.036728308 0.028133702 -0.022060305 0.1112575 -0.11361344 0.03003796
-0.06510066 -0.057074405 -0.020869035 0.09085502 -0.020711837 -0.06306178 -0.021514246 0.004240808
-0.082538374 -0.010126518 0.055108137 -0.045936383 -0.06608515 -0.044309035 0.09870684 -0.020974213
0.07615067 -0.025615904 -0.034588363 0.083720684 0.112987936 -0.09403962 -0.028270649 0.059149753
-0.08228698 0.05066997 0.00041573407 -0.079564765 -0.16863751 -0.005954191 -0.056570645 0.09924283
-0.036677647 -0.014231939 0.011611278 -0.0052056317 0.0070742834 -0.017102728 0.0013944041 0.07262926
-0.019507963 0.09519685 0.110103734 0.03932725 -0.0743404 0.019738503 -0.049368087 -0.084319815
-0.109672226 -0.13675746 0.10755739 0.06639366 0.018587617 -0.15304017 0.0057480703 -0.0717812
-0.061349355 -0.0782161 0.070986204 -0.07862935 0.051212013 -0.1703485 0.008585165 -0.12600802
0.04951324 -0.02861549 -0.10344355 0.054268125 -0.050679825 0.040496964 -0.012640428 -0.009873587
-0.07775135 -0.027997114 -0.10604664 0.030402435 0.084196344 0.021008039 0.020484598 0.11448732
-0.03775715 0.06440215 -0.121929154 -0.023814384 0.010043306 0.05966967 0.09860107 0.038169075
-0.041882347 -0.08507953 -0.019047063 0.025307424 0.04329424 0.011914858 -0.112605795 0.04895318
0.08141649 0.024597084 0.069324724 0.10401465 -0.09608827 0.11012579 0.08717434 0.046829723
0.012453167 -0.12923771 0.09128176 -0.12446635 -0.059614427 -0.04854759 -0.08027714 -0.060764536
0.06269201 -0.13196377 0.021628892 0.15815982 0.026194267 0.11625476 0.02898912 -0.12560466
0.10385485 -0.05504829 -0.00040087863 -0.017554361 0.10711925 0.13013966 0.05979661 -0.0062679797
0.04939239 0.042739745 -0.049706656 -0.032766145 -0.13656704 0.027314201 0.10507683 -0.04972354
0.08972105 0.087913275 -0.11204979 0.062087458 0.049017042 0.00079361856 -0.09516157 -0.009116599
0.015240289 -0.06256355 -0.0211152 -0.04824479 0.021594733 0.00889184 -0.0013073799 -0.022521475
0.07831856 -0.013119922 -0.010330062 0.062315192 -0.009677534 0.008550684 -0.17017257 -0.11418952
0.03303481 0.06536397 -0.1289231 0.09490159 -0.012199995 0.0012490376 0.03408135 -0.14275151
-0.01010701 -0.07965162 0.021270255 -0.022249583 0.01857059 0.030386243 0.054636646 0.12840107

bias_ih f4 [300]
00000000: 4176 9c3b 072d 993d b5c9 1c3e 339c 4f3d
00000010: eb4e 1c3e c63c 4e3e e364 423e d4f4 6f3e
00000020: c414 ddbb c601 4b3e 22fa 08bd ed74 eabc
00000030: 0c2a 043e 7d69 b93d 4ce5 b9bd 3c28 913d
00000040: 98e0 83bd e445 a7bd c8d1 4b3e 4e2c 1f3d
00000050: 8d37 ec3d 4350 923d 8d38 91bc 1c6d cd3d
00000060: 4b05 b63c 1d01 d83d 712c ccbc c966 083c
00000070: 4f77 963d b7aa 09bd 3ada 0abd 7c31 983d
00000080: 72df 4bbd df35 ea3d c043 143d a402 5e3e
00000090: 9cfc 023d 404c 1e3e 6b9e b93d b35e fdbc
000000a0: e0a0 30bd 8c6b dc3d a15d b2bc 3bf4 1fbe
000000b0: ab2c ff3d 1e08 603e 8d0c 993c 1ce4 9b3d
000000c0: 0e66 653e 0a6f 44bd 2196 293e 92dc 053e
000000d0: 73ad 763d cf0d b83d 6f7a 823d 977b d63c
000000e0: 1be9 f6bd 6a3c 943d 4c58 243e 9178 dbbc
000000f0: 035d a03c c2d8 04be d197 66bd 35c8 a8bd
00000100: a15f e33d b270 a43d 4dc7 e73d 8f96 033c
00000110: a5a2 c53d d900 433e 9e96 1b3d 0fbd 95bc
00000120: 5576 203e 3467 493d 5327 943d c731 343e
00000130: af9a 4f3c 46f6 f3bd 75da 2a3e f36d 073e
00000140: 76ef f73c 891e 1d3d 33c9 bf3d c86a 193e
00000150: b92d 1a3e 3ad8 ab3d 0daa c43d 219b 123d
00000160: ea7c a23d 0e59 da3d 580f ad3c cc5c f53d
00000170: 03ef 883d 66e2 34bd 46f4 733d 7542 9d3d
00000180: 4c91 cf3d 1252 3b3e 7616 c63d 6ad8 593d
00000190: eb23 29be 262a 5abe 7e3e 17be 368b 24be
000001a0: daef a2bd b216 23be b319 29be aae4 87be
000001b0: 8a0c 4cbe 2eea 42be a8e4 c2bd 0324 38be
000001c0: d81a 40be 960c 06be 01dc 27be 1799 91bd
000001d0: 7a71 13be 03e2 e4bd 53e5 09be 6957 90bd
000001e0: d92d 0ebe 9c99 43be d7bb 31be 955b 1cbe
000001f0: a194 54be f46b 38be 7360 27be 650d b7be
00000200: 05b3 4bbe 85d7 59be cf7b 72be 4219 b1bd
00000210: 3688 dfbd 4d3b 73be cf1f 24be bdda 23be
00000220: b076 04be c4c1 b0bd 6688 63be 157b 83be
00000230: 9595 06be 6f1f f4bd 4717 013c 39f6 62be
00000240: 7109 74be 60d3 39be fdd3 cabc 3348 12be
00000250: 4721 ebbd 5b84 0dbd bf18 86bd ecf2 25be
00000260: 86f3 14be 0016 37be e9c9 6cbe 9115 96bd
00000270: 2099 25bc 22c3 44be 8b09 29be 8576 18be
00000280: c916 69be 0731 48be f593 cabd 74e3 01be
00000290: d119 5dbd cb52 61be b026 d7bd 5af1 11be
000002a0: eea0 54be b007 20be b4b2 97be c2b6 0fbe
000002b0: c891 02be 8c5c 31be d7f4 a0bd 80ce 18be
000002c0: cac9 c6bc 7731 0cbe 8f93 48be aee8 81bd
000002d0: 90db ddbd 9b18 d7bd bb35 7fbe deee 8cbe
000002e0: 8ac0 15be 9bd2 81be 7d92 82be 4e66 0abd
000002f0: fb79 4abe 95dd 28be b7b3 74be 252d 5dbe
00000300: 1904 dbbc 1c9f 1cbd b00b 3dbe 3a75 97be
00000310: 2cf5 00be da6d 0ebe e20b ecbd 5b29 0abe
00000320: d214 903d 6843 503e c9c6 b6bd 89e7 223e
00000330: c6e4 4d3e 40a0 f83d aef8 3b3e a4d4 2d3e
00000340: 7686 66bd 500a c33d b687 d03d e121 79bd
00000350: e6e4 25be 4b87 3abe 8132 713e 0155 88bd
00000360: 2fa3 e23c 5bec 5b3e ce80 a2bd d49c 6abd
00000370: bc0a c93d afb3 1d3e 005e 3fbe 5fc0 0a3d
00000380: 7d6b 573e 79d5 1dbe 2d39 ce3d 7fcf a43d
00000390: 4fc8 183e add4 fcbb be7c 58be aef6 b43d
000003a0: 237f c23d 2051 313e 0d4f 713e 1d89 64be
000003b0: 22c8 dbbd b3ce c4bd 98b2 dbbd 5c86 60bc
000003c0: c901 993d 4771 993c 148f 22be e23c 263e
000003d0: f525 d93d 02eb 6b3e 0077 27be 270e d7bd
000003e0: 132d 66be 689b a4bd 03fd 50be c8ad 313e
000003f0: 8448 1fbe 5594 bdbd efa9 1c3e 021d 0b3d
0.004774839 0.074792914 0.1531132 0.050686073 0.1526448 0.2014037 0.18983798 0.23433238
-0.00674686 0.19824895 -0.03344167 -0.028620208 0.12906665 0.090533234 -0.09076938 0.07087752
-0.06439322 -0.081676275 0.19904244 0.03886061 0.11534033 0.07144215 -0.01772716 0.100305766
0.02221932 0.10547087 -0.024923535 0.008325287 0.07346975 -0.033610072 -0.033899523 0.074313134
-0.04977364 0.11436056 0.036197424 0.21680695 0.03197919 0.15458775 0.09063419 -0.030928945
-0.043122172 0.107627004 -0.021773161 -0.1562051 0.124596916 0.21878096 0.018682742 0.07611868
0.22402212 -0.047957458 0.16561176 0.13072422 0.060224008 0.08987009 0.063710086 0.02618198
-0.1205618 0.072380856 0.16049308 -0.026790889 0.019575601 -0.12973312 -0.056297127 -0.082413115
0.11102224 0.080293074 0.113173105 0.008031501 0.096501626 0.19043292 0.037985437 -0.018278627
0.1567014 0.049170688 0.07234063 0.17597114 0.012671157 -0.11912207 0.16684897 0.13225536
0.030265551 0.0383592 0.093645476 0.1498214 0.15056504 0.08390851 0.09602747 0.035792474
0.07933982 0.10661517 0.02112548 0.1198059 0.06686213 -0.044161223 0.05955913 0.07678691
0.10135135 0.18293026 0.09672253 0.053184904 -0.16517608 -0.21305141 -0.14769933 -0.1606873
-0.07955904 -0.15926626 -0.1651371 -0.26541644 -0.19926658 -0.19034645 -0.09516269 -0.17982487
-0.1876024 -0.13090739 -0.16392519 -0.07109278 -0.14398757 -0.11175921 -0.13466386 -0.07047922
-0.13884677 -0.19101566 -0.17356811 -0.15269311 -0.20759822 -0.18009931 -0.16345386 -0.35752407
-0.1989251 -0.2127362 -0.23680042 -0.08647396 -0.10914652 -0.2375309 -0.16027759 -0.16001411
-0.129359 -0.08630708 -0.2222 -0.25679842 -0.13142999 -0.11920058 0.007879085 -0.22164239
-0.23831727 -0.1814704 -0.024759287 -0.14285354 -0.114809565 -0.034550052 -0.06547689 -0.16205949
-0.14546022 -0.17879486 -0.23123898 -0.07328332 -0.010107309 -0.19215062 -0.16507547 -0.14888962
-0.22762598 -0.19549952 -0.09891502 -0.12684423 -0.0539797 -0.2200424 -0.10505426 -0.14252225
-0.20764515 -0.15627933 -0.29628527 -0.1403456 -0.12750924 -0.1732046 -0.078591995 -0.14922523
-0.024266142 -0.13690744 -0.19587539 -0.06343208 -0.10832894 -0.1050274 -0.2492284 -0.2752599
-0.14624229 -0.25355992 -0.25502387 -0.03378897 -0.19773094 -0.16490777 -0.23896681 -0.21599253
-0.026735352 -0.038237676 -0.1846149 -0.29581624 -0.12593526 -0.13909093 -0.11525704 -0.13492338
0.07035221 0.20338213 -0.08924634 0.15908636 0.20106801 0.1213994 0.18356583 0.16975647
-0.056280576 0.09523451 0.10182135 -0.060823325 -0.16200599 -0.18215673 0.23554422 -0.06656838
0.027665703 0.21476881 -0.07934724 -0.05727847 0.098165005 0.15400575 -0.18688202 0.033874866
0.21037097 -0.15413465 0.10069499 0.08047389 0.14920162 -0.0077157826 -0.21141335 0.08836113
0.09496906 0.17316103 0.23565312 -0.2231793 -0.10731532 -0.09609737 -0.107274234 -0.013703909
0.074710436 0.018730773 -0.15874892 0.16234162 0.10602943 0.23038867 -0.16353989 -0.10500746
-0.22478132 -0.08037454 -0.20409016 0.17351449 -0.15555006 -0.09256808 0.152992 0.03396321

bias_hh f4 [300]
00000000: e046 213c 5bad 073e da0c 363e ceda c3bd
00000010: faf7 143e cb8b 573d f412 d03d 254f ba3d
00000020: 91cf 59bd c171 e93c 5384 aa3d b308 5d3d
00000030: e00c 083e 843c 813d ac9f 20be 6a3a ef3b
00000040: 837d c63d 7a85 3cbb fd68 153e 7806 8fbd
00000050: a86e 373e 63a3 343d 561f 9ebd 58dd 8fbc
00000060: 7908 d73c b8fa 353d 72c6 6d3d 56ee f4bc
00000070: c324 57bd ac43 703b cec2 bc3d 1b3e 643d
00000080: 3b36 1a3c e057 b93d fbdb eb3d 188c 553e
00000090: c305 db3d 32bf 713d 5e8a 6e3e c985 8a3d
000000a0: a730 ae3d 7b70 1cbd 4117 df3c 3c20 46bd
000000b0: 302c 2abd 3b16 8e3d eac2 bf3c 3630 bebc
000000c0: 4286 4c3e 4ebc 34bd 44c5 2a3e 3664 073e
000000d0: bab2 f33c 2c88 c6bc 838f c03d 3475 843c
000000e0: a5d7 5dbd 185d cc3d d42b be3d f234 993d
000000f0: 83dc ad3d 0700 3bbd 654f c43d ec22 acb8
00000100: e1e5 9c3d c33b f43d ecfb e03a ff6a 7e3d
00000110: d139 483e 8e6b 5b3d 4283 a73d 2f8d eb3c
00000120: 2059 813d 5d7e 333e b617 853e ebb1 0a3e
00000130: 5405 cc3d 8e15 afbd 3113 c73b ff62 2cbd
00000140: 152b 823b 4864 223d bd36 86bd 2fc7 153d
00000150: 9cad c03d 6603 b9bd 84c7 a13d 18bd d73c
00000160: e0bb 2f3d 63c6 023e 96ea be3d 38a3 d03d
00000170: 4f81 b23d 65d8 023d 958a cb3d 3bb7 0d3e
00000180: 3947 a13d e6dd 483e f2c1 cb3c 4f7a c03d
00000190: 3923 e0bd c5fe 7bbe cafc 3ebe 2faa 86bd
000001a0: 1f39 20bd 1953 8fbc 839f 71be 3220 9bbe
000001b0: c715 3ebe c00e 5ebe ab9f 50be 45a3 2cbe
000001c0: 498e 90be 8cfd 87bd 12eb 18be 1797 1dbe
000001d0: 5908 413c 030e dcbd 74e0 15be 4d58 18be
000001e0: f90c 29bd b7ee 7dbd a0cc 89be 3be9 55bd
000001f0: d4c5 8ebd 4ea1 0cbe 180f 93bd ef9f 9ebe
00000200: b32c 84be 75e5 19be 076b 30be 7255 91bd
00000210: ed6d fcbd 6004 bbbd f5fa 0abe 4f7c 39be
00000220: 131f 89be 775d 64be 48ce 6abe b18f 46be
00000230: 9ffe 07be 9de7 7abe a3b7 f0bc 0973 1bbe
00000240: 78e7 4bbe 452f 15be 75ae 0cbe 8678 49be
00000250: d085 18be 8f97 febc bd3c 15be ab8c 1fbe
00000260: f0dc e3bc d9a2 09be 9776 b0bd 013e 26bd
00000270: 0051 1fbe c7a4 c7bd e256 c5bd a94a b6bd
00000280: 9db1 37be 261b 0bbe 7671 1cbe 4bd0 80bd
00000290: bd70 dfbd 3c26 99be 32d3 2bbe e78c 82be
000002a0: 7bed 22be 2a92 86be dbd8 63be 4b30 15bd
000002b0: 25ef 92bd 16b4 22be ff35 01be 7b0d ffbd
000002c0: 1e6b 16bd 49e5 95be f9b5 03be fecc eabd
000002d0: ba41 8dbd 3e67 58be 8865 8ebe bf9e 98be
000002e0: 6a29 5ebe 35e6 8cbe 89b0 e0bd 26a8 b7bd
000002f0: 50b0 5fbe 0ef7 2abe 9e75 89be 0ff7 26be
00000300: 7c72 04be c0de 9abd 7b40 8bbd e555 37be
00000310: 31b9 2ebe b176 44bd cd60 2ebd 10d5 96be
00000320: 226d 013e e726 693e 065d edbd d420 1fbd
00000330: 6857 263e 8f6c 3e3e bfa3 033e 69b1 4e3e
00000340: 88bf 2a3d 1813 c63d 7180 003e 9dda 583c
00000350: accc d6bd c5ed cdbd e971 08bb 6576 ffbc
00000360: 8eb1 053e 8373 2a3d 8723 30be 5d40 a03d
00000370: 3b72 a93d dbd3 2b3e 64e1 a6bc c5b8 a03d
00000380: 7df5 6a3d 2299 fdbd 96a5 abb9 0211 623e
00000390: 63db cf3d f5fc 0abd 6b9e aabd 7aaa 27bc
000003a0: 38c1 783d 2575 063d 3598 4e3e bc92 47be
000003b0: d52d 47be 3657 4bbe fa0b 0bbe c98b 6d3d
000003c0: 958e 92bd c9ab 103d 88ce 99bd 2a71 4f3b
000003d0: 7384 1b3e 6262 273e 672e 6cbd b6a9 5abe
000003e0: 7fef 76be cb53 e5bc 6a87 5fbe 7440 ba3d
000003f0: 0d83 0abe 9770 06be 21c7 243e 9e68 503d
0.009843558 0.13249724 0.1777834 -0.09563218 0.1454772 0.05262355 0.10159865 0.09097127
-0.053176466 0.028496625 0.0832602 0.053963374 0.13286161 0.063103706 -0.1568591 0.0073006647
0.09691908 -0.0028766082 0.14590831 -0.06983656 0.17913306 0.04410113 -0.077208206 -0.0175616
0.026249157 0.044428557 0.05805058 -0.029898804 -0.052525293 0.003666143 0.092168435 0.05572329
0.009412344 0.09049964 0.11516567 0.20854223 0.10694458 0.05902023 0.2329497 0.06763799
0.085053734 -0.038193207 0.027232768 -0.048370585 -0.041546047 0.06937834 0.023408372 -0.023216348
0.1997309 -0.044124894 0.16676813 0.13221821 0.02974831 -0.024234854 0.09402373 0.016169168
-0.054160733 0.09978694 0.09285703 0.07480802 0.08489325 -0.045654323 0.09585456 -8.208104e-05
0.076610334 0.11925461 0.0017164922 0.06211376 0.19553305 0.05356937 0.08179332 0.028753845
0.06315827 0.17528673 0.25994653 0.13544433 0.09961954 -0.08549033 0.006075286 -0.042086598
0.003972421 0.039646417 -0.06553409 0.03656691 0.09408113 -0.09033851 0.07899383 0.026335284
0.04290378 0.12770991 0.093220875 0.101873815 0.0871607 0.03194465 0.09938542 0.13839428
0.07874913 0.19615898 0.024872754 0.093983285 -0.10944218 -0.24608906 -0.18651119 -0.06575429
-0.039116975 -0.017495679 -0.23596005 -0.30298 -0.18562995 -0.21685314 -0.20373408 -0.16859157
-0.28233555 -0.06640157 -0.14933422 -0.15389667 0.011781775 -0.1074486 -0.14636403 -0.14877434
-0.041272137 -0.061995234 -0.2691393 -0.05222438 -0.069713265 -0.13733408 -0.07180613 -0.30981395
-0.25815353 -0.15028937 -0.17228328 -0.070963755 -0.12325654 -0.09131694 -0.13572295 -0.18113826
-0.2678152 -0.22301279 -0.22930253 -0.19390751 -0.13280724 -0.24502416 -0.02938444 -0.15180601
-0.19912517 -0.14568813 -0.13738425 -0.19674882 -0.14894795 -0.031078128 -0.14573951 -0.15581004
-0.027815312 -0.13441028 -0.08616369 -0.040586475 -0.15558243 -0.09748226 -0.09635712 -0.08900959
-0.17938848 -0.13584575 -0.15277657 -0.06289729 -0.10910175 -0.29911983 -0.16779783 -0.25498125
-0.15910904 -0.2628339 -0.22250693 -0.03642301 -0.071745194 -0.1588901 -0.12618254 -0.12453743
-0.03672325 -0.29276493 -0.12862386 -0.114648804 -0.06897302 -0.21133134 -0.27811837 -0.29808614
-0.21695486 -0.27519384 -0.109711714 -0.08967619 -0.21844602 -0.16695806 -0.26847547 -0.16305183
-0.12934297 -0.075620174 -0.06799408 -0.1790386 -0.17062832 -0.047964755 -0.042572785 -0.2945943
0.12639287 0.22768746 -0.115900084 -0.038849667 0.1624428 0.185961 0.12855433 0.20184864
0.041686565 0.096716106 0.12548997 0.013235715 -0.10488257 -0.100551166 -0.002081985 -0.031184385
0.13056013 0.041614067 -0.17201053 0.07824776 0.08273741 0.16780035 -0.020371147 0.07847742
0.057363022 -0.123827234 -0.00032739033 0.220768 0.101492666 -0.033932645 -0.08330997 -0.010233516
0.060731143 0.03282656 0.2017525 -0.19489568 -0.19451077 -0.19857487 -0.13578787 0.057994638
-0.071561016 0.035320077 -0.07510096 0.0031653144 0.15187244 0.16346124 -0.05766144 -0.21353802
-0.24114798 -0.027994057 -0.21829 0.09094325 -0.13526554 -0.13128887 0.16091587 0.05088102

weight_ih f4 [300, 100]
00000000: e357 093e 7cd4 83bd 5115 633d ce88 163d
00000010: b122 d0bd ebb3 3f3d 2ef8 a8bd f0f2 18be
00000020: 7c5f 6dbd 6f58 d4bc 2771 7bbd 9e8c 4d3e
00000030: bb6d bf3d 599f 0fbd 06c4 1cbd 1da5 43bd
00000040: 1572 e43d fe44 25be 90d3 d03d 51f9 323d
00000050: 2f92 833c 20b5 85bd a908 163e afb7 c83c
00000060: 8a6a 05be 2f11 8c3d 7787 e1bc 7c64 63bd
00000070: 5ca7 82bd 82ff 11bd 7efa 1a3e dea1 273a
00000080: 0527 1ebd 7ee7 63bc fcc5 07be 602c aabd
00000090: 82b6 bd3d 77f1 033e 430a 0c3d f8b8 07be
000000a0: 480a 913d d9fd 2ebd eb03 edbd 0e2d dcbd
000000b0: 2611 42bd f8bf c03c 80e4 c3bc def3 ca3d
000000c0: 3f70 f73d db98 1f3a b7a5 b13d d49a 813b
000000d0: 4b05 fc3c 6ee9 023d c843 e2bd 7878 0b3e
000000e0: 0595 4f3e cfc2 14bd 7be1 58bd 7e45 723e
000000f0: a5c9 ac3c 79b7 92bd 3848 57bc 0138 b73c
00000100: a733 403d 9f5e 85bd f3ad 883d 95b0 613e
00000110: e640 50bc 1a01 633b 1e0a adbd 0876 07be
00000120: 8188 ad3d bedb 253d 4c46 97bc 7e68 a43d
00000130: f7c8 71bd 4973 ffbd 4030 1c3e 7da7 143d
00000140: 7abb 0dbe 2e5e 20bd d2ab 403d 4c62 d63c
00000150: 91c3 d23c 55f3 d4bd 0fac ea3c 5b0c 64bc
00000160: 2a7b 90bd df5e 683d b8b4 c9bd 694c 843d
00000170: 2dac 8fbd 7b32 21be 10a5 413d 2f2a 803e
00000180: 3a3e 98bd 4c13 e6bc 64db 873b 8423 d9bd
00000190: a843 6cbd a54a 123e 6ffd 11be cf82 c73c
000001a0: 4ad4 66bb fa5f 283e ba3c 29bc f83f ab3c
000001b0: 9963 9bbd a00e 963d 5699 e1bc 2c1d bebd
000001c0: fd6c 0bbb 3b5a e1bb b10e 253d 8dfd f1bd
000001d0: f021 f23d 531b 043e cfc0 3dbe 7bd2 4a3d
000001e0: 660c 273e 6245 203e fe46 85bd efd1 bf3d
000001f0: 9037 d93a e8b8 a53c 9265 ebbb 0c36 98bb
00000200: 3575 3d3c 28c3 233d 2f5d 3abe 2482 fd3d
00000210: 1bb7 b73d 226c 1c3d b45c 49bc a7c4 35bd
00000220: 1c99 2bbe 1f91 dcbd c083 e2bd 0a81 773c
00000230: 1929 153d 9f1d 023c ef50 08be e435 5b3d
00000240: 8b6b 39bb 0960 953d 1185 24be deb3 01bd
00000250: 5d07 18be 04c2 c3bc 1087 79bb 1726 923d
00000260: 2488 dcbd 1a6f 53bd 88a0 643c b1bf 0dbc
00000270: 59f4 713c e738 28be 7901 133e 2d24 3dbd
00000280: ff0d 8fbd d968 d2bc ddb9 e1bd ed45 87bc
00000290: 3546 163d 8e8c 3b3d c369 2e3e bd2a 27be
000002a0: 8e4a dbba 72e2 313e 3ad2 333e 28d5 23bd
000002b0: e36d 31bd e5fe 0ebd 36c3 c53d ac28 80bd
000002c0: 5dbf 1cbd 187f a7bb e1d9 b6bd 6bab cb3d
000002d0: 0968 423d 3083 d1bc c01c 3abc 2ba0 213e
000002e0: cb45 933d 2626 df3b 0035 84bb 34e8 a4bd
000002f0: 17f3 bb3d e588 62bd 8375 2c3c 489d 99bd
00000300: 25d3 f7bd c170 083d 4376 d83c b066 4fbd
00000310: 7bea 5ebd f59f eebd 6912 053e 1449 d73b
00000320: 0963 04bc 3de1 1a3d b801 133d 20bb c63d
00000330: 3707 3b3d 21ce c53d 2533 93bd 1f5f 513d
00000340: a0a0 b4bd 2580 513d 8158 163e 340c 663d
00000350: d352 343d e72f 83bd 2bce c33d b924 49bd
00000360: c4b4 183e 2fa8 08bc 35bb aebd 56be 043d
00000370: c57e 183d c379 bf3a 4f03 5bbb 8933 bd3d
00000380: 0188 82bd 14e9 babd f170 913d 807f b83d
00000390: 1c2d 17be a0ad e13a dd10 933d 7e4c ce3d
000003a0: 3d2f c8bc 9c36 d13d 3a9e e43a f941 2c3d
000003b0: 902b 13bd 0288 c1bd 7db4 88bd b4aa ccbc
000003c0: 3c25 343e 4c54 33be e095 babd 65d3 93bc
000003d0: 2da3 183d 5242 713c 831f c5bd d993 3d3d
000003e0: a877 11bd a3ae 0cbe 8c6c 63bd 7165 dbbc
000003f0: e766 0cbe be3d 98bc 0f65 013e 28ea 0c3e
0.13412432 -0.064370126 0.05544025 0.03675156 -0.10162867 0.046802443 -0.082504615 -0.14936423
-0.05795239 -0.025921075 -0.061387207 0.20073172 0.09347101 -0.035064075 -0.03827288 -0.047764886
0.11154572 -0.161396 0.10196602 0.043694798 0.016060917 -0.065286875 0.14651741 0.02450165
-0.13028923 0.06839215 -0.027530415 -0.05551575 -0.063795775 -0.035644062 0.15134618 0.00063946645
-0.03861143 -0.0139101725 -0.13259119 -0.08309245 0.09263326 0.1288508 0.034189474 -0.13254154
0.07082039 -0.042722557 -0.11573013 -0.10750781 -0.047379635 0.023529038 -0.023912668 0.09909795
0.12081956 0.0006088146 0.08674186 0.0039552245 0.030764243 0.031960897 -0.110480845 0.13620174
0.2027169 -0.036318596 -0.05294941 0.23659322 0.021092245 -0.07163901 -0.013139777 0.022365572
0.04692426 -0.06512188 0.06673803 0.22040017 -0.0127107855 0.0034638108 -0.08449195 -0.13228619
0.08473302 0.040492766 -0.018466137 0.08027743 -0.059029546 -0.12473161 0.15252781 0.03629254
-0.13841048 -0.039152317 0.04703886 0.026169918 0.025728019 -0.103979744 0.028646497 -0.013918961
-0.07054742 0.0567311 -0.098489225 0.064598866 -0.07015262 -0.15741913 0.047276556 0.25032184
-0.07433744 -0.028085373 0.0041460264 -0.10602477 -0.05768171 0.14286287 -0.14256833 0.024354367
-0.003522175 0.16442862 -0.01032942 0.020904526 -0.07587356 0.07327008 -0.027538937 -0.09282908
-0.002127468 -0.0068772114 0.040297214 -0.11815939 0.11822879 0.12901048 -0.18530582 0.049517136
0.16313323 0.15651467 -0.06507681 0.093662135 0.0016572345 0.020229772 -0.007183739 -0.0046451148
0.011563589 0.039981037 -0.18199609 0.12378338 0.089704715 0.03818906 -0.012290169 -0.044376995
-0.16757625 -0.10769867 -0.110602856 0.015106449 0.036416147 0.0079416325 -0.13312124 0.05351819
-0.002829286 0.07293708 -0.16066386 -0.031665675 -0.14846559 -0.023896225 -0.0038074888 0.07136171
-0.10768154 -0.051619627 0.013954289 -0.00865166 0.01476773 -0.16427957 0.1435603 -0.046177078
-0.069850914 -0.02568476 -0.11021779 -0.016512835 0.03668805 0.04578834 0.17032532 -0.16324897
-0.0016730593 0.17371538 0.17560664 -0.039998204 -0.043317687 -0.034911055 0.09656374 -0.062577575
-0.038268436 -0.0051115863 -0.08928276 0.09944805 0.047462497 -0.02557525 -0.011359394 0.15783755
0.07191046 0.0068099676 -0.0040346384 -0.08052102 0.09177225 -0.055306334 0.010526064 -0.07500702
-0.121008195 0.033310656 0.02642358 -0.05063504 -0.054422837 -0.11651603 0.12995304 0.006569991
-0.008080252 0.03781246 0.03589031 0.0970366 0.045661177 0.096584566 -0.071874894 0.051116105
-0.08819699 0.0511476 0.14682199 0.05616398 0.0440243 -0.06405621 0.09560808 -0.049107287
0.14912707 -0.008340879 -0.08531801 0.03240808 0.03723027 0.0014608431 -0.003341872 0.09238345
-0.06373597 -0.091264874 0.0710162 0.09008694 -0.14763302 0.0017217882 0.07180951 0.100731835
-0.024436587 0.10215494 0.0017442175 0.042055104 -0.035930216 -0.094497696 -0.066750504 -0.024983741
0.17592329 -0.17512625 -0.09110618 -0.018045137 0.03726499 0.014725285 -0.09625151 0.046283577
-0.035514504 -0.13738494 -0.05552344 -0.02678177 -0.13711129 -0.018584128 0.12636207 0.13761199

weight_hh f4 [300, 100]
00000000: f403 24bd 24dd 773c 9e22 91bd d026 a23d
00000010: 7ba8 97bd 48a0 07bc ce9c e63d 9e56 a13d
00000020: ef6f 11bd 27a0 12bd efcf 9ebb cc93 4b3d
00000030: d156 a33d f3b3 1b3e 5f0c 99bd e266 5abd
00000040: e279 5b3c 2df4 38bd 54ad 4b3d fbcd 433d
00000050: c131 6e3d aaca 6bbd 9519 1ebd 69cf 25bd
00000060: 74e7 2d3c 0060 883b 51cf 773d a085 de3d
00000070: 216a cbbc 2acb 1bbd 70c5 bfbd 218b 2c3d
00000080: cef7 eb3b ce75 d9bd 4759 cd3d 17d0 5e3d
00000090: 68b6 3fbd 211d a63d fd35 d83c de26 3bbd
000000a0: 77ac 323d e453 473c 98c5 b6bd 9f16 5fbd
000000b0: 76dd c13d 1af6 ab3c 4719 d8bd b18a 1a3d
000000c0: 6d32 8b3c c91b 653d d94a 7fbd b079 b2bd
000000d0: dbc1 80bd 04f8 2fbd b123 83bd 7721 093e
000000e0: cb9c e13d 6c6a 243d 670d e73b dd5d 0a3d
000000f0: e1df 97bd 6542 e4bc da05 713d af3e 1e3c
00000100: f41f d6bd 8567 e4bd da8a 9dbd 8dcc e3bd
00000110: f49d 833c 40a0 6abd 9900 353d f459 90bc
00000120: 29fa 9a3c d2e7 c2bd 8aa9 6c3c 9273 59bd
00000130: c018 4e3d f3d2 84bd fe01 0cbd 78a2 b1bc
00000140: 0dcc 383d f08d 173d fe65 08bb 4fd8 9d3d
00000150: 707c c13d f772 963d 8727 4dbc 1191 f0bc
00000160: 322e 1d3d 6224 e7bc 5504 6f3d dbf3 843d
00000170: 2393 d9bc 4d8e 7ebd d7a4 e4bd 9b49 cf3d
00000180: 723b d2bc 5980 8e3d 8b77 e23d a1dc 573d
00000190: cdfe 58bd c16c a1bd 9917 8c3c dc7d 543b
000001a0: f3e1 963d 9b55 983d b854 87bd fa23 d03c
000001b0: fa6e 2d3d 0c29 94bd 6eb2 803c 7e5e e4bc
000001c0: dbba bc3b 61ad 133d 51fb e13b c721 04be
000001d0: 2472 cd3d e475 b0bd 4db0 153e d2a3 61bd
000001e0: 778b 483d 3244 2dbc 813e 8dbd 03aa 913d
000001f0: 0222 323d 33e5 e63d 5e13 e03c 036d 4f3d
00000200: e4e9 fcbd dce9 ca3d 905c f13d ee31 fbbd
00000210: 3ec5 943d f87b 30bc 285f 0abe e8c1 65bd
00000220: 590e d5bd ddb4 d93c f3b9 b7bd bc3a f33d
00000230: 2483 bbbd aaad dabc 3122 053d c059 24bd
00000240: cb77 f3bc ad83 923d a65e 9b3d 0edd 873d
00000250: 09bb 883c ee5f 8b3d 39f6 723d 6812 9ebd
00000260: be49 be3d 1a3d 1e3d 9da6 f43c 9823 05be
00000270: 0249 b4bb 886e ce3d 976c 29bb df93 56bc
00000280: ccd3 36bd fc62 06bd caa3 713d 60d7 fbbd
00000290: b84a 0bbe 90f9 0d3b 923b 8c3d d353 93bc
000002a0: d4f1 223c 3398 c93c 7c15 dabd 9060 f3bd
000002b0: e588 90bd 3770 983d 0013 c33c c7aa ad3d
000002c0: fc98 a93c 0cfb 82bd bbf1 0c3e 6cf8 63bc
000002d0: bd8d 163d 130c 7f3d 0359 773d eca4 c7bc
000002e0: 750c e4bd 3ebd 96bc 5521 8bbd 4b29 3fbd
000002f0: b42f 1cbd e34c dd3d 6e23 783d 7124 c4bd
00000300: 2b82 043e 0516 8cbd 5270 97bc c5d3 7c3d
00000310: a765 02bd ac66 e43d b5df 88bd 52a0 c63d
00000320: 0948 37bd 75ae 16be ae8e cb3d a8f2 8b3d
00000330: 5318 f2bc 6e55 b33d 5c20 08bd 48b9 783d
00000340: 7778 993b 1c5a 80bd 03cf bbbc 2e94 10bb
00000350: 5903 5abc 4126 5abd 7d5c 433c 2415 90bd
00000360: e1a4 1a3d 3b50 4abd 47b5 8c3c ac0b 093d
00000370: 0ea8 a8bd 7375 dc3c a8bb 24bd a536 af3d
00000380: 8255 fdbd 9a86 503c 6396 493d f3d5 dbbd
00000390: 5847 053c 557c 9d3d 2408 e83d 51e9 323d
000003a0: 57b4 7a3d 465b 803d cd46 0dbe cb69 58bd
000003b0: d6c6 ffbd 637b 153d fd46 2fbc 8e9a c5bc
000003c0: 7198 103d 4646 b93b bf01 d43d d583 0e3e
000003d0: 8f7d 953d 92bc f43b 5144 153d 6ed1 043e
000003e0: ad32 6d3d 9417 3e3d ab3c 9b3d 077c ab3c
000003f0: 866a 25bc e808 033e 4745 f8bc 390b 0b3d
-0.040042832 0.015128408 -0.07086681 0.07917559 -0.07405182 -0.00827796 0.11260377 0.07877849
-0.03550714 -0.035797264 -0.004846565 0.049701497 0.07975543 0.15205364 -0.07473063 -0.053320773
0.013395758 -0.04515474 0.049725845 0.04780386 0.058152918 -0.057566322 -0.038598616 -0.040481005
0.010614265 0.0041618347 0.060500447 0.10865331 -0.02483088 -0.03803555 -0.0936383 0.04212487
0.0072011715 -0.106181726 0.10026794 0.05439767 -0.046804816 0.08111025 0.026392931 -0.045691364
0.043621507 0.012165997 -0.08924407 -0.054464933 0.094660684 0.020991374 -0.10551696 0.037729923
0.016991818 0.0559347 -0.06232724 -0.08714616 -0.06286975 -0.042961136 -0.06403292 0.13391672
0.11016234 0.040140554 0.007051158 0.03378092 -0.074157484 -0.02786369 0.05884347 0.0096585
-0.10455313 -0.11152557 -0.076924995 -0.11122999 0.016066529 -0.057281733 0.044190023 -0.017621018
0.018918114 -0.095168725 0.014444718 -0.053088732 0.050316572 -0.06485548 -0.034181587 -0.021683916
0.045116473 0.037000597 -0.0020812745 0.07707273 0.09447563 0.073461466 -0.012521631 -0.029366048
0.038374133 -0.02821559 0.05835374 0.06491824 -0.026559418 -0.062147427 -0.11164253 0.10121461
-0.025663111 0.06958074 0.11057957 0.052700642 -0.052977372 -0.07882071 0.017101096 0.003242365
0.07367315 0.07438203 -0.06607956 0.02540778 0.042342164 -0.072343916 0.015710082 -0.027877089
0.0057595796 0.03605402 0.0068964143 -0.1290351 0.10031536 -0.08616236 0.14618035 -0.05508787
0.04896113 -0.010575341 -0.06896687 0.07112505 0.043489464 0.11274185 0.027352985 0.05064107
-0.123492986 0.099078864 0.11785233 -0.12265383 0.072641835 -0.010771744 -0.13512862 -0.056093127
-0.10403127 0.0265755 -0.08971014 0.11876437 -0.091558725 -0.026694138 0.03250331 -0.040124655
-0.029720208 0.071540214 0.07586412 0.0663396 0.016690748 0.068054065 0.059316847 -0.077183545
0.09291409 0.03863249 0.029864604 -0.13001859 -0.0055018673 0.10079676 -0.0025852078 -0.013096779
-0.04463558 -0.032809243 0.058994092 -0.12296939 -0.13602722 0.0021663643 0.068473 -0.017984306
0.009945352 0.024608707 -0.10648629 -0.11883652 -0.070573606 0.07443278 0.02381277 0.08479839
0.020702831 -0.0639554 0.13764088 -0.013914209 0.036756266 0.062267374 0.060387623 -0.024370633
-0.111351885 -0.018400785 -0.06793467 -0.04667024 -0.03813143 0.108056806 0.060580663 -0.09577263
0.1294028 -0.068401374 -0.018486176 0.061725397 -0.031835224 0.111523956 -0.06683294 0.096985474
-0.044746432 -0.14714988 0.09939323 0.068333924 -0.029552614 0.08756529 -0.033233985 0.060723573
0.00468355 -0.06267187 -0.02292586 -0.0022060978 -0.013306462 -0.053259138 0.011923906 -0.07035282
0.037754897 -0.04939292 0.017176284 0.033458397 -0.08235179 0.026911473 -0.040218025 0.085553445
-0.12369825 0.012727404 0.049215686 -0.10734167 0.008134685 0.0768973 0.11329678 0.04367954
0.06120714 0.06267409 -0.1379654 -0.052835267 -0.12489097 0.036494624 -0.010698077 -0.024121549
0.03530163 0.005654129 0.103518955 0.13917477 0.07299339 0.0074687684 0.036442105 0.12970516
0.057909656 0.046409205 0.07579931 0.020933164 -0.010096198 0.12796366 -0.030306472 0.03394625

bias_ih f4 [300]
00000000: 07f5 cbbd cc1f cd3d 246e 6e3d 2390 c4bd
00000010: 638b 343c 1182 43bc 0678 d53d 1d00 6d3c
00000020: 2c68 e63c a219 5a3d 4b52 2a3d afa7 3a3d
00000030: 2219 fbbc a596 b1bb 3b89 e3bd fd9f 79bc
00000040: 599d 01bc 20b3 9e3d fb90 ed3d 67cb 6cbb
00000050: 718f b33c 911c b5bd 6b2e 83bc 0a64 853d
00000060: 5492 62bd fcb5 92bd 1aa2 81bd 1a34 5e3d
00000070: 1aaa b0bd 5565 17be fa5d 793d 6e0c bf3d
00000080: 7e65 54bc 1f42 863d 7ab3 843d fe76 5cbd
00000090: 4562 833d 3d51 43bc fa7c 62bb 641d 80bd
000000a0: 250b 943d b1e0 89bd f5f8 60bd 3261 a9bd
000000b0: bfc9 16be 8cd9 de3d 5127 cfbd 1626 dfbc
000000c0: ae8c 96bd 4d1e 783d 230c 8bbd 7d9d d3bd
000000d0: 9c39 443c 1267 663d 9481 e3bc 8fcc c43d
000000e0: 1bef 45bc 5d48 6d3c ef3d aa3c 9d39 fd3d
000000f0: 582a e3bd 99ea 00bb eac1 823c e8be 043d
00000100: 27b5 b0bd 3227 c33d af81 93bd 0676 ae3d
00000110: 1584 263c 0ec7 913c 9a60 6639 b1a0 d1bc
00000120: 2d2a bd3c 1e21 4d3d ebe9 0b3e 90a4 fe3d
00000130: 7c9d b13d 555a 41bd 9b9e dc3d 3ae2 d0bc
00000140: 27ca 043e e1ea c73d 71ac a2bd 502c 433d
00000150: 0467 9a3d be4c ce3b c402 dfbc 0b41 93bd
00000160: 58e0 89bd 2bb7 1dbd 789e bf38 2d42 8fbc
00000170: 7c3b f63b 6ed4 80bc 5d62 f6bc 77b1 abbd
00000180: f53e afbd 4964 82bd 29dd 863c bfc6 84bc
00000190: 99b0 26be 2c3a c9bd 04cb 20bd 541b 79be
000001a0: 0508 58be f39b 31be 2692 83bd d97c 03be
000001b0: c1db 1cbe cf64 80be 2a6c e9bd 6713 0dbe
000001c0: c4d3 efbd 1abe 10be bb05 51be 0e2f bdbd
000001d0: d83e 9abe d2e7 1abe 0eed ddbd c7f9 a8bd
000001e0: d022 3dbe 8295 e4bd 7bc1 cebd 05a8 adbd
000001f0: 4321 29be 3925 4dbe f1ae 41be 3660 e1bd
00000200: c1d2 10be bab7 43be a797 83be fd26 46be
00000210: 7364 34be e24f fcbd 2fe0 2abe 8747 bcbd
00000220: 0e70 29be 52d4 a2bc 2c9d 88be 6bb6 88be
00000230: b94e 6fbe 0659 24be d748 5dbe 55b3 e2bd
00000240: 6985 19be a251 69be 516b 71be 6143 a9bd
00000250: adf2 72be a222 eabd 82a2 40be c21c b6bd
00000260: 1ef4 b0bd 9950 8dbe 04fa 1abe 3fe3 cabd
00000270: 0485 d8bd 1889 4bbe 0784 17be 42e1 8abe
00000280: 5b6b 41be 8236 03be a5d2 13be 92bc cebd
00000290: 7692 b9bd 16bc 12be d7b2 ddbd a68f 31bd
000002a0: d252 aabd 2e48 eebd 1851 89be 90b8 c6bd
000002b0: 7e2c 75bd 4a3b 2fbc 9ebb 363d 1c1c 3abd
000002c0: aebb c2bd 5e2a 1cbe 2380 69be a22b 42be
000002d0: 5532 2abe 5ee0 78bd d10e 28be ef30 21be
000002e0: 7ba9 0fbe 8fbc 2abe 4136 70be bcfc 1ebe
000002f0: 67f8 f2bd 609c 6cbe b7cf 1bbe 7a51 79be
00000300: 3fe3 8cbc 2eaa e8bd 1f29 e6bd 82e0 02be
00000310: 8057 afbd 5d44 3fbe 5e00 e5bd 509e 21be
00000320: 2270 023e 1c96 90bd b3d2 863d b9c4 8b3b
00000330: f580 133e 0216 e53d 744e 133e ae82 e63d
00000340: 4f87 903d fc53 b6bd 5c16 823d 201d 50bc
00000350: b8e1 35bd 94c1 d6bd 11d9 00bd 55d3 d8bd
00000360: f72e fb3c bbdd f83c a54a ed3d d0eb dfbd
00000370: e570 493d 4e0e 163e bb73 c93d c64d 0c3e
00000380: 53ab 32bd 240e be3d d587 95bd d7f9 593c
00000390: e59d e8bd 1359 db3d a86b 723d 9935 c2bd
000003a0: 31a5 07bc 80a9 9ebd 83a7 6abd 31d1 e6bd
000003b0: 7aa7 fabc f666 a0bd 78df e1bd d1fb b8bd
000003c0: 68c5 0ebc 0557 fbbd 8e8c 1e3e cf40 b53d
000003d0: d037 b33d 4d49 303d 9c21 093e 4f28 dd3d
000003e0: c566 f73d 3b60 d63c ed98 e63d fba4 06be
000003f0: 01d3 0e3e b720 1e3d 1918 88bd dfd6 d5bd
-0.09958845 0.100158304 0.058210507 -0.095978044 0.0110195605 -0.011932866 0.10423283 0.014465359
0.028125845 0.0532471 0.041582387 0.04557007 -0.030651633 -0.0054195696 -0.11110159 -0.015235898
-0.00791105 0.07749009 0.115999185 -0.003613198 0.021918984 -0.08843339 -0.016013345 0.065132216
-0.05531533 -0.07163617 -0.063297465 0.054248907 -0.08626194 -0.14784749 0.06088064 0.09328543
-0.012963651 0.0655558 0.06479545 -0.053824417 0.06415228 -0.011921224 -0.0034559355 -0.06255606
0.07228688 -0.067323096 -0.054924924 -0.08270492 -0.14725398 0.108813375 -0.10114921 -0.02723984
-0.07351051 0.060575772 -0.06789424 -0.10332773 0.011976626 0.05625064 -0.027771749 0.09609329
-0.012080933 0.014482585 0.020781485 0.123645045 -0.11092061 -0.001967108 0.015961606 0.032408625
-0.08628302 0.0952896 -0.072024696 0.08518605 0.010163327 0.017795112 0.00021970496 -0.025589319
0.0230914 0.05008041 0.13663451 0.124337316 0.08672616 -0.047205288 0.10772439 -0.025498498
0.1296774 0.097615965 -0.07943047 0.04764968 0.0753918 0.0062957695 -0.027222998 -0.0719014
-0.06732243 -0.03850476 9.137107e-05 -0.01748761 0.0075144153 -0.015726294 -0.0300762 -0.08383458
-0.0855693 -0.06366784 0.01646288 -0.01620805 -0.16278304 -0.098255485 -0.03925611 -0.24326831
-0.21096809 -0.17344646 -0.0642436 -0.12840594 -0.15318204 -0.2507691 -0.11397584 -0.13776933
-0.11710313 -0.14135018 -0.20412342 -0.092374906 -0.3012607 -0.15127495 -0.1083623 -0.08250766
-0.18470311 -0.11161329 -0.10095497 -0.08479313 -0.16516595 -0.2003373 -0.18914391 -0.11004679
-0.14142896 -0.19113055 -0.2570164 -0.1935081 -0.17616443 -0.12319924 -0.16687082 -0.0919333
-0.16546652 -0.019876633 -0.26682413 -0.26701674 -0.23369874 -0.16049585 -0.21609817 -0.11069361
-0.14992298 -0.22785047 -0.23576094 -0.08264805 -0.23725386 -0.11432387 -0.18811992 -0.08892204
-0.08640312 -0.27600554 -0.15134436 -0.09906625 -0.10572246 -0.19876516 -0.14796458 -0.27124983
-0.18888609 -0.12813762 -0.14435823 -0.10094561 -0.09061138 -0.14329562 -0.108251266 -0.043349884
-0.08316578 -0.11634861 -0.26819682 -0.09703171 -0.059856884 -0.010695288 0.04461252 -0.045436963
-0.09508453 -0.15250537 -0.22802787 -0.18961957 -0.16620763 -0.06076085 -0.16411902 -0.15741323
-0.14029495 -0.16673492 -0.23458196 -0.15526098 -0.11863785 -0.23106527 -0.15215956 -0.24347487
-0.017198203 -0.11360584 -0.11238312 -0.12780955 -0.08561611 -0.18678422 -0.11181711 -0.15783048
0.12738088 -0.07059881 0.065831564 0.0042653945 0.14404662 0.11185838 0.14385396 0.11255394
0.07057058 -0.089027375 0.06351921 -0.012702256 -0.044404715 -0.10486141 -0.03145701 -0.105871834
0.030662043 0.030379167 0.11586503 -0.109336495 0.04917993 0.14653894 0.09836527 0.13701543
-0.04362042 0.09280041 -0.073012985 0.013304195 -0.11358241 0.10710349 0.0591847 -0.09482879
-0.008279131 -0.07747173 -0.057288658 -0.11270369 -0.030597437 -0.07832138 -0.110289514 -0.09032405
-0.0087140575 -0.12272457 0.15483305 0.08850252 0.0875088 0.043038655 0.13391727 0.10798704
0.120801486 0.026168933 0.11259637 -0.13148873 0.13947679 0.038605418 -0.06645221 -0.10441374

bias_hh f4 [300]
00000000: a043 dfbd 0923 983d 52af 06bd 9fa9 a03d
00000010: d25a 6bbd 61f5 b9bc ee70 1d3b 9a5f f03c
00000020: a0ad 6ebd 05d8 603c 85ff 0b3d f029 c83d
00000030: e00b 433d d01e 003e 9851 a0bc 1af9 ae3d
00000040: 39ab 643d 0149 bebb 49bc 45bd 1a1f 153d
00000050: 3a12 fd3d 09f2 dcbc 2bcb 83bd 0d64 b3bd
00000060: 75f4 043e 2939 24bc 12f6 863d d543 4b3c
00000070: 93a2 313c 9a9d bf3c 7b13 b03d c61f 5e3d
00000080: 64cb f63c 59e8 a83d 7f25 9a3d 6cb8 a13c
00000090: fb04 453d 2320 343d e2d2 e0bd 247e 81bd
000000a0: ca18 eebb 9b75 ae3d c71d 323d e956 28bd
000000b0: 02b3 35be 1c6c dcbb fd98 3e3d 1634 c4bc
000000c0: 66de babc 2f95 c63d bfc3 e73d 6411 6abd
000000d0: fa71 c43d cd8a 2abc 2cd7 c9bd 1767 733c
000000e0: 3bc7 8c3d 3dd0 89bb ecd3 343d 610a 043c
000000f0: 2a61 1d3c a1d1 ee3d 04cd cc3d d7f5 93bd
00000100: 6038 373b f0ba 50bd 6135 01be bdff aebc
00000110: bd7e 17be 6cbd d23c 055e b8bd a397 023a
00000120: f260 113b abfc 0ebb 0b20 793b d4f6 063e
00000130: e9e1 c33d b242 edbd 4b10 0dbc 0403 cb3d
00000140: 8014 893d e7ad cb3d 8167 5ebc 6490 513d
00000150: 3b62 0ebc d484 913d eacd 86bd 2894 813b
00000160: 30f9 11bd 1ad8 a93d 143d 7c3d f641 833d
00000170: 5274 f23d fb4d 40bd 18b7 2bbc 7083 773d
00000180: 4cec 0abe 6324 f7bd 0df2 623d 9838 ed3d
00000190: 9cfc 0abe 4009 f3bd 9859 b3bd b030 6dbe
000001a0: dcbc 5cbe bb87 20be a5f0 15be 2b57 f2bd
000001b0: 7665 54be 1b41 16be a75f 4bbe ebd3 37be
000001c0: 6abd c1bd 6950 13be 5c14 60be 5291 143d
000001d0: 8d34 edbd 7754 c1bd 37ea 2bbe ed93 48be
000001e0: 9880 a3bd ddcb 47be a881 41be 547f 62be
000001f0: d952 c1bc 77aa 5dbe bcb8 73be 6f2a b4bd
00000200: 5477 92bd f5fe 7bbe 3394 a7bd 890e 44be
00000210: c8c3 76be ad24 3fbe 52d8 82be f362 5cbe
00000220: 9602 d2bd ae94 3cbc eb76 35be 5471 1ebe
00000230: c4e7 60be ceab 5cbe 60cd 88be c4ee 43be
00000240: 4868 81be 4486 6cbe 0979 5fbe e619 58be
00000250: be1e 1abe 9011 93bd 64f4 fbbd 40ea 24be
00000260: 58a1 16be 75a8 91be 6f8e 79be 1352 57be
00000270: a6e2 9cbd 9b33 a3bd b465 d9bd 88f2 3bbe
00000280: 1be9 81be 8844 58be 9690 18be dd9d 03be
00000290: 46f6 82bd 4783 4dbe 0204 51be 67b9 26be
000002a0: fbba 4cbe 5817 aebd 70d1 97be e4c2 83be
000002b0: 95ed 82bd 42d3 e7bd dff4 00bd 0420 c4bd
000002c0: 3eff 15be aeb0 07be 51dc 46be 6a37 a0bd
000002d0: bd47 75be 9e58 3fbe 2a00 30be f549 22be
000002e0: a261 c8bd 0df5 3bbe 8663 02be 09c8 86bd
000002f0: ac91 37be 3281 fcbd 2eae b8bd 0ebb 4fbe
00000300: 66ef 2ebe 73f0 fbbd e027 48be 9044 3dbd
00000310: 6ec0 dbbd 5438 f2bd 893d 463d 4835 a7bc
00000320: 37d1 2f3a 35ce e5bd 47d4 f63d e819 1f3d
00000330: 61ba b8bb 5b07 83bc b3c7 fe3c f6b3 e33d
00000340: 95c1 9d3d 17e2 9dbd 0800 3b3e 2f23 d4bd
00000350: 187b 27bc 4c9f 2cbe db67 a4bc 4725 d6bd
00000360: 5bdb 8f3d 0268 0cbe 49e3 bf3d 7ad1 edbc
00000370: e8e9 93bd 1a0f 0abd fcf1 e9bc 01db dbbc
00000380: aaa7 11be 5cdd d83d 9b06 ccbc 0083 96bd
00000390: c1b2 d6bc b2c6 47bd bd8e 353e 5d65 29be
000003a0: 800b 003e b7ad 07be f022 00be cd35 e93c
000003b0: 06c8 51bb 8c74 f7bd 655d ac3d 9bd2 0bbd
000003c0: 299e bebd f2cd d7bd b026 ebb9 a1f4 76bd
000003d0: 51e6 663d 66e8 ba3d 3931 d43b 2bf9 d33d
000003e0: 23ae 3a3d 0ff0 933d dcc5 303e fc71 1c3d
000003f0: fede be3d be19 463e 0228 0d3d 484f a3bc
-0.1090157 0.074285574 -0.032882042 0.07844853 -0.05745966 -0.022700014 0.002402361 0.029342461
-0.05827105 0.013723378 0.03417923 0.09773624 0.047618747 0.12511754 -0.019570157 0.08543606
0.055827353 -0.0058070426 -0.048275266 0.036406614 0.12356992 -0.02697088 -0.064352356 -0.087593175
0.12983878 -0.010023394 0.06589903 0.012406309 0.010841983 0.02339058 0.085974656 0.05422952
0.030126281 0.08247442 0.07526683 0.01974126 0.048100453 0.04397596 -0.10977723 -0.063228875
-0.0072661387 0.08518525 0.04348543 -0.04109851 -0.17744067 -0.006726755 0.04653262 -0.023950618
-0.022811126 0.09696423 0.113166325 -0.05714549 0.09592052 -0.010409069 -0.09855494 0.0148561215
0.06873938 -0.004205732 0.044147417 0.008059115 0.009605685 0.11661077 0.10000041 -0.072246246
0.0027957186 -0.050959527 -0.12618019 -0.02136218 -0.1479444 0.025725089 -0.09002308 0.0004981702
0.0022183028 -0.0021818082 0.0038013484 0.13180095 0.09564573 -0.11584987 -0.008609842 0.099126846
0.06693363 0.099452786 -0.013574482 0.051163092 -0.008690412 0.07105413 -0.06582244 0.003954429
-0.035638034 0.08293171 0.061581686 0.064090654 0.118385926 -0.046949368 -0.010480665 0.060428083
-0.13566703 -0.12067487 0.05540662 0.1158306 -0.13572925 -0.11866999 -0.08757323 -0.23163104
-0.21556419 -0.15676777 -0.1464258 -0.11833032 -0.2074183 -0.14673273 -0.19860707 -0.17951934
-0.09459956 -0.14386143 -0.21882766 0.0362714 -0.11582289 -0.094399385 -0.16788565 -0.19587679
-0.07983512 -0.19511361 -0.18897116 -0.22118884 -0.023599075 -0.21647058 -0.2380094 -0.08797156
-0.07151666 -0.24608977 -0.08182564 -0.1914617 -0.24098122 -0.18666334 -0.25555664 -0.21522121
-0.102543995 -0.011510057 -0.17721145 -0.15472919 -0.21963412 -0.21549913 -0.2671919 -0.1913405
-0.25274873 -0.23098093 -0.21823515 -0.2110363 -0.1505079 -0.07181084 -0.12302473 -0.16104984
-0.14709985 -0.28448835 -0.2437074 -0.21027403 -0.07660417 -0.07968827 -0.106151015 -0.18354237
-0.25373158 -0.21119893 -0.14898905 -0.12853189 -0.06394629 -0.2006961 -0.20411685 -0.16281663
-0.19993202 -0.08500546 -0.29651976 -0.25734627 -0.063929714 -0.11319591 -0.031483527 -0.09576419
-0.14648148 -0.13250992 -0.19419982 -0.078230694 -0.23953147 -0.18686149 -0.17187563 -0.15848525
-0.09784247 -0.18355198 -0.12733278 -0.065811224 -0.17926663 -0.123293296 -0.09017597 -0.202862
-0.17083511 -0.123017214 -0.19546461 -0.046207964 -0.107300624 -0.1182715 0.04839853 -0.020411149
0.00067068957 -0.112209715 0.120522074 0.038843066 -0.0056374525 -0.015994718 0.031101083 0.11118309
0.077029385 -0.07709139 0.1826173 -0.10358273 -0.010222219 -0.16857642 -0.020069053 -0.10456329
0.070242606 -0.13711551 0.09369523 -0.02903055 -0.072223485 -0.03370581 -0.02855777 -0.026837828
-0.14224115 0.10589096 -0.024905493 -0.07349205 -0.026208283 -0.048773475 0.17730232 -0.16542573
0.12504387 -0.1324986 -0.12513328 0.028468037 -0.0032010092 -0.120827764 0.08416251 -0.034136396
-0.093075104 -0.10537328 -0.00044851517 -0.06029189 0.05637199 0.09126358 0.0064755944 0.103502594
0.045576226 0.07223522 0.17262977 0.03819464 0.09319876 0.19345757 0.034461983 -0.019935265
