data/RNN_runs/sweep_H2/rnn_sto3g_H2_0-7348_eq1_nU100_nL2_lr00025_lrsC_ns10000.pt (torch_old, 788739 bytes, 13 tensors)

weight_ih f4 [300, 2]
00000000: 7f56 1d3d b20c a0bd 40ca e4bd 8ba6 843e
00000010: 09dd 93bd de6b 3c3e 591e 50bc 2bf9 c8bc
00000020: f557 e8bd 6848 943e f972 60bc 9618 5c3e
00000030: 2b11 38be dcc6 503e 49ed f9bd 32b7 273e
00000040: 16f6 a3bc a5bd 153e 74c8 debd 2554 923e
00000050: 0faa 063d 989d 433e 2a86 de3d b43c e03d
00000060: 04b7 63bd 81d9 113e 2383 a3bd bae4 483e
00000070: 2cba 173e 0306 3bbe ddfa ca3d 105c 073e
00000080: 78b5 d53a 27bc 1f3e 582b 043d b8d9 df3c
00000090: 1345 24be 8c40 273e 8a79 d03c ee4f 08bc
000000a0: 4c39 85bd a52f ac3d 7b3a db3c 3008 4d3e
000000b0: 248e f93c 2f69 90bc eba3 5e3d c743 7e3d
000000c0: 322b 543e ab7a 41bd b6c3 05bd 7226 7d3e
000000d0: 6f98 e73b b4f9 743c e3d3 d6bd 3654 013e
000000e0: b615 ccbc 6853 ae3e 64ad be3d 1d0d acbd
000000f0: da89 2fbd a8ee aa3e 69b6 11be 5918 2a3d
00000100: 8086 193c 8c89 d93d cc55 743d 0da0 9ebd
00000110: 413a 38be 5c69 943e 4c0d f63c 7480 8e3e
00000120: 85c0 08be cd4e 403e 389c e53c 4255 543e
00000130: a0fe 18bd 69c2 c33d 9872 bf3c 773d d33d
00000140: 1af1 b13d 6966 a93d 1511 c73d d638 083e
00000150: 44b0 bfbc 6fac 143e a1ac dfbd 2a65 453d
00000160: 3d66 d43d d134 063e 1789 15be 798a 703e
00000170: 2af4 bd3d 8a4f 393e 5272 11be 3ba3 583e
00000180: e1de 523d 5068 623e a2dd 1b3e 861c 9c3d
00000190: 6951 663d bfd3 853d 9f77 ccbd 1104 9c3e
000001a0: e733 a4bd 7c7d 6d3e 1502 8b3d 9d5d 1c3e
000001b0: 2fa6 71bc 5c30 7b3e c2cd d83d d2ee 663d
000001c0: e614 c63d 020b 863d 60a7 b1bd 1690 833e
000001d0: acc5 0cbe df8b 6d3d 3b53 e13d 2890 f93e
000001e0: 4cd0 d3bd 553a 963c daca 613d a591 9ebd
000001f0: 447d 273e 5452 aa3c a271 093e fc5d 5ebd
00000200: 93a1 8c3d 558d 823e 62dd f1bd dd9c 043e
00000210: 3d7d 313d 3725 963d fa2d 61bd 2732 5f3e
00000220: f53a 623d d929 213e 63ee 99bd 38eb 5b3d
00000230: 6f9f 44bd 7aeb 103e 76f2 6cbc 8658 4d3e
00000240: 9fe1 4abd a1a4 403e e4db 08be cdcf 653e
00000250: aade 08be 8807 303e 01f6 22be 7e8f 793e
00000260: f9b0 80bc 0026 323e ee5c dd3d c16a c33d
00000270: bee7 2abe 5869 913e ae17 3bbe ee34 823e
00000280: d714 c83d edd2 063e a57d 0cbe 8db9 ed3d
00000290: 1e15 553c 7cb9 0b3e ba60 60bd 05bd e73d
000002a0: 450d bb3b d22a 983e 9fc0 d93d c44d 30be
000002b0: 7e71 abbd 45d2 4d3e b2c9 81bc ebf5 0f3d
000002c0: 3653 d3bd d551 0e3e cde9 cd3c 7d00 983e
000002d0: ca78 b8bd bd20 a13e 79c4 eebb 2aa7 cc3d
000002e0: a5fa 65bd c80f 3f3e fcc0 42bc 0623 063e
000002f0: 2d51 d63d 6e85 0fba e8f4 38be e27e 9c3d
00000300: 04e4 cc3d bdb6 283e cf1a 15be 935c 133e
00000310: 0dce 23bd 69b0 ae3d 9da5 873c 206f 403e
00000320: 7e34 d9bd e4fd 833c 22af e4bc 6286 79be
00000330: 91a4 aebd dd90 bcbd 1899 64bd 89cf 0bbd
00000340: 8894 183d 39a1 2cbe 1b96 3ebd 856b 4bbe
00000350: 6152 2c3b 31a1 80be e148 a73c 0d5a 60be
00000360: 6816 1cbc 2b61 d7bd 3abf c33c ae98 2bbe
00000370: 4bdb 32bd afe9 80be 4d9b 1fbd 60e1 2fbe
00000380: 5117 d53d c5e3 a3be 1688 1abc 069d 43be
00000390: 1507 67bc a5de 80be 6c3f 13bd a2ee c8bd
000003a0: 386b 0ebd 3a1b bebd 4fb0 63bd 132b 8abe
000003b0: 7fe2 553d b84c 51be c798 42be df14 05be
000003c0: bcef da3d 0c1d 12be 1046 c9bd 3d1f cebd
000003d0: db04 363c 3466 03be a256 11be 6e56 d5bd
000003e0: 8ce9 24bd 98ba 38be c0f0 0f3e d5cc 6fbe
000003f0: 4f61 303e 25d9 85be c0f9 58bd c322 42be
0.038412567 -0.078149214 -0.111713886 0.25908312 -0.072198935 0.18400523 -0.012702548 -0.024532875
-0.113449015 0.28961492 -0.013699287 0.21493754 -0.17975299 0.20388359 -0.12203462 0.16378477
-0.020014804 0.14623125 -0.10878077 0.28579822 0.032877024 0.19103086 0.108654335 0.10949078
-0.05559446 0.14243127 -0.07983997 0.19618502 0.14817113 -0.18264012 0.099111296 0.13218713
0.0016304692 0.15599118 0.0322679 0.027325496 -0.16041975 0.16333216 0.02544858 -0.008319838
-0.06505069 0.08407525 0.026761284 0.20022655 0.030463286 -0.01762828 0.054355543 0.062076356
0.20719603 -0.047236126 -0.032657348 0.24721697 0.007067732 0.014952112 -0.10489633 0.1262978
-0.024912696 0.3404801 0.093104154 -0.08400939 -0.042856075 0.33385205 -0.1422974 0.041527126
0.009370446 0.10621938 0.059652135 -0.07745371 -0.17990972 0.28986633 0.030035637 0.27832377
-0.1335469 0.1878006 0.028028592 0.20735648 -0.037352204 0.09558565 0.023370072 0.10314458
0.086885646 0.08271486 0.09720055 0.13302931 -0.02339948 0.14518903 -0.10921598 0.04819218
0.10371063 0.13106085 -0.14603077 0.23490323 0.09275086 0.18096748 -0.14203766 0.21156017
0.051482085 0.22110105 0.15221265 0.07622628 0.056229983 0.06534528 -0.099837534 0.30471852
-0.08017712 0.231924 0.067875065 0.15270086 -0.014749094 0.24530166 0.1058612 0.0563801
0.09671955 0.06545068 -0.086745024 0.25695866 -0.13747281 0.05799472 0.11002203 0.48742795
-0.10342464 0.018338362 0.055125095 -0.07742623 0.16356379 0.02079121 0.13422254 -0.05428885
0.06866755 0.25498453 -0.118098035 0.12950464 0.043332327 0.07331317 -0.054975487 0.21796475
0.055232007 0.1573862 -0.07516172 0.05369112 -0.04800361 0.14152327 -0.014462104 0.200533
-0.049531575 0.18812801 -0.13365132 0.22442551 -0.1336619 0.17190373 -0.15914156 0.24371144
-0.015709387 0.17397308 0.108087406 0.09541846 -0.16689965 0.28400683 -0.18270752 0.25431007
0.097696 0.131664 -0.13719805 0.11607657 0.013005523 0.13644975 -0.054779746 0.113153495
0.005708369 0.2972017 0.10632443 -0.17217165 -0.08371256 0.20099743 -0.015843246 0.035146635
-0.103186056 0.13898404 0.025135899 0.29687873 -0.09007414 0.3147029 -0.007286605 0.099928215
-0.056147236 0.18658364 -0.011886831 0.13099298 0.10464702 -0.00054748997 -0.18062174 0.076413885
0.10004428 0.16475959 -0.14561008 0.14390783 -0.039991427 0.08529741 0.016558463 0.18792391
-0.10605715 0.016112275 -0.027915541 -0.24367669 -0.08527482 -0.09207318 -0.055810064 -0.034133468
0.037251025 -0.16858377 -0.04652987 -0.19865234 0.002629422 -0.2512298 0.020420494 -0.21909352
-0.009526826 -0.1051658 0.023894895 -0.16757461 -0.043666165 -0.25178286 -0.038966466 -0.17175817
0.10404838 -0.32009712 -0.0094318595 -0.19102868 -0.01410081 -0.25169864 -0.035949156 -0.098111406
-0.03477022 -0.09282537 -0.055588063 -0.26985988 0.052217957 -0.20439422 -0.19003592 -0.12996243
0.10690257 -0.14268893 -0.098278165 -0.10064552 0.011109556 -0.12831956 -0.14193204 -0.10416876
-0.04026179 -0.1803993 0.14056683 -0.23417981 0.1722462 -0.2614223 -0.052972555 -0.18958573

weight_hh f4 [300, 100]
00000000: 69b9 2dbc a440 0c3d 7f14 6dbd 03b1 843d
00000010: ef56 503e 594f 4d3e 73ee 203e 293f 3f3e
00000020: e690 373d d183 e13d 8d2a 203c 8cee 90bd
00000030: c209 4bbe 3d8e 143d 712e 7c3d 1f0d aebd
00000040: 3bad a7bc 0005 3d3e bef0 9abd 5405 a5bb
00000050: 7920 c13d 848b 83bb 4d6e 33be b69a a8bd
00000060: 74d4 a93d a505 2ebd 606a 4e3d 05ca c63d
00000070: 98c8 5d3e 353c a83d 0a0b a4bd 2317 083e
00000080: b3b5 483d c645 793d b0fb 283e 4372 a6bd
00000090: dfdc 18be 9122 27bd 7055 39be 063d 86bd
000000a0: ffdd 553d 052c 723d 68d3 3dbe 6ca4 0b3e
000000b0: cc0d eb3c 378e 173e ed79 023d ba44 45be
000000c0: f526 0fbe 2ad6 a03d c70b 34be 18a0 b83d
000000d0: 8051 12be 1cd9 edbd c33a c83d df7b 9e3d
000000e0: 902e 593d 2e2d 17be 0ee5 003e e272 4dbe
000000f0: fc0d 1bbe a1bb fabd 7785 50bd 6d05 ce3d
00000100: e3e9 e13d 9ab9 a73d 1f52 2c3e 1fd2 1ebe
00000110: 21ea 343e 637a 303e f6a4 c93d 1f37 0ebd
00000120: b133 4fbd 2b81 e9bd 633c 573d 6893 75bd
00000130: 863e 8a3d 71d9 5f3e 18d8 59be 57c0 0e3e
00000140: ab55 dcbd 219f 1abe a594 f4bd f70b 3b3e
00000150: bbe3 8c3d a0e7 733d a103 f1bd 2d8e a4bd
00000160: 598e b83c 7ab7 ddbd 8d85 313e 3acf 1fbe
00000170: 0f50 31be fc1f 04be c704 7d3c 743d 01be
00000180: 67f6 e0bc d2fe f6bd 452a 8c3d 24f7 483e
00000190: 8f72 0f3e 2604 4abd dbf6 a7bd 226d d03d
000001a0: e697 d43b 0fc1 313e 274a d53d 61b5 ad3c
000001b0: 3261 54be fa81 eb3d 7412 6939 2d4f 133e
000001c0: becc f2bd b8f7 bebd ef73 253d 9057 86bd
000001d0: 6ffe ad3d f4ef 173d 9780 f2bd 8535 0d3e
000001e0: 4dbc c43d afcb 3f3e 78ab 8f3d 885e c63d
000001f0: 9db3 00be 6ef0 9cbd ee39 a43c 56f0 253b
00000200: b8e8 bdbd 1dc1 3dbe 1852 7a3d bf84 073e
00000210: 337f 7a3d 8a65 61bd 9b39 a83d ff8a 06be
00000220: be66 0bbe 3489 a5bd aa3f 54bd 5b92 adbd
00000230: b670 fd3d 3c24 63be e08a 2dbd b9f7 85bd
00000240: efc5 f43d c50f c73d 2f46 3abe 6260 acbd
00000250: db59 20be d36c 1abd eddf febd 0915 de3d
00000260: 3d7d 1abe 6bb1 86bd d022 13bd c4cc cd3d
00000270: 117d 0e3e 7d3d 82bd 26af e43d 20d8 d93d
00000280: 38fd 08be c6a6 29bb 74db 34be a3ee fd3c
00000290: 03a8 883d 7620 353e fe30 233e 7414 2c3d
000002a0: b7c1 103d ebaa 2c3d 5ed6 413d 1659 7bbd
000002b0: cbea 95bd 55db 98bd 1e69 a0ba 49e0 3abd
000002c0: d864 2a3e 0d1d 8c3c 9370 35bd 8c8d 1f3e
000002d0: 2772 0fbe 9e72 4fbb 241d bdbc 6220 393e
000002e0: a221 fd3d c18b 06be dac2 8bbc 0701 36be
000002f0: 500f 8b3c 9fd0 12be 4a92 afbc bd84 15be
00000300: a060 cebb 0641 14be fa5e 38bd 7470 853b
00000310: 2b4a d9bc ab01 ee3b 6ae9 dc3d 3f7b 06bd
00000320: 70b6 2a3e 95b0 7b3a c826 99bd bfdc 6d3d
00000330: 2e69 1f3e 00d8 273e 86c5 b23d 07ea 883d
00000340: 484a bdbc 7d76 8a3d c3fa 9d3c 3d43 e43c
00000350: ff3a 3fbe c0c8 e1bc e85c 263e e728 00be
00000360: 58ac 123e 7ed9 163e 83e7 0dbe 213b e33d
00000370: ac0c a33d 2d3e 5d3d 6381 1abe 696c 5b3d
00000380: d4e5 2b3d 8724 d3bd b6b5 f43c 23c5 af3b
00000390: 0795 873d 96f6 86bd 92c4 5bbd 6732 fb3c
000003a0: 0542 1f3e a880 b43c 9a13 223d 3286 26bc
000003b0: 319c 8bbd 562a 52bd 5713 47be 7f06 3fbe
000003c0: 5f17 963d f0b8 b6bb 8b12 44be 0e3e 143e
000003d0: e05b 593d c1f2 cf3c 9544 f3bc 6a51 3bbe
000003e0: 84df 68bd 523f 03be 230a c2bc 2ab0 d1ba
000003f0: 3669 1dbd e403 27bd d739 e93d 9dd2 413e
-0.010603287 0.034241334 -0.057880875 0.06479075 0.20345663 0.200498 0.15715961 0.18676437
0.04481592 0.1101147 0.00977577 -0.07076749 -0.19827941 0.03626846 0.061567727 -0.084985964
-0.020468345 0.18458939 -0.07565449 -0.0050360356 0.09430022 -0.0040144343 -0.17522545 -0.08232634
0.08292475 -0.04248585 0.050394416 0.09706501 0.21658552 0.082146086 -0.08009918 0.13290076
0.049001407 0.060857557 0.16502261 -0.081272624 -0.14928006 -0.04080445 -0.18098998 -0.06554608
0.052213665 0.05912401 -0.18537676 0.1363694 0.028693102 0.14800344 0.03185456 -0.19264498
-0.13979705 0.078533486 -0.17582618 0.090149105 -0.14288902 -0.11613676 0.09776833 0.0773847
0.05302292 -0.14763328 0.12587377 -0.20063356 -0.15142053 -0.122428186 -0.050908532 0.10059629
0.110309385 0.081896976 0.16828202 -0.15509842 0.17667438 0.17234187 0.09845917 -0.034720536
-0.050586406 -0.1140159 0.052547824 -0.05995503 0.06750207 0.21860291 -0.2127384 0.1394056
-0.10758527 -0.15099765 -0.11942414 0.18266283 0.06879374 0.059547067 -0.1176827 -0.080349304
0.022528814 -0.10826011 0.17336102 -0.15606394 -0.17315696 -0.12902826 0.015443034 -0.12621099
-0.027461244 -0.12060322 0.06844 0.19625527 0.14008544 -0.049320363 -0.08201381 0.101770654
0.0064878343 0.17358802 0.10414534 0.021204652 -0.20740202 0.114994004 0.00022227486 0.14385672
-0.11855458 -0.09324592 0.040393766 -0.0655967 0.08495795 0.03709407 -0.11840933 0.13789947
0.09606228 0.18730043 0.07015127 0.09685999 -0.12568517 -0.07663046 0.020047154 0.0025320253
-0.09272903 -0.18530698 0.061113447 0.13234232 0.061156463 -0.055028476 0.08214112 -0.1313896
-0.13613412 -0.0808281 -0.051818527 -0.08475181 0.123750135 -0.22181791 -0.04236877 -0.0654139
0.11951815 0.09719805 -0.18190835 -0.08416821 -0.15659277 -0.03770144 -0.12445054 0.10843856
-0.15086837 -0.065768085 -0.03592187 0.100488216 0.13914897 -0.06359384 0.111662194 0.10636926
-0.13377845 -0.0025886758 -0.1766184 0.03099758 0.06672671 0.17688164 0.15936658 0.042011693
0.03534099 0.042155188 0.047323577 -0.061364256 -0.07320174 -0.07463709 -0.0012238359 -0.04562405
0.16640031 0.017103696 -0.044296812 0.1558134 -0.1400839 -0.003165401 -0.023085184 0.1807876
0.123599306 -0.1313925 -0.017060686 -0.1777383 0.016975075 -0.14337395 -0.02143206 -0.14601417
-0.0062981397 -0.1447793 -0.04501245 0.0040722433 -0.026524624 0.0072633824 0.10786708 -0.03283238
0.16671157 0.0009601203 -0.074781 0.058071848 0.15567467 0.16390991 0.08729081 0.06685262
-0.02310671 0.06760881 0.019284612 0.027864093 -0.18674849 -0.027561545 0.16246378 -0.12515603
0.14323556 0.14731404 -0.13857846 0.11095262 0.07961401 0.054014374 -0.1508842 0.053570185
0.041967228 -0.103097014 0.029871803 0.0053640767 0.066202216 -0.06590001 -0.05365426 0.030663682
0.15552528 0.022034004 0.039569475 -0.010163831 -0.068169005 -0.051309906 -0.19440971 -0.18654822
0.073286764 -0.0055762455 -0.19147699 0.14476797 0.053066134 0.025384309 -0.029695788 -0.18292776
-0.056853786 -0.12817124 -0.023686474 -0.0015997936 -0.038430415 -0.040775195 0.11387985 0.18927999

bias_ih f4 [300]
00000000: 92bf 663d ef9e 543e aba0 2c3e 52ed 1a3e
00000010: e40f 283e 1872 7a3e 44e7 be3d cb30 273e
00000020: b679 8a3d 5ad8 f03d f8f3 c43b bffe 363d
00000030: ed96 c23d 8b63 ee3d 3a34 983c 9acf 1b3e
00000040: de3a aabc 45ea 55bb afca 423e 47d8 db3d
00000050: 62a3 753d bda6 d53d 1716 933d 8057 263e
00000060: 93d8 cb3d 96cf 423d 7894 f2bc 696c 4f3d
00000070: c64b 103e ad94 613d 4370 1c3c c6a8 063e
00000080: 2ebb d23c 9b8a 803c 5162 003e 259c 553e
00000090: 757f 233e 89d5 4e3e 6a78 973c 4697 763c
000000a0: 4f6f 223d cf42 4c3e 7237 863d b9f6 0abe
000000b0: c440 233e 1c71 f93d 4c2b c23d 0995 563d
000000c0: cbf4 123e 37fa 4c3d 0768 e53d b789 893d
000000d0: fc6a d43d 7a36 093e 1f55 c63d 660d e53d
000000e0: fb4f bebc 4d9d a43d a99a 9e3d 5696 9e3d
000000f0: 11bd b5bd 7f20 1ebe 26de 853c 1131 d7bb
00000100: 4a81 403e 049a bdbc b4a9 e93d e042 b43d
00000110: 8efa 7b3d eb2e 823d 429a fd3b 8a7d aa3c
00000120: 5971 eb3d 7d3d 013d 4d1d 033d 2b5f 903e
00000130: 70ee bb3d dbdd 723a c911 963e a23d 833e
00000140: 3c7a dd3d dcd8 a0bd 2582 ae3d bd9d bcbc
00000150: 4fb9 003e 181d e83d a302 2e3c 5f27 fc3d
00000160: d3bd 9a3d 4c0e 103e e73d 253d d2a9 033e
00000170: 97f0 0a3e e31c 69bc 6fe9 f13d 8e6d b33c
00000180: 4b5d 363e 4d32 1c3e 309d 073e 0f24 c33b
00000190: 87b4 eebd 0c0d 86be 9883 afbd 0f8e e1bd
000001a0: 9982 1cbe 74a5 69be 919b 38be 0d16 87be
000001b0: d39c 1dbe 5d9d 12be 3aab e1bd 021a e5bd
000001c0: 37a9 3ebe 3323 a5bd f036 73be 2468 06bd
000001d0: cce1 1fbe b8b2 2dbe 0719 25be e397 85bd
000001e0: 2543 cebd cc49 47be ae0b 77be f3e6 03be
000001f0: 9b2b 97be 3e39 4dbe d219 5fbe 12d1 9ebe
00000200: b31a 8cbe abc0 19be 3579 a4be 3df8 cabd
00000210: 1f95 94bd 2571 afbe 9010 5dbe 1887 a9bd
00000220: ab77 5fbe 8d0f e6bd 5930 5bbe 1d01 f0bd
00000230: 2516 7bbd 46a9 e2bc 456a 80bc f91d 7cbe
00000240: 5999 33be 5baf debd 49c5 dc3b 0e0f 9fbd
00000250: 7695 39bd a4f4 4cbc 4592 4ebc ddad 8ebe
00000260: 24ed 77be 8b9f 1abe 698b 8cbe 5271 89bd
00000270: 4ba3 063d 60aa 91be 7028 6bbe beb4 82be
00000280: a755 8abe 666f 8cbe 4cac 70bd 1f14 b4bd
00000290: 8404 e1bd 7d71 febd 4561 92bd e06d 84be
000002a0: 4750 07be af1d ccbd 36ef 48be adec c0bd
000002b0: ad62 32be 71c8 32be e5c9 f7bd ce5a 8dbe
000002c0: d123 06bb afb3 46be bd52 8bbe 3e0a 2abe
000002d0: d148 9fbd 92d4 3b3a 0bdb 30be 72c5 e8bd
000002e0: 078b 3dbe d765 aebe 1462 5ebe 9af8 893a
000002f0: d610 42be 14ae 94be c98e 9bbe 375b 29be
00000300: 01dc ddbd 748e 6e3c a1e3 1cbe a42f 5dbe
00000310: 304d c7bd 7252 21be 1e20 1cbe c7d8 81bd
00000320: 6934 1d3d cf85 3a3e 791b 61bd cb67 e53d
00000330: b1e1 723e a3c6 1b3e 02d8 113e bb02 cd3d
00000340: f8f8 c5bc 98fb 3d3d 0afc fc3d 7023 68bd
00000350: 4558 00be 0792 ffbd ffe5 4b3e ac1f e1bc
00000360: 17d7 89bb 6ea5 193e d7e4 4abd fb56 a2bd
00000370: 49d2 6c3d 79b0 1d3e 57dc 1dbe 078a 173d
00000380: c243 183e 1c40 0ebe e6aa e43d 2bdd dd3c
00000390: 89cd d73d e9f4 883d 72ca 1cbe 2bc4 073e
000003a0: 031d 9e3d d99d 403e 4341 393e 6d78 2dbe
000003b0: a9ec 61bd f0f7 07be b540 9abd d895 a9bd
000003c0: 3d5c dd3d 0684 9d3d 1836 46be 8ca7 e53d
000003d0: 5234 af3c 61a8 253e a603 e5bd 6254 b53a
000003e0: d8ca 32be 21fa 56bd aa9b 2abe d089 4f3e
000003f0: 891e 4fbe 3aca d1bd 51fb 013e 37e9 1a3d
0.05633504 0.20763753 0.16858165 0.15129593 0.16412312 0.24457586 0.09321454 0.16327207
0.06761496 0.11760016 0.0060105287 0.04467654 0.09501443 0.1164008 0.018579591 0.15215912
-0.020780023 -0.0032640856 0.1902263 0.10734611 0.059970267 0.104321934 0.07181948 0.16244316
0.09953418 0.04756125 -0.029611811 0.050640497 0.14091405 0.05507343 0.00954825 0.1315032
0.02572402 0.015691092 0.12537505 0.20860346 0.1596659 0.20198645 0.018490035 0.015050715
0.039656933 0.1994736 0.06553544 -0.1357068 0.15942675 0.12179777 0.094809145 0.052388225
0.14351194 0.05004331 0.11201482 0.0671572 0.10371968 0.13399687 0.09684204 0.11184196
-0.023231497 0.08037815 0.07744343 0.07743518 -0.08873952 -0.15442084 0.01634128 -0.0065671285
0.1879932 -0.02314473 0.114093214 0.08801818 0.061518244 0.06356605 0.007739336 0.020811815
0.11496229 0.03155278 0.032010365 0.28197607 0.09176338 0.00092646264 0.29310444 0.2563296
0.1081433 -0.07853863 0.08520917 -0.023024434 0.1257069 0.11333674 0.010620746 0.12312197
0.07555737 0.14067954 0.040342238 0.1285775 0.1356834 -0.014228079 0.11812102 0.021902826
0.17809026 0.15253563 0.13243556 0.0059552263 -0.116555266 -0.2618183 -0.085700214 -0.11013424
-0.15284194 -0.22817022 -0.18028094 -0.2638401 -0.15391855 -0.14317842 -0.11018987 -0.11186601
-0.18619238 -0.08063354 -0.23751426 -0.03281416 -0.15613478 -0.16962707 -0.16122828 -0.06523111
-0.100714006 -0.19461745 -0.24125549 -0.12881069 -0.29525456 -0.20041367 -0.21787193 -0.31018883
-0.2736412 -0.15014903 -0.32123724 -0.09910629 -0.07255005 -0.3426601 -0.2158835 -0.0827772
-0.21822993 -0.11233435 -0.21405162 -0.11718962 -0.061300416 -0.027668606 -0.015675673 -0.24620809
-0.17538966 -0.1087329 0.0067373854 -0.07766543 -0.045308553 -0.012509499 -0.012608116 -0.27867022
-0.24211556 -0.15099923 -0.27450112 -0.06711067 0.032870572 -0.28450298 -0.22964644 -0.2552852
-0.27018473 -0.2742874 -0.058758065 -0.087929 -0.109871894 -0.1242399 -0.07147459 -0.25865078
-0.13214217 -0.09966599 -0.19622502 -0.09420142 -0.17420454 -0.17459275 -0.12099055 -0.2760834
-0.0020468126 -0.19404481 -0.27211562 -0.1660547 -0.077775605 0.00071651593 -0.17271058 -0.11365785
-0.18510066 -0.34062073 -0.21717101 0.001052636 -0.18951735 -0.2903906 -0.30382374 -0.16538702
-0.10832978 0.014560331 -0.15321209 -0.21600205 -0.09731519 -0.15754107 -0.15246627 -0.06340175
0.03838006 0.18215106 -0.05495784 0.112014376 0.23718907 0.15212493 0.14242557 0.100102864
-0.02416657 0.046382517 0.1235276 -0.05667442 -0.12533672 -0.124790244 0.19911955 -0.027480923
-0.004206549 0.15004513 -0.049534645 -0.079267465 0.05781773 0.1539935 -0.15416084 0.036996868
0.14869598 -0.13891643 0.11165409 0.027083 0.105372496 0.06687338 -0.15311602 0.13258426
0.07720377 0.18810214 0.18091302 -0.1694047 -0.055157337 -0.13278174 -0.07531873 -0.082805336
0.10808609 0.07691197 -0.19356573 0.11213598 0.021387253 0.16177513 -0.111823365 0.0013834352
-0.17460191 -0.052484635 -0.16660944 0.20267415 -0.20226492 -0.1024365 0.12693526 0.037820067

bias_hh f4 [300]
00000000: 5582 7b3d e8da 873e d9e3 453e f80b a33b
00000010: deb8 203e 9230 c43d 4107 a33b a41d a33c
00000020: 268d ad3c de9c 55bd b350 fb3d 8950 023e
00000030: 935c ca3d a736 b63d 9f99 42bd 916b b53d
00000040: b9e7 0f3e 61b2 9a3d e561 0c3e 1b11 b1ba
00000050: 8777 fd3d 36a8 9d3d 6227 4a3c 2e95 363d
00000060: 5f19 d43d 18e1 5cbc 2c92 5a3d 736d 4b3c
00000070: 9c6f 743c a221 bd3d 00df 0a3e 2b3f e73d
00000080: 55e5 ad3d feda 05bc 743f 513e a325 4d3e
00000090: 3a43 703e bdf1 d93d 4aaa 243e 34b0 e83d
000000a0: 5adc 2b3e bdc3 5b3d ad94 ea3d 6e54 e4bc
000000b0: 8910 dcbb e222 e2bc e1d8 cb3d 734b 40bd
000000c0: cf29 f43d fdac 5c3d 4fc6 e73d 0599 8c3d
000000d0: f500 963d 03f5 a23c 1d35 023e ca8b d03d
000000e0: 2bd2 303d 08be dc3d 2daf 203c a154 373e
000000f0: 05df bfbc 7d0f 90bd 5f89 2c3e 242a 9b3d
00000100: 8444 1d3e 1192 813c 7cc7 2c3b ab82 113e
00000110: 4067 243e eb1c 96bd fc22 533d def1 8a3d
00000120: eb76 af3c d073 213e d8e2 603e 793e 773e
00000130: 5300 373e f68c 0d3d ad81 073e 31e9 a73d
00000140: 06a1 a73d fe35 9ebd bf7d 97bd ad8c 0bbe
00000150: 01c5 8d3d c87c 79bd fc22 d2bb 0fc9 e83d
00000160: ee3d 203d 34a8 253e e245 e63d 359a e23d
00000170: a7b9 1f3e 8d73 7d3d ebbc 213e 6007 ab3d
00000180: 5538 1f3e 1fbe 293e 4f28 783d f880 3f3d
00000190: ce1f 79bd 6cf7 96be 2c00 ffbd b508 79bc
000001a0: e531 e6bd a3f2 b0bd b890 80be 9e51 9abe
000001b0: 10a6 0fbe e7c1 2dbe 0603 60be 7e18 cebd
000001c0: 81d5 8fbe df1d 84bc 0146 64be 75c9 ecbd
000001d0: 633a bfb9 b548 29be 1d14 31be a3f8 12be
000001e0: d8bc 4dbb 7f57 86bd 7774 acbe e640 e8bc
000001f0: 5725 21be 986e 21be ce40 01be 7d63 86be
00000200: da6d aabe 6c9d b3bd cb70 83be 7334 abbd
00000210: ed7a b1bd 4e29 49be b4eb 43be 3aca d4bd
00000220: ab9f b6be 4804 7fbe 3f76 62be 5e68 5ebd
00000230: 635d 80bd 172d 1dbe f0d6 58bd bd9a 34be
00000240: 5577 0bbe 2267 95bd dbdb d8bd d7b7 06be
00000250: f0b4 a2bd 1c12 14bc e932 bebd c37a 8bbe
00000260: 80ea febd cc58 dabd 5988 04be 76f5 0cbd
00000270: 9d9c e6bd 2c64 42be 4cca 24be 5018 48be
00000280: 3d46 63be 7ac9 5bbe 56a5 e6bd 4876 c4bc
00000290: 3af4 28be 7032 50be 9d70 09be db01 bebe
000002a0: ac39 abbd a12b 53be ddc4 fabd 8345 1f3c
000002b0: ff90 f2bd f21f 24be 98a0 2cbe d8b6 80be
000002c0: 52a1 6dbc 4c26 b3be e8c7 51be 617c 5ebe
000002d0: 3b5e 1dbd f03d d8bd 7970 4ebe 92c2 0bbe
000002e0: ebf9 82be 7179 b9be c62a 93bd 0d9a 60bd
000002f0: 2447 57be d0ba 95be 95aa aabe 574a e6bd
00000300: d0ff 57be dcf5 babc f9e0 15bd 8535 cbbd
00000310: aa6a 11be 2504 88bd 8364 a3bd 036d 64be
00000320: 6edb d83d 899c 2b3e 8eea afbd bf9f a0bd
00000330: 897b 503e d95d 663e da8d a13d b41b 0a3e
00000340: b791 203d 1334 1a3d 386c 1a3e c44e 70bc
00000350: e5ee 57bd 283e 4dbd 2332 e93a 2898 f739
00000360: 3a51 e03d 7662 d73c e813 07be 867c 293d
00000370: 62ae 3b3d acfc 313e ff78 b7bc 6dba bb3d
00000380: f3a4 253c 7038 d8bd 613b e73b d2bc a53d
00000390: b106 ca3d d467 1a3d e659 4fbd dbac f73c
000003a0: 2239 853d f13d bb3c 01fd 1c3e a125 06be
000003b0: 20a2 27be 9a2b 89be fddb d6bd 3ef0 1d3c
000003c0: 1c7e 4abd 9e8e fd3d 893f eabd f262 b0bc
000003d0: 0db5 a13d 8d56 c33d 71fa a3bc dd45 65bd
000003e0: e1a9 3dbe 5afd 5e3a 8664 36be 7036 fb3d
000003f0: 9331 3bbe 3154 13be 1687 053e 1e6c 583d
0.06140359 0.265342 0.19325198 0.004975792 0.15695521 0.095795766 0.00497523 0.019911595
0.021185469 -0.052151553 0.122712515 0.12726034 0.098809384 0.08897143 -0.047509786 0.08858407
0.14053239 0.07553554 0.13709219 -0.0013509126 0.12376314 0.07698099 0.012338491 0.044575863
0.10356402 -0.013481401 0.053362057 0.012416231 0.014919188 0.092349306 0.1356163 0.11291345
0.08491007 -0.008169888 0.20434362 0.20033889 0.23463145 0.10641811 0.16080585 0.11361733
0.16783276 0.053653467 0.11454139 -0.02787229 -0.0067158383 -0.027604524 0.09953476 -0.046946954
0.11922037 0.053875912 0.11317121 0.06865124 0.07324401 0.019892221 0.12715574 0.10182913
0.04316918 0.10778433 0.00980739 0.17903377 -0.023421774 -0.07034204 0.16849278 0.07576397
0.15358168 0.01581672 0.002636402 0.14210002 0.16055012 -0.073297344 0.051547036 0.06784414
0.02141901 0.15766835 0.21961534 0.24144925 0.17871217 0.03455826 0.13233061 0.081987746
0.0818501 -0.07725142 -0.07397031 -0.13627882 0.06922341 -0.060910016 -0.006412862 0.11366474
0.03912156 0.16177446 0.11243798 0.11064569 0.15598164 0.061877776 0.15794723 0.08351016
0.15548833 0.16576432 0.060585316 0.046753854 -0.060821347 -0.29485643 -0.12451205 -0.01519983
-0.112399854 -0.08640029 -0.25110412 -0.30140394 -0.14028192 -0.16968499 -0.21876153 -0.10063265
-0.28092578 -0.016127525 -0.2229233 -0.115618624 -0.0003647386 -0.16531642 -0.17292829 -0.1435266
-0.0031393077 -0.06559657 -0.33682606 -0.028351258 -0.157369 -0.15764844 -0.12622377 -0.2624778
-0.33286935 -0.0877026 -0.25671992 -0.08359613 -0.08666024 -0.19644663 -0.19132882 -0.10390134
-0.35668692 -0.24903977 -0.2211542 -0.05429875 -0.06267812 -0.15349232 -0.052939355 -0.17637153
-0.1361974 -0.07295062 -0.10588809 -0.13156067 -0.07944667 -0.009037521 -0.09287054 -0.27242097
-0.12447071 -0.10661468 -0.12942638 -0.034413777 -0.1126034 -0.18983525 -0.16092795 -0.19540524
-0.22194763 -0.21463576 -0.11262004 -0.023982182 -0.16499415 -0.2033174 -0.13421865 -0.3711079
-0.083606094 -0.20622112 -0.1224458 0.009721163 -0.11844062 -0.16027811 -0.16858137 -0.251395
-0.014503794 -0.34990156 -0.20486414 -0.21727134 -0.038419943 -0.10558689 -0.20160092 -0.13648441
-0.25581297 -0.36225465 -0.07185893 -0.054834414 -0.21023232 -0.2924409 -0.3333327 -0.11244648
-0.21093678 -0.022822313 -0.036591504 -0.099223174 -0.14200845 -0.066414155 -0.079781555 -0.2230721
0.10588728 0.16758932 -0.0858966 -0.07842969 0.20359625 0.22496738 0.07888384 0.1348713
0.039201465 0.037647318 0.15080345 -0.014667217 -0.052718062 -0.050108105 0.0017791431 0.00047224876
0.10952993 0.026292067 -0.13191187 0.04137852 0.0458206 0.17381543 -0.022396563 0.09166417
0.010110128 -0.105576396 0.007056639 0.08092655 0.098645575 0.037696674 -0.050622843 0.030233791
0.06505038 0.022856684 0.15330888 -0.13100292 -0.1637044 -0.26791078 -0.10491178 0.009639798
-0.049436674 0.12380718 -0.114378996 -0.021531556 0.07895861 0.095379926 -0.02001688 -0.05597483
-0.18521835 0.000850638 -0.17811784 0.122662425 -0.1828063 -0.14387585 0.13039812 0.052837484

weight_ih f4 [300, 100]
00000000: 5545 8f3c 9224 633d 847b b23d 7d45 3bbd
00000010: 3f86 afbd 636f 893d 4661 3f3d 1dc4 653d
00000020: 52f4 1c3d 6f96 fe3d ff93 a9bd 49d1 633d
00000030: 93ad 563d 313d 02bd 765c f73d 7bfa 823c
00000040: 5fd9 ef3d 4040 253d 03ff f9bc 136d 7dbd
00000050: 0a14 883d b514 84bd 6480 fabc ffd9 5fbd
00000060: c02c 073e 4580 3abc a4ed a23c 78ff 0f3e
00000070: cda3 263e 63b2 e13d 9a7c 02be 0af0 32bd
00000080: c35d c7bd 95df aa3d abb6 b1bc e585 acbd
00000090: fff9 92bd e605 e73c 6264 e6bc 489e f6bb
000000a0: 3d16 4cbb 6b5d a03d e4ff 9fbd ed48 333e
000000b0: eaae 91bd efc3 ec3d 172f 55bc 87c5 f3bd
000000c0: 38eb a83d 4c6e 093d a234 8b3d 97a0 c03d
000000d0: 6f18 803b 643d ad3d aecf 89bd 5645 b43d
000000e0: 3cb8 b13d 4b1e ccbd 73dc 143d 01f1 993c
000000f0: b243 87bd 47bb bfbd 4bf2 493d 461a d7bd
00000100: 8105 023c 9213 973d 2092 8e3c 03d7 a3bd
00000110: 544b 72bc e602 183e 51ed bdbd f68e 13be
00000120: 9a17 16ba 6ea9 a2bd 1f7c 723c 90d4 d83c
00000130: 9162 80bd 8486 143e 4ee1 803d 1fa8 493d
00000140: 04b2 6fbd 20f3 a8bd 63cc a2bd 9dfd 1a3e
00000150: 44ce a63d 9602 423e fc63 7fbd e247 073d
00000160: 0eb4 a6bd 6ebd 793c d02e 3a3e eccb 35bd
00000170: a51e 8dbc f1b2 62bd 17e9 ac3d 3ebc b3bc
00000180: 79cd eebc f5ed c6bd a4a4 433d 3dd9 8fba
00000190: b6e9 d4bc c78d 383e de17 11be 3e9e 7a3c
000001a0: fb4c a03b 7d74 233e 8d04 e23c 29f6 ef3c
000001b0: ced8 b3bd 59eb d63d a64d b5bc 322f 3bbd
000001c0: e6a7 89ba 455c b4bc bade aa3d 5e8f f7bd
000001d0: 0475 143e 6d3a 2a3e 3ab7 55be adcc 9e3d
000001e0: 4a0c 383e 276b 1c3e 0fb4 d9bd 9114 de3d
000001f0: 1e3c 583d d6d3 9dbb bce4 f53c e543 cd3c
00000200: 824a 883d 67ca 48bb a789 65be 744a 1e3e
00000210: 500e b83d fc35 8c3d 8133 c03c 18a4 f2bc
00000220: 13c0 57be df9b 01be b900 eabd b737 fdbc
00000230: d6d8 873d a082 6cbd deb0 02be cb80 d43d
00000240: 2bcb 00bc fd12 ab3d 3b09 26be 930f 48bd
00000250: 30ec 17be 5416 3fbd 1fef 943c dd3d d13d
00000260: 9a0b 02be 75df 85bd 33a3 e83c b43e 0b3b
00000270: 2480 273c 3c9d 40be 2dff 353e af1b c2bd
00000280: 3c29 bbbd 4e09 5ebd fda0 cbbd b31f 11b7
00000290: b0fb 083d ca9c 853d d9c3 163e b6d4 67be
000002a0: 93e9 57bc e09d 4c3e 95b6 2c3e d252 6ebd
000002b0: 56f4 75bd 332b 97bd 4f1d cc3d 99a8 aebd
000002c0: 7a71 c7bc 1825 7f3d acf9 c7bd fa14 003e
000002d0: f35b 1b3d 0170 b7bc fe31 12bd 3416 2b3e
000002e0: a4db ab3d ca37 8a3d cfa4 ccbc 647e bbbd
000002f0: 021e ae3d 4d3d a5bd b5ab 643d f0ee c4bd
00000300: 6ac2 eebd df2b 043d b0f8 c93c a8e7 a0bd
00000310: c624 20bd 699f 06be cf96 273e 3401 ca3c
00000320: 4a95 3cbc 7952 bb3d 08bf fab9 0509 ef3d
00000330: dff3 ad3d 09ec 133e 3aaf 453b 4b28 133e
00000340: 94cb c3bd 1dcd 163e 1032 3d3e c563 0f3d
00000350: 5338 6fbb 4a94 e1bd 4db8 1a3e e16a a9bd
00000360: 6945 3b3e 91ff a13d 5f76 1dbe bdf4 df3c
00000370: 716c bd3d 19a1 2d3d 0f90 aebd c932 e13d
00000380: 4489 4e3d 50e9 10be 2a09 f43d 68f9 543e
00000390: 2f39 06bd 8811 ed3c 1ad9 d6bd 2e2a 083e
000003a0: b796 793b 1f2b 1d3e 8afa 823d ef09 00bb
000003b0: bd1c e9bd 05cd e4bd 7087 edbd 4eee e5bc
000003c0: f3d9 413e 5787 17be ca27 f0bd 90b1 153e
000003d0: 625a 953d baae 9b3d f931 0abe 3329 cabd
000003e0: a2cb abbd 2026 1dbe d465 cfbd eb78 103d
000003f0: 8ce9 35be 5c00 2abd e7a0 2d3e 53ca 2a3e
0.017489115 0.055454798 0.08714965 -0.045720566 -0.08570527 0.067106985 0.046723627 0.05609523
0.03831894 0.12431037 -0.08280181 0.05561951 0.052411627 -0.031796638 0.120781824 0.015988579
0.11711382 0.040344477 -0.030517107 -0.0618716 0.06644447 -0.06449262 -0.0305788 -0.054651257
0.13200665 -0.011383121 0.019888707 0.14062297 0.16273423 0.11020353 -0.12742844 -0.04368595
-0.097346805 0.08343426 -0.021693548 -0.08423976 -0.07176589 0.028201055 -0.028124038 -0.007526193
-0.0031141185 0.07830318 -0.07812479 0.17508288 -0.0711344 0.11560809 -0.013011715 -0.1190291
0.082479894 0.033552453 0.06797148 0.0940563 0.0039091627 0.08458975 -0.06729065 0.08802287
0.08677718 -0.099667154 0.03634305 0.018791677 -0.06604709 -0.09361892 0.049303334 -0.10503058
0.007935883 0.073767796 0.017403662 -0.079999946 -0.014788467 0.14844856 -0.0927378 -0.14410004
-0.0005725563 -0.079424724 0.014800101 0.026468545 -0.062688 0.14504439 0.062929735 0.0492326
-0.05851938 -0.082494974 -0.0794914 0.15135808 0.08144811 0.18946299 -0.062351212 0.033027537
-0.081398115 0.015242917 0.1818192 -0.04438393 -0.017226527 -0.055346433 0.08442896 -0.021940347
-0.029150711 -0.097133555 0.047764435 -0.0010974776 -0.025990348 0.18022834 -0.14169261 0.015296517
0.0048919893 0.15962406 0.02759006 0.029292183 -0.087815866 0.10494108 -0.022131752 -0.045699306
-0.0010502308 -0.022016654 0.08343263 -0.12087892 0.14497763 0.1662385 -0.20870677 0.077538826
0.17973438 0.1527525 -0.106300466 0.108437665 0.052791707 -0.0048165126 0.030016296 0.025056789
0.06654836 -0.003063822 -0.22415791 0.15458089 0.08987105 0.06846234 0.023462059 -0.029619262
-0.21069364 -0.12657116 -0.11425919 -0.030910356 0.06633155 -0.05774176 -0.12762782 0.10376128
-0.007860939 0.08353231 -0.16214459 -0.048842978 -0.14836192 -0.046652153 0.018180428 0.102168776
-0.12699738 -0.06536762 0.028398132 0.002124709 0.010223422 -0.1880998 0.17773123 -0.094779365
-0.09138724 -0.054208092 -0.099428155 -8.650054e-06 0.033443153 0.06524046 0.14723147 -0.22639737
-0.013178247 0.199821 0.16866525 -0.058184452 -0.06004747 -0.073812865 0.09966528 -0.08528251
-0.024346102 0.062291235 -0.09764418 0.12508002 0.037929486 -0.022392275 -0.035692208 0.16707689
0.083915025 0.06748922 -0.02498093 -0.091549665 0.08501817 -0.08068333 0.055827815 -0.09615886
-0.11658175 0.0322684 0.024654716 -0.07856685 -0.03909757 -0.13146748 0.16366123 0.024658777
-0.011510203 0.0914659 -0.00047826045 0.11671642 0.0849378 0.14445509 0.0030164258 0.1437084
-0.09560314 0.14726682 0.18476129 0.035007257 -0.0036502078 -0.11014612 0.15109368 -0.08272339
0.18288197 0.079100735 -0.15377186 0.02733838 0.09249199 0.042389963 -0.08523571 0.109960146
0.050423875 -0.14151502 0.119158104 0.20798266 -0.03276938 0.028939024 -0.104906276 0.1329734
0.0038084218 0.1534848 0.06395443 -0.001953717 -0.113824345 -0.11171917 -0.11598098 -0.028067734
0.18930797 -0.14797722 -0.11726339 0.14618516 0.0729263 0.07601686 -0.13495626 -0.098711394
-0.08388449 -0.15346575 -0.10126844 0.035271566 -0.17764872 -0.04150425 0.1695591 0.16678743

weight_hh f4 [300, 100]
00000000: 896e 943c 51cd 8abd 0474 4d3b 7a77 28bb
00000010: 3d4d ee3b 92c5 c7bb 4061 2b3e d413 b13d
00000020: 012a 5c3d 82fb dfbd a196 943d 5e93 acbd
00000030: 3d11 79bc adec 263d 623c 3f3d 148b 00be
00000040: b64a 123e 00e1 c9bd 46f2 ba3d 528b b33c
00000050: 864a bbbc 1f78 a0bc 0900 0d3d 0ce8 25bc
00000060: c8f9 36bd a9de d33c 6887 c43d 7fe3 1e3d
00000070: 5b62 b4bd 191b 88bc 3f30 da3b 4a56 cf39
00000080: 6d20 043e 6754 55be 96ed 233d b028 453a
00000090: 04a0 e4bd e8e1 8f3c 6582 acbd d608 523d
000000a0: 871b 80bd ff64 10bd 9d00 e3bc cd2a 6ebb
000000b0: 723c d93d a43b d63c 7d84 b5bd 1953 b03d
000000c0: b799 a13d bde2 183e a9aa a7bc ce1f f1bd
000000d0: 2d74 94bc 921d 273d 4838 14be c710 ec3c
000000e0: 2ee3 ae3d 38c5 f43d 1cdf ddbc 9be9 043e
000000f0: 26c4 ebbc 365c d2bd e459 f13c f3df 84bd
00000100: 26cc 15be 0107 88bb ba1f de3a d657 e1bd
00000110: ed1a 963d c34b abbd 09b0 d2bd 86b0 72bd
00000120: 12c2 cfbc 9834 a33c b26f 943d aed4 bcba
00000130: f7a9 da3d d684 d6bd fe22 213b a10b efbd
00000140: c70a d7bd e8b8 893d 910e 04bc 9938 623d
00000150: a89f 293d 049a 53bc 4e87 eabc 1853 7dbd
00000160: 7ec2 74bc 5dc8 c1bc 0d42 1b3e c009 353c
00000170: a073 5a3d 68e7 36bd 24c2 07be fee4 cb3d
00000180: 4d36 073d ac74 053e fd8e 4c3e 9d23 0a3d
00000190: 752a a9bb f921 c8bd 393e e53c 920d d1bd
000001a0: 2314 2e3e 0edb cc3d e267 a73b 9f3b 703d
000001b0: 73e1 813d 0b59 bdbd 92e2 193d ba63 3cbd
000001c0: e0a4 9dbc ae5a 813c fbfd c73d cd58 13be
000001d0: 0578 f03d 167b 04be 7485 273e 457f 9abd
000001e0: a2ea f03c aabd 193c 57a3 953d 8b3c d33d
000001f0: 5aa4 cf3c ebe7 063e eaf4 963c b223 353d
00000200: f466 12be 0045 fa3d 0dfd 0d3e 450f 11be
00000210: 6e79 dc3d 5036 0ebe 5ce1 24be 2427 acbd
00000220: a056 e8bd 25c3 243c 504f 11be c79d 0c3e
00000230: 6f3f f8bd 28c7 46bd d9dc 583d d24b 99bc
00000240: e2b1 18bc 5252 093e 8f99 cb3d fa3d bb3d
00000250: 52a7 323d 9d0f b03d 856c 9e3d 8a4e cebd
00000260: 0712 e73d 6f81 9a3d d42f c3bd a815 1bbe
00000270: 0e7f d0bc 277c f93d 987e 09bd 244b 3039
00000280: f6f9 67bc 75cc 57bd a8f2 103d b102 1fbe
00000290: 63fb 22be a40c 9b3c 82fa c83d cb92 67bd
000002a0: 4ae4 103d b397 31ba 9cc4 00be 978d 07be
000002b0: 5f61 b1bd 6f26 aa3d cf54 e83c f024 d23d
000002c0: 6dc3 343d 25c4 acbd 3bf5 1f3e 2c50 0bbd
000002d0: 03c7 d73c b940 a83d 0d41 b63d a2fb 47bd
000002e0: 656e 08be eca3 09bd 3092 d0bd 4b8f 95bd
000002f0: 3bc2 3cbd 45ab 0f3e 66bd b23d 79d5 efbd
00000300: 239d 143e 102c eabc 4d1a 52bd 6c50 043e
00000310: 6c81 ec3b 366b 083e f03c 003d 5674 debc
00000320: 6957 ef3d f006 40be 122c 053e fd7f 55bd
00000330: 5cd2 503d 1001 163e f8e5 a73d 1881 e43d
00000340: 5e86 583d a7d9 d1bd 42ca ba3c 2aef d8bd
00000350: 2b53 40bd 8167 cfbd 7392 083e e477 dcbd
00000360: 49e8 bb3d 673b d6bd 1d8b 773d fb8c 5ebc
00000370: 2126 04be 7e19 933d 3a26 d93d b7f9 073e
00000380: b92b 2fbe f6c3 603d e5bf c63d bed5 10be
00000390: cdf8 14bd d9d2 013e 869a 273e 05e6 0439
000003a0: 5a7e cf3d 2084 71bd 05cd 31be fff6 bfbd
000003b0: 882f 19be d677 75bb 468f 9dbd af81 93bb
000003c0: eee4 e4bc 6b0d 15bd 4704 173e e735 3c3e
000003d0: 9129 fa3d fe1e 223e 76f0 b23d d5e8 363e
000003e0: 453a d63d f00b b83d bb59 f43d 0f1e d4bc
000003f0: 542f 063d 27fd 3e3e 4d20 27be 9a22 01bc
0.018119114 -0.06777442 0.0031349668 -0.002570598 0.007272391 -0.0060965503 0.16736317 0.0864636
0.053750996 -0.10936643 0.07255293 -0.084265456 -0.015201864 0.040753055 0.046688445 -0.12553054
0.14286312 -0.098573685 0.09128241 0.021917019 -0.022862684 -0.019588528 0.03442386 -0.010126125
-0.044671804 0.025863009 0.09596139 0.038791176 -0.08807822 -0.016614484 0.0066585834 0.00039546407
0.12902994 -0.20832978 0.0400215 0.00075210165 -0.11163333 0.017563775 -0.08423308 0.051277958
-0.062552504 -0.035252567 -0.027710253 -0.003634143 0.10607232 0.026151486 -0.08863161 0.086095996
0.07890647 0.14930244 -0.02046712 -0.117736444 -0.018121803 0.040799685 -0.14474595 0.028816594
0.08539425 0.11951679 -0.027083926 0.12979738 -0.028780054 -0.10271494 0.029461809 -0.064880274
-0.14628658 -0.0041512256 0.0016946711 -0.110030815 0.073293544 -0.0836406 -0.10287482 -0.059250377
-0.025361095 0.01992254 0.07247867 -0.0014406645 0.106769495 -0.10474555 0.0024587507 -0.1167214
-0.105001025 0.06724721 -0.0080601135 0.055229757 0.041412026 -0.012915138 -0.028628971 -0.061846823
-0.014938949 -0.023655111 0.15161915 0.011049688 0.053332925 -0.04465428 -0.13257653 0.09955786
0.03301077 0.13032788 0.1997642 0.03372537 -0.005162532 -0.09772105 0.027983772 -0.102076665
0.16999869 0.10002719 0.0051088193 0.05865061 0.06341829 -0.09245499 0.03756959 -0.045993544
-0.019243658 0.01579031 0.0976524 -0.14389344 0.11741642 -0.12937579 0.16359502 -0.07543806
0.029408757 0.009383598 0.07306545 0.10314282 0.025346924 0.13174407 0.018427331 0.044223495
-0.14297086 0.12220192 0.13866062 -0.14165981 0.107653484 -0.13887906 -0.16101593 -0.08405903
-0.113446474 0.010056292 -0.14190412 0.13732062 -0.12121474 -0.048529774 0.05294499 -0.018712912
-0.009319754 0.13410309 0.09941398 0.091426805 0.0436166 0.08596728 0.07735542 -0.10073574
0.11282735 0.07544219 -0.09530607 -0.1514498 -0.02545121 0.12181883 -0.033567995 0.0001681266
-0.014158716 -0.05268522 0.035387665 -0.1552837 -0.15916209 0.018926926 0.098134056 -0.056536477
0.035373963 -0.0006774619 -0.12575 -0.13237606 -0.0866115 0.08308112 0.028360752 0.102609515
0.044131685 -0.08435849 0.15620892 -0.034012005 0.026340013 0.0821547 0.08899126 -0.04882396
-0.13323362 -0.033603594 -0.10184133 -0.073027216 -0.04608367 0.14030178 0.08727531 -0.117106386
0.14513068 -0.028585464 -0.051294614 0.12921304 0.0072175767 0.13322148 0.031308115 -0.027155083
0.11686594 -0.18752646 0.13005093 -0.052124012 0.050981864 0.14648843 0.0819816 0.11157435
0.052862518 -0.10246592 0.022801522 -0.10592492 -0.046954315 -0.10127164 0.13337116 -0.10765055
0.09175164 -0.10460549 0.060435403 -0.013583417 -0.1290517 0.071825966 0.10602994 0.13278852
-0.17106523 0.054874383 0.0970457 -0.14144036 -0.036370087 0.12678088 0.1636754 0.0001267419
0.101315215 -0.058963895 -0.17363365 -0.09373283 -0.14959538 -0.003745546 -0.07693343 -0.0045015435
-0.027941193 -0.03638975 0.14747725 0.18379937 0.122149594 0.15832135 0.087372705 0.17862256
0.10460333 0.08986652 0.11931177 -0.02589324 0.03275998 0.18651257 -0.16320916 -0.007881785

bias_ih f4 [300]
00000000: dbe5 0cbe 15d8 b13d 83f2 5a3d 7f7b 00be
00000010: d679 a03d 239e 00bb 3fac 573d dc67 fabc
00000020: 0941 79bd a140 81bc f974 c33a 8f0b df3b
00000030: fb57 96bd f3f3 91bd 4682 23be 0d74 15bd
00000040: e9ab fbbd a044 183d 2c67 ab3d da98 f93b
00000050: 8985 d33c 693e c4bd ca8c 01be d05c ca3c
00000060: 6f67 b5bd 263a d3bc 454e 02be b5a9 7abd
00000070: 63b2 4dbd 5a36 19be feac dc3c 7696 c63d
00000080: 90a8 603c 1bae bc3d ce56 3d3d 9e6c 28bd
00000090: ac9c 033e 9606 45bd 807c 29bc 879f 43bd
000000a0: 6c61 b13c 37e6 ddbd 5aa5 2fbe 7192 d6bd
000000b0: 3085 c63c 858a 153d 584d 4cbd 14a6 4abd
000000c0: 8725 14be eccd 133c c625 7abd 128e e9bd
000000d0: f39d 94bc c35d fe3c dae5 b7bd a3e2 213d
000000e0: 74e7 d53c 40d4 8fbc f1cb df3c d53c 5b3b
000000f0: 3bd0 4ebe 3615 42bc 772d 593a ead3 693d
00000100: c0a6 47bd b779 673d fa11 11be 832b 593d
00000110: 540e 1a3d 64c0 d63b db8c e0bc 6042 febc
00000120: 853f a7bc 0157 fa3b 41cc 593d ca39 803d
00000130: c574 873d 6ee3 18bd 78d0 363d 3270 a1bd
00000140: f902 603d 73e7 c83d 3e5f ddbd e1af de3d
00000150: a4d1 d93d e70f eabd 6fc6 9abd ca54 87bd
00000160: ab61 ddbd a8c6 e8bd 99cf 1ebd 310a fd39
00000170: b722 f93c a00d 87bd 3ae3 87bd fd30 3dbe
00000180: a627 c8bd 53e5 a4bd 82ef 863d ff7d b6bd
00000190: cc3e c8bd da11 2d3d ef36 4fbd 7b24 2bbe
000001a0: b725 82bd 6aa9 2bbe ae99 053d 5b4d 06be
000001b0: 5671 acbd 7bb3 0dbe 675f 72bc 5543 a43c
000001c0: 1c90 61bd 8bb1 16bc b06c e4bd eacb e6bd
000001d0: d7c7 27be 9342 92bd 2d78 dabd 89f5 c1bd
000001e0: 627d 6ebe ac4b 84bd 1a25 4cbd 3172 103c
000001f0: 5993 27be 997c 56be feb7 38be dd3a 0fbd
00000200: 9dfa 04be 17eb 47be 38c7 48be f125 33be
00000210: c5c7 18bd 9711 92bc f321 8cbd fd57 1dbc
00000220: 8d38 c9bd a3d4 1a3c e36b efbd ee5c 14be
00000230: b27a 40be 9bb2 55bd 664c 02be 9dd3 89bd
00000240: 690c 25be d8be 8dbe 578f 72be ca71 06bc
00000250: e169 51be a0cc 09bd 23ad 57be ef00 4fbd
00000260: 6ce5 02bd 5a75 36be 3a3e 9ebd ab30 dcbc
00000270: 23f8 12be 044a 14be 2e2a cebd 450b 4dbe
00000280: a889 05be 7759 d7bd 93f9 e0bd 48f4 2dbd
00000290: 41e2 d33c 3c84 e5bd 2aff f53b 7c0d 75bd
000002a0: b8b9 76bc b583 d1bd ea06 dcbd d4b9 6bbb
000002b0: 090f 8abd bd1b b6bb df2a d1bc 153e 6cbd
000002c0: 231a acbd 8f69 19be 58bf 74be 75b7 c1bd
000002d0: 35ef dbbc c2d7 45bd 7e7a 45be e165 16be
000002e0: 17c5 cbbd 81c2 f8bd 78c6 45be 2bcd 09be
000002f0: d37d c5bd 413a 69be 2e38 b6bd 5541 37be
00000300: d909 5b3d 31a4 c1bd da33 07bd 9e5a 33be
00000310: 6a89 56bc 5684 e9bd 8e0e 18be 6770 8abe
00000320: c3c3 833d fe1b 64bb 72a2 b53c 7979 553d
00000330: 5d5b 163d d098 fd3d 22f9 8f3d c2cd cd3d
00000340: 3e85 5e3d 275b 4fbd cc51 4b3d d176 9a3c
00000350: 7238 32bc f662 5abd 0f38 89bd be0f dbbd
00000360: a01b 66bb ada8 7d3d 6a87 ee3d 7100 05be
00000370: 983d 6f3b c7af 1c3e 769b 843d 6a7e b93d
00000380: 0a5a 30bd b0f4 e93d 0f83 123d 2b16 253d
00000390: 1f7a f9bd 0c94 043e fac9 3c3d 308b c9bd
000003a0: 5f8a 35bd d271 783d 1487 99bc 086f ccbd
000003b0: ee6a 83bd 958a 95bd 8d8c c2bd 8f2a f3bc
000003c0: b7b3 88bc 555e c6bd dd74 143e dffe c43d
000003d0: e705 f73d 65a9 323d fa5d 273e 2efb aa3d
000003e0: 43aa 093e 0499 8c3b 74cd fe3d e59b 15be
000003f0: c9d9 0b3e 8f2b d93c a613 0abd 1dd3 aebd
-0.13759558 0.086837925 0.053453933 -0.1254711 0.07835738 -0.0019625507 0.0526545 -0.030567102
-0.060853038 -0.015777888 0.001491218 0.006806798 -0.07341 -0.07126608 -0.15967664 -0.036487628
-0.12288649 0.03717482 0.08369288 0.0076170983 0.02582051 -0.09582216 -0.12651363 0.02470246
-0.08857619 -0.025784563 -0.1272517 -0.061197 -0.05021895 -0.1496214 0.026937958 0.09696667
0.013712063 0.092128955 0.04622536 -0.04111921 0.12852734 -0.048101984 -0.0103446245 -0.04775956
0.0216529 -0.108349256 -0.1715292 -0.1047715 0.02423343 0.036509056 -0.04987845 -0.04947479
-0.1446744 0.009021264 -0.06107118 -0.11404051 -0.018141722 0.031050568 -0.089793876 0.03952278
0.026111342 -0.017557263 0.027318927 0.0033453007 -0.20196621 -0.011845877 0.0008284668 0.057086863
-0.04874301 0.05651256 -0.14167014 0.05302001 0.03761132 0.0065536965 -0.027410915 -0.03103751
-0.02041603 0.007639766 0.053173307 0.062610224 0.06614069 -0.03732627 0.044632405 -0.07882728
0.054690335 0.098097704 -0.10809182 0.1087339 0.10635689 -0.114288144 -0.075573795 -0.06607969
-0.10809644 -0.11366016 -0.0387722 0.00048263514 0.030412061 -0.06594396 -0.06635137 -0.18475719
-0.09773187 -0.080515526 0.06588651 -0.089107506 -0.097776026 0.042253353 -0.050589498 -0.16713135
-0.0635485 -0.16763845 0.032617263 -0.13115446 -0.084200546 -0.13837998 -0.0147932535 0.020051638
-0.055069074 -0.009197603 -0.11153543 -0.11269362 -0.16384827 -0.07141604 -0.10667453 -0.0947066
-0.23290017 -0.06459746 -0.04984007 0.008816288 -0.16364802 -0.20945968 -0.18038937 -0.034968246
-0.12986226 -0.19523273 -0.19607246 -0.17494942 -0.03729989 -0.017830653 -0.06842413 -0.009603498
-0.09825239 0.009450111 -0.116905 -0.14488575 -0.18796805 -0.052172285 -0.12724456 -0.06729815
-0.16118015 -0.27684665 -0.23687492 -0.00820584 -0.20450546 -0.03364241 -0.2106214 -0.050538
-0.031957075 -0.17818204 -0.077267125 -0.026878675 -0.14352469 -0.1448136 -0.10066639 -0.2002383
-0.13040793 -0.10515111 -0.109851025 -0.042469293 0.025864722 -0.11206862 0.0075072246 -0.059827313
-0.015058927 -0.10230199 -0.10743506 -0.0035968916 -0.06741149 -0.005557506 -0.025533138 -0.057676394
-0.08403423 -0.14981674 -0.23901117 -0.0945882 -0.026847461 -0.048301466 -0.19285008 -0.14687301
-0.09949701 -0.12146474 -0.19313991 -0.13457172 -0.0964314 -0.22776128 -0.08897434 -0.17896016
0.05347619 -0.09455145 -0.033008434 -0.17515036 -0.0130942855 -0.11402194 -0.14849302 -0.2703888
0.06433823 -0.0034806724 0.022172187 0.0521178 0.036708225 0.12382662 0.0702994 0.10049011
0.05432629 -0.05062404 0.049638554 0.018855484 -0.010877715 -0.053317033 -0.067001455 -0.10696362
-0.003511168 0.06192844 0.11646922 -0.1298845 0.0036505219 0.15301429 0.06474964 0.09057315
-0.043054618 0.114236236 0.03576952 0.040304344 -0.12181496 0.129471 0.046091057 -0.09841001
-0.044321414 0.060655423 -0.018741168 -0.09982115 -0.064168796 -0.07301823 -0.09499464 -0.02968338
-0.016687257 -0.09685961 0.14497705 0.09618925 0.12061673 0.04361858 0.16344443 0.0834869
0.13443856 0.004290702 0.12441531 -0.1461025 0.13657297 0.026510028 -0.033710144 -0.085363604

bias_hh f4 [300]
00000000: 288d 16be 7db6 793d 392b 1abd 6285 483d
00000010: f4d7 213c 4190 50bc 4a6c 49bd 1788 80bc
00000020: a5c8 16be 3584 62bd c9b8 c1bb a68d 713d
00000030: e744 9f3b f7c5 723d 858f 8bbd 3373 833d
00000040: 9f45 72bd c6ea 3cbd f307 a5bd d11e 433d
00000050: e687 023e 35bd 0cbd a40c 33be 8618 03be
00000060: 8dca c53d 7fc0 123d a0ea fe3a 7806 d3bd
00000070: 9e0a 403d 7915 b13c 941f 553d e933 6d3d
00000080: 41a9 683d 5754 df3d d03a 683d 9ce6 043d
00000090: 7359 e63d dc6e ff3b 7eee eebd 0761 46bd
000000a0: 9b28 6dbd eddf 343d 66bf 95bd b85c 81bd
000000b0: 2214 c3bb e8da a1bd f54c c83d 132d 3dbd
000000c0: d675 c0bd 62ff 393d 03bd f53d 4ef9 8abd
000000d0: 3dc3 863d d9da 11bd 3c6e 24be c3dc 2abd
000000e0: e3fe da3d 3a76 14bd fb9a 4f3d 35de e5bd
000000f0: 0aca a6bd 5196 da3d efce ad3d 89d6 42bd
00000100: e936 253d f7c7 b7bd 7986 48be 1240 5bbd
00000110: cac4 f6bd 174d 6d3c 49f4 f0bd e333 a2bb
00000120: be1e 29bd e4c5 36bd 0125 a3bd d782 8f3d
00000130: 3bb9 993d 6407 d9bd 5cd8 92bd 9096 3b3d
00000140: fcee 03bc 79aa cc3d 54ff 2cbd e7e1 e53d
00000150: f678 b63c 11e0 4abd 9dd3 e9bd c42a 203c
00000160: ed7d 9cbd 8ed0 fe3b 7b1b ba3c ac0f a83d
00000170: abac 103e 89ff c6bd 4083 3fbd 87dd 25bd
00000180: a260 17be 97d2 0cbe 44b1 d63d b1d8 2f3d
00000190: cdd6 90bd 8be7 b23c 9f8f cabd e339 1fbe
000001a0: 528f 8bbd 3495 1abe a104 4bbd 3bf8 f7bd
000001b0: 59c2 0dbe 3dac 0cbd 199f cbbd c9c0 b1bc
000001c0: 5063 05bd 8cd6 3fbc e744 01be d2af 823c
000001d0: 07dc b03c 5f3c 6ebc b02f 2abe e511 55be
000001e0: 051b 03be e8a6 17be 392a 0dbe 12a4 02be
000001f0: 95e2 b4bc df01 67be dec1 6abe 2b3d 53bc
00000200: 1c8e 75bd 2119 80be 430f abbc 7e0d 31be
00000210: 9d22 d1bd b27d a6bd a1e1 20be ad14 08be
00000220: ffb5 10bd 4ff4 913c 8594 dfbc 1e85 05bd
00000230: c613 32be d27e dbbd 4c9e 36be f07e 17be
00000240: c52b 87be 2159 8fbe 0b9d 60be 64df 0bbe
00000250: e72b f1bd f755 113c a904 15be 0d38 fbbd
00000260: e3c0 bdbd 1e25 3fbe a0b3 2dbe b166 0dbe
00000270: ed4d eabd e1d4 d2bc 8c0f 71bd cc76 e6bd
00000280: 4ef0 47be f0ba 40be 7575 eabd 5779 8fbd
00000290: af29 573d 3b89 2dbe 75f5 b4bd cd98 37be
000002a0: 16fd 06be ed52 91bd 1b04 0bbe 6ed8 27be
000002b0: 6766 92bd b54d ddbd 1823 d0bd 1f31 ddbd
000002c0: 6eae 0abe fcef 04be 821b 52be d0a1 893c
000002d0: d826 cdbd 8896 32be d86b 4dbe e87e 17be
000002e0: 8fa7 69bd c499 0dbe 9ae7 afbd 1ed1 38bd
000002f0: 7fd4 20be 24bd f5bd ca1b ddbc e1aa 0dbe
00000300: 3721 cdbd 7aea d4bd 9ac0 edbd 7596 bfbd
00000310: 3674 0ebd fb67 3abd f316 403c 3d29 08be
00000320: a582 c3bc fc7c 20bd 4fef aa3d 6e1d 493d
00000330: 6d20 bdbd ce73 c53c ab29 e2bc b4f9 fc3d
00000340: 2dd5 c53c d16a 123b 5333 e33d 3d75 1ebd
00000350: c514 c33c 7144 54bd 008b f7bc 0899 d8bd
00000360: 79d2 2f3b 27d1 f4bd 9e9e ae3d a709 75bd
00000370: 2e52 e1bd bca7 12bb f61b 64bd 62c9 0cbd
00000380: f70f 0ebe 8335 e83d a277 853d 9226 17bd
00000390: 3e51 83bd 7e36 4abc 8e71 043e 3a61 18be
000003a0: 8543 f63d e2b3 70bc 3899 d7bd 851f f63b
000003b0: f444 93bc 9fc2 e5bd 8f93 663d 8f52 8f3c
000003c0: 84ae 9abd 0271 fdbc 2b25 46bd 4c17 f0bc
000003d0: c969 e73d 6eef de3d c18b 813d 1d4c af3d
000003e0: d2cf e13c 0407 313d 17e9 293e 160b 1a3c
000003f0: 6d54 943d 0cf2 023e 6e49 c93c 2752 03ba
-0.14702284 0.06096505 -0.037638877 0.04895533 0.009878147 -0.012729705 -0.049175538 -0.015689893
-0.14724977 -0.055301864 -0.0059119207 0.058972977 0.0048605087 0.059270825 -0.068144836 0.06418457
-0.059148427 -0.046122335 -0.08058157 0.04763681 0.12747154 -0.03436013 -0.17485291 -0.12802324
0.09657774 0.03582811 0.0019448586 -0.10303968 0.046885125 0.021616684 0.05203207 0.057910834
0.056802038 0.109047584 0.056696713 0.03244649 0.1124753 0.007795198 -0.116665825 -0.048432376
-0.057900053 0.044158865 -0.07311897 -0.06316513 -0.0059533278 -0.07903081 0.097803034 -0.046185564
-0.093974754 0.045409568 0.11998942 -0.06785832 0.065802075 -0.0356091 -0.16057676 -0.04171444
0.10693147 -0.036245562 0.05068491 -0.11224023 -0.08144005 0.10673202 0.08486735 -0.047567878
0.04033557 -0.08973687 -0.19582547 -0.0535279 -0.12049253 0.014483712 -0.11765344 -0.004950033
-0.041289084 -0.044622317 -0.07966042 0.070073776 0.07506033 -0.10597113 -0.071701735 0.045797884
-0.008052584 0.099934526 -0.042235687 0.11224728 0.022274476 -0.049530093 -0.11417315 0.009775821
-0.07641206 0.0077763265 0.022718182 0.08206114 0.14128368 -0.09716708 -0.04675603 -0.040494468
-0.14782956 -0.13752209 0.104830295 0.042931262 -0.0707222 0.021838924 -0.09890675 -0.15549426
-0.068144456 -0.15095979 -0.04956496 -0.12107893 -0.13843669 -0.034343947 -0.09942455 -0.021698372
-0.032565415 -0.011708867 -0.1262394 0.015952978 0.021589292 -0.014540761 -0.16619754 -0.20807607
-0.12803276 -0.14809763 -0.13785638 -0.127579 -0.022080699 -0.22559308 -0.22925517 -0.012893002
-0.05994998 -0.25019172 -0.0208813 -0.17290303 -0.1021168 -0.08129443 -0.1571107 -0.13289137
-0.035329815 0.01781669 -0.0272925 -0.032597654 -0.17390355 -0.107175484 -0.17833823 -0.14794517
-0.2640058 -0.27997687 -0.21934907 -0.13659436 -0.11775952 0.008870593 -0.14552559 -0.1226655
-0.09265306 -0.18666503 -0.16963053 -0.13808705 -0.114406444 -0.025736274 -0.058852717 -0.112531275
-0.19525263 -0.18821311 -0.114481844 -0.070055656 0.052529987 -0.1694688 -0.0883588 -0.17929383
-0.13182482 -0.07095895 -0.13575785 -0.16391155 -0.07148438 -0.10805837 -0.101629436 -0.10800385
-0.13543102 -0.12982172 -0.20518306 0.016800791 -0.100171745 -0.17440236 -0.2006067 -0.14794505
-0.057044562 -0.13828188 -0.08589096 -0.045121305 -0.15706061 -0.11998966 -0.02699079 -0.13834716
-0.10016101 -0.10396285 -0.116090015 -0.09354869 -0.034778796 -0.04550932 0.0117242215 -0.13296981
-0.023866007 -0.039181694 0.08346426 0.049100332 -0.092347 0.024103072 -0.02760776 0.123523146
0.024149502 0.00223415 0.11093774 -0.038686026 0.023813615 -0.051823083 -0.030217648 -0.105760634
0.0026828332 -0.11953955 0.085263476 -0.05982366 -0.11002003 -0.002237781 -0.055690728 -0.03437174
-0.13873278 0.113383316 0.06516959 -0.036902018 -0.0641198 -0.0123420935 0.12933943 -0.14880839
0.12024597 -0.014691325 -0.10527271 0.0075110816 -0.017977215 -0.11218762 0.056293067 0.017495422
-0.075528175 -0.030937675 -0.04837529 -0.029307984 0.11299474 0.10885511 0.06325484 0.08559439
0.027564917 0.04321958 0.16592823 0.009402057 0.072426654 0.12787646 0.024571147 -0.0005009495
