data/RNN_runs/sweep_H2/rnn_sto3g_H2_0-7348_eq1_nU50_nL1_lr001_lrsO_ns10000.pt (torch_old, 452422 bytes, 9 tensors)

weight_ih f4 [150, 2]
00000000: e6f3 1abe cf4d 733e 6845 083e 90e1 513e
00000010: 6d55 3abe f382 ab3e c391 47bc 8a49 5ebe
00000020: 0e37 d73e 04da cfbe a045 263f 0a10 ffbe
00000030: f76b b33d b850 7f3e 679d 0e3f 9885 06bf
00000040: b9b9 5d3b af55 a23e 6a65 153f 1933 c2be
00000050: c317 ff3d d1a0 9d3d cc13 95bd 1b43 933e
00000060: 6ff0 9a3e 15f3 30be b836 d03e 9eb1 02bf
00000070: 291e 353f 9fc9 13bf f2ab b23e 23a4 c73e
00000080: e6ef c43e b373 28bc 6dca 243f 14fa f6be
00000090: 9c0b 26be b95f ee3d 467f da3e 5064 b2be
000000a0: c729 0e3e 8ef2 d73c e45d 883d 5181 cb3d
000000b0: 8312 f03e 909c b1be 1a24 94bd dabf 2d3e
000000c0: 488d 4f3e 378e 2b3d 4cc5 0b3f ce4c 23be
000000d0: e7d9 9c3d d550 143e f815 183f 877e 28bf
000000e0: 581e bb3e 04e3 98bd a84e 313e fb1b 563d
000000f0: ef93 113f 819b c0bd d3f0 dd3e 53f2 15bf
00000100: 30b4 19bf bf15 d83e 25c7 193f 4d61 21bf
00000110: d9cf bc3e a6a2 c1be dc41 333f 7321 f7be
00000120: 3ff7 21be 7726 ba3d 284b 293f f247 b1be
00000130: 5b27 213f dd43 f6be 2ec8 be3e 527a 953e
00000140: ba62 033f cf0b 8dbe 570f 073f ddcb 88be
00000150: 735c 9abe c861 703e be54 3a3d a5b9 593e
00000160: f850 c53e 21cc da3e c9f0 c23e 5f80 c2be
00000170: 3640 3a3f 475d bebe 3d7f 193e 3ab1 c63e
00000180: 60be 063f ee2c 2ebe e446 093f 39fa 92be
00000190: c7c1 1e3e 878b a7be c0ba 84be 571a e7be
000001a0: ed4d d53a f62a 3bbe cc4e 8cbd 3c1c f6bc
000001b0: bb1d 89be e21c 5bbc c325 80be 3bb8 883c
000001c0: 5476 5ebe a4d6 05bf d940 c7be 6560 363e
000001d0: 9961 febd 59e8 9dbe b18d a5be ed39 4d3e
000001e0: 05a6 fbbd 7522 d5bd e9d6 1b3e 7775 5ebe
000001f0: 8239 65be 6eca 84bd bfa2 28be 2e42 c13d
00000200: b1a7 7cbe c719 583e 8fa1 93be ccbf f6be
00000210: 441a 96be 0d15 a1be 9f9d 9cbe bfc1 bbbd
00000220: 154f 313e 7e0c 25be 4c48 90be 24e5 b6bd
00000230: 00b9 06be bd85 88be 0ef1 46bc 7f6c 483d
00000240: 02a9 64be e282 fdbd 4b88 79bd 28cd 41be
00000250: d5db f2bd 6dc7 4fbe 0896 d3be b30d 5e3d
00000260: 8b8e 3e3c 6ea4 ab3d 58ef 79be dbfa 1b3e
00000270: 8e85 c4be 6e7f 173d a543 f7be 4c91 53bd
00000280: 8563 8cbe 8ce4 f13d 6e8b cbbe 45a2 2e3e
00000290: 7daf 163e 537e b53c be81 b4be f927 253e
000002a0: 8558 3fbe a80c c73d 6333 9cbe 839f a9bd
000002b0: 2657 0d3d 1a29 15be 2cf6 d9be 44bd 383d
000002c0: 1ea2 01bf 9e31 e7bd 7023 96be 97dd 10bf
000002d0: b9c5 a4be 9448 1dbc 76a4 66be 3b78 f7bd
000002e0: ea14 8bbe 6706 1abe 67f8 5bbe a78b afbd
000002f0: 25f9 4ebe 9fd1 3ebf fd76 b0be 698a 5cbe
00000300: 9300 97be 8839 853e db7c bbbe 66d2 1dbf
00000310: 2596 56be c36e f5bd 4038 93bd 5b85 d4bc
00000320: c58e 333d e8f2 5abe 68a5 91bd 3912 b7be
00000330: 0221 a6bd 7c5f 67be eb4d 1f3e 33f0 7cbe
00000340: 40d6 d1be e4e2 de3e 6930 cbbe 033c 943e
00000350: a0bb b4b9 063e cabe 6839 f83e 3e0c eabe
00000360: 760c 843c a096 5b3e 9886 e3be 991a af3e
00000370: e05a 1f3c 5545 b2be f01e 34be 14c8 303e
00000380: 9a93 0c3f ef10 f1be 2d91 8a3e 40c5 e8be
00000390: b041 7bbe 337c 963e b258 ed3d 6fc9 8d3e
000003a0: 6085 093e 0532 083e 3e00 973e 547e f6be
000003b0: de4f da3d a53b 17be 8cf5 01bf 0ca8 d73e
000003c0: b581 283e 7b9d 123e d478 a53d 901f 4dbe
000003d0: feb9 b93e 5680 52be b7b0 a63d b744 96be
000003e0: e915 f2bd baf4 7c3e 65c3 e63e 0ee1 c7be
000003f0: ac6f ad3d acca ac3d 01f3 d5be 55cd ab3e
-0.15132102 0.2376015 0.13307726 0.20496202 -0.1819665 0.33498344 -0.012180748 -0.2170774
0.4203419 -0.4059602 0.6494999 -0.49816924 0.08760827 0.24933136 0.55708927 -0.525476
0.0033832623 0.31705996 0.5835787 -0.3792961 0.12455704 0.07696689 -0.072791666 0.28762135
0.3026156 -0.17280228 0.40666747 -0.5105227 0.70749146 -0.57729524 0.3489681 0.38992414
0.38464278 -0.010281491 0.6437138 -0.4823767 -0.16215366 0.116393514 0.42675227 -0.34842157
0.13883124 0.026360776 0.06658533 0.099367745 0.46889123 -0.3468976 -0.07233448 0.16967717
0.20268738 0.041883674 0.54597926 -0.15947267 0.07658749 0.1448396 0.5940852 -0.65818065
0.36546588 -0.07465175 0.17315161 0.052272778 0.56866354 -0.0940466 0.43347797 -0.5857288
-0.6004057 0.4220409 0.60069495 -0.63039094 0.36877325 -0.37819403 0.7002237 -0.48267707
-0.15816973 0.09089368 0.66130304 -0.34625202 0.62950677 -0.4809865 0.372621 0.29194885
0.5132252 -0.27548072 0.5275778 -0.26718035 -0.30148658 0.234748 0.045490973 0.21262224
0.38538337 0.42733863 0.3807433 -0.37988564 0.7275423 -0.3718054 0.14989944 0.38807088
0.5263424 -0.17009327 0.53623796 -0.2870653 0.15503608 -0.32723638 -0.2592373 -0.45137283
0.0016273834 -0.18278107 -0.06850967 -0.03004276 -0.26780495 -0.013373585 -0.2502881 0.01668941
-0.21724826 -0.5228064 -0.38916662 0.17810209 -0.12420959 -0.3084133 -0.32334664 0.20041628
-0.12287525 -0.10406963 0.152187 -0.21724497 -0.22385219 -0.06483923 -0.16468333 0.09436451
-0.24673344 0.21103583 -0.28834197 -0.48193204 -0.29316914 -0.31461373 -0.30589005 -0.091678135
0.17315324 -0.16118047 -0.28180158 -0.08930424 -0.1315651 -0.26664534 -0.012142433 0.048931595
-0.22330096 -0.123784795 -0.060920995 -0.18925917 -0.11858336 -0.20290919 -0.41325402 0.054212283
0.011630665 0.08380972 -0.24407709 0.15232413 -0.38383144 0.03698676 -0.48293796 -0.051652238
-0.27419677 0.1181117 -0.39754814 0.17054088 0.14715381 0.022154963 -0.35255235 0.1612853
-0.18686111 0.09719211 -0.30507955 -0.082823776 0.03450694 -0.1456646 -0.42570627 0.045102373
-0.50637996 -0.112887606 -0.29323912 -0.5658812 -0.321821 -0.0095998235 -0.22523674 -0.12083479
-0.27164394 -0.15041505 -0.21481477 -0.085715584 -0.20212229 -0.74538606 -0.3446578 -0.21537174
-0.29492626 0.26020455 -0.36618695 -0.6164917 -0.20955713 -0.11984017 -0.07188463 -0.025942495
0.043837328 -0.21381724 -0.07111627 -0.3575609 -0.081117645 -0.22595018 0.15557067 -0.24701004
-0.40983772 0.4353248 -0.39685372 0.28952035 -0.00034472067 -0.39500445 0.48481297 -0.45712465
0.016119223 0.21444178 -0.44438624 0.3419998 0.009726256 -0.3481852 -0.17589927 0.17263824
0.5491272 -0.47083232 0.27063885 -0.4546299 -0.24536777 0.2939163 0.11589183 0.27692744
0.13429785 0.13300331 0.29492372 -0.48143256 0.10659765 -0.14768846 -0.507653 0.42120397
0.1645573 0.14317887 0.08079687 -0.20031571 0.36274713 -0.20556769 0.081391744 -0.293493
-0.11820585 0.24702731 0.4507095 -0.3903889 0.08468565 0.08437094 -0.4178696 0.33555093

weight_hh f4 [150, 50]
00000000: 5a6a 5ebd 9f37 0c3c 524d 913d 6388 98bb
00000010: 17c5 eabd 15e7 94bd c3f9 a0bd 4388 843c
00000020: c244 debc f535 673d b684 febc 6b10 c43d
00000030: 0efe aebc fb81 013e 6077 79bd 81ab 1a3e
00000040: 3d23 8f3b d530 083d 2b0c 4a3c 9b48 cabd
00000050: 2d29 00bd 6cb2 cfbd 2c13 f13d 4b76 073d
00000060: aca3 083e b725 993c 1279 e63d 183c a33c
00000070: 30e5 223d fc6a b43d c817 45be c537 7abe
00000080: 8349 d7bd 7384 c33d 18b1 9e3d 6e29 613b
00000090: 5c85 1ebd b966 0cbe b338 663e 8338 c5bc
000000a0: 0421 89bc 157c f23d 5b8c 09bd 3e80 88bd
000000b0: e882 84bc 660b 193d 6aba 3bbe e6c0 033c
000000c0: 564c d03d 0307 a93d c65b 243c 0d5f 90be
000000d0: 2178 883c bbfa d6bd 7387 d53d 46cb 133e
000000e0: 0652 b5be b23f 9abd e78e 9d3e 45b9 853d
000000f0: 640d d73d df5d 423e 192f 33be 0dbe c23d
00000100: 89b8 9cbd 37eb 013f 3b2f d23e efa7 c83d
00000110: e568 f0bb 2ca3 80b9 45b2 633e 9353 54bd
00000120: 88f4 e83d f4b8 583c a4e2 85bd d766 18be
00000130: 87f4 c03d fa92 e93d be6d 66be 5939 683e
00000140: 29d1 4e3e c099 693e 15c5 bd3d 4862 f03d
00000150: 5f88 19be 65b6 bd3d 90af 05bd c143 2ebe
00000160: a4f3 e5bd d0bc a9be f31a 103d b445 e2bd
00000170: 61cd 16bc f34e ce3d fb47 f73e 6045 febd
00000180: 4308 d3bd 4f7d 14be 1f45 1fbe 3f2c edbd
00000190: 126c 923d 08f3 04be e0b3 27be 029d 8e3d
000001a0: 9681 09be e406 fabd dbbf a23d fb5a c63d
000001b0: 6948 1e3e 3baa ea3d c7fd 963d 9dd4 aa3d
000001c0: b2b7 babb b89e 9a3d 9965 b2bd 80e9 8f3c
000001d0: 102b f4bc f3b2 223e 61ac 13bd 879b 933c
000001e0: 2e2a 143e 7e29 0abd 34ed c73d ce78 1dbe
000001f0: e23c b5bd c3b7 0c3d b46d fd3d 94b2 023e
00000200: 90b3 ee3d d878 183e 6287 9fbe 7bbf 29be
00000210: 2739 6dbd d200 54bd 6a0c 933c 401e ac3d
00000220: 7391 183d a3c7 4cbd 7e16 5c3e 6a13 1bbe
00000230: 0e91 bb3d 79c5 183e 871b 57bd 11c3 a6bd
00000240: f333 083e fcac 07be e49f b3bd 992b 3ebe
00000250: 7de1 04be 4f85 943d 9674 74bd 50c3 4abe
00000260: 8bc8 dd3c e9e7 3e3d 9925 803c a580 57bd
00000270: 4679 02be 236d 503e 304d c3bc f436 a43d
00000280: b190 cc3d adbc ecbd 26f8 793d 3744 a4bc
00000290: c6cb bb3d bf80 1e3e 9801 223e b4f3 563e
000002a0: ed12 0abe 4579 e7bb 3d0c 9ebd 237e 31bd
000002b0: 2223 92bd a2eb 1dbe 31a7 01be f3fe 5fbd
000002c0: 060c 5bbd 6960 f7bd 6750 b23c 72bc 2f3e
000002d0: 419b 2ebe 84a2 68be ea26 1abe da3a 6e3d
000002e0: 0e22 bbbd a3e6 e9bd c9b9 dcbd 9591 da3d
000002f0: 2eb4 413e 1c21 34be 696c de3b 46bb 2f3d
00000300: 8650 0b3c 2b6e d23d ce35 193e f4be 2fbd
00000310: 26a5 1dbd 2538 96bd b0fc 313d 336e 4f3d
00000320: 7a98 64bd aa0f 85ba 3942 93bb 1107 883d
00000330: a1f8 63be 4523 71be de55 86bd d90e 963e
00000340: 60ea 62bb 4140 813d 8850 c33d 0430 0dbd
00000350: 9a6f 3e3e f8d7 86bd 94ce 39bd fb8c c1bd
00000360: 92a4 9cbe 1a84 0a3e f320 c23a 3f62 1abe
00000370: dbc2 a5bb 2700 34bd 7f1c 8dbd 002d bdbc
00000380: 852b 98bd 04d3 9d3e 1cc6 e3bc cb52 29be
00000390: 6ae1 493e f862 1f3d a17a 1a3c 8b0b a1bd
000003a0: fc15 7e3e ad4e debd c23f 493d bfce 31be
000003b0: 9580 e43d 257f 623e 61b9 203d 66c8 093e
000003c0: 3ced 473e 0d5d 033e 950a 2a3d 557d f23d
000003d0: adbf 37be e12f 7f3d 23a5 a7bc e34d c0bc
000003e0: 08a6 ac3d 03b7 06bc 395b 57bc eccd c03c
000003f0: 1195 e33d 6845 a53d 0a6a 80be 2023 1fbe
-0.054300644 0.008558183 0.07094826 -0.0046549304 -0.11463373 -0.07270638 -0.07860138 0.016178256
-0.027132396 0.05644794 -0.03106914 0.09573444 -0.021361377 0.1264724 -0.06090486 0.15104486
0.0043682144 0.033249695 0.012332003 -0.0987713 -0.03128927 -0.10141453 0.11771235 0.033071797
0.13343686 0.018694742 0.11253561 0.019926116 0.03976935 0.08809468 -0.19247353 -0.24435337
-0.10512068 0.09546747 0.07748622 0.003435697 -0.0387014 -0.1371106 0.22482567 -0.024074798
-0.016739376 0.11840073 -0.03358112 -0.06665085 -0.016175702 0.037364386 -0.1833283 0.008041596
0.1017081 0.082532905 0.010031646 -0.28197518 0.016658844 -0.10497042 0.104262255 0.14433011
-0.3541414 -0.0753168 0.30773088 0.06529478 0.10500601 0.18981121 -0.17498435 0.095089056
-0.07652385 0.50749534 0.4105166 0.09797656 -0.007336723 -0.00024535635 0.22235973 -0.051837515
0.11374766 0.01322769 -0.06537369 -0.1488298 0.0942164 0.11404987 -0.22502801 0.22678126
0.20196976 0.22812557 0.09266106 0.11737496 -0.14993428 0.092633046 -0.032638133 -0.17018034
-0.112281114 -0.33151865 0.03518195 -0.11048451 -0.00920424 0.10073652 0.48297104 -0.12415576
-0.1030431 -0.14500926 -0.15553711 -0.11580705 0.07149519 -0.12983334 -0.1637721 0.069635406
-0.1342834 -0.122083455 0.0794675 0.09685322 0.1545731 0.1145825 0.07372623 0.08341334
-0.0056981677 0.075498044 -0.087107845 0.017567396 -0.02980569 0.15888576 -0.036053065 0.018018497
0.14469215 -0.033730976 0.0976204 -0.15378115 -0.08849503 0.034354936 0.1237444 0.12763435
0.116553426 0.14889848 -0.31157976 -0.1657695 -0.057915833 -0.051758595 0.017950255 0.08404207
0.037248086 -0.049995076 0.21492955 -0.15144125 0.09158526 0.1491908 -0.052516486 -0.08142675
0.13301067 -0.13249582 -0.08770731 -0.18571319 -0.12976642 0.07251989 -0.059681498 -0.19801068
0.027073165 0.046607886 0.015642928 -0.05261292 -0.12741575 0.20354132 -0.023840517 0.08018294
0.09988535 -0.115594245 0.06102767 -0.020052059 0.09169726 0.154788 0.1582092 0.20991403
-0.13483782 -0.007064017 -0.07717178 -0.043333184 -0.07135607 -0.15421918 -0.12661435 -0.054686498
-0.053478263 -0.12078936 0.021766854 0.1716173 -0.17051412 -0.22718245 -0.15053907 0.058161594
-0.09137355 -0.114209436 -0.10777623 0.10672299 0.1891639 -0.17590755 0.006787826 0.042903207
0.008503085 0.10274919 0.14961931 -0.042906716 -0.038487576 -0.073349275 0.043453872 0.050642204
-0.055809475 -0.0010151763 -0.0044939783 0.06641973 -0.22262813 -0.2354861 -0.065593466 0.29308203
-0.0034624562 0.063110836 0.095368445 -0.03446962 0.1859726 -0.065841615 -0.045363024 -0.09450718
-0.30594307 0.13526955 0.0014810845 -0.1507654 -0.005058629 -0.043945458 -0.06890201 -0.023092747
-0.07430176 0.30825055 -0.027804427 -0.1653549 0.19714895 0.038912743 0.009428651 -0.0786353
0.24813074 -0.1085485 0.04913307 -0.17364024 0.111573376 0.22118814 0.03923929 0.13455352
0.19524091 0.12828465 0.041513998 0.118403114 -0.17944212 0.06230152 -0.020464486 -0.02347464
0.084301054 -0.008222344 -0.013144308 0.023535691 0.111124165 0.08069879 -0.250809 -0.15540743

bias_ih f4 [150]
00000000: ff86 b4bb edd4 e53d 0696 1cbc 365f 213d
00000010: 9dcf 1aba ce48 1ebe 6fdd 523e 4a1f c5bd
00000020: 0257 8a3e e549 88bd adfb 22bd 386e 0f3e
00000030: 89b2 b4bd 56f9 6bbd 1a2c c93c cbcc f33e
00000040: 6245 133e d60c 4f3d fcaf abbc eaf9 2ebd
00000050: 56a6 313e a726 7cbc 53f9 013e c26d 533c
00000060: b174 07bd c41d c2bd e267 153e 8787 f53b
00000070: db0d b13c b8e6 ad3e cd6f e13d f461 dcbd
00000080: 4f54 96bb 0216 11be 0d21 073e 87c6 d93d
00000090: 6b96 6b3d 6920 6b3d 4300 c1bd 6ec6 c93e
000000a0: 39d9 3cbd e2b3 933d 35d4 f1bd 7edc 153e
000000b0: f7ae c03e e4ad c93d 9526 abbd 2dc8 da3e
000000c0: c17f 423e 5421 3b3d 19f4 cbbd 3f75 c8be
000000d0: 73aa 64bd c86b bebd 1229 cdbe 8527 80be
000000e0: 3cad 1bbf 2696 8abe 3393 d8bd 6d85 e9bd
000000f0: 6778 87be d6cd d4bc 6bf4 80be dc09 eebd
00000100: c05d 39be f961 eebe f024 90be 90ee 74be
00000110: e3b3 11bd f0a5 83be e7c4 babe a480 52be
00000120: 33b1 cdbd d7c7 05bd 3963 193d 6dc5 bebe
00000130: 6384 f7ba ae14 c2be b2e3 6fbe 772a f6be
00000140: 2dbe 2dbe 0df0 97be 3d17 26bd 4712 d8bd
00000150: acbc 46be c95c 5cbe b825 04be 043b 92be
00000160: e0d2 63be 6fb5 35bf f736 98be 4cd2 48be
00000170: 94c1 87be 62ef 6ebe 0859 d6be 95a6 27be
00000180: 2aad 16be d16b 07bf 9599 acbe 616e 62be
00000190: 5d13 5abe 2996 99be 1992 52be 6dfd 33be
000001a0: 6815 9dbd 02c4 503e d936 b4be edc5 e2bc
000001b0: dd17 6b3e c29b 0c3e de9c 583d 8559 283e
000001c0: 1f20 993c a998 9d3d 73cd 3fbd a309 d93e
000001d0: 8536 603e 492a 6a3d 5928 67bd 1ae8 063e
000001e0: ebb8 a03e 6beb 4cbd e8b6 9ebd 2b2a c1bd
000001f0: a6c7 bf3d b144 2c3d b16b 683d c1b9 293e
00000200: f1be 6c3d c989 443e 71a8 1ebe 21e4 f7bd
00000210: eed4 993c e25e 363e 9256 cf3d 1d35 3c3b
00000220: e81e 253e 80de 843d b044 61be d697 d0be
00000230: 8a8a 43bd 84fd ddbd e4a8 8b3c bf15 573e
00000240: 40ac 053f eaf8 dbbd 8c18 5bbd e249 c7be
00000250: 7197 1cbe ecc2 ab3c
-0.005509257 0.11222253 -0.009557253 0.03939744 -0.00059055706 -0.1545746 0.20592283 -0.096251085
0.27019507 -0.06654719 -0.039790798 0.14006889 -0.088231154 -0.057610832 0.024557162 0.47617182
0.14381936 0.05054935 -0.02095794 -0.042718805 0.17348608 -0.015390075 0.12692766 0.012904586
-0.03307027 -0.094783336 0.1459041 0.0074929628 0.021613052 0.33965087 0.110076524 -0.107608706
-0.004587687 -0.14168552 0.13196202 0.10633569 0.057516497 0.057403956 -0.09423878 0.39409202
-0.046105597 0.07212044 -0.118080534 0.14634892 0.37633488 0.0984762 -0.08356968 0.42730847
0.18994047 0.04568608 -0.09958667 -0.39151952 -0.055826616 -0.092979014 -0.40070397 -0.2503015
-0.6081121 -0.2706768 -0.10574951 -0.11402402 -0.26459047 -0.025977056 -0.25186476 -0.11622974
-0.18102169 -0.46559122 -0.2815318 -0.2391913 -0.035571944 -0.25712538 -0.3647835 -0.20556885
-0.10043564 -0.032661285 0.03744814 -0.3726 -0.0018884059 -0.37906402 -0.23426703 -0.48079273
-0.16967078 -0.29675332 -0.040549506 -0.10550361 -0.1940791 -0.2151977 -0.12905014 -0.2856065
-0.22248411 -0.7097997 -0.29729435 -0.19611472 -0.26514876 -0.23333505 -0.418648 -0.1637214
-0.14714494 -0.5289889 -0.33710924 -0.22112419 -0.21296449 -0.29997376 -0.20563544 -0.17577143
-0.076700985 0.20387271 -0.35198095 -0.027682269 0.22958322 0.13731292 0.052883975 0.16440399
0.018692074 0.07695133 -0.04682679 0.42390165 0.21895798 0.057169233 -0.056434963 0.13174477
0.3139108 -0.0500292 -0.0774973 -0.09431871 0.09364252 0.042057697 0.056743328 0.16574766
0.057799283 0.19193186 -0.15493943 -0.12104059 0.01877829 0.17809632 0.10123934 0.0028718181
0.16125071 0.06487751 -0.21998858 -0.40740842 -0.047739543 -0.1083937 0.017048307 0.21004389
0.5221596 -0.10740836 -0.053490207 -0.38923556 -0.15292145 0.02096697

bias_hh f4 [150]
00000000: 5459 0e3e 5d9b 643e 7a70 063e 3292 2c3d
00000010: f2d5 463d 1a51 4c3d 5af4 ea3e 78a3 d53d
00000020: a5a9 3d3e e6ec 23bc 1749 a33d 0641 96bc
00000030: 3baa c73d 9c02 d53d 6837 f5bd 2861 823e
00000040: 6e0f bb3e 0e0e 36be 9d46 3e3e ea67 5f3d
00000050: b843 913d 8c45 023e c71d 96bd ad66 a2bd
00000060: 6009 bf3d ed1c 18be 383a 1e3e 8968 37bd
00000070: c2ac 82bc 09ef 873e f7ef a23d cbb1 3bbd
00000080: 4a30 e63b 97f6 a4bd ebdf c7bc 190e 103e
00000090: 0cc9 09bd 5ec7 56bb a8b1 c83d 42a8 c73e
000000a0: b68e 46bb 8aae 8ebd 41a7 6abd 6a21 733e
000000b0: 14ef fc3e 4ade bc3d 038c 013e 39ac 693e
000000c0: 641c 9f3d 8417 6fbd cd61 bcbd 0df6 efbe
000000d0: aac6 91be 0899 4cbe 9189 14be 83b2 a2bd
000000e0: 110c dcbe 25dc 6abe 685b 0cbe ad5e ccbd
000000f0: 4778 88be 49ad b6bd 364b 91be 0174 f6bd
00000100: dd0f a3be 02df a4be bf30 3ebe fd56 b8bd
00000110: 1dc6 3abe b995 90be 47de ddbe 48e7 91bc
00000120: 14ac 0bbe 3e2e 8dbe 872e 83bc eab0 7fbe
00000130: ff5c 973d af59 56be 0b46 1cbe 61a1 05bf
00000140: 7cec 8bbe 229a 9cbe 67f5 4fbd b984 eabd
00000150: ff62 bebd 0853 aabe 5f65 61bd 8a1a 0bbe
00000160: cb46 8abe e05c f1be 6dea 37be d018 ddbd
00000170: adc1 2bbd 705e c4be fd22 22bf 07ba 96be
00000180: 9d26 96be 341a f7be e7ce 8ebe ca29 4dbe
00000190: 27bb 61be 6a72 4ebe 0b41 1bbe b65e 5f3c
000001a0: 48e8 48be 21ab 94bd 6edf e0be 2012 b93e
000001b0: 655c 913e 8404 6abd b568 5dbb d233 223e
000001c0: 670e f7bc 19d1 383e 5c61 bdbd ed2a d53e
000001d0: 3038 9e3e 2ac7 463e fa8b 2ebe a058 b6bd
000001e0: 8c02 673e c7d2 eabd 7ad4 99bd c394 a9bd
000001f0: 8fb0 453d 80c6 203d b84e ec3d 4116 50be
00000200: 6c97 c6bc 1796 913e c0d4 2d3d 18d3 70be
00000210: 55af e4bb 4b63 64be a438 db3d 170c 67be
00000220: b97a fb3d 4e76 833e 6046 fa3d cd00 dabe
00000230: b8f3 203d 284f 823d 712c 593d f391 493e
00000240: 8c84 d93e 7bad c63d 02fa 43be ed64 fdbe
00000250: d952 d5bd bbca 993d
0.13901263 0.22324891 0.13128844 0.04213161 0.048543878 0.049882032 0.4588955 0.1043157
0.18521746 -0.010005211 0.07972925 -0.018341552 0.09749266 0.10400888 -0.119734585 0.2546475
0.3653521 -0.17778799 0.18581624 0.05454246 0.070929945 0.12721843 -0.07329898 -0.0792974
0.0932796 -0.14854784 0.15451896 -0.044777427 -0.015951518 0.26549557 0.07955926 -0.045823853
0.0070247995 -0.08054846 -0.024398765 0.14067878 -0.033639 -0.003277264 0.0979951 0.38995558
-0.0030297465 -0.069668844 -0.057288412 0.23743215 0.49401152 0.09222086 0.12651066 0.22819604
0.07769087 -0.058372036 -0.091983415 -0.4686741 -0.2847188 -0.19980252 -0.14505602 -0.07944205
-0.42977956 -0.22935541 -0.13706744 -0.099789955 -0.26654264 -0.0891977 -0.28377694 -0.12033845
-0.3184804 -0.3220139 -0.18573283 -0.09000967 -0.18239637 -0.2823923 -0.43333647 -0.017810479
-0.13639861 -0.27574342 -0.016013397 -0.24969831 0.073907845 -0.20932649 -0.15261094 -0.5219937
-0.2732886 -0.30586344 -0.050771143 -0.11451096 -0.09296226 -0.33266473 -0.055028316 -0.13584343
-0.27007136 -0.4714117 -0.1796052 -0.10795748 -0.04193275 -0.383533 -0.6333464 -0.29438803
-0.29326335 -0.4826218 -0.2789223 -0.20035473 -0.22044049 -0.20160833 -0.1516153 0.013633421
-0.19619858 -0.07259203 -0.43920463 0.3614664 0.28390804 -0.057133213 -0.0033784334 0.1584008
-0.030158235 0.18048514 -0.092470855 0.41634312 0.30902243 0.19411913 -0.17045584 -0.089036226
0.22559565 -0.11465984 -0.0751123 -0.08280327 0.048264083 0.039251804 0.11538452 -0.20320989
-0.024242125 0.28434822 0.042439222 -0.23518026 -0.006978909 -0.22303502 0.10704163 -0.22563206
0.12279267 0.25676197 0.12220454 -0.42578736 0.03929493 0.06362754 0.0530209 0.19684581
0.42483938 0.097010575 -0.19138339 -0.49491063 -0.104161926 0.07509371

weight f4 [2, 50]
00000000: 4b26 883d e697 b23e fa1d 743d 83d9 f9bd
00000010: 222a ed3e b2ff 073f db3e 8b3e 3a75 9ebe
00000020: bf97 25ba d69a c83e eaf7 c0bd fa0f 203d
00000030: 1b83 c3be dcf1 d6be 5dec 003f 33f9 d0be
00000040: c916 92be 827a 09bf 32c8 ccbd 5ee7 da3e
00000050: 6d83 15be a00a 36be 118d b0be 1078 0ebe
00000060: 1608 263e a45f cdbe 2f1e 413d 257b 013f
00000070: 3b4d 41be 29b7 22be 1673 d33e 80aa dd3e
00000080: b376 c0be 048f aa3e 9822 00bf 1285 f53e
00000090: 9094 713d 5be1 7dbe a6ed babe daae 023f
000000a0: 1c76 dcbe c090 a7be ec64 493e 0298 84bd
000000b0: e7ba 15bf ceb6 f9be b6b1 943e 017d b53e
000000c0: a0cf 92be df06 8a3e d475 053e a49d d1bd
000000d0: 9bcb ba3d 100f 473e 248c ebbe b71f b4be
000000e0: fa4d 9bbe fafd e03e e789 733d 73b3 9ebe
000000f0: e870 693e 53ea 3abe 2b39 b43e dad5 f73e
00000100: 0d90 bebe 49d0 e93e 173f 863e a749 e23e
00000110: 5de2 a1bd eb2e a6be 7daf de3d e9ae f73d
00000120: 2e7a b03e e5df b23d e186 1cbe d58b 793e
00000130: 5639 c7bd ea97 cebe b419 c63e 2359 cd3e
00000140: eddd ddbe 2324 b7be b516 b53e bf7c e4be
00000150: 2488 cb3e 7e7f f1be 94c6 d9bc 2dde c93e
00000160: 15c1 943e bf23 dabe 554b e53e 2f0e 013f
00000170: f1e4 9fbe 2938 0c3e 0ff5 e93e 3817 973e
00000180: 4cd7 b0be 503f 2bbe c3ed d73e 9017 25be
0.06647929 0.34881514 0.0595989 -0.1219969 0.46321207 0.53124535 0.27196392 -0.30948812
-0.00063168624 0.3918063 -0.09422286 0.039077736 -0.38185963 -0.419814 0.5036066 -0.40815124
-0.2853301 -0.5370256 -0.09999122 0.42754644 -0.14600916 -0.1777749 -0.34482625 -0.13912988
0.16214022 -0.4011203 0.047147926 0.5057853 -0.18877117 -0.15890183 0.4129874 0.43294144
-0.3759056 0.33312237 -0.50052786 0.47953087 0.05897957 -0.24792998 -0.36509436 0.5104805
-0.4305886 -0.32727623 0.19667405 -0.06474306 -0.58488315 -0.4877228 0.29041833 0.35446933
-0.2867403 0.26958367 0.13033229 -0.10235146 0.09120866 0.1943934 -0.46005356 -0.35180447
-0.3033293 0.4394377 0.059457686 -0.30996284 0.22796977 -0.1825345 0.35199866 0.48405343
-0.37219277 0.4566672 0.2622001 0.44196817 -0.079045035 -0.3245767 0.108733155 0.12093908
0.34468216 0.08734111 -0.15285827 0.24369748 -0.09727733 -0.40350276 0.38691485 0.40107068
-0.43333378 -0.35769758 0.35368887 -0.44626424 0.39752305 -0.4716758 -0.026583947 0.3942732
0.2905356 -0.42605397 0.44784036 0.5041227 -0.31229356 0.13693298 0.45694777 0.29509902
-0.34539258 -0.1672337 0.42173585 -0.1612227

bias f4 [2]
00000000: 98aa c9bc aecd 2a3e
-0.024617478 0.16680023

weight f4 [2, 50]
00000000: 57d0 953d 0210 743e f39a e83d 5750 743d
00000010: 096d eabd 8a30 153e 22cd 463e d4ed 023e
00000020: 59d6 3f3e f4bb 0f3e 2474 6c3d d139 4abd
00000030: f0ed a1bc 546a b1bd 4ef3 36bc 7c1a 82be
00000040: a494 473d d7ca d5bd 97c0 353e 3ad1 1e3e
00000050: baa7 073d 1aee 46bd bd0c 71bc 6119 423e
00000060: 6ecf 8cbd 0833 8d3d 98a3 bcbc 992e 133d
00000070: e164 f1bd b031 153c 74b9 693e 0b00 b0bc
00000080: c6e3 023e a45a 113e b7ba 81bd dd1e 43be
00000090: 5e74 06be dab8 383d 03eb 37be ae4d 29be
000000a0: 8b1c c23b c81a 02be a836 0bbe 3a3e 143d
000000b0: f7f9 0dbe 0880 533e 753b ba3b c7bf 5a3e
000000c0: fb4f a83b 953c 943d 1bcb 31be 8f47 16be
000000d0: 8350 45be db72 27be 9875 2dbe 2fd6 a7bd
000000e0: 7e84 903b 3d28 e13d 689a 0f3d a184 b6bd
000000f0: 81ef 5bbe 0fba 913b 7e30 8f3d 2a70 21bd
00000100: 05df 80bc 1427 98bd 13f7 893c 6b2f b7bc
00000110: bd81 c0bd 3371 24be 1aea 4b3e e73d 92bd
00000120: 43ce 22be c381 c4bc e1d2 fd3c 26ce 603e
00000130: 8933 553e 94de 53be 1e92 673e ad5a 3a3e
00000140: dd85 03be 5f78 5bbe 6e79 4abc 3546 9fbd
00000150: b3aa 06bd 75fa e2bd abc0 523e 4dd8 213e
00000160: 31aa dc3d 57eb c13b 5d62 493e 50e5 9d3d
00000170: 66eb 853c 961f 243e b628 5bbd 22e0 023e
00000180: e294 0bbe 58c3 90bd 5141 cc3d 2e25 993d
0.07315128 0.23834231 0.11357679 0.05964693 -0.11446578 0.14569297 0.1941419 0.12786037
0.18734111 0.14036542 0.057727948 -0.049371544 -0.019766778 -0.086628586 -0.011166407 -0.2541083
0.04872574 -0.10439079 0.17749248 0.15509501 0.03311894 -0.048566915 -0.01471251 0.18954994
-0.068755016 0.06894499 -0.023027226 0.03593311 -0.11786819 0.009106085 0.22824651 -0.021484395
0.12782201 0.14194733 -0.06334441 -0.19054742 -0.13130328 0.045098163 -0.17960744 -0.16533539
0.0059238127 -0.12705529 -0.13595068 0.036192156 -0.13864885 0.20654309 0.0056833574 0.2136222
0.0051364875 0.072381176 -0.17362635 -0.14675735 -0.19268994 -0.16352408 -0.1693939 -0.08195149
0.0044103255 0.10994003 0.035059363 -0.08912016 -0.21478082 0.0044472287 0.06991671 -0.03941361
-0.015731344 -0.074293286 0.016841447 -0.022361478 -0.093997456 -0.16058807 0.19913521 -0.07140713
-0.15898995 -0.023987656 0.030984344 0.2195364 0.2082044 -0.20690376 0.22614333 0.18198653
-0.12844034 -0.21432637 -0.012358053 -0.07777063 -0.032877635 -0.11082927 0.2058131 0.15805168
0.10774649 0.0059179473 0.19666429 0.077097535 0.016347598 0.16027674 -0.05350562 0.12780812
-0.13631013 -0.07068509 0.099733956 0.074777946

bias f4 [2]
00000000: c3af f73d 692d 8dbd
0.12094071 -0.06893427

amplitudes f4 [10000, 2]
00000000: 5ce0 1e3e ab04 fb3f 5ce0 1e3e ab04 fb3f
00000010: 5ce0 1e3e ab04 fb3f 5ce0 1e3e ab04 fb3f
00000020: 5ce0 1e3e ab04 fb3f 5ce0 1e3e ab04 fb3f
00000030: 5ce0 1e3e ab04 fb3f 5ce0 1e3e ab04 fb3f
00000040: 5ce0 1e3e ab04 fb3f 5ce0 1e3e ab04 fb3f
00000050: 5ce0 1e3e ab04 fb3f 5ce0 1e3e ab04 fb3f
00000060: 5ce0 1e3e ab04 fb3f 5ce0 1e3e ab04 fb3f
00000070: 5ce0 1e3e ab04 fb3f 5ce0 1e3e ab04 fb3f
00000080: 5ce0 1e3e ab04 fb3f 5ce0 1e3e ab04 fb3f
00000090: 5ce0 1e3e ab04 fb3f 5ce0 1e3e ab04 fb3f
000000a0: 5ce0 1e3e ab04 fb3f 5ce0 1e3e ab04 fb3f
000000b0: 5ce0 1e3e ab04 fb3f 5ce0 1e3e ab04 fb3f
000000c0: 5ce0 1e3e ab04 fb3f 5ce0 1e3e ab04 fb3f
000000d0: 5ce0 1e3e ab04 fb3f 5ce0 1e3e ab04 fb3f
000000e0: 5ce0 1e3e ab04 fb3f 5ce0 1e3e ab04 fb3f
000000f0: 5ce0 1e3e ab04 fb3f 5ce0 1e3e ab04 fb3f
00000100: 5ce0 1e3e ab04 fb3f 5ce0 1e3e ab04 fb3f
00000110: 5ce0 1e3e ab04 fb3f 5ce0 1e3e ab04 fb3f
00000120: 5ce0 1e3e ab04 fb3f 5ce0 1e3e ab04 fb3f
00000130: 5ce0 1e3e ab04 fb3f 5ce0 1e3e ab04 fb3f
00000140: 5ce0 1e3e ab04 fb3f 5ce0 1e3e ab04 fb3f
00000150: 5ce0 1e3e ab04 fb3f 5ce0 1e3e ab04 fb3f
00000160: 5ce0 1e3e ab04 fb3f 5ce0 1e3e ab04 fb3f
00000170: 5ce0 1e3e ab04 fb3f 5ce0 1e3e ab04 fb3f
00000180: 5ce0 1e3e ab04 fb3f 5ce0 1e3e ab04 fb3f
00000190: 5ce0 1e3e ab04 fb3f 5ce0 1e3e ab04 fb3f
000001a0: 5ce0 1e3e ab04 fb3f 5ce0 1e3e ab04 fb3f
000001b0: 5ce0 1e3e ab04 fb3f 5ce0 1e3e ab04 fb3f
000001c0: 5ce0 1e3e ab04 fb3f 5ce0 1e3e ab04 fb3f
000001d0: 5ce0 1e3e ab04 fb3f 5ce0 1e3e ab04 fb3f
000001e0: 5ce0 1e3e ab04 fb3f 5ce0 1e3e ab04 fb3f
000001f0: 5ce0 1e3e ab04 fb3f 5ce0 1e3e ab04 fb3f
00000200: 5ce0 1e3e ab04 fb3f 5ce0 1e3e ab04 fb3f
00000210: 5ce0 1e3e ab04 fb3f 5ce0 1e3e ab04 fb3f
00000220: 5ce0 1e3e ab04 fb3f 5ce0 1e3e ab04 fb3f
00000230: 5ce0 1e3e ab04 fb3f 5ce0 1e3e ab04 fb3f
00000240: 5ce0 1e3e ab04 fb3f 5ce0 1e3e ab04 fb3f
00000250: 5ce0 1e3e ab04 fb3f 5ce0 1e3e ab04 fb3f
00000260: 5ce0 1e3e ab04 fb3f 5ce0 1e3e ab04 fb3f
00000270: 5ce0 1e3e ab04 fb3f 5ce0 1e3e ab04 fb3f
00000280: 5ce0 1e3e ab04 fb3f 5ce0 1e3e ab04 fb3f
00000290: 5ce0 1e3e ab04 fb3f 5ce0 1e3e ab04 fb3f
000002a0: 5ce0 1e3e ab04 fb3f 5ce0 1e3e ab04 fb3f
000002b0: 5ce0 1e3e ab04 fb3f 5ce0 1e3e ab04 fb3f
000002c0: 5ce0 1e3e ab04 fb3f 5ce0 1e3e ab04 fb3f
000002d0: 5ce0 1e3e ab04 fb3f 5ce0 1e3e ab04 fb3f
000002e0: 5ce0 1e3e ab04 fb3f 5ce0 1e3e ab04 fb3f
000002f0: 5ce0 1e3e ab04 fb3f 5ce0 1e3e ab04 fb3f
00000300: 5ce0 1e3e ab04 fb3f 5ce0 1e3e ab04 fb3f
00000310: 5ce0 1e3e ab04 fb3f 5ce0 1e3e ab04 fb3f
00000320: 5ce0 1e3e ab04 fb3f 5ce0 1e3e ab04 fb3f
00000330: 5ce0 1e3e ab04 fb3f 5ce0 1e3e ab04 fb3f
00000340: 5ce0 1e3e ab04 fb3f 5ce0 1e3e ab04 fb3f
00000350: 5ce0 1e3e ab04 fb3f 5ce0 1e3e ab04 fb3f
00000360: 5ce0 1e3e ab04 fb3f 5ce0 1e3e ab04 fb3f
00000370: 5ce0 1e3e ab04 fb3f 5ce0 1e3e ab04 fb3f
00000380: 5ce0 1e3e ab04 fb3f 5ce0 1e3e ab04 fb3f
00000390: 5ce0 1e3e ab04 fb3f 5ce0 1e3e ab04 fb3f
000003a0: 5ce0 1e3e ab04 fb3f 5ce0 1e3e ab04 fb3f
000003b0: 5ce0 1e3e ab04 fb3f 5ce0 1e3e ab04 fb3f
000003c0: 5ce0 1e3e ab04 fb3f 5ce0 1e3e ab04 fb3f
000003d0: 5ce0 1e3e ab04 fb3f 5ce0 1e3e ab04 fb3f
000003e0: 5ce0 1e3e ab04 fb3f 5ce0 1e3e ab04 fb3f
000003f0: 5ce0 1e3e ab04 fb3f 5ce0 1e3e ab04 fb3f
0.15515274 1.96108 0.15515274 1.96108 0.15515274 1.96108 0.15515274 1.96108
0.15515274 1.96108 0.15515274 1.96108 0.15515274 1.96108 0.15515274 1.96108
0.15515274 1.96108 0.15515274 1.96108 0.15515274 1.96108 0.15515274 1.96108
0.15515274 1.96108 0.15515274 1.96108 0.15515274 1.96108 0.15515274 1.96108
0.15515274 1.96108 0.15515274 1.96108 0.15515274 1.96108 0.15515274 1.96108
0.15515274 1.96108 0.15515274 1.96108 0.15515274 1.96108 0.15515274 1.96108
0.15515274 1.96108 0.15515274 1.96108 0.15515274 1.96108 0.15515274 1.96108
0.15515274 1.96108 0.15515274 1.96108 0.15515274 1.96108 0.15515274 1.96108
0.15515274 1.96108 0.15515274 1.96108 0.15515274 1.96108 0.15515274 1.96108
0.15515274 1.96108 0.15515274 1.96108 0.15515274 1.96108 0.15515274 1.96108
0.15515274 1.96108 0.15515274 1.96108 0.15515274 1.96108 0.15515274 1.96108
0.15515274 1.96108 0.15515274 1.96108 0.15515274 1.96108 0.15515274 1.96108
0.15515274 1.96108 0.15515274 1.96108 0.15515274 1.96108 0.15515274 1.96108
0.15515274 1.96108 0.15515274 1.96108 0.15515274 1.96108 0.15515274 1.96108
0.15515274 1.96108 0.15515274 1.96108 0.15515274 1.96108 0.15515274 1.96108
0.15515274 1.96108 0.15515274 1.96108 0.15515274 1.96108 0.15515274 1.96108
0.15515274 1.96108 0.15515274 1.96108 0.15515274 1.96108 0.15515274 1.96108
0.15515274 1.96108 0.15515274 1.96108 0.15515274 1.96108 0.15515274 1.96108
0.15515274 1.96108 0.15515274 1.96108 0.15515274 1.96108 0.15515274 1.96108
0.15515274 1.96108 0.15515274 1.96108 0.15515274 1.96108 0.15515274 1.96108
0.15515274 1.96108 0.15515274 1.96108 0.15515274 1.96108 0.15515274 1.96108
0.15515274 1.96108 0.15515274 1.96108 0.15515274 1.96108 0.15515274 1.96108
0.15515274 1.96108 0.15515274 1.96108 0.15515274 1.96108 0.15515274 1.96108
0.15515274 1.96108 0.15515274 1.96108 0.15515274 1.96108 0.15515274 1.96108
0.15515274 1.96108 0.15515274 1.96108 0.15515274 1.96108 0.15515274 1.96108
0.15515274 1.96108 0.15515274 1.96108 0.15515274 1.96108 0.15515274 1.96108
0.15515274 1.96108 0.15515274 1.96108 0.15515274 1.96108 0.15515274 1.96108
0.15515274 1.96108 0.15515274 1.96108 0.15515274 1.96108 0.15515274 1.96108
0.15515274 1.96108 0.15515274 1.96108 0.15515274 1.96108 0.15515274 1.96108
0.15515274 1.96108 0.15515274 1.96108 0.15515274 1.96108 0.15515274 1.96108
0.15515274 1.96108 0.15515274 1.96108 0.15515274 1.96108 0.15515274 1.96108
0.15515274 1.96108 0.15515274 1.96108 0.15515274 1.96108 0.15515274 1.96108
