data/RNN_runs/sweep_H2/rnn_sto3g_H2_0-7348_eq1_nU100_nL1_lr00025_lrsO_ns1000.pt (torch_old, 185633 bytes, 9 tensors)

weight_ih f4 [300, 2]
-0.15661134 0.15076037 -0.086397104 0.23200998 -0.09592221 0.25033844 -0.067179054 0.0944353
-0.1020316 0.19122219 -0.041017417 0.15497504 -0.21319479 0.11331581 -0.17468837 0.1570324
-0.21848704 0.24322946 -0.16020812 0.20253214 0.042788226 0.16495602 -0.08730602 0.2570861
-0.16881749 0.20832473 -0.12099905 0.2372946 0.03603921 -0.08728619 -0.038163513 0.22660038
-0.09936337 0.22056454 0.0114140585 0.14623886 -0.22635715 0.14011776 -0.04703837 -0.0076439935
0.09660379 0.16989331 -0.080400996 0.04345486 -0.13343997 0.18221958 -0.10367612 0.025669418
0.11292367 0.24882658 -0.09234981 0.20564082 -0.09629935 0.2175867 -0.14911416 0.09735992
-0.15716413 0.29071397 -0.12333501 0.07416812 -0.02700055 0.18164945 -0.23495705 0.112118326
-0.08814254 0.2147062 -0.14470215 0.03273807 -0.13220441 0.25796002 -0.049542543 0.2295086
-0.18231735 0.10728335 -0.018667478 0.1865176 0.082466215 0.032400634 -0.106463216 0.27225715
-0.098856136 0.18333797 -0.12905146 0.17542276 -0.13512552 0.13602445 -0.12775862 0.1043849
0.08134431 0.15721807 -0.20467047 0.24440362 0.14086536 0.4001528 -0.19142792 0.20826113
0.317407 0.05626621 0.00075852737 0.1598398 -0.005178228 0.06974909 -0.12482921 0.10972427
-0.0073503554 0.101432696 -0.17633949 0.2195148 -0.03807647 0.16074438 -0.052817836 0.11454334
-0.062200736 0.16764835 -0.16245857 0.16875547 -0.075684674 0.16029775 -0.13409932 0.281505
-0.16017973 0.21404217 -0.044209674 0.10171881 -0.0022759314 0.13051091 0.044674393 0.19128895
-0.10531529 0.23934007 -0.1665745 0.23058738 0.17250381 -0.10028503 -0.1793469 0.1319126
-0.04757577 0.17936465 -0.07710103 0.1452163 -0.0047608963 0.18970153 -0.07779146 0.27416545
-0.032006394 0.119197726 -0.09034965 0.21354704 -0.16610035 0.072588965 -0.13644445 0.09728838
-0.030162519 0.23999043 -0.0022855552 0.23426057 -0.17297024 0.20225538 -0.16402093 0.20335676
-0.11490589 0.26752707 -0.211767 0.24683036 0.0070129596 0.19073729 -0.068332344 0.2633746
-0.020541897 0.2408803 -0.002552351 0.0046926686 -0.14612116 0.19730555 -0.23228168 0.11779051
0.06677326 -0.10026639 0.09278766 0.1516595 -0.15777783 0.1632846 -0.0658118 0.08265252
-0.009409953 0.037346926 -0.19832434 0.23371094 -0.04969165 0.0852317 -0.18917924 0.092932165
-0.085290864 0.2509985 -0.14509691 0.13727902 -0.12253547 0.09870402 -0.019065801 0.18035248
0.046929546 -0.12540664 -0.2014504 -0.26444933 -0.1723698 -0.22976266 -0.009330265 -0.103350036
0.026554387 -0.04518376 -0.0109613165 -0.110779695 0.058969907 -0.23036426 0.047385704 -0.19451647
0.061218735 -0.22233969 0.123996794 -0.1392245 -0.04093256 -0.18498376 0.13918634 -0.14655726
0.14935854 -0.22418772 0.027274294 -0.20277643 0.02537202 -0.18453826 -0.029760178 -0.19098032
0.032289483 -0.11507538 0.0774546 -0.22018206 0.1282732 -0.14447157 -0.30602917 -0.22737342
-0.0853684 -0.11564735 -0.13764393 -0.21975355 0.16784787 -0.034018166 -0.23985988 -0.28157496
-0.039833516 -0.16496728 0.07927218 -0.22229855 0.18570192 -0.2167727 -0.02711407 -0.1834404
00000000: b95e 20be ed60 1a3e f7f0 b0bd 0694 6d3e
00000010: dd72 c4bd 5c2c 803e 2c95 89bd 4b67 c13d
00000020: f2f5 d0bd c0cf 433e e101 28bd c7b1 1e3e
00000030: bc4f 5abe 1f12 e83d 82e1 32be 1acd 203e
00000040: 11bb 5fbe 2511 793e 990d 24be 9664 4f3e
00000050: b542 2f3d 3bea 283e 80cd b2bd caa0 833e
00000060: 7ede 2cbe 1453 553e 5ace f7bd 5bfd 723e
00000070: da9d 133d 1ac3 b2bd 5851 1cbd ee09 683e
00000080: 067f cbbd acdb 613e 0802 3b3c a4bf 153e
00000090: 2bca 67be 087b 0f3e 4eab 40bd 777a fabb
000000a0: 35d8 c53d 83f8 2d3e 47a9 a4bd b9fd 313d
000000b0: 7da4 08be c597 3a3e 2554 d4bd ac48 d23c
000000c0: 8644 e73d 65cc 7e3e e621 bdbd 8293 523e
000000d0: 9838 c5bd 0ccf 5e3e 62b1 18be a364 c73d
000000e0: a2ef 20be 76d8 943e 1197 fcbd 75e5 973d
000000f0: 4230 ddbc 5002 3a3e 9598 70be 4b9e e53d
00000100: 1384 b4bd f1db 5b3e cd2c 14be 5b18 063d
00000110: 9860 07be 5613 843e 1fed 4abd 4d04 6b3e
00000120: 66b1 3abe 5fb7 db3d 8aec 98bc 78fe 3e3e
00000130: 0ce4 a83d 87b6 043d 6309 dabd 4a65 8b3e
00000140: 1675 cabd f3bc 3b3e 1126 04be 06a2 333e
00000150: 585e 0abe fe49 0b3e 28d3 02be c0c7 d53d
00000160: d897 a63d c6fd 203e 2395 51be f144 7a3e
00000170: 023f 103e d4e0 cc3e ae05 44be 6842 553e
00000180: 2c83 a23e 6677 663d e9d7 463a 0bad 233e
00000190: 20ae a9bb 9cd8 8e3d 75a6 ffbd 1eb7 e03d
000001a0: 40db f0bb f2bb cf3d 5792 34be 7dc8 603e
000001b0: 13f6 1bbd 2d9a 243e 8457 58bd b395 ea3d
000001c0: 33c6 7ebd 02ac 2b3e 8a5b 26be 3cce 2c3e
000001d0: 9100 9bbd 1825 243e 5551 09be 6c21 903e
000001e0: 2806 24be df2d 5b3e 3415 35bd f451 d03d
000001f0: cb27 15bb a7a4 053e 7ffc 363d 40e1 433e
00000200: 8baf d7bd 9015 753e 8192 2abe 191f 6c3e
00000210: d7a4 303e 3d62 cdbd b7a6 37be 1914 073e
00000220: d0de 42bd 5eab 373e 25e7 9dbd 95b3 143e
00000230: 4b01 9cbb 1e41 423e 2151 9fbd 6a5f 8c3e
00000240: 2319 03bd f01d f43d 3d09 b9bd 13ac 5a3e
00000250: 3616 2abe 86a9 943d 18b8 0bbe 213f c73d
00000260: 6317 f7bc 0dc0 753e 41c9 15bb 01e2 6f3e
00000270: 1c1f 31be 091c 4f3e 1af5 27be c13c 503e
00000280: c753 ebbd 4ff9 883e 73d9 58be 19c1 7c3e
00000290: f8cc e53b a350 433e d4f1 8bbd 09d9 863e
000002a0: 7b47 a8bc 53a9 763e 5845 27bb f5c4 993b
000002b0: c9a0 15be 770a 4a3e 40db 6dbe 273c f13d
000002c0: 6bc0 883d 7758 cdbd 7507 be3d a14c 1b3e
000002d0: 8390 21be 1434 273e 56c8 86bd b945 a93d
000002e0: 342c 1abc 17f9 183d 8915 4bbe ec51 6f3e
000002f0: 7989 4bbd f58d ae3d 34b8 41be 3853 be3d
00000300: faac aebd e082 803e 4994 14be df92 0c3e
00000310: e0f3 fabd 5525 ca3d e22f 9cbc 52ae 383e
00000320: 3239 403d 996a 00be 0349 4ebe e765 87be
00000330: b581 30be e746 6bbe f8dd 18bc 2fa9 d3bd
00000340: 9688 d93c 9b12 39bd 1897 33bc 77e0 e2bd
00000350: 6e8a 713d 9ce4 6bbe 8317 423d 532f 47be
00000360: 7fc0 7a3d 04ad 63be 08f2 fd3d de90 0ebe
00000370: e6a8 27bd 626c 3dbe dd86 0e3e 1b13 16be
00000380: 72f1 183e 7791 65be 576e df3c a0a4 4fbe
00000390: fcd8 cf3c 99f7 3cbe 9ecb f3bc 5890 43be
000003a0: fa41 043d a4ac ebbd 84a0 9e3d 6877 61be
000003b0: 0d5a 033e 5bf0 13be dbaf 9cbe 94d4 68be
000003c0: a1d5 aebd 85d8 ecbd 88f2 0cbe 1307 61be
000003d0: 50e0 2b3e a256 0bbd d49d 75be 982a 90be
000003e0: 7828 23bd 2fed 28be 7459 a23d 3ba2 63be
000003f0: a528 3e3e aaf9 5dbe 531e debc cdd7 3bbe

weight_hh f4 [300, 100]
-0.005983381 -0.07489194 0.04878756 0.14022212 0.14410244 0.1645544 0.08013456 0.09829268
0.08099441 0.04453683 -0.027317243 0.03524016 -0.13612343 -0.003910292 -0.025067365 -0.04096227
-0.06854591 -0.11888594 0.10845223 0.03632538 0.15261123 -0.11005907 -0.10736597 -0.08934515
-0.0019063813 0.034129627 -0.007719919 0.0068535935 0.12163869 0.085720904 0.02457444 0.024244398
-0.024424745 -0.014878857 0.07836671 -0.016017145 0.041644633 0.22998549 -0.17148691 -0.077197
0.049152277 0.059997395 -0.12843382 0.04064753 0.10161463 0.08884991 0.010060747 -0.110003956
-0.12479491 0.14078632 -0.12342638 0.018263867 -0.08854236 -0.0071057226 0.037082106 0.12112338
0.13645327 -0.07633428 0.11364755 -0.1358725 -0.08933769 -0.06015749 0.0075697387 0.09129756
0.05517397 0.027572075 0.20166886 0.012856691 0.13331738 0.124065526 0.010309972 -0.11058868
-0.0036189738 -0.031466845 0.0017432825 -0.0019649356 0.08327063 0.1084007 0.09812792 0.07961379
-0.14550148 -0.09324131 -0.048765507 0.15474632 -0.0029152052 -0.03551661 -0.04152112 0.016280232
0.06289594 -0.07583668 0.07952599 -0.08549934 -0.21117081 -0.12582234 0.08956786 0.061083127
0.02271116 -0.044723745 -0.050546642 0.13413867 0.16228199 -0.05193325 0.116137415 0.15272172
0.05845275 0.2312977 0.14545898 0.0838307 0.02581669 0.18012077 0.060740326 0.17307022
-0.1921137 -0.14132258 0.09613127 0.17027412 -0.16591364 -0.1449176 0.094710894 -0.020390324
0.14601928 -0.012498071 -0.015033505 -0.077167064 0.010187188 -0.106202364 0.076674074 0.055740036
-0.0017173532 0.03201529 0.04169932 -0.09531332 -0.1154225 0.0052680983 0.109877884 -0.17322598
0.059819974 0.061844796 -0.12177439 -0.12886949 -0.10130851 -0.0014933252 -0.09427704 -0.0056844275
0.1705095 0.1374876 -0.23150322 -0.13960992 -0.13431866 0.23947652 -0.16576281 0.15287441
-0.21815586 0.15353389 0.027626999 0.13279444 0.1787064 -0.112352856 0.19602375 -0.02855417
-0.20406842 -0.055263326 0.017323734 0.086551145 0.10513757 0.23344019 0.1944474 0.124613725
0.07770832 0.106809005 -0.054984953 -0.102357484 -0.14996691 -0.10385924 0.051228363 -0.11837382
0.21894643 0.11480896 0.17249613 0.22679514 -0.15437427 -0.04900825 -0.047834475 0.24842982
0.15372495 -0.04415775 -0.044877734 0.054093543 0.05490806 -0.22788855 0.039558377 -0.20031735
-0.07373733 -0.17153993 0.19071887 0.2365078 -0.062895745 -0.017681658 -0.12810273 0.03197101
0.20521495 -0.03654118 0.13189024 0.12668471 0.19745255 0.2228709 0.11201466 0.09621326
0.20832713 0.11544877 0.078680046 0.098578796 -0.235037 -0.09288164 0.17495124 0.109780945
-0.10184367 -0.0855648 0.113248624 -0.04625815 0.14109977 -0.15591063 -0.19742629 -0.13051808
0.089835435 -0.123903 0.074295275 0.031573776 0.08064949 0.13982597 -0.03298643 -0.20483264
-0.035136137 0.050674118 0.04787293 -0.04464148 0.18652144 0.1823585 -0.2653072 -0.24914254
-0.14401287 0.20893145 -0.23527181 0.16133238 0.11992049 0.06388512 0.05729414 -0.20901355
0.024356674 0.12801893 -0.0659502 0.028611455 -0.09131499 0.18259788 0.16154903 0.24391665
00000000: 3d10 c4bb f260 99bd 77d5 473d 6396 0f3e
00000010: 978f 133e f380 283e 971d a43d ac4d c93d
00000020: 66e0 a53d 406c 363d 69c8 dfbc fc57 103d
00000030: f163 0bbe e821 80bb 135a cdbc 0ec8 27bd
00000040: cc61 8cbd 797a f3bd 341c de3d ecc9 143d
00000050: 1e46 1c3e a666 e1bd b1e2 dbbd 97fa b6bd
00000060: 8bdf f9ba 82cb 0b3d 60f7 fcbb 1c94 e03b
00000070: b51d f93d 718e af3d 5650 c93c 309c c63c
00000080: 6716 c8bc 73c6 73bc ba7e a03d 6336 83bc
00000090: 9093 2a3d 5181 6b3e 449a 2fbe 7619 9ebd
000000a0: e653 493d d4bf 753d 2884 03be 067e 263d
000000b0: 551b d03d f1f6 b53d d5d5 243c c149 e1bd
000000c0: 7994 ffbd 4a2a 103e f8c6 fcbd 1b9e 953c
000000d0: b255 b5bd 1fd7 e8bb 68e3 173d 890f f83d
000000e0: 68ba 0b3e 2655 9cbd 0cc0 e83d 2922 0bbe
000000f0: aef6 b6bd b367 76bd 920b f83b 37fa ba3d
00000100: 1afe 613d d5de e13c 4882 4e3e dfa4 523c
00000110: 5a84 083e 1116 fe3d 28eb 283c 517c e2bd
00000120: 4e2c 6dbb 61e3 00bd db7e e43a 26c6 00bb
00000130: cb89 aa3d 3001 de3d 4af7 c83d 8e0c a33d
00000140: 57fe 14be 4df5 bebd 57be 47bd d275 1e3e
00000150: 070d 3fbb dd79 11bd 0d12 2abd 1f5e 853c
00000160: 96cf 803d 4350 9bbd 86de a23d 471a afbd
00000170: 293d 58be 92d7 00be 5b6f b73d 4d32 7a3d
00000180: c10c ba3c 3f30 37bd ff09 4fbd a65b 093e
00000190: 402d 263e f6b7 54bd 74d9 ed3d 1563 1c3e
000001a0: 276c 6f3d 4ed9 6c3e 33f3 143e 6eaf ab3d
000001b0: 867d d33c 9471 383e d9ca 783d 5239 313e
000001c0: 74b9 44be deb6 10be 79e0 c43d 575c 2e3e
000001d0: 44e5 29be 4865 14be c9f7 c13d 9c09 a7bc
000001e0: 1486 153e b6c4 4cbc 174f 76bc c409 9ebd
000001f0: 2ae8 263c a080 d9bd 4c07 9d3d aa4f 643d
00000200: d018 e1ba 7722 033d e8cc 2a3d a133 c3bd
00000210: a262 ecbd 03a0 ac3b a807 e13d 2762 31be
00000220: ca05 753d f850 7d3d da64 f9bd 5df6 03be
00000230: d67a cfbd aebb c3ba 5214 c1bd 6f44 babb
00000240: 0b9a 2e3e 8dc9 0c3e 2e0f 6dbe e7f5 0ebe
00000250: d58a 09be 5539 753e babd 29be 1c8b 1c3e
00000260: 4064 5fbe fd37 1d3e 0452 e23c 44fb 073e
00000270: cffe 363e 4119 e6bd 73ba 483e 6fea e9bc
00000280: 50f7 50be cc5b 62bd 81ea 8d3c ba41 b13d
00000290: 5e52 d73d f20a 6f3e 381d 473e 7b35 ff3d
000002a0: 8a25 9f3d aebe da3d e737 61bd cda0 d1bd
000002b0: ed90 19be 27b4 d4bd d5d4 513d f96d f2bd
000002c0: 7e33 603e f620 eb3d d3a2 303e fc3c 683e
000002d0: 4a14 1ebe e0bc 48bd 15ee 43bd 6364 7e3e
000002e0: 136a 1d3e c2de 34bd b7d1 37bd 3191 5d3d
000002f0: 46e7 603d 9e5b 69be f707 223d fe1f 4dbe
00000300: 9903 97bd 2aa8 2fbe cf4b 433e 1a2f 723e
00000310: 7ccf 80bd 20d9 90bc 5d2d 03be 09f4 023d
00000320: de23 523e 34ac 15bd 3c0e 073e a3b9 013e
00000330: 0031 4a3e 4538 643e f167 e53d 750b c53d
00000340: b553 553e 6870 ec3d 0123 a13d aee3 c93d
00000350: 8aad 70be bb38 bebd 6b26 333e d5d4 e03d
00000360: 6a93 d0bd 993c afbd e5ee e73d 3079 3dbd
00000370: 757c 103e 09a7 1fbe 1e2a 4abe 88a6 05be
00000380: a4fb b73d dbc0 fdbd 1f28 983d 8153 013d
00000390: 8f2b a53d 8a2e 0f3e c71c 07bd a6bf 51be
000003a0: e9ea 0fbd aa8f 4f3d 6816 443d fcd9 36bd
000003b0: 7aff 3e3e 30bc 3a3e 58d6 87be 391f 7fbe
000003c0: 1c78 13be 20f2 553e 18eb 70be 5134 253e
000003d0: e098 f53d 34d6 823d 43ad 6a3d a607 56be
000003e0: a687 c73c 6517 033e e610 87bd 9262 ea3c
000003f0: 5a03 bbbd f0fa 3a3e 1c6d 253e 49c5 793e

bias_ih f4 [300]
0.07576859 0.121517725 0.14101166 0.24499242 0.14477146 0.17597723 0.097294085 0.15633973
0.046245404 0.10990415 0.01343142 0.040192127 0.05080574 0.13133447 -0.021756051 0.14450501
-0.10721441 0.07679654 0.039957628 0.05407251 0.25292936 -0.106408045 0.008016807 0.014304143
0.116494015 0.048772886 0.015811263 0.021947682 0.10559202 -0.04631453 -0.025401663 0.1411086
-0.012538073 -0.05001633 0.08512509 0.15287611 0.0012371581 0.16767518 0.04030825 0.048797924
0.042380165 0.14531843 0.03586405 -0.13948674 0.17264439 0.109864265 0.26544464 0.052672625
0.12782837 0.03850046 0.09959707 0.013315405 0.09458358 -0.0725168 0.052182827 0.08647493
-0.0870393 0.017337332 0.22185111 0.010108603 -0.06008355 -0.14735937 -0.04181884 0.049281336
0.1426995 -0.0043751183 0.09575239 0.0017144721 0.030001018 0.093191415 0.025155945 -0.010539292
0.11493444 0.02372276 -0.0023707899 0.13936007 0.113267936 -0.021673838 0.12933236 0.17117502
0.077495635 -0.1301746 0.054259416 0.102778085 0.09345856 0.12487308 0.010866623 0.042440187
0.012622379 0.087090015 0.003721456 0.12899816 0.05913401 -0.029361095 0.009513879 0.064144626
0.13522077 0.16117558 0.088909715 0.019812038 -0.12791058 -0.26621798 -0.21412632 -0.16084826
-0.05685741 -0.13452834 -0.12509932 -0.19479099 -0.22772317 -0.0699439 -0.0795215 -0.076939076
-0.082042724 -0.10504999 -0.16429763 -0.103455864 -0.17241137 0.012923092 -0.03770646 -0.22996257
-0.16199125 -0.27370793 -0.112884074 -0.27996653 -0.2729489 -0.1785923 -0.16171944 -0.24912344
-0.23142882 -0.2264831 -0.2992242 -0.15904021 -0.22791949 -0.22370112 -0.18784824 -0.0400804
-0.03672278 -0.03187624 -0.16272698 -0.16850801 -0.14914997 -0.11080483 0.006499187 -0.21998298
-0.19864607 -0.12264575 -0.2629002 -0.027345253 -0.19742262 -0.024399234 -0.002733734 -0.16059479
-0.10029671 -0.22323838 -0.17332266 -0.08158386 0.006137286 -0.16504619 -0.033352487 -0.16453771
-0.15297236 -0.21900661 -0.19916864 -0.11877261 -0.075397216 -0.09428003 -0.13317895 -0.069320925
-0.11744201 -0.037739262 -0.3717528 -0.119083844 -0.065001555 -0.17519608 -0.01985372 -0.11985941
-0.022780843 -0.18261021 -0.10751816 -0.09007903 -0.076755345 -0.014348654 -0.17696613 -0.10016932
-0.12535235 -0.32375145 -0.23656397 -0.07398337 -0.23311023 -0.111344844 -0.2515989 -0.12682234
-0.021302924 -0.022414396 -0.1671613 -0.16121028 -0.1268725 -0.1476553 -0.17287019 -0.021074438
0.13339613 0.23225205 0.11711018 0.112798415 0.18166521 0.06776595 0.16540308 0.13319832
0.073109 0.06721324 0.081366085 0.080618106 -0.09626251 -0.14741474 0.20212612 0.10136955
-0.12672445 0.065300696 0.11621355 -0.17069666 -0.071457215 -0.0219645 -0.14668928 -0.08951172
0.2078437 -0.15915252 0.112863496 0.056516916 0.13211146 0.06730007 -0.19139953 -0.037541326
-0.09379045 0.16279006 0.21844451 -0.15855782 0.123820715 0.0786981 0.00070723274 -0.13084404
-0.015316568 0.08997216 -0.17277566 0.16064042 0.0006447674 0.18637285 0.17917608 -0.045672305
0.10072227 0.030590925 -0.16338998 0.17673074 -0.12652856 0.032227945 0.09770469 0.086010136
00000000: 902c 9b3d 49de f83d 5c65 103e 4bdf 7a3e
00000010: f83e 143e 6033 343e 1f42 c73d 8617 203e
00000020: d26b 3d3d 6d15 e13d 750f 5c3c 80a0 243d
00000030: ae19 503d 8b7c 063e bf39 b2bc 1ff9 133e
00000040: 3b93 dbbd 8147 9d3d 9caa 233d 237b 5d3d
00000050: f57f 813e 76ec d9bd ed58 033c ed5b 6a3c
00000060: 6a94 ee3d 14c6 473d 9f86 813c a0cb b33c
00000070: a140 d83d 4eb4 3dbd 2617 d0bc c67e 103e
00000080: 7d6c 4dbc ecdd 4cbd 1056 ae3d 8e8b 1c3e
00000090: 2328 a23a 0bb3 2b3e 431a 253d 55e0 473d
000000a0: d396 2d3d 5bce 143e 2fe6 123d 9dd5 0ebe
000000b0: b1c9 303e 8400 e13d 5ce8 873e 40bf 573d
000000c0: 71e5 023e a9b2 1d3d 8cf9 cb3d db28 5a3c
000000d0: 09b5 c13d b083 94bd a9bd 553d c519 b13d
000000e0: a941 b2bd 0507 8e3c f02c 633e 8e9e 253c
000000f0: 2b1a 76bd 60e5 16be 3b4a 2bbd 3adb 493d
00000100: d11f 123e 275d 8fbb d419 c43d 23b8 e03a
00000110: b2c4 f53c 24db be3d d713 ce3c ffac 2cbc
00000120: bf62 eb3d 3c56 c23c 415f 1bbb 68b4 0e3e
00000130: 05f9 e73d 558d b1bc b46f 043e 8148 2f3e
00000140: 08b6 9e3d 7e4c 05be 1f3f 5e3d 517d d23d
00000150: 3467 bf3d 75bd ff3d ec09 323c c3d5 2d3d
00000160: 18ce 4e3c 405c b23d ace3 733b 1818 043e
00000170: 8136 723d ae86 f0bc 1ae0 1b3c 425e 833d
00000180: 5077 0a3e 360b 253e 4c16 b63d db4c a23c
00000190: fefa 02be b94d 88be ee43 5bbe 68b5 24be
000001a0: 51e3 68bd ccc1 09be 091a 00be 4a77 47be
000001b0: 4330 69be bf3e 8fbd 2bdc a2bd 3c92 9dbd
000001c0: 0406 a8bd 7324 d7bd a33d 28be abe0 d3bd
000001d0: 9b8c 30be 60bb 533c 1772 1abd 4f7b 6bbe
000001e0: 09e1 25be 7223 8cbe c42f e7bd c657 8fbe
000001f0: f5bf 8bbe e6e0 36be c899 25be 371a 7fbe
00000200: adfb 6cbe 30eb 67be ea33 99be 70db 22be
00000210: ba63 69be e811 65be 4a5b 40be 582b 24bd
00000220: a06a 16bd a990 02bd e7a1 26be 5d8d 2cbe
00000230: c5ba 18be a5ed e2bd 22f7 d43b 3843 61be
00000240: e069 4bbe b22d fbbd db9a 86be 2703 e0bc
00000250: 2829 4abe e7e0 c7bc 7228 33bb f672 24be
00000260: 5d68 cdbd 9a98 64be 7f7b 31be 7015 a7bd
00000270: 491b c93b de01 29be 9e9c 08bd 937c 28be
00000280: c9a4 1cbe 4543 60be ddf2 4bbe 0e3f f3bd
00000290: db69 9abd e315 c1bd 1060 08be 21f8 8dbd
000002a0: 7085 f0bd 7c94 1abd 6256 bebe 3be2 f3bd
000002b0: 891f 85bd 9a66 33be 45a4 a2bc da78 f5bd
000002c0: e49e babc 2cfe 3abe 7b32 dcbd 5b7b b8bd
000002d0: e831 9dbd 9e16 6bbc 9c36 35be 9325 cdbd
000002e0: 5e5c 00be c0c2 a5be d33d 72be 9884 97bd
000002f0: 73b4 6ebe c408 e4bd 92d1 80be b7dd 01be
00000300: 7883 aebc 659e b7bc 552c 2bbe 4f14 25be
00000310: ddea 01be f332 17be e204 31be 4da4 acbc
00000320: ff98 083e 7bd3 6d3e 76d7 ef3d db02 e73d
00000330: 7206 3a3e e0c8 8a3d 6d5f 293e 2465 083e
00000340: 2cba 953d 18a7 893d 43a3 a63d 1b1b a53d
00000350: 4725 c5bd e4f3 16be 26fa 4e3e d79a cf3d
00000360: 0ec4 01be 5fbc 853d 5f01 ee3d 1bcb 2ebe
00000370: 2958 92bd e5ee b3bc b735 16be ec51 b7bd
00000380: fbd4 543e e1f8 22be fa24 e73d 487e 673d
00000390: 3a48 073e 9ed4 893d 3dfe 43be efc4 19bd
000003a0: 3515 c0bd 70b2 263e ebaf 5f3e fb5c 22be
000003b0: b795 fd3d 782c a13d 9665 393a fbfb 05be
000003c0: 58f2 7abc 5343 b83d 1aec 30be ec7e 243e
000003d0: 9c05 293a 86d8 3e3e ef79 373e e212 3bbd
000003e0: 7a47 ce3d d299 fa3c b44f 27be e7f8 343e
000003f0: b490 01be 7301 043d 6619 c83d 1526 b03d

bias_hh f4 [300]
0.08083732 0.17922299 0.16568199 0.09867387 0.1376037 0.027198656 0.009054815 0.012977617
-0.00018427469 -0.05984756 0.13013315 0.12277542 0.05460071 0.10390412 -0.087845065 0.080927484
0.054097872 0.15559636 -0.013176323 -0.054624774 0.31672254 -0.13374901 -0.051464286 -0.10356305
0.120523825 -0.012269672 0.09878537 -0.016276583 -0.020402435 -0.009038281 0.100666545 0.12251859
0.04664776 -0.07387693 0.16409445 0.14461146 0.0762025 0.07210577 0.18262441 0.14736496
0.17055482 -0.00050236116 0.08487032 -0.0316516 0.006501251 -0.039538097 0.2701704 -0.0466625
0.10353687 0.04233306 0.10075346 0.01480942 0.06410793 -0.18662155 0.08249657 0.07646213
-0.020638393 0.04474318 0.15421534 0.11170706 0.005234048 -0.063280195 0.11033245 0.13161325
0.10828776 0.034586497 -0.015704166 0.05579647 0.12903239 -0.043672103 0.06896382 0.03649321
0.02139124 0.14983965 0.18523762 0.09883141 0.2002169 0.011957774 -0.031443387 -0.0031688863
0.051202424 -0.12888741 -0.10492016 -0.010476166 0.036975417 -0.049373955 -0.006166982 0.032982938
-0.023813725 0.108184546 0.0758167 0.11106261 0.07943248 0.046744745 0.049340215 0.1257521
0.11261909 0.17440428 0.017059715 0.060610574 -0.072176106 -0.2992559 -0.25293583 -0.06591513
-0.016415168 0.0072419764 -0.19592363 -0.23235437 -0.21408652 -0.09645058 -0.18809214 -0.06570575
-0.17677751 -0.04054424 -0.1497067 -0.18626009 -0.016641336 0.017233744 -0.0494066 -0.3082561
-0.06441733 -0.14468725 -0.20845559 -0.17949998 -0.13506556 -0.13582677 -0.07007159 -0.20141312
-0.29065582 -0.16403589 -0.23470952 -0.1435301 -0.2420296 -0.07748676 -0.16329356 -0.06120452
-0.17517813 -0.1685818 -0.16982959 -0.10561415 -0.15052722 -0.23662733 -0.030764375 -0.15014625
-0.15945397 -0.08686343 -0.3755256 -0.08124094 -0.23156084 -0.02092724 -0.082996234 -0.15434536
0.017348202 -0.17885384 -0.028247843 -0.048886582 -0.13933778 -0.07037732 0.035366226 -0.10465747
-0.10473561 -0.15935321 -0.25302804 -0.054825675 -0.13051835 -0.17335744 -0.19592276 -0.18177697
-0.06890599 -0.14429028 -0.29797402 -0.015161588 -0.009237344 -0.16088164 -0.06744405 -0.09517142
-0.03523784 -0.33846506 -0.04026666 -0.14129646 -0.03739937 -0.12065162 -0.20585632 -0.12299565
-0.19606462 -0.34538564 -0.09125327 -0.1298704 -0.25382513 -0.11339512 -0.28110766 -0.073880106
-0.12391037 -0.05979682 -0.0505398 -0.044432633 -0.17156546 -0.05652918 -0.100187846 -0.18074492
0.18554182 0.2099948 0.088690884 -0.072487496 0.14543779 0.13936742 0.10081397 0.16692205
0.14096105 0.058721967 0.113340534 0.1293313 -0.028629271 -0.07322753 0.019730348 0.13157775
-0.018224759 -0.062409453 0.03437258 -0.027653325 -0.07085024 -0.0029437288 -0.026981266 -0.034208152
0.08106906 -0.124503955 0.014294174 0.10973668 0.12411037 0.058970846 -0.08293539 -0.13937607
-0.11004963 0.018640574 0.18699127 -0.11993836 0.017405944 -0.038098592 -0.04164694 -0.039817818
-0.17630345 0.12282671 -0.093987174 0.027093139 0.061311245 0.11821213 0.26582634 -0.10078418
0.039383784 0.093193494 -0.17353012 0.095906556 -0.10940218 -0.00569237 0.10235766 0.09563425
00000000: 098e a53d 3b86 373e 8aa8 293e 8715 ca3d
00000010: fce7 0c3e b7cf de3c a65a 143c 12a0 543c
00000020: dc39 41b9 b722 75bd a041 053e ae71 fb3d
00000030: fea4 5f3d afcb d43d 1de8 b3bd 4fbd a53d
00000040: bb95 5d3d a754 1f3e 81e1 57bc 3abe 5fbd
00000050: 7529 a23e 80f5 08be 37cc 52bd dd18 d4bd
00000060: 32d5 f63d bc06 49bc fc4f ca3d 7856 85bc
00000070: 0223 a7bc 4c15 14bc 432a ce3d 07eb fa3d
00000080: b911 3f3d ca4c 97bd 6008 283e 0715 143e
00000090: 0e10 9c3d 31ac 933d e501 3b3e d7e6 163e
000000a0: eca5 2e3e e3b0 03ba 7ed0 ad3d 1ca5 01bd
000000b0: 7208 d53b b3f2 21bd c653 8a3e 2d21 3fbd
000000c0: 230b d43d 6e65 2d3d d457 ce3d 36a3 723c
000000d0: 054b 833d b819 3fbe f6f3 a83d 2d98 9c3d
000000e0: d911 a9bc a044 373d a0ea 1d3e acc6 e43d
000000f0: 6082 ab3b 0c99 81bd fbf5 e13d a0c5 063e
00000100: f9c5 dd3d 92aa 0d3d 06a6 80bc d78a 643d
00000110: 1121 043e 85e1 32bd e73c 8d3d e779 153d
00000120: af3c af3c 916f 193e eeae 3d3e 1f68 ca3d
00000130: a905 4d3e 8aea 433c c8ca 00bd 17ad 4fbb
00000140: a2b9 513d 10fb 03be 61e0 d6bd 3aa4 2bbc
00000150: 8973 173d 583c 4abd 6514 cabb 1e19 073d
00000160: 0015 c3bc dc8f dd3d c945 9b3d cb74 e33d
00000170: 7fad a23d 6b77 3f3d f718 4a3d 29c5 003e
00000180: d6a4 e63d 0997 323e d1c0 8b3c cb42 783d
00000190: 11d1 93bd 1238 99be ce80 81be 83fe 86bd
000001a0: 1a79 86bc 1a4e ed3b 34a0 48be 4eee 6dbe
000001b0: 7f39 5bbe e287 c5bd 3a9b 40be bc90 86bd
000001c0: 2a05 35be b811 26bd b74c 19be f7ba 3ebe
000001d0: 6953 88bc c82d 8d3c 935e 4abd bed3 9dbe
000001e0: 3ced 83bd e528 14be 6275 55be d8ce 37be
000001f0: a04e 0abe 2c16 0bbe b281 8fbd 3e3f 4ebe
00000200: d7d0 94be 06f9 27be b157 70be 8ef9 12be
00000210: 9cd6 77be 61b1 9ebd 6d36 27be 97b1 7abd
00000220: e561 33be b5a0 2cbe cfe7 2dbe 3b4c d8bd
00000230: cf23 1abe 6f4e 72be 9205 fcbc f0bf 19be
00000240: e747 23be 74e5 b1bd e444 c0be a661 a6bd
00000250: 491e 6dbe 9a6f abbc eef9 a9bd b60c 1ebe
00000260: d11d 8e3c 7625 37be 0568 e7bc 4c3d 48bd
00000270: 90ae 0ebe fc21 90bd 2ddc 103d a856 d6bd
00000280: a07f d6bd 7d2d 23be e48c 81be e390 60bd
00000290: 9aa6 05be 9d84 31be fa9f 48be be23 3abe
000002a0: 951e 8dbd d5c0 13be 0d90 98be 4f68 78bc
000002b0: 3b58 17bc 28be 24be 1b20 8abd 3ce9 c2bd
000002c0: 8e55 10bd 4b4b adbe a7ee 24bd 05b0 10be
000002d0: 1530 19bd 3218 f7bd 00cc 52be 25e5 fbbd
000002e0: 2ac5 48be 63d6 b0be ffe2 babd bffc 04be
000002f0: 5ef5 81be b33b e8bd 58ed 8fbe 744e 97bd
00000300: b8c4 fdbd 83ed 74bd d202 4fbd fefe 35bd
00000310: dbae 2fbe 248b 67bd 492f cdbd 3215 39be
00000320: adfe 3d3e e008 573e 91a3 b53d 5374 94bd
00000330: a5ed 143e 55b6 0e3e 8e77 ce3d 9ded 2a3e
00000340: 1858 103e 7286 703d 151f e83d 6d6f 043e
00000350: ef87 eabc 51f8 95bd 8aa1 a13c 51bc 063e
00000360: 174c 95bc 0ea1 7fbd 43ca 0c3d 3a89 e2bc
00000370: ee19 91bd 93eb 40bb d107 ddbc d91d 0cbd
00000380: 8907 a63d eefb febd 1c32 6a3c a0bd e03d
00000390: 942d fe3d 6a8b 713d 08da a9bd 9ab8 0ebe
000003a0: b361 e1bd 1eb4 983c a47a 3f3e 3ea2 f5bd
000003b0: e996 8e3c 450d 1cbd fb95 2abd 0218 23bd
000003c0: e488 34be 928c fb3d 597c c0bd 6ef2 dd3c
000003d0: 8021 7b3d 3419 f23d 641a 883e f067 cebd
000003e0: e450 213d 3bdc be3d e1b1 31be a86a c43d
000003f0: 400e e0bd 0f87 babb e5a0 d13d e4db c33d

weight f4 [2, 100]
0.1754851 0.23578925 0.27773884 0.046240333 0.024331816 0.1635441 0.15126409 0.14062932
0.21780303 0.21068813 0.013668025 0.17883761 -0.068961605 -0.11093356 0.23069884 0.20344396
-0.087788984 -0.11286091 0.17976879 -0.26952076 0.08808058 -0.2497988 -0.12796965 -0.23784773
0.24043049 -0.13186797 0.09447133 0.23896806 0.27031738 0.2688052 -0.2814379 -0.24027254
-0.27093998 0.19265035 0.12896234 -0.2217363 0.124829434 0.16596626 -0.08597904 -0.12939087
-0.20773864 0.27312744 -0.21211995 0.27689767 0.0007698188 0.21465832 0.22282945 -0.18396984
0.25030097 0.18730393 -0.051213257 0.20487016 -0.08772283 0.2287056 0.049384568 0.20564266
0.20533049 -0.22247867 0.118200384 -0.098559886 -0.16719897 -0.21244776 0.21385221 0.060155544
0.15254493 0.15274033 0.069864824 0.1788971 0.10130499 0.21751003 -0.28423265 -0.22156791
-0.07181514 -0.21336697 0.12509814 -0.06902249 0.017333815 0.2457101 0.20210776 0.14624637
-0.20270531 -0.20678101 -0.191726 0.20768586 0.2121525 0.29268777 -0.18148297 0.18642801
-0.031834126 -0.048689526 0.2766484 -0.15652266 -0.09659683 -0.19350469 0.233853 0.19601029
-0.17165433 -0.23159699 -0.18610895 0.08617286 -0.15970466 -0.15411262 -0.26298282 -0.09797297
-0.17714071 -0.007147906 -0.25315428 -0.2504954 -0.22097331 -0.16234103 -0.19017924 -0.18138658
0.2206548 0.17187932 -0.22160043 -0.2353694 0.2143488 0.12356595 -0.23750879 0.25858778
0.045266382 0.25696513 0.18366873 0.25062963 -0.2917254 0.24734099 -0.21602713 -0.27952018
-0.2776934 -0.16353013 0.1427821 0.25056553 0.21905923 -0.20473477 -0.27367797 0.17300539
-0.20394172 -0.0908245 0.060058214 0.11662324 0.19084348 -0.21397372 0.047100082 -0.22479412
-0.14622387 -0.15054096 -0.31389737 0.22170673 -0.23425674 -0.113114946 0.20120524 -0.15161876
0.056345522 -0.17277999 -0.19124363 -0.19009925 -0.13428123 0.056584425 -0.045951083 0.24540664
0.14828888 0.19949232 -0.24936399 -0.116315454 -0.1558366 -0.19598334 0.07888116 -0.21859436
-0.19431609 -0.055742785 0.28353104 0.14527713 0.151315 0.22644277 -0.098675 0.14274868
-0.19901165 -0.2873935 -0.10193821 -0.08894927 0.19957237 0.1951154 0.2239529 -0.054580502
-0.15166968 -0.28748977 0.22660774 -0.19603816 -0.021932282 0.1053126 -0.2599758 0.15554085
0.0032663452 0.1794334 -0.05291622 -0.086001486 0.1427726 0.11880869 0.22259939 -0.21365206
00000000: 5eb2 333e bd72 713e c933 8e3e 8166 3d3d
00000010: 8453 c73c 1b78 273e f9e4 1a3e 2201 103e
00000020: c207 5f3e a1be 573e daef 5f3c 3521 373e
00000030: be3b 8dbd 2231 e3bd 513c 6c3e 9d53 503e
00000040: b6ca b3bd 9f23 e7bd 4f15 383e a0fe 89be
00000050: 9763 b43d 42cb 7fbe 7a0a 03be 5b8e 73be
00000060: 6933 763e 6608 07be 2f7a c13d 0bb4 743e
00000070: 0a67 8a3e d6a0 893e a118 90be 010a 76be
00000080: a5b8 8abe 2246 453e b40e 043e d70e 63be
00000090: 93a6 ff3d 0ff3 293e c715 b0bd 0a7f 04be
000000a0: 70b9 54be 5cd7 8b3e f935 59be 88c5 8d3e
000000b0: aacd 493a 64cf 5b3e 672d 643e 9762 3cbe
000000c0: 7327 803e 9acc 3f3e fec4 51bd 7cc9 513e
000000d0: 07a8 b3bd cd31 6a3e 7947 4a3d fd93 523e
000000e0: 2842 523e 73d1 63be 0b13 f23d c4d9 c9bd
000000f0: 3536 2bbe e88b 59be 13fc 5a3e a965 763d
00000100: bd34 1c3e f667 1c3e 4a15 8f3d cd30 373e
00000110: fe78 cf3d f3ba 5e3e f186 91be b3e2 62be
00000120: d113 93bd df7c 5abe ba19 003e aa5b 8dbd
00000130: a5ff 8d3c 6e9b 7b3e 56f5 4e3e 9cc1 153e
00000140: fb91 4fbe 67be 53be d253 44be 9aab 543e
00000150: 813e 593e 2cdb 953e acd6 39be fce6 3e3e
00000160: 8064 02bd ab6e 47bd dca4 8d3e 7a47 20be
00000170: 8fd4 c5bd 1826 46be 2977 6f3e ecb6 483e
00000180: 27c6 2fbe c327 6dbe 5893 3ebe 657b b03d
00000190: 9e89 23be b3cf 1dbe afa5 86be 0da6 c8bd
000001a0: 6064 35be fb38 eabb 709d 81be ef40 80be
000001b0: d446 62be ba3c 26be 59be 42be 67bd 39be
000001c0: 55f3 613e 2201 303e 39eb 62be ad04 71be
000001d0: 407e 5b3e 2510 fd3d 8135 73be 9e65 843e
000001e0: 3e69 393d ef90 833e a813 3c3e 8752 803e
000001f0: 085d 95be f546 7d3e 3736 5dbe 451d 8fbe
00000200: d42d 8ebe 7174 27be 7935 123e 204a 803e
00000210: 1051 603e fea5 51be 851f 8cbe 5328 313e
00000220: 19d6 50be 3202 babd 9aff 753d 2ad8 ee3d
00000230: 796c 433e ed1b 5bbe 04ec 403d 6e30 66be
00000240: b6bb 15be 6927 1abe 28b7 a0be 1707 633e
00000250: 00e1 6fbe cfa8 e7bd bf08 4e3e f341 1bbe
00000260: 90ca 663d 3ded 30be 5fd5 43be 61a9 42be
00000270: 0581 09be 12c5 673d 3437 3cbd e14b 7b3e
00000280: 0ad9 173e b747 4c3e 4659 7fbe cc36 eebd
00000290: a193 1fbe dbaf 48be 728c a13d 33d7 5fbe
000002a0: ccfa 46be 8c52 64bd fb2a 913e 87c3 143e
000002b0: 52f2 1a3e 9de0 673e 1e16 cabd b62c 123e
000002c0: b6c9 4bbe 3e25 93be fbc4 d0bd 092b b6bd
000002d0: b35c 4c3e 55cc 473e e953 653e ce8f 5fbd
000002e0: 4c4f 1bbe dc31 93be dc0b 683e 3abe 48be
000002f0: 54ab b3bc 22ae d73d 8c1b 85be 1a46 1f3e
00000300: 2e10 563b 64bd 373e aebe 58bd 8c21 b0bd
00000310: fb32 123e f851 f33d 18f1 633e 9bc7 5abe

bias f4 [2]
0.081545845 -0.14429286
00000000: 8201 a73d 82c1 13be

weight f4 [2, 100]
0.09732815 0.035162814 -0.0015727729 0.048926897 -0.09398674 0.029542126 -0.016102813 0.03335806
0.091317184 -0.023582198 0.079696484 -0.0034558773 0.0731545 0.015785828 0.07520305 -0.01186844
-0.052345514 -0.043347824 -0.006884612 -0.058033504 -0.001874134 0.024315216 0.029923595 -0.052496422
0.010016002 0.09955723 -0.09719256 0.077546395 -0.019610047 0.02791705 -0.08584445 0.06635339
-0.021700956 0.081065424 -0.021973431 -0.06030778 -0.019060329 0.051950745 0.09833299 -0.09483361
-0.035976186 0.044999175 -0.022568047 -0.02424381 -0.03502406 0.027065463 0.006005466 -0.061096597
-0.011093065 -0.060305502 -0.09247221 0.043748043 0.08528177 0.06641238 -0.08720783 -0.0416626
-0.064527966 0.073434494 -0.08923502 0.016379975 -0.09141036 -0.0253191 -0.0923306 -0.06728251
0.060581423 -0.019918099 -0.027036607 -0.030660093 0.08896684 0.08308304 -0.08952971 -0.06779963
0.06401441 0.07437908 0.011765406 0.093468614 0.06899088 0.0798986 -0.04862193 0.06591085
0.01725614 -0.08788687 -0.025638998 0.06510318 -0.09598871 0.08374233 0.085447855 -0.099300645
-0.06426895 0.023621157 -0.09340387 0.075522296 -0.05189525 -0.07101552 0.027293451 -0.09582517
0.08143098 0.08332611 0.099630915 -0.021215834 -0.09832432 0.03175024 -0.08247377 0.070659496
0.061661907 0.041553386 -0.024548724 0.040803663 -0.04552461 0.060245298 -0.08644406 0.007298231
0.073376454 0.09690312 -0.039267328 -0.05905032 -0.017699957 0.046081908 -0.067127466 0.07969069
-0.025722072 -0.0145110935 0.020699404 0.059836067 0.06535975 -0.03908465 -0.08508916 0.015010938
0.080721565 -0.090044536 -0.08476859 -0.046857476 -0.061407924 0.031775497 -0.060092438 0.083664246
0.07172132 -0.04675758 -0.016834058 -0.03274852 -0.06554951 0.036861546 -0.049909353 0.09143198
0.09903062 0.0016163215 -0.06501925 0.016524278 -0.00403627 -0.03354855 0.029113285 -0.055753242
-0.07430476 -0.07487246 -0.09351714 0.03697955 0.059161566 0.039258562 0.05334782 -0.034216918
-0.035517156 0.0664761 -0.049195625 -0.0029866546 0.04609967 0.041672207 -0.026799835 -0.030094624
0.09026218 0.07219369 -0.05189171 0.08512237 -0.02295047 0.043691047 0.08449229 -0.03340008
-0.058862448 -0.09882497 0.077503 -0.06840666 -0.018366896 0.07397204 -0.035504736 -0.00024062395
-0.06783197 -0.012747839 0.06750729 -0.037325576 -0.07444207 0.04110468 -0.08587334 -0.024172798
0.058107205 0.08785679 -0.02687873 -0.0012513846 0.0574589 0.0036174506 -0.03555976 -0.07343769
00000000: fb53 c73d e206 103d 8025 ceba 9267 483d
00000010: 1f7c c0bd 5402 f23c 0cea 83bc 76a2 083d
00000020: 8104 bb3d 742f c1bc e937 a33d 007c 62bb
00000030: 07d2 953d 4851 813c 0f04 9a3d d873 42bc
00000040: 4068 56bd 7d8d 31bd 5098 e1bb 8ab4 6dbd
00000050: 80a5 f5ba b430 c73c 5422 f53c 7d06 57bd
00000060: 281a 243c a9e4 cb3d e50c c7bd a5d0 9e3d
00000070: 40a5 a0bc 4cb2 e43c 37cf afbd 49e4 873d
00000080: 34c6 b1bc a105 a63d a001 b4bc 4a05 77bd
00000090: 6824 9cbc 4eca 543d cf62 c93d 2038 c2bd
000000a0: c45b 13bd 0e51 383d a0e0 b8bc f49a c6bc
000000b0: 6475 0fbd 64b8 dd3c 80c9 c43b 6d40 7abd
000000c0: b0bf 35bc e702 77bd 1262 bdbd 2631 333d
000000d0: 35a8 ae3d 3703 883d 059a b2bd 67a6 2abd
000000e0: 3d27 84bd d364 963d dac0 b6bd 4c2f 863c
000000f0: 5b35 bbbd 006a cfbc d317 bdbd 6acb 89bd
00000100: 3a24 783d 482b a3bc e07b ddbc e02a fbbc
00000110: 3f34 b63d 7127 aa3d 5a5b b7bd 88da 8abd
00000120: fd19 833d 0f54 983d b0c3 403c 796c bf3d
00000130: 174b 8d3d e1a1 a33d ca27 47bd 45fc 863d
00000140: c05c 8d3c 08fe b3bd e008 d2bc d154 853d
00000150: bb95 c4bd 1981 ab3d 49ff ae3d 235e cbbd
00000160: 709f 83bd 2881 c13c 874a bfbd 6fab 9a3d
00000170: 1d90 54bd 9670 91bd 8496 df3c fd3f c4bd
00000180: 49c5 a63d e1a6 aa3d 4b0b cc3d d4cc adbc
00000190: 435e c9bd 8a0c 023d 02e8 a8bd edb5 903d
000001a0: 3291 7c3d e233 2a3d 681a c9bc be21 273d
000001b0: 0378 3abd c6c3 763d 9509 b1bd 0026 ef3b
000001c0: 6546 963d 2575 c63d c7d6 20bd c0de 71bd
000001d0: 80ff 90bc 62c0 3c3d 207a 89bd df34 a33d
000001e0: 18b7 d2bc f0bf 6dbc cc91 a93c aa16 753d
000001f0: 55db 853d 3a17 20bd 3a43 aebd 70f0 753c
00000200: 5951 a53d 4569 b8bd 289b adbd a0ed 3fbd
00000210: e086 7bbd 0627 023d 7d23 76bd 2958 ab3d
00000220: a1e2 923d e084 3fbd 94e7 89bc 5023 06bd
00000230: d23e 86bd 22fc 163d c06d 4cbd b140 bb3d
00000240: 91d0 ca3d c0da d33a d028 85bd ec5d 873c
00000250: b042 84bb 346a 09bd fc7e ee3c 835d 64bd
00000260: 182d 98bd bb56 99bd ea85 bfbd de77 173d
00000270: 6653 723d 96cd 203d 3e83 5a3d 0a27 0cbd
00000280: 707a 11bd 9f24 883d 5a81 49bd c0bb 43bb
00000290: 02d3 3c3d 7ab0 2a3d 548b dbbc 0089 f6bc
000002a0: 61db b83d 49da 933d 678c 54bd a354 ae3d
000002b0: a002 bcbc 62f5 323d 4b0a ad3d 86ce 08bd
000002c0: c019 71bd bf64 cabd e5b9 9e3d ca18 8cbd
000002d0: 2c76 96bc a77e 973d 6a6d 11bd 0050 7cb9
000002e0: 7deb 8abd 50dc 50bc 4341 8a3d b4e2 18bd
000002f0: 1675 98bd 625d 283d 5dde afbd 0806 c6bc
00000300: d201 6e3d 43ee b33d c830 dcbc 8005 a4ba
00000310: 065a 6b3d c012 6d3b 1ca7 11bd 8066 96bd

bias f4 [2]
0.033536367 0.066284664
00000000: 6e5d 093d 41c0 873d

amplitudes f4 [1000, 2]
0.023702685 0.0 0.023702685 0.0 0.023702685 0.0 0.9967251 0.0
0.9967251 0.0 0.023702685 0.0 0.9967251 0.0 0.9967251 0.0
0.023702685 0.0 0.023702685 0.0 0.023702685 0.0 0.023702685 0.0
0.9967251 0.0 0.023702685 0.0 0.9967251 0.0 0.023702685 0.0
0.023702685 0.0 0.023702685 0.0 0.9967251 0.0 0.023702685 0.0
0.9967251 0.0 0.023702685 0.0 0.9967251 0.0 0.9967251 0.0
0.9967251 0.0 0.023702685 0.0 0.9967251 0.0 0.9967251 0.0
0.023702685 0.0 0.023702685 0.0 0.9967251 0.0 0.023702685 0.0
0.9967251 0.0 0.023702685 0.0 0.9967251 0.0 0.023702685 0.0
0.9967251 0.0 0.9967251 0.0 0.9967251 0.0 0.023702685 0.0
0.9967251 0.0 0.9967251 0.0 0.9967251 0.0 0.9967251 0.0
0.9967251 0.0 0.9967251 0.0 0.9967251 0.0 0.9967251 0.0
0.9967251 0.0 0.023702685 0.0 0.023702685 0.0 0.9967251 0.0
0.023702685 0.0 0.9967251 0.0 0.9967251 0.0 0.9967251 0.0
0.023702685 0.0 0.023702685 0.0 0.9967251 0.0 0.9967251 0.0
0.9967251 0.0 0.023702685 0.0 0.023702685 0.0 0.9967251 0.0
0.9967251 0.0 0.023702685 0.0 0.9967251 0.0 0.023702685 0.0
0.023702685 0.0 0.023702685 0.0 0.9967251 0.0 0.9967251 0.0
0.9967251 0.0 0.9967251 0.0 0.9967251 0.0 0.9967251 0.0
0.9967251 0.0 0.9967251 0.0 0.9967251 0.0 0.023702685 0.0
0.9967251 0.0 0.023702685 0.0 0.9967251 0.0 0.9967251 0.0
0.023702685 0.0 0.9967251 0.0 0.023702685 0.0 0.9967251 0.0
0.023702685 0.0 0.023702685 0.0 0.9967251 0.0 0.9967251 0.0
0.023702685 0.0 0.023702685 0.0 0.9967251 0.0 0.07731219 0.0
0.9967251 0.0 0.9967251 0.0 0.023702685 0.0 0.9967251 0.0
0.023702685 0.0 0.9967251 0.0 0.023702685 0.0 0.9967251 0.0
0.9967251 0.0 0.9967251 0.0 0.023702685 0.0 0.023702685 0.0
0.9967251 0.0 0.07731219 0.0 0.9967251 0.0 0.023702685 0.0
0.9967251 0.0 0.9967251 0.0 0.9967251 0.0 0.9967251 0.0
0.023702685 0.0 0.023702685 0.0 0.023702685 0.0 0.9967251 0.0
0.9967251 0.0 0.9967251 0.0 0.9967251 0.0 0.9967251 0.0
0.023702685 0.0 0.9967251 0.0 0.023702685 0.0 0.9967251 0.0
00000000: 222c c23c 0000 0000 222c c23c 0000 0000
00000010: 222c c23c 0000 0000 6029 7f3f 0000 0000
00000020: 6029 7f3f 0000 0000 222c c23c 0000 0000
00000030: 6029 7f3f 0000 0000 6029 7f3f 0000 0000
00000040: 222c c23c 0000 0000 222c c23c 0000 0000
00000050: 222c c23c 0000 0000 222c c23c 0000 0000
00000060: 6029 7f3f 0000 0000 222c c23c 0000 0000
00000070: 6029 7f3f 0000 0000 222c c23c 0000 0000
00000080: 222c c23c 0000 0000 222c c23c 0000 0000
00000090: 6029 7f3f 0000 0000 222c c23c 0000 0000
000000a0: 6029 7f3f 0000 0000 222c c23c 0000 0000
000000b0: 6029 7f3f 0000 0000 6029 7f3f 0000 0000
000000c0: 6029 7f3f 0000 0000 222c c23c 0000 0000
000000d0: 6029 7f3f 0000 0000 6029 7f3f 0000 0000
000000e0: 222c c23c 0000 0000 222c c23c 0000 0000
000000f0: 6029 7f3f 0000 0000 222c c23c 0000 0000
00000100: 6029 7f3f 0000 0000 222c c23c 0000 0000
00000110: 6029 7f3f 0000 0000 222c c23c 0000 0000
00000120: 6029 7f3f 0000 0000 6029 7f3f 0000 0000
00000130: 6029 7f3f 0000 0000 222c c23c 0000 0000
00000140: 6029 7f3f 0000 0000 6029 7f3f 0000 0000
00000150: 6029 7f3f 0000 0000 6029 7f3f 0000 0000
00000160: 6029 7f3f 0000 0000 6029 7f3f 0000 0000
00000170: 6029 7f3f 0000 0000 6029 7f3f 0000 0000
00000180: 6029 7f3f 0000 0000 222c c23c 0000 0000
00000190: 222c c23c 0000 0000 6029 7f3f 0000 0000
000001a0: 222c c23c 0000 0000 6029 7f3f 0000 0000
000001b0: 6029 7f3f 0000 0000 6029 7f3f 0000 0000
000001c0: 222c c23c 0000 0000 222c c23c 0000 0000
000001d0: 6029 7f3f 0000 0000 6029 7f3f 0000 0000
000001e0: 6029 7f3f 0000 0000 222c c23c 0000 0000
000001f0: 222c c23c 0000 0000 6029 7f3f 0000 0000
00000200: 6029 7f3f 0000 0000 222c c23c 0000 0000
00000210: 6029 7f3f 0000 0000 222c c23c 0000 0000
00000220: 222c c23c 0000 0000 222c c23c 0000 0000
00000230: 6029 7f3f 0000 0000 6029 7f3f 0000 0000
00000240: 6029 7f3f 0000 0000 6029 7f3f 0000 0000
00000250: 6029 7f3f 0000 0000 6029 7f3f 0000 0000
00000260: 6029 7f3f 0000 0000 6029 7f3f 0000 0000
00000270: 6029 7f3f 0000 0000 222c c23c 0000 0000
00000280: 6029 7f3f 0000 0000 222c c23c 0000 0000
00000290: 6029 7f3f 0000 0000 6029 7f3f 0000 0000
000002a0: 222c c23c 0000 0000 6029 7f3f 0000 0000
000002b0: 222c c23c 0000 0000 6029 7f3f 0000 0000
000002c0: 222c c23c 0000 0000 222c c23c 0000 0000
000002d0: 6029 7f3f 0000 0000 6029 7f3f 0000 0000
000002e0: 222c c23c 0000 0000 222c c23c 0000 0000
000002f0: 6029 7f3f 0000 0000 da55 9e3d 0000 0000
00000300: 6029 7f3f 0000 0000 6029 7f3f 0000 0000
00000310: 222c c23c 0000 0000 6029 7f3f 0000 0000
00000320: 222c c23c 0000 0000 6029 7f3f 0000 0000
00000330: 222c c23c 0000 0000 6029 7f3f 0000 0000
00000340: 6029 7f3f 0000 0000 6029 7f3f 0000 0000
00000350: 222c c23c 0000 0000 222c c23c 0000 0000
00000360: 6029 7f3f 0000 0000 da55 9e3d 0000 0000
00000370: 6029 7f3f 0000 0000 222c c23c 0000 0000
00000380: 6029 7f3f 0000 0000 6029 7f3f 0000 0000
00000390: 6029 7f3f 0000 0000 6029 7f3f 0000 0000
000003a0: 222c c23c 0000 0000 222c c23c 0000 0000
000003b0: 222c c23c 0000 0000 6029 7f3f 0000 0000
000003c0: 6029 7f3f 0000 0000 6029 7f3f 0000 0000
000003d0: 6029 7f3f 0000 0000 6029 7f3f 0000 0000
000003e0: 222c c23c 0000 0000 6029 7f3f 0000 0000
000003f0: 222c c23c 0000 0000 6029 7f3f 0000 0000
