data/RNN_runs/sweep_H2/rnn_sto3g_H2_0-7348_eq1_nU100_nL1_lr00025_lrsC_ns10000.pt (torch_old, 545628 bytes, 9 tensors)

weight_ih f4 [300, 2]
00000000: fdf8 983e 8c84 65be a095 7c3e 1ab5 2fbd
00000010: 8a17 1e3e a0f6 b6bd b764 1c3e 38b8 44be
00000020: 6c89 ad3d 3cb8 cb3d bd90 323e 1b27 f43d
00000030: 7f6f d9be 4fbf e33e fa16 733e df70 30be
00000040: 74b6 1c3e c98a 5a3c 6dfd fbbe a575 1a3f
00000050: 42bb d53e 203f 1dbe b760 57bd 3489 923e
00000060: a2e9 fcbe d062 073f 7f42 c0be 110f 023f
00000070: d795 dc3e c4dd edbe 6424 9e3e 634e 0ebe
00000080: b583 ac3e 1f24 84be 1d21 eb3e 4843 7abe
00000090: 890d 313d c21f 08be d612 483e 9d7e 3abe
000000a0: 6bdd 803e c626 39be 3464 873e a9dd 1fbe
000000b0: 4240 be3e cbd0 afbe 4930 8a3e 6716 4abe
000000c0: b79e c83e fd15 3cbe ba1b 5bbe 46a3 cc3e
000000d0: 0166 e2be c700 103f 9985 8f3e 6a1d 96be
000000e0: cb3b 163e 7433 46bd ded4 a63e e8aa 7bbe
000000f0: 9d81 8f3e a8d4 69bd 83e9 27be 9899 4c3e
00000100: 6183 1a3e df4d f6bd 12e7 ae3e 8abc eebe
00000110: 6448 5dbc f2f4 b53c 166d ec3e e0eb 81be
00000120: 01d0 a33d 6ccb cabd 4663 bc3e a9f3 37be
00000130: 025b b63e 77ee 8cbe 89d3 4c3e 98fe 99bc
00000140: 6b19 a13e fef8 0dbe 738a 8e3e e5ab 4ebe
00000150: 3886 2abd 8be8 0e3e c9c1 683e be17 87be
00000160: 8035 903e 03e3 b2bc 43ad d6be 5249 103f
00000170: fce6 8c3e ba1a 273c 66e5 633e e081 94bd
00000180: f4b2 d73e 3f4f 54be 4943 eebe e17a 203f
00000190: b2ac f93e a55d b4be 83a2 ce3e e587 ecbe
000001a0: 77da 483e 0971 13be b055 6a3e 7f23 0dbc
000001b0: 1ff2 613e 78f1 c8bd 2dd8 d0bd fdb9 513e
000001c0: dbce dc3c a68c 323d 572c c0be eb87 e23e
000001d0: c466 7b3e a642 83be d1aa 97be 40c1 073f
000001e0: deae ffbe 407c 243f 3395 ef3e c3bd e2be
000001f0: 035d ca3e 6ba7 adbe c88f b13e 413f 0ebe
00000200: ce6a 6bbe 687c f63e f86e dcbe df83 093f
00000210: a190 713e a372 883d 3835 ad3e c85f c0be
00000220: 87a6 6fbd 1c9c 5f3e 91a1 6a3e 5c3f 23be
00000230: 4b73 6b3e d632 e5bd b049 af3e 7e31 52be
00000240: ffd3 763e 1778 e5bd 618e 2b3e 034d 25be
00000250: c7f5 553e e020 4dbe a292 0c3e 10ec 42bb
00000260: c50c cb3e 656b 33be e6a8 983e 4155 1cbc
00000270: ef51 4c3e 99b3 a8bd 6bc0 113e 3f91 86bc
00000280: a34c d7bd f2c8 9d3e e2c0 903e cd15 9cbe
00000290: f604 603c a0b8 963e c91c bf3e b317 bcbe
000002a0: 6c57 5dbe 37c4 e43e da0f 9c3e bcee cebe
000002b0: 0025 77be 225a d13e 1ba6 f0bd 0e2d 503e
000002c0: ed56 033e be2c f7bc 6472 af3e 3bb7 5b3c
000002d0: dba6 7e3e cc3b 84be d78e 50bc 9d02 fb3d
000002e0: 08da 703e 2a44 4dbe dd04 8a3e 2f1b 3ebe
000002f0: b2e2 c63e eb4c 80be 7faf 0c3e 5983 00be
00000300: bb43 2bbe 821a b73e e9ca cabe 4667 b93e
00000310: 4b4d 9cbe 49db c43e 56a6 b4be 1414 103f
00000320: 5bc4 7bbe fef9 d43d 609c 2cbe e4d0 fdbb
00000330: 2538 90be 5043 e83c dd24 30be cf3a 093e
00000340: 3573 32be 3ce4 63bd ef30 97be 564c 0abe
00000350: 7c19 07bd 3775 e4bd 9a8f 15be 819b d4bc
00000360: 5946 1fbe 5c78 01bd 52cf bb3c dad3 dcbd
00000370: 4cd7 8dbe 2c03 2abd d14a e73d 0975 92be
00000380: 1a76 7e3e 2639 73be c8a5 5ebd 4571 2fbe
00000390: 3137 1dbe b1b2 143d 1b6d 4fbe 4566 443d
000003a0: 080d 8dbe 378f 563d 88c0 9bbe e239 5ebe
000003b0: 165f bcbd f54c 953d 5a00 94be f3e6 8e3d
000003c0: 2d03 1ebe 0191 2abe b777 77be ba5c 883d
000003d0: 596e 17be 4208 0c3e 6a12 8cbe 1b07 51bc
000003e0: c2dd c8bd f249 8a3d 12cf 0d3e fe23 22be
000003f0: 6f54 873e d4e4 7dbe ffe6 3fbe f473 473d
0.29877463 -0.22413844 0.24666452 -0.04289732 0.15438667 -0.08933759 0.15272795 -0.19210899
0.08473477 0.09947249 0.17438026 0.11921521 -0.42467877 0.44481894 0.23739234 -0.17230557
0.15303975 0.013338753 -0.49216786 0.6033576 0.4174443 -0.15356112 -0.05258247 0.28620303
-0.49396998 0.5288515 -0.37550732 0.5080424 0.4308307 -0.46458256 0.3088714 -0.1389709
0.33694234 -0.25808808 0.459237 -0.24439728 0.0432258 -0.13293365 0.19538435 -0.18212362
0.25168929 -0.18081197 0.26443636 -0.156119 0.371584 -0.34338984 0.26989964 -0.19735108
0.3918359 -0.18367763 -0.21397296 0.39968318 -0.44218448 0.56251186 0.28031614 -0.29319316
0.14671247 -0.048388913 0.3258428 -0.24576914 0.28028575 -0.05708757 -0.16397671 0.19980466
0.1508918 -0.120265715 0.34160668 -0.4662822 -0.013506029 0.022211526 0.46176976 -0.2537527
0.07998658 -0.09902081 0.3679449 -0.17964043 0.35616308 -0.27525684 0.2000257 -0.018798158
0.31464705 -0.13864514 0.27840003 -0.2018276 -0.041631907 0.13955896 0.22730173 -0.263853
0.28165817 -0.021836763 -0.41929063 0.5636188 0.27519977 0.010199243 0.22255477 -0.07251334
0.42128718 -0.20733355 -0.4653571 0.626875 0.4876457 -0.35227695 0.40358362 -0.4619743
0.19614588 -0.14398588 0.2288425 -0.00861442 0.22065018 -0.098116815 -0.10197482 0.20481105
0.026954105 0.043591164 -0.3753383 0.44244322 0.2455092 -0.25636786 -0.2962251 0.5302925
-0.499381 0.6425209 0.46793517 -0.44285402 0.39524087 -0.33916792 0.3468001 -0.13891317
-0.22989962 0.4814179 -0.43053412 0.53716844 0.23590328 0.0666249 0.33829665 -0.37573075
-0.058508422 0.21836895 0.22913195 -0.15942138 0.229932 -0.11191337 0.34235907 -0.20526692
0.24104308 -0.11204546 0.16753532 -0.16142659 0.20894538 -0.20032072 0.13727811 -0.0029742755
0.3965818 -0.17521437 0.2981636 -0.0095418105 0.1995313 -0.082373805 0.14233558 -0.01642668
-0.10512664 0.30817372 0.28272158 -0.30485383 0.013673058 0.29437733 0.3732665 -0.3673683
-0.2161538 0.4468095 0.30480844 -0.40416515 -0.24135208 0.40889078 -0.11750432 0.20329687
0.12826128 -0.030172702 0.3426696 0.013410385 0.24868338 -0.2582687 -0.012729368 0.12256358
0.23520672 -0.20045534 0.26956835 -0.18565057 0.3884483 -0.25058684 0.13738821 -0.12550105
-0.16725056 0.3576241 -0.39607933 0.36211604 -0.3052772 0.3844855 -0.35283154 0.56280637
-0.24586622 0.10399245 -0.16856527 -0.007745849 -0.28167835 0.02835241 -0.17201562 0.1340134
-0.1742676 -0.055637583 -0.2952952 -0.13505682 -0.03298329 -0.111551695 -0.14605561 -0.025953056
-0.15554179 -0.031608924 0.022926006 -0.10782595 -0.2770332 -0.04150693 0.11293567 -0.28604916
0.2484974 -0.23752269 -0.05435732 -0.17133053 -0.15353085 0.036303226 -0.20256464 0.047949094
-0.27549005 0.052382674 -0.30420327 -0.21701768 -0.09197824 0.07290069 -0.28906518 0.06977644
-0.15430899 -0.16656877 -0.24166761 0.06658311 -0.14788188 0.13675025 -0.273578 -0.012758042
-0.09807922 0.06752385 0.13848522 -0.15834042 0.26431605 -0.24794322 -0.18740462 0.048694566

weight_hh f4 [300, 100]
00000000: d20f 4fbe 7112 99be 4190 bdbc 27a6 2a3e
00000010: cfa4 3b3e ab0f 2a3e 56ae 913d d871 8fbd
00000020: e356 c4bd 0b88 7c3d ac96 90be 9031 8cb9
00000030: e142 0bbe 1a09 c8bd ff37 55be 2fa2 3cbe
00000040: 6bbf 213e e1a6 8b3d a326 083d c505 623e
00000050: ee7d 463d ab9d 88bd ee32 153e 0c87 da3d
00000060: 22a7 21be a524 473d 4712 84bc aefa 0abe
00000070: 9177 84bd 11ec ffbd b141 5b3e 764d dc3d
00000080: cedf dc3c 49aa 2fbe d958 88bd b0d4 303e
00000090: 41d4 6f3e 4517 9ebc 65f2 80be c689 ab3e
000000a0: c04e 693e 1f8f d0bd 2e1e f6bd 2607 0fbe
000000b0: 5721 1e3e d1ef f93d ab6d eebd 9fa7 4d3d
000000c0: 8407 ccbc 093e 163e e6e5 a73d e8f7 1bbe
000000d0: f472 35be eed0 25be 67c0 0dbe 0ac4 a53d
000000e0: f18a 113e 9e94 95bd a7dd dc3d 846f 2cbe
000000f0: daf6 89bd 7247 e33d 8a8e 20be 2a63 a23d
00000100: 1ef5 9c3c df66 083d 1883 8b3d f346 d4bd
00000110: f566 a43d 8d98 94bd 6b15 cb3d 8bd9 a8bc
00000120: dc35 8fbd 5925 043e 6b40 e63c ecf7 60bd
00000130: d536 27be ddf7 acbd 3408 053e feb5 06be
00000140: 5998 d3bd 6eff 9b3d 27dc 7d3c 40f8 31bd
00000150: 7fec 84bc fda0 5fbe 7eab ea3b fdcf f53d
00000160: a29b 38bd 9e29 c7bd 34df c0bd 19d3 c1bd
00000170: 1965 c93d 19af 543d d649 2ebe fd51 6f3d
00000180: 4b5b 1c3d 6f4b 2fbd fa63 833c b97c a73d
00000190: 31b2 2b3d 37fe a5bd e57b 0a3d 9e64 ba3d
000001a0: 0e0b 3fbb 307b 1e3e dd5b b93d 2230 c4bc
000001b0: 3350 a9bd e26e db3d 89aa a6bd 1e20 9d3d
000001c0: 9a49 f3bd 2fc4 d6bd 5f71 e93c 67e7 933d
000001d0: 1e2d 1ebd 87ce 573d 74d5 abbc 5a37 3d3d
000001e0: add6 a03d ef5f a33d e281 a83d 4caf 0d3d
000001f0: 3bad a7bc 6604 78bd 78ee abbb 531d eebc
00000200: 5392 24bd ad66 a2bd 9a01 d13d 0d73 2cbc
00000210: 2c39 0abd a206 8ebd e363 9b3d 1ddc b1bd
00000220: 15ae 703d 57fb 37be 5170 e6bd f062 473e
00000230: 85a9 96bc 8f12 a2bd 3fa1 ccbc 4c64 73bd
00000240: 3a3a 153e b519 8e3d bbcf 70be 4e9e 1ebc
00000250: 9e86 fcbd 97cb 1c3e 2bc5 7abd 00da 8a3d
00000260: dfbb 24be 5ad1 a1bd 9853 8bbd 3c22 2c3d
00000270: 8d9a c23d 1c42 66bd 7877 083e 04ab ba3c
00000280: 4438 f1bd 1622 743d f7ec 8dbd b088 0f3b
00000290: b9c7 003d f403 113e 4a43 fb3d 220e a5bc
000002a0: ae02 6439 f5c0 97bd 60e3 fc3d 3b83 ae3c
000002b0: b4e4 aabd e647 56bd 5199 43bc 3076 78bd
000002c0: ecd5 443d 3500 6b3d ab93 783d 3723 d63d
000002d0: 2577 96bd b664 733d 1885 8d3c 6d73 e63d
000002e0: 7731 d03d 1f7d 9fbd 9e60 0e3c 2559 bd3c
000002f0: d20d ccbb dd31 14be 580a f0bc b09a 15be
00000300: d40c a73d 258b 2cbd 0fcb 27bd a0b0 1c3e
00000310: 971a ba3b ec56 c93c f1c0 35bd 5f4e 6dbd
00000320: bee5 e73d f8f9 2dbe 2507 0f3c f408 f93d
00000330: 6ca4 c33d 3391 073e 69e6 18bd 13f5 82bc
00000340: 8858 233c 5e3f a8bd cf9a 04be 1ad3 b1bc
00000350: 92b8 6cbd 362f d13d 06a5 8b3d d2d9 4dbc
00000360: eec2 c73d 4c4e b73d be4e 5dbd c0df e73d
00000370: 4ca2 543d 7b8f 22bd 854d 4bbd f29e 8f3d
00000380: ae7f d9ba 59ba 233b d9d0 f6bd cfef 8abd
00000390: b3c9 b2bc 460b 39bd 95a9 f73d 7754 08bd
000003a0: 6f46 923d fe31 37bd 443f b5bd 0a37 603d
000003b0: 1ed0 413e 9501 aabd da60 8abe f749 303b
000003c0: 5046 ebbc 74ba c33d 2e93 eabd e1d4 413d
000003d0: e321 113e d430 c3bd 9d17 d4bd 7d78 87bc
000003e0: 66e8 c9bc e225 fcbd ccf6 8d3d ca67 9cbd
000003f0: 3a69 8ebc 078f 04be 3649 e038 0435 cc3d
-0.20220879 -0.29896882 -0.023140075 0.16664945 0.18324588 0.1660754 0.0711333 -0.07004136
-0.09586885 0.06165318 -0.28239954 -0.00026739808 -0.13599731 -0.09767361 -0.20822142 -0.18421243
0.15795676 0.06818939 0.03323997 0.22072513 0.04845994 -0.06670698 0.1457021 0.106702894
-0.15786412 0.04861893 -0.016121997 -0.13572189 -0.06468118 -0.12496198 0.21411778 0.10756962
0.026962187 -0.17154802 -0.06657571 0.17268634 0.23420812 -0.019298205 -0.25184932 0.3350355
0.22783947 -0.10183548 -0.12017475 -0.1396757 0.15442406 0.122039445 -0.11642011 0.050208684
-0.024905927 0.14672102 0.081981465 -0.15231287 -0.17719632 -0.16192982 -0.13842927 0.08094032
0.14213158 -0.07303737 0.10784464 -0.16839415 -0.06736536 0.110976115 -0.15679374 0.0792907
0.01915985 0.03330123 0.068121135 -0.10365095 0.0802745 -0.07255659 0.099161945 -0.020611545
-0.06992695 0.12904872 0.028106889 -0.054923937 -0.1632951 -0.08445714 0.1299141 -0.13155362
-0.103317924 0.07617079 0.015494383 -0.04344964 -0.016226051 -0.21838756 0.0071615567 0.12002561
-0.045070298 -0.09724735 -0.094175726 -0.09464092 0.09833736 0.0519248 -0.17020354 0.0584278
0.038173 -0.04279655 0.016038883 0.08178086 0.041917983 -0.08105128 0.03380956 0.091012225
-0.0029150876 0.1547668 0.09050725 -0.023948733 -0.0826725 0.107145086 -0.08137996 0.076721415
-0.11879273 -0.10486638 0.028496442 0.07221871 -0.038617246 0.052687194 -0.020975806 0.046195365
0.07853446 0.07977282 0.08227898 0.034591004 -0.020468345 -0.06055107 -0.0052469335 -0.029066717
-0.04017861 -0.0792974 0.102053836 -0.010525477 -0.03374593 -0.06934859 0.07587411 -0.086845614
0.058759768 -0.17966972 -0.112518914 0.19471335 -0.01839138 -0.07913696 -0.024979232 -0.059421822
0.14572993 0.06938497 -0.23516743 -0.0096812975 -0.12330364 0.15312038 -0.06122319 0.067798615
-0.16087292 -0.07901259 -0.068030536 0.042024836 0.095021345 -0.05621539 0.13326824 0.022786625
-0.1177831 0.05960282 -0.06929963 0.002190154 0.03144047 0.14161664 0.12268694 -0.02014834
0.00021744773 -0.074098505 0.12348056 0.02130281 -0.08344403 -0.05231466 -0.011938409 -0.060659587
0.048055574 0.057373244 0.060687702 0.104559354 -0.07346944 0.059422217 0.017275378 0.112524845
0.10165685 -0.07787537 0.0086900275 0.023113796 -0.0062272334 -0.14472146 -0.029301807 -0.1460979
0.08156744 -0.042124886 -0.040965136 0.15301752 0.0056794393 0.02457758 -0.044373456 -0.05793607
0.11323117 -0.16989887 0.008729731 0.12159911 0.09552845 0.13238983 -0.03732911 -0.015986001
0.009969838 -0.08215211 -0.1294968 -0.021707106 -0.057793207 0.10214083 0.06818585 -0.012564139
0.09753977 0.08950481 -0.054030173 0.11321974 0.05191259 -0.039687615 -0.049634475 0.07012738
-0.0016593838 0.0024982898 -0.12051553 -0.06784021 -0.021824693 -0.045176767 0.12092892 -0.033283677
0.071423404 -0.04472541 -0.088499576 0.05473999 0.18927047 -0.08301083 -0.27027017 0.0026899555
-0.028720051 0.095570475 -0.114538535 0.047322158 0.14173083 -0.095307976 -0.103560664 -0.016536945
-0.024646949 -0.12311913 0.069318384 -0.07636984 -0.01738416 -0.12945186 0.00010694789 0.099710494

bias_ih f4 [300]
00000000: 0edd 20bd 2d26 1f3d 387b b23d e5ed 163d
00000010: 6810 113e 4792 943e 6f09 c23d b5c5 2f3d
00000020: e450 833d 11c1 1c3e ffbf ebbd 2660 203d
00000030: 8487 8c3d e5fd eb3d f8ea 06be 290f 21bd
00000040: 2730 38be 8333 373d 46e8 d03d 7a2f d83c
00000050: ff23 c13d b541 68bc ef56 7abd 9dc7 4a3d
00000060: da6f 0bbe 023a d93c d622 043d 24e5 08be
00000070: 43f1 3a3d 8291 88bd fce5 fdbc 9754 093e
00000080: f150 c2bb 8731 bebd 3bd5 843d c69b babc
00000090: ee46 97bc 2d23 ee3d bece 1abe 9f4c 583d
000000a0: d738 babd f436 acbc a827 a23d a744 f5bd
000000b0: 50be da3d 5411 ca3d 9d4c ee3c 8030 8b3d
000000c0: d2a3 613d 4cef 87bc 01e2 84bd fb9e 2abe
000000d0: afcd df3c aab1 db3d 416d 623d 72c6 a83d
000000e0: bf0e a5bd f142 d1bc ffe7 cb3d 62d1 a03b
000000f0: af30 333b 56f1 91be 14d7 49be d6e1 043c
00000100: 8fa7 1a3e 8363 cd3c 8244 783e 0dc1 eebd
00000110: a475 c83c e22a 8d3d 146a 6dbc 052d 34be
00000120: 4132 cf3d 2440 adbd b0e6 2c3c 2f6f 373e
00000130: 373b 71bd 8e0a 78bd 0d65 a43d 273b 103e
00000140: 99c5 953d 7921 8abe fef0 fc3d fa37 9abd
00000150: d510 473d 548f 6fbd 9834 4abc 00d1 b73e
00000160: dc9e fe3d 51a5 d03d 15b6 22be 27f2 313e
00000170: 3fa3 e3bc ce16 ddbd 8fca e7bc cecb 9a3d
00000180: 3caf 0d3e 18a0 e63d 1f8d f93d 273b 3fbc
00000190: 961b 1abe 4c8c babd 1ae5 f4bd 0249 3dbe
000001a0: 09da 00be 861a abbe b68f 85bd 734f 35be
000001b0: 8c75 52be 0298 8bbd 6f97 15be 74de cebd
000001c0: f728 babd 4c75 d3bd df62 dcbd 95b3 92bd
000001d0: 6e91 42be d62c 42be df30 59bd 222e 0dbd
000001e0: 5fa0 92be 7fca 58be c91f eebd c874 24be
000001f0: f71a 1fbe e59a edbd 46b5 46be 993c 56be
00000200: 056f d8bd c9e0 26be 7e30 02be b4b1 1abe
00000210: 0799 0ebe 7c9e 61be b3bd 99bd 10b9 94bd
00000220: fdf2 2abd 272e 11be 707f 37be 1814 80be
00000230: c507 dcbd 20a1 1ebd ad67 36be a4fe c5bd
00000240: 8e45 2dbe f5d0 d9bd e285 c6bc 238b 93bc
00000250: 8be4 02be e7b9 f3bd 468a 85bd 975a 29be
00000260: 60cb 12be 53a8 53be 2056 4fbe 1bd9 39be
00000270: 7ac0 0abd ea18 05be 9f92 34be a88c edbd
00000280: 13a6 07be 1904 5ebe 68b5 01be d07b b8be
00000290: adeb 14be 5212 00be 55ac 8bbe f839 0abe
000002a0: 809a 87be e358 2cbd d456 39be a92c 59be
000002b0: 3d36 30be 76ea b7bd 86d3 84be a120 6fbe
000002c0: 60d6 98bd c496 09bd e17f 8abd 1f97 cdbd
000002d0: 9942 00be 3bf3 f6bc 5410 10be 8721 47be
000002e0: 8f48 c4bd aae8 38be 1973 40be 8820 80be
000002f0: 3c64 b2be 37ed 81be c911 46be 8ede 48be
00000300: b58e f1bc 5ad9 15bc c382 24be 1534 ddbe
00000310: 9aae 5dbe 34b3 a5bd 1d03 63be c681 8cbc
00000320: 4bb3 ce3d b11d 2d3e 9756 a33c 20e1 123e
00000330: 8035 5b3e 64e9 673e ae67 5e3b 02cf ef3d
00000340: eac1 8f3c f007 e3bd 135e 0c3e 96ed c23d
00000350: 7874 eebc 8791 45bd 8cf9 513e 150f 413d
00000360: 1db1 1cbe dfdd 793e 4758 703d 7488 11be
00000370: 9453 263e 33e8 b83d dc55 39be 3556 86bd
00000380: 9e56 123e 26fe 89bd 0ab7 753d bc1e 503b
00000390: 4184 1e3d 762c 8d3d 4094 10be a025 753d
000003a0: f6b7 243d 4d37 0c3e 4cff a83d 0136 13be
000003b0: be0d 303d aebe 8bbd 7b7e da3c a9a8 3cbe
000003c0: e9a3 933b 47e2 0c3d abe1 7dbe 2ecd b13d
000003d0: 0db3 a73c f829 983d c990 ecbc 0908 64bc
000003e0: 9804 1fbe 27dd 80be 8135 4fbe 0bf1 363e
000003f0: 28da 2fbe 0d97 24bd 1002 c23d 118f b33d
-0.039273314 0.038854767 0.08714908 0.036847968 0.14166415 0.2901785 0.094744556 0.042913157
0.06411913 0.15308024 -0.1151123 0.039154194 0.06861785 0.11523036 -0.13175571 -0.0393211
-0.17987119 0.04472686 0.10200553 0.026389826 0.09430694 -0.014175822 -0.061118063 0.049506772
-0.13616887 0.026516918 0.032259785 -0.1336866 0.04564024 -0.066683784 -0.030993454 0.13411175
-0.005930059 -0.0928679 0.06485983 -0.022779357 -0.01846644 0.11627803 -0.15117928 0.052807447
-0.090928726 -0.021022297 0.0791772 -0.11975985 0.106808305 0.09866586 0.029089266 0.0679636
0.05508787 -0.016593598 -0.06488419 -0.16662209 0.027319757 0.10727246 0.055279974 0.082409754
-0.08059453 -0.025544615 0.09956359 0.004907773 0.002734225 -0.28504437 -0.19710952 0.008110484
0.15102981 0.025071865 0.24244884 -0.11657915 0.024470158 0.06892945 -0.014490623 -0.17595299
0.10117007 -0.084594995 0.010553047 0.17913507 -0.058894362 -0.06055694 0.080270864 0.14085065
0.073130794 -0.26978663 0.12350653 -0.07530208 0.048600037 -0.058486298 -0.012341641 0.35901642
0.12432644 0.101877816 -0.15889771 0.1737753 -0.027787803 -0.10795365 -0.02829483 0.07558404
0.13836378 0.11261004 0.1218512 -0.011671818 -0.15049586 -0.09108791 -0.1195776 -0.18484882
-0.12583174 -0.33418673 -0.06521551 -0.17706089 -0.20552653 -0.068161026 -0.14608549 -0.10101023
-0.09089845 -0.10325107 -0.10761046 -0.07163159 -0.1900079 -0.18962416 -0.053025123 -0.034467824
-0.28637978 -0.21170996 -0.11627156 -0.16060174 -0.1553763 -0.116018094 -0.19405088 -0.20921554
-0.1056805 -0.16296686 -0.12713811 -0.15106851 -0.13925563 -0.22033113 -0.075068854 -0.0726186
-0.041735638 -0.14177762 -0.17919707 -0.2501533 -0.107436694 -0.03872788 -0.17812987 -0.096677095
-0.16921064 -0.106355585 -0.024233762 -0.018010681 -0.12782495 -0.119006924 -0.06520514 -0.16538464
-0.14335394 -0.2066968 -0.20247698 -0.18149225 -0.033874966 -0.12997785 -0.17634057 -0.11599094
-0.13246946 -0.2168125 -0.12666857 -0.3603196 -0.14543028 -0.12506989 -0.27279916 -0.13498676
-0.26485062 -0.042076956 -0.18099529 -0.21208443 -0.1720819 -0.08980267 -0.2594263 -0.2335229
-0.07462764 -0.033591047 -0.06762672 -0.1003859 -0.12525405 -0.030145278 -0.14068729 -0.19446383
-0.09584152 -0.18057504 -0.18793906 -0.2502482 -0.34842098 -0.25376293 -0.19342722 -0.19616148
-0.029486993 -0.009146059 -0.16065507 -0.43203798 -0.21648636 -0.08090821 -0.22169156 -0.017151725
0.10092791 0.16905858 0.01993875 0.14343691 0.21407127 0.22647625 0.003393631 0.117094055
0.01754852 -0.11085498 0.13707761 0.09517972 -0.029108271 -0.04823449 0.20505351 0.047133524
-0.15301938 0.24401043 0.058677938 -0.14212209 0.1624282 0.090286635 -0.18099159 -0.065594114
0.14290854 -0.06737928 0.059989013 0.00317566 0.038700346 0.06893246 -0.14119053 0.059850335
0.0402145 0.1369297 0.08251819 -0.1437607 0.042981856 -0.06823479 0.026671639 -0.18423714
0.0045056236 0.034395482 -0.24793117 0.08681713 0.02047112 0.0742988 -0.028877633 -0.013917931
-0.15529096 -0.25168726 -0.20235254 0.17865388 -0.17173064 -0.040183116 0.0947305 0.08767522

bias_hh f4 [300]
00000000: 1e1a 0cbd f2c0 c53d 7901 e53d 1332 e0bd
00000010: 73b9 093e bbca 103e a62b d53b 7eb7 cdbd
00000020: 32e9 903c c891 88bc 9d5a d03a 9b51 f93d
00000030: 2c4d 943d fdd0 b33d d097 4abe 05bc d2bd
00000040: ae07 98bc 65fb fc3d 932d 483d ca90 a8bd
00000050: 0ce5 213e 820d 2abd b1fc f6bd 8100 8cbd
00000060: 724f 07be 996a 0dbd 87ff eb3d 6509 30be
00000070: f990 a4bd ffe8 f0bc 76b6 c23d e196 ec3d
00000080: 8722 5a3d 950f efbd b247 133e 1a50 febc
00000090: 8c6b 673d 04a8 a93c 9937 11bc a001 1b3e
000000a0: 2d90 183d cfd8 2abe 6942 033e a362 43bc
000000b0: c108 73bd 1fd1 4fbd 7381 0a3d 597f 00bd
000000c0: cb48 fc3c 4613 51bc ba83 82bd 5517 29be
000000d0: edd4 4ebb a1e0 dfbb dd4b af3d d044 943d
000000e0: e18b 68bc 5dff f33a 4dc6 023d 2120 da3d
000000f0: cb5e 8b3d efc9 4dbe f425 38bd 7e39 b93d
00000100: 6ad5 ee3d de23 833d b922 063e 05fd 7fbd
00000110: 75ee fc3d fe20 8bbd ac2a f03c be03 04be
00000120: 51ec f93b b211 2a3d e7e9 4a3e 57ef 0d3e
00000130: 0cd3 e53c d192 dcbc c6de a4bd dd2d 09bd
00000140: 98d8 3f3d c278 89be 041e 12bd 1d15 41be
00000150: 2a2a 01bc 8f51 6ebe 16a4 f0bc 6cf9 b23e
00000160: eaff b33d 04d9 fb3d 0dc5 b1bd 4b95 1f3e
00000170: 1669 f5bb d072 02bd b1ee 3c3c d77b 0c3e
00000180: 6314 ed3d eedb 003e cacd 4c3d 289b ee3c
00000190: 7312 c2bd a935 febd c530 22be d025 b8bd
000001a0: b2e0 aebd 9a08 45be bf4d 0bbe 87c6 5bbe
000001b0: c77e 44be 30e1 c1bd 5a62 82be f6dc b7bd
000001c0: 4b16 3ebe 49b3 1ebd f980 bebd 8d24 1ebe
000001d0: 203d 0cbd dbc2 3dbe d98e 84bd 74f0 e6bd
000001e0: 1756 41be 6959 a9bd 3aed 58be 534e 76bd
000001f0: df4a 8fbc b505 96bd 7eb8 d1bd a961 25be
00000200: eedd 28be 1add cdbd 923f 80bd cecf 0abe
00000210: e30b 1dbe fdca 97bd f2e7 4ebd 32fc bfbd
00000220: 2684 38be 7b95 8ebe 54c5 3ebe 9ec1 3fbe
00000230: d7d9 debd 3780 28be 1a90 5cbe 12e0 dbbc
00000240: 9623 05be c688 90bd c024 0cbe 8743 93bd
00000250: 92d9 25be 8d9d ecbd 85f5 14be 59f4 22be
00000260: d99b d2bc 2c35 26be 071f 6bbd dc5d 18be
00000270: aaa7 37be c0a0 10bd 0969 dcbd 86d4 65bd
00000280: 1c82 acbd 68ee 20be fadc 38be 33be 97be
00000290: 8f5d 4dbe 130c 51be 41cc abbe 3b62 7dbe
000002a0: 9e81 5dbe bf32 18be 3d94 dbbd be83 ddbd
000002b0: f237 eebd 9899 9abd 5631 9dbe bdd8 55be
000002c0: 6959 b2bd cbfe 41be 458e c4b9 9e3d 1bbe
000002d0: 6aeb afbd 51b9 0bbe c6a5 2dbe 5581 5ebe
000002e0: 248d 2abe e40f 4fbe 8d99 2ebd c6bd 9cbe
000002f0: 7cff bcbe edf9 82be 5549 64be 94a8 12be
00000300: d443 07be d294 3ebd 765d 34bd a569 a1be
00000310: 58b9 85be 4b6b 273c 5c95 18be d210 35be
00000320: cd9c ff3d b21a 103e cb77 8abd b5e1 3d3d
00000330: 7c6a 373e 8085 9b3e 2db0 99bc 9a80 9f3d
00000340: 653b c63d 07ea 8dbd 5434 c63d 65eb 163e
00000350: 3aa6 653b 3479 533c b85f babd 3c10 cdbc
00000360: 3b42 bb3c 07a1 183e b818 96bd 714f 823c
00000370: 8691 193e 0b2c 663e 9265 773d cd58 de3c
00000380: 48c1 7cbd 92db 60bd 4bc2 1ebb fef9 0abd
00000390: 4816 4bbb d359 88bb 35db c3bc d001 6ebd
000003a0: 41fc 113e bb02 8dbd c0a1 a13d 340a 44bd
000003b0: 7e20 86bd 0c7f 56be 7d78 dabd 880e b0bd
000003c0: 8d85 83bd 4a0b 00bd e91f 34be cf20 e4bd
000003d0: ae86 b33d fcf3 313d 7175 473d e9c4 55bd
000003e0: 858a 5ebe bd62 06be 7400 00be 2b17 5a3b
000003f0: 400b 1cbe cbb5 02be 73b8 b93d 6c1d d63d
-0.034204595 0.09655942 0.111819215 -0.10947051 0.1344965 0.14139836 0.0065054474 -0.10044764
0.017689321 -0.016671076 0.0015896145 0.12173768 0.07241282 0.08780096 -0.19784474 -0.10289768
-0.01855835 0.12352637 0.048871588 -0.08230741 0.1581003 -0.04151679 -0.12059916 -0.068360336
-0.132139 -0.034525488 0.11523347 -0.17191084 -0.08035464 -0.029407976 0.09507458 0.11552215
0.053255584 -0.11672894 0.14382818 -0.031044055 0.05649905 0.020709999 -0.008863353 0.15137339
0.03724687 -0.16684268 0.12818302 -0.011925372 -0.05933452 -0.050736543 0.03381486 -0.03137145
0.03079643 -0.012760943 -0.06372781 -0.16512807 -0.003156002 -0.006832198 0.08559392 0.072396874
-0.014193506 0.0018615533 0.031927396 0.10650659 0.0680519 -0.20096563 -0.04495807 0.09044169
0.11661799 0.064033255 0.13099183 -0.062497158 0.123501696 -0.06793402 0.029317223 -0.12892053
0.007627048 0.04152078 0.19815789 0.13860832 0.028054737 -0.026925476 -0.08050303 -0.033491004
0.04683742 -0.26849943 -0.035673156 -0.1885571 -0.007883588 -0.232733 -0.029375117 0.3495592
0.08789046 0.12297252 -0.086801626 0.15584294 -0.007489334 -0.031847775 0.011531518 0.13719116
0.11576154 0.12583897 0.050000943 0.029126719 -0.09476175 -0.124125786 -0.15838917 -0.08991587
-0.08538951 -0.19241562 -0.13603877 -0.21462451 -0.19188987 -0.09466779 -0.2546566 -0.08977692
-0.18563192 -0.0387452 -0.09301943 -0.1544363 -0.03423798 -0.18531363 -0.064725585 -0.112763315
-0.18880497 -0.08269007 -0.21184245 -0.06013329 -0.017491756 -0.07325307 -0.10240267 -0.16150536
-0.1649091 -0.100519374 -0.06262125 -0.13555834 -0.15336566 -0.07411764 -0.05051417 -0.09374274
-0.1801916 -0.2784842 -0.18629962 -0.18726203 -0.108813934 -0.1645516 -0.21539345 -0.026840243
-0.13001856 -0.070573375 -0.13685894 -0.07190614 -0.16196278 -0.11553488 -0.14546783 -0.15913524
-0.02570908 -0.16231221 -0.057402637 -0.14879555 -0.17935053 -0.035309553 -0.10762221 -0.05611088
-0.08423254 -0.15715945 -0.18053046 -0.29637298 -0.20055221 -0.20414762 -0.3355427 -0.24744503
-0.21631476 -0.14863108 -0.107216336 -0.108161435 -0.116317645 -0.07548827 -0.30701703 -0.2088346
-0.0870846 -0.18944852 -0.00037490032 -0.15160224 -0.085898235 -0.13644911 -0.16957769 -0.21729024
-0.16655403 -0.20220906 -0.042626906 -0.30613536 -0.3691367 -0.25581303 -0.22293599 -0.1432212
-0.13209468 -0.046528645 -0.044034444 -0.31525913 -0.2611797 0.010218452 -0.14900726 -0.17682198
0.12481079 0.14072683 -0.0676113 0.04635783 0.17911714 0.3037529 -0.018760765 0.07788201
0.09679297 -0.06929403 0.096779495 0.14738233 0.0035041706 0.012907315 -0.09100288 -0.025032155
0.02285873 0.14905177 -0.073289335 0.015907021 0.14996919 0.22477739 0.0603996 0.027141953
-0.061707765 -0.0548969 -0.0024224694 -0.033929817 -0.0030988622 -0.0041610985 -0.023908237 -0.058107197
0.14256383 -0.068852864 0.078921795 -0.047861293 -0.06549166 -0.20946902 -0.106675126 -0.085965216
-0.06421957 -0.031260766 -0.17590298 -0.1113907 0.087659225 0.043445572 0.048695985 -0.05218974
-0.21732529 -0.13123603 -0.12500173 0.003327797 -0.15238667 -0.12764661 0.09068384 0.104548305

weight f4 [2, 100]
00000000: f7ad 533e a9e9 753e dd9f b43e 739f 43be
00000010: 28f8 c2bd b662 33bb aff1 883e fde7 763e
00000020: 9f24 8a3e 5d20 e63e b2cb 063e f2c1 983d
00000030: 1f41 53be eadd 8cbe 9156 9a3e ef29 a03e
00000040: 1280 34be 4b1a d4bd 7392 b23e e1a3 82be
00000050: 649d a2bd ee5a babe a648 88be c8f8 7bbe
00000060: 2a43 9d3e 5a21 24be 4457 853e 15e1 a53e
00000070: 3c28 ac3e 7e54 9c3e 7d65 91be a7f0 cabe
00000080: beb5 bcbe eb0b 843e 7b5c 5e3e 07f9 8fbe
00000090: e67d 26be a708 603e a80d 3c3e d503 92bd
000000a0: d445 96be 2f62 b73e cf17 dcbd 1132 bd3e
000000b0: bb31 5ebe 44fc a23e 6263 2d3e 111c 86be
000000c0: ea4e 893e d991 053f 3c1f 22be e82a 993e
000000d0: 8d46 7f3d 4ec1 883e 27f9 583e af6a 3c3e
000000e0: a0de 573d f03f a3be 2c64 9bbd f932 24be
000000f0: 1415 b8be f6c4 b2be b539 a33e acbc 01be
00000100: 6c37 213e 2a89 8c3e f2ad ffbd 585c b13e
00000110: 2415 873c 0e89 a73e 94f0 9cbe 55ee b2be
00000120: 1c07 cb3d 309a 9cbe 285e 9cbd ab1c 913d
00000130: 52e3 123e b6f9 843e 7f8a e3bd b032 7f3e
00000140: bb6a 0bbe aded a5be eecc 87be fde1 cc3e
00000150: 843f 733e bf79 aa3e 4147 81be 66fe c83e
00000160: e5fe 4dbe 0eb9 db3d 5445 b93e 6ae0 9abd
00000170: 756a 87be dda9 58be 3a43 8f3e 98fa cf3c
00000180: 3431 f8bd 67eb 95be 3454 9fbe 5944 963e
00000190: 3985 43be 9b46 22be bd11 adbe a3a6 0e3e
000001a0: 1604 6cbd e4f3 223e 431e bdbe 0fb7 b3be
000001b0: 2cc4 8bbe 715f cdbe 87c5 9dbe 4bfa 9dbd
000001c0: 994c b73e 3712 ac3e 0cae 95be 7682 b0be
000001d0: dc0d 9b3e cf06 ea3d 9e22 d0be e915 7a3e
000001e0: 00db 593e 1a08 be3e 36cd a43e d888 843e
000001f0: 7787 b7be 0030 8d3e 4194 c3be 6aa6 babe
00000200: 04ef afbe 6ad8 4cbe 4acd 143e 7438 d03e
00000210: a224 a23e d73b 8abe 7047 b9be 6f0b 6e3e
00000220: 28f6 aa3d 0918 13be 2c98 56be d9bb 6f3d
00000230: 569f 8d3e 3b17 99be a4c6 6bbd b883 a2be
00000240: 5184 923d 4628 82be 8853 85be 536e 993e
00000250: f916 81be a827 e5be 05dd 9d3e 14ce 7bbe
00000260: bbe6 bfbd 383e 58be cf1f b5be 1380 2cbe
00000270: 5c4c 963c be9e 1c3e 6bad 173e 8449 9d3e
00000280: 7f66 ae3e dc22 ac3e 5968 b5be 0776 903d
00000290: 5296 24be 17ad a2be 0b14 8c3e 93af c5be
000002a0: 3e46 e0bd 066b 29be 9b94 9c3e a7de 8b3e
000002b0: 66d9 a0bc 124c a33e b77d d23d e26c 3c3b
000002c0: 4976 a6be 5552 9abe 5f56 583e df83 44be
000002d0: 7c35 083e 9bf4 9f3e f04c 983e 6cfc 7cbe
000002e0: 4a50 35be 6ed0 a7be d261 983e ffe9 cdbe
000002f0: 55f0 163e d786 4fbd 04bc b0be a7dd 983d
00000300: 5643 2f3e 2941 4a3e ef77 cabd ea4d ad3d
00000310: de0a bd3d 5256 383e 1603 b23e 5d8a d7be
0.20671831 0.24014916 0.35278216 -0.19103794 -0.09519988 -0.0027372069 0.2674689 0.24111934
0.26981065 0.44946566 0.13163641 0.07458867 -0.2063031 -0.27513057 0.3014417 0.31281993
-0.1762698 -0.103565775 0.34877357 -0.25515655 -0.07940176 -0.363975 -0.26617926 -0.24606621
0.30715305 -0.16028348 0.2604314 0.32398286 0.33624446 0.30533212 -0.28397742 -0.39636728
-0.36857408 0.25790343 0.21714966 -0.2811968 -0.16258964 0.218783 0.18364584 -0.07129637
-0.2935015 0.35817096 -0.10746729 0.3695226 -0.21698658 0.31833088 0.16932443 -0.26193288
0.2681802 0.5217567 -0.15832227 0.29915547 0.06232314 0.2670998 0.21188794 0.18400072
0.052702546 -0.31884718 -0.07587466 -0.1603507 -0.3595358 -0.34915894 0.31879964 -0.12669629
0.15743798 0.27448398 -0.12484349 0.34640765 0.016489573 0.32721752 -0.30652297 -0.34947458
0.099134654 -0.30586386 -0.076351464 0.07085546 0.14344528 0.25971764 -0.111104004 0.2492168
-0.13614933 -0.32407895 -0.26523536 0.40016165 0.23754698 0.3329601 -0.25249675 0.3925659
-0.20116766 0.10728656 0.36185706 -0.07562335 -0.26448408 -0.21158548 0.27980977 0.025388047
-0.1211876 -0.2928116 -0.3111893 0.2934902 -0.19093789 -0.15847246 -0.33802596 0.13930754
-0.057621084 0.1591335 -0.3693715 -0.351006 -0.27298105 -0.4011188 -0.30814764 -0.07713755
0.35800627 0.33607647 -0.2923435 -0.34474534 0.3028401 0.1142708 -0.4065141 0.2442242
0.21274948 0.37115556 0.32187814 0.25885653 -0.3584554 0.27575684 -0.38199046 -0.3645509
-0.34362042 -0.2000443 0.14531437 0.4066807 0.31668574 -0.2699878 -0.36187315 0.23246549
0.08347732 -0.14364637 -0.20956486 0.058528755 0.27660626 -0.29900536 -0.057562485 -0.31741118
0.071541436 -0.2542135 -0.26040292 0.29966983 -0.2521284 -0.44756818 0.30832687 -0.24590331
-0.0937018 -0.21117485 -0.3537583 -0.16845731 0.018346958 0.1529493 0.14812247 0.3072015
0.34062573 0.33620346 -0.35431173 0.07053762 -0.16072968 -0.31772682 0.27359042 -0.38610515
-0.10950898 -0.16544732 0.30582127 0.27318308 -0.019634914 0.31893975 0.102778845 0.0028751423
-0.3251212 -0.3014094 0.21126698 -0.1919093 0.13301653 0.31241307 0.297462 -0.24705666
-0.17706409 -0.32776207 0.2976213 -0.40217587 0.14740117 -0.050665703 -0.34518445 0.07464152
0.1711553 0.19751419 -0.09886157 0.084621266 0.092305884 0.18001679 0.3476798 -0.4209775

bias f4 [2]
00000000: 0068 afbd 34a4 bb3c
-0.08564758 0.022905447

weight f4 [2, 100]
00000000: c4a1 0d3e d6da 713d e68d 54bc 4df9 7d3c
00000010: 6135 13be babd bd3b 5fcc 5dbd e374 983d
00000020: 7931 023e 19ec 7ebd 74eb c03d a459 e5bc
00000030: b094 003e c307 673d f4e7 e53d 5d18 1bbd
00000040: 9462 cabd 0994 b2bd b139 19bd 4d9f d8bd
00000050: c2c9 a2bd 6d0e 083c caca d33c fdf7 c4bd
00000060: 2669 d53c aed0 143e 5694 17be 51b1 073e
00000070: 8629 cd3c 5425 5d3d 4d5c d9bd 43f0 b33d
00000080: 5b94 00bd b7db 863d f23c 4abd 2d7b 61bd
00000090: c892 45bd bf7e a83d 5678 133e 6eb8 14be
000000a0: 847a 06be 01e6 503d 6872 4c3c 40b8 54bd
000000b0: 9cb7 a3bd 442d 34bc f510 173d 0fbd 1fbe
000000c0: 2528 c53c f0cb 0dbe 9d03 06be aa88 b83c
000000d0: 2fd5 0f3e af34 ea3d af31 e6bd e631 a3bd
000000e0: af88 d9bd 1101 023e ee91 15be 1027 993d
000000f0: 8d38 7ebd 4820 e5bb 6d76 11be bacb f0bd
00000100: aebf b73c dee8 6bbd 87d6 e6bd 8421 abbc
00000110: 72d6 5c3d f7ef 113e b9d9 3cbe 2379 20bd
00000120: 5df0 e43d ce35 d33d c26b 59bc 961f 173e
00000130: b329 9e3d 5ae9 f43d 1c01 8ebd 64b4 a93d
00000140: df27 4d3d 593d b6bd 209f 0e3c 4302 813d
00000150: 9b5a 10be 11de ef3d 4ccd ef3d d16b 31be
00000160: 3c8c eabd 85ff a33d 8445 f6bd c4c8 063e
00000170: f80e 85bd 5502 65bd f1bb 893d 1e2e 04be
00000180: ad5c fe3d 606d 193e 8c57 193e 55c2 9cbd
00000190: 2f60 91bd 9f81 21bc 793b 04be 0a7f f43d
000001a0: c5cb fa3d a7aa ba3d 8601 343d e3fa 333d
000001b0: faa3 c3bd 2a16 ec3d 6680 d4bd 4b5a 4d3d
000001c0: acce 5ebb dfef 173d 5ae9 c8bd a8a2 a4bd
000001d0: 357c f83c b427 f93c 2488 fdbc 250c 033e
000001e0: 47be c8bb f1d0 c6ba 2194 733d 1471 dd3d
000001f0: 8bd4 303c 7dad e1bd 6f20 4dbc 473f 8bbd
00000200: 553d 0a3d 3075 0bbe 0f52 3abd 6fe0 81bd
00000210: 0bcd 41ba 8624 893d bc16 c5bd 019c 563d
00000220: ce6d f43d 47ec 90bd 726a a4bd 8ef8 8fbd
00000230: fdad b6b9 8ef6 8dbc 036d cbbd 59ad 873d
00000240: b57e 1b3e 728d 803d 23e9 ebbd 1cc9 d03d
00000250: 3bdc 1ebd dfbc 1b3d 4d1f eb3c 0746 8dbc
00000260: 8c71 0fbe 6e78 00be ccd2 c3bd aa76 a63d
00000270: 9d10 d53d 229d 08bd 7b7e df3d 0531 dbbd
00000280: 2c70 cfbd 9769 2f3d e08c b2bd b240 583d
00000290: 8a9a c83d f3f7 cd3d 506f 0e3d da1b 91bb
000002a0: c8f8 0b3e cd38 193d c84b a23c a21f 4a3d
000002b0: 2819 abbd 6620 9f3d 2ce6 093e aa00 c9bd
000002c0: ea9f 91bd bc28 16be f096 f23d bff3 afbd
000002d0: 8d6b 7bbd 6882 563d 5c9b bdbd 3849 c53c
000002e0: 9be2 31bc 1c08 89bd 4652 0c3c 8c0c 1e3c
000002f0: 7b1a e8bc e58a 43bd 9c1d 05be 2855 babd
00000300: e0be 493d ec4a 5c3d abaa 97bd 6d4a 323d
00000310: 33ea f83b 3aaa aebd 673f b9bd 3957 c0bb
0.1383124 0.05904659 -0.012973284 0.0155013325 -0.14375831 0.0057904394 -0.05414998 0.07444169
0.12714185 -0.06223688 0.09419909 -0.027996846 0.1255672 0.056403887 0.11225882 -0.03786503
-0.098820835 -0.08719642 -0.037408534 -0.10577259 -0.079486385 0.008304221 0.025853533 -0.096176125
0.026051115 0.1453273 -0.1480268 0.13251235 0.025044214 0.053990677 -0.10613308 0.08786061
-0.031391483 0.06584876 -0.04937453 -0.05504911 -0.048235685 0.082273 0.14401373 -0.1452348
-0.13132674 0.0510006 0.012478448 -0.051933527 -0.07994005 -0.01099712 0.036881406 -0.15599464
0.024066994 -0.13847327 -0.13087316 0.022526104 0.14046167 0.1143583 -0.11239945 -0.07968502
-0.106217735 0.1269572 -0.14606449 0.07478154 -0.06206565 -0.0069923736 -0.14205332 -0.11757608
0.022430267 -0.057595126 -0.112713866 -0.020890005 0.05391545 0.14251696 -0.1844243 -0.039178025
0.11178658 0.10312997 -0.01327032 0.14758143 0.07722797 0.11958571 -0.06933805 0.0828636
0.050086852 -0.0889842 0.008704931 0.062992595 -0.14097063 0.11712278 0.11709079 -0.17326285
-0.11452529 0.08007721 -0.12024978 0.13162524 -0.06496996 -0.055910427 0.067253 -0.12908217
0.1242002 0.1498313 0.14974803 -0.076542534 -0.07098424 -0.009857564 -0.12913312 0.11938293
0.12245897 0.091145806 0.043946765 0.043940436 -0.095527604 0.11527665 -0.103760526 0.05013494
-0.0033997698 0.037093993 -0.09810133 -0.08038837 0.030332664 0.03041444 -0.030948706 0.12797602
-0.0061261985 -0.001516847 0.05946744 0.108125836 0.010792862 -0.110194184 -0.01251994 -0.067991786
0.033749897 -0.13618922 -0.045488413 -0.063416354 -0.00073929195 0.066964194 -0.09623477 0.05239487
0.11935006 -0.07076316 -0.08028115 -0.0702983 -0.00034843376 -0.01732948 -0.09932902 0.0662486
0.15185054 0.062769786 -0.11519077 0.101946086 -0.038784247 0.03802192 0.028701449 -0.017245306
-0.14008158 -0.1254594 -0.09561691 0.08128102 0.10403559 -0.03335298 0.10912796 -0.10702709
-0.10128817 0.042825308 -0.08718276 0.052796073 0.09795101 0.10057058 0.034774125 -0.004428369
0.13669121 0.037407685 0.019811526 0.049346574 -0.083544075 0.077698514 0.1346671 -0.0981458
-0.07110579 -0.14663976 0.11845195 -0.08591413 -0.061381865 0.05237046 -0.09258148 0.024082765
-0.01085725 -0.06691 0.008564537 0.009646546 -0.02833294 -0.047739882 -0.12999576 -0.090982735
0.0492543 0.05378239 -0.07405599 0.04352801 0.007596278 -0.08528562 -0.09045296 -0.0058697728

bias f4 [2]
00000000: 7db1 a13d 0134 c33c
0.07895181 0.023828508

amplitudes f4 [10000, 2]
00000000: 07e4 003a 2897 e4bf 07e4 003a 2897 e4bf
00000010: 07e4 003a 2897 e4bf 07e4 003a 2897 e4bf
00000020: 07e4 003a 2897 e4bf 07e4 003a 2897 e4bf
00000030: 07e4 003a 2897 e4bf 07e4 003a 2897 e4bf
00000040: 07e4 003a 2897 e4bf 07e4 003a 2897 e4bf
00000050: 07e4 003a 2897 e4bf 07e4 003a 2897 e4bf
00000060: 07e4 003a 2897 e4bf 07e4 003a 2897 e4bf
00000070: 07e4 003a 2897 e4bf 07e4 003a 2897 e4bf
00000080: 07e4 003a 2897 e4bf 07e4 003a 2897 e4bf
00000090: 07e4 003a 2897 e4bf 07e4 003a 2897 e4bf
000000a0: 07e4 003a 2897 e4bf 07e4 003a 2897 e4bf
000000b0: 07e4 003a 2897 e4bf 07e4 003a 2897 e4bf
000000c0: 07e4 003a 2897 e4bf 07e4 003a 2897 e4bf
000000d0: 07e4 003a 2897 e4bf 07e4 003a 2897 e4bf
000000e0: 07e4 003a 2897 e4bf 07e4 003a 2897 e4bf
000000f0: 07e4 003a 2897 e4bf 07e4 003a 2897 e4bf
00000100: 07e4 003a 2897 e4bf 07e4 003a 2897 e4bf
00000110: 07e4 003a 2897 e4bf 07e4 003a 2897 e4bf
00000120: 07e4 003a 2897 e4bf 07e4 003a 2897 e4bf
00000130: 07e4 003a 2897 e4bf 07e4 003a 2897 e4bf
00000140: 07e4 003a 2897 e4bf 07e4 003a 2897 e4bf
00000150: 07e4 003a 2897 e4bf 07e4 003a 2897 e4bf
00000160: 07e4 003a 2897 e4bf 07e4 003a 2897 e4bf
00000170: 07e4 003a 2897 e4bf 07e4 003a 2897 e4bf
00000180: 07e4 003a 2897 e4bf 07e4 003a 2897 e4bf
00000190: 07e4 003a 2897 e4bf 07e4 003a 2897 e4bf
000001a0: 07e4 003a 2897 e4bf 07e4 003a 2897 e4bf
000001b0: 07e4 003a 2897 e4bf 07e4 003a 2897 e4bf
000001c0: 07e4 003a 2897 e4bf 07e4 003a 2897 e4bf
000001d0: 07e4 003a 2897 e4bf 07e4 003a 2897 e4bf
000001e0: 07e4 003a 2897 e4bf 07e4 003a 2897 e4bf
000001f0: 07e4 003a 2897 e4bf 07e4 003a 2897 e4bf
00000200: 07e4 003a 2897 e4bf 07e4 003a 2897 e4bf
00000210: 07e4 003a 2897 e4bf 07e4 003a 2897 e4bf
00000220: 07e4 003a 2897 e4bf 07e4 003a 2897 e4bf
00000230: 07e4 003a 2897 e4bf 07e4 003a 2897 e4bf
00000240: 07e4 003a 2897 e4bf 07e4 003a 2897 e4bf
00000250: 07e4 003a 2897 e4bf 07e4 003a 2897 e4bf
00000260: 07e4 003a 2897 e4bf 07e4 003a 2897 e4bf
00000270: 07e4 003a 2897 e4bf 07e4 003a 2897 e4bf
00000280: 07e4 003a 2897 e4bf 07e4 003a 2897 e4bf
00000290: 07e4 003a 2897 e4bf 07e4 003a 2897 e4bf
000002a0: 07e4 003a 2897 e4bf 07e4 003a 2897 e4bf
000002b0: 07e4 003a 2897 e4bf 07e4 003a 2897 e4bf
000002c0: 07e4 003a 2897 e4bf 07e4 003a 2897 e4bf
000002d0: 07e4 003a 2897 e4bf 07e4 003a 2897 e4bf
000002e0: 07e4 003a 2897 e4bf 07e4 003a 2897 e4bf
000002f0: 07e4 003a 2897 e4bf 07e4 003a 2897 e4bf
00000300: 07e4 003a 2897 e4bf 07e4 003a 2897 e4bf
00000310: 07e4 003a 2897 e4bf 07e4 003a 2897 e4bf
00000320: 07e4 003a 2897 e4bf 07e4 003a 2897 e4bf
00000330: 07e4 003a 2897 e4bf 07e4 003a 2897 e4bf
00000340: 07e4 003a 2897 e4bf 07e4 003a 2897 e4bf
00000350: 07e4 003a 2897 e4bf 07e4 003a 2897 e4bf
00000360: 07e4 003a 2897 e4bf 07e4 003a 2897 e4bf
00000370: 07e4 003a 2897 e4bf 07e4 003a 2897 e4bf
00000380: 07e4 003a 2897 e4bf 07e4 003a 2897 e4bf
00000390: 07e4 003a 2897 e4bf 07e4 003a 2897 e4bf
000003a0: 07e4 003a 2897 e4bf 07e4 003a 2897 e4bf
000003b0: 07e4 003a 2897 e4bf 07e4 003a 2897 e4bf
000003c0: 07e4 003a 2897 e4bf 07e4 003a 2897 e4bf
000003d0: 07e4 003a 2897 e4bf 07e4 003a 2897 e4bf
000003e0: 07e4 003a 2897 e4bf 07e4 003a 2897 e4bf
000003f0: 07e4 003a 2897 e4bf 07e4 003a 2897 e4bf
0.0004916791 -1.7858629 0.0004916791 -1.7858629 0.0004916791 -1.7858629 0.0004916791 -1.7858629
0.0004916791 -1.7858629 0.0004916791 -1.7858629 0.0004916791 -1.7858629 0.0004916791 -1.7858629
0.0004916791 -1.7858629 0.0004916791 -1.7858629 0.0004916791 -1.7858629 0.0004916791 -1.7858629
0.0004916791 -1.7858629 0.0004916791 -1.7858629 0.0004916791 -1.7858629 0.0004916791 -1.7858629
0.0004916791 -1.7858629 0.0004916791 -1.7858629 0.0004916791 -1.7858629 0.0004916791 -1.7858629
0.0004916791 -1.7858629 0.0004916791 -1.7858629 0.0004916791 -1.7858629 0.0004916791 -1.7858629
0.0004916791 -1.7858629 0.0004916791 -1.7858629 0.0004916791 -1.7858629 0.0004916791 -1.7858629
0.0004916791 -1.7858629 0.0004916791 -1.7858629 0.0004916791 -1.7858629 0.0004916791 -1.7858629
0.0004916791 -1.7858629 0.0004916791 -1.7858629 0.0004916791 -1.7858629 0.0004916791 -1.7858629
0.0004916791 -1.7858629 0.0004916791 -1.7858629 0.0004916791 -1.7858629 0.0004916791 -1.7858629
0.0004916791 -1.7858629 0.0004916791 -1.7858629 0.0004916791 -1.7858629 0.0004916791 -1.7858629
0.0004916791 -1.7858629 0.0004916791 -1.7858629 0.0004916791 -1.7858629 0.0004916791 -1.7858629
0.0004916791 -1.7858629 0.0004916791 -1.7858629 0.0004916791 -1.7858629 0.0004916791 -1.7858629
0.0004916791 -1.7858629 0.0004916791 -1.7858629 0.0004916791 -1.7858629 0.0004916791 -1.7858629
0.0004916791 -1.7858629 0.0004916791 -1.7858629 0.0004916791 -1.7858629 0.0004916791 -1.7858629
0.0004916791 -1.7858629 0.0004916791 -1.7858629 0.0004916791 -1.7858629 0.0004916791 -1.7858629
0.0004916791 -1.7858629 0.0004916791 -1.7858629 0.0004916791 -1.7858629 0.0004916791 -1.7858629
0.0004916791 -1.7858629 0.0004916791 -1.7858629 0.0004916791 -1.7858629 0.0004916791 -1.7858629
0.0004916791 -1.7858629 0.0004916791 -1.7858629 0.0004916791 -1.7858629 0.0004916791 -1.7858629
0.0004916791 -1.7858629 0.0004916791 -1.7858629 0.0004916791 -1.7858629 0.0004916791 -1.7858629
0.0004916791 -1.7858629 0.0004916791 -1.7858629 0.0004916791 -1.7858629 0.0004916791 -1.7858629
0.0004916791 -1.7858629 0.0004916791 -1.7858629 0.0004916791 -1.7858629 0.0004916791 -1.7858629
0.0004916791 -1.7858629 0.0004916791 -1.7858629 0.0004916791 -1.7858629 0.0004916791 -1.7858629
0.0004916791 -1.7858629 0.0004916791 -1.7858629 0.0004916791 -1.7858629 0.0004916791 -1.7858629
0.0004916791 -1.7858629 0.0004916791 -1.7858629 0.0004916791 -1.7858629 0.0004916791 -1.7858629
0.0004916791 -1.7858629 0.0004916791 -1.7858629 0.0004916791 -1.7858629 0.0004916791 -1.7858629
0.0004916791 -1.7858629 0.0004916791 -1.7858629 0.0004916791 -1.7858629 0.0004916791 -1.7858629
0.0004916791 -1.7858629 0.0004916791 -1.7858629 0.0004916791 -1.7858629 0.0004916791 -1.7858629
0.0004916791 -1.7858629 0.0004916791 -1.7858629 0.0004916791 -1.7858629 0.0004916791 -1.7858629
0.0004916791 -1.7858629 0.0004916791 -1.7858629 0.0004916791 -1.7858629 0.0004916791 -1.7858629
0.0004916791 -1.7858629 0.0004916791 -1.7858629 0.0004916791 -1.7858629 0.0004916791 -1.7858629
0.0004916791 -1.7858629 0.0004916791 -1.7858629 0.0004916791 -1.7858629 0.0004916791 -1.7858629
